Autoencoder-on-MNIST-in-Pytorch/tr_model.pt (torch, 561729 bytes, 11 tensors)

encoder.0.weight f4 [6, 1, 5, 5]
0.07374819 -0.07058843 -0.041350495 -0.0423587 0.05414007 -0.07900021 0.076988585 0.089050755
0.041906025 -0.12974067 0.1370278 -0.1129695 -0.06088008 0.059681863 0.11972593 0.2963484
0.096860744 0.012380038 -0.105214365 -0.05403396 0.43522483 0.3629669 0.106824145 0.06694567
0.19699274 0.2082393 0.18154 0.060083788 -0.29433718 0.016501753 0.16209088 0.3440502
0.13223433 0.04928745 -0.13548002 -0.009844034 0.2687544 0.024945674 -0.0012376533 -0.05045415
-0.041882675 0.088353336 -0.016000906 -0.08645878 -0.027469786 0.11883943 0.011311572 -0.124310285
0.12504373 -0.13983253 0.25469765 0.07399813 0.0071876794 0.027835933 0.21143344 0.020377228
-0.0044159717 0.035541847 0.07853994 0.22391155 0.063449554 0.14028507 -0.12294022 -0.08153898
0.11440753 -0.041113712 0.05032674 0.07852406 0.07402667 0.13201235 0.0770327 0.06547571
0.105465814 0.18938951 -0.097660914 0.124401614 0.18035923 0.10862965 -0.021013679 0.20361008
-0.049152672 -0.077922866 0.21298257 0.074492365 0.19216233 0.014801306 0.13470176 -0.013211822
0.21167071 0.29457715 -0.33245748 -0.26253846 -0.17923608 -0.13316396 0.275603 -0.32996562
-0.18277863 -0.38860655 -0.049589254 0.004134328 0.06253049 0.09086486 0.097070806 0.30328506
0.2646473 0.10302285 0.21435538 0.15725815 -0.0011308319 -0.114139125 0.09096641 0.2554319
-0.19140828 -0.19647224 -0.32412142 -0.009717884 -0.09701319 -0.055755943 -0.30427462 -0.006902737
0.25178927 0.08011601 -0.32124594 -0.16680881 -0.051328074 -0.23494326 -0.06770667 -0.022872252
-0.09327306 0.113038294 -0.13535845 0.100235485 0.12098279 0.17718266 0.1983118 -0.020421952
0.16276725 0.16310784 0.24297795 0.00352576 -0.055218037 -0.15305245 0.1986222 -0.10168663
0.087039635 0.008453948 0.06196093 -0.14503756 0.087382704 0.024557032
00000000: 4b09 973d ab90 90bd 235f 29bd 5180 2dbd
00000010: fac1 5d3d ddca a1bd 31ac 9d3d 3e60 b63d
00000020: a7a5 2b3d bdda 04be 0451 0c3e 8e5c e7bd
00000030: 645d 79bd f874 743d de32 f53d faba 973e
00000040: ed5e c63d a5d5 4a3c a17a d7bd b752 5dbd
00000050: cad5 de3e ccd6 b93e 9ec6 da3d d01a 893d
00000060: 77b8 493e af3c 553e 9fe5 393e 6b1a 763d
00000070: 5db3 96be af2e 873c 27fb 253e 5927 b03e
00000080: 7068 073e a3e1 493d 46bb 0abe df48 21bc
00000090: 2d9a 893e df5a cc3c c138 a2ba 03a9 4ebd
000000a0: 2b8d 2bbd 98f2 b43d 5514 83bc 4d11 b1bd
000000b0: 5108 e1bc 1662 f33d 2c54 393c 6496 febd
000000c0: 770b 003e 4230 0fbe bb67 823e 558c 973d
000000d0: a086 eb3b 2f08 e43c 0282 583e 25ee a63c
000000e0: dbb3 90bb 5494 113d 8cd9 a03d 1249 653e
000000f0: d7f1 813d e4a6 0f3e 15c8 fbbd e9fd a6bd
00000100: 7f4e ea3d da66 28bd 6923 4e3d 39d1 a03d
00000110: 4b9b 973d 3f2e 073e 52c3 9d3d 2118 863d
00000120: 76fe d73d 53ef 413e 7202 c8bd 46c6 fe3d
00000130: 17b0 383e 3979 de3d e124 acbc 297f 503e
00000140: 5054 49bd 0696 9fbd 1a18 5a3e 748f 983d
00000150: 34c6 443e 2d81 723c 42ef 093e 6676 58bc
00000160: 35c0 583e d1d2 963e de37 aabe 716b 86be
00000170: aa89 37be 225c 08be d61b 8d3e 41f1 a8be
00000180: 522a 3bbe 70f7 c6be 1a1e 4bbd 4279 873b
00000190: fc0f 803d 5b17 ba3d 0fcd c63d 2e48 9b3e
000001a0: da7f 873e a5fd d23d fa7f 5b3e 4808 213e
000001b0: 6c38 94ba c6c1 e9bd 994c ba3d f8c7 823e
000001c0: 8800 44be 0530 49be 3ef3 a5be c237 1fbc
000001d0: daae c6bd 5860 64bd e2c9 9bbe 5b30 e2bb
000001e0: 86ea 803e dd13 a43d 597a a4be eecf 2abe
000001f0: 633d 52bd f794 70be cba9 8abd 975e bbbc
00000200: f205 bfbd 9f80 e73d 689b 0abe 4348 cd3d
00000210: d3c5 f73d 5f6f 353e 4012 4b3e f04b a7bc
00000220: 75ac 263e be05 273e 36cf 783e 7010 673b
00000230: 4f2c 62bd c8b9 1cbe 9e63 4b3e 1441 d0bd
00000240: d641 b23d 6e82 0a3c beca 7d3d ba84 14be
00000250: b4f5 b23d d42b c93c

encoder.0.bias f4 [6]
-0.058575388 0.34519187 -0.35222384 0.060036704 0.12906346 0.28687915
00000000: bfec 6fbd fdbc b03e af56 b4be 0ce9 753d
00000010: 3629 043e d3e1 923e

encoder.2.weight f4 [16, 6, 5, 5]
-0.051519506 -0.085393354 -0.0034636338 0.13303757 -0.022980396 0.01717214 -0.097155154 0.035923906
0.020892326 -0.16286865 -0.071709685 -0.046005074 -0.08423724 -0.0919114 -0.21120104 -0.018798701
0.0054540746 -0.0052540833 -0.025894595 -0.056794483 -0.094867595 -0.02510398 0.01266826 -0.01938596
0.022016859 0.006705449 -0.04273941 0.104921706 0.14851676 0.15467875 0.13704859 0.062054854
0.06652315 0.07191276 0.059393223 0.0662742 0.077784866 0.08185903 0.064078115 -0.017194673
0.112206005 0.06759372 0.022020794 -0.085053004 -0.037676968 -0.023709007 0.015909817 0.06271459
-0.20483574 -0.08638112 0.07871506 -0.029840993 -0.007202174 -0.12122919 -0.14201637 0.060432166
-0.043205086 -0.06253601 -0.18399794 -0.1758261 -0.056447078 -0.12644596 -0.21080278 -0.19856934
-0.16636424 -0.16853444 -0.13113591 -0.074152604 -0.06938321 -0.063532025 -0.13211565 -0.08453219
-0.029133663 0.010461651 -0.07352823 -0.032197695 0.0046652975 -0.053441577 -0.08490912 -0.14345033
-0.121726274 -0.02526232 -0.09388027 -0.055748723 -0.050074346 -0.17899789 -0.09708169 -0.041665867
-0.07552091 -0.07476785 -0.14616463 -0.06595903 -0.015176616 -0.054350033 -0.0787166 -0.24153033
-0.10366998 -0.11848389 -0.07218792 -0.13985313 0.20276599 0.106284596 0.093898065 0.086117335
0.06509228 0.039383903 0.016385563 0.10425439 0.027143031 0.042123314 0.14604367 0.0579713
0.121677294 0.012155401 0.003819908 0.066944025 0.053612452 0.102153316 -0.071261585 -0.046775337
0.030464586 -0.0035131637 -0.019974086 -0.2752945 -0.13905384 0.10097974 0.11043505 0.024814174
-0.035922945 -0.13800572 -0.0107365325 0.05721132 0.12465672 0.0703914 -0.16788124 0.061532255
0.086864084 0.10752996 0.059737038 -0.19151664 0.05876019 0.030400677 0.063097924 -0.12261286
-0.29132065 -0.011519761 0.012919508 -0.1294117 -0.18721385 -0.18812607 0.025878886 0.07320636
-0.019211723 0.03548033 0.050107658 -0.00906342 -0.050298326 0.035597466 0.05098064 -0.013565702
0.014207092 0.05976943 0.048591156 0.09126614 0.074789494 0.09625677 0.022846902 0.012620276
-0.07832639 -0.033585545 0.017810924 -0.10191605 -0.09005254 -0.12051548 -0.05454791 0.019877171
-0.0012376148 -0.082517 -0.06056273 -0.05087557 0.018651117 0.05721041 -0.04647281 -0.03761348
-0.0249613 0.03887785 0.06428106 0.042132806 0.030574558 0.058213994 -0.049215067 -0.009663666
-0.04767579 -0.10413374 -0.02539283 0.044424556 -0.094134495 0.008370198 -0.032851156 -0.05834361
-0.088339224 -0.032101996 -0.013517771 -0.050594203 -0.06828785 0.0060839327 0.007225925 -0.032588612
-0.023960963 -0.054636337 -0.00019120693 0.03771387 0.099675305 0.060624585 0.013075559 0.028034003
0.1034548 0.100951895 -0.005496474 -0.08310768 -0.062266782 -0.06936788 -0.009086116 -0.1291215
-0.088880315 -0.119043574 -0.09490813 -0.11485065 -0.024813784 -0.045987733 -0.062870525 -0.0026213794
0.007424364 -0.060841344 -0.02118696 -0.009841559 -0.031837147 0.008465802 -0.0071346527 0.026994018
0.002353385 -0.02039095 0.03197557 0.053675327 0.07204659 0.024293274 0.10895892 0.08199764
0.039397303 0.023386559 0.014061019 0.03545113 -0.048325565 -0.1877399 -0.12785582 -0.06532961
00000000: 1e06 53bd b6e2 aebd 22fe 62bb 003b 083e
00000010: 6241 bcbc 96ac 8c3c 48f9 c6bd f224 133d
00000020: 6226 ab3c 0ac7 26be 87dc 92bd d16f 3cbd
00000030: 9384 acbd 0b3c bcbd 1645 58be bcff 99bc
00000040: 18b8 b23b 722a acbb e720 d4bc 55a1 68bd
00000050: f149 c2bd dda6 cdbc 898e 4f3c 4ecf 9ebc
00000060: b35c b43c 62b9 db3b 850f 2fbd 31e1 d63d
00000070: c714 183e 1b64 1e3e 7756 0c3e 3b2d 7e3d
00000080: 4a3d 883d ff46 933d 4f46 733d c5ba 873d
00000090: ac4d 9f3d b5a5 a73d 633b 833d d8db 8cbc
000000a0: 43cc e53d 946e 8a3d f464 b43c 4530 aebd
000000b0: 2a53 1abd 6439 c2bc 4e55 823c 8270 803d
000000c0: 76c0 51be 96e8 b0bd 5d35 a13d 1975 f4bc
000000d0: 3700 ecbb 0247 f8bd bd6c 11be b887 773d
000000e0: d1f7 30bd e112 80bd f569 3cbe c20b 34be
000000f0: 0d35 67bd 0d7b 01be afdc 57be c355 4bbe
00000100: 635b 2abe 4b94 2cbe 7e48 06be 52dd 97bd
00000110: c918 8ebd 141d 82bd 5349 07be 361f adbd
00000120: b8a9 eebc 5867 2b3c f895 96bd bbe1 03bd
00000130: 5adf 983b 8ee5 5abd d5e4 adbd a5e4 12be
00000140: a04b f9bd edf2 cebc 4d44 c0bd c658 64bd
00000150: c21a 4dbd 394b 37be c4d2 c6bd d4a9 2abd
00000160: b5aa 9abd e31f 99bd 2eac 15be 8715 87bd
00000170: 57a7 78bc 249e 5ebd 2b36 a1bd ba53 77be
00000180: ed50 d4bd afa7 f2bd 43d7 93bd a935 0fbe
00000190: e3a1 4f3e bdab d93d a14d c03d 495e b03d
000001a0: 1a4f 853d 0451 213d 043b 863c 5383 d53d
000001b0: 105b de3c 7f89 2c3d 798c 153e 5073 6d3d
000001c0: f231 f93d 7227 473c 6c57 7a3b f319 893d
000001d0: bb98 5b3d c235 d13d 98f1 91bd 7f97 3fbd
000001e0: de90 f93c 1b3d 66bb b2a0 a3bc 67f3 8cbe
000001f0: 2164 0ebe 77ce ce3d c62b e23d 1847 cb3c
00000200: f023 13bd 5f51 0dbe 48e8 2fbc 6b56 6a3d
00000210: 064c ff3d 5e29 903d 0fe9 2bbe 3f09 7c3d
00000220: cce5 b13d ab38 dc3d d3ae 743d f01c 44be
00000230: 86ae 703d d70a f93c 7c39 813d 731c fbbd
00000240: fb27 95be 61bd 3cbc 58ac 533c 8084 04be
00000250: fdb4 3fbe 1fa4 40be f5ff d33c 37ed 953d
00000260: e761 9dbc d353 113d b03d 4d3d bd7e 14bc
00000270: 9e05 4ebd a6ce 113d 13d1 503d ae42 5ebc
00000280: ddc4 683c cad0 743d 8507 473d bee9 ba3d
00000290: 3c2b 993d 4522 c53d 6d29 bb3c 46c5 4e3c
000002a0: 9669 a0bd ff90 09bd 37e8 913c 5db9 d0bd
000002b0: 776d b8bd d2d0 f6bd a16d 5fbd 73d5 a23c
000002c0: 7637 a2ba acfe a8bd a010 78bd e762 50bd
000002d0: 3aca 983c 7655 6a3d 465a 3ebd 9810 1abd
000002e0: a47b ccbc 613e 1f3d caa5 833d 7393 2c3d
000002f0: 7f77 fa3c cc71 6e3d bd95 49bd 5a54 1ebc
00000300: b047 43bd 1244 d5bd a004 d0bc 86f6 353d
00000310: 96c9 c0bd 2823 093c ef8e 06bd b6f9 6ebd
00000320: 32eb b4bd 627d 03bd a479 5dbc de3b 4fbd
00000330: 80da 8bbd ba5b c73b 74c7 ec3b a37b 05bd
00000340: c849 c4bc 5aca 5fbd b87e 48b9 dc79 1a3d
00000350: 9122 cc3d 7c51 783d df3a 563c 91a7 e53c
00000360: 1ce0 d33d debf ce3d c41b b4bb 5c34 aabd
00000370: 740b 7fbd bf10 8ebd efdd 14bc 6d38 04be
00000380: e206 b6bd 1ecd f3bd 325f c2bd d136 ebbd
00000390: 4746 cbbc a25d 3cbd 43c2 80bd 73cb 2bbb
000003a0: 1448 f33b c634 79bd 4790 adbc 7e3e 21bc
000003b0: ab67 02bd 26b4 0a3c cec9 e9bb 8f22 dd3c
000003c0: 403b 1a3b ec0a a7bc d1f8 023d a9da 5b3d
000003d0: 2a8d 933d b002 c73c db25 df3d 61ee a73d
000003e0: 115f 213d 2b95 bf3c 3060 663c 3435 113d
000003f0: 07f1 45bd e33e 40be a3ec 02be 88cb 85bd

encoder.2.bias f4 [16]
0.003895485 -0.18428554 0.1200518 -0.038289327 -0.1757835 0.070052095 -0.09846316 -0.10782383
-0.021810137 -0.071454525 0.28171766 -0.0036206616 -0.08933586 -0.19080439 0.10098476 -0.07622248
00000000: 654b 7f3b 59b5 3cbe b8dd f53d 45d5 1cbd
00000010: 9700 34be 7977 8f3d 0ea7 c9bd bdd2 dcbd
00000020: 2cab b2bc c056 92bd 4c3d 903e 9f48 6dbb
00000030: b8f5 b6bd 3a62 43be 19d1 ce3d 881a 9cbd

encoder.5.weight f4 [10, 6400]
0.001024555 -0.0063175196 -0.0072478293 -0.0053562326 -0.011867725 -0.006149428 -0.008317845 0.009160616
0.028912412 0.06805911 0.053805377 0.036237076 0.018999008 0.02315897 0.04787901 0.06337168
0.048155546 0.045680325 0.019193443 0.036451597 -0.001531817 -0.0020512443 -0.0013206295 -0.0048911064
-0.013175502 -0.0010865581 0.012841058 0.011492098 0.041348778 0.07769568 0.04091763 0.04956142
0.03184075 0.03423501 0.056476645 0.07677971 0.03926937 0.005781991 0.014656525 0.039403092
-0.006010262 0.0051397528 -0.00424213 -0.009037689 -0.01076056 0.017596368 0.046061456 0.050733563
0.0682023 0.10475037 0.059730627 0.05825983 0.06894448 0.025936075 0.08279941 0.03441902
-0.0077701854 -0.0056301723 0.0068323393 0.042683087 -0.0012426083 0.0042075044 -0.0008416629 -0.0061109457
0.019466894 0.06549063 0.10951898 0.12908049 0.14638576 0.13329051 0.112023644 0.10395666
0.06553835 0.029508775 0.01664337 -0.017445019 -0.0036870905 0.0065542697 -0.004553659 0.031096226
0.0051761805 0.014397548 0.017087994 0.037178524 0.08153477 0.14420456 0.13511123 0.15555076
0.15416189 0.11202399 0.0934148 0.08470417 0.06180517 -0.01641252 -0.06632403 -0.03896936
-0.025553476 0.0064411787 0.010119241 0.01895561 0.025298614 0.053291082 0.07141242 0.11730409
0.13513419 0.13750385 0.080800414 0.088876635 0.071339205 0.072760694 0.051981047 0.06537065
0.07185934 -0.044253774 -0.1009665 -0.04502932 -0.037903536 -0.0026242128 0.023956817 0.031599753
0.03733376 0.07383866 0.09173675 0.14305823 0.11176818 0.07113142 0.042780478 0.050951056
0.022423094 0.047714137 0.03045087 0.08794004 -0.004004231 -0.08061294 -0.10259552 -0.06604658
-0.011469006 0.01481551 0.02060396 0.023745365 0.03834765 0.05560612 0.0877214 0.106351465
0.07380291 0.08048447 0.056406137 0.053187277 0.052950975 0.041165207 0.020713244 0.036586575
-0.049911167 -0.07283682 -0.068020225 -0.05343264 0.024098909 0.024027552 0.023415104 0.022137718
0.017868178 0.039015338 0.07168799 0.086404406 0.12274698 0.08211683 0.07380607 0.033945598
0.03290619 0.003528531 -0.0029804911 0.012253109 -0.029538188 -0.06382521 -0.051763635 -0.027240409
0.010301894 0.028361749 0.026997479 0.02348422 0.010873167 0.03192678 0.03635103 0.08944121
0.11408822 0.037569996 0.04862621 0.02745774 0.008605826 -0.014495839 0.008470918 0.032906834
-0.07610448 -0.07605139 -0.0770203 -0.03048007 -0.0032800513 0.0077047558 0.030108057 0.05228356
0.002721408 0.008751762 -0.008157582 0.069142886 0.062133007 0.011462373 -0.0073070517 0.02505799
-0.015629634 -0.029152565 0.01435362 -0.01753158 -0.061924644 -0.10992081 -0.059828132 -0.027928315
-0.0052627446 -0.00010259607 0.032238577 0.040870234 -0.0087065585 -0.031417526 -0.037890546 0.034021668
0.056343194 0.0118677635 0.0077979565 -0.0037540863 -0.013691531 -0.014022016 -0.026549518 -0.050003957
-0.09878331 -0.11145339 -0.042773247 -0.01639842 0.011254004 0.0068362234 0.03762741 0.05613359
-0.012778311 -0.051073153 -0.035780136 0.023695424 0.040820688 0.026918378 0.0102472035 -0.041747063
-0.0050010374 0.026402155 -0.013804628 -0.10843044 -0.12984842 -0.079201415 -0.015859691 0.011609042
00000000: 5c4a 863a 3203 cfbb 337f edbb 5683 afbb
00000010: d970 42bc 2481 c9bb 9247 08bc 6916 163c
00000020: b9d9 ec3c 9362 8b3d 0763 5c3d 546d 143d
00000030: cfa3 9b3c e1b7 bd3c c81c 443d 03c9 813d
00000040: c03e 453d 4b1b 3b3d 913b 9d3c 454e 153d
00000050: 40c7 c8ba 2b6e 06bb f918 adba 9345 a0bb
00000060: 10de 57bc d76a 8eba 4d63 523c 5a49 3c3c
00000070: 565d 293d ea1e 9f3d 3f99 273d ea00 4b3d
00000080: 726b 023d 033a 0c3d 0e54 673d ae3e 9d3d
00000090: ebd8 203d db76 bd3b ec21 703c 2365 213d
000000a0: bbf1 c4bb 5f6b a83b 9101 8bbb d112 14bc
000000b0: 0f4d 30bc 4226 903c f0aa 3c3d ffcd 4f3d
000000c0: a6ad 8b3d 5d87 d63d 1aa8 743d dca1 6e3d
000000d0: c332 8d3d e477 d43c bd92 a93d f5fa 0c3d
000000e0: 0a9d febb 4f7d b8bb d1e1 df3b 76d4 2e3d
000000f0: 04df a2ba 1bdf 893b 0ba3 5cba 543e c8bb
00000100: 0979 9f3c f41f 863d 7d4b e03d ad2d 043e
00000110: 26e6 153e 4f7d 083e a76c e53d 3be7 d43d
00000120: f838 863d 63bc f13c ad57 883c dbe8 8ebc
00000130: 1da3 71bb 33c5 d63b dc36 95bb 83bd fe3c
00000140: f39c a93b b1e3 6b3c 1ffc 8b3c 8248 183d
00000150: b4fb a63d 5caa 133e 995a 0a3e b348 1f3e
00000160: 9ddc 1d3e d56c e53d 4250 bf3d 6179 ad3d
00000170: 6b27 7d3d 8d73 86bc e5d4 87bd 569e 1fbd
00000180: 8655 d1bc 8610 d33b 2ccb 253c cc48 9b3c
00000190: 0a3f cf3c c047 5a3d ad40 923d 203d f03d
000001a0: 9e60 0a3e cfcd 0c3e b07a a53d f404 b63d
000001b0: 4a1a 923d 8f03 953d 14ea 543d 0ce1 853d
000001c0: fd2a 933d 7243 35bd 86c7 cebd aa70 38bd
000001d0: bd40 1bbd fcfa 2bbb 1641 c43c be6e 013d
000001e0: 49eb 183d b938 973d 7ae0 bb3d db7d 123e
000001f0: b7e6 e43d 5aad 913d 953a 2f3d 0eb2 503d
00000200: a3b0 b73c e66f 433d 1a74 f93c e819 b43d
00000210: ed35 83bb 6618 a5bd 9a1d d2bd 6e43 87bd
00000220: 7fe8 3bbc c1bc 723c a3c9 a83c a485 c23c
00000230: 6d12 1d3d 3ec3 633d 47a7 b33d ccce d93d
00000240: fb25 973d 0bd5 a43d 1f0a 673d e7da 593d
00000250: 1fe3 583d d99c 283d d2ae a93c cedb 153d
00000260: a76f 4cbd 782b 95bd 304e 8bbd 2fdc 5abd
00000270: 136b c53c 6ed5 c43c 08d1 bf3c 295a b53c
00000280: 4960 923c 8cce 1f3d 27d1 923d cbf4 b03d
00000290: c562 fb3d de2c a83d a327 973d 8a0a 0b3d
000002a0: a4c8 063d ed3e 673b 5854 43bb 44c1 483c
000002b0: 12fa f1bc cbb6 82bd 1b06 54bd 4727 dfbc
000002c0: 46c9 283c e656 e83c d129 dd3c fb61 c03c
000002d0: 5e25 323c a8c5 023d d1e4 143d f42c b73d
000002e0: 16a7 e93d ffe2 193d 472c 473d 0eef e03c
000002f0: 73ff 0c3c f57f 6dbc 9bc9 0a3c 51c9 063d
00000300: aadc 9bbd d5c0 9bbd d2bc 9dbd 57b1 f9bc
00000310: 21f6 56bb 2d78 fc3b 2ca5 f63c 4927 563d
00000320: a659 323b 8d63 0f3c 61a7 05bc c99a 8d3d
00000330: 2e7f 7e3d adcc 3b3c fe6f efbb 6a46 cd3c
00000340: b809 80bc 5cd1 eebc 722b 6b3c 639e 8fbc
00000350: b2a4 7dbd 291e e1bd 580e 75bd ecc9 e4bc
00000360: 1a73 acbb d828 d7b8 990c 043d 8c67 273d
00000370: f4a5 0ebc aaaf 00bd 1e33 1bbd 4e5a 0b3d
00000380: 1fc8 663d 0271 423c 0086 ff3b 1e07 76bb
00000390: 7152 60bc 99bc 65bc 607e d9bc f3d0 4cbd
000003a0: e74e cabd ad41 e4bd 0033 2fbd fb55 86bc
000003b0: b762 383c 6602 e03b 331f 1a3d 56ec 653d
000003c0: 1f5c 51bc 1532 51bd 318e 12bd e81c c23c
000003d0: 9833 273d ee83 dc3c e3e3 273c f8fe 2abd
000003e0: bedf a3bb 5549 d83c ce2c 62bc c710 debd
000003f0: fcf6 04be 5a34 a2bd 2fec 81bc da33 3e3c

encoder.5.bias f4 [10]
0.023534205 -0.063243166 -0.075992145 -0.059464183 -0.04935489 0.012234782 -0.028371714 -0.0065279747
0.12952219 0.025661869
00000000: ceca c03c a285 81bd c5a1 9bbd b790 73bd
00000010: 5a28 4abd 6574 483c cc6b e8bc 9fe8 d5bb
00000020: 77a1 043e d738 d23c

decoder.0.weight f4 [6400, 10]
-0.00092913036 -0.0039392686 -0.011174175 -0.0005494111 0.0039347727 0.0037576251 -0.00071665575 -0.0018718697
0.0049523083 -0.0016941826 0.014856039 -0.0043661254 -0.028493913 -0.036161996 -0.010933352 -0.06065739
-0.006708048 0.014992874 -0.02423706 0.0030705028 -0.004581106 -0.034327038 -0.021270657 -0.012706492
0.035112906 -0.00137679 -0.009625282 -0.008637936 0.03585042 -0.015339103 -0.008704279 0.072816454
0.00094698335 0.04309743 -0.08637017 -0.25022575 -0.06990279 0.014807467 0.034408607 0.024641851
-0.028921045 -0.052030828 0.020886712 -0.08252692 0.0474644 0.0068631726 -0.08770996 0.056993946
0.06404168 0.0325522 0.08511108 -0.025137855 -0.1280164 -0.052164987 -0.009295092 -0.040094323
0.030437427 -0.05031457 0.0035073115 0.026032299 0.07335542 0.04154712 0.21688586 -0.0027641102
-0.15398733 -0.030533813 0.019867478 0.021491641 -0.03507627 -0.074530184 0.02359789 0.0004363511
-0.08436194 0.028589481 -0.035979934 -0.095624216 0.027220668 -0.062071234 0.1659807 0.05156612
-0.031374097 0.023647992 -0.16558866 -0.056406595 0.04307138 -0.12763755 -0.044667184 0.0624856
0.0125823235 0.08432937 -0.11836363 0.124450944 0.29915944 -0.073350705 -0.00013109109 0.12729147
-0.09099962 0.11260032 0.15532997 -0.060921334 0.08688225 0.13110106 0.08202935 -0.0028883782
-0.07295677 -0.104334645 -0.031248152 -0.08022666 -0.17701297 -0.21321508 0.16787006 -0.01595956
-0.036348388 -0.01964906 0.08221017 0.14004967 -0.19882716 -0.08192201 -0.012886865 0.019285196
0.20533517 -0.014558847 -0.059743468 0.059477683 0.055123884 0.101201005 -0.077534996 -0.06658155
-0.02920326 0.0619404 0.06423045 0.07924672 -0.029421454 -0.0689076 0.016566249 0.01905094
0.07435594 0.08596845 0.09053326 -0.1254445 0.10528408 0.04639033 -0.14174554 -0.10144178
-0.016849373 -0.08854403 -0.090004504 -0.072624 -0.117400825 -0.0025116883 -0.16163303 -0.021600803
0.045313578 -0.010465728 -0.06972052 0.18596017 0.030520417 -0.052544493 -0.13860372 0.05270502
-0.156012 0.11907739 -0.1594762 0.018114347 0.20047243 0.18277861 0.07402125 0.04942433
-0.0882626 -0.11843476 0.04981964 -0.02788701 0.029721368 -0.022943957 0.013532827 -0.016773153
0.019459318 0.0017132505 0.048192535 0.033809185 0.07834632 0.012315951 -0.01588621 -0.028326878
-0.07042424 -0.12434454 -0.026468415 -0.028250044 0.03366013 0.01605624 -0.04657363 0.08729143
-0.1671704 0.09819552 -0.036513437 0.095928 -0.026659809 -0.104607 -0.10338137 -0.09421607
0.04274916 -0.058899403 -0.06688625 0.0018915526 -0.035574123 -0.028572721 0.010450151 -0.027879491
0.006946492 -0.07118621 -0.0071685314 -0.020833809 -0.0440318 -0.030063262 0.048670635 0.00026159355
0.006626208 -0.0027284822 0.0023155375 0.012683376 0.029392328 -0.0034514947 0.19120964 0.08931101
0.013421067 0.0755443 0.050279524 0.007607475 0.12872244 -0.052724063 0.014994409 0.108566605
0.12748909 0.048807554 -0.012759294 -0.028810872 0.04434467 0.05724374 0.10086428 0.081438266
0.16722806 0.15967287 0.22399628 0.02801345 -0.14520706 -0.08191882 0.03696252 0.021893755
0.06775154 -0.007440745 0.034954395 0.09007745 0.19710475 0.038314532 0.0761312 0.012425486
00000000: e290 73ba fb14 81bb e313 37bc 5b06 10ba
00000010: 44ef 803b 7d42 763b f4dd 3bba 8659 f5ba
00000020: f946 a23b 560f deba be66 733c b711 8fbb
00000030: 116c e9bc 9a1e 14bd cd21 33bc e273 78bd
00000040: 2fcf dbbb aca4 753c cd8c c6bc 7d3a 493b
00000050: 1a1d 96bb 829a 0cbd cd3f aebc e42e 50bc
00000060: 8dd2 0f3d 6875 b4ba 5cb3 1dbc 2186 0dbc
00000070: e4d7 123d dc50 7bbc 649c 0ebc cb20 953d
00000080: fa3e 783a ee86 303d d8e2 b0bd 971d 80be
00000090: 3229 8fbd 059b 723c 0af0 0c3d b5dd c93c
000000a0: d4eb ecbc 471e 55bd 9c1a ab3c e003 a9bd
000000b0: 086a 423d 77e4 e03b 48a1 b3bd 7c72 693d
000000c0: 4928 833d 7555 053d b84e ae3d e7ed cdbc
000000d0: bb16 03be f4aa 55bd 714a 18bc f239 24bd
000000e0: e957 f93c a716 4ebd ecda 653b b041 d53c
000000f0: 5e3b 963d 502d 2a3d 5417 5e3e 1326 35bb
00000100: dbae 1dbe 0c22 fabc 1fc1 a23c 3d0f b03c
00000110: 23ac 0fbd 48a3 98bd 5d50 c13c 0ec6 e439
00000120: f4c5 acbd 7d34 ea3c b25f 13bd a1d6 c3bd
00000130: e1fd de3c 683e 7ebd d8f6 293e ff36 533d
00000140: 2082 00bd 6fb9 c13c 1390 29be 9a0a 67bd
00000150: 9e6b 303d 6bb3 02be f0f4 36bd e7f0 7f3d
00000160: 1726 4e3c e0b4 ac3d a168 f2bd 23e0 fe3d
00000170: 6d2b 993e e538 96bd 7f75 09b9 b258 023e
00000180: 025e babd ff9a e63d d20e 1f3e a688 79bd
00000190: 52ef b13d 5b3f 063e 01ff a73d f24a 3dbb
000001a0: 5c6a 95bd 67ad d5bd 20fc ffbc e04d a4bd
000001b0: e342 35be 0e55 5abe 21e6 2b3e a0bd 82bc
000001c0: 0ce2 14bd 11f7 a0bc ce5d a83d 2e69 0f3e
000001d0: 5999 4bbe bac6 a7bd 6e23 53bc fdfb 9d3c
000001e0: 6243 523e 3b88 6ebc 91b5 74bd df9e 733d
000001f0: 95c9 613d 7942 cf3d abca 9ebd e85b 88bd
00000200: ad3b efbc 38b5 7d3d 418b 833d 1b4c a23d
00000210: 4305 f1bc 6e1f 8dbd f1b5 873c b810 9c3c
00000220: ed47 983d 3a10 b03d 8069 b93d 8674 00be
00000230: 2e9f d73d c903 3e3d be25 11be b5c0 cfbd
00000240: b207 8abc 9356 b5bd 4854 b8bd e4bb 94bd
00000250: d86f f0bd 239b 24bb 2183 25be 2bf4 b0bc
00000260: bb9a 393d 7278 2bbc a2c9 8ebd 586c 3e3e
00000270: f405 fa3c e538 57bd 22ee 0dbe 38e1 573d
00000280: 9cc1 1fbe d9de f33d bb4d 23be 8a64 943c
00000290: a548 4d3e 512a 3b3e 7498 973d 2b71 4a3d
000002a0: 06c3 b4bd ec8d f2bd ae0f 4c3d 4c73 e4bc
000002b0: 3a7a f33c f7f4 bbbc cab8 5d3c da67 89bc
000002c0: 2669 9f3c 268f e03a 8965 453d 807b 0a3d
000002d0: 0974 a03d d8c8 493c cc23 82bc c50d e8bc
000002e0: 953a 90bd 5aa8 febd 4ad4 d8bc a36c e7bc
000002f0: 34df 093d 6088 833c fec3 3ebd d9c5 b23d
00000300: b82e 2bbe bc1a c93d 1d8f 15bd e675 c43d
00000310: ac65 dabc 323c d6bd 9db9 d3bd 5bf4 c0bd
00000320: be19 2f3d 8040 71bd a9fb 88bd f9ed f73a
00000330: 2cb6 11bd 5711 eabc 1c37 2b3c 8863 e4bc
00000340: 669f e33b 13ca 91bd 00e6 eabb aaab aabc
00000350: b05a 34bd 3b47 f6bc dc5a 473d 7e26 8939
00000360: a920 d93b 56d0 32bb 46c0 173b efcd 4f3c
00000370: 2ec8 f03c 7932 62bb 76cc 433e b1e8 b63d
00000380: 09e4 5b3c f8b6 9a3d e7f1 4d3d 2048 f93b
00000390: d1cf 033e 30f5 57bd 1cab 753c 2b58 de3d
000003a0: 808c 023e 6eea 473d 5c0c 51bc c704 ecbc
000003b0: c2a2 353d 6978 6a3d ee91 ce3d 1bc9 a63d
000003c0: d53d 2b3e 4981 233e 485f 653e 767c e53c
000003d0: 29b1 14be 0ec5 a7bd 0366 173d 885a b33c
000003e0: 52c1 8a3d 7ed1 f3bb 572c 0f3d 877a b83d
000003f0: d4d5 493e b3ef 1c3d adea 9b3d 4494 4b3c

decoder.0.bias f4 [6400]
2.4319408e-05 -0.00013026182 -0.0016815444 -0.011618127 0.0010020285 -0.0032364626 -0.031727154 -0.02011187
-0.018724265 -0.012519413 -0.012197988 -0.024102122 -0.013740846 -0.0058987476 -0.014982801 -0.038942248
-0.030390467 -0.0027998963 -0.0014126793 -0.009104032 -0.0095384205 -0.0025901543 -0.012498812 -0.02283041
-0.022662299 -0.02525569 -0.013754836 -0.027840985 -0.007235435 -0.006670463 -0.013592355 -0.021972599
-0.009774853 -0.0042857626 -0.009314313 -0.02582374 -0.023211895 -0.001614801 -0.019460099 -0.02107815
-0.0013950691 -0.012451005 -0.0143108545 -0.019431664 -0.0018352392 -0.009720492 -0.01824545 -0.0012248998
0.0016920123 0.013849291 -0.002292232 0.015660802 -0.016206324 -0.01578254 -0.01533096 -0.014103708
-0.015028888 -0.007078553 -0.015113133 -0.017831609 -0.0075397356 -0.017795261 -0.0068503674 -0.0046235663
-0.008079255 0.011233822 -0.009720433 -0.013189509 0.027477441 0.0025847855 0.011817417 -0.0036452976
0.013490772 -0.004441076 -0.00047024392 -0.012375202 -0.010393359 -0.011331328 -0.020919323 -0.0019757957
-0.0023610813 -0.02064402 -0.0033683968 -0.002826677 0.0034863416 0.00043243973 0.009811836 -0.0028368288
-0.0026234507 -0.0065030274 -0.01061571 -0.011960599 -0.0060371514 -0.012489846 -0.008992475 -0.00879495
-0.0075624073 -0.004650198 -0.004119516 -0.00730354 -0.010123985 -0.002777016 -0.007936201 -0.0034762667
-0.0019476427 0.013757658 0.005911466 -0.013367147 -0.013668075 -0.021874731 -0.02087832 -0.023964385
-0.021558981 -0.008456713 -0.016922217 -0.015025236 -0.009360575 -0.014145871 0.009006043 -0.01898737
-0.007654094 -0.004757213 -0.005851643 0.010185995 0.012506168 -0.00094218424 -0.008474307 -0.010202561
-0.023634868 -0.020675998 -0.011169638 -0.017825477 -0.010530322 -0.0061420947 -0.013844092 0.0025056417
-0.0013547228 -0.0067395302 -0.009404517 -0.0043992116 -0.018407632 0.0015097955 0.0033219857 0.0056879437
0.00473429 -0.0030568803 -0.011323741 -0.013226788 -0.026460892 -0.0125784045 -0.011379401 -0.016374452
-0.015477605 -0.0029661697 -0.014428664 -0.0046617226 -0.010969824 -0.010865128 -0.008761767 -0.022477988
-0.01020556 -0.00095516164 -0.0071735983 0.0016278711 -0.008883874 -0.0048856814 -0.016752059 -0.006831694
0.0063203913 0.011148134 0.006246403 0.0006426396 0.0047005424 -0.015128395 0.010022888 0.004438285
-0.007870726 -0.005819764 -0.021083852 -0.005855188 -0.007640866 -0.01112039 -0.005911213 -0.009743552
0.003865438 0.012006956 0.0047661313 0.017133335 0.0082317935 0.014069903 0.00016529695 0.022409808
-0.0010145209 0.011390456 0.009508851 0.0066680955 -0.004196334 -0.013469658 -0.022827994 -0.0077937813
-0.013875938 -0.0050271233 -0.011583813 -0.0053829947 -0.0021165106 0.0017952751 0.010813229 0.011584488
0.022854067 0.011617377 0.016895365 0.015268887 0.0042466316 -0.0074115493 -0.012289955 -0.0025728317
-0.017946422 0.00078312604 -0.0103118215 -0.011382203 -0.00051237596 0.0019009075 -0.00038533934 -0.0030903586
0.0071586333 0.0004951607 -0.0076018902 0.0081461705 0.013865178 0.022311997 0.012053327 -0.004492073
-0.0010153909 -0.011968749 -0.0053793206 -0.010688016 0.0023881607 -0.007017387 -0.0049127843 0.0020816189
-0.0076012486 0.00022998711 -0.0059601017 -0.008830288 -0.020038454 -0.01809643 -0.010225141 -0.01357542
-0.012275819 -0.020312466 0.0018524604 -0.014767916 -0.00038282317 0.006173984 0.0028832916 -0.013532055
00000000: 8801 cc37 e496 08b9 4467 dcba f559 3ebc
00000010: 7f56 833a d51a 54bb 55f4 01bd a6c1 a4bc
00000020: a163 99bc 391e 4dbc 12da 47bc d071 c5bc
00000030: 4921 61bc 484a c1bb 6c7a 75bc e881 1fbd
00000040: 6ef5 f8bc 777e 37bb a729 b9ba 1429 15bc
00000050: 0947 1cbc 94bf 29bb d1c7 4cbc d706 bbbc
00000060: 49a6 b9bc 05e5 cebc f75b 61bc c712 e4bc
00000070: 3a17 edbb e693 dabb 78b2 5ebc e1ff b3bc
00000080: b426 20bc 956f 8cbb 0f9b 18bc 4f8c d3bc
00000090: df26 bebc bba7 d3ba c96a 9fbc 16ac acbc
000000a0: c0da b6ba 4dff 4bbc 1378 6abc 272f 9fbc
000000b0: 698c f0ba b342 1fbc 7b77 95bc d18c a0ba
000000c0: 83c6 dd3a 23e8 623c 4539 16bb 154b 803c
000000d0: 20c3 84bc 634a 81bc b52e 7bbc 3d13 67bc
000000e0: ba3b 76bc 35f3 e7bb 139d 77bc 9813 92bc
000000f0: e30f f7bb 5ec7 91bc 0c79 e0bb 4981 97bb
00000100: da5e 04bc 110e 383c 7342 1fbc cf18 58bc
00000110: 5f18 e13c 8165 293b d79d 413c f2e5 6ebb
00000120: 6608 5d3c 7286 91bb 128b f6b9 5cc1 4abc
00000130: e848 2abc 09a7 39bc 005f abbc 5a7c 01bb
00000140: 5fbc 1abb a61d a9bc 52c0 5cbb c53f 39bb
00000150: 1b7b 643b 14b9 e239 d3c1 203c 17ea 39bb
00000160: 33ee 2bbb 5917 d5bb 84ed 2dbc 63f6 43bc
00000170: 4cd3 c5bb 36a2 4cbc 2d55 13bc b218 10bc
00000180: 12ce f7bb b060 98bb 01fd 86bb 8952 efbb
00000190: 12df 25bc 99fe 35bb d706 02bc 14d2 63bb
000001a0: 0b48 ffba cd67 613c f9b4 c13b e101 5bbc
000001b0: 10f0 5fbc a332 b3bc 0309 abbc f550 c4bc
000001c0: 769c b0bc 068e 0abc 76a0 8abc 682c 76bc
000001d0: 195d 19bc 15c4 67bc 158e 133c 678b 9bbc
000001e0: 32cf fabb 65e2 9bbb 24bf bfbb 29e3 263c
000001f0: ace6 4c3c eafc 76ba d2d7 0abc a428 27bc
00000200: e99d c1bc b660 a9bc db00 37bc bc06 92bc
00000210: 5f87 2cbc a043 c9bb 55d2 62bc b135 243b
00000220: f490 b1ba 47d7 dcbb 6715 1abc 4327 90bb
00000230: 9acb 96bc 55e4 c53a acb5 593b ee61 ba3b
00000240: 1a22 9b3b f155 48bb 3687 39bc 2bb5 58bc
00000250: 83c4 d8bc a715 4ebc ab70 3abc b723 86bc
00000260: c895 7dbc 1264 42bb 3466 6cbc 5dc1 98bb
00000270: c7ba 33bc a603 32bc 848d 0fbc c223 b8bc
00000280: 3935 27bc d063 7aba 8110 ebbb 4a5e d53a
00000290: ab8d 11bc 1118 a0bb 9d3b 89bc 67dc dfbb
000002a0: 491b cf3b aaa6 363c a0ae cc3b d076 283a
000002b0: 0207 9a3b 16dd 77bc 0a37 243c 086f 913b
000002c0: 38f4 00bc b8b3 bebb 0bb8 acbc e0dc bfbb
000002d0: 3b60 fabb 4c32 36bc d9b2 c1bb 6ba3 1fbc
000002e0: 4a53 7d3b d3b8 443c 352d 9c3b 355b 8c3c
000002f0: a5de 063c 7385 663c 9053 2d39 c694 b73c
00000300: acf9 84ba 099f 3a3c 03cb 1b3c 0a80 da3b
00000310: 6781 89bb d7af 5cbc c601 bbbc fa62 ffbb
00000320: e757 63bc 91ba a4bb 08ca 3dbc d563 b0bb
00000330: 28b5 0abb 704f eb3a f829 313c ddcc 3d3c
00000340: 7438 bb3c d056 3e3c 2668 8a3c 5b2a 7a3c
00000350: 5427 8b3b 95dc f2bb cf5b 49bc f49c 28bb
00000360: 6004 93bc b34a 4d3a eaf2 28bc 6b7c 3abc
00000370: f850 06ba df27 f93a 5f07 cab9 9d87 4abb
00000380: f892 ea3b accd 013a 4719 f9bb 8477 053c
00000390: c62a 633c a6c7 b63c 517b 453c 3d32 93bb
000003a0: dd16 85ba 9218 44bc 0345 b0bb ca1c 2fbc
000003b0: b082 1c3b 1cf2 e5bb 6cfb a0bb c56b 083b
000003c0: e513 f9bb b228 7139 f54c c3bb eaac 10bc
000003d0: af27 a4bc f73e 94bc 5a87 27bc 706b 5ebc
000003e0: 8420 49bc 5466 a6bc 42ce f23a 21f5 71bc
000003f0: a8b5 c8b9 224f ca3b 9bf5 3c3b 8db5 5dbc

decoder.3.weight f4 [16, 6, 5, 5]
-0.07865176 0.066139795 -0.09796203 -0.05778008 0.02882205 -0.012097989 0.019036783 0.011886525
0.073999986 -0.0701802 0.06459718 0.02011174 -0.04085587 0.032202426 -0.011851084 0.048434556
-0.013112144 0.092825815 -0.016299067 0.044122815 0.042941928 -0.0067043006 0.034867957 0.03578664
-0.086685985 0.034226365 -0.19515306 -0.035024516 0.033794403 -0.07870745 0.04017976 -0.042560708
-0.101326264 -0.016620751 0.05308049 0.11409296 0.004447813 0.06773351 0.037455898 0.05353912
-0.13827837 -0.101925775 -0.0737707 -0.043287802 -0.09903729 -0.15925997 -0.12565276 0.019268934
0.037241116 -0.1252388 0.11289332 0.031115623 0.02709523 0.03682286 -0.020222085 -0.055127095
0.039845888 -0.021338096 0.09638579 -0.060916454 -0.07325387 0.027928704 -0.14440596 0.036009677
-0.16821924 -0.007170354 -0.07609623 -0.16191016 0.023018176 0.04959599 -0.039230242 -0.022267805
-0.0872226 -0.04140862 -0.034871474 0.07310942 -0.043340985 -0.10753106 -0.02922353 0.003167889
-0.068284325 -0.019365499 -0.13166478 -0.17919706 -0.09536434 0.02827091 -0.029779661 -0.01266804
-0.089923985 -0.043197576 0.046942692 -0.005098462 -0.072196394 -0.08636121 -0.057865772 -0.00025714957
-0.052736197 0.008978451 -0.09392819 0.02788686 -0.04474324 0.031037718 0.05813022 -0.09194517
-0.0264108 -0.013651169 -0.05357115 0.02602838 0.0014854001 -0.07841843 -0.05107209 0.04855134
-0.11713646 0.007913516 -0.025572874 -0.03622455 -0.019521775 -0.059083384 0.016878348 -0.0827764
-0.09303746 0.005801226 0.0029679656 -0.016335838 -0.07603673 0.007259165 -0.0077213435 -0.022704706
-0.027524978 -0.012634488 -0.007197287 -0.014842705 -0.006748399 -0.004801332 -0.010379116 -0.020227559
-0.01251844 -0.037811205 -0.029193433 -0.022406949 -0.07037825 0.039169673 -0.05808784 0.03473259
-0.034874152 -0.07532437 0.00060122006 -0.05300882 -0.048228838 0.07629687 0.037456732 -0.008964043
0.01031911 0.0104401745 0.09536392 0.10171685 0.029053291 0.025883088 0.039443664 -0.047791034
-0.042651497 -0.050705913 -0.030424783 -0.02828316 -0.034600627 0.061616603 -0.066920124 0.050828498
-0.014063424 -0.010607976 -0.015535569 -0.06489295 0.034499075 -0.0477113 0.014098431 0.07913293
0.13270321 -0.186621 0.001176834 -0.11872156 0.06553995 0.04186243 -0.05461084 -0.11722518
-0.012377261 0.14230156 -0.019365054 -0.17360704 -0.15403807 -0.13674942 -0.14270581 0.16694224
-0.10167637 0.04109085 -0.09241021 -0.13768016 -0.08152032 -0.07303969 -0.11031566 0.057911277
-0.031740893 0.02280537 -0.19944172 0.09846974 -0.10131094 0.0951158 0.11740044 -0.020691164
-0.10250416 -0.096795246 -0.068722546 -0.14205323 0.04463974 -0.0072175274 -0.14201784 -0.054528926
0.02490521 0.09404112 0.08639686 -0.09653822 -0.079315804 0.10466993 -0.08472217 -0.028336292
-0.05535059 0.059666242 -0.008708692 0.12175683 -0.01661115 0.029294662 0.040439907 0.011753164
0.07918788 0.0794794 0.05489333 0.15832628 0.046408534 0.06916957 0.109185316 0.0845322
0.04607059 0.10888916 0.0072091157 0.041581377 0.06178152 0.19387527 0.11721986 0.0901281
0.015361053 -0.021993522 0.010080599 0.038194537 -0.056280844 -0.03885702 -0.06830002 -0.058416586
00000000: 2d14 a1bd 4d74 873d 51a0 c8bd ceaa 6cbd
00000010: 381c ec3c a536 46bc 07f3 9b3c b3bf 423c
00000020: 4e8d 973d a3ba 8fbd 874b 843d 60c1 a43c
00000030: 7c58 27bd b1e6 033d 0d2b 42bc 5063 463d
00000040: 51d4 56bc 761b be3d 9f85 85bc 20ba 343d
00000050: e0e3 2f3d c0af dbbb b4d1 0e3d 0395 123d
00000060: 6c88 b1bd f230 0c3d 34d6 47be de75 0fbd
00000070: 006c 0a3d 5f31 a1bd 8893 243d 2354 2ebd
00000080: 2584 cfbd 3e28 88bc ee6a 593d 92a9 e93d
00000090: f6be 913b deb7 8a3d 5b6b 193d d64b 5b3d
000000a0: d898 0dbe 76be d0bd 1815 97bd 8d4e 31bd
000000b0: 10d4 cabd 0c15 23be 1eab 00be e2d9 9d3c
000000c0: 248a 183d 9a3e 00be 9d34 e73d 31e6 fe3c
000000d0: d1f6 dd3c 91d3 163d c9a8 a5bc f3cc 61bd
000000e0: 7135 233d 3bcd aebc ea65 c53d 8883 79bd
000000f0: 2006 96bd bdca e43c 28df 13be e27e 133d
00000100: aa41 2cbe 4af5 eabb 57d8 9bbd c7cb 25be
00000110: 9d90 bc3c 2a25 4b3d e4af 20bd f96a b6bc
00000120: c3a1 b2bd 169c 29bd 64d5 0ebd 64ba 953d
00000130: 5186 31bd 3f39 dcbd 2f66 efbc 5c9c 4f3b
00000140: a7d8 8bbd 65a4 9ebc 22d3 06be 6f7f 37be
00000150: 614e c3bd 6598 e73c 7af4 f3bc 9c8d 4fbc
00000160: 112a b8bd f1ef 30bd fb46 403d 0011 a7bb
00000170: b4db 93bd 25de b0bd a904 6dbd 08d2 86b9
00000180: e901 58bd 5a1a 133c 6c5d c0bd fc72 e43c
00000190: b044 37bd d042 fe3c f419 6e3d c04d bcbd
000001a0: 765b d8bc 27a9 5fbc 6c6d 5bbd 7839 d53c
000001b0: c2b1 c23a d899 a0bd f830 51bd c5dd 463d
000001c0: 3ee5 efbd b1a7 013c 347e d1bc 3260 14bd
000001d0: 21ec 9fbc 6b01 72bd 7644 8a3c ac86 a9bd
000001e0: 6d8a bebd 3618 be3b 3382 423b bcd2 85bc
000001f0: 25b9 9bbd 4ade ed3b 5303 fdbb 38ff b9bc
00000200: 107c e1bc e200 4fbc 38d7 ebbb d12e 73bc
00000210: ad21 ddbb 7e54 9dbb 2b0d 2abc 44b4 a5bc
00000220: 251a 4dbc ecdf 1abd 1127 efbc c78e b7bc
00000230: 7922 90bd 6170 203d 84ed 6dbd c343 0e3d
00000240: 33d8 0ebd aa43 9abd 329b 1d3a c71f 59bd
00000250: 9a8b 45bd 8941 9c3d 3b6c 193d ecdd 12bc
00000260: 7c11 293c 440d 2b3c 294e c33d ed50 d03d
00000270: 2b01 ee3c c508 d43c ae8f 213d 88c0 43bd
00000280: 56b3 2ebd 01b1 4fbd 653d f9bc 16b2 e7bc
00000290: 63b9 0dbd b161 7c3d 6b0d 89bd 8b31 503d
000002a0: 476a 66bc 13cd 2dbc e688 7ebc 98e6 84bd
000002b0: e74e 0d3d ed6c 43bd 1bfd 663c 7210 a23d
000002c0: 5ae3 073e 9319 3fbe ff3f 9a3a 4a24 f3bd
000002d0: cf39 863d f077 2b3d 9eaf 5fbd c113 f0bd
000002e0: ffc9 4abc 80b7 113e 76a3 9ebc 0bc6 31be
000002f0: 28bc 1dbe 0a08 0cbe 7921 12be e8f2 2a3e
00000300: b33b d0bd e14e 283d 9041 bdbd 07fc 0cbe
00000310: 20f4 a6bd d595 95bd 2ded e1bd 6034 6d3d
00000320: bd02 02bd 54d2 ba3c 733a 4cbe 81aa c93d
00000330: 1c7c cfbd 13cc c23d a46f f03d 8480 a9bc
00000340: b3ed d1bd 963c c6bd 68be 8cbd 6776 11be
00000350: 29d8 363d 0281 ecbb 206d 11be b959 5fbd
00000360: 0306 cc3c a198 c03d d6f0 b03d d5b5 c5bd
00000370: 5370 a2bd 305d d63d d182 adbd 8321 e8bc
00000380: 4db7 62bd 9764 743d e7ae 0ebc a55b f93d
00000390: 1b14 88bc 5cfb ef3c 51a4 253d 5890 403c
000003a0: 412d a23d 18c6 a23d d4d7 603d 4920 223e
000003b0: e016 3e3d c7a8 8d3d 8d9c df3d 381f ad3d
000003c0: 84b4 3c3d 4801 df3d 723a ec3b 3c51 2a3d
000003d0: 9e0e 7d3d 3d87 463e f710 f03d 1595 b83d
000003e0: edac 7b3c c22b b4bc 1929 253c e071 1c3d
000003f0: be86 66bd 8a28 1fbd e2e0 8bbd 3b46 6fbd

decoder.3.bias f4 [6]
-0.5903427 -0.2944266 0.56635606 0.6267702 0.7288138 -0.0035494857
00000000: b320 17bf 15bf 96be b6fc 103f 0374 203f
00000010: 8b93 3a3f 7d9e 68bb

decoder.5.weight f4 [6, 1, 5, 5]
-0.03882135 -0.028966455 0.059539136 0.09665374 0.06583765 -0.03790771 -0.005852194 0.12578827
0.18774974 0.1018933 -0.009390294 0.03723264 0.14561725 0.21438707 0.12100112 0.023749001
0.05976128 0.1264341 0.16775796 0.09147336 0.013594813 0.036889926 0.055081174 0.07124558
0.037879787 -0.024753751 -0.08687777 -0.12947594 -0.07701331 -0.017797543 -0.11651855 -0.14889978
-0.08640288 0.016096143 0.027676878 -0.07551954 -0.014508075 0.111927465 0.20050505 0.11998577
0.043809533 0.16191064 0.2692784 0.28924888 0.16807199 0.13186218 0.20811528 0.22304909
0.19977511 0.08354222 -0.049610242 -0.12584965 -0.21563227 -0.20638815 -0.13427177 -0.14351785
-0.2950284 -0.40152702 -0.34273174 -0.17539014 -0.17568754 -0.3107811 -0.36393222 -0.25031233
-0.09530287 -0.0909793 -0.14255422 -0.12406709 -0.055639356 0.024177443 -0.014863107 0.0026281506
0.026407301 0.059452515 0.05286086 -0.12077493 -0.117945716 -0.06749651 -0.07221692 -0.08085966
-0.1799028 -0.18059543 -0.13793196 -0.20370914 -0.17428039 -0.27563265 -0.36896488 -0.34287122
-0.39408353 -0.2301188 -0.27201265 -0.41318437 -0.44205981 -0.3675948 -0.1948585 -0.16971539
-0.22107378 -0.22003849 -0.23314472 -0.118523434 -0.039495163 -0.09338686 -0.15747972 -0.14476162
-0.09120713 -0.15242772 -0.30002925 -0.39275494 -0.31637013 -0.18601473 -0.21463096 -0.41849577
-0.48745146 -0.3611416 -0.18845217 -0.19493695 -0.3083275 -0.3244997 -0.20884831 -0.0974976
-0.10403172 -0.14112113 -0.13318615 -0.09458739 -0.036707 -0.038842496 -0.08063225 0.0031808089
0.032131344 0.0020067832 -0.13652764 -0.092704035 -0.055350468 -0.060062367 -0.047433935 -0.051448625
0.014368712 0.10668292 0.019512802 0.107621774 -0.09400586 0.032001536 0.08343738 0.15686104
0.15717156 -0.07039857 -0.06411598 -0.0699506 0.003631526 -0.04887463
00000000: 2303 1fbd 0f4b edbc 4fdf 733d 65f2 c53d
00000010: e4d5 863d 1d45 1bbd c3c3 bfbb a4ce 003e
00000020: 7841 403e 6fad d03d bfd9 19bc 4181 183d
00000030: b01c 153e 4988 5b3e 6fcf f73d 448d c23c
00000040: 3ec8 743d f177 013e bec8 2b3e 6356 bb3d
00000050: c7bc 5e3c e419 173d cc9c 613d 34e9 913d
00000060: d627 1b3d 61c8 cabc f9ec b1bd 5795 04be
00000070: 27b9 9dbd 27cc 91bc 47a1 eebd 2f79 18be
00000080: fef3 b0bd 0fdc 833c 9fba e23c fda9 9abd
00000090: 47b3 6dbc 3a3a e53d 3251 4d3e 19bb f53d
000000a0: a071 333d e7cb 253e dcde 893e 6e18 943e
000000b0: 101b 2c3e e106 073e 2c1c 553e fb66 643e
000000c0: d991 4c3e 2f18 ab3d 1c34 4bbd bbde 00be
000000d0: b5ce 5cbe 6a57 53be 8a7e 09be 58f6 12be
000000e0: f60d 97be f394 cdbe 897a afbe 7999 33be
000000f0: 6fe7 33be b31e 9fbe 5355 babe f028 80be
00000100: 272e c3bd 5b53 babd bcf9 11be e316 febd
00000110: 18e6 63bd c60f c63c 6484 73bc 0d3d 2c3b
00000120: 2054 d83c 7b84 733d a184 583d d958 f7bd
00000130: 868d f1bd 9c3b 8abd 77e6 93bd c099 a5bd
00000140: 7138 38be 02ee 38be 093e 0dbe 2199 50be
00000150: 8f76 32be b91f 8dbe f7e8 bcbe d18c afbe
00000160: 51c5 c9be 43a4 6bbe 3e45 8bbe e78c d3be
00000170: aa55 e2be 6335 bcbe fd88 47be dfc9 2dbe
00000180: 2a61 62be c551 61be 7dbd 6ebe 6abc f2bd
00000190: aec5 21bd 9c41 bfbd 5d42 21be 643c 14be
000001a0: ceca babd 0316 1cbe 6f9d 99be 2d17 c9be
000001b0: 44fb a1be a57a 3ebe 38c8 5bbe 1445 d6be
000001c0: 3d93 f9be 8de7 b8be 9bf9 40be 8d9d 47be
000001d0: 1add 9dbe d324 a6be 55dc 55be d2ac c7bd
000001e0: 950e d5bd 0f82 10be f361 08be 09b7 c1bd
000001f0: 145a 16bd 4f19 1fbd 8522 a5bd 1e75 503b
00000200: 289c 033d 3c84 033b e7cd 0bbe 9ddb bdbd
00000210: 2cb7 62bd f503 76bd 164a 42bd cbbb 52bd
00000220: bf6a 6b3c 937c da3d 50d9 9f3c ce68 dc3d
00000230: 2586 c0bd 0b14 033d 38e1 aa3d 2ea0 203e
00000240: 95f1 203e 202d 90bd 3d4f 83bd 4342 8fbd
00000250: e5fe 6d3b c430 48bd
