Autoencoder-on-MNIST-in-Pytorch/Models/model_e9.pt (torch, 561729 bytes, 11 tensors)

encoder.0.weight f4 [6, 1, 5, 5]
0	0xbe631fbc	-0.22180074
1	0xbe2c4940	-0.16824818
2	0xbdbe5015	-0.09292618
3	0xbe4fdcbf	-0.20299052
4	0xbea0639c	-0.31325996
5	0xbe5eb433	-0.21748428
6	0xbe9bd1b0	-0.30433416
7	0xbc0ea311	-0.00870587
8	0xbdf34cff	-0.1187992
9	0xbe306125	-0.17224558
10	0x3df530be	0.119721875
11	0xbe35a1a3	-0.17737441
12	0x3d01ee2b	0.031721275
13	0xbe780885	-0.24222
14	0xbe390484	-0.18068129
15	0x3dfcd6e7	0.12345677
16	0x3c02444c	0.007950854
17	0xbe45291a	-0.1925396
18	0xbe145fa2	-0.14489606
19	0xbda6aa72	-0.081379786
20	0xbb328202	-0.0027238135
21	0xbdc875dc	-0.09788105
22	0xbc7364c2	-0.0148555655
23	0xbe999f4a	-0.3000434
24	0xbeb87cb1	-0.36032632
25	0xbe49c684	-0.19704634
26	0xbe92f02f	-0.2869887
27	0xbe762067	-0.24035798
28	0xbe947e0a	-0.2900241
29	0xbe6e00c4	-0.2324248
30	0x3da9f9c4	0.08299592
31	0x3cca9bcd	0.024732495
32	0x3d7720ab	0.06033389
33	0x3cd19c52	0.025587235
34	0x3e431097	0.19049297
35	0xbe137bbe	-0.14402673
36	0x3b00473b	0.0019573707
37	0x3e10f633	0.14156418
38	0xbd0305f7	-0.03198811
39	0xbd83d263	-0.064366125
40	0x3e43cf4a	0.19122043
41	0x3e10deed	0.1414754
42	0x3de3cf51	0.11123527
43	0x3e105bb2	0.14097479
44	0x3e6d4704	0.23171622
45	0xbdd969e5	-0.10615901
46	0xbe1b0632	-0.15139082
47	0xbdf4558e	-0.11930381
48	0x3e8e2bf0	0.27767897
49	0x3e778551	0.2417195
50	0x3e1da90a	0.15396515
51	0x3e197dcb	0.14989392
52	0x3e07cbef	0.13261388
53	0xbdc36523	-0.09540775
54	0xbddf2083	-0.10894873
55	0x3e405281	0.18781473
56	0x3dac3d51	0.08410133
57	0xbe851376	-0.2599141
58	0xbe8be5f5	-0.2732388
59	0xbea88220	-0.32911777
60	0xbe52bbdf	-0.2057948
61	0xbddb6886	-0.10713296
62	0xbeb6f2f7	-0.35732242
63	0xbe414824	-0.18875176
64	0xbd9f5200	-0.07779312
65	0xbca14da7	-0.019690348
66	0xbca0c88a	-0.019626874
67	0xbea577b1	-0.3231788
68	0x3ce6871c	0.028140597
69	0xbe0874e8	-0.13325846
70	0xbe3221af	-0.17395662
71	0xbc4c51e0	-0.012470692
72	0xbe4a2a59	-0.19742717
73	0xbe3cd15b	-0.18439238
74	0xbea0acb8	-0.31381774
75	0xbe43a3ac	-0.19105405
76	0xbe0f2352	-0.13978317
77	0xbe415417	-0.18879734
78	0x3e57e4c8	0.21083367
79	0xbcd2554a	-0.025675435
80	0xbd1ce66a	-0.038305677
81	0x3d7e8a44	0.06214358
82	0xbdb8457b	-0.08997627
83	0x3e36563e	0.17806336
84	0x3e643e44	0.22289377
85	0x3e3a3b05	0.18186577
86	0x3e486906	0.19571313
87	0xbe35e0a8	-0.17761481
88	0x3e59d2ab	0.2127177
89	0x3e6de820	0.2323308
90	0xbdb2d232	-0.08731498
91	0x3e1e00d8	0.1543001
92	0x3d780470	0.060551107
93	0xbd3fe3ff	-0.046848293
94	0x3e188c44	0.14897257
95	0x3e693190	0.22772813
96	0x3abbd2eb	0.0014329826
97	0x3e03d6da	0.12874928
98	0x3e5f935a	0.21833554
99	0x3d9a0dfe	0.075222
100	0xbcc66b52	-0.024221096
101	0x3e47cfed	0.19512911
102	0x3c6347c3	0.01387209
103	0xbd80e897	-0.06294363
104	0x3e18991f	0.14902161
105	0x3d09b4a7	0.03361955
106	0xbdb0f7d3	-0.08641019
107	0xbd83f23b	-0.06442686
108	0x3e7d23b2	0.24720648
109	0x3e70d95c	0.23520416
110	0xbdf92349	-0.12164933
111	0xbe1238b5	-0.14279445
112	0x3e09ef75	0.13470252
113	0xbbf9d885	-0.007624688
114	0x3e5afccd	0.21385498
115	0x3d0f73d3	0.035022568
116	0xbc3b1b2b	-0.011420052
117	0xbd26d508	-0.040730506
118	0x3e46c27b	0.19410126
119	0x3e60c8ad	0.21951552
120	0xbded1d25	-0.115778245
121	0xbe8cc99e	-0.27497572
122	0xbe2305f9	-0.15920247
123	0x3e601fb9	0.21887101
124	0x3da7c3b1	0.08191622
125	0xbd840b6f	-0.06447493
126	0x3e1e5246	0.15461072
127	0x3dfa6245	0.12225775
128	0xbe0f3272	-0.13984087
129	0x3c3c2c94	0.011485238
130	0xbd90cac2	-0.07069923
131	0x3e58e748	0.21181977
132	0xbd952ed3	-0.07284322
133	0xbe7abecb	-0.24486844
134	0xbe225857	-0.15854011
135	0x3d86efdc	0.06588718
136	0x3e2185c8	0.1577369
137	0xbc8a24a3	-0.016863173
138	0xbe695df5	-0.22789748
139	0xbe922381	-0.28542712
140	0x3e7c882d	0.24661322
141	0x3e7ac029	0.24487366
142	0x3e455a86	0.19272813
143	0xbe22526f	-0.15851758
144	0xbe1e1f34	-0.1544159
145	0x3dc67c76	0.09691708
146	0xbd2b4f9e	-0.041823976
147	0x3d7eb182	0.062181003
148	0xbe211eab	-0.15734355
149	0xbe10a622	-0.14125875

encoder.0.bias f4 [6]
0	0x3e23f9d9	0.16013278
1	0x3e30e754	0.17275745
2	0xbcb1bf67	-0.021697713
3	0x3e24cfcc	0.16094893
4	0xbd2c431c	-0.042056188
5	0x3e3beb65	0.18351515

encoder.2.weight f4 [16, 6, 5, 5]
0	0x3d4f04cb	0.05054168
1	0x3d30bf6e	0.04315131
2	0xbd3464bb	-0.044041377
3	0x3de52b24	0.11189869
4	0x3c9951fe	0.018715855
5	0x3aae0483	0.0013276491
6	0xbd3ee8e0	-0.046608806
7	0xbd7cb330	-0.061694324
8	0xba3c05c4	-0.000717249
9	0x3d55ec60	0.052227378
10	0xbdf6cb51	-0.12050498
11	0xbe00059f	-0.12502144
12	0xbc49e68e	-0.012323035
13	0xbc5438d6	-0.012953004
14	0xbce6a691	-0.028155597
15	0xbe008650	-0.12551236
16	0xbd04596b	-0.032311838
17	0xbe028d03	-0.12749104
18	0xbc9be3db	-0.019029548
19	0x3cb7c000	0.02243042
20	0xbdc26aaa	-0.09493001
21	0xbd1302b3	-0.035891246
22	0xbd8b9609	-0.06815726
23	0x3c770ea6	0.015079176
24	0xbd4250d5	-0.04744037
25	0x3cc2f1a7	0.02379687
26	0xbc9f0baf	-0.01941475
27	0xbd0fe2d1	-0.03512842
28	0x3b8ff3ff	0.0043931003
29	0x3c9d087b	0.019169083
30	0x3bcdfd61	0.0062863086
31	0x3dc27a66	0.09496002
32	0x3c6811c3	0.014164391
33	0xbb55250b	-0.00325233
34	0xbcf2419c	-0.0295723
35	0x3d618b0f	0.055064257
36	0x3db34fad	0.08755431
37	0x3d98b035	0.07455484
38	0xbd4a16f6	-0.049338304
39	0xbd17b25d	-0.037035335
40	0x3d73e6ec	0.059546396
41	0xbcebf8bf	-0.028805135
42	0xbd0d3657	-0.03447565
43	0x3d7e375c	0.062064514
44	0x3de5153f	0.11185693
45	0xbd9f4e82	-0.07778646
46	0x3d4f9cf8	0.050686806
47	0xbdce2330	-0.10065305
48	0xbd898078	-0.067139566
49	0x3c8887fc	0.016666405
50	0x3d8977a3	0.06712272
51	0x3d574b51	0.05256206
52	0x3c1d723a	0.009609753
53	0x3ddb1f8c	0.106993765
54	0xbc1c63a1	-0.009545238
55	0xbca72dcc	-0.02040758
56	0x3d48620b	0.048921626
57	0xbc1fb75a	-0.009748304
58	0xbcf65e06	-0.03007413
59	0x3dac8b20	0.084249735
60	0xbdd3f38a	-0.10349186
61	0xbccd7441	-0.025079848
62	0xbd1a10aa	-0.03761355
63	0x3d99e48d	0.07514296
64	0x3d293360	0.04130876
65	0xbe07b3ac	-0.13252133
66	0xbda4ac17	-0.08040636
67	0x3d0053b7	0.031329837
68	0xbc095206	-0.008381372
69	0x3d286acb	0.04111747
70	0xbdc9a489	-0.09845836
71	0xbd78538b	-0.060626548
72	0xbc809fe1	-0.015701236
73	0xbcbafcca	-0.022825617
74	0xbc77d3c8	-0.015126176
75	0x3b44f407	0.0030052678
76	0x3da50aaa	0.08058675
77	0xbd599bca	-0.053127088
78	0xbd16933c	-0.036761507
79	0xbc91be46	-0.017790925
80	0x3d0965d1	0.033544365
81	0x3dc76e43	0.09737828
82	0x3d0f487b	0.034981232
83	0x3db5b4e2	0.08872391
84	0x3dcf4274	0.10120097
85	0x3d8f1ff4	0.069885164
86	0x3d55bdc8	0.052182943
87	0xbca7c42d	-0.020479286
88	0xbd7e0b75	-0.062022645
89	0xbc7bffb0	-0.015380785
90	0x3dd90a09	0.10597617
91	0x3dcd02dd	0.10010312
92	0x3c43d0f7	0.011951677
93	0xbd08dfdb	-0.03341661
94	0x3d96b360	0.07358432
95	0x3dc3b407	0.09555822
96	0xbce4549f	-0.027872382
97	0x3ccd311e	0.025047835
98	0xbd499601	-0.04921532
99	0xbce894c7	-0.028391255
100	0x3d5338b0	0.051567733
101	0x3dc47272	0.09592141
102	0x3dafb8ab	0.085801445
103	0xbcea39d6	-0.028592031
104	0xbd33b65b	-0.04387508
105	0x3d1d9a4b	0.038477223
106	0x3dd0c40d	0.10193644
107	0xbcaf7617	-0.021418614
108	0xbd6bcb82	-0.057567127
109	0x3d824aad	0.063618995
110	0x3de47e2e	0.11156879
111	0x3d38978a	0.045066394
112	0xbd4e9809	-0.05043796
113	0xbc7b7a58	-0.015348993
114	0xbd3cfd8e	-0.046140246
115	0x3c9a5a62	0.018841926
116	0x3d5dd395	0.05415686
117	0xbd581a1e	-0.052759282
118	0xbd9b95dd	-0.075969435
119	0xbc2aac26	-0.01041702
120	0x3d3efcc0	0.04662776
121	0xbc55d3ab	-0.013050954
122	0xbd24e41d	-0.04025661
123	0x3ce0f107	0.02745868
124	0xbd301f3b	-0.042998534
125	0x3d7aeb56	0.06125959
126	0xbd405769	-0.04695836
127	0xbb8c9ab2	-0.004290902
128	0xbb824ff1	-0.003976815
129	0xbd064637	-0.032781806
130	0x3cee8e37	0.029120548
131	0xbd5c110b	-0.05372719
132	0x3db595a7	0.088664345
133	0x3dc266c3	0.094922565
134	0x3d35ace1	0.044354323
135	0x3d46f96f	0.048577722
136	0x3d26b838	0.04070303
137	0x3cc73bbd	0.024320478
138	0xbc3204bf	-0.010865389
139	0xb7b8abb6	-2.2014468e-05
140	0x3d8af0b2	0.0678419
141	0x3d81613e	0.063173756
142	0xb90b5f40	-0.00013291556
143	0x3d5ab67a	0.05339668
144	0xbd58082e	-0.052742176
145	0x3c9ba9aa	0.0190018
146	0x3d062835	0.03275319
147	0x3d055a6e	0.032556944
148	0xbc6dde67	-0.014518357
149	0x3caed169	0.021340089
150	0xbd682d94	-0.05668409
151	0x3c464cea	0.012103299
152	0xbd632bd8	-0.055461735
153	0x3d6c966f	0.057760652
154	0xbc8070e0	-0.015678823
155	0x3d92e76c	0.071730465
156	0x3c52f740	0.012876332
157	0xbd871251	-0.065952905
158	0x3d870969	0.06593592
159	0x3cbfab04	0.023396976
160	0xbd506e06	-0.050886177
161	0xbd4654f4	-0.04842086
162	0xbc955da5	-0.01823313
163	0x3d4355e4	0.047689334
164	0xba92e270	-0.00112064
165	0x3c348487	0.011017925
166	0xbc45b775	-0.012067665
167	0xbd9c1b55	-0.07622401
168	0xbd0c9cfa	-0.034329392
169	0xbd0d87d6	-0.03455337
170	0xbd255e62	-0.040373214
171	0xbd909fc4	-0.07061723
172	0xbddfda81	-0.10930348
173	0xbe025a53	-0.12729768
174	0xbd7fc88e	-0.062447123
175	0x3c2d932e	0.010594172
176	0x3d4c2328	0.049838215
177	0xbd9188ed	-0.07106195
178	0xbd0f433a	-0.03497622
179	0x3bbbd831	0.005732559
180	0xbce30509	-0.027712362
181	0x3ca546a0	0.020175278
182	0x3baa7dbe	0.005202978
183	0xbd484264	-0.04889144
184	0xbd53ebbd	-0.05173849
185	0xbbf09277	-0.0073416787
186	0x3d20db51	0.039271656
187	0xbd41fd16	-0.047360502
188	0xbaa8b538	-0.001287139
189	0xbd1f3bc0	-0.03887534
190	0x3d8364e9	0.064157315
191	0x3d4670f9	0.048447583
192	0xbca2db1e	-0.019879874
193	0x3d21cde6	0.039503
194	0x3d928a6a	0.07155307
195	0xbc62a5d4	-0.013833482
196	0x3d141ae2	0.03615845
197	0xbd52b366	-0.05144062
198	0x3d815bf6	0.06316368
199	0x3ccb0c46	0.024786126
200	0x3d30363c	0.043020472
201	0xbd47a79d	-0.048743833
202	0xbd2ffe2d	-0.04296701
203	0x3d810c75	0.06301204
204	0x3d87a245	0.06622747
205	0x3d26a2cd	0.040682603
206	0xbd3c7f60	-0.04601991
207	0x3c375018	0.011188529
208	0x3d300fce	0.042983823
209	0xbc45920b	-0.012058745
210	0x3d82f836	0.06394999
211	0xbd891437	-0.06693309
212	0xbd8f7193	-0.070040844
213	0xbd629f7d	-0.05532788
214	0xbd2a32e7	-0.04155245
215	0xbd7af9b7	-0.061273303
216	0xbcdacd5c	-0.026709251
217	0xbe143432	-0.14473036
218	0xbd82f7ca	-0.06394918
219	0x3cf4b9b4	0.029873706
220	0xbc09d561	-0.00841269
221	0xbdb05d33	-0.08611526
222	0xbdd9fdfc	-0.10644147
223	0xbd1ce73e	-0.038306467
224	0x3d86d3a9	0.0658334
225	0x3d5f93c5	0.054584283
226	0x3d9a0df0	0.075221896
227	0xbcd1efd8	-0.025627062
228	0x3d8fe6c0	0.07026434
229	0x3ca286d9	0.019839691
230	0x3cc4edcf	0.024039177
231	0x3d8424f4	0.06452361
232	0x3dafb4bf	0.085793965
233	0x3c79b44a	0.015240738
234	0xbd7cd718	-0.061728567
235	0xbc2a22f0	-0.010384306
236	0x3d340fbc	0.043960318
237	0xbd29e232	-0.041475482
238	0x3dd022a3	0.101628564
239	0x3caa7e29	0.020812111
240	0x3d23c60e	0.0399838
241	0x3dea02f0	0.114263415
242	0x3cd5403d	0.026031608
243	0x3da9c06c	0.08288655
244	0x3d513c08	0.05108264
245	0x3d4d3d71	0.050107423
246	0x3d7a53ae	0.06111496
247	0xbd5a748e	-0.05333381
248	0x3d94658f	0.07245933
249	0x3da3f53a	0.08005758
250	0x3abb5e6a	0.0014295105
251	0xbcc2546c	-0.023721896
252	0x3d877f3b	0.06616064
253	0xbd691c6a	-0.056911863
254	0x3d30cb43	0.043162595
255	0xbc31d23e	-0.010853348

encoder.2.bias f4 [16]
0	0x3b307520	0.002692528
1	0x3d1e3fa1	0.0386349
2	0x3cec12f8	0.028817639
3	0x3d452dac	0.04813926
4	0x3dd5abd8	0.10433167
5	0x3c1e794d	0.009672475
6	0x3d6c9a14	0.057764128
7	0xbc1dde7a	-0.009635562
8	0x82bf3a90	-2.809854e-37
9	0x3e0acf40	0.13555622
10	0x3d18917a	0.037248112
11	0x3d26b478	0.040699452
12	0x3dd4aba5	0.10384301
13	0x3cb436a3	0.021998709
14	0x3ce4848c	0.027895235
15	0xbd06a6a2	-0.032873757

encoder.5.weight f4 [10, 6400]
0	0xbc8bb070	-0.017051905
1	0xbd039078	-0.032120198
2	0xbc9a2566	-0.018816661
3	0xbd2d71bc	-0.042344794
4	0xbd235b08	-0.039881736
5	0xbcae9720	-0.021312296
6	0xbd100a1a	-0.035165884
7	0xbd0f0a5f	-0.034922
8	0xbc60a5ea	-0.013711432
9	0xbc05c6dd	-0.0081650885
10	0xbc96dfd9	-0.018417286
11	0xbc4df79e	-0.012571244
12	0x3b66ebd0	0.003523577
13	0x3bb7dd8f	0.0056111286
14	0xbb25c5ed	-0.0025294975
15	0x3b35d281	0.0027743878
16	0x3c329af5	0.010901202
17	0x3c135224	0.008991752
18	0xb8e0a607	-0.00010712077
19	0xbbbecec7	-0.0058229896
20	0x3b29fb55	0.002593716
21	0xbc907c86	-0.017637502
22	0xbc33c311	-0.0109718
23	0xbccd955d	-0.025095636
24	0xbd1ab1f4	-0.037767366
25	0xbcfcb75f	-0.030849157
26	0xbcb28a50	-0.021794468
27	0xbcc79fe6	-0.024368238
28	0x3bbfccea	0.005853285
29	0xbc11772b	-0.0088785095
30	0x3a84626d	0.0010100134
31	0x39c2930b	0.0003711212
32	0x3bb32e08	0.005468134
33	0x3cc0da6e	0.023541655
34	0x3c325b69	0.010886052
35	0x3cc15432	0.023599718
36	0x3bc2d26a	0.0059454935
37	0x3b8a69f1	0.004224055
38	0x3bb6a26c	0.0055735614
39	0xbc3ebd45	-0.011641805
40	0x3d0eede6	0.034894846
41	0x3ccf1e49	0.025282996
42	0xbbf33a7f	-0.0074227448
43	0xbc9518d0	-0.018200308
44	0xbca87dc8	-0.02056779
45	0xbcab3f5e	-0.02090424
46	0xbcc79d74	-0.024367072
47	0xbc558f96	-0.013034722
48	0xbc2b0541	-0.010438264
49	0x3c28fbcb	0.010313938
50	0x3c80c94c	0.015720986
51	0x3c84159f	0.016123591
52	0x3cc1486f	0.02359411
53	0x3c313bdc	0.010817494
54	0x3c953c39	0.018217193
55	0x3c2bfae9	0.010496833
56	0x3c56df14	0.013114709
57	0x3a1f5610	0.0006078193
58	0xbadeab82	-0.0016988369
59	0x3b9509ed	0.0045483024
60	0x3d7c4044	0.061584726
61	0x3d0a10c2	0.033707388
62	0xbb0008b4	-0.0019536437
63	0xbc3e03e1	-0.0115976045
64	0xbc8ebd32	-0.0174242
65	0xbcb1c05e	-0.021698173
66	0xba9dec1f	-0.0012048519
67	0xbc7fddde	-0.015616862
68	0xbac438ea	-0.0014970575
69	0x3b6fd3ae	0.0036594677
70	0x3c89f835	0.016841987
71	0x3ca97b6a	0.020688731
72	0x3bec9dc7	0.007220957
73	0x3c8f07fb	0.01745986
74	0x3c902ee8	0.017600492
75	0x3c5e3804	0.01356316
76	0x3c2a7c14	0.010405559
77	0x3c389fb7	0.011268548
78	0x3c25881d	0.010103253
79	0x3bd970da	0.0066357674
80	0x3d5f1c77	0.054470506
81	0x3d05d8a6	0.032677315
82	0xbbd1008a	-0.006378238
83	0xbca5be86	-0.02023245
84	0xbc27cb12	-0.010241287
85	0x3b245ff7	0.0025081614
86	0x3949ee6d	0.00019257674
87	0x3c432848	0.011911459
88	0x3ba8e95b	0.0051547713
89	0x3c60557e	0.013692258
90	0x3d13bf70	0.03607124
91	0x3d1143d9	0.035465095
92	0x3c9d7c3f	0.019224284
93	0x3af82363	0.0018931445
94	0xbbb2b137	-0.0054532546
95	0xbc2fbb87	-0.010725862
96	0x3be1f5cf	0.0068957577
97	0x3c488b01	0.012240172
98	0x3c8213c6	0.01587857
99	0x3ba395f9	0.0049922434
100	0x3cec54bb	0.028848996
101	0x3bd7e791	0.006588884
102	0xbc8168d8	-0.015797064
103	0xbc9fdd29	-0.019514637
104	0xbb1db551	-0.0024064372
105	0xbc45cb3e	-0.0120723825
106	0x3a71f73f	0.0009230263
107	0x3bec8f50	0.0072192326
108	0x3c54353f	0.012952148
109	0x3cf679e9	0.030087428
110	0x3cff1f09	0.031142728
111	0x3d3b943a	0.045795657
112	0x3ccd4057	0.025055094
113	0x3c508cc7	0.012728876
114	0xbbdc097a	-0.006714997
115	0x3b1ae7ee	0.0023636776
116	0xbbfc71c8	-0.0077039935
117	0x3a80d17b	0.0009828055
118	0x3c067a04	0.008207802
119	0x3b4b9c68	0.0031068567
120	0x3c9b81db	0.018982818
121	0xbc3624c6	-0.011117166
122	0xbd02353d	-0.031789053
123	0xbd22c667	-0.039739992
124	0xbcbc1add	-0.022962028
125	0xbc33fb58	-0.010985218
126	0xbb1380e6	-0.002250725
127	0x3bea04c5	0.007141682
128	0x3c9f9ead	0.019484842
129	0x3ce8439e	0.028352555
130	0x3d29d601	0.041463856
131	0x3cdf3250	0.02724567
132	0x3b35de7d	0.0027751022
133	0x3c805cf4	0.015669324
134	0x3a415278	0.00073746545
135	0xbbba109d	-0.00567825
136	0xbbea0106	-0.0071412353
137	0xbbd23ce3	-0.0064159497
138	0x3b96d7e3	0.0046033724
139	0xbc31c36a	-0.010849813
140	0xbc4d36db	-0.012525286
141	0xbcfcccd2	-0.030859385
142	0xbcf50f3b	-0.029914489
143	0xbca8a303	-0.020585543
144	0xbc537c4e	-0.0129080545
145	0x3be69e24	0.007037895
146	0x3b8ed795	0.0043591955
147	0x3be72aa0	0.007054642
148	0x3b93bc14	0.0045085046
149	0x3cd2316d	0.025658334
150	0x3cd109f1	0.025517436
151	0x3c265f5f	0.010154574
152	0x3b1b5c6f	0.0023706218
153	0xbb80017d	-0.0039064274
154	0xbbc8b4a8	-0.0061250515
155	0x3bd284f1	0.0064245393
156	0x3b85653a	0.004070905
157	0x3c3b60b4	0.01143663
158	0x3bc1ca61	0.005914018
159	0xbc39f0fd	-0.01134896
160	0xbc1084c6	-0.008820718
161	0xbc990937	-0.018681152
162	0xbcb5bf77	-0.022186024
163	0xbc699661	-0.0142570445
164	0x389a0231	7.3437004e-05
165	0xbc2a8760	-0.0104082525
166	0xbb99e3e5	-0.0046963566
167	0x3bf1cef5	0.0073794075
168	0x3bc0e9ef	0.005887262
169	0x3cf8aa0f	0.030354528
170	0x3cc75cdb	0.02433627
171	0x3ca0d4b5	0.019632677
172	0xbb441c23	-0.0029923997
173	0x398c7b94	0.00026794954
174	0x3c028b6b	0.00796781
175	0x3b0aa6db	0.0021156583
176	0xbb7c0c63	-0.0038459531
177	0x3c62bbca	0.013838718
178	0xbc196e23	-0.009364638
179	0xbc5ffb97	-0.013670824
180	0xbb542f21	-0.0032376724
181	0xbcd7f05b	-0.026359728
182	0xbcf4c0d0	-0.029877096
183	0xbc4a40fd	-0.012344596
184	0xbac9e207	-0.0015402444
185	0xbc34f14c	-0.011043858
186	0xbc7d0028	-0.015441932
187	0x3a51e819	0.00080073025
188	0x3c11f5c6	0.008908695
189	0x3c982377	0.018571598
190	0xbc04d09a	-0.008106375
191	0x3c5a2a23	0.01331571
192	0x3b8bfbc4	0.004271956
193	0x3c0fa98c	0.0087684505
194	0x3cae4c0c	0.021276496
195	0x3c88c271	0.01669428
196	0x3c00349e	0.007825045
197	0x3bb4fc28	0.0055232234
198	0x3c059814	0.008153934
199	0xbc192a0b	-0.009348403
200	0x3cbdf322	0.023187224
201	0xbc3eb20c	-0.011639129
202	0xba2676b0	-0.0006350083
203	0x3bd0e344	0.0063747484
204	0x3c3a4bed	0.011370641
205	0x3b95cf31	0.0045718183
206	0xbb87129b	-0.004122091
207	0x3c824d98	0.01590614
208	0x3c2f5ceb	0.010703306
209	0xba32ac45	-0.00068158313
210	0x3b7cdc7a	0.0038583563
211	0x3c77c21c	0.015121963
212	0x3ccb6011	0.024826081
213	0x3bebffdc	0.0072021317
214	0x3c29391b	0.010328556
215	0xbbb3196b	-0.0054656765
216	0xbb22d173	-0.002484408
217	0xbba8db45	-0.005153092
218	0x3c039cf6	0.008033028
219	0xbca19dc5	-0.01972855
220	0x3ca472d8	0.020074293
221	0xbb0650bd	-0.00204949
222	0xbb80ae42	-0.003927023
223	0x3b839376	0.0040153814
224	0x3c13096e	0.008974416
225	0xbc0817b4	-0.0083064325
226	0x3c49fc44	0.012328211
227	0x3bf42cdb	0.0074516363
228	0x3bf3be51	0.007438459
229	0xbac480b8	-0.0014991974
230	0x3bdf3d7c	0.0068127494
231	0x3b9fcc1a	0.0048766257
232	0x3cd9c495	0.026582995
233	0x3b4fefd6	0.0031728647
234	0xbab92cc1	-0.0014127718
235	0x3bf5949b	0.007494522
236	0xbb1ffc36	-0.0024411804
237	0xbc3df46c	-0.011593919
238	0xbbb76ba3	-0.005597548
239	0xbc945945	-0.018108973
240	0x3cda6f0a	0.026664276
241	0x3c851b8f	0.016248493
242	0x3becde7f	0.007228672
243	0x3c90ce8f	0.01767662
244	0x3c1ce0d2	0.009575086
245	0x3b0caa1e	0.0021463702
246	0x3b82fdde	0.0039975485
247	0x3ca0d649	0.01963343
248	0x3c3952aa	0.011311213
249	0xbc3c1863	-0.011480424
250	0x3c1a109e	0.009403376
251	0x3cc007fa	0.023441304
252	0x3c896e28	0.01677616
253	0x3b7ea038	0.0038852822
254	0x3be52d42	0.0069939205
255	0xba677b04	-0.00088302814

encoder.5.bias f4 [10]
0	0x3bfa170c	0.007632142
1	0xbbd47106	-0.0064832
2	0x3b99359f	0.0046755816
3	0x3beb9517	0.0071894038
4	0xbb72b8d0	-0.0037036426
5	0x3c441e1a	0.011970067
6	0x3bd5df98	0.0065268986
7	0xbac235b2	-0.0014817028
8	0xba1306f3	-0.00056086405
9	0xbb7b0fe5	-0.0038309034

decoder.0.weight f4 [6400, 10]
0	0x3d929284	0.07156852
1	0x3d44b8da	0.04802785
2	0x3dab6672	0.08369149
3	0xbd885219	-0.06656284
4	0x3e534ec3	0.20635514
5	0x3d7b7c0d	0.0613976
6	0xbe7c8e73	-0.24663715
7	0x3de33884	0.11094764
8	0x3bf54493	0.0074849813
9	0x3e2bdfbd	0.16784568
10	0x3d4925b7	0.049108233
11	0xbcffddba	-0.031233657
12	0xbc4aca5f	-0.012377351
13	0x3c8ffaf5	0.01757572
14	0xbdb56b5c	-0.08858368
15	0xbe180d6c	-0.1484887
16	0xbe811c66	-0.2521698
17	0x3e24fb0c	0.16111392
18	0x3e56cb16	0.20975909
19	0x3d1c2ed9	0.038130615
20	0xbd1eff76	-0.038817845
21	0x3c962a9a	0.01833086
22	0x3ccd5fba	0.02507006
23	0x3e35a892	0.17740086
24	0xbdc216a2	-0.09476973
25	0x3da05935	0.07829515
26	0x3e6caf2a	0.23113695
27	0xbd0a9f5f	-0.033843394
28	0x3e7e7931	0.24850918
29	0xbe4d6c18	-0.20060766
30	0x3ca1c172	0.019745562
31	0xbcc62810	-0.024189025
32	0x3e541b58	0.20713556
33	0xbdef28ce	-0.11677705
34	0x3d4a2a20	0.04935658
35	0x3d117586	0.03551247
36	0xbd4d410f	-0.050110873
37	0x3dec27be	0.11531018
38	0x3aa16741	0.0012314097
39	0x3e82552a	0.254556
40	0xbe0a3d4a	-0.13499942
41	0xbe014249	-0.12622942
42	0x3dcb2a8e	0.09920226
43	0x3df1d036	0.11807291
44	0xbde91e0f	-0.11382686
45	0xbd42d3b8	-0.047565192
46	0xbbef9f9a	-0.007312727
47	0x3e4fd08a	0.20294395
48	0xbdf3b14f	-0.11899053
49	0x3e2b6e99	0.16741408
50	0xbe0c91f0	-0.13727546
51	0x3e80348a	0.25040084
52	0xbe83b685	-0.2572519
53	0x3d1b287c	0.037880406
54	0xbd43540b	-0.04768757
55	0xbd7ee8ee	-0.062233858
56	0x3d94aae6	0.07259159
57	0x3e31e1ae	0.17371246
58	0x3cf0d346	0.029397618
59	0xbe0564d4	-0.13026744
60	0xbe0a702c	-0.13519353
61	0x3a8dc2a2	0.0010815451
62	0xbdf6632c	-0.12030634
63	0xbe6e9668	-0.23299563
64	0xbe014e1e	-0.12627456
65	0x3d7effc8	0.06225565
66	0xbe03ac95	-0.12858804
67	0x3e918f73	0.28429756
68	0x3e09581e	0.1341252
69	0x3c3d35e9	0.011548498
70	0x3d842f4a	0.06454332
71	0xbc24c06a	-0.010055641
72	0xbdb3ad77	-0.0877332
73	0x3e9fa670	0.3118167
74	0xbe14a628	-0.14516509
75	0x3cae19d8	0.021252558
76	0x3e8219a6	0.25410193
77	0x3e7c4e64	0.24639279
78	0x3e1cee87	0.15325366
79	0x3e737b84	0.23777586
80	0xbc80f50b	-0.015741846
81	0x3c48db99	0.012259387
82	0xbe860558	-0.26175952
83	0x3cf2f381	0.029657127
84	0x3e593799	0.21212615
85	0xbe70a3e3	-0.23500018
86	0xbdc11e15	-0.09429566
87	0x3e0cec4b	0.13762014
88	0xbd23fa28	-0.04003349
89	0x3d60fda5	0.054929394
90	0xbe1a3669	-0.15059818
91	0x3e6b28f7	0.22964846
92	0xbe96ecbe	-0.29477495
93	0x3d211fa7	0.039336827
94	0x3e318860	0.17337179
95	0xbd2b9299	-0.041887853
96	0x3c13169d	0.008977559
97	0xbe7b97a8	-0.24569571
98	0x3ea97688	0.33098245
99	0xbe36ea4e	-0.17862818
100	0x3cf19d12	0.029493842
101	0x3dd7f44e	0.10544644
102	0x3c7f1e0a	0.015571127
103	0xbe219fd9	-0.15783633
104	0xbd87ae0b	-0.06624993
105	0xbe0db1d0	-0.13837361
106	0x3e019db7	0.1265782
107	0x3e89d1cf	0.26917884
108	0xbe1a2341	-0.15052511
109	0x3cffac5b	0.031210115
110	0xbe30b7a3	-0.17257552
111	0x3d1fa3dd	0.03897463
112	0xbc135b06	-0.00899387
113	0x3e4614fa	0.1934394
114	0xbdd332a7	-0.103123955
115	0x3e6cd427	0.23127805
116	0xbddd14f1	-0.1079501
117	0x3d864065	0.06555251
118	0x3e67c947	0.22635375
119	0xbe08f50f	-0.13374732
120	0xbe03dd1a	-0.12877312
121	0x3e7b3893	0.245333
122	0x3d533aa3	0.051569592
123	0x3e1ee8af	0.15518449
124	0xbd6033c1	-0.054736856
125	0x3d5f2966	0.05448284
126	0xbe31d031	-0.17364575
127	0xbd8bf776	-0.06834309
128	0xbe1c2b63	-0.15250926
129	0x3e4737b2	0.1945484
130	0x3e1be865	0.1522537
131	0xbdaba21c	-0.08380529
132	0x3dd91e78	0.106015146
133	0xbdd54ad5	-0.10414664
134	0xbdb23fe1	-0.0870359
135	0xbe108bb3	-0.14115791
136	0x3d6c78b7	0.05773231
137	0x3e4aee65	0.19817503
138	0xbd9a6d70	-0.07540405
139	0x3b933742	0.004492671
140	0x3e8b99ff	0.27265927
141	0x3e1b34e3	0.15156893
142	0x3e5010c8	0.20318902
143	0x3dd9f10b	0.106416784
144	0x3e1e99ea	0.15488401
145	0xbe68b929	-0.22726883
146	0xbe472466	-0.19447479
147	0x3e0a4896	0.13504252
148	0xbe363f76	-0.17797646
149	0xbe058e0d	-0.1304247
150	0x3e689897	0.22714458
151	0x3e2a7489	0.16646017
152	0x3d8c220b	0.06842431
153	0xbe4f0e93	-0.20220403
154	0x3e7925a6	0.24330768
155	0xbe0d058d	-0.13771649
156	0x3d9a187c	0.07524201
157	0xbeab7a37	-0.3349168
158	0xbdad2c85	-0.08455757
159	0xbcb16aa6	-0.0216573
160	0x3e2e05a8	0.16994345
161	0x3decd1cc	0.11563453
162	0xbd9e06c9	-0.07716138
163	0xbda24d0c	-0.07924852
164	0xbe8e292b	-0.27765784
165	0x3e615741	0.22005941
166	0xbc2fddd3	-0.010734039
167	0xbddf787b	-0.10911652
168	0x3e1a8e44	0.15093333
169	0x3e1059e0	0.14096785
170	0xbe345190	-0.17609239
171	0x3e1cb09d	0.15301748
172	0xbde2ae0f	-0.11068355
173	0x3ddf294e	0.1089655
174	0xbe64777b	-0.22311203
175	0x3d5fa578	0.054601163
176	0x3e5e43ad	0.21705504
177	0xbe0bc3bd	-0.13648887
178	0x3d053c08	0.032527953
179	0x3e246c0c	0.16056842
180	0xbd99e23e	-0.075138554
181	0x3cd42422	0.025896136
182	0x3e3bcf58	0.18340814
183	0xbdc15e05	-0.09441761
184	0xbdc70fd3	-0.09719815
185	0xbdc9bf7c	-0.09850976
186	0xbe188042	-0.14892676
187	0xbd5dc717	-0.054144945
188	0xbe676921	-0.22598697
189	0x3e1c6f94	0.15276939
190	0x3e1a253f	0.15053271
191	0xbce0fa1a	-0.027463008
192	0x3cd1485b	0.025547197
193	0x3e7032bb	0.23456852
194	0x3e7c272d	0.2462432
195	0x3e2dc9ae	0.16971466
196	0xbe03c20d	-0.12866993
197	0xbe43173a	-0.19051829
198	0xbdeef8fa	-0.11668582
199	0xbdee0f05	-0.116239585
200	0xbd24538c	-0.04011874
201	0x3dff6421	0.1247027
202	0x3d04d2bf	0.032427546
203	0x3a9c25b0	0.0011913087
204	0xbe5bc12d	-0.2146041
205	0xbd8abd10	-0.06774342
206	0xbd421240	-0.047380686
207	0xbc581780	-0.013189197
208	0x3de428fa	0.11140628
209	0x3bd505e7	0.0065009478
210	0x3da0d8e4	0.078538686
211	0x3e2e08ac	0.16995496
212	0x3de0f363	0.10983922
213	0x3d71ad84	0.059003368
214	0x3e2e959b	0.17049257
215	0xbd3e0df5	-0.04640003
216	0x3dc81451	0.097695
217	0x3e2d52cf	0.1692612
218	0xbe5caef8	-0.2155112
219	0x3d9317de	0.07182287
220	0xbdff7244	-0.12472966
221	0x3d7eaa0c	0.062173888
222	0x3c662dc2	0.014048995
223	0xbdf47c52	-0.11937775
224	0xbdadb526	-0.08481817
225	0x3dceb52a	0.10093148
226	0x3d7fe155	0.062470753
227	0xbde22248	-0.11041695
228	0xbdb42758	-0.08796567
229	0x3e226e7b	0.15862457
230	0xbd393dc9	-0.04522494
231	0x3d30832a	0.043093838
232	0xbd48b4d9	-0.049000595
233	0xbcf1b575	-0.02950547
234	0x3a48739b	0.0007646621
235	0xbd8d229e	-0.06891368
236	0x3dc4a134	0.096010596
237	0xbe1c8a1d	-0.15287061
238	0x3e798634	0.243676
239	0xbdc55997	-0.096362285
240	0xbea56306	-0.3230211
241	0x3e799b5d	0.24375673
242	0x3cb706d7	0.022342129
243	0xbdfefd4c	-0.12450656
244	0xbe821cbb	-0.25412545
245	0xbdb18c2f	-0.08669316
246	0xbe0490f0	-0.12945914
247	0xbd914068	-0.07092363
248	0xbe15659c	-0.14589542
249	0x3d043294	0.032274798
250	0x3d3e69ce	0.046487622
251	0x3de9f42f	0.114235274
252	0xbe1d578a	-0.15365425
253	0x3e3cc77f	0.18435477
254	0xbdcdd261	-0.10049892
255	0xbd5a442a	-0.053287663

decoder.0.bias f4 [6400]
0	0x3c358339	0.011078649
1	0x3c2e86a4	0.010652218
2	0x3a02955a	0.00049813616
3	0x3c7f3ea0	0.015578896
4	0x3c0242b9	0.007950478
5	0x3a1aba0f	0.00059023587
6	0xbc78189c	-0.015142586
7	0xbd18ced4	-0.03730662
8	0xbd57fc12	-0.052730627
9	0xbd6224cf	-0.055210885
10	0x3ad84ce2	0.0016502405
11	0x3cedfbb9	0.029050695
12	0x3b1a1b9e	0.0023514996
13	0x3bb2726c	0.005445769
14	0xbd21a872	-0.039467283
15	0x3d8555bf	0.065104954
16	0x3d270b14	0.04078205
17	0xbcded7f9	-0.027202593
18	0x3b49a4ce	0.0030768397
19	0x3ccdcadd	0.025121147
20	0x3bcbeabf	0.0062230523
21	0x3c86c428	0.016450956
22	0x3cde51c5	0.0271386
23	0xbad73464	-0.0016418812
24	0x3d06e674	0.03293462
25	0xbd079399	-0.033099744
26	0x3cdb54ee	0.026773896
27	0x3d9982e4	0.074956685
28	0x3a0e8629	0.00054368615
29	0xbd01fcd0	-0.03173524
30	0xbc867834	-0.01641474
31	0xbc46b2d3	-0.012127596
32	0xbaf634fd	-0.0018784102
33	0x3d3a2259	0.045442913
34	0xbc575104	-0.013141874
35	0x3d4f0072	0.050537534
36	0xb8d04206	-9.930511e-05
37	0xbc21c791	-0.0098742405
38	0xbcc70102	-0.024292473
39	0xbc6191d8	-0.013767682
40	0xb9e42a47	-0.00043519048
41	0x3c654adf	0.013994901
42	0x3c9708ad	0.018436754
43	0x3c444515	0.011979361
44	0x3b7d1a0f	0.0038620268
45	0xbb92de8b	-0.0044820956
46	0xbc3bdd34	-0.011466313
47	0xbc899e29	-0.01679905
48	0x3cdd624c	0.02702441
49	0x3d4ec34c	0.05047922
50	0xbc53ea48	-0.012934275
51	0x3d5b3bc1	0.053523783
52	0xbbf3c0c4	-0.007438751
53	0xbd0a6fa2	-0.033797868
54	0xbd28c044	-0.041198984
55	0xbd6abbed	-0.057308126
56	0xbd58edae	-0.052961044
57	0xbb9515ac	-0.0045497026
58	0x3b84c939	0.004052308
59	0xbb2cae9d	-0.0026349195
60	0xbb8e7650	-0.0043476
61	0x3c997c50	0.018736035
62	0x3c68d176	0.014210096
63	0xba003f00	-0.00048922
64	0x3c127765	0.008939599
65	0xba810322	-0.0009842853
66	0xbc25b8ce	-0.010114862
67	0x3b970d51	0.0046097417
68	0xbc0c07b3	-0.0085467575
69	0x3d2773b0	0.040881813
70	0x3c8b1902	0.016979698
71	0x3d7be673	0.06149907
72	0xbc15acfa	-0.009135479
73	0xbbf7b9ee	-0.0075600063
74	0x3a0d2e18	0.00053855916
75	0xbc71b972	-0.014753686
76	0xbc930b22	-0.017949644
77	0x3ce9e62f	0.028552143
78	0x3ce142fb	0.02749776
79	0xba198d51	-0.00058575446
80	0x3d07682f	0.03305834
81	0xbc0bdbd9	-0.0085363025
82	0x3c4ee319	0.0126273865
83	0x3c9bb31f	0.01900631
84	0xbc9847af	-0.018588869
85	0x3d449017	0.047988977
86	0x3c4db09b	0.012554313
87	0x3cda4a9c	0.026646905
88	0x3cb8eef9	0.022574889
89	0x3e15bb10	0.1462214
90	0x3dadd089	0.084870405
91	0xbcf7bedf	-0.030242382
92	0xbc5c6763	-0.013452384
93	0xbc7ad35b	-0.01530918
94	0x3d5b1fc9	0.05349711
95	0x3bebd036	0.0071964515
96	0x3c3a3d03	0.011367085
97	0xbc9983e1	-0.018739643
98	0x3ce677de	0.028133329
99	0x3c2ac7f1	0.010423646
100	0x3b17e326	0.0023176163
101	0xbbef0f6d	-0.00729554
102	0x3cb8069a	0.022464085
103	0x3b0e07a0	0.0021672025
104	0xbc7ba828	-0.015359916
105	0x3d5c27a7	0.053748753
106	0x3daac764	0.08338812
107	0xbcae03af	-0.02124199
108	0x3da4289e	0.080155596
109	0x3bf0eda2	0.007352547
110	0x3bd04a8f	0.0063565443
111	0x3d318a71	0.04334492
112	0x3c80e395	0.01573352
113	0x3d2f8db7	0.04285976
114	0x3ccd5c67	0.025068475
115	0xbc033a1c	-0.00800946
116	0x3bf13d6b	0.007362058
117	0x3d5bee98	0.053694338
118	0x3c3f71f2	0.0116848815
119	0x3cb06806	0.021533977
120	0x3cbe6862	0.023243133
121	0xbcae9263	-0.021310037
122	0xbb80443b	-0.0039143837
123	0xba72cd06	-0.0009262118
124	0x3c3a4198	0.011368178
125	0x3de4c955	0.111712135
126	0x3d714fe6	0.058914088
127	0x3bc92a3f	0.0061390693
128	0xbc015b5b	-0.007895316
129	0x3cc66f94	0.024223126
130	0xbc86c5e3	-0.016451782
131	0xbcae1f35	-0.021255115
132	0xbd69cf9d	-0.05708276
133	0x3d0fb912	0.035088606
134	0xbd10e04e	-0.035370164
135	0x3af5482d	0.0018713527
136	0x3d227bf3	0.03966899
137	0x3c155f70	0.009116992
138	0x3b3d3bc1	0.0028874727
139	0xbb694429	-0.0035593605
140	0x3c531202	0.012882711
141	0x3a9467be	0.0011322421
142	0xbb167a7e	-0.0022961195
143	0x3d3cb9c1	0.046075586
144	0xbcb16cdb	-0.021658352
145	0x3b0152a1	0.0019733089
146	0x3dbc1dce	0.09185372
147	0x3dd16e3f	0.10226106
148	0xbd6c9a8b	-0.05776457
149	0x3d6eb9e6	0.058282755
150	0xbbbd8717	-0.005783926
151	0x38815a19	6.167981e-05
152	0xbbc8783a	-0.0061178477
153	0x3c94f619	0.018183755
154	0x3c291539	0.010320001
155	0x3d891e53	0.06695237
156	0x3c646592	0.013940232
157	0x3c8b76a9	0.017024355
158	0x3cd7e12f	0.026352493
159	0x3c03a1ea	0.008034209
160	0xbbfb20fb	-0.0076638437
161	0x3c40c019	0.01176455
162	0xbb35279b	-0.0027642015
163	0xbc3411e7	-0.010990596
164	0x3b492f76	0.0030698455
165	0x3d4fb58e	0.050710253
166	0x3cb3a8ff	0.02193117
167	0xbd5da7ee	-0.05411523
168	0xbb6c6dfd	-0.00360763
169	0xbd5e70c8	-0.054306775
170	0x3cc33f1f	0.02383381
171	0x3c496c27	0.012293852
172	0xbc7c391f	-0.015394478
173	0x3d409ae2	0.047022708
174	0xbad0ea9c	-0.001593906
175	0xbc5d14f3	-0.013493764
176	0x3c254447	0.010087079
177	0x3cb38de7	0.02191825
178	0xbc178237	-0.009247354
179	0x3bb75cf1	0.0055957963
180	0x3be1a77c	0.006886421
181	0x3d312a53	0.043253254
182	0x3c87b6e7	0.016566707
183	0x3c248922	0.010042461
184	0x3d8634b7	0.06553023
185	0x3d273bec	0.04082863
186	0xbcef7107	-0.0292287
187	0x3ca99b3b	0.020703902
188	0x3c540b9f	0.012942224
189	0x3be8636d	0.0070919306
190	0x3c87b7d2	0.016567145
191	0xbd0a3fd9	-0.033752296
192	0xbd04a5cd	-0.032384682
193	0xbd4c97f9	-0.04994962
194	0xbc660b43	-0.014040771
195	0x3ceb507d	0.028724903
196	0x3d408412	0.047000952
197	0xbb4bbdfa	-0.0031088577
198	0x3cc6af9e	0.024253663
199	0x3b85a027	0.0040779295
200	0x3bb4fa57	0.005523007
201	0x3c379671	0.011205302
202	0x3d1ebfd1	0.03875715
203	0x3caf6380	0.02140975
204	0xbb463939	-0.003024651
205	0xbc897d27	-0.01678331
206	0xbba328b8	-0.0049792193
207	0xbcb255d1	-0.021769436
208	0xbc63df2e	-0.013908191
209	0x3cd52559	0.026018785
210	0xbcb6af13	-0.022300279
211	0xbc106614	-0.0088134
212	0x3da3a33a	0.07990117
213	0xbc58871f	-0.013215809
214	0x3dd17259	0.10226888
215	0x3d26abd7	0.040691223
216	0xbb55fa1e	-0.0032650302
217	0x3affa45b	0.0019503938
218	0xba3643b5	-0.0006952838
219	0x3b1b0cf8	0.0023658853
220	0x3c95b1fa	0.018273342
221	0x3b9f57b4	0.00486275
222	0x3c3948cc	0.01130886
223	0x3c57729a	0.013149882
224	0x3b9e60a4	0.004833298
225	0xba0217de	-0.0004962663
226	0xbc4aff59	-0.012389981
227	0x3aa6c5bc	0.0012723724
228	0xbd254898	-0.040352434
229	0xbb0eae9a	-0.002177155
230	0x3db2b04c	0.08725032
231	0x3d80945a	0.06278296
232	0x3ddc3699	0.10752601
233	0xbc7d40ae	-0.015457315
234	0x3c8b8426	0.017030787
235	0xbd0b5e9f	-0.034025785
236	0x3c359dd8	0.011084996
237	0x3b9826ab	0.0046432815
238	0x3c38877b	0.01126277
239	0x3c0a30b3	0.008434462
240	0xbb88b9a7	-0.004172522
241	0xb94c9269	-0.00019509498
242	0x3c2eb559	0.010663354
243	0x3c956874	0.018238284
244	0x3c6492b9	0.013950997
245	0x3d21b028	0.039474636
246	0x3db34b75	0.08754627
247	0x3cc09e83	0.023513084
248	0x3cca0d70	0.02466461
249	0x3cc8fb4d	0.024533892
250	0x3aa14741	0.001230456
251	0x3ddff497	0.10935324
252	0xbd2275a7	-0.039662983
253	0xbbcbd967	-0.0062209847
254	0x3b8a20bc	0.004215328
255	0x3b7ee545	0.003889398

decoder.3.weight f4 [16, 6, 5, 5]
0	0x3cd6f7bb	0.026241174
1	0xbcc18835	-0.023624519
2	0x3cd8377a	0.02639364
3	0xbcba4217	-0.022736592
4	0xbc258224	-0.010101829
5	0x3c6fe1a8	0.014641203
6	0xbcee5b5f	-0.029096304
7	0x3d0be6b3	0.03415556
8	0xbda54f2e	-0.08071743
9	0xbda71b90	-0.08159554
10	0x3d552f3c	0.052047
11	0xbb8d0619	-0.0043037054
12	0xbbdfa489	-0.006825034
13	0xbcd33961	-0.025784196
14	0xbd94d122	-0.072664514
15	0xbd6719b2	-0.05642099
16	0xbd53a0d0	-0.051667035
17	0xbdaa7f99	-0.083251186
18	0xbdeb9bee	-0.115043506
19	0xbe0a8ebf	-0.13531016
20	0xbda67493	-0.081277035
21	0xbdc983e7	-0.098396115
22	0xbbbb3346	-0.0057128994
23	0xbd9fdadb	-0.07805415
24	0xbdfa1a9a	-0.12212105
25	0x3dcf1a35	0.101124205
26	0x3d2ebfa6	0.04266324
27	0xbd03368d	-0.032034446
28	0x3d44e61e	0.04807102
29	0x3c7a1847	0.015264577
30	0xb9e6d322	-0.00044026325
31	0xba2023a7	-0.0006108828
32	0xbc60945f	-0.013707249
33	0xbdb35dcf	-0.08758127
34	0xbcad93d6	-0.021188658
35	0xbd8a6b4e	-0.06758748
36	0xbd467824	-0.04845442
37	0xbc8128a3	-0.015766447
38	0x3cd68a5a	0.026189018
39	0xbcf432ab	-0.029809317
40	0x3c84f7ae	0.016231384
41	0xbd88e173	-0.06683626
42	0x3d4e8320	0.05041802
43	0xbc7b648c	-0.015343796
44	0xbd1fff86	-0.039062046
45	0xbd3d5138	-0.046220034
46	0x3c3f3cf1	0.011672244
47	0xbd647d86	-0.05578377
48	0xbc960c75	-0.018316487
49	0x3d2712b4	0.04078932
50	0xbd915e61	-0.070980795
51	0xbd23e4b6	-0.040013038
52	0xbc5d87a2	-0.013521107
53	0xbc877ec8	-0.016539946
54	0xbc99c3ad	-0.018770063
55	0xbd590924	-0.052987233
56	0xbb128fcf	-0.0022363549
57	0xbd825043	-0.06362965
58	0xbcaf89d2	-0.021428023
59	0xbd2232fb	-0.0395994
60	0xbd8e90b3	-0.06961193
61	0xbd6457e1	-0.05574787
62	0x3d01b46a	0.031666197
63	0xbd1f21f1	-0.03885073
64	0xbd6ecf9e	-0.058303468
65	0xbc9413bb	-0.018075814
66	0xbcb007d6	-0.021488111
67	0x3d955031	0.07290686
68	0xbd816b92	-0.063193455
69	0xbd152bf8	-0.036418885
70	0x3c37cd80	0.011218429
71	0x3d3d8dff	0.046277996
72	0x3d0332d9	0.032030914
73	0x3cd926f0	0.026507825
74	0xbd3aad50	-0.04557544
75	0xbc9757f6	-0.01847456
76	0x3c953911	0.018215688
77	0x3d9063f0	0.070503116
78	0x3d1661ad	0.036714245
79	0x3d47fdd2	0.048826046
80	0x3d7f094f	0.062264737
81	0x3d9cff17	0.07665842
82	0x3dcc308c	0.09970197
83	0x3dbc0a7c	0.09181687
84	0x3d0a4a66	0.033762358
85	0x3d80f474	0.06296626
86	0x3d434bed	0.04767983
87	0x3d8dd578	0.069254816
88	0x3d90e299	0.0707447
89	0xbb8bc1e6	-0.004265058
90	0x3d7dc07f	0.061951157
91	0x3c1d7a43	0.009611669
92	0x3d2d0b17	0.042246904
93	0xbc529607	-0.012853152
94	0xbbbefd35	-0.0058285245
95	0x3c94b1b7	0.018151147
96	0x3ccd910d	0.02509358
97	0x3d3d941f	0.046283837
98	0xba9eaa3e	-0.001210518
99	0xbc2786ec	-0.010225039
100	0xbc3afeca	-0.0114132855
101	0x3cb7cbf8	0.022436127
102	0xbc92d7d9	-0.01792519
103	0x3cbb61d1	0.022873791
104	0xbd92f117	-0.071748905
105	0xbc9dca11	-0.019261392
106	0xbd1a255e	-0.037633292
107	0x3d711514	0.058857992
108	0x3c533b0e	0.012892498
109	0xbd3c1926	-0.04592242
110	0x3d6de4f8	0.05807969
111	0xbc6bcba1	-0.014391811
112	0x3955f8b5	0.00020405914
113	0x3d9a16ea	0.07523902
114	0x3dcf08ec	0.101091236
115	0x3d1f692f	0.03891867
116	0x3d81be07	0.06335073
117	0x3d9898e2	0.07451035
118	0x3d0ac664	0.033880606
119	0x3dedfe15	0.11620728
120	0x3d817497	0.06321066
121	0x3d098e9a	0.03358326
122	0x3dcc2345	0.09967665
123	0x3d16eab1	0.036844913
124	0x3db3ce58	0.08779591
125	0xbdbe19f9	-0.09282298
126	0x3cd81d0c	0.026381038
127	0xbd412f34	-0.047164157
128	0xbd07ba88	-0.033136874
129	0xbd798816	-0.060920797
130	0xbd38a9b8	-0.04508373
131	0xbba0a2e5	-0.004902231
132	0x3c864fac	0.016395412
133	0xbcafe918	-0.021473452
134	0xbd98cda2	-0.07461096
135	0xbd174700	-0.036932945
136	0xbd519e14	-0.051176146
137	0xbd861c75	-0.065483965
138	0xbdf6d14b	-0.12051638
139	0xbc44b4b9	-0.012005978
140	0xbabe7172	-0.0014529659
141	0xbd64909c	-0.055801973
142	0x3d12cfa1	0.03584254
143	0xbd2ad7c1	-0.041709665
144	0xbc8d69fe	-0.017262455
145	0xbcc42c11	-0.023946794
146	0xbc615383	-0.013752821
147	0x3d8a63f3	0.06757345
148	0xbb9c303b	-0.0047664917
149	0x3d6e778d	0.05821948
150	0x3d0b5538	0.034016818
151	0x3d83845e	0.064217314
152	0xbc1af6c3	-0.009458247
153	0x3d8a0b23	0.067404054
154	0x3d2de57d	0.042455185
155	0xbc0d6e13	-0.008632201
156	0xbcf4e11b	-0.029892495
157	0x3bbfde59	0.0058553633
158	0x3d5eaa0d	0.05436139
159	0xbc8d75d7	-0.017268104
160	0x3d2af2e4	0.041735545
161	0x3d331707	0.043723132
162	0x3dc4ffac	0.09619078
163	0x3d0263f0	0.03183359
164	0x3ca30d2c	0.019903742
165	0x3d1c5583	0.038167488
166	0x3a21b880	0.0006169155
167	0x3cae07b7	0.021243913
168	0x3cf78600	0.030215263
169	0x3b70f0fe	0.0036764736
170	0xbd065426	-0.032795094
171	0x3c09d292	0.00841202
172	0x3cd395aa	0.025828201
173	0x3d52b5b7	0.051442828
174	0xbc0e4c3a	-0.008685166
175	0x3d2d6804	0.042335525
176	0x3b5559ad	0.0032554672
177	0xbd477800	-0.048698425
178	0xbce5af59	-0.028037714
179	0xbd6c766b	-0.05773012
180	0xbc5aecdb	-0.013362135
181	0x3c5a8a08	0.013338573
182	0xbda6c112	-0.08142294
183	0xbd1fa886	-0.038979076
184	0x3d1fc005	0.039001483
185	0xbcdeec73	-0.027212357
186	0x3c8cdbb3	0.017194605
187	0x3ceac0e5	0.028656432
188	0xbdae76d9	-0.08518762
189	0xbd086faf	-0.033309635
190	0xbd3e3af1	-0.04644293
191	0xbc059fa4	-0.008155737
192	0xbc1fec1a	-0.009760881
193	0xbd9fb104	-0.07797435
194	0xbd71e831	-0.059059326
195	0xbca9c757	-0.020724935
196	0xbcb51f4d	-0.022109652
197	0xbdebfed5	-0.11523215
198	0xbd06f4ed	-0.032948423
199	0xbd781d7f	-0.060575005
200	0x3ccf7e3e	0.025328752
201	0xbd6d2173	-0.057893228
202	0x3cf6a332	0.030107114
203	0xbd594593	-0.053044867
204	0xbcd7e0bf	-0.026352284
205	0xbcf03234	-0.029320814
206	0xbce71d35	-0.02821217
207	0x3d0d8c53	0.03455765
208	0x3c8d0991	0.017216476
209	0xbd63543c	-0.055500254
210	0x3d203848	0.039116174
211	0x3dade047	0.08490043
212	0x3b03ebe9	0.0020129627
213	0x3d44f152	0.048081703
214	0x3d7a9e99	0.061186407
215	0x3d8f799f	0.07005619
216	0x3cada545	0.02119697
217	0xbd36b133	-0.044602584
218	0xbd84afc8	-0.0647884
219	0x3c677058	0.014125906
220	0xbd2e1018	-0.042495817
221	0x3d8f468e	0.06995879
222	0x3d9f4107	0.07776075
223	0xba6ae9eb	-0.0008961248
224	0xbd49d40c	-0.04927449
225	0x3c20f447	0.009823865
226	0x3d1fb45b	0.03899036
227	0x3cb4fcef	0.022093264
228	0x3cb37ebd	0.02191102
229	0x3d880446	0.0664144
230	0x3cbfa273	0.023392892
231	0xb9cd36c5	-0.00039141453
232	0x3da26abb	0.079305135
233	0x3c893f5d	0.016753847
234	0x3ca3ec7e	0.02001023
235	0xbc549e30	-0.012977168
236	0x3cb90013	0.022583043
237	0x3dcb9305	0.09940151
238	0x3d10edeb	0.035383146
239	0x3d3e1400	0.046405792
240	0x3d7c6010	0.06161505
241	0x3dbfb1ee	0.09360109
242	0x3d8f9d93	0.07012477
243	0x3cd1f7a5	0.025630781
244	0x3d7aeca2	0.061260827
245	0x3d95e0d2	0.07318272
246	0x3d812938	0.0630669
247	0x3d86f7ff	0.0659027
248	0x3ce4d7ef	0.027934996
249	0x3d18235c	0.037143096
250	0xbd215711	-0.039389674
251	0xbda874af	-0.08225381
252	0x3c4068a0	0.011743695
253	0xbc8f2947	-0.017475737
254	0xbc8ddfbe	-0.017318603
255	0xbd2ea94d	-0.042641927

decoder.3.bias f4 [6]
0	0xbe2d24cd	-0.1690857
1	0x3e1c9795	0.15292199
2	0xbe31c8ab	-0.17361705
3	0xbd622e3d	-0.055219878
4	0x3e1096e4	0.1412006
5	0x3de5c401	0.112190254

decoder.5.weight f4 [6, 1, 5, 5]
0	0xbe258a63	-0.16166072
1	0xbdd5ae84	-0.10433677
2	0xbdaf4106	-0.08557324
3	0xbde161ba	-0.11004968
4	0xbdbcb354	-0.092138916
5	0xbdde7405	-0.10861973
6	0xbe2637c9	-0.16232218
7	0xbdf876ca	-0.12132032
8	0x3d1bf023	0.03807081
9	0x3d9782bf	0.07397985
10	0xbd0ff51c	-0.035145864
11	0x3d8e61dd	0.0695226
12	0x3c87be1b	0.016570142
13	0x3cec6e65	0.028861234
14	0x3e459a57	0.19297157
15	0x3d17fbdd	0.03710543
16	0x3deaa16e	0.114565715
17	0x3e641b9c	0.22276157
18	0x3e82e830	0.2556777
19	0x3e47b779	0.19503583
20	0x3d94c250	0.07263625
21	0x3e3a5cae	0.18199417
22	0x3e375862	0.17904809
23	0x3e51a639	0.20473565
24	0x3e0923c1	0.13392545
25	0xbe532b1a	-0.2062191
26	0xbe8c7728	-0.2743466
27	0xbe31b437	-0.17353903
28	0xbdee97bb	-0.11650034
29	0x3b0414bc	0.002015396
30	0xbe3b2487	-0.18275653
31	0xbe612497	-0.21986614
32	0xbe8e5c44	-0.27804768
33	0xbe63668f	-0.22207092
34	0x3b3dc2f0	0.0028955303
35	0xbd9f266e	-0.07771002
36	0xbd79eba1	-0.06101573
37	0xbdefce66	-0.11709289
38	0xbe10c2b1	-0.14136769
39	0x3c951a5d	0.018201048
40	0xbe15c4d6	-0.14625868
41	0xbde3d961	-0.11125446
42	0xbd977064	-0.07394484
43	0xbdc85e42	-0.09783603
44	0x3ccd6f18	0.025077388
45	0xbdb862e4	-0.09003237
46	0xbdf1cc41	-0.118065365
47	0xbd41b068	-0.047287375
48	0xbd1e7248	-0.038683206
49	0x3d8fa3f6	0.07013695
50	0x3d9d6a49	0.07686288
51	0x3e1776a8	0.14791358
52	0x3e478c70	0.19487166
53	0x3dfca10e	0.12335406
54	0x3d02bfff	0.031921383
55	0x3e09fdef	0.13475774
56	0x3da60718	0.08106822
57	0x3e011799	0.12606658
58	0x3dc9361d	0.098247744
59	0x3dd262de	0.10272764
60	0x3d8966cf	0.06709062
61	0xbbd85173	-0.0066015064
62	0x3cea7582	0.028620485
63	0x3d7d4545	0.06183364
64	0x3d3038b3	0.043022823
65	0x3d12c989	0.03583673
66	0x3e066e83	0.13128094
67	0x3e4511f8	0.19245136
68	0x3df7b2f2	0.12094678
69	0x3db8a762	0.09016301
70	0x3d3b5d4a	0.045743264
71	0xbcbb3dff	-0.02285671
72	0x3e0b65f2	0.13613108
73	0x3dff723b	0.124729596
74	0x3de78556	0.11304729
75	0x3dced84b	0.10099848
76	0x3d123af2	0.035700746
77	0xbd834141	-0.064089306
78	0xbcc0ea2b	-0.02354916
79	0xbe1fd192	-0.15607288
80	0x3e6b70b4	0.22992212
81	0x3e2661f2	0.162483
82	0xbbd8d9bd	-0.0066177533
83	0xbcf0767f	-0.029353378
84	0x3daa220c	0.08307275
85	0x3e77afb5	0.2418812
86	0x3d8f32f1	0.06992138
87	0x3e47b17a	0.19501296
88	0x3d82b49d	0.063821055
89	0xbd61a4da	-0.055088855
90	0x3db1fd6c	0.086909145
91	0x3e0c435d	0.13697572
92	0xbddb5e5c	-0.10711357
93	0xbe079e27	-0.13243924
94	0xbe202123	-0.1563764
95	0xbe19f3d8	-0.15034425
96	0xbda10130	-0.078615546
97	0x3d3c15e7	0.045919325
98	0xbe66728e	-0.22504637
99	0xbe8ef6de	-0.2792272
100	0xbd274785	-0.04083969
101	0xbe23ae72	-0.15984514
102	0xbdafa3d4	-0.085761696
103	0xbd93281b	-0.07185384
104	0xbcd48c27	-0.025945736
105	0xbe4ea478	-0.20179927
106	0xbe19d754	-0.15023547
107	0xbe5c2484	-0.21498305
108	0xbe3ecde1	-0.18633224
109	0xbce446ba	-0.027865756
110	0xbe8331f0	-0.25624037
111	0xbe5479b2	-0.20749548
112	0xbd8c3aa0	-0.06847119
113	0xbd83fff1	-0.06445301
114	0xbe3de6b6	-0.1854504
115	0xbde9a57d	-0.114085175
116	0xbe44b0af	-0.19208024
117	0xbe3a8521	-0.18214847
118	0xbde174f6	-0.11008637
119	0xbdcd0c6d	-0.10012136
120	0xbe53c093	-0.2067893
121	0xbe4dc40d	-0.20094319
122	0xbe186f06	-0.14886102
123	0xbe6d7524	-0.23189217
124	0xbe32f49b	-0.17476122
125	0x3d9470ff	0.07248115
126	0xba80327d	-0.0009780672
127	0xbe8de252	-0.2771173
128	0xbdb35fe5	-0.08758525
129	0xbde4051c	-0.11133787
130	0x3d961b32	0.07329406
131	0xbe802f42	-0.25036055
132	0xbeaae913	-0.33380947
133	0xbe451637	-0.19246756
134	0x3d670ac5	0.056406755
135	0xbc43ba9c	-0.011946347
136	0xbe81f2fc	-0.25380695
137	0xbde00b44	-0.10939649
138	0xbdeb439e	-0.11487506
139	0x3e0117ff	0.1260681
140	0xbdded746	-0.10880904
141	0xbd76dd4d	-0.060269643
142	0xbcc43dc0	-0.023955226
143	0x3dbd1c88	0.092339575
144	0x3dc0c1d0	0.09411967
145	0x3c498918	0.012300752
146	0x3c055fee	0.008140547
147	0xbd152b5c	-0.036418304
148	0xbc7b3afc	-0.015333887
149	0xbda0bb45	-0.07848219
