Autoencoder-on-MNIST-in-Pytorch/Models/model_e3.pt (torch, 561729 bytes, 11 tensors)

encoder.0.weight f4 [6, 1, 5, 5]
-0.14304505 -0.11580925 -0.0390001 -0.1465899 -0.23310156 -0.16677168 -0.2695141 0.03823518
-0.091293976 -0.12435007 0.10425189 -0.16443756 0.061588693 -0.21785827 -0.12389032 0.10228837
0.0001626501 -0.18277855 -0.11417372 -0.0054582427 -0.0137811275 -0.09002721 0.027217312 -0.23533584
-0.2686567 -0.16184962 -0.254796 -0.19910426 -0.2537603 -0.22909336 0.090058915 0.030321734
0.07234514 0.027266627 0.1664141 -0.16164851 -0.008962172 0.13391207 -0.046980917 -0.08834307
0.1821481 0.14215492 0.112532414 0.13179472 0.21853593 -0.10303211 -0.14931048 -0.12719059
0.250959 0.209431 0.13965312 0.12321699 0.121178 -0.081486985 -0.06859647 0.19537708
0.08805011 -0.2396915 -0.24942943 -0.25715998 -0.18241403 -0.07337444 -0.32663834 -0.16628091
-0.03990195 0.020007934 0.042435624 -0.29428878 0.0528404 -0.11160017 -0.1284575 0.05926392
-0.16598244 -0.1785897 -0.31009474 -0.17074256 -0.11786227 -0.17933151 0.19942267 -0.045515228
-0.028808251 0.06946321 -0.09302221 0.16010928 0.2055915 0.17741653 0.1888227 -0.18742238
0.2007326 0.21951616 -0.11829208 0.13155442 0.046848163 -0.056123413 0.13878141 0.20399573
-0.019203959 0.11569084 0.20974791 0.064615756 -0.014570234 0.18573444 -0.009038092 -0.07696284
0.14142533 0.041787658 -0.09901168 -0.08465719 0.23230028 0.2100542 -0.10395661 -0.15352072
0.12098926 -0.027981944 0.18426837 0.08589513 0.011079075 -0.028160352 0.18762624 0.19841813
-0.041905295 -0.23864824 -0.13926074 0.21371374 0.06047192 -0.059727006 0.15512535 0.11253366
-0.14444949 0.023124386 -0.07246349 0.20008387 -0.08955059 -0.24440442 -0.15799707 0.0539467
0.13661951 -0.025256196 -0.18623236 -0.27431375 0.22853935 0.22632466 0.2001751 -0.1097443
-0.15581281 0.0710229 -0.061610572 0.062457733 -0.1581075 -0.17767464
00000000: 677a 12be 662d edbd 92be 1fbd aa1b 16be
00000010: 2db2 6ebe 32c6 2abe c1fd 89be 7e9c 1c3d
00000020: 56f8 babd 40ab febd 0482 d53d 5262 28be
00000030: 6d44 7c3d 3d16 5fbe 35ba fdbd 917c d13d
00000040: 0e8d 2a39 4d2a 3bbe e9d3 e9bd 0fdb b2bb
00000050: 3dca 61bc 3060 b8bd d7f6 de3c e1fb 70be
00000060: 5f8d 89be e8bb 25be 9f74 82be fde1 4bbe
00000070: dfec 81be 7397 6abe cf70 b83d 4965 f83c
00000080: b029 943d 435e df3c 7568 2a3e 3087 25be
00000090: 13d6 12bc 3f20 093e 106f 40bd 36ed b4bd
000000a0: 0885 3a3e 0f91 113e 6577 e63d 32f5 063e
000000b0: e2c7 5f3e 8002 d3bd d9e4 18be 403e 02be
000000c0: b37d 803e 1475 563e 3a01 0f3e 3059 fc3d
000000d0: 2c2c f83d a6e2 a6bd 4e7c 8cbd ee10 483e
000000e0: 9e53 b43d b071 75be 6e6a 7fbe 79aa 83be
000000f0: beca 3abe 5745 96bd 243d a7be 8b45 2abe
00000100: 3a70 23bd aee7 a33c fad0 2d3d 05ad 96be
00000110: 2d6f 583d a18e e4bd 5d8a 03be b9be 723d
00000120: 4df7 29be 38e0 36be bdc4 9ebe 23d7 2ebe
00000130: c661 f1bd aea2 37be 7535 4c3e 2d6e 3abd
00000140: 48ff ebbc ba42 8e3d 6e82 bebd b0f3 233e
00000150: 9486 523e aeac 353e bd5a 413e a7eb 3fbe
00000160: d98c 4d3e d8c8 603e 1e43 f2bd 34b6 063e
00000170: dce3 3f3d aae1 65bd b71c 0e3e 42e4 503e
00000180: 9f51 9dbc 52ef ec3d 28c8 563e 4455 843d
00000190: feb7 6ebc 2b31 3e3e 8114 14bc b29e 9dbd
000001a0: cdd1 103e 8929 2b3d a3c6 cabd c060 adbd
000001b0: 20e0 6d3e 7318 573e 34e7 d4bd 8934 1dbe
000001c0: 38c9 f73d 643a e5bc d9b0 3c3e c9e9 af3d
000001d0: 0285 353c 8ab0 e6bc 1821 403e 1f2e 4b3e
000001e0: e3a4 2bbd 3460 74be 5e9a 0ebe c6d7 5a3e
000001f0: 67b1 773d 4ea4 74bd 2ed9 1e3e 0c78 e63d
00000200: 91ea 13be 5a6f bd3c bd67 94bd c9e2 4c3e
00000210: 4d66 b7bd 2745 7abe fcc9 21be 37f7 5c3d
00000220: fce5 0b3e 15e6 cebc b2b3 3ebe da72 8cbe
00000230: 3806 6a3e a7c1 673e b4fa 4c3e 9fc1 e0bd
00000240: 658d 1fbe 7474 913d 5e5b 7cbd aed3 7f3d
00000250: efe6 21be 57f0 35be

encoder.0.bias f4 [6]
0.11868933 0.15438528 -0.06339439 0.14732182 -0.06519845 0.18464865
00000000: 6413 f33d 2d17 1e3e ebd4 81bd 88db 163e
00000010: c486 85bd 8914 3d3e

encoder.2.weight f4 [16, 6, 5, 5]
0.05181821 0.034763645 -0.05954665 0.0978345 -0.0019106847 0.0045353253 -0.050920147 -0.06533221
-0.0035972083 0.04480806 -0.09745879 -0.11148863 0.005625216 -0.006366876 -0.032405373 -0.079123706
0.0024806452 -0.11003212 -0.014775983 0.01685984 -0.063893646 -0.009418815 -0.056532368 0.014686933
-0.055763077 0.015276633 -0.024334734 -0.03196137 0.013823746 0.025933018 -0.00063023955 0.09180506
0.01441281 0.00087779947 -0.0272571 0.051047597 0.088607624 0.08093235 -0.04461105 -0.037550524
0.0632414 -0.020567229 -0.022002796 0.07117849 0.1135062 -0.07134951 0.06464431 -0.08682411
-0.054880098 0.024898518 0.072917975 0.05237704 0.0071176863 0.10255161 -0.025412127 -0.007927651
0.05018897 -0.017583784 -0.039288715 0.07362596 -0.07127322 -0.028058693 -0.049363 0.0707375
0.03701775 -0.10944549 -0.083453484 0.028805152 -0.004038459 0.051357158 -0.090837985 -0.06274076
-0.013748899 -0.01122568 -0.0005823392 0.009265914 0.08435207 -0.051393654 -0.03880723 -0.023360249
0.03158791 0.09474387 0.03571355 0.08678817 0.09493515 0.06333724 0.04582457 -0.018297348
-0.060246956 -0.01940543 0.101613924 0.0989042 0.01942127 -0.022931956 0.08130632 0.09341604
-0.027255755 0.03478657 -0.033990365 -0.012250297 0.056538954 0.104972444 0.10417541 -0.012957776
-0.04583455 0.038649272 0.10796411 -0.0020862527 -0.032215632 0.076604724 0.104528606 0.04496518
-0.033416975 0.012905083 -0.029168587 0.008208653 0.051271345 -0.03937562 -0.055214353 0.0028283463
0.039055437 -0.015952382 -0.029040646 0.04597841 -0.030822279 0.059519347 -0.04526871 0.0065658097
0.009178439 -0.014500511 0.035573896 -0.04759597 0.10462032 0.1120303 0.06239787 0.059082393
0.049730096 0.041459426 0.004275488 0.015151652 0.07293344 0.06939654 0.014764226 0.06695683
-0.041439004 0.020607635 0.038093947 0.044870004 -0.0074271057 0.028860247 -0.05399441 0.01123478
-0.06314204 0.046443168 -0.02723263 0.07721304 0.009177938 -0.079244025 0.052742068 0.021464873
-0.044090968 -0.051397085 -0.026966643 0.04369432 0.01398578 0.02362245 -0.0042380253 -0.06679602
-0.0072582904 0.00561245 -0.025854578 -0.05655633 -0.08012462 -0.087187275 -0.015658986 0.0045873234
0.049124297 -0.06730407 -0.02599415 0.017156804 -0.030647809 0.023591405 0.012983407 -0.039275106
-0.043734845 -0.012042136 0.041027274 -0.042748164 0.004746979 -0.036521252 0.058757484 0.048296858
-0.01811184 0.04187472 0.070412196 -0.019970497 0.03577431 -0.0499746 0.065579295 0.021988455
0.050136417 -0.04536763 -0.038461898 0.06727029 0.06624903 0.04679771 -0.04594091 0.017170733
0.04923889 -0.0134277595 0.07182385 -0.06429143 -0.055518735 -0.034573775 -0.03708391 -0.048918243
-0.004222649 -0.097273715 -0.023387583 0.045528743 0.010530515 -0.0641656 -0.08155494 -0.019338211
0.07330087 0.04821332 0.070765465 -0.028880563 0.06842575 0.019454014 0.014790436 0.05738011
0.08178212 0.013130348 -0.063320525 -0.020766256 0.03463299 -0.04730489 0.0986714 0.017681494
0.030039707 0.10497331 0.019942686 0.079148084 0.047133077 0.04218304 0.053218182 -0.058206923
0.06966505 0.076885045 -0.0022436327 -0.026431046 0.06793813 -0.051841058 0.049493518 -0.012977808
00000000: 553f 543d 5364 0e3d 30e7 73bd 745d c83d
00000010: f16f faba 119d 943b a591 50bd e5cc 85bd
00000020: 24bf 6bbb a888 373d 7998 c7bd 2754 e4bd
00000030: bb53 b83b 3aa1 d0bb 7fbb 04bd 9c0b a2bd
00000040: 5292 223b 8558 e1bd f716 72bc a61d 8a3c
00000050: acda 82bd 6051 1abc 7c8e 67bd 76a1 703c
00000060: d367 64bd d84a 7a3c a359 c7bc ede9 02bd
00000070: fe7c 623c 7b71 d43c a936 25ba 4b04 bc3d
00000080: b523 6c3c 201c 663a 484a dfbc 4917 513d
00000090: ea77 b53d dcbf a53d 14ba 36bd 94ce 19bd
000000a0: b584 813d 9b7c a8bc 353f b4bc 07c6 913d
000000b0: f075 e83d b11f 92bd 3c64 843d d7d0 b1bd
000000c0: f4c9 60bd faf7 cb3c 0556 953d 4f89 563d
000000d0: 7b3b e93b 9406 d23d 182d d0bc fae2 01bc
000000e0: f392 4d3d de0b 90bc 34ed 20bd 35c9 963d
000000f0: b2f7 91bd 58db e5bc db30 4abd d3de 903d
00000100: ed9f 173d f524 e0bd a9e9 aabd c8f8 eb3c
00000110: 0d55 84bb e25b 523d 4409 babd 3a7e 80bd
00000120: 1043 61bc eaeb 37bc 1fa8 18ba 0fd0 173c
00000130: c7c0 ac3d 2782 52bd 54f4 1ebd fe5d bfbc
00000140: 5362 013d 1309 c23d 5f48 123d ffbd b13d
00000150: 5c6d c23d f4b6 813d 8bb2 3b3d 52e4 95bc
00000160: 83c5 76bd 23f8 9ebc f61a d03d 498e ca3d
00000170: 5b19 9f3c ccdb bbbc ee83 a63d e950 bf3d
00000180: 7647 dfbc 5d7c 0e3d 7b39 0bbd 78b5 48bc
00000190: 6495 673d cbfb d63d eb59 d53d da4c 54bc
000001a0: 02bd 3bbd b34e 1e3d 4a1c dd3d 83b9 08bb
000001b0: 8af4 03bd f0e2 9c3d 1813 d63d 692d 383d
000001c0: 3de0 08bd d76f 533c f6f2 eebc 967d 063c
000001d0: e701 523d 5548 21bd 7228 62bd c75b 393b
000001e0: 98f8 1f3d 92ae 82bc a6e6 edbc db53 3c3d
000001f0: 017f fcbc 8fca 733d af6b 39bd 0126 d73b
00000200: 2a61 163c 8d93 6dbc efb5 113d fef3 42bd
00000210: 2e43 d63d 2470 e53d e994 7f3d 6100 723d
00000220: c9b1 4b3d 5cd1 293d 6519 8c3b a23e 783c
00000230: 215e 953d c61f 8e3d a7e5 713c aa20 893d
00000240: f2bb 29bd 58d1 a83c 6608 1c3d 9cc9 373d
00000250: 145f f3bb 536c ec3c 3e29 5dbd 1512 383c
00000260: 9d50 81bd 313b 3e3d f716 dfbc df21 9e3d
00000270: 105f 163c b14a a2bd 1108 583d 1ad7 af3c
00000280: bb98 34bd c085 52bd 26e9 dcbc d1f8 323d
00000290: 9d24 653c de83 c13c 22df 8abb 5acc 88bd
000002a0: f4d6 edbb a5e8 b73b fbcc d3bc 9ca7 67bd
000002b0: 6018 a4bd 3e8f b2bd 4647 80bc 4251 963b
000002c0: 8f36 493d b7d6 89bd aff1 d4bc 6d8c 8c3c
000002d0: 1d11 fbbc c342 c13c 5bb8 543c efde 20bd
000002e0: 4f23 33bd 614c 45bc 370c 283d b318 2fbd
000002f0: 8c8c 9b3b 4f97 15bd b0ab 703d edd2 453d
00000300: 485f 94bc d484 2b3d 4534 903d 2b99 a3bc
00000310: 1588 123d 2bb2 4cbd 704e 863d 2221 b43c
00000320: d85b 4d3d 68d3 39bd 398a 1dbd 01c5 893d
00000330: 92ad 873d f5ae 3f3d 892c 3cbd a3a9 8c3c
00000340: b8ae 493d 1b00 5cbc 6218 933d 3aab 83bd
00000350: 9d67 63bd 3b9d 0dbd 4ce5 17bd 7f5e 48bd
00000360: 265e 8abb 7137 c7bd 5197 bfbc 597c 3a3d
00000370: 2e88 2c3c 4169 83bd 4706 a7bd 2b6b 9ebc
00000380: c41e 963d 557b 453d 7ced 903d ee96 ecbc
00000390: cd22 8c3d 065e 9f3c 9653 723c 6807 6b3d
000003a0: 627d a73d ac20 573c 31ae 81bd ff1d aabc
000003b0: 52db 0d3d c6c2 41bd 3b14 ca3d c8d8 903c
000003c0: d515 f63c 3ffc d63d d85e a33c 6418 a23d
000003d0: 9d0e 413d 20c8 2c3d 4ffb 593d 626a 6ebd
000003e0: 8dac 8e3d e875 9d3d e909 13bb ec85 d8bc
000003f0: 2523 8b3d 4a57 54bd b7b9 4a3d dfa0 54bc

encoder.2.bias f4 [16]
0.00016954516 0.039571207 0.027276553 0.035159107 0.10244129 0.01888776 0.03421218 -0.0063923313
-0.00043659445 0.119470865 0.02949326 0.038208187 0.09699518 0.022556467 0.033584103 -0.024202975
00000000: efc7 3139 6b15 223d 1473 df3c ff02 103d
00000010: bdcc d13d 81ba 9a3c 1222 0c3d c376 d1bb
00000020: b7e6 e4b9 24ad f43d d99b f13c 3080 1c3d
00000030: 69a5 c63d 57c8 b83c 7c8f 093d 5145 c6bc

encoder.5.weight f4 [10, 6400]
0.005093699 0.003862949 0.0057706246 -0.019064605 -0.021739786 -0.016773889 -0.032269545 -0.035450272
-0.021817323 -0.018166626 -0.022711363 -0.013619364 0.0023094004 0.0048043644 -0.0040685525 0.0018961278
0.010603066 0.009083068 0.0061461157 0.0049196947 0.023040205 0.0056528887 0.0072018676 -0.0043618213
-0.025015729 -0.025643809 -0.015638044 -0.025774987 0.0027166458 -0.010350282 0.000984696 -0.0022796346
1.11864765e-05 0.018191805 0.0077858376 0.025111469 0.007222826 0.006032997 0.0116877975 -0.0067664883
0.035247322 0.030965876 -0.0022536528 -0.007539012 -0.013444091 -0.019317415 -0.023728397 -0.014591171
-0.01085079 0.01127254 0.014692929 0.014265195 0.022008508 0.007540254 0.018700676 0.016046526
0.017486902 0.0041298633 0.0020513749 0.0066093006 0.039376315 0.016656002 -0.0011561954 -0.007418809
-0.016001724 -0.02052358 0.0014202038 -0.012398951 0.0028090398 0.0044917394 0.016487306 0.022275943
0.008527151 0.020426383 0.021808451 0.022671787 0.017578669 0.015072318 0.011978018 0.0044731474
0.026076553 0.016591191 0.00041187456 -0.013935701 -0.007233463 0.0059492216 0.0023984306 0.014258226
0.008224125 0.008510143 0.025297936 0.027365878 0.020876188 0.007338931 0.0025410084 -0.0014504694
0.01493585 0.013692401 0.016304282 0.0009853981 0.007305338 0.0017309157 -0.0012391864 -0.011169284
0.00040764222 -0.010388685 0.0017165394 0.009552643 0.015392936 0.021706715 0.012499619 0.033109557
0.02609402 0.017916515 -0.0020798452 0.00945866 -0.00071175303 0.003018189 0.007668093 -0.0025916302
0.011075477 -0.0037348212 -0.014715269 -0.030765142 -0.018008031 -0.011154981 -0.0015418193 0.010789541
0.023797328 0.02117035 0.02179868 0.014228249 0.0034325444 0.0191025 -0.00041051168 -0.0046519013
-0.0040567187 -0.008158399 -0.0003159549 -0.010766043 -0.012012835 -0.019795861 -0.015843546 -0.01111534
-0.008876501 0.007363384 0.0073508187 0.010675474 0.00849348 0.01726613 0.007273636 -0.002721672
0.0033429367 -0.0015338414 -0.008046596 0.0056760088 0.004452298 0.0071605206 0.0011550701 -0.0063417396
-0.0038534033 -0.014178846 -0.014459707 -0.009691322 0.0005252688 -0.009052213 0.0022138762 0.013526506
0.0061860466 0.02150659 0.012126161 0.010350506 -0.0042165183 0.00087621453 0.0055809156 -0.00012029665
-0.0028597626 0.01138438 -0.015573017 -0.01007441 -0.014312957 -0.03366318 -0.030677157 -0.014429405
-0.0039769094 -0.0070600132 -0.0051820995 0.0076322015 0.007136307 0.011752612 -0.010963384 0.010605637
0.0030034056 0.0064362865 0.015777146 0.012988646 0.00898163 0.0039291275 0.0012659683 -0.011022143
-0.0077555003 -0.026270125 -0.0045100385 0.0009449671 0.010677666 0.0144056985 0.007198151 0.018841868
0.00846356 -0.0020832117 0.006297823 0.015434594 0.021711806 0.0034381666 0.004997251 -0.009279826
-0.0018435587 -0.007055987 -4.5464778e-05 -0.025773242 -0.023965297 -0.020147394 -0.008893742 -0.0004957587
0.010942033 0.0028862827 0.021439182 0.008958819 0.008759308 0.0021928467 0.012619396 0.0040478404
0.021854613 -0.001415946 -0.0049053156 0.0057639955 -0.0039640204 -0.011225816 -0.014635438 -0.022980072
-0.012252051 -0.001243074 0.0031049252 0.019284144 0.01777506 0.016096992 0.013113024 0.022880899
0.015775375 -0.0070996312 0.01380379 0.023811918 0.013652141 -0.00034633433 0.0043171877 -0.0012007128
00000000: 0be9 a63b 8829 7d3b 8217 bd3b 602d 9cbc
00000010: a317 b2bc 6569 89bc 122d 04bd 4e34 11bd
00000020: 3eba b2bc 2dd2 94bc 2e0d babc c123 5fbc
00000030: 4f59 173b ee6d 9d3b 7e51 85bb 7e87 f83a
00000040: 7bb8 2d3c 26d1 143c 5b65 c93b 6435 a13b
00000050: d0be bc3c de3b b93b a5fd eb3b 9ced 8ebb
00000060: c9ed ccbc f712 d2bc 5b1b 80bc 1126 d3bc
00000070: c109 323b 3b94 29bc ea10 813a ec65 15bb
00000080: 8dad 3b37 fb06 953c 5720 ff3b 91b6 cd3c
00000090: 75ad ec3b 72b0 c53b 2d7e 3f3c 6bb9 ddbb
000000a0: 7f5f 103d 26ac fd3c 05b2 13bb d109 f7bb
000000b0: 9b44 5cbc 8e3f 9ebc 0e62 c2bc cf0f 6fbc
000000c0: 83c7 31bc 76b0 383c 9cba 703c 90b8 693c
000000d0: 304b b43c 3c14 f73b 2932 993c 0174 833c
000000e0: b140 8f3c ce53 873b 5c70 063b d592 d83b
000000f0: 0f49 213d 2b72 883c 7b8b 97ba 7b19 f3bb
00000100: 0c16 83bc 1121 a8bc 2226 ba3a f824 4bbc
00000110: de17 383b 712f 933b 6310 873c 0a7c b63c
00000120: 77b5 0b3c 3b55 a73c a3a7 b23c 2fba b93c
00000130: 2401 903c e2f1 763c 733f 443c 7b93 923b
00000140: 7f9e d53c 40ea 873c def0 d739 9152 64bc
00000150: b006 edbb b0f1 c23b fd2e 1d3b 569b 693c
00000160: 7bbe 063c 206e 0b3c 9e3d cf3c 682e e03c
00000170: 8a04 ab3c 6a7b f03b 0c87 263b ad1d beba
00000180: 7fb5 743c 1856 603c 8f90 853c 7928 813a
00000190: 9e61 ef3b e5df e23a 326c a2ba 5fff 36bc
000001a0: d0b8 d539 4e35 2abc 81fd e03a b082 1c3c
000001b0: a732 7c3c 48d2 b13c 34cb 4c3c e39d 073d
000001c0: 20c3 d53c a8c5 923c 034e 08bb 7ff8 1a3c
000001d0: f094 3aba cfcc 453b a044 fb3b 57d8 29bb
000001e0: eb75 353c e7c3 74bb 5018 71bc 2e07 fcbc
000001f0: 9485 93bc 62c3 36bc df16 caba 9dc6 303c
00000200: 9df2 c23c 716d ad3c 2593 b23c 9a1d 693c
00000210: 8af4 603b d97c 9c3c f239 d7b9 fa6e 98bb
00000220: 39ee 84bb ceaa 05bc c0a6 a5b9 0f64 30bc
00000230: 7bd1 44bc ee2a a2bc 53ca 81bc 1d1d 36bc
00000240: be6e 11bc 8b48 f13b 23df f03b 2fe8 2e3c
00000250: 3d28 0b3c b371 8d3c ae57 ee3b 145e 32bb
00000260: 2c15 5b3b 2d0b c9ba dfd5 03bc d0fd b93b
00000270: 95e4 913b cda2 ea3b b965 973a 5ece cfbb
00000280: 6189 7cbb 644e 68bc 68e8 6cbc 5ac8 1ebc
00000290: 31b2 093a bc4f 14bc ae16 113b 479e 5d3c
000002a0: 52b4 ca3b 972e b03c ceac 463c 2b95 293c
000002b0: b82a 8abb c3b1 653a 1de0 b63b c647 fcb8
000002c0: db6a 3bbb 8d85 3a3c f825 7fbc 230f 25bc
000002d0: e580 6abc 67e2 09bd a94e fbbc 5069 6cbc
000002e0: bc50 82bb af57 e7bb 9ace a9bb 8c17 fa3b
000002f0: afd7 e93b 078e 403c c49f 33bc 44c3 2d3c
00000300: c9d4 443b 7ce7 d23b 133f 813c 54ce 543c
00000310: b027 133c e9bf 803b d9ee a53a 3896 34bc
00000320: da21 febb 7234 d7bc f2c8 93bb abb7 773a
00000330: 61f1 2e3c e105 6c3c 78de eb3b 435a 9a3c
00000340: beaa 0a3c 7e86 08bb f85d ce3b 61e1 7c3c
00000350: f5dc b13c dd52 613b fbbf a33b 690a 18bc
00000360: 91a3 f1ba e935 e7bb 6fb1 3eb8 6822 d3bc
00000370: df52 c4bc 260c a5bc 0fb7 11bc cef5 01ba
00000380: 3646 333c ca27 3d3b 39a1 af3c 03c8 123c
00000390: 3383 0f3c ddb5 0f3b 95c1 4e3c bfa3 843b
000003a0: 7208 b33c 4497 b9ba c5bc a0bb e6df bc3b
000003b0: 9de4 81bb 7cec 37bc 7ac9 6fbc b440 bcbc
000003c0: d4bc 48bc a4ee a2ba 007c 4b3b c8f9 9d3c
000003d0: 019d 913c d7dd 833c 02d8 563c b970 bb3c
000003e0: 5c3b 813c 06a4 e8bb 4b29 623c 3611 c33c
000003f0: 3bad 5f3c 3594 b5b9 3277 8d3b 3c61 9dba

encoder.5.bias f4 [10]
0.0067993226 -0.0072928322 0.0008437187 0.0018813967 -0.00035555603 0.012850354 0.008729373 -0.00032782168
-0.0043552383 -0.0073597687
00000000: dacc de3b b6f8 eebb 012d 5d3a 3399 f63a
00000010: ec69 bab9 4b8a 523c a505 0f3c 7bdf abb9
00000020: 63b6 8ebb 372a f1bb

decoder.0.weight f4 [6400, 10]
0.10480775 0.06162101 0.087227926 -0.11842269 0.26687428 0.09674073 -0.28697598 0.14504375
0.03732712 0.18172094 0.05266676 -0.026929505 -0.030499628 0.018753847 -0.07329828 -0.18360443
-0.269174 0.16140428 0.24266987 0.041403763 -0.09113594 0.04823976 0.08702651 0.22947825
-0.12795903 0.04300967 0.24645215 -0.04897572 0.29859972 -0.22762658 0.04528129 -0.04443416
0.2514339 -0.14386357 0.08910545 0.033614885 -0.06356678 0.11264906 0.003627897 0.23846574
-0.17565964 -0.18929864 0.084012754 0.18910284 -0.14619786 -0.08920796 0.025859369 0.19437128
-0.16834545 0.15397258 -0.13379982 0.26446876 -0.27438575 0.07906814 -0.0781107 -0.13213758
0.12192836 0.22805114 0.024833124 -0.1798544 -0.1611366 0.021141449 -0.10588007 -0.2844991
-0.12505521 0.059230935 -0.16496873 0.328587 0.17375343 0.040792596 0.067299575 0.029474573
-0.12742431 0.32288992 -0.1797169 -0.0026141345 0.29519352 0.248359 0.17521374 0.23497245
-0.04852205 0.02899224 -0.2628108 0.042223588 0.23193042 -0.277084 -0.085903764 0.15424268
-0.05458362 0.058516838 -0.15465172 0.27351302 -0.32814094 0.04981482 0.17817096 -0.060989562
0.007616618 -0.24491751 0.34237355 -0.17836307 0.014874432 0.17307462 0.028755376 -0.1350642
-0.1454785 -0.15472706 0.24842694 0.26189816 -0.23141427 0.0003648683 -0.20372465 0.042750098
-0.011863258 0.19418898 -0.051062897 0.26101202 -0.14157525 0.11133575 0.21954605 -0.16356073
-0.12524012 0.25250852 0.0410661 0.16347045 -0.05415326 0.04921262 -0.19710499 -0.039590687
-0.1866755 0.2326028 0.1341732 -0.15301833 0.14607038 -0.05031244 -0.1127313 -0.16629241
-0.025930986 0.16099812 -0.09776628 0.050881486 0.3036186 0.14052251 0.20908222 0.1046425
0.15391015 -0.26822335 -0.1957337 0.21092603 -0.19351552 -0.16305049 0.22251517 0.16765513
0.06345541 -0.19932038 0.2674892 -0.16531299 0.09705445 -0.35667208 -0.10883877 -0.0025368722
0.16429083 0.13018867 -0.09644092 -0.094311155 -0.28035644 0.21099259 0.0060142297 -0.13004099
0.1641581 0.1398028 -0.15630256 0.1852464 -0.15260603 0.12381788 -0.22318058 0.038740046
0.25311992 -0.15214917 -0.0038539178 0.15858877 -0.0979005 0.018967004 0.2641777 -0.09445372
-0.11343888 -0.13406186 -0.17966793 -0.016285645 -0.23374586 0.16839996 0.16748077 -0.022811653
-0.01773708 0.26441506 0.27741706 0.15986918 -0.13160096 -0.2324749 -0.15615033 -0.11170473
-0.046961933 0.14536396 0.04735293 -0.001791703 -0.26620802 -0.07959163 -0.06312695 0.0015079408
0.13651316 0.00096484774 0.09547558 0.18253489 0.109552436 0.031158641 0.18823625 -0.027619034
0.09526246 0.19602029 -0.2219782 0.02805639 -0.14753382 0.041392792 0.024109583 -0.14071459
-0.05332441 0.06641462 0.076771535 -0.094161265 -0.09801648 0.11920656 -0.036468264 0.041943032
-0.059524767 -0.051645868 -0.005480413 -0.079619706 0.11832278 -0.14122492 0.24001259 -0.13051061
-0.32071248 0.2488586 0.03391818 -0.11862778 -0.2938318 -0.12470493 -0.11452413 -0.06978109
-0.17357084 -0.0516304 0.07725014 0.20680681 -0.20507362 0.24160102 -0.21338427 -0.08011346
00000000: 72a5 d63d 5066 7c3d 8ea4 b23d 9887 f2bd
00000010: bfa3 883e 0120 c63d 84ee 92be 5986 143e
00000020: 52e4 183d 0e15 3a3e 1ab9 573d 449b dcbc
00000030: 5bda f9bc aba1 993c 691d 96bd cd02 3cbe
00000040: 2dd1 89be 2a47 253e 737e 783e fe96 293d
00000050: 7ba5 babd 0e97 453d f43a b23d 59fc 6a3e
00000060: b107 03be e82a 303d f45d 7c3e c49a 48bd
00000070: 10e2 983e f116 69be e078 393d 9800 36bd
00000080: f2bb 803e f950 13be eb7c b63d c3af 093d
00000090: 4d2f 82bd 8db4 e63d 03c2 6d3b 5d30 743e
000000a0: 1fe0 33be 81d7 41be e10e ac3d 2da4 413e
000000b0: e4b4 15be aab2 b6bd 07d7 d33c 4409 473e
000000c0: c062 2cbe fdaa 1d3e d202 09be 7368 873e
000000d0: 4a7c 8cbe 7aee a13d 81f8 9fbd 134f 07be
000000e0: 93b5 f93d 3d86 693e d66e cb3c c02b 38be
000000f0: fe00 25be d530 ad3c a6d7 d8bd dea9 91be
00000100: 790e 00be 239c 723d 90ed 28be 8e3c a83e
00000110: 6bec 313e 2316 273d 5cd4 893d a974 f13c
00000120: 857b 02be d451 a53e b507 38be e651 2bbb
00000130: 9b23 973e d251 7e3e 3b6b 333e 9e9c 703e
00000140: 0fbf 46bd 2281 ed3c 238f 86be a4f2 2c3d
00000150: 2b7f 6d3e f4dd 8dbe 50ee afbd cbf1 1d3e
00000160: 1393 5fbd 5aaf 6f3d 055d 1ebe e609 8c3e
00000170: 1702 a8be a00a 4c3d 7372 363e 31d0 79bd
00000180: d394 f93b a8cb 7abe 964b af3e cfa4 36be
00000190: e4b3 733c 793a 313e 6590 eb3c 454e 0abe
000001a0: 51f8 14be c570 1ebe a263 7e3e 8417 863e
000001b0: ddf7 6cbe cb4b bf39 329d 50be ba1a 2f3d
000001c0: 1c5e 42bc 7ad9 463e 5427 51bd 5ea3 853e
000001d0: 1af9 10be ff03 e43d aed0 603e 777c 27be
000001e0: f23e 00be cc48 813e ed34 283d cc64 273e
000001f0: cfcf 5dbd 2c93 493d e4d5 49be d829 22bd
00000200: dd27 3fbe 6e2f 6e3e b364 093e d6b0 1cbe
00000210: 7993 153e 6b14 4ebd abdf e6bd 8f48 2abe
00000220: 386d d4bc b1dc 243e b039 c8bd 1b69 503d
00000230: e673 9b3e 22e5 0f3e a619 563e cf4e d63d
00000240: 9f9a 1d3e 9254 89be 6a6e 48be fefc 573e
00000250: ef28 46be b5f6 26be 04db 633e c9ad 2b3e
00000260: e9f4 813d a41a 4cbe 58f4 883e cf47 29be
00000270: 7cc4 c63d b99d b6be dce6 debd a741 26bb
00000280: db3b 283e 2e50 053e d182 c5bd 3526 c1bd
00000290: e18a 8fbe 710e 583e 0413 c53b 7729 05be
000002a0: 1019 283e 7728 0f3e c70d 20be 3bb1 3d3e
000002b0: c144 1cbe 3b94 fd3d 7389 64be e2ad 1e3d
000002c0: ef98 813e fecc 1bbe 0392 7cbb 1865 223e
000002d0: 0f80 c8bd b160 9b3c 4d42 873e f470 c1bd
000002e0: a552 e8bd 8347 09be dffa 37be 7969 85bc
000002f0: 135b 6fbe 0a71 2c3e 1480 2b3e 81df babc
00000300: 5a4d 91bc 6961 873e 9c09 8e3e bfb4 233e
00000310: 67c2 06be e60d 6ebe dfe5 1fbe 73c5 e4bd
00000320: 285b 40bd 4ada 143e 25f5 413d 94d7 eaba
00000330: 6b4c 88be f000 a3bd b448 81bd 19a6 c53a
00000340: 1bca 0b3e d6ed 7c3a b388 c33d 6dea 3a3e
00000350: 075d e03d 6840 ff3c 01c1 403e 5041 e2bc
00000360: f718 c33d 8bb9 483e 414e 63be 84d6 e53c
00000370: 1b13 17be 7d8b 293d 7681 c53c 7c17 10be
00000380: b26a 5abd 6304 883d 653a 9d3d 9fd7 c0bd
00000390: ddbc c8bd 9222 f43d bf5f 15bd 75cc 2b3d
000003a0: 3ed0 73bd 9e8a 53bd 0995 b3bb a80f a3bd
000003b0: 3753 f23d 449d 10be dcc5 753e 93a4 05be
000003c0: 6d34 a4be cad4 7e3e caed 0a3d 1ff3 f2bd
000003d0: 1f71 96be 4c65 ffbd a18b eabd 63e9 8ebd
000003e0: 8ebc 31be 667a 53bd 5235 9e3d 2ac5 533e
000003f0: d2fe 51be 4266 773e 6881 5abe 8712 a4bd

decoder.0.bias f4 [6400]
-0.025325177 -0.025685154 0.07434344 -0.051793054 0.02968481 -0.07053801 -0.027326955 -0.083815604
-0.12972666 -0.07940015 0.035606686 0.11171492 0.042568978 0.009589406 -0.12414748 0.13445342
0.1374905 -0.07958548 -0.013042614 0.07141095 -0.04035182 0.05893248 0.061132878 -0.06713415
0.09504792 -0.039935477 0.120215505 0.20555013 0.023678593 -0.064409904 -0.07351083 -0.049135577
0.013834477 0.15277585 -0.016009444 0.17750673 0.014528578 -0.031742793 -0.08182433 -0.07179344
-0.005492411 -0.0072001293 0.080238506 0.0805917 0.004594679 -0.053864937 -0.01277477 -0.026194891
0.04783969 0.14178485 -0.087962486 0.15120023 0.016185684 -0.07041429 -0.1015012 -0.07432471
-0.15357402 0.04465427 -0.02438874 -0.011598642 -0.057799455 0.05629697 0.056662574 0.10637253
0.12985456 -0.006827049 -0.087077215 -0.06567201 -0.11362185 0.063299894 0.009578904 0.13175906
-0.06570078 0.03346441 -0.03407654 -0.042654 -0.07203627 0.021155542 0.033274945 -0.07119533
0.1480955 -0.036267404 0.081335396 0.105288416 -0.056353975 0.15567742 -0.052693613 -0.012449696
0.03875631 0.19940855 0.18181437 -0.08919338 -0.1011892 -0.044646192 0.14591345 0.088392965
0.012161604 -0.06900889 0.08198946 0.007332135 0.0095487265 0.016335651 0.09635942 0.03048375
-0.08059326 0.17213082 0.11712906 -0.11764701 0.06866073 -0.03835552 -0.007884328 0.14201415
0.01679997 0.074025504 0.069869 -0.03032815 -0.052358877 0.1179812 0.057242822 0.06335847
0.076742336 -0.049413603 -0.03246912 -0.02243412 0.030086061 0.16879472 0.030782025 0.03528237
-0.044609655 0.04705382 -0.021875273 -0.051495157 -0.11948256 0.13212734 -0.09221344 0.026479531
0.041992225 0.010786449 -0.008264982 0.010311964 0.07618875 -0.05705206 -0.013442461 0.06385769
-0.12929815 -0.0040864786 0.15358476 0.20695938 -0.10288768 0.18064092 -0.00030196592 0.0741045
-0.039218027 0.114971176 0.032512773 0.082703 -0.040801276 0.004183401 -0.012940048 0.01928897
-0.008427792 0.014412151 0.06875006 -0.0821583 -0.010075181 0.11876372 0.1296819 -0.113472834
0.010026987 -0.042323247 0.118339196 0.072570935 -0.0117277475 0.10749407 -0.10009458 -0.080094546
-0.018674858 0.07704821 -0.10748986 -0.0103865415 0.0047938884 0.12949897 0.0063368375 0.04091173
0.14992143 0.10290322 -0.07462629 0.12482636 0.0670396 0.08205255 0.10455207 -0.12601261
-0.08978431 -0.1419107 -0.03493958 0.031737726 0.14903797 -0.0033109458 0.13281249 0.06603228
0.0026038839 0.008148239 0.08992156 0.026632542 -0.00067584316 -0.068411805 0.0027901412 -0.052336246
-0.027980769 0.09974822 -0.11332978 -0.041675195 0.081842676 -0.033167873 0.18225257 0.15857612
-0.007099091 -0.033664763 -0.028154539 -0.06988302 0.11691274 -0.037216645 0.018508794 0.01774265
0.007437849 -0.05282301 -0.03622192 -0.029752256 -0.06488244 -0.05467532 0.11534746 0.055666387
0.212659 -0.13068597 -0.012761232 -0.13128297 0.09972038 0.042942367 0.113398515 0.016359681
-0.09388708 -0.06377002 0.110584445 0.10208865 0.006849751 0.15206543 0.17921196 0.046290513
0.011452857 0.026466943 -0.015058784 0.16934603 -0.15432103 -0.060412917 0.06806267 0.118294686
00000000: bf76 cfbc ac69 d2bc 6041 983d f424 54bd
00000010: 8f2d f33c 3b76 90bd c7dc dfbc 84a7 abbd
00000020: 11d7 04be 8c9c a2bd 51d8 113d cbca e43d
00000030: cf5c 2e3d e21c 1d3c 0941 febd 28ae 093e
00000040: 4fca 0c3e b6fd a2bd b0b0 55bc e73f 923d
00000050: f347 25bd 2f63 713d 7866 7a3d a17d 89bd
00000060: 7ca8 c23d 6293 23bd 8c33 f63d bc7b 523e
00000070: 9cf9 c13c 57e9 83bd d98c 96bd 6342 49bd
00000080: 01aa 623c 4671 1c3e 3d26 83bc 53c4 353e
00000090: 4609 6e3c bb04 02bd 8493 a7bd 7008 93bd
000000a0: aff9 b3bb 10ef ebbb 1654 a43d 430d a53d
000000b0: f68e 963b 7ba1 5cbd 454d 51bc ab96 d6bc
000000c0: 8df3 433d 0c30 113e ad25 b4bd 3cd4 1a3e
000000d0: d797 843c 5e35 90bd dcdf cfbd 8e37 98bd
000000e0: 8242 1dbe 65e7 363d e5ca c7bc 3b08 3ebc
000000f0: 1fbf 6cbd a797 663d 0417 683d d7d9 d93d
00000100: 98f8 043e 70b5 dfbb 8a55 b2bd 0c7f 86bd
00000110: 93b2 e8bd 60a3 813d d6f0 1c3c d9eb 063e
00000120: 218e 86bd fa11 093d d893 0bbd f6b5 2ebd
00000130: c087 93bd 634e ad3c 4f4b 083d dbce 91bd
00000140: 59a6 173e 218d 14bd 2c93 a63d 74a1 d73d
00000150: 6dd3 66bd e769 1f3e 42d5 57bd cff9 4bbc
00000160: f0be 1e3d c131 4c3e 8c2d 3a3e 05ab b6bd
00000170: 493c cfbd edde 36bd 566a 153e 5f07 b53d
00000180: 7741 473c 8854 8dbd 17ea a73d 6842 f03b
00000190: 4372 1c3c 58d2 853c 1658 c53d 0fb9 f93c
000001a0: 140e a5bd 1043 303e 5ce1 ef3d eaf0 f0bd
000001b0: ff9d 8c3d ae1a 1dbd 452d 01bc 286c 113e
000001c0: 17a0 893c af9a 973d 7a17 8f3d be72 f8bc
000001d0: 4376 56bd 21a0 f13d 7377 6a3d 16c2 813d
000001e0: 162b 9d3d eb65 4abd 57fe 04bd c2c7 b7bc
000001f0: 0b77 f63c 86d8 2c3e 962a fc3c 3f84 103d
00000200: 9db8 36bd 82bb 403d c633 b3bc 96ec 52bd
00000210: 46b3 f4bd 644c 073e 66da bcbd 9aeb d83c
00000220: 0a00 2c3d a5b9 303c d969 07bc 83f3 283c
00000230: d908 9c3d 6caf 69bd c53d 5cbc d2c7 823d
00000240: bc66 04be dee7 85bb 5345 1d3e 29ed 533e
00000250: c7b6 d2bd eff9 383e 2e51 9eb9 1ac4 973d
00000260: 15a3 20bd 0276 eb3d 1d2c 053d 3160 a93d
00000270: 3d1f 27bd e914 893b 7f02 54bc e703 9e3c
00000280: b914 0abc f120 6c3c d5cc 8c3d 9c42 a8bd
00000290: 5f12 25bc 653a f33d 55cb 043e 7264 e8bd
000002a0: 3b48 243c 245b 2dbd d25b f23d 12a0 943d
000002b0: bd25 40bc da25 dc3d 63fe ccbd 9c08 a4bd
000002c0: 04fc 98bc 74cb 9d3d a523 dcbd 502c 2abc
000002d0: 0d16 9d3b 619b 043e 3fa5 cf3b 0f93 273d
000002e0: 0185 193e ecbe d23d abd5 98bd f6a4 ff3d
000002f0: 0f4c 893d 2b0b a83d 651f d63d 7309 01be
00000300: d6e0 b7bd 0a51 11be ce1c 0fbd 6bff 013d
00000310: 699d 183e 74fc 58bb ffff 073e ef3b 873d
00000320: eca5 2a3b 3180 053c cb28 b83d 7d2c da3c
00000330: 112b 31ba 7d1b 8cbd cdda 363b 885e 56bd
00000340: ed37 e5bc cb48 cc3d 7219 e8bd 9cb3 2abd
00000350: 229d a73d 09db 07bd 6ba0 3a3e c761 223e
00000360: 7e9f e8bb 10e4 09bd 59a4 e6bc d41e 8fbd
00000370: f26f ef3d 7b70 18bd c19f 973c 0959 913c
00000380: 33b9 f33b f15c 58bd 705d 14bd 01bb f3bc
00000390: 16e1 84bd 3af3 5fbd 4a3b ec3d 7002 643d
000003a0: 48c3 593e 8bd2 05be 7d14 51bc 0b6f 06be
000003b0: 333a cc3d 56e4 2f3d 7b3d e83d bd04 863c
000003c0: df47 c0bd db99 82bd 197a e23d db13 d13d
000003d0: e073 e03b 0ab7 1b3e 5783 373e 1f9b 3d3d
000003e0: c4a4 3b3c 34d1 d83c 1eb9 76bc 0c69 2d3e
000003f0: 5506 1ebe 8973 77bd 7164 8b3d 7c44 f23d

decoder.3.weight f4 [16, 6, 5, 5]
0.03336323 -0.038435154 0.04495028 -0.012554268 -0.015497343 0.010799123 -0.022214852 0.039396267
-0.06957794 -0.090844 0.061805546 0.014126234 -0.0062578632 -0.0051181847 -0.06972534 -0.060081
-0.050933253 -0.07173487 -0.11215799 -0.10853618 -0.088222966 -0.0862418 0.026173968 -0.06628724
-0.10479228 0.09996467 0.03424373 -0.026582014 0.05557655 0.020606257 -0.012677744 -0.0068494002
-0.012750212 -0.07744035 -0.020565258 -0.068872094 -0.0579129 -0.0073549794 0.018655408 -0.029687915
0.016828896 -0.06087392 0.045873478 -0.022807203 -0.05680737 -0.05203995 0.021210106 -0.06140504
-0.026913134 0.03800055 -0.07713899 -0.04494355 -0.0031957403 -0.007887157 -0.021737108 -0.046137188
-0.00021193182 -0.06929794 -0.020766245 -0.041860532 -0.06837332 -0.05940899 0.029656645 -0.044627555
-0.06680699 -0.018835979 -0.0204953 0.07214301 -0.05558767 -0.03575123 0.007552311 0.055809814
0.035969153 0.03558597 -0.051047016 -0.03708879 0.0020376246 0.06343875 0.007881261 0.037882406
0.04897638 0.05286949 0.059011962 0.08041722 0.058696855 0.04138516 0.009750963 0.036618106
0.06173856 -0.013777329 0.05659237 -0.020222517 0.025249032 -0.025584348 0.012199889 0.023651807
0.005778326 0.03855175 0.0028470075 0.027420303 -0.020843303 0.016088631 -0.027672485 0.03188719
-0.062044486 -0.022886204 -0.035654873 0.06436001 0.014846945 -0.041743424 0.057764728 -0.017251087
-0.0012292467 0.07876794 0.09914392 0.041943494 0.05496392 0.07106722 0.030623337 0.10488679
0.068088576 0.021320416 0.09402833 0.022465698 0.070191465 -0.090996936 -0.0069076256 -0.037680265
-0.047769237 -0.054465067 -0.03492418 -0.0032150396 0.009144418 0.0028204336 -0.057623852 -0.025750678
-0.042004637 -0.0698084 -0.10941122 -0.03484091 -0.0062780324 -0.0626104 0.041102696 -0.036921054
0.006977338 -0.04966864 -0.001469869 0.057024416 -0.029317144 0.045197297 0.04188553 0.07393151
-0.016178584 0.058274172 0.041502755 -0.016401138 -0.03373503 0.007044439 0.04638791 -0.017844684
0.057599787 0.040096525 0.10083674 0.040123362 0.018003223 0.030355766 -0.0077115814 0.016372312
0.023075845 -0.0131883435 -0.04265205 -0.0029612752 0.0359237 0.06605383 -0.0010999504 0.048859365
0.009217039 -0.03604606 -0.016419759 -0.049664572 -0.0074779703 0.018928066 -0.08266153 -0.03170911
0.047176335 -0.03282283 0.02795013 0.040613253 -0.07399496 -0.030282762 -0.04759806 0.003211418
-0.00021617571 -0.075828746 -0.05760725 -0.011178073 -0.010577347 -0.09980899 -0.017192712 -0.054009024
0.030464446 -0.05503291 0.02794538 -0.056557614 -0.031656936 -0.01821608 -0.027356768 0.04171676
0.015300063 -0.06853282 0.040074706 0.087031804 0.008759827 0.047280923 0.06041191 0.07365668
0.019206049 -0.04068573 -0.057621688 0.019482275 -0.046672035 0.07250165 0.084663905 -0.0018130168
-0.0468907 0.0050530042 0.05340444 0.028850226 0.030055722 0.09574076 0.004287568 -0.027557936
0.07596985 0.021258099 0.023346197 -0.038192187 0.0046076654 0.086210854 0.031688906 0.049684174
0.055784285 0.08609666 0.06042213 0.0034085594 0.05469276 0.06511331 0.0491353 0.05108152
0.011505498 0.04788433 -0.028122492 -0.08803377 0.01188386 -0.020147998 -0.012771752 -0.03426707
00000000: e2a7 083d 2e6e 1dbd c91d 383d 6bb0 4dbc
00000010: 91e8 7dbc ceee 303c ecfb b5bc fb5d 213d
00000020: e17e 8ebd 6b0c babd d027 7d3d b871 673c
00000030: c30e cdbb 72b6 a7bb 29cc 8ebd 7f17 76bd
00000040: 639f 50bd bbe9 92bd 17b3 e5bd 3748 debd
00000050: 3eae b4bd 8a9f b0bd ca6a d63c 9bc1 87bd
00000060: 569d d6bd 47ba cc3d 2743 0c3d 86c2 d9bc
00000070: 3da4 633d 74ce a83c 50b6 4fbc ef70 e0bb
00000080: 44e6 50bc 0c99 9ebd 7978 a8bc d00c 8dbd
00000090: 1436 6dbd 0a02 f1bb 3ad3 983c 1234 f3bc
000000a0: c1dc 893c ee56 79bd d4e5 3b3d 2cd6 babc
000000b0: d8ae 68bd d827 55bd d1c0 ad3c da83 7bbd
000000c0: ef78 dcbc 77a6 1b3d 0cfb 9dbd ba16 38bd
000000d0: a06f 51bb 2239 01bc 0512 b2bc 59fa 3cbd
000000e0: 043a 5eb9 14ec 8dbd f91d aabc f375 2bbd
000000f0: 5007 8cbd d756 73bd 7ef2 f23c 62cb 36bd
00000100: 1ad2 88bd e94d 9abc c2e5 a7bc b7bf 933d
00000110: e6af 63bd e26f 12bd 6079 f73b d598 643d
00000120: 6454 133d 98c2 113d ad16 51bd 6aea 17bd
00000130: ab89 053b 2dec 813d 6820 013c 952a 1b3d
00000140: 759b 483d ae8d 583d 87b6 713d c9b1 a43d
00000150: 1d6c 703d 7c83 293d 81c2 1f3c defc 153d
00000160: 93e1 7c3d 4eba 61bc 67cd 673d b1a9 a5bc
00000170: 0fd7 ce3c 4496 d1bc 0be2 473c 6fc1 c13c
00000180: 1d58 bd3b 71e8 1d3d dc94 3a3b 8ba0 e03c
00000190: 93bf aabc 4ecc 833c 68b1 e2bc 249c 023d
000001a0: 5c22 7ebd d97b bbbc d80a 12bd 2ecf 833d
000001b0: 9a40 733c 27fb 2abd b59a 6c3d 2752 8dbc
000001c0: ad1e a1ba 1651 a13d f80b cb3d f1cc 2b3d
000001d0: d921 613d b18b 913d cbdd fa3c e3ce d63d
000001e0: 0672 8b3d 27a8 ae3c ed91 c03d fc09 b83c
000001f0: 8bc0 8f3d 9a5c babd 5d59 e2bb 9f56 1abd
00000200: ada9 43bd c316 5fbd a80c 0fbd 6ab3 52bb
00000210: 78d2 153c 06d7 383b fd06 6cbd 16f3 d2bc
00000220: 0e0d 2cbd b5f7 8ebd fd12 e0bd 58b5 0ebd
00000230: f4b7 cdbb e239 80bd 4d5b 283d 883a 17bd
00000240: 27a2 e43b 5871 4bbd 9fa8 c0ba 6f92 693d
00000250: 822a f0bc cd20 393d 2990 2b3d 6769 973d
00000260: f388 84bc e6b0 6e3d cbfe 293d ae5b 86bc
00000270: be2d 0abd 0ad5 e63b 4001 3e3d 042f 92bc
00000280: c1ed 6b3d 413c 243d 7e83 ce3d 6558 243d
00000290: 7f7b 933c a8ac f83c 6fb1 fcbb 3a1f 863c
000002a0: 8e09 bd3c ec13 58bc eab3 2ebd f411 42bb
000002b0: bb24 133d 3b47 873d 362c 90ba c220 483d
000002c0: 1003 173c 09a5 13bd bb82 86bc 146d 4bbd
000002d0: c309 f5bb 080f 9b3c 734a a9bd 69e1 01bd
000002e0: f93b 413d 3b71 06bd acf7 e43c 155a 263d
000002f0: ab8a 97bd 8e13 f8bc 2ff6 42bd a776 523b
00000300: 3aad 62b9 1a4c 9bbd 94f5 6bbd 3c24 37bc
00000310: 9c4c 2dbc a868 ccbd bbd7 8cbc 9138 5dbd
00000320: 9390 f93c 306a 61bd b6ed e43c f5a8 67bd
00000330: b4aa 01bd e339 95bc 4d1b e0bc 31df 2a3d
00000340: 1ead 7a3c ef5a 8cbd 6025 243d bb3d b23d
00000350: 6185 0f3c a4a9 413d 7b72 773d 50d9 963d
00000360: 0156 9d3c 14a6 26bd b804 6cbd 4b99 9f3c
00000370: 2d2b 3fbd bf7b 943d 4564 ad3d c0a2 edba
00000380: 7610 40bd ac93 a53b 9dbe 5a3d 4f57 ec3c
00000390: 6b37 f63c bb13 c43d ba7e 8c3b 2ec1 e1bc
000003a0: 1596 9b3d 7725 ae3c 8640 bf3c 696f 1cbd
000003b0: e6fb 963b 518f b03d 3acc 013d a281 4b3d
000003c0: 107e 643d 7253 b03d 327d 773d 2362 5f3b
000003d0: 8405 603d 215a 853d 1942 493d db3a 513d
000003e0: 8e81 3c3c 5c22 443d 2461 e6bc 0d4b b4bd
000003f0: 86b4 423c 6a0d a5bc 9c40 51bc a15b 0cbd

decoder.3.bias f4 [6]
-0.0839986 0.07329022 -0.0942918 0.01227329 0.059313882 0.06986052
00000000: 7507 acbd 2f19 963d 0f1c c1bd e915 493c
00000010: 1df3 723d 0813 8f3d

decoder.5.weight f4 [6, 1, 5, 5]
-0.1693479 -0.052801732 -0.04826149 -0.11022969 -0.123200834 -0.058040835 -0.15940142 -0.113171
0.07328908 0.09289473 -0.011689999 0.13260707 0.004308185 -0.01263664 0.2206504 0.053358465
0.11079254 0.2138579 0.24724561 0.20255862 0.0854795 0.19312118 0.15934864 0.19467738
0.12583467 -0.22398745 -0.26890713 -0.08886307 -0.05567316 0.041488025 -0.1722609 -0.15484346
-0.2244366 -0.18102406 0.040118672 -0.06863371 0.0009343811 -0.069128424 -0.12718865 0.025863428
-0.13689701 -0.080136485 -0.004657682 -0.08197848 0.02959153 -0.08936019 -0.11707745 -0.017823122
-0.03841314 0.09583006 0.086077854 0.17119718 0.22119644 0.1207805 0.003395497 0.17288232
0.08420603 0.12664069 0.10030528 0.12521578 0.08040473 -0.04856544 -0.00039073676 0.043719642
0.036754206 0.027075062 0.14360031 0.20218131 0.1004413 0.0979551 0.06253016 -0.0797566
0.15837838 0.11333585 0.13488609 0.09756983 0.01839787 -0.07955673 -0.020125352 -0.15934534
0.21771555 0.131286 -0.024699578 -0.022678522 0.10979467 0.23029254 0.037529524 0.19105908
0.080282 -0.017753573 0.06989285 0.14143957 -0.108609386 -0.08874353 -0.11106832 -0.14956708
-0.055757944 0.09315403 -0.18698536 -0.2626595 0.00084732415 -0.1707063 -0.05206892 -0.041216344
-0.01798953 -0.2051999 -0.07856572 -0.19841602 -0.17031814 0.02859652 -0.23745388 -0.15405945
-0.010412221 0.007075687 -0.20323968 -0.02828471 -0.13587582 -0.12771195 -0.04067248 -0.0367141
-0.21001302 -0.17038554 -0.09895405 -0.2121708 -0.15210022 0.05360683 0.051077534 -0.22718199
0.042272855 -0.122977935 0.10672558 -0.21404682 -0.20034342 -0.104767844 0.13491112 0.08777115
-0.2441799 0.016353203 -0.1364609 0.1719685 -0.09740519 -0.058975503 -0.00923109 0.11442047
0.0639529 0.025342634 0.016557695 -0.07664483 -0.025724642 -0.14095587
00000000: 8969 2dbe a146 58bd d7ad 45bd 1bc0 e1bd
00000010: b850 fcbd 3abc 6dbd 203a 23be 32c6 e7bd
00000020: 9618 963d 983f be3d 6987 3fbc 26ca 073e
00000030: ad2b 8d3b e909 4fbc 2ef2 613e 688e 5a3d
00000040: 33e7 e23d 91fd 5a3e f42d 7d3e 876b 4f3e
00000050: e00f af3d 8fc1 453e 4a2c 233e 8259 473e
00000060: ceda 003e f75c 65be 32ae 89be d7fd b5bd
00000070: 8a09 64bd 59ef 293d 2965 30be 498f 1ebe
00000080: b5d2 65be 5f5e 39be 7a53 243d d58f 8cbd
00000090: 41f1 743a 3493 8dbd be3d 02be 8adf d33c
000000a0: bb2e 0cbe 991e a4bd 789f 98bb 55e4 a7bd
000000b0: f069 f23c 7a02 b7bd 4dc6 efbd cc01 92bc
000000c0: 1957 1dbd 8d42 c43d 9649 b03d 504e 2f3e
000000d0: 5281 623e c45b f73d fd86 5e3b 1008 313e
000000e0: 3674 ac3d 19ae 013e db6c cd3d 9138 003e
000000f0: 3cab a43d 8eec 46bd cddb ccb9 5e13 333d
00000100: 948b 163d 85cc dd3c f60b 133e 9e08 4f3e
00000110: 2bb4 cd3d af9c c83d d00f 803d 6e57 a3bd
00000120: f12d 223e a01c e83d 941f 0a3e b1d2 c73d
00000130: 21b7 963c a4ee a2bd ecdd a4bc 6d2b 23be
00000140: d3f0 5e3e d66f 063e c556 cabc 4fc8 b9bc
00000150: 07dc e03d cfd1 6b3e 8fb8 193d fea4 433e
00000160: e46a a43d f16f 91bc fc23 8f3d 89d5 103e
00000170: 996e debd 2bbf b5bd ca77 e3bd 1d28 19be
00000180: 7162 64bd 8ac7 be3d 1779 3fbe 4e7b 86be
00000190: f61e 5e3a a2cd 2ebe 3846 55bd 78d2 28bd
000001a0: c75e 93bc ec1f 52be 10e7 a0bd 922d 4bbe
000001b0: e167 2ebe 4043 ea3c 1c27 73be c3c1 1dbe
000001c0: 0598 2abc 2adb e73b 101e 50be 56b5 e7bc
000001d0: 0823 0bbe ecc6 02be 3098 26bd 8661 16bd
000001e0: a70d 57be 8c79 2ebe 6ca8 cabd 4d43 59be
000001f0: 29c0 1bbe d692 5b3d ad36 513d 65a2 68be
00000200: 4d26 2d3d dbdb fbbd f192 da3d 172f 5bbe
00000210: d326 4dbe 8690 d6bd 2426 0a3e 5cc1 b33d
00000220: 4c0a 7abe 27f7 853c 68bc 0bbe 8318 303e
00000230: 5f7c c7bd 4c90 71bd ff3d 17bc 4855 ea3d
00000240: bdf9 823d 5b9b cf3c 01a4 873c f7f7 9cbd
00000250: 7cbc d2bc bc56 10be
