Autoencoder-on-MNIST-in-Pytorch/Models/model_e16.pt (torch, 561729 bytes, 11 tensors)

encoder.0.weight f4 [6, 1, 5, 5]
0	0xbe861f59	-0.2619579
1	0xbe58fe87	-0.21190844
2	0xbe0603b1	-0.13087346
3	0xbe6ae801	-0.22940065
4	0xbeaf7687	-0.34270117
5	0xbe6e369d	-0.23263021
6	0xbeadcef9	-0.3394697
7	0xbd5783ef	-0.052616056
8	0xbe0684c2	-0.1313658
9	0xbe48fdcc	-0.19628066
10	0x3e0e6ff1	0.1390989
11	0xbe46c3c8	-0.19410622
12	0x3c266c0b	0.010157595
13	0xbe7f280d	-0.24917622
14	0xbe5f7760	-0.21822882
15	0x3e102bc9	0.14079203
16	0x3cb02c6d	0.021505559
17	0xbe37f229	-0.1796347
18	0xbe21fe34	-0.15819627
19	0xbe02839b	-0.12745516
20	0x3bdc8a6b	0.006730368
21	0xbdbefe88	-0.09325892
22	0xbcee9c56	-0.029127281
23	0xbeab5e97	-0.33470604
24	0xbecf972a	-0.40545017
25	0xbe6cc337	-0.23121344
26	0xbea714c0	-0.32633018
27	0xbe8c0e3d	-0.27354613
28	0xbe9cd768	-0.30633092
29	0xbe6db24f	-0.2321255
30	0x3d92bcf1	0.07164944
31	0x3c4920a7	0.012275851
32	0x3d5db925	0.054131646
33	0x3cda7db6	0.026671272
34	0x3e53afcc	0.2067253
35	0xbe0a9ad1	-0.1353562
36	0x3c4a62f4	0.012352694
37	0x3e1b895a	0.15189114
38	0xbcbe0e31	-0.023200126
39	0xbd43622b	-0.047701042
40	0x3e466727	0.19375287
41	0x3e1333c7	0.1437522
42	0x3de2d919	0.11076564
43	0x3e11db7f	0.14243887
44	0x3e76e469	0.24110569
45	0xbde35c6b	-0.11101612
46	0xbe192a72	-0.14957598
47	0xbde6a6e0	-0.11262298
48	0x3e95a2b7	0.29225704
49	0x3e85dd4b	0.26145396
50	0x3e29eb96	0.16593775
51	0x3e335b7f	0.17515372
52	0x3e1b85bf	0.15187739
53	0xbdbb9dc2	-0.09160949
54	0xbe070085	-0.13183792
55	0x3e3888a4	0.18020874
56	0x3da0670d	0.078321554
57	0xbe8545a0	-0.26029682
58	0xbe968041	-0.29394725
59	0xbed11259	-0.4083431
60	0xbe64bcd3	-0.22337656
61	0xbe04ebf7	-0.12980638
62	0xbeba7f0d	-0.36425057
63	0xbe543547	-0.20723449
64	0xbe00a46c	-0.12562722
65	0xbd69af6c	-0.05705206
66	0xbd8f80d6	-0.070069954
67	0xbeae49c6	-0.3404066
68	0x3b1b6a73	0.0023714572
69	0xbe2c9e4b	-0.16857259
70	0xbe642daf	-0.22283052
71	0xbd829b00	-0.0637722
72	0xbe571f5b	-0.21008055
73	0xbe39f3a7	-0.18159352
74	0xbea13d59	-0.31492117
75	0xbe4d288e	-0.20035002
76	0xbe1c1c88	-0.15245259
77	0xbe4412ca	-0.19147792
78	0x3e5f80df	0.21826504
79	0xbc45c8b3	-0.012071776
80	0xbd3c5ce7	-0.045987036
81	0x3d700441	0.058597807
82	0xbdac89c5	-0.08424715
83	0x3e3e7ba8	0.18601859
84	0x3e6c5ee1	0.23083068
85	0x3e3b0c53	0.1826642
86	0x3e4f021d	0.2021565
87	0xbe2db156	-0.1696218
88	0x3e5b0f85	0.21392639
89	0x3e729a04	0.23691565
90	0xbd877a63	-0.0661514
91	0x3e2cd0f1	0.1687658
92	0x3d8df6b2	0.06931819
93	0xbd356360	-0.044284225
94	0x3e1e4ff6	0.1546019
95	0x3e78a49c	0.24281543
96	0x3c68a7bd	0.014200148
97	0x3e0d74f4	0.13814145
98	0x3e65ba44	0.22434336
99	0x3dad7630	0.08469808
100	0xbc7cf976	-0.0154403355
101	0x3e54118d	0.2070982
102	0x3ceee4b6	0.029161792
103	0xbd6b32db	-0.057421546
104	0x3e23827b	0.15967743
105	0x3d41a7ff	0.047279354
106	0xbd993f5d	-0.07482789
107	0xbd536794	-0.05161245
108	0x3e80b10e	0.25135082
109	0x3e840584	0.25785458
110	0xbdfef956	-0.12449901
111	0xbe11557a	-0.14192763
112	0x3e0dd33b	0.1385011
113	0x3b39ae28	0.0028332565
114	0x3e77933f	0.24177264
115	0x3aed8cc6	0.0018123619
116	0xbcfc3a7c	-0.030789606
117	0xbd51bd0b	-0.051205676
118	0x3e4d6a79	0.20060147
119	0x3e791347	0.2432376
120	0xbe337659	-0.17525615
121	0xbe9b3e6f	-0.3032107
122	0xbe31ced3	-0.17364053
123	0x3e60bbff	0.21946715
124	0x3dc027f9	0.09382624
125	0xbd8687fc	-0.06568906
126	0x3e220e42	0.15825751
127	0x3e0b04ef	0.13576101
128	0xbe085b45	-0.13316067
129	0xbb8f8ec0	-0.004381031
130	0xbd845827	-0.06462126
131	0x3e67b524	0.22627693
132	0xbd550e65	-0.05201568
133	0xbe79bf4b	-0.24389379
134	0xbe256a82	-0.16153911
135	0x3da1885e	0.07887338
136	0x3e357491	0.17720248
137	0xbc2ce898	-0.010553502
138	0xbe8caeb2	-0.27477032
139	0xbe99fe2d	-0.30076733
140	0x3e859e8f	0.26097533
141	0x3e842445	0.2580892
142	0x3e3c3f1f	0.18383454
143	0xbe53a622	-0.20668843
144	0xbe2af602	-0.16695407
145	0x3ded2545	0.11579374
146	0xbcd72b78	-0.026265845
147	0x3d84ba99	0.06480903
148	0xbe222c5d	-0.15837236
149	0xbe03c180	-0.12866783

encoder.0.bias f4 [6]
0	0x3e3dc09d	0.18530507
1	0x3e3af44f	0.18257259
2	0x3cd3f420	0.025873244
3	0x3e33265b	0.174951
4	0xbcc1534a	-0.023599286
5	0x3e3b5029	0.18292297

encoder.2.weight f4 [16, 6, 5, 5]
0	0x3d33637a	0.04379604
1	0x3d00ac83	0.03141452
2	0xbd2b1517	-0.04176816
3	0x3df05c40	0.11736345
4	0x3d0db35f	0.03459489
5	0xbb0cee4f	-0.0021504348
6	0xbd83a066	-0.06427078
7	0xbd8b3798	-0.06797713
8	0xbb8321f7	-0.0040018517
9	0x3d67c679	0.056585763
10	0xbe01d011	-0.12677027
11	0xbe28d2d6	-0.16486678
12	0xbd2c8da9	-0.042127285
13	0xbccf7379	-0.025323616
14	0xbcd1c55a	-0.0256068
15	0xbdfcb636	-0.123394415
16	0xbdda798a	-0.10667713
17	0xbe1c82b2	-0.15284231
18	0xbccb5f80	-0.024825811
19	0x3cf530e7	0.029930545
20	0xbde30efa	-0.11086841
21	0xbe00cd40	-0.12578297
22	0xbdd4e365	-0.103949346
23	0x3c192651	0.009347514
24	0xbd2bed05	-0.041974086
25	0x3cbd74be	0.023126956
26	0xbc6b10c9	-0.014347264
27	0xbcf8ddaf	-0.030379144
28	0x3be70d6a	0.0070511596
29	0x3cd53816	0.02602772
30	0x3aeb7b65	0.0017965852
31	0x3dca194b	0.098681055
32	0x3cab715c	0.020928077
33	0x3b697446	0.0035622283
34	0xbc9106c1	-0.017703416
35	0x3d5d7362	0.054065116
36	0x3db37daa	0.08764203
37	0x3d984a3c	0.07436034
38	0xbd2d59e9	-0.042322073
39	0xbcd60e70	-0.026129931
40	0x3d63ad1e	0.05558502
41	0xbd00ff0d	-0.031493235
42	0xbd0e1eed	-0.034697462
43	0x3d8f241e	0.06989311
44	0x3df96a9b	0.121785365
45	0xbd9f481f	-0.07777428
46	0x3d4c8ddf	0.049939986
47	0xbdbf112a	-0.09329446
48	0xbd682976	-0.056680165
49	0x3ccee8f1	0.02525756
50	0x3d301ce9	0.04299632
51	0x3d0cc6ef	0.034369405
52	0x3bd48871	0.0064859916
53	0x3de83c19	0.11339588
54	0x3c75b785	0.014997368
55	0xbd3a6fa3	-0.04551662
56	0x3d2df16f	0.042466577
57	0xbbbdfadf	-0.0057977284
58	0xbca7ccf7	-0.020483477
59	0x3dcb2418	0.09918994
60	0xbe10bbab	-0.1413409
61	0xbcbbdfb4	-0.022933818
62	0xbd17e011	-0.03707892
63	0x3d918eff	0.071073525
64	0x3d2a8d34	0.041638568
65	0xbe2ded2c	-0.16985005
66	0xbdbca02d	-0.092102386
67	0x3c222e90	0.009898797
68	0xbd0a3c72	-0.03374905
69	0x3c6cea4f	0.01446016
70	0xbe06947e	-0.13142583
71	0xbdb34e65	-0.08755187
72	0xbd3dd5f3	-0.046346616
73	0xbd73a637	-0.059484687
74	0xbd4328cc	-0.04764633
75	0xbb221ce5	-0.002473646
76	0x3d9f143f	0.077675335
77	0xbd57f228	-0.052721173
78	0xbd1f53d4	-0.038898304
79	0xbc9d68a7	-0.019214941
80	0x3cdc8b23	0.026921814
81	0x3dbe17aa	0.09281857
82	0x3d042616	0.032262884
83	0x3dad2567	0.084543996
84	0x3dcbd598	0.09952849
85	0x3d7bae14	0.06144531
86	0x3d3eb8e2	0.046563037
87	0xbcd4889c	-0.025944047
88	0xbd8817e8	-0.06645185
89	0xbc52f291	-0.012875215
90	0x3dc404c5	0.09571222
91	0x3dc0263c	0.09382293
92	0x3bb62d67	0.0055596116
93	0xbd254302	-0.040347107
94	0x3d9426ed	0.07233987
95	0x3daff455	0.085915245
96	0xbd02274b	-0.031775754
97	0x3cc0192e	0.023449507
98	0xbd62ccf6	-0.055371247
99	0xbd062b10	-0.03275591
100	0x3d416421	0.04721463
101	0x3dbbb498	0.09165305
102	0x3d9d1ce0	0.07671523
103	0xbd1b307f	-0.037888046
104	0xbd61d484	-0.05513431
105	0x3d0212fa	0.03175638
106	0x3dc8b2f6	0.09799759
107	0xbcec01d7	-0.028809471
108	0xbd8de091	-0.06927598
109	0x3d541b63	0.05178393
110	0x3dd8f91a	0.10594387
111	0x3d31d612	0.043417044
112	0xbd6963e2	-0.05698002
113	0xbcdaf1cf	-0.026726631
114	0xbd6806e2	-0.05664719
115	0x3c827726	0.015925955
116	0x3d6180e9	0.05505458
117	0xbd5dfe8b	-0.05419783
118	0xbd9cc4bd	-0.07654712
119	0xbc69055d	-0.01422247
120	0x3d34f1c1	0.044175867
121	0xbc1aa2b0	-0.009438202
122	0xbd165f3b	-0.036711913
123	0x3d0021fb	0.031282406
124	0xbd2acfc6	-0.041702054
125	0x3d687262	0.05674971
126	0xbd577537	-0.05260202
127	0xbc6db64a	-0.014508793
128	0xbc800e3a	-0.015631784
129	0xbd4d3fef	-0.0501098
130	0x3ccdb703	0.02511168
131	0xbd66d40a	-0.05635456
132	0x3da13ba0	0.07872701
133	0x3da83e5b	0.08215018
134	0x3cd96dc0	0.02654159
135	0x3d3e4324	0.04645075
136	0x3d26997b	0.040673714
137	0x3c798353	0.015229064
138	0xbcc1553c	-0.023600213
139	0xbc6c8321	-0.01443556
140	0x3d8f689e	0.07002376
141	0x3d8b6310	0.06806004
142	0xbc15cf01	-0.009143592
143	0x3d1bac31	0.03800601
144	0xbd87232a	-0.06598504
145	0x3c9164e0	0.017748296
146	0x3d0735b6	0.033010207
147	0x3c9f9d3e	0.019484159
148	0xbccce0c5	-0.025009522
149	0x3c2753b5	0.010212828
150	0xbd5ba5f0	-0.053625047
151	0x3c92305a	0.017845321
152	0xbd3d5dd1	-0.04623205
153	0x3d895dfe	0.06707381
154	0xba9ae9fa	-0.0011818998
155	0x3d97b2b9	0.074071355
156	0x3cb9671b	0.022632172
157	0xbd534887	-0.05158284
158	0x3d9c3df4	0.07629004
159	0x3d0f38a3	0.034966122
160	0xbd4bf23d	-0.049791563
161	0xbd26a1c4	-0.040681615
162	0xbc3b49be	-0.011431156
163	0x3d4f1e80	0.050566196
164	0x3b13b2cf	0.0022536998
165	0x3b9aadf9	0.004720446
166	0xbc7eefae	-0.015560074
167	0xbd9047a4	-0.07044914
168	0xbcc72b88	-0.02431275
169	0xbd1ee1c8	-0.03878954
170	0xbd4bfa02	-0.049798973
171	0xbda7bb62	-0.08190037
172	0xbe09d9c2	-0.13461974
173	0xbe14e931	-0.1454208
174	0xbdac8c9f	-0.08425259
175	0x3cafd415	0.021463433
176	0x3d605aca	0.054774083
177	0xbd8faf4b	-0.07015856
178	0xbd15eeb1	-0.036604587
179	0x3b754bb8	0.0037429165
180	0xbcba92c3	-0.02277506
181	0x3c98aec5	0.018638024
182	0xb9e75ca8	-0.00044128788
183	0xbd620f40	-0.055190325
184	0xbd6998be	-0.057030432
185	0xbb9fcabf	-0.004876464
186	0x3d12c60b	0.0358334
187	0xbd53dd58	-0.05172476
188	0xbbaa4712	-0.0051964605
189	0xbd20f65f	-0.039297458
190	0x3d8961a8	0.067080796
191	0x3d4634e2	0.048390277
192	0xbca074e5	-0.01958699
193	0x3d267dff	0.040647503
194	0x3d9eeedc	0.077604026
195	0xbc406063	-0.01174173
196	0x3d160513	0.036625933
197	0xbd4983e6	-0.049198054
198	0x3d881c08	0.066459715
199	0x3d0e939b	0.034808736
200	0x3d283486	0.041065715
201	0xbd4aafa2	-0.049483903
202	0xbd448bbc	-0.047984824
203	0x3d643e7a	0.055723645
204	0x3d8b1b7e	0.06792353
205	0x3d193964	0.037408248
206	0xbd42759d	-0.047475446
207	0xba85d5d7	-0.0010210824
208	0x3d06f42f	0.032947715
209	0xbbf94578	-0.0076071583
210	0x3d649ae7	0.05581179
211	0xbd95ad79	-0.07308478
212	0xbdbfd707	-0.09367185
213	0xbd94ae7c	-0.07259843
214	0xbd4bd2fc	-0.049761757
215	0xbd923009	-0.07138068
216	0xbd2cf90d	-0.0422297
217	0xbe2b9f65	-0.16760023
218	0xbdc01fa1	-0.09381033
219	0x3c54e5af	0.012994214
220	0xbca0ff13	-0.019652879
221	0xbdc6fddc	-0.097163886
222	0xbdfb6bd0	-0.12276423
223	0xbd5932db	-0.053027015
224	0x3d712187	0.058869865
225	0x3d862ba0	0.065512896
226	0x3da81fd7	0.08209198
227	0xbca5f5cd	-0.020258809
228	0x3d97ce7e	0.07412432
229	0x3cae58bb	0.021282544
230	0x3d129bc3	0.035793077
231	0x3d9006c7	0.07032543
232	0x3db37089	0.08761699
233	0x3c83366b	0.01601716
234	0xbd7e7098	-0.062119097
235	0xbb0261dd	-0.0019894757
236	0x3d418bf3	0.047252607
237	0xbd2e4b97	-0.042552557
238	0x3dcc3163	0.09970357
239	0x3ca1667a	0.019702185
240	0x3d3203a8	0.043460518
241	0x3debb630	0.11509359
242	0x3cc8bc44	0.024503835
243	0x3da61e02	0.08111192
244	0x3d4faba8	0.050700814
245	0x3d4d5307	0.05012801
246	0x3d79e7bb	0.06101201
247	0xbd6116c1	-0.05495334
248	0x3d92074d	0.07130299
249	0x3da61ec0	0.08111334
250	0x3ba32b18	0.0049795024
251	0xbcc0720b	-0.02349188
252	0x3d81fa2c	0.063465446
253	0xbd707f1f	-0.058714982
254	0x3d2ca31b	0.042147737
255	0xbc03d8bc	-0.008047279

encoder.2.bias f4 [16]
0	0x3bba745f	0.005690142
1	0x3d28fc01	0.041255955
2	0x3cf1c9c8	0.029515162
3	0x3d667727	0.056265976
4	0x3de44e88	0.11147791
5	0xbb31044c	-0.0027010618
6	0x3d78dfca	0.060760297
7	0xbc2ee29a	-0.010674143
8	0x82bf3a90	-2.809854e-37
9	0x3e0c8b10	0.13724923
10	0x3d32898f	0.043588217
11	0x3d6955b9	0.056966517
12	0x3de5081d	0.11183188
13	0x3cb78343	0.022401458
14	0x3ccb5ed7	0.024825497
15	0xbd264465	-0.04059257

encoder.5.weight f4 [10, 6400]
0	0xbb843177	-0.004034217
1	0xbcf6ef4e	-0.030143406
2	0xbcf2dd99	-0.029646682
3	0xbd514231	-0.051088516
4	0xbd31fc15	-0.043453295
5	0xbcc09a4c	-0.023511074
6	0xbd18b241	-0.03727937
7	0xbd0f7c6c	-0.035030767
8	0xbc3a9143	-0.011387172
9	0xbbaaf2a2	-0.0052169124
10	0xbc8cf439	-0.017206298
11	0xbc871464	-0.016489215
12	0xba695886	-0.00089014356
13	0x3c0d786c	0.008634668
14	0x3a9006d5	0.0010988364
15	0x3b00e9f9	0.0019670709
16	0x3c3c873c	0.011506852
17	0x3c209af4	0.009802569
18	0xbbc3947d	-0.005968629
19	0xbc64f427	-0.013974226
20	0x3ade9518	0.0016981689
21	0xbd04b1e2	-0.032396205
22	0xbcee4d18	-0.029089496
23	0xbd04721c	-0.032335386
24	0xbd206f74	-0.03916879
25	0xbcf877e5	-0.030330608
26	0xbc8e3fbd	-0.017364377
27	0xbca05b4c	-0.019574784
28	0x3c468894	0.012117524
29	0xbba1120a	-0.0049154805
30	0x3b04fd8d	0.002029273
31	0xba86c3a1	-0.0010281691
32	0x3bbda1c8	0.005787108
33	0x3cf68c16	0.030096095
34	0x3c89252b	0.016741356
35	0x3cbc0497	0.022951407
36	0x3bd65f7e	0.0065421453
37	0x3bc86ab6	0.0061162366
38	0x3b6569b0	0.0035005622
39	0xbc8b2a2f	-0.016987888
40	0x3cf48a2b	0.02985104
41	0x3c25672f	0.010095402
42	0xbc996250	-0.018723637
43	0xbcbce7f7	-0.023059828
44	0xbc8cfaeb	-0.01720949
45	0xbc5dc282	-0.013535144
46	0xbca03440	-0.019556165
47	0xbbbdff46	-0.005798253
48	0xba53f49e	-0.0008085462
49	0x3c84cd91	0.016211303
50	0x3c7e2ce4	0.015513632
51	0x3c605236	0.013691476
52	0x3ca8bb04	0.020596988
53	0x3c566bdf	0.013087242
54	0x3c729a6d	0.014807326
55	0x3bb5794f	0.0055381428
56	0x3c598427	0.0132761365
57	0x3ad91c6d	0.0016564258
58	0xbb83300a	-0.0040035294
59	0x3a99c7ce	0.001173252
60	0x3d817dba	0.063228086
61	0x3d09d503	0.03365041
62	0xbba6ecf2	-0.005094164
63	0xbb9bb928	-0.004752297
64	0xbc4e8a9b	-0.012606288
65	0xbc8198a5	-0.015819857
66	0x3be40390	0.0069584325
67	0xbb9715a4	-0.004610734
68	0x3bd54d1e	0.006509437
69	0x3c05ec86	0.008174067
70	0x3c8e05a1	0.017336668
71	0x3c8596a1	0.016307177
72	0x3bb74d89	0.0055939597
73	0x3c54e86a	0.012994865
74	0x3c07f5ff	0.008298396
75	0x3b73004e	0.003707904
76	0x3bee1b4c	0.0072664376
77	0x3c3ffc4a	0.011717865
78	0x3bf315b6	0.0074183596
79	0x3b4f9c61	0.0031678902
80	0x3d7cd2eb	0.061724585
81	0x3cf94876	0.03043006
82	0xbbc8a6eb	-0.006123414
83	0xbc6e5a3d	-0.014547882
84	0xbc28a3f3	-0.010292995
85	0x3b16150e	0.0022900733
86	0x3ba84460	0.005135104
87	0x3c9fa90f	0.019489793
88	0x3c0670c7	0.008205599
89	0x3ca1243b	0.019670596
90	0x3d32013e	0.043458216
91	0x3d162d83	0.036664497
92	0x3c8bc618	0.017062232
93	0xb94077dd	-0.000183552
94	0xbc5cb2b9	-0.013470345
95	0xbcae32f5	-0.021264533
96	0x3afe069d	0.0019380633
97	0x3c4c6be8	0.012476899
98	0x3c711168	0.014713623
99	0x3a986339	0.001162625
100	0x3cf19f98	0.029495046
101	0x37db9798	2.6177426e-05
102	0xbc93e0fe	-0.01805162
103	0xbc99c2d8	-0.018769667
104	0xbb9b31e1	-0.0047361706
105	0xbc8661c6	-0.016404044
106	0xb9631296	-0.00021655331
107	0x3c098af8	0.008394949
108	0x3c48d815	0.012258549
109	0x3d1a8c5a	0.037731506
110	0x3d2c35dc	0.04204355
111	0x3d36f3bf	0.04466605
112	0x3cbeb0fc	0.023277752
113	0x3c6db233	0.014507818
114	0xbc1e3d7a	-0.009658212
115	0xbbd4a46d	-0.0064893276
116	0xbc65fe15	-0.014037629
117	0xbad3d9f6	-0.001616298
118	0x3c0889f8	0.008333676
119	0x3ad0e0d4	0.0015936145
120	0x3c2b1704	0.010442499
121	0xbce5c8ee	-0.028049912
122	0xbd13a1a0	-0.03604281
123	0xbd2d68c8	-0.042336255
124	0xbce84700	-0.028354168
125	0xbc84c18e	-0.016205575
126	0xbbd6f969	-0.0065604937
127	0xb714fe04	-8.88063e-06
128	0x3c3cbda3	0.011519822
129	0x3cffc994	0.03122405
130	0x3d48db6c	0.049037382
131	0x3cf476f3	0.029841876
132	0x3b83b55c	0.0040194225
133	0x3c4e12d7	0.012577734
134	0xba9712e0	-0.0011526011
135	0xbc07281d	-0.00824931
136	0xbc2deabd	-0.010615048
137	0xbc2133d1	-0.009839014
138	0x3be2a5cf	0.0069167386
139	0xbc6ef3aa	-0.014584461
140	0xbcc143f7	-0.023591978
141	0xbd1f6066	-0.038910292
142	0xbd147517	-0.036244478
143	0xbce13315	-0.027490178
144	0xbca37507	-0.019953264
145	0xbadde539	-0.0016929276
146	0xbba0a8ee	-0.0049029505
147	0x398abf44	0.00026463915
148	0xba53a13d	-0.00080730376
149	0x3ce08be4	0.027410455
150	0x3d1186df	0.035529014
151	0x3cacb125	0.021080563
152	0x3b0e212c	0.0021687252
153	0xbc0ad8cf	-0.008474543
154	0xbc1d818b	-0.009613405
155	0x3be40d39	0.006959584
156	0x3b91ccb5	0.004449452
157	0x3c081e53	0.008308011
158	0x3c267e77	0.0101619875
159	0xbc86a303	-0.016435152
160	0xbcc032e9	-0.023461776
161	0xbc8839ef	-0.016629187
162	0xbcef36bf	-0.02920091
163	0xbcbac3ca	-0.022798438
164	0xbbf3b503	-0.0074373498
165	0xbc7bbdd7	-0.015365086
166	0xbc33c0e2	-0.01097128
167	0x3b805c36	0.0039172424
168	0x3b7460a3	0.0037289045
169	0x3d01285c	0.03153263
170	0x3d1188be	0.035530798
171	0x3cdecfc0	0.027198672
172	0xbb0ed88d	-0.0021796555
173	0xbae45ac4	-0.001742207
174	0x3ba48ac5	0.0050214254
175	0x3b5fe28a	0.0034162127
176	0xbab88722	-0.0014078359
177	0x3c4f0a69	0.012636759
178	0xbbce2b68	-0.0062917955
179	0xbc8efc31	-0.017454239
180	0x3b1ed31a	0.0024234713
181	0xbc618ce5	-0.013766502
182	0xbd0841b4	-0.033265784
183	0xbc6dcc9b	-0.014514114
184	0xbbd228c5	-0.0064135515
185	0xbc7240fa	-0.014785999
186	0xbc8ce776	-0.017200213
187	0xbb14688a	-0.0022645318
188	0x3bbb136c	0.0057091024
189	0x3cd084ee	0.02545401
190	0xba8508ca	-0.0010149714
191	0x3c361547	0.011113471
192	0x3a2217c5	0.00061833515
193	0x3c0eca9b	0.008715297
194	0x3cb0ffa1	0.021606268
195	0x3ca4de52	0.020125542
196	0x3c27a5e2	0.010232421
197	0x3b6df7b5	0.0036310975
198	0x3c07728a	0.008267054
199	0xbc27a2a9	-0.010231652
200	0x3d5312bf	0.05153155
201	0x3b4d6ea9	0.0031346476
202	0xbb7abe3e	-0.0038260366
203	0x3bebf612	0.0072009647
204	0x3bdba5ae	0.0067031
205	0xbb88fa89	-0.0041802567
206	0xbbc2f913	-0.005950102
207	0x3c94737a	0.01812147
208	0x3bfa6948	0.007641945
209	0xba59eaab	-0.00083128613
210	0x3aec87d2	0.0018045849
211	0x3c405343	0.011738601
212	0x3cbc8ba2	0.0230158
213	0x3c1429c1	0.009043158
214	0x3c55a72a	0.013040343
215	0xbb7a2678	-0.0038169902
216	0xbafd0970	-0.0019305181
217	0xbbc909ca	-0.0061352
218	0x3bf25cfe	0.0073963394
219	0xbc93f11b	-0.018059304
220	0x3d77633c	0.06039737
221	0x3c611050	0.013736799
222	0xbb83ad9a	-0.0040184977
223	0x3b8de4b6	0.004330243
224	0x3b8ac176	0.004234488
225	0xbc7a7a1e	-0.015287904
226	0x3c56a4af	0.013100787
227	0x3c42d989	0.011892685
228	0x3977b2c5	0.00023622352
229	0xbc0d4730	-0.008622929
230	0x3b51d785	0.0032019329
231	0x3bccf9a2	0.0062553445
232	0x3cef0f8b	0.029182216
233	0x3c19e74d	0.009393525
234	0x3b3a01d0	0.0028382428
235	0x3be50a54	0.0069897566
236	0xb92d1888	-0.00016507704
237	0xbc5e963e	-0.013585625
238	0xbba9414e	-0.0051652556
239	0xbc7fab4d	-0.015604806
240	0x3d7251ee	0.059160165
241	0x3cd9db3e	0.0265938
242	0x3bd2842b	0.006424447
243	0x3c89fbce	0.016843703
244	0x3b7b571b	0.003835148
245	0xbc02ff01	-0.007995368
246	0x3a9e8d9c	0.0012096646
247	0x3cac3503	0.021021372
248	0x3b93072c	0.004486939
249	0xbc954ec1	-0.01822603
250	0x3bfbf17d	0.0076886998
251	0x3cdf69fa	0.027272213
252	0x3c9edd5b	0.01939266
253	0x3c3143e3	0.010819408
254	0x3c39c81c	0.011339214
255	0x3b128f1a	0.0022363127

encoder.5.bias f4 [10]
0	0x3bf39879	0.0074339476
1	0xbbc0dc19	-0.0058856127
2	0x3c02c5a7	0.007981694
3	0x3c25ff68	0.010131694
4	0xbb862370	-0.00409358
5	0x3c278469	0.01022444
6	0x3b8c1e00	0.004276037
7	0xbadf27f8	-0.0017025461
8	0x3b1f05a4	0.0024264837
9	0xbadce58a	-0.0016853076

decoder.0.weight f4 [6400, 10]
0	0x3d5356b9	0.051596377
1	0x3d78eec5	0.060774583
2	0x3d9aef6d	0.07565198
3	0xbd532df7	-0.051557507
4	0x3e21ad9c	0.15788883
5	0x3d308b0a	0.043101348
6	0xbe5f4791	-0.21804644
7	0x3da8fe8f	0.08251678
8	0xbc0ad608	-0.008473881
9	0x3e14fd60	0.1454978
10	0x3d281375	0.04103418
11	0xbcdb9589	-0.026804702
12	0xbbdb353c	-0.0066896956
13	0x3cfdb1d1	0.030968579
14	0xbddc5192	-0.10757746
15	0xbe11c72a	-0.14236131
16	0xbe6582a3	-0.22413115
17	0x3e13dc57	0.14439522
18	0x3e250549	0.16115297
19	0x3cd230b0	0.025657982
20	0xbc8d31f6	-0.017235737
21	0x3c843228	0.016137198
22	0x3ccdaece	0.025107767
23	0x3e06fae0	0.13181639
24	0xbd8ec0ea	-0.06970389
25	0x3d777fb4	0.06042452
26	0x3e44c2c0	0.19214916
27	0xbcccdf04	-0.025008686
28	0x3e5ce01a	0.21569863
29	0xbe25001b	-0.16113321
30	0x3bd6c3d1	0.006554105
31	0xbc38be5e	-0.011275856
32	0x3e14e5a8	0.14540732
33	0xbdca1d8e	-0.09868918
34	0x3cf1c782	0.029514078
35	0x3d548f4b	0.051894467
36	0xbd1dc29a	-0.038515665
37	0x3dce40a9	0.10070927
38	0x3a87e512	0.0010367951
39	0x3e810dff	0.2520599
40	0xbdffa2b2	-0.124822035
41	0xbdf31d23	-0.11870792
42	0x3d97cc41	0.07412005
43	0x3dafcfec	0.0858458
44	0xbd9cd518	-0.07657832
45	0xbd75a81a	-0.059974767
46	0x3b29ec95	0.0025928367
47	0x3e2b9160	0.16754675
48	0xbda5bdc5	-0.08092836
49	0x3e36c928	0.17850173
50	0xbe04c9f4	-0.12967664
51	0x3e77e47e	0.24208257
52	0xbe872bf0	-0.2640071
53	0x3d1dc386	0.038516544
54	0xbd08f468	-0.03343621
55	0xbcc4ce50	-0.024024159
56	0x3cd2c107	0.025726808
57	0x3e1670b7	0.14691435
58	0x3ce40168	0.027832702
59	0xbd9df13a	-0.07712026
60	0xbe0b2665	-0.13588865
61	0xbd061f03	-0.03274442
62	0xbdcd2734	-0.10017243
63	0xbe39b25c	-0.18134445
64	0xbdf435d5	-0.1192433
65	0x3d062855	0.032753307
66	0xbd89a2f0	-0.06720531
67	0x3e71a591	0.23598315
68	0x3dc9f9bf	0.098620884
69	0xbd13b6e3	-0.036063086
70	0x3d340a16	0.04395493
71	0xbd333f4b	-0.043761533
72	0xbd80df47	-0.06292587
73	0x3e8f809c	0.2802781
74	0xbe071ee2	-0.13195375
75	0x3ce8e179	0.028427826
76	0x3e74ab61	0.23893501
77	0x3e7871a1	0.24262096
78	0x3e17fe90	0.14843202
79	0x3e6f26c2	0.23354629
80	0x3bb4fbae	0.0055231666
81	0xbaa14ff0	-0.0012307148
82	0xbe864bcc	-0.26229703
83	0x3b092e57	0.0020932162
84	0x3e4f19fa	0.20224753
85	0xbe532bc2	-0.20622161
86	0xbdcb7155	-0.09933726
87	0x3e0f7e90	0.14013124
88	0xbcf2893e	-0.029606458
89	0x3d157eaa	0.03649775
90	0xbe1a9cf5	-0.15098937
91	0x3e514a58	0.20438516
92	0xbe8c7d68	-0.27439427
93	0x3ccb481a	0.024814654
94	0x3e3082e6	0.17237434
95	0xbcba048c	-0.022707246
96	0x3ba8e939	0.0051547554
97	0xbe756806	-0.23965463
98	0x3e9d5de9	0.3073571
99	0xbe2783d8	-0.16358888
100	0x3d019439	0.031635497
101	0x3d6daeec	0.058028147
102	0x3d21dd6b	0.0395178
103	0xbe01491f	-0.1262555
104	0xbd0c39b2	-0.03423471
105	0xbdfd8f03	-0.12380793
106	0x3dc0547d	0.09391115
107	0x3e67087e	0.22561833
108	0xbe152c21	-0.14567615
109	0x3d0e22ed	0.034701277
110	0xbe206f6c	-0.15667504
111	0x3d055b1e	0.0325576
112	0x3b326e0a	0.0027226233
113	0x3e43812f	0.19092248
114	0xbdda2ddb	-0.106532775
115	0x3e63065e	0.22170398
116	0xbdba0226	-0.09082441
117	0x3d8ac976	0.06776707
118	0x3e626274	0.2210787
119	0xbdda6f5f	-0.106657736
120	0xbe0a88a6	-0.1352869
121	0x3e7b39e1	0.24533798
122	0x3d0829b0	0.03324288
123	0x3e1c752f	0.15279077
124	0xbd43256b	-0.047643106
125	0x3d80c9c8	0.06288487
126	0xbe2ef76f	-0.17086576
127	0xbdad1543	-0.08451321
128	0xbe0ce4f2	-0.1375921
129	0x3e298d24	0.16557747
130	0x3e1b0148	0.15137208
131	0xbd56389a	-0.052300073
132	0x3dde3d61	0.10851551
133	0xbe0be29d	-0.13660665
134	0xbd8f2000	-0.069885254
135	0xbe00a754	-0.1256383
136	0x3d8908a4	0.06691101
137	0x3e42ffbf	0.19042872
138	0xbd81e9e3	-0.063434385
139	0xbcb66f9b	-0.022270015
140	0x3e6ede55	0.23327
141	0x3e23ace7	0.15983926
142	0x3e420f41	0.18951131
143	0x3de862d3	0.11346974
144	0x3e07be7f	0.13256262
145	0xbe517b17	-0.20457111
146	0xbe49a682	-0.19692424
147	0x3db76e2a	0.08956559
148	0xbe30959e	-0.17244574
149	0xbde316f4	-0.11088362
150	0x3e5a3cef	0.21312307
151	0x3e1bed3c	0.15227216
152	0x3d865494	0.06559101
153	0xbe572578	-0.21010387
154	0x3e61e0f9	0.22058477
155	0xbde379b0	-0.111071944
156	0x3db1d7ba	0.08683725
157	0xbe9ed9c8	-0.3102553
158	0xbdadabbc	-0.08480021
159	0xbd28948d	-0.041157294
160	0x3e3b6ec9	0.1830398
161	0x3dd47177	0.10373204
162	0xbd88370b	-0.066511236
163	0xbd895704	-0.0670605
164	0xbe927201	-0.28602603
165	0x3e586de0	0.21135664
166	0xbcd6a77f	-0.026202915
167	0xbdc9ad00	-0.0984745
168	0x3e0981fd	0.13428493
169	0x3e0a078b	0.1347944
170	0xbe22a531	-0.15883328
171	0x3e0ff807	0.14059459
172	0xbdc41b3e	-0.095755085
173	0x3df1dbfc	0.11809537
174	0xbe602de4	-0.21892506
175	0x3d87d84b	0.066330515
176	0x3e4a77d3	0.19772272
177	0xbdfc7183	-0.12326338
178	0x3d633c46	0.055477403
179	0x3e297064	0.1654678
180	0xbd65805e	-0.056030624
181	0x3d29dcd0	0.04147035
182	0x3e0a865c	0.13527817
183	0xbdb2167e	-0.08695696
184	0xbdb699de	-0.089160666
185	0xbdbf7d22	-0.09350039
186	0xbe0e8d7b	-0.13921158
187	0xbd763b85	-0.060115356
188	0xbe4f13b1	-0.20222355
189	0x3e0f4fb0	0.13995242
190	0x3e003fe1	0.12524368
191	0xbd6c9eed	-0.05776875
192	0x3d384ebc	0.044996962
193	0x3e50bc8f	0.2038443
194	0x3e6fde1b	0.2342457
195	0x3e2d472b	0.1692168
196	0xbe007b85	-0.12547119
197	0xbe17db70	-0.14829803
198	0xbdd75a48	-0.10515267
199	0xbde495c1	-0.11161376
200	0xbd4e1e87	-0.050322082
201	0x3dfa23bd	0.12213848
202	0x3d22fc81	0.039791588
203	0x3cacfd49	0.02111687
204	0xbe3cf0aa	-0.18451181
205	0xbda8d564	-0.08243826
206	0xbd314c8f	-0.043285903
207	0xbcc6e44d	-0.024278784
208	0x3dc469e5	0.0959051
209	0x3c01468c	0.007890355
210	0x3d5504f9	0.052006695
211	0x3e20176a	0.15633932
212	0x3dee7059	0.11642522
213	0x3d47bc2a	0.04876343
214	0x3e108fe2	0.14117387
215	0xbd403b39	-0.04693148
216	0x3dd30fa8	0.103057206
217	0x3e2074fc	0.15669626
218	0xbe45a9ef	-0.19303106
219	0x3d8eb6c3	0.06968453
220	0xbe0188ec	-0.12649888
221	0x3d46983d	0.04848503
222	0x3c4ab26c	0.012371641
223	0xbdef42fe	-0.116826996
224	0xbdc6e4ad	-0.09711585
225	0x3dfe4eb1	0.12417353
226	0x3d654abc	0.055979475
227	0xbde3fcf7	-0.111322336
228	0xbdc94685	-0.09827904
229	0x3e287aa3	0.16453032
230	0xbd42af16	-0.047530256
231	0x3d0b3746	0.03398826
232	0xbcf870f8	-0.030327305
233	0xbc673389	-0.014111408
234	0x3bb5f768	0.0055531748
235	0xbd945c05	-0.07244114
236	0x3daf96f8	0.08573717
237	0xbe166884	-0.14688307
238	0x3e6b840e	0.22999594
239	0xbd980ad4	-0.0742394
240	0xbe971730	-0.29509878
241	0x3e6e3f44	0.23266321
242	0xbc11571c	-0.008870866
243	0xbdcec47f	-0.100960724
244	0xbe6976d9	-0.22799243
245	0xbda34297	-0.079716854
246	0xbe135c21	-0.14390613
247	0xbd910c32	-0.07082404
248	0xbe0ec2c8	-0.1394149
249	0x3d82aa5b	0.06380149
250	0x3b84e656	0.0040557785
251	0x3d5d822b	0.054079216
252	0xbdd374dd	-0.10325024
253	0x3e133c6f	0.14378522
254	0xbd18809b	-0.037232023
255	0xbd29e821	-0.04148114

decoder.0.bias f4 [6400]
0	0x3c949f66	0.018142413
1	0x3c7450c1	0.014911831
2	0x3a91758b	0.0011097653
3	0x3cc72906	0.024311554
4	0x3bd739af	0.0065681557
5	0x3b9a306d	0.00470548
6	0xbc9ea5f7	-0.019366248
7	0xbca77d5f	-0.020445524
8	0xbd08abec	-0.033367082
9	0xbd45db15	-0.048304636
10	0xbb212b11	-0.002459232
11	0x3bae8e92	0.0053270543
12	0xbbf2c19a	-0.007408333
13	0x3b91bddb	0.0044476814
14	0xbc263089	-0.010143408
15	0x3cf0b63d	0.029383773
16	0x3ca1fe44	0.019774564
17	0x3b576715	0.0032867838
18	0x3c0d2e6a	0.008617023
19	0x3c3b7642	0.011441769
20	0x3c5f8baa	0.013644138
21	0x3c0bd42f	0.008534475
22	0x3c59aafe	0.013285397
23	0x3b9c5aee	0.004771582
24	0x3c626b7f	0.013819574
25	0xbc127f45	-0.008941476
26	0xbb8c8bf4	-0.0042891447
27	0x3c2dbad1	0.0106036225
28	0xbc208ce8	-0.00979922
29	0xbcb86466	-0.022508811
30	0xbc888e2f	-0.01666936
31	0xbc2b07a6	-0.010438835
32	0x3b88a26a	0.004169752
33	0x3c24421f	0.01002553
34	0xbc250aaf	-0.010073348
35	0x3ba4df2e	0.005031488
36	0x3b27b853	0.0025592044
37	0x3b7965a4	0.0038054967
38	0xbc0e4ff8	-0.008686058
39	0xbb751da1	-0.0037401693
40	0x39abf3d5	0.0003279733
41	0x3c7794e1	0.015111179
42	0x3a019e1b	0.0004944519
43	0xbb62e657	-0.0034622157
44	0xbc4e7ed5	-0.012603481
45	0x39d84efd	0.0004125758
46	0xbcb310ed	-0.021858657
47	0xbcbc5391	-0.022989066
48	0x3c37f88b	0.011228691
49	0x3c587716	0.013211986
50	0xbb9fa3b0	-0.004871808
51	0x3c4341a6	0.011917507
52	0xba2532fe	-0.0006301849
53	0xbc4b7eb3	-0.012420344
54	0xbc80b403	-0.015710836
55	0xbd08469e	-0.03327047
56	0xbc2b1303	-0.0104415445
57	0xbab9a9a2	-0.0014164934
58	0x3b7475ec	0.0037301732
59	0x3b9c247e	0.0047650924
60	0x3b068453	0.0020525649
61	0x3b526f1c	0.0032109683
62	0x3b69b3c5	0.003566013
63	0xbc8c189d	-0.01710158
64	0xbbf21294	-0.0073874686
65	0xbc30f8a5	-0.010801469
66	0xbbb389b3	-0.0054790615
67	0x3cb1534a	0.02164616
68	0x3d004892	0.03131921
69	0x3cbfc87f	0.023411034
70	0xba9c1052	-0.0011906719
71	0x3d11ac52	0.035564728
72	0x3b628a25	0.0034567204
73	0xbb437992	-0.00298271
74	0x3c997cbd	0.018736238
75	0xbc32fd07	-0.010924584
76	0xbbf4ed44	-0.0074745733
77	0x3d008329	0.031375084
78	0x3ccba6f3	0.024859881
79	0x3c1dc403	0.009629252
80	0x3b92fe63	0.0044858917
81	0xbba1675a	-0.0049256505
82	0xba3e8c9a	-0.0007268876
83	0xb99c8b62	-0.00029858487
84	0xbbab66a2	-0.0052307406
85	0x3cb49844	0.022045262
86	0x3ca2fd90	0.019896299
87	0x3d3a2947	0.04544952
88	0x3c62b4d1	0.013837055
89	0x3def3d9f	0.11681675
90	0x3d20801d	0.03918468
91	0x3bf1004f	0.007354773
92	0x3c41aecd	0.011821461
93	0xbbcd7481	-0.006269992
94	0x3cc0df87	0.023544086
95	0x38ec9028	0.00011280208
96	0x3c367aaa	0.011137644
97	0xb97457f1	-0.00023302414
98	0x3c3deb2c	0.011591714
99	0x3bfa68ab	0.007641872
100	0xbbb2b754	-0.0054539833
101	0xbb656a48	-0.0035005976
102	0x3ba9edcd	0.0051858188
103	0xbbbc845a	-0.005753082
104	0x3ca7d377	0.020486576
105	0x3cc8c131	0.024506183
106	0x3d91ccfe	0.07119177
107	0x3d0174a7	0.03160539
108	0x3db7ffc6	0.08984332
109	0x3d18c850	0.037300408
110	0x3cbdd526	0.023172926
111	0x3c670ac5	0.014101689
112	0x3b362304	0.0027791867
113	0x3d082ab6	0.033243857
114	0x3ca0b31b	0.019616654
115	0xbaf207ca	-0.0018465456
116	0x3b245c07	0.0025079267
117	0x3d016fbd	0.031600703
118	0x3c8b130d	0.016976858
119	0x3bb5f7c4	0.0055532176
120	0x3c3581bb	0.011078293
121	0xbc621e58	-0.01380118
122	0x3b56823a	0.003273143
123	0x3bf80087	0.0075684222
124	0x3b665cbd	0.0035150491
125	0x3db1e916	0.08687036
126	0x3d9da4d1	0.07697452
127	0x3c8871c8	0.016655818
128	0xbb5d8617	-0.0033801848
129	0x3cd4ec6d	0.025991643
130	0xbbf34cfe	-0.0074249497
131	0xbbad8f34	-0.005296612
132	0xbcf1f275	-0.029534558
133	0xbb834559	-0.0040060696
134	0xbc86c14b	-0.016449591
135	0x3b47af89	0.0030469617
136	0x3cf160c3	0.029465085
137	0x3c45d4a3	0.012074622
138	0xbae0d274	-0.0017152564
139	0xbbd96f09	-0.006635551
140	0xba4aa123	-0.00077297
141	0x3c263d92	0.010146515
142	0x3aeba620	0.0017978586
143	0x3d0ec1be	0.034852736
144	0x3c74f2d4	0.014950473
145	0x3bd33015	0.006444941
146	0x3d8eccd1	0.069726594
147	0x3d8eb0f4	0.06967345
148	0xbce52749	-0.027972834
149	0x3c68ef33	0.014217186
150	0xbbe1d8ca	-0.0068922983
151	0xbaf81680	-0.0018927604
152	0x3ad07f22	0.0015907029
153	0xbc265d54	-0.010154087
154	0xbb2beda3	-0.0026234172
155	0x3d4d20bf	0.050080057
156	0x3cf8a8d9	0.03035395
157	0x3c8f09e5	0.017460773
158	0x3ccef72e	0.025264349
159	0x3b973e21	0.0046155606
160	0xbc08e9b3	-0.0083564995
161	0x3c9ac167	0.01889105
162	0x3bf6a3f1	0.0075268676
163	0x3c91ac78	0.017782435
164	0x3c85c597	0.01632957
165	0x3ca4ab73	0.020101285
166	0x3c0cf43f	0.008603155
167	0xbd20fe71	-0.039305154
168	0xbcd13c00	-0.025541306
169	0xbd6c254e	-0.057652764
170	0xbc9d61fb	-0.01921176
171	0xbcd668bc	-0.026172988
172	0xbc5ed965	-0.013601636
173	0x3c74c94a	0.014940569
174	0x3d077b76	0.033076726
175	0x3ca58c60	0.020208538
176	0x3beea8fb	0.0072833276
177	0x3c990db8	0.0186833
178	0x3c6c45d1	0.014420942
179	0x3c8c87d4	0.017154612
180	0x3c2dcf56	0.010608515
181	0x3ccf71d6	0.025322836
182	0x3cb158d4	0.021648802
183	0x3c12976b	0.008947234
184	0x3d0423fc	0.03226088
185	0x3c94adbd	0.018149251
186	0xbc92a32f	-0.017900078
187	0xbc58f77c	-0.013242599
188	0xbca6f626	-0.020381045
189	0xbd0fad43	-0.035077345
190	0xbcab8295	-0.02093629
191	0xbc4ee3c2	-0.012627544
192	0xbba982ad	-0.0051730485
193	0xbbf4e94d	-0.0074741007
194	0x3c278ac4	0.010225955
195	0x3c9bb6c6	0.019008052
196	0x3ccc4cab	0.024938902
197	0x3bb88365	0.005630898
198	0x3c3c6a6b	0.011499981
199	0xba79b5cf	-0.0009525688
200	0x3b63bace	0.0034748795
201	0x3c7727fb	0.015085216
202	0x3ca6351f	0.020289002
203	0x3c4292ef	0.011875852
204	0xbbec6ac5	-0.0072148764
205	0xbab47d94	-0.0013770335
206	0xbc114e47	-0.00886876
207	0xbcc3c7ab	-0.02389892
208	0xbc156cde	-0.009120194
209	0xbb02b2a8	-0.0019942913
210	0x3a4697a5	0.00075756974
211	0xbb7590cf	-0.0037470346
212	0x3d8cba97	0.06871527
213	0xbb6dce18	-0.0036286172
214	0x3d62b124	0.055344716
215	0x3c827bce	0.015928175
216	0xbc3c5e46	-0.011497086
217	0x3c370301	0.01117015
218	0xbb67741b	-0.0035317007
219	0x3bc1cd99	0.0059144017
220	0x3bd91932	0.006625318
221	0x3c4c1d2a	0.012458125
222	0x3c0ec22d	0.008713287
223	0x3ba6eaad	0.0050938935
224	0x3bfcefe1	0.0077190255
225	0x3bd8f5c7	0.006621096
226	0xbc2a76c4	-0.0104042925
227	0xbbc3f048	-0.0059795715
228	0xbc9b8c43	-0.01898778
229	0x3b67d310	0.0035373606
230	0x3d9cba14	0.07652679
231	0x3d8c93f9	0.06864161
232	0x3d75febd	0.06005739
233	0x3c8ffc4d	0.017576361
234	0x3c7bbe48	0.015365191
235	0xbc36eb01	-0.011164428
236	0xbbbb7939	-0.005721238
237	0x3b840564	0.004028963
238	0xbb3bb795	-0.002864336
239	0x3c5b31ac	0.013378542
240	0x3c6043bd	0.013688025
241	0x3c3757b6	0.0111903455
242	0x3b5a0aa0	0.0033270493
243	0x3bcbfaf2	0.0062249834
244	0x3c41eb6e	0.011835916
245	0xba700af4	-0.00091569056
246	0x3d200c72	0.03907437
247	0x3c8bcb98	0.017064855
248	0x3cd9fba7	0.026609255
249	0x3d0c08f5	0.03418823
250	0x3c391bdb	0.011298145
251	0x3da6d009	0.08145148
252	0xbbd89f34	-0.0066107754
253	0xbb041591	-0.0020154456
254	0xba75600f	-0.0009360322
255	0xbcb42224	-0.021988936

decoder.3.weight f4 [16, 6, 5, 5]
0	0x3d25bc65	0.04046287
1	0xbca897ed	-0.020580256
2	0x3c6503df	0.013977974
3	0xbd00c2a5	-0.031435627
4	0xbc70134a	-0.014653036
5	0x3c91871c	0.01776462
6	0xbcc3411b	-0.023834756
7	0x3ca4c66a	0.020114142
8	0xbdbe098c	-0.09279165
9	0xbda3ed1d	-0.0800421
10	0x3d62763c	0.05528854
11	0xbc077f65	-0.008270119
12	0xbc8f1bca	-0.017469306
13	0xbd486c2f	-0.048931297
14	0xbda1d5aa	-0.07902081
15	0xbd53cbaa	-0.0517079
16	0xbd6d5703	-0.05794431
17	0xbdc1880a	-0.094497755
18	0xbdf5c32c	-0.12000117
19	0xbe1e57eb	-0.15463226
20	0xbd9cdb1b	-0.076589786
21	0xbddfe244	-0.109318286
22	0xbcb417d4	-0.021984018
23	0xbdaa9f05	-0.08331112
24	0xbe09755f	-0.1342368
25	0x3dde739e	0.10861896
26	0x3d2ae8de	0.041725986
27	0xbd2cc18d	-0.042176772
28	0x3d23df29	0.040007744
29	0x3c6aaeb0	0.014323875
30	0x3be32739	0.006932166
31	0xbb3cfaac	-0.0028835936
32	0xbcb13ed6	-0.021636408
33	0xbdc1c6bb	-0.09461733
34	0xbcae229f	-0.021256743
35	0xbd8e316a	-0.06943019
36	0xbd495be6	-0.049159907
37	0xbcd2ff54	-0.025756516
38	0x3ce1ec29	0.02757843
39	0xbd131bed	-0.035915304
40	0xb958f8b0	-0.00020692009
41	0xbd8429b2	-0.06453265
42	0x3d50ac8d	0.050945807
43	0xbc85bfb2	-0.016326759
44	0xbcd99063	-0.026558107
45	0xbd1fb286	-0.038988613
46	0x3b6a5ead	0.0035761998
47	0xbd6bc5f3	-0.057561826
48	0xbc392865	-0.011301135
49	0x3d2b8817	0.041877832
50	0xbd80ef20	-0.062956095
51	0xbd118853	-0.0355304
52	0xbca951cf	-0.020668892
53	0xbc97e1f1	-0.018540354
54	0xbc38848d	-0.011262071
55	0xbd65ba6f	-0.056086
56	0xbb0cc183	-0.0021477647
57	0xbd815dfe	-0.06316756
58	0xbcad2a3b	-0.021138301
59	0xbd2545c2	-0.04034973
60	0xbd95077a	-0.07276817
61	0xbd59ca0c	-0.053171203
62	0x3d0f7521	0.035023812
63	0xbd20459f	-0.039128896
64	0xbd710f4e	-0.058852486
65	0xbcb110eb	-0.021614512
66	0xbcd7c87c	-0.026340716
67	0x3d995929	0.07487709
68	0xbd87b139	-0.066255994
69	0xbd12be1b	-0.03582583
70	0x3be71771	0.007052355
71	0x3d1402ea	0.03613559
72	0x3cf95009	0.030433672
73	0x3cc6b60e	0.024256732
74	0xbd23aeac	-0.039961502
75	0xbb82aec4	-0.003988119
76	0x3cc58b86	0.024114382
77	0x3d94768c	0.072491735
78	0x3d4c43b5	0.049869258
79	0x3d31bc21	0.043392304
80	0x3d874c23	0.06606319
81	0x3d98f972	0.07469453
82	0x3df96ab3	0.121785544
83	0x3dd14bc1	0.10219527
84	0x3ce84a98	0.028355882
85	0x3d85e3ff	0.065376274
86	0x3d86fa9c	0.06590769
87	0x3db6dec9	0.08929212
88	0x3da8d456	0.08243625
89	0xbc0bb44a	-0.008526871
90	0x3d66d8e1	0.056359176
91	0x3d01965c	0.031637534
92	0x3d581cd2	0.05276186
93	0xbb0937d1	-0.002093781
94	0xbca981ae	-0.020691719
95	0x3cd0b060	0.025474727
96	0x3d1d08d2	0.03833849
97	0x3d37d2b9	0.044878695
98	0xbbfa9226	-0.007646817
99	0xbc829a00	-0.015942574
100	0xbbd73850	-0.0065679923
101	0x3cc281de	0.023743566
102	0xbc6a0b60	-0.014284939
103	0x3cb0ff00	0.021605968
104	0xbd99c681	-0.07508565
105	0xbc5ade80	-0.013358712
106	0xbd1b84be	-0.03796839
107	0x3d5ce675	0.05393072
108	0x3c28c4ff	0.010300874
109	0xbd31451a	-0.04327879
110	0x3d5d34f0	0.054005563
111	0xbc82d908	-0.01597263
112	0x3b956fff	0.00456047
113	0x3d959b11	0.07304967
114	0x3ddc57c4	0.107589275
115	0x3d140fbc	0.036147818
116	0x3d90edf8	0.07076639
117	0x3db25bfe	0.08708952
118	0x3d0fba16	0.035089575
119	0x3dfcf49d	0.12351344
120	0x3d798d46	0.060925744
121	0x3d2809de	0.041025035
122	0x3de77476	0.1130151
123	0x3d45e045	0.048309583
124	0x3dd6dcf2	0.10491361
125	0xbdb7a090	-0.08966172
126	0x3cc5cba9	0.024144964
127	0xbd42814f	-0.0474866
128	0xbd61283e	-0.05497002
129	0xbd5bc2ea	-0.05365268
130	0xbd693294	-0.056933
131	0xbb3815e9	-0.0028089231
132	0xba602a88	-0.00085512595
133	0xbc877f6c	-0.016540252
134	0xbd8929a1	-0.06697393
135	0xbcb09e74	-0.021559931
136	0xbd22b399	-0.03972206
137	0xbd924423	-0.07141902
138	0xbdd8d4e7	-0.10587483
139	0xbc97e1a0	-0.018540204
140	0xbc6a60b9	-0.014305287
141	0xbd1873d2	-0.03721983
142	0x3ceeda04	0.029156692
143	0xbd14a2ec	-0.036288187
144	0xbc998d77	-0.018744214
145	0xbc90e856	-0.017688911
146	0xbc8e4fd2	-0.017372046
147	0x3da271cf	0.079318635
148	0x3bdc017a	0.006714043
149	0x3d670632	0.056402393
150	0x3cfcd9e3	0.030865615
151	0x3d7b80b7	0.06140205
152	0xba8e335d	-0.0010849048
153	0x3d8ef767	0.06980782
154	0x3d145e6a	0.036222853
155	0xbae07cb2	-0.0017127006
156	0xbcbd9f9e	-0.0231474
157	0x3c34cb03	0.01103473
158	0x3d5ce725	0.053931374
159	0xbc5f0622	-0.013612302
160	0x3d14451d	0.036198724
161	0x3d457dab	0.04821555
162	0x3dc85a87	0.09782892
163	0x3cc87c4b	0.02447333
164	0x3cce39db	0.025174072
165	0x3d364970	0.04450363
166	0x3bfa31c6	0.007635328
167	0x3d0838cf	0.033257302
168	0x3d024a55	0.03180917
169	0x3c4b048a	0.012391219
170	0xbcd4c8e3	-0.025974697
171	0x3c5bcf37	0.013416103
172	0x3cca30e0	0.024681509
173	0x3d352a88	0.044230014
174	0xbc5259aa	-0.01283876
175	0x3d387369	0.04503194
176	0x39a58476	0.00031569944
177	0xbd804610	-0.06263363
178	0xbccc63b1	-0.02494988
179	0xbd75e348	-0.060031205
180	0xbc9f848a	-0.01947238
181	0x3bff403d	0.00778964
182	0xbd9be170	-0.07611358
183	0xbd28199d	-0.04104005
184	0x3d07b455	0.033130962
185	0xbcf6676e	-0.030078616
186	0x3c339973	0.010961878
187	0x3ca1af3f	0.019736884
188	0xbdc6167f	-0.096722595
189	0xbd10c3cd	-0.03534298
190	0xbd442682	-0.047888286
191	0xbc37f5f3	-0.011228072
192	0xbc943c72	-0.018095229
193	0xbdaea5f7	-0.08527749
194	0xbd751233	-0.05983181
195	0xbcd0756b	-0.025446614
196	0xbcbe5b08	-0.023236766
197	0xbe01f8c7	-0.12692557
198	0xbd4f1d66	-0.050565146
199	0xbd88ceb0	-0.066800475
200	0x3cab2765	0.020892808
201	0xbd817cae	-0.06322609
202	0x3d0b5397	0.034015264
203	0xbd5000e5	-0.050782103
204	0xbcdf83a8	-0.027284458
205	0xbd06f53f	-0.03294873
206	0xbcd647af	-0.026157228
207	0x3cefdb98	0.029279515
208	0x3c9445ec	0.018099748
209	0xbd4b0734	-0.049567416
210	0x3d1e782d	0.038688827
211	0x3daa164b	0.08305033
212	0x3a128f9f	0.0005590859
213	0x3d4d50d1	0.0501259
214	0x3d855643	0.06510594
215	0x3d82eb34	0.06392518
216	0x3c9bc3da	0.019014288
217	0xbd3aac09	-0.04557422
218	0xbd89d894	-0.06730762
219	0x3c16647e	0.009179233
220	0xbd1abca2	-0.03777755
221	0x3d866fb3	0.06564274
222	0x3d91e7ad	0.07124267
223	0xba77e0dc	-0.0009455809
224	0xbd552c4f	-0.05204421
225	0x3c44609e	0.011985926
226	0x3cf42bae	0.029805984
227	0x3c8a94e8	0.016916707
228	0x3c69e9d7	0.014276943
229	0x3d5704bd	0.052494753
230	0x3cf14fa0	0.029456913
231	0x3c523f98	0.012832545
232	0x3d90dea9	0.07073719
233	0x3ccc6280	0.024949312
234	0x3cf71ef5	0.030166129
235	0xbbb74237	-0.00559261
236	0x3cfeb364	0.0310914
237	0x3dd02429	0.10163147
238	0x3d2feab9	0.04294846
239	0x3d5d1a54	0.053980187
240	0x3d8c8329	0.06860954
241	0x3db36509	0.08759505
242	0x3d909bd9	0.070609756
243	0x3d0ea49d	0.034824956
244	0x3d6bea4d	0.057596494
245	0x3d969210	0.07352078
246	0x3d862f53	0.06551995
247	0x3d9af31f	0.07565903
248	0x3cf42dcb	0.029806992
249	0x3d050bb3	0.03248186
250	0xbd2b174c	-0.041770265
251	0xbd9e2962	-0.07722737
252	0x3c844421	0.016145768
253	0xbc903f1e	-0.017608222
254	0xbc395226	-0.01131109
255	0xbd57bc3f	-0.05266976

decoder.3.bias f4 [6]
0	0xbe88a735	-0.2669007
1	0x3e80df0f	0.2517018
2	0xbe8bb5bc	-0.2728709
3	0xbde15627	-0.110027604
4	0x3e725951	0.23666884
5	0x3e21d7f0	0.1580503

decoder.5.weight f4 [6, 1, 5, 5]
0	0xbe1e9da3	-0.15489821
1	0xbe0bca2f	-0.13651346
2	0xbde05309	-0.10953338
3	0xbdda263a	-0.106518224
4	0xbd8b8583	-0.06812575
5	0xbe142b6b	-0.14469688
6	0xbe34f1ca	-0.1767036
7	0xbe027e2e	-0.12743446
8	0x3c4be131	0.0124438265
9	0x3d7e64ea	0.062107958
10	0xbd5af24d	-0.053453732
11	0x3d08dc3f	0.033413168
12	0x3cc24012	0.023712192
13	0x3d68d634	0.056844905
14	0x3e3090cc	0.17242736
15	0x3ce0d24e	0.027444031
16	0x3dec16ca	0.11527784
17	0x3e6838da	0.22677937
18	0x3e8471e1	0.25868133
19	0x3e453f89	0.19262518
20	0x3d8de810	0.06929028
21	0x3e3477f0	0.17623878
22	0x3e41a90e	0.18912145
23	0x3e5a67c4	0.21328646
24	0x3e097981	0.13425256
25	0xbe387f05	-0.18017204
26	0xbe8dfe02	-0.27732855
27	0xbe67cdb3	-0.22637062
28	0xbe20fb10	-0.15720773
29	0xbcb25ffb	-0.021774283
30	0xbe2a9017	-0.16656528
31	0xbe86936b	-0.26284346
32	0xbea3832d	-0.31936017
33	0xbe816787	-0.25274298
34	0xbcd87391	-0.026422294
35	0xbda79c5d	-0.08184121
36	0xbdcc2a56	-0.099690124
37	0xbe29940f	-0.16560386
38	0xbe23d036	-0.15997395
39	0xba9c6926	-0.0011933192
40	0xbe0e4885	-0.13894852
41	0xbdfce960	-0.123492
42	0xbdf43f5a	-0.11926146
43	0xbdd97a30	-0.106190085
44	0x3c94837c	0.018129103
45	0xbda3ebc8	-0.08003956
46	0xbdd746d5	-0.10511557
47	0xbd6f85c4	-0.05847718
48	0xbd15ec4c	-0.036602303
49	0x3d5dfe92	0.054197855
50	0x3d958658	0.07301015
51	0x3e09243a	0.13392726
52	0x3e325b26	0.17417583
53	0x3e06d41d	0.13166852
54	0x3d305bde	0.04305636
55	0x3ddf99c0	0.10917997
56	0x3db54ff3	0.0885314
57	0x3e062132	0.130986
58	0x3dd01f43	0.10162213
59	0x3db76265	0.08954314
60	0x3d672449	0.05643109
61	0x3ca1cf43	0.01975215
62	0x3d5b9ed8	0.053618282
63	0x3da4d1e5	0.08047847
64	0x3d43eb5a	0.04783187
65	0x3d1e0f4f	0.03858882
66	0x3df7e601	0.12104417
67	0x3e43c3dc	0.19117683
68	0x3e0f9d1e	0.14024779
69	0x3dba850e	0.091074094
70	0x3d11b258	0.035570472
71	0x3c0c54ba	0.008565122
72	0x3e061744	0.13094813
73	0x3e067c7a	0.13133422
74	0x3dc62c80	0.096764565
75	0x3dd99a93	0.10625186
76	0x3d4a50ed	0.049393583
77	0xbd6a809a	-0.05725155
78	0xbd010897	-0.031502333
79	0xbe21e016	-0.15808138
80	0x3e735028	0.23761046
81	0x3e39ac46	0.18132123
82	0x3bae4839	0.005318668
83	0xbd10d481	-0.03535891
84	0x3d4f975d	0.05068146
85	0x3e816171	0.25269654
86	0x3dc8f9d3	0.09813275
87	0x3e43ad8e	0.19109175
88	0x3d2a7381	0.04161406
89	0xbdb0fd8c	-0.0864211
90	0x3db8497e	0.089983925
91	0x3e038178	0.12842357
92	0xbde27829	-0.11058075
93	0xbe251a38	-0.16123283
94	0xbe393b29	-0.18088974
95	0xbe1af05f	-0.15130757
96	0xbdc0338f	-0.09384834
97	0x3c4f5ead	0.01265685
98	0xbe8029d1	-0.25031903
99	0xbe908981	-0.28229907
100	0xbd97cad7	-0.074117355
101	0xbe1cf80f	-0.15329002
102	0xbde9dcb8	-0.11419052
103	0xbdd39e83	-0.10332968
104	0xbd128fe7	-0.035781767
105	0xbe5cffde	-0.2158198
106	0xbe4eca9d	-0.20194478
107	0xbe699384	-0.22810179
108	0xbe4fe608	-0.20302594
109	0xbd9abe26	-0.07555799
110	0xbe88677f	-0.2664146
111	0xbe7db215	-0.24774964
112	0xbe00a511	-0.12562968
113	0xbdf8ac16	-0.12142198
114	0xbe2f4785	-0.17117126
115	0xbe39d044	-0.18145853
116	0xbe7f187e	-0.24911687
117	0xbe64e95b	-0.22354643
118	0xbe2dd364	-0.1697517
119	0xbe11b2ad	-0.14228316
120	0xbe5ccfbd	-0.21563621
121	0xbe7153ec	-0.2356717
122	0xbe4adc26	-0.19810542
123	0xbe7b3211	-0.24530818
124	0xbe36949f	-0.17830132
125	0x3d76c975	0.06025072
126	0xbd3a38a2	-0.045464166
127	0xbe943c9e	-0.28952497
128	0xbe3a3f43	-0.18188195
129	0xbde7d8a5	-0.113206185
130	0x3c024f81	0.0079535255
131	0xbe84f448	-0.25967622
132	0xbec74d4f	-0.3892617
133	0xbe6f7cf9	-0.23387517
134	0x3c2d24e0	0.010567874
135	0xbd63e23e	-0.055635683
136	0xbe89bae9	-0.26900414
137	0xbe329986	-0.17441377
138	0xbdda1c18	-0.1064989
139	0x3dd0e60d	0.10200129
140	0xbdb2a2f6	-0.087224886
141	0xbd8f8488	-0.070077
142	0xbd07bbd0	-0.033138096
143	0x3dab5a6d	0.08366857
144	0x3e007dce	0.1254799
145	0x3cc3597f	0.023846386
146	0x3c240635	0.0100112455
147	0xbbe82d92	-0.0070855105
148	0x3ca8e78c	0.020618223
149	0xbd0291e0	-0.0318774
