Autoencoder-on-MNIST-in-Pytorch/Models/model_e13.pt (torch, 561729 bytes, 11 tensors)

encoder.0.weight f4 [6, 1, 5, 5]
000000 1d 1f 7e be 1a e3 44 be 00 4f e8 bd 0a 56 5f be
       -0.24816556 -0.19227257 -0.11343193 -0.21810165
000010 93 2a ab be e3 f6 66 be 11 af a5 be 55 78 09 bd
       -0.3343092 -0.22555117 -0.32360128 -0.033562023
000020 4a 09 01 be 49 89 40 be 24 b6 0a 3e 89 f3 3c be
       -0.126012 -0.1880237 0.13546044 -0.18452276
000030 75 b3 97 3c e6 8d 7c be 91 98 50 be 54 3d 0c 3e
       0.018518189 -0.24663505 -0.203707 0.1369527
000040 54 a4 8b 3c 9e 02 40 be 8c 2c 1d be 8d 9d e0 bd
       0.017046131 -0.18750998 -0.15349025 -0.109675504
000050 e3 3d 78 3b 8c 28 c4 bd 15 5e cf bc 9d 3f a5 be
       0.0037878684 -0.09578046 -0.025313416 -0.32275096
000060 03 4f c7 be 73 9a 5e be f7 5a 9f be 3c 2e 86 be
       -0.3892747 -0.21738605 -0.31124088 -0.2620715
000070 b1 3d 9a be 05 a0 6c be 99 e6 9c 3d 9a 1f 89 3c
       -0.30125192 -0.23107918 0.076611705 0.016738702
000080 b2 c8 60 3d d1 21 d4 3c 1b f9 4d 3e 62 c7 0c be
       0.054878898 0.025895031 0.20114557 -0.13747934
000090 92 d5 01 3c 5e 7b 16 3e 30 98 d5 bc ee 20 5d bd
       0.007924454 0.14695498 -0.026073545 -0.053986482
0000a0 e4 8d 47 3e da 56 12 3e 45 41 e2 3d ff a5 11 3e
       0.1948772 0.14290944 0.110476054 0.14223479
0000b0 68 dc 72 3e 25 2f dd bd 66 5a 1a be 0e 30 ec bd
       0.23716891 -0.10800008 -0.15073547 -0.11532603
0000c0 27 e7 92 3e 3a 92 81 3e bc f7 23 3e 6c 35 28 3e
       0.2869198 0.25306875 0.16012472 0.16426629
0000d0 c8 3e 12 3e 44 ab c1 bd b9 f5 fb bd 85 92 3a 3e
       0.14281762 -0.094564945 -0.12302727 0.18219955
0000e0 f7 73 a4 3d 41 05 86 be 4e 9e 91 be 6b 5e c0 be
       0.08029931 -0.26175883 -0.2844109 -0.37572035
0000f0 c6 c0 5e be 3c 60 f9 bd f6 07 ba be 47 05 4d be
       -0.21753225 -0.121765584 -0.363342 -0.20021544
000100 f0 5b db bd f3 24 2c bd 8e e7 4a bd 73 d2 aa be
       -0.10710895 -0.042027425 -0.049537234 -0.33363685
000110 ca cf 55 3c 7c a7 1d be 2b 59 4e be 3a 0d 2c bd
       0.013050029 -0.15395921 -0.20151202 -0.0420048
000120 53 30 51 be 9d a5 3a be cd 54 a0 be ef ef 48 be
       -0.2042859 -0.18227239 -0.31314698 -0.19622777
000130 db 3a 16 be ce 30 42 be 87 d1 5d 3e 68 f4 85 bc
       -0.14670889 -0.1896393 0.2166196 -0.016351894
000140 63 1f 31 bd c8 4d 75 3d d4 f8 b0 bd 6c 3f 3c 3e
       -0.043242823 0.05988863 -0.0864121 0.18383569
000150 98 e8 69 3e 9d 8c 3a 3e ba 8b 4c 3e ff 86 30 be
       0.22842634 0.18217702 0.19975176 -0.17238997
000160 02 8a 5b 3e 36 5e 71 3e 9f 13 98 bd 79 e4 27 3e
       0.21439365 0.23571095 -0.074256174 0.16395749
000170 75 a2 88 3d d9 75 36 bd ef 81 1c 3e f6 7d 72 3e
       0.06671611 -0.044545982 0.1528394 0.23680863
000180 34 75 1b 3c 06 e2 09 3e 01 67 63 3e 1a 63 a6 3d
       0.009488393 0.13465127 0.22207262 0.08124371
000190 64 fa a5 bc 80 71 4f 3e 46 aa c2 3c 94 b0 71 bd
       -0.020260997 0.2025814 0.023762833 -0.05900629
0001a0 3b b9 1e 3e 6b e4 25 3d df 09 a4 bd aa 58 69 bd
       0.15500347 0.04050104 -0.08009695 -0.056969322
0001b0 0f 0a 80 3e c5 b8 7e 3e 7b 06 00 be a4 ad 11 be
       0.25007674 0.24875171 -0.12502472 -0.14226395
0001c0 56 97 0c 3e 44 17 88 ba 97 c5 6b 3e c3 fc 48 3c
       0.13729605 -0.001038291 0.23024593 0.012267294
0001d0 a1 47 c9 bc 35 16 43 bd 99 26 4a 3e 9b 77 6e 3e
       -0.024570288 -0.0476286 0.19741286 0.23287813
0001e0 de 5b 1f be 9c b1 96 be 45 a4 2c be 5f 70 60 3e
       -0.15562388 -0.2943238 -0.16859539 0.21917866
0001f0 d0 fe b6 3d 64 ea 86 bd 55 71 20 3e 4d a6 04 3e
       0.089353204 -0.06587675 0.15668233 0.12954064
000200 fb f9 0c be 89 e1 24 3a 7a 88 8b bd 8b 1f 61 3e
       -0.13767235 0.0006289711 -0.0681314 0.21984689
000210 c2 b3 7c bd a3 db 7b be d0 02 25 be 97 6d 94 3d
       -0.061694868 -0.24595504 -0.16114354 0.07247465
000220 68 8c 2c 3e f5 50 67 bc a4 12 83 be ed b0 96 be
       0.16850436 -0.014118423 -0.2560016 -0.2943186
000230 2a 49 82 3e 8f 44 81 3e 3e 57 3f 3e 3e cd 3f be
       0.25446445 0.2524762 0.18685624 -0.18730637
000240 51 35 25 be a5 dd dd 3d aa 56 05 bd 56 70 80 3d
       -0.1613362 0.10833291 -0.032553352 0.062714264
000250 89 75 23 be 4b 4c 08 be
       -0.15962805 -0.13310353

encoder.0.bias f4 [6]
000000 2a 79 33 3e 52 33 37 3e 82 14 b1 3b 3c 5e 2d 3e
       0.17526689 0.17890671 0.005404056 0.16930479
000010 c9 c8 ff bc 7a 95 3a 3e
       -0.031223672 0.18221083

encoder.2.weight f4 [16, 6, 5, 5]
000000 ad e6 39 3d cd 35 0f 3d 66 bd 37 bd 1d c4 e6 3d
       0.045386005 0.034963418 -0.04485836 0.112678744
000010 0b 65 d0 3c f5 47 53 bb 73 ae 76 bd cd 43 8c bd
       0.025438806 -0.0032238935 -0.06022496 -0.068488695
000020 56 55 af bb d8 eb 55 3d fb 11 05 be 34 e4 1b be
       -0.005350749 0.05222687 -0.1299514 -0.15223771
000030 78 e0 04 bd ca 8d bb bc 5f c2 ef bc a5 cc 08 be
       -0.032440633 -0.022894759 -0.029267488 -0.13359316
000040 71 64 9c bd aa 2f 15 be 8c a6 cf bc 04 d4 c2 3c
       -0.07636345 -0.14568964 -0.02534797 0.023782738
000050 2f 39 de bd 37 e3 ac bd 24 b9 bc bd 1b bd ea 3b
       -0.10850751 -0.08441775 -0.09215 0.0071636564
000060 08 10 48 bd 90 6b bb 3c 2c 3b 8d bc e3 50 0a bd
       -0.048843414 0.022878438 -0.01724013 -0.033768546
000070 43 17 8a 3b 5e 67 ac 3c df 2c 7b 3b 03 81 c7 3d
       0.004214199 0.021045383 0.0038326306 0.09741404
000080 08 1b 9c 3c 40 6e dd 3a b1 e7 b9 bc ac e8 5f 3d
       0.019055858 0.0016893819 -0.022693487 0.054665253
000090 f9 b3 b3 3d b7 4a 99 3d 27 2c 37 bd 3f 21 fa bc
       0.087745614 0.07484954 -0.04471984 -0.030533431
0000a0 ac 2b 65 3d 9d 5a 00 bd a2 c2 0d bd 18 e2 89 3d
       0.055949852 -0.031336416 -0.034609444 0.06732577
0000b0 dd 34 f2 3d 86 d3 a4 bd 4d 0c 46 3d 58 84 c6 bd
       0.11826489 -0.080481574 0.048351575 -0.09693211
0000c0 d6 3c 7a bd a4 8e ac 3c d8 0a 5c 3d 0d 88 2e 3d
       -0.061093174 0.02106411 0.05372128 0.042610217
0000d0 3b 11 ec 3b c8 dd df 3d 1f 7a 0b 3b e9 9d 13 bd
       0.0072042025 0.10930973 0.0021282507 -0.036039267
0000e0 0b 7b 33 3d f3 49 21 bc e0 37 dc bc 80 40 ba 3d
       0.043818515 -0.009844291 -0.026882112 0.09094334
0000f0 6f a6 02 be cf bf be bc cb a8 17 bd 42 30 95 3d
       -0.12758802 -0.02328482 -0.037026208 0.07284595
000100 c3 1a 28 3d 95 4b 1e be 8e 87 b3 bd 8f 5c 98 3c
       0.041041147 -0.1545852 -0.087660894 0.018598823
000110 b8 50 c4 bc 37 4c c5 3c 09 33 f1 bd 62 da 9c bd
       -0.023964271 0.024084194 -0.11777312 -0.07658841
000120 a4 bf 0b bd a2 70 39 bd 82 31 14 bd 1c 2d 96 ba
       -0.03411831 -0.04527343 -0.036180027 -0.0011457535
000130 eb f7 9e 3d eb 55 5c bd 17 db 1d bd bb 49 9b bc
       0.0776213 -0.053792875 -0.03853902 -0.018956056
000140 1a 9c ee 3c 63 85 c0 3d b7 a3 06 3d 00 77 b0 3d
       0.02912717 0.094004415 0.032870974 0.086164474
000150 1c 38 ce 3d 1d e2 85 3d 48 94 49 3d d7 a3 bc bc
       0.10069296 0.06537268 0.049213678 -0.023027344
000160 a0 84 82 bd 8b 9a 4d bc 96 04 cd 3d eb 71 c5 3d
       -0.063729525 -0.012549053 0.1001064 0.09640869
000170 73 d6 0a 3c 70 7a 18 bd ad 3b 96 3d e4 cc b8 3d
       0.00847398 -0.03722614 0.07335601 0.09023455
000180 be a5 f6 bc b5 4c c6 3c 69 f9 56 bd 09 e7 fa bc
       -0.030108329 0.024206499 -0.05248395 -0.030627744
000190 8f df 41 3d b8 dd ba 3d 72 ef a0 3d f1 54 10 bd
       0.047332343 0.09124321 0.078581706 -0.035237256
0001a0 ad 3d 4c bd 3b 1f 08 3d 5b c9 c8 3d cc 88 df bc
       -0.049863506 0.03323291 0.098040305 -0.02728691
0001b0 2a e9 86 bd ec 31 65 3d 7e ad dc 3d d9 9a 31 3d
       -0.06587441 0.055955812 0.107752785 0.043360565
0001c0 51 b5 62 bd cd f1 c1 bc 03 9e 5c bd fa c0 8b 3c
       -0.055348698 -0.02367487 -0.05386163 0.017059792
0001d0 6d 58 5f 3d c9 c7 5a bd ce 64 9c bd c8 30 59 bc
       0.05452769 -0.053413186 -0.076364145 -0.013256259
0001e0 f5 96 37 3d 41 4e 33 bc 18 fe 18 bd 1e cd f6 3c
       0.0448217 -0.01094395 -0.037351698 0.030127104
0001f0 c1 24 2e bd 16 87 6f 3d b6 8f 4f bd d4 b7 30 bc
       -0.04251552 0.058478437 -0.050674163 -0.010786016
000200 95 55 3e bc 19 ef 32 bd 72 14 d2 3c c1 13 68 bd
       -0.011617084 -0.043685053 0.025644515 -0.056659464
000210 13 82 a7 3d fe aa b1 3d 69 56 0a 3d f3 84 3b 3d
       0.081791066 0.08675192 0.033773813 0.045781087
000220 fa 40 20 3d 92 3e 94 3c 44 d5 98 bc d2 de 09 bc
       0.039124466 0.018096242 -0.01865638 -0.008414941
000230 44 e4 8b 3d 1a 6e 83 3d 00 ad e2 bb cd d3 31 3d
       0.068306476 0.064174846 -0.006917596 0.04341488
000240 45 a2 7a bd 5d 51 94 3c ce a1 fa 3c ee 03 b6 3c
       -0.06118991 0.018105203 0.030594733 0.02221867
000250 30 0c bb bc d4 ff 5c 3c 2e 3d 61 bd 79 3e 80 3c
       -0.02283296 0.013488729 -0.054989986 0.01565479
000260 11 45 4b bd cc 45 82 3d ae 21 f3 bb 37 40 95 3d
       -0.049626414 0.06360969 -0.0074197864 0.07287639
000270 d5 b6 99 3c ff 82 69 bd 5e bb 92 3d b1 41 ed 3c
       0.018763939 -0.057009693 0.07164644 0.028961988
000280 50 cc 4d bd 77 e8 31 bd 4c a9 69 bc 28 3e 43 3d
       -0.050243676 -0.043434586 -0.014261555 0.0476667
000290 5a 36 89 ba 4d 64 fd 3b 5e ac 56 bc aa a6 96 bd
       -0.0010468469 0.007732904 -0.013102619 -0.073560074
0002a0 99 af e4 bc 94 2c 1d bd 4a 31 3b bd 40 9a 9d bd
       -0.027915763 -0.03837259 -0.045701303 -0.076954365
0002b0 ec 90 02 be ca 5b 13 be f7 ff 9e bd 6f 77 8c 3c
       -0.12750596 -0.14390483 -0.07763665 0.017146794
0002c0 6f 09 58 3d 60 c1 90 bd a2 8a 14 bd f5 8e 83 3b
       0.05274337 -0.07068133 -0.036265023 0.0040148445
0002d0 5f d5 c7 bc c4 dd 9d 3c f5 f1 dd 3a e2 f6 57 bd
       -0.024393735 0.019270785 0.0016933071 -0.05272568
0002e0 e7 10 60 bd 13 5b ab bb 88 fd 18 3d fd 21 4d bd
       -0.05470362 -0.0052293628 0.03735116 -0.050081242
0002f0 f1 93 6a bb 6e cb 1e bd 68 a1 87 3d a1 98 45 3d
       -0.0035793746 -0.038768224 0.06622583 0.04824126
000300 26 82 a3 bc 79 9f 24 3d fe 45 9a 3d 32 a3 50 bc
       -0.01995952 0.040191147 0.07532881 -0.012734221
000310 5d 09 13 3d 23 63 4f bd 57 c7 84 3d fe 0c fb 3c
       0.0358976 -0.050631654 0.064833336 0.030645844
000320 d3 47 29 3d a1 59 4c bd 04 f2 3f bd e1 29 6f 3d
       0.041328263 -0.049890164 -0.046861663 0.05838955
000330 fc 83 88 3d af c1 1c 3d 44 38 41 bd c3 96 81 3b
       0.06665799 0.03827065 -0.0471728 0.00395474
000340 56 44 15 3d 0c 99 2a bc 59 25 71 3d 97 60 90 bd
       0.036442123 -0.010412466 0.058873508 -0.07049673
000350 98 a9 ac bd 27 be 87 bd 52 e8 36 bd b3 4e 8a bd
       -0.08430785 -0.066280656 -0.04465515 -0.06753292
000360 de 3a 12 bd 5e e4 23 be 67 e8 a6 bd 65 e4 a9 3c
       -0.03570067 -0.16005084 -0.08149796 0.02073879
000370 fb e0 7a bc 09 8e be bd 50 f5 ef bd 69 8a 40 bd
       -0.015312429 -0.09304435 -0.117167115 -0.047007
000380 f8 23 7d 3d 4a 6d 7b 3d e4 10 a3 3d b2 8c b6 bc
       0.06180188 0.061383523 0.07962206 -0.022283886
000390 0e 75 94 3d cd dd a7 3c db 0b 01 3d 85 5f 8c 3d
       0.07248889 0.020491505 0.031505447 0.068541564
0003a0 6c cb b2 3d 11 c8 81 3c d8 8b 7d bd d0 d0 96 bb
       0.08730206 0.01584247 -0.061900944 -0.004602529
0003b0 0f 78 3f 3d 86 9c 29 bd ae f9 ce 3d 8e 4a a8 3c
       0.046745356 -0.041409038 0.10106216 0.020543363
0003c0 d0 98 2f 3d a5 94 ec 3d da af d2 3c b3 f1 a8 3d
       0.042870343 0.11551789 0.025718618 0.082492255
0003d0 17 60 52 3d ab 3b 51 3d 89 eb 7c 3d 8d 1a 5c bd
       0.05136117 0.051082294 0.06174806 -0.05373626
0003e0 5f 89 94 3d a1 63 a6 3d 88 5e 8d 3b a9 9d b9 bc
       0.07252764 0.081244715 0.0043142475 -0.022658186
0003f0 18 7d 85 3d 3e 4d 6e bd a4 59 2b 3d 8e ee 0c bc
       0.06518 -0.058179133 0.041833535 -0.008601798

encoder.2.bias f4 [16]
000000 b5 3e 27 3b 4a 73 24 3d ac 96 ed 3c 52 bb 5a 3d
       0.0025519554 0.04014901 0.02900251 0.0534013
000010 af 26 dd 3d 59 02 de 3a 8e 15 78 3d 06 ae 25 bc
       0.10798394 0.0016937956 0.06056743 -0.010112291
000020 90 3a bf 82 60 12 0c 3e a2 d1 26 3d 89 90 49 3d
       -2.809854e-37 0.13678885 0.040727265 0.049210105
000030 99 ca dd 3d af f6 b1 3c 1f 96 d2 3c b2 fe 15 bd
       0.10829658 0.021724073 0.025706349 -0.03661985

encoder.5.weight f4 [10, 6400]
000000 97 73 62 bb b6 d6 11 bd 35 6f e5 bc e9 a8 4c bd
       -0.003455376 -0.035605155 -0.02800713 -0.049965773
000010 22 7b 2f bd 0b 23 b5 bc 9c 9a 0c bd 47 7e 0d bd
       -0.042842038 -0.022111436 -0.034327134 -0.034544256
000020 63 e0 48 bc 00 f8 a3 bb 84 fa 84 bc c4 58 60 bc
       -0.012260529 -0.005003929 -0.016232736 -0.013693038
000030 41 d8 b1 3a 52 de e1 3b 48 81 e8 b9 73 da 2e 3b
       0.0013568477 0.0068929577 -0.0004434681 0.00266805
000040 b9 ba 34 3c da ec 16 3c 3c 4d 67 bb 5e e2 4a bc
       0.011030846 0.009211743 -0.0035293838 -0.012383072
000050 6f 07 2b 3b 2b 52 fb bc 8f 58 ca bc 37 8a 02 bd
       0.002609696 -0.03067883 -0.024700431 -0.031870093
000060 e6 0a 21 bd 66 64 fa bc f6 20 98 bc cc fe a4 bc
       -0.039317034 -0.030565452 -0.018570404 -0.020141028
000070 45 82 28 3c 15 36 d8 bb 11 52 e5 3a b5 a8 8b 3a
       0.010284965 -0.006598244 0.0017495771 0.0010655137
000080 f8 e0 ee 3b 86 be e6 3c 66 43 6b 3c ba cf c0 3c
       0.007290002 0.02816702 0.014359331 0.023536552
000090 60 35 d8 3b 42 68 a2 3b 58 b1 88 3b 3d 58 68 bc
       0.0065981597 0.004956276 0.0041715316 -0.014181194
0000a0 e7 0b fe 3c 98 98 58 3c 7b 5a 8b bc 28 70 b8 bc
       0.031011535 0.013219975 -0.017010918 -0.022514418
0000b0 27 e9 9b bc fd 8b 90 bc 69 08 bc bc fd 95 09 bc
       -0.019032074 -0.017644877 -0.022953229 -0.008397576
0000c0 08 96 8d bb 57 65 5e 3c 3d ab 7f 3c 49 f4 78 3c
       -0.0043208636 0.013573966 0.015604791 0.015194961
0000d0 80 b1 b5 3c 7d 82 4e 3c c6 85 87 3c 98 ef 09 3c
       0.022179365 0.012604353 0.01654328 0.00841894
0000e0 ee ed 72 3c 36 dd 0d 3b 4e 87 19 bb 7f ac 90 3b
       0.014827235 0.0021646745 -0.0023426595 0.0044150944
0000f0 ca 7b 79 3d 13 d9 06 3d 2e ee ce bb 64 82 f6 bb
       0.06090907 0.03292186 -0.0063150143 -0.007522868
000100 2b 52 70 bc b3 bb 9f bc 76 9e 44 3b 19 87 0b bc
       -0.014668028 -0.019498682 0.0030001677 -0.0085160965
000110 bf d7 23 3b c1 51 dc 3b a1 de 98 3c 4a c3 98 3c
       0.002500042 0.006723613 0.018660845 0.018647809
000120 17 8d ca 3b 13 87 6d 3c 8e 9f 57 3c c0 02 11 3c
       0.00618137 0.014497536 0.013160599 0.008850753
000130 4c 4d 1f 3c 83 74 4e 3c e5 b0 1f 3c 7a 61 b1 3b
       0.009723019 0.012601021 0.009746765 0.0054132314
000140 af f3 69 3d 26 23 02 3d 0e 5c 1f bc 92 3d 8a bc
       0.05711716 0.0317718 -0.009726537 -0.016875062
000150 e2 1d 24 bc 9d bb 10 3b 77 db 81 3b 61 b9 8b 3c
       -0.01001689 0.0022084482 0.00396293 0.017056169
000160 7e 70 d4 3b 01 7c 97 3c b1 16 2c 3d 4a 54 1a 3d
       0.0064831367 0.018491747 0.042013828 0.03767804
000170 af c2 92 3c 22 e0 9e b9 a6 42 26 bc e7 4a 8a bc
       0.017915098 -0.000303031 -0.010147726 -0.01688142
000180 a7 ac 59 3b 76 1a 47 3c 65 a4 7c 3c d8 e9 29 3b
       0.003321448 0.012152305 0.015420054 0.0025926735
000190 59 d4 f2 3c 0a d8 50 3b 29 cf a5 bc 12 20 a0 bc
       0.02964227 0.003186705 -0.020240383 -0.019546542
0001a0 da 91 78 bb bd b7 5b bc 96 75 32 3a 83 dc 00 3c
       -0.0037928731 -0.013410506 0.0006807683 0.007865074
0001b0 b6 85 57 3c 87 da 15 3d ec d6 22 3d 17 43 40 3d
       0.013154438 0.036585357 0.039755747 0.04693898
0001c0 f4 9c c4 3c 7d c9 47 3c 14 16 10 bc 8b 1e 36 bb
       0.024000622 0.012194035 -0.008794326 -0.00277892
0001d0 94 65 44 bc bb db 89 ba ec 5b 02 3c 05 b6 cf 3a
       -0.011987109 -0.0010517755 0.007956486 0.0015847093
0001e0 63 4b 5b 3c 56 e3 ad bc b7 ba 15 bd 80 ad 2a bd
       0.013384673 -0.021226566 -0.03655502 -0.04166937
0001f0 69 41 da bc cf 09 4d bc 53 35 8c bb 38 19 5c 3b
       -0.026642518 -0.012514546 -0.0042788177 0.0033584367
000200 e8 7c 85 3c 3b 87 05 3d 1a ba 43 3d fd 3a ec 3c
       0.016294912 0.03259967 0.047784902 0.028836722
000210 f5 2d 1b 3b c6 d2 49 3c fa 06 0f ba 88 c4 e0 bb
       0.0023678516 0.012318319 -0.00054560567 -0.006859366
000220 0f 1b 0c bc d4 aa f7 bb d4 44 d8 3b af 33 5b bc
       -0.008551373 -0.007558206 0.006600002 -0.013379022
000230 14 91 a3 bc 12 3d 14 bd b9 d1 12 bd b6 af d0 bc
       -0.01996664 -0.036191054 -0.03584454 -0.02547441
000240 fa 7b 89 bc 95 c9 8d 3b d0 04 31 b8 50 0f 85 3b
       -0.01678275 0.004327009 -4.220457e-05 0.0040606633
000250 db 7c 49 3b 4a 8f ef 3c ad c6 ff 3c f1 63 82 3c
       0.0030744586 0.02924313 0.031222666 0.015916796
000260 f0 8e a6 3a 50 a6 f3 bb ba f9 0d bc 77 aa f6 3b
       0.0012707394 -0.0074355975 -0.0086654965 0.007527645
000270 d7 2a b9 3b a9 aa 2d 3c 69 6e 1c 3c e5 27 63 bc
       0.005650859 0.010599771 0.009547808 -0.013864492
000280 8c 6a 94 bc 77 4d 92 bc 8e 72 e1 bc 51 c0 a3 bc
       -0.018117212 -0.017859204 -0.027520444 -0.019989165
000290 35 68 7c bb 8b 45 2f bc f4 d4 fb bb 3f da aa 3b
       -0.003851426 -0.010697733 -0.007685298 0.0052140052
0002a0 83 84 bc 3b 70 b4 08 3d 7b 7e 00 3d 9f 15 c5 3c
       0.0057531013 0.033375204 0.03137062 0.024058161
0002b0 00 80 39 bb 49 6c bc ba 33 b5 bb 3b 49 b6 56 3b
       -0.0028305054 -0.0014375533 0.0057283877 0.003276246
0002c0 1a d8 94 ba b1 7f 59 3c 27 76 fb bb f4 78 7f bc
       -0.0011355907 0.013275073 -0.007673997 -0.015592802
0002d0 88 58 89 39 2b 3c 9b bc 2b fd 05 bd 4a d5 73 bc
       0.00026196637 -0.018949589 -0.032712143 -0.014882395
0002e0 30 02 98 bb 85 44 40 bc ce 8d 8a bc 0f 13 ef ba
       -0.0046389326 -0.011735086 -0.01691332 -0.0018239933
0002f0 ba ce ed 3b aa 52 bd 3c 01 6e 92 bb c9 ca 4b 3c
       0.0072573097 0.023110706 -0.00446868 0.0124384845
000300 a5 50 4b 3b 59 a7 14 3c 58 bc aa 3c 5a 26 96 3c
       0.003102341 0.009073102 0.020841762 0.018328834
000310 e5 70 20 3c 57 1e 53 3b d6 1e ef 3b b3 8e 19 bc
       0.009792541 0.003221413 0.007297377 -0.009372401
000320 e7 cd 24 3d 8f fd 4d bb 9f 6f 70 bb 37 98 c5 3b
       0.040235426 -0.003143165 -0.0036687625 0.0060301083
000330 32 60 fe 3b 4a 1b 2b ba fc 89 da bb 2b 3c 82 3c
       0.007762932 -0.0006527199 -0.006669281 0.015897831
000340 db 7c 0e 3c fa 25 bf ba 2c f7 e4 3a 21 77 5c 3c
       0.00869676 -0.0014583461 0.0017468682 0.013456137
000350 9e ce cc 3c 66 4f 1c 3c 64 97 41 3c 02 00 aa bb
       0.025000867 0.009540414 0.0118158795 -0.005187989
000360 35 cf 2e bb 9e 2b ef bb a6 d2 e8 3b 48 81 8f bc
       -0.0026673798 -0.0072989007 0.0071051894 -0.0175177
000370 3b 98 42 3d 81 0f 07 3c 77 69 b4 bb c3 c0 7c 3b
       0.04750846 0.0082434425 -0.0055057365 0.0038567043
000380 29 5e aa 3b ca fd 5a bc 2c 94 3b 3c 27 bf 0e 3c
       0.005199213 -0.013366172 0.011448901 0.008712566
000390 63 89 37 3b 8d 0d ba bb d1 8e 7a 3b c6 1f 9d 3b
       0.0028005473 -0.005677885 0.0038232098 0.0047950475
0003a0 ab 41 eb 3c 23 cb f4 3b 2d 7d ff 39 13 cf d1 3b
       0.028717836 0.007470505 0.00048730653 0.006402859
0003b0 fe e9 8d ba 6b 82 6d bc a5 0e c0 bb b7 4a 78 bc
       -0.0010827181 -0.014496426 -0.0058611208 -0.015154532
0003c0 d2 c9 54 3d 74 e1 c3 3c 67 a0 ae 3b 6a fa 8b 3c
       0.051950283 0.023911215 0.00532918 0.01708718
0003d0 cb 81 b3 3b 45 8b 93 bb 54 ec 15 3b a7 67 9d 3c
       0.005478119 -0.004502686 0.0022876458 0.019214464
0003e0 d3 5d d5 3b eb a6 84 bc f0 b4 04 3c c7 66 cf 3c
       0.006511429 -0.016192874 0.0080997795 0.025317563
0003f0 75 07 90 3c 76 2e ff 3b 61 13 0c 3c 6e 29 de 39
       0.01758168 0.007787521 0.008549542 0.00042374007

encoder.5.bias f4 [10]
000000 f4 c7 ff 3b 95 d6 c6 bb f4 63 e2 3b 39 97 15 3c
       0.0078058187 -0.0060680606 0.006908888 0.009130293
000010 0a da 75 bb 14 2a 33 3c bf 81 a6 3b 1f 32 ca ba
       -0.0037513995 0.010935325 0.005081385 -0.0015426314
000020 43 54 ad 3a 1e 69 22 bb
       0.0013223964 -0.0024781893

decoder.0.weight f4 [6400, 10]
000000 4c 04 6d 3d 76 95 63 3d 1e e8 a6 3d 75 74 52 bd
       0.057865426 0.05556246 0.081497416 -0.051380593
000010 56 cb 33 3e 5a d0 3d 3d 33 68 68 be c4 25 b9 3d
       0.17558035 0.046341278 -0.22695999 0.09040406
000020 a0 b2 0c bb cf e9 20 3e 2d 2b 30 3d 84 6b f3 bc
       -0.0021468773 0.15714191 0.043009926 -0.029714353
000030 6a 9c d6 bb 44 0f d8 3c d5 c3 cd bd a5 81 14 be
       -0.0065494077 0.026374467 -0.100471176 -0.1450258
000040 04 3d 6f be ae e2 1c 3e f2 89 3d 3e b1 ec 00 3d
       -0.2336312 0.15320846 0.18509653 0.031475727
000050 ab a6 b8 bc a0 1d 8e 3c 8f b7 af 3c 28 0d 19 3e
       -0.022540411 0.01734811 0.021449832 0.14946425
000060 bb fc 9d bd 45 19 8e 3d 9a fd 52 3e dd a4 f9 bc
       -0.0771422 0.069384135 0.20604554 -0.03047412
000070 92 eb 6a 3e 90 0c 33 be 34 81 52 3c 83 94 84 bc
       0.22941425 -0.17485261 0.012848187 -0.016184097
000080 2f 8e 2d 3e c0 48 d3 bd 59 f4 0f 3d 08 7f 36 3d
       0.1694877 -0.1031661 0.035145137 0.04455474
000090 ab da 2f bd 41 ff dc 3d 00 3b e2 3a 2f 88 82 3e
       -0.042933147 0.10790873 0.0017260015 0.25494525
0000a0 9f 5d 01 be b9 9f fc bd 8c 65 a8 3d b8 d8 be 3d
       -0.1263337 -0.12335152 0.082224935 0.093186796
0000b0 e9 96 bb bd 88 e8 46 bd 46 59 09 bb d4 58 3f 3e
       -0.09159643 -0.048561603 -0.0020957752 0.18686229
0000c0 1f 5f c3 bd 84 ce 31 3e 2d eb 05 be cb 56 7f 3e
       -0.09539627 0.17363936 -0.13077994 0.24935453
0000d0 5e a3 87 be 94 e3 1f 3d fb d3 20 bd 37 09 1b bd
       -0.26491827 0.039035395 -0.03926466 -0.037850585
0000e0 7e bc 21 3d 9d 60 17 3e ad 42 e8 3c e7 d4 b4 bd
       0.0394864 0.14782949 0.028352106 -0.088296704
0000f0 14 13 06 be 70 b3 92 bc 1e 8a e9 bd 57 6e 51 be
       -0.13093215 -0.017907828 -0.11403297 -0.20452248
000100 4d 6d fb bd de 49 3a 3d 8b 75 bc bd 30 63 83 3e
       -0.12276707 0.0454806 -0.09202107 0.25661612
000110 52 b5 ed 3d d7 c6 19 bc 7c 2f 61 3d 54 81 06 bd
       0.1160685 -0.009385786 0.054976925 -0.03283818
000120 63 7e 8c bd 03 ad 95 3e 68 b6 0f be 8a 96 e0 3c
       -0.06860044 0.2923356 -0.14034426 0.027415533
000130 94 da 78 3e cf 97 7b 3e e6 79 1c 3e b2 e3 6f 3e
       0.24302131 0.24569629 0.15280876 0.23426703
000140 71 fb a4 ba 59 27 23 3b 7d 40 85 be 1c 77 61 3c
       -0.0012587142 0.002489528 -0.26025763 0.013761308
000150 22 97 52 3e d4 2b 5c be d0 c0 cb bd 1b 3f 0e 3e
       0.20565465 -0.21501094 -0.099488854 0.1389126
000160 5f ee f9 bc e9 20 33 3d 6b be 19 be 9e 76 5a 3e
       -0.030509172 0.043732557 -0.15014045 0.21334311
000170 37 71 90 be aa 5e 02 3d b5 99 30 3e 2c 99 f0 bc
       -0.28211376 0.03182856 0.17246135 -0.029369913
000180 b9 04 06 3c 52 44 79 be 7f 14 a3 3e f3 e9 2f be
       0.008179837 -0.24342468 0.31851575 -0.17179088
000190 a7 9c 07 3d 19 59 a5 3d a2 15 e3 3c b0 2d 07 be
       0.03310838 0.08073635 0.027720276 -0.13201022
0001a0 de 0b 40 bd 96 d7 02 be 3d d5 c6 3d 4d 8f 7e 3e
       -0.046886317 -0.12777552 0.09708641 0.24859352
0001b0 3e 32 19 be 4b 29 0c 3d ff f7 26 be 99 3e 05 3d
       -0.14960572 0.034219068 -0.1630554 0.0325304
0001c0 d0 bb 88 3a b9 66 41 3e 68 93 e0 bd ae a4 66 3e
       0.0010431949 0.18886842 -0.109656155 0.22523758
0001d0 5c b1 c0 bd a1 52 8d 3d 99 63 65 3e 6a 89 f3 bd
       -0.094088286 0.06900526 0.22401275 -0.11891444
0001e0 31 d1 07 be 53 a2 7b 3e 7a 22 26 3d 32 09 1f 3e
       -0.13263394 0.2457364 0.040560223 0.15530851
0001f0 83 47 44 bd d3 f5 71 3d e5 00 2f be e0 12 a3 bd
       -0.04791976 0.059072327 -0.17090185 -0.079625845
000200 70 9e 11 be 04 9a 33 3e dc 97 18 3e 0c 38 7e bd
       -0.14220595 0.17539221 0.1490168 -0.06206517
000210 e3 86 dd 3d 45 d9 04 be 7c 5b 96 bd fd bd 05 be
       0.10816743 -0.12973507 -0.07341668 -0.13060756
000220 97 a2 89 3d 2f 1f 4a 3e 07 d9 88 bd 01 49 77 bc
       0.06720465 0.19738458 -0.0668202 -0.015093089
000230 42 8c 7c 3e d5 ec 21 3e e9 8e 48 3e 32 66 e3 3d
       0.24662879 0.15813 0.19585766 0.111034766
000240 12 34 0e 3e 27 5a 5a be 60 63 47 be 38 cb d4 3d
       0.13887051 -0.21323453 -0.19471502 0.103903234
000250 41 bf 34 be 71 ec f9 bd 43 d8 5d 3e 31 d3 1f 3e
       -0.17651083 -0.12203301 0.21664529 0.15607907
000260 0f 17 91 3d ec 26 57 be 15 24 6a 3e 30 62 f9 bd
       0.07084476 -0.21010941 0.22865327 -0.12176931
000270 2a 73 ae 3d 5f da a3 be 54 e2 b2 bd b9 f2 17 bd
       0.085180596 -0.3200254 -0.08734575 -0.037096713
000280 e7 6b 35 3e ff 02 e3 3d 8f 77 93 bd f2 55 94 bd
       0.17716943 0.11084556 -0.07200538 -0.07242955
000290 9c cf 91 be 3c 7d 5b 3e ed dd 9b bc 1a 84 ce bd
       -0.28478706 0.21434492 -0.01902672 -0.1008379
0002a0 19 27 11 3e 54 f0 0e 3e a7 54 2f be 81 a3 13 3e
       0.14175071 0.13958865 -0.17122136 0.1441784
0002b0 d5 c1 cd bd 33 c6 e4 3d 4e f6 64 be 0c c9 7f 3d
       -0.10046736 0.11170616 -0.22359583 0.062447593
0002c0 28 82 51 3e fd fb 02 be 14 b0 46 3d e0 6a 2a 3e
       0.20459807 -0.12791438 0.048507765 0.16642332
0002d0 e2 16 85 bd ca 33 10 3d 6d 1a 1b 3e 43 c3 bc bd
       -0.06498505 0.03520564 0.151468 -0.09216931
0002e0 28 cc ba bd ab 31 c0 bd e0 31 10 be 7e 32 80 bd
       -0.09120971 -0.093844734 -0.14081526 -0.062596306
0002f0 ac 0d 5b be 74 43 18 3e 24 eb 05 3e ca ee 3e bd
       -0.21391934 0.14869481 0.1307798 -0.046614446
000300 db de 33 3d ae 20 5a 3e 70 e4 75 3e 85 2c 30 3e
       0.043913703 0.21301529 0.24012923 0.17204483
000310 1e c0 fe bd 8a 4d 26 be 20 72 e2 bd 6b 52 ed bd
       -0.12438987 -0.16240516 -0.11056924 -0.115879856
000320 36 be 3b bd b4 4d f8 3d 88 09 24 3d 48 0a 66 3c
       -0.045835696 0.12124196 0.040048152 0.014040537
000330 ba 65 47 be 30 7e a1 bd d4 f5 2f bd 10 77 9d bc
       -0.194724 -0.078853965 -0.04295905 -0.019221812
000340 52 54 d4 3d c2 ea 10 3c 8f a3 87 3d 1b 37 26 3e
       0.10367645 0.008845033 0.06622993 0.16231959
000350 fd cd ea 3d ef 3a 67 3d 54 26 1e 3e 19 20 45 bd
       0.114650704 0.056452688 0.15444309 -0.048126314
000360 2a 03 c4 3d 25 e0 2a 3e 57 1d 4c be af cc 9c 3d
       0.09570916 0.16687067 -0.19933067 0.07656228
000370 8b 17 00 be 87 e5 5c 3d a1 ae 4a 3c ff 96 ef bd
       -0.12508981 0.05392983 0.012370736 -0.11698722
000380 be 04 bc bd 56 bb ee 3d 1d 1c 77 3d f4 6b e4 bd
       -0.09180592 0.11656825 0.060329545 -0.11153403
000390 d2 1b c8 bd e3 27 26 3e 78 43 39 bd 14 73 1c 3d
       -0.09770931 0.16226153 -0.04523036 0.038195685
0003a0 ef fd 19 bd 57 56 b7 bc 06 aa 33 3b c1 c9 97 bd
       -0.037595686 -0.022380037 0.0027414574 -0.074115284
0003b0 27 83 b7 3d d8 c5 1b be 63 fd 71 3e a3 7f a8 bd
       0.08960562 -0.1521219 0.23631816 -0.0822747
0003c0 66 77 9d be bb 6e 73 3e 69 b5 3f 3a 6e c9 e2 bd
       -0.30755156 0.23772709 0.0007313104 -0.11073576
0003d0 a0 4a 71 be 2c 0d a8 bd 3d 5f 0e be 1b f0 94 bd
       -0.23563623 -0.08205637 -0.13903518 -0.07272359
0003e0 3e f4 0f be 52 fc 64 3d b6 d4 b7 3c ce 98 8d 3d
       -0.14058015 0.055904694 0.022440296 0.06913911
0003f0 35 0d 00 be 5d b3 1b 3e 68 28 7c bd 50 83 3a bd
       -0.12505038 0.1520514 -0.061561972 -0.045535386

decoder.0.bias f4 [6400]
000000 56 c8 81 3c 6e 9c 46 3c 4f ff 0d 3b 83 15 c0 3c
       0.015842598 0.012122257 0.0021667068 0.023447758
000010 c1 bc e2 3b 3c ff 1e 3c df 73 9a bc 40 ca de bc
       0.006919474 0.009704407 -0.01885408 -0.02719605
000020 26 b0 1c bd fa bd 4f bd 30 b4 12 bb b5 05 15 3c
       -0.038253926 -0.050718285 -0.0022385232 0.009095599
000030 3e 9f 78 bb f0 b3 75 3b 42 c9 9c bc c0 da 22 3d
       -0.0037936713 0.0037491284 -0.019138936 0.039759398
000040 6b 9c d2 3c 25 c5 c1 bb 40 78 ea 3b a3 54 41 3c
       0.025709352 -0.005913394 0.007155448 0.011799964
000050 c2 35 2c 3c 2f 50 46 3c 01 72 97 3c bf 0e 84 3b
       0.010510864 0.012104078 0.018486978 0.004030078
000060 d9 94 b2 3c 1c 5a 82 bc cd 30 f9 3a 86 47 00 3d
       0.021799492 -0.015912108 0.0019011736 0.03131821
000070 95 b7 14 bc 10 80 d9 bc 53 a3 62 bc e0 ed 27 bc
       -0.0090769725 -0.026550323 -0.013832885 -0.010249585
000080 91 86 ae ba d4 18 a3 3c f5 0c 48 bc a9 28 92 3c
       -0.001331525 0.0199093 -0.01221012 0.017841654
000090 01 f3 0f 39 eb 96 51 ba 32 dc 54 bc 17 c8 43 bc
       0.00013728069 -0.0007995206 -0.012991952 -0.011949561
0000a0 b7 05 ba ba fd 0c 7b 3c d1 92 fb 3b 7d 4b 1d 39
       -0.0014192377 0.015322921 0.007677414 0.00015000808
0000b0 c3 62 ce bb 29 ce a8 3a 60 78 91 bc 8d 46 a4 bc
       -0.0062983944 0.0012878823 -0.017757595 -0.020053172
0000c0 f5 dc 82 3c 1f ce bb 3c 1a 76 ca bb 18 6b c4 3c
       0.015974501 0.022925435 -0.0061786296 0.023976848
0000d0 83 2f 53 bb ef 15 98 bc 3c 43 cf bc 6a 7b 37 bd
       -0.0032224364 -0.018565146 -0.025300615 -0.04479543
0000e0 8c ad c2 bc 03 cb 2f bb 58 95 85 3b 68 67 9c 3a
       -0.023764394 -0.0026823885 0.004076641 0.0011932673
0000f0 05 c3 a4 b8 5a 43 c9 3b ad b5 13 3c b4 26 2b bc
       -7.8564546e-05 0.006142062 0.009015483 -0.010446239
000100 2c 0d 08 bc 88 72 21 bc b6 4c a0 bb cb 6e 92 3c
       -0.008303922 -0.0098539665 -0.004891957 0.017875096
000110 ac 2a a7 3c 65 e4 ef 3c 9a 16 d1 3b d1 2e 24 3d
       0.02040609 0.029283712 0.006380868 0.04008371
000120 22 26 48 ba 58 e2 69 bb 40 a0 0e 3c 9e dd 3b bc
       -0.0007635077 -0.003568789 0.008705199 -0.011466412
000130 0b b5 3e bc 12 01 fa 3c 15 89 c3 3c 47 c3 c9 3b
       -0.011639844 0.030518088 0.023869077 0.006157312
000140 ac ac 41 3c 66 c0 f2 bb cc 46 8f 3b 7a 1d c2 3b
       0.011820953 -0.0074081896 0.0043724533 0.005923924
000150 06 a7 26 bc 53 7a ef 3c 6d b3 98 3c 3e 1b 23 3d
       -0.010171657 0.029233133 0.018640244 0.039820902
000160 ac 37 98 3c 6b bd 02 3e dc 04 57 3d 78 9c b3 bb
       0.018581234 0.1276757 0.05249487 -0.005481299
000170 07 14 a3 3b 88 d3 02 bc f5 31 fb 3c d4 93 09 3b
       0.0049767527 -0.007985003 0.03066347 0.0020992653
000180 a3 e0 44 3c 12 c2 0f bc 1c 9c 96 3c b8 9e be 3b
       0.012016448 -0.008774297 0.018384986 0.0058172606
000190 69 da 54 bb e6 84 b8 bb be d4 28 3c 3a e3 32 bb
       -0.0032478815 -0.005631077 0.010304628 -0.0027296082
0001a0 2b b0 f6 3b 20 dd f1 3c 17 7e 93 3d 00 41 56 3c
       0.007528325 0.029524386 0.07201784 0.013077021
0001b0 9d bc ae 3d dd a0 f2 3c bd 7e 95 3c bb e4 af 3c
       0.08532069 0.029617721 0.01824891 0.021471372
0001c0 60 06 f1 3b 77 bd 1e 3d b8 3e 94 3c a2 7b ad ba
       0.0073554963 0.038754907 0.018096313 -0.0013235698
0001d0 28 9a a3 3b fc bb 20 3d 6a 37 36 3c 08 4a 1d 3c
       0.004992742 0.039241776 0.01112161 0.00960017
0001e0 64 fc 62 3c 16 2c 95 bc 78 11 23 3a ce 4a 05 3a
       0.01385412 -0.018209498 0.00062205596 0.0005084694
0001f0 69 db b9 3b 20 0e bf 3d 16 b4 90 3d e2 bd 53 3c
       0.0056719077 0.09328866 0.07065599 0.01292369
000200 08 d3 10 bb 84 b9 db 3c 97 e9 c7 bb 09 db dc bb
       -0.002209844 0.02682186 -0.006100844 -0.006739978
000210 49 8b 18 bd 13 2d ff 3b d6 02 b4 bc 95 b7 31 3b
       -0.037242208 0.0077873557 -0.021974009 0.002711748
000220 8c 9b 05 3d 81 eb 55 3c 8c c2 13 3a ec 1d b3 bb
       0.032619044 0.013056637 0.0005636595 -0.0054662134
000230 9f 41 b3 3b 6b b0 40 3c 96 4a 77 3b 43 76 1b 3d
       0.005470469 0.011760811 0.0037733666 0.03795458
000240 c6 45 6b 3b cc 9a 6b 3b b8 f0 99 3d 92 b3 a1 3d
       0.0035899743 0.003595042 0.075166166 0.078955784
000250 6b 05 1d bd 15 90 ed 3c 18 d3 c3 bb 75 69 5e 3a
       -0.038335245 0.028999368 -0.005976092 0.0008484342
000260 bb 65 46 3b b7 ed 81 bb e8 28 84 3b 58 ed 63 3d
       0.0030273038 -0.0039651054 0.0040331967 0.05564627
000270 30 98 cc 3c 03 c3 b6 3c c0 c5 cd 3c e0 20 a2 3b
       0.024974912 0.022309786 0.025118709 0.0049477667
000280 ba c8 06 bc 25 f2 90 3c f6 99 64 b8 40 f3 10 3c
       -0.008226568 0.017693589 -5.4502823e-05 0.008847058
000290 83 ea 07 3c c3 59 e3 3c 92 17 ed 3b 35 5c 36 bd
       0.008295658 0.027752763 0.007235476 -0.04452153
0002a0 58 a2 85 bc 53 85 69 bd f4 97 ff bb 7e 67 5a bc
       -0.016312763 -0.057011914 -0.0078000966 -0.0133303385
0002b0 6b 24 4f bc 3c 7b c9 3c 6a a8 c2 3c 2f 76 fd 3b
       -0.01264296 0.024594896 0.023761947 0.007735036
0002c0 1d 60 11 3c d9 fd 91 3c d4 79 e4 3b 85 6a 6e 3c
       0.008873013 0.01782124 0.006972531 0.014551763
0002d0 09 85 61 3c ce a6 ff 3c f5 27 9a 3c 7a 3f e5 3b
       0.013764628 0.031207468 0.018817881 0.0069960924
0002e0 30 06 23 3d 3f 7b c3 3c 52 55 ad bc dd 46 6f bb
       0.039800823 0.02386248 -0.021158848 -0.0036510744
0002f0 e8 84 0d bc 7a 72 ae bc 44 cb 1a bc 36 6f a2 bc
       -0.008637644 -0.021294821 -0.009447876 -0.01982842
000300 96 a3 84 bc 50 96 b3 bc 92 c4 59 3a a2 4a c0 3c
       -0.016191285 -0.02192226 0.00083071843 0.023473088
000310 2e 15 02 3d 17 ca ac 3a ee 14 3b 3c b0 ea ab b9
       0.03175848 0.0013182786 0.011418564 -0.00032790517
000320 49 ee b6 3b 5b 81 3a 3c cc 3b bd 3c 00 75 58 3c
       0.005582605 0.01138338 0.023099802 0.013211489
000330 31 71 b2 bb 93 a5 19 bc 23 10 be bb 97 a1 af bc
       -0.0054456224 -0.009377855 -0.0058002635 -0.021439357
000340 13 ef f8 bb 0f 28 e7 3b 89 13 f3 bb 99 f5 09 bb
       -0.0075968592 0.007054336 -0.0074181003 -0.0021050929
000350 7a 3d 93 3d f0 f4 6f bb 84 ee 91 3d a4 1f b9 3c
       0.0718946 -0.00366145 0.07125571 0.022598095
000360 d2 7e 29 bc 32 97 11 3c 85 26 c9 39 f9 8c db 3b
       -0.010345178 0.008886145 0.00038366407 0.006700155
000370 1c aa 44 3c f8 cc 3a 3c 4a 12 fc 3b df 98 e8 3b
       0.012003448 0.011401407 0.00769261 0.007098302
000380 25 57 bb 3b a3 cc d0 3b ad a1 1f bc 31 84 dd ba
       0.0057171755 0.006372051 -0.009743136 -0.0016900358
000390 e5 14 d4 bc 9e 6c 57 3a 89 40 9e 3d 75 60 87 3d
       -0.02588887 0.00082177843 0.07727153 0.066101946
0003a0 48 bf 98 3d a4 7b 2c 3c 12 54 8e 3c c8 6e 7d bc
       0.07458359 0.010527525 0.017374072 -0.015468307
0003b0 3f 2a 22 bb 98 a2 0c b9 ab b1 bf 3a c0 61 3b 3c
       -0.002474442 -0.00013412011 0.0014625093 0.01143688
0003c0 bb 7c 13 3c dc 73 13 3c ff 3a 4a 3b 6b 6f db 3b
       0.009001906 0.008999791 0.0030857918 0.0066966317
0003d0 d3 6e 64 3c 1d 77 1b 3c b9 09 64 3d 83 98 a0 3c
       0.013942438 0.009488848 0.055673335 0.019603973
0003e0 72 82 da 3c ff a8 ec 3c 4d e5 eb 3b b6 c6 b5 3d
       0.02667353 0.028889177 0.0071989656 0.08875792
0003f0 e3 d9 6a bc e3 f7 76 ba 68 4a a0 3a 07 85 95 bc
       -0.014334175 -0.0009421093 0.0012229206 -0.018251909

decoder.3.weight f4 [16, 6, 5, 5]
000000 b1 b9 17 3d 07 5e 9f bc 77 ac 96 3c a3 7f e8 bc
       0.037042323 -0.019454015 0.018392785 -0.028381174
000010 26 23 36 bc 09 4a 8c 3c 99 dc e2 bc 0d 63 d5 3c
       -0.0111167785 0.017125146 -0.02769308 0.026048208
000020 e9 d6 b4 bd 63 ee a5 bd ad 5d 5a 3d 22 2e ee bb
       -0.08830053 -0.08102109 0.053311992 -0.007268683
000030 c6 a8 5c bc 17 76 22 bd 3b d5 97 bd f2 6a 56 bd
       -0.013467973 -0.0396634 -0.07413717 -0.052348085
000040 f9 84 65 bd d1 2d b5 bd 83 ac f2 bd e6 4d 16 be
       -0.056035016 -0.088466294 -0.1184931 -0.14678153
000050 af 9e a1 bd 2f 45 d7 bd fd 07 65 bc 26 35 a5 bd
       -0.078915946 -0.105112426 -0.013978955 -0.08066778
000060 20 0e 05 be d8 a5 d5 3d f5 44 30 3d fa a6 1b bd
       -0.1299367 0.10432023 0.043034513 -0.038001038
000070 62 f8 2d 3d 35 d9 60 3c 2c 5e 41 3b 4d ba dd ba
       0.042473204 0.013723661 0.0029505594 -0.0016916484
000080 2e f2 9e bc cd 1a bd bd 0f 22 9d bc 81 ae 8a bd
       -0.01940259 -0.092336275 -0.01918128 -0.06771565
000090 e0 82 48 bd a2 ba ad bc a4 b7 eb 3c bb ee 01 bd
       -0.048952937 -0.021207158 0.02877409 -0.03172181
0000a0 f8 fe a5 3b b7 45 87 bd d2 13 4f 3d eb 67 6f bc
       0.005065795 -0.06605094 0.05055601 -0.014612178
0000b0 84 51 04 bd 58 de 27 bd 06 05 ee 3b f5 d4 64 bd
       -0.0323043 -0.040983528 0.0072637824 -0.055867154
0000c0 a1 91 50 bc bb 4c 23 3d 9d 10 85 bd 1a 2f 15 bd
       -0.012730033 0.039868098 -0.06497309 -0.036421873
0000d0 c4 59 9a bc 30 02 92 bc 98 fd 68 bc f8 2f 63 bd
       -0.018841632 -0.017823309 -0.014220618 -0.05546567
0000e0 9b a7 00 bb 97 e9 80 bd c8 cd ac bc f6 8c 1f bd
       -0.001963115 -0.06294554 -0.021094218 -0.03895279
0000f0 32 09 94 bd 5e 85 5c bd fd 50 09 3d c8 ca 1a bd
       -0.07228316 -0.053838126 0.033524502 -0.037791044
000100 fd 12 71 bd 85 34 9f bc 0e ef be bc 05 1d 98 3d
       -0.058856 -0.019434223 -0.02330735 0.0742741
000110 28 d5 83 bd 57 77 13 bd 97 8b 08 3c dc 66 24 3d
       -0.06437141 -0.036002483 0.008334062 0.040137157
000120 bb 45 fb 3c b8 3c cf 3c 48 f7 2f bd ce d4 d8 bb
       0.030672899 0.025297508 -0.042960435 -0.006617165
000130 da b2 c3 3c 8e c7 95 3d b3 7c 43 3d 7c da 3c 3d
       0.023888994 0.07313453 0.047726344 0.0461068
000140 41 03 83 3d 6a 85 9a 3d b8 67 e7 3d cd 2a cb 3d
       0.06397105 0.07544978 0.1129908 0.09920273
000150 5c a0 eb 3c a9 50 83 3d aa 89 6f 3d 92 da a5 3d
       0.028762989 0.06411869 0.058480896 0.080983296
000160 9c 07 a0 3d 33 c1 bb bb fe 9b 6c 3d 13 6b c6 3c
       0.078139514 -0.0057298183 0.057765953 0.024220979
000170 c5 fa 4a 3d 85 08 d3 bb fc 6b 8d bc b8 0c c6 3c
       0.04955556 -0.0064402246 -0.017263405 0.024175987
000180 9e 93 0d 3d 35 1b 45 3d 11 8d 83 bb b7 f9 87 bc
       0.034564607 0.04812165 -0.004014619 -0.016598566
000190 bb e6 0b bc 87 90 c4 3c 2c 2f 6d bc 95 e3 ae 3c
       -0.008538897 0.023994697 -0.014476579 0.021348754
0001a0 f4 93 98 bd 2e 34 76 bc e6 97 14 bd 0d bc 63 3d
       -0.07450095 -0.015027089 -0.036277674 0.05559926
0001b0 fb d3 25 3c c7 c1 37 bd 11 8e 65 3d dd 73 8a bc
       0.010121341 -0.044862535 0.05604369 -0.016900951
0001c0 51 c0 38 3b bd 2b 98 3d f9 aa d5 3d 01 66 16 3d
       0.0028190801 0.074302174 0.10433001 0.036718372
0001d0 52 c0 8a 3d 84 ac a8 3d e6 61 0d 3d c0 10 fa 3d
       0.067749634 0.0823603 0.03451719 0.12210226
0001e0 87 b9 7a 3d 47 95 1c 3d c1 38 db 3d 40 85 31 3d
       0.06121209 0.0382283 0.10704184 0.043339968
0001f0 1d 09 c9 3d 21 94 b7 bd 2f 0f c3 3c c6 70 4a bd
       0.09816191 -0.089638 0.023810951 -0.049423955
000200 f4 f4 36 bd 21 89 51 bd 9e d9 55 bd db 70 8d bb
       -0.0446672 -0.051156167 -0.05220949 -0.004316432
000210 59 f6 f9 3b c2 95 d5 bc f7 9b 92 bd fc c7 01 bd
       0.007628244 -0.026072387 -0.07158654 -0.03168486
000220 6e 2f 32 bd 71 a5 82 bd fd 34 e7 bd 49 eb 53 bc
       -0.043502264 -0.06379212 -0.112894036 -0.012934514
000230 20 21 2f bc 6f 08 3f bd 44 31 f1 3c 97 c3 1b bd
       -0.01068905 -0.046638902 0.029442437 -0.038028326
000240 b9 2c 90 bc 51 df 9e bc ca 8e 6b bc 48 e8 9a 3d
       -0.01759945 -0.019393595 -0.014377305 0.075638354
000250 b5 63 c5 39 42 3e 6e 3d 8b ed 01 3d 07 84 7f 3d
       0.00037649056 0.058164842 0.03172068 0.06238177
000260 e1 c1 ab bb 55 85 8e 3d a4 2f 1f 3d d0 99 8a bb
       -0.005241618 0.06959025 0.038863793 -0.0042297617
000270 82 4f cc bc 3d 5f 1d 3c 57 33 61 3d 99 c6 81 bc
       -0.024940256 0.009605226 0.054980602 -0.015841769
000280 0e 2f 11 3d c6 87 3c 3d 92 e9 c6 3d 27 2b e7 3c
       0.035445265 0.04602792 0.09712519 0.028218819
000290 97 2c c7 3c a4 06 2f 3d 88 eb a4 3b 9a 07 e9 3c
       0.024313254 0.042730942 0.0050329603 0.028446008
0002a0 4a 1b 00 3d 24 f3 0b 3c be d3 d9 bc 6d 5e 47 3c
       0.031276025 0.008541856 -0.026590224 0.012168509
0002b0 86 21 c1 3c 33 ed 3e 3d bb e5 24 bc 61 6e 2c 3d
       0.023575556 0.04661293 -0.010064538 0.042097453
0002c0 df c7 73 3a da ed 6a bd f8 b8 dc bc 6a d6 74 bd
       0.00092994975 -0.05735574 -0.026943669 -0.059774794
0002d0 2b 95 94 bc 30 ac 21 3c a4 9a 9e bd c3 c8 26 bd
       -0.018137535 0.009867713 -0.07744339 -0.040718805
0002e0 17 2f 0b 3d 05 4e e8 bc 29 3f 4d 3c 33 f9 bc 3c
       0.033980455 -0.028357515 0.012527266 0.023068046
0002f0 2d de bc bd 99 1b 0f bd f8 58 3f bd 46 01 2b bc
       -0.09222064 -0.03493843 -0.046715707 -0.010437315
000300 63 00 71 bc ff d3 a8 bd ff 6f 6e bd 13 d4 b7 bc
       -0.014709565 -0.0824356 -0.058212277 -0.022439992
000310 71 a6 bc bc 9e 8f fb bd 74 1d 33 bd 40 b5 85 bd
       -0.023028584 -0.12283252 -0.04372926 -0.06528711
000320 4b 5e be 3c 13 5b 77 bd 67 f1 04 3d 26 63 51 bd
       0.023238322 -0.06038959 0.03245678 -0.051119946
000330 53 30 da bc c8 bc 05 bd 84 f8 df bc 08 12 01 3d
       -0.02663437 -0.03265074 -0.027340181 0.031511337
000340 e4 aa 95 3c 06 fb 54 bd ef b2 1e 3d af b3 ac 3d
       0.018269964 -0.051997207 0.038744863 0.084327094
000350 4e 2c 75 3a 00 c4 4b 3d d8 c9 82 3d 87 0a 88 3d
       0.000935261 0.049747467 0.06386155 0.06642633
000360 c3 c6 9c 3c e2 7b 3a bd 5f 43 87 bd 33 48 3a 3c
       0.019137746 -0.0455283 -0.06604647 0.011369753
000370 45 bb 1f bd a6 92 8b 3d 45 14 98 3d 7c ce e9 b9
       -0.038996954 0.0681508 0.07425741 -0.00044595066
000380 c5 c7 4d bd 77 97 0e 3c 5d d6 fa 3c 3a 6c 94 3c
       -0.050239343 0.008703104 0.030619795 0.018118013
000390 2c aa 92 3c 2a db 61 3d f9 73 ed 3c a0 84 11 3c
       0.01790341 0.05514065 0.028985964 0.008881718
0003a0 1d 8c 99 3d 8d 50 af 3c 05 be cf 3c 9e c6 12 bc
       0.074974276 0.021400714 0.025359163 -0.008958487
0003b0 ad 17 ed 3c a0 39 d1 3d 27 85 1f 3d 41 c8 52 3d
       0.028941954 0.10216069 0.038945343 0.05146051
0003c0 fd d9 8b 3d db 24 ba 3d 9c 38 8f 3d 7e 86 f9 3c
       0.06828687 0.09089061 0.06993219 0.030459639
0003d0 0f 4a 74 3d 20 50 95 3d 31 a7 83 3d c2 c9 91 3d
       0.05964094 0.07290673 0.064283736 0.071185604
0003e0 83 fa db 3c 9c 00 13 3d 72 21 2d bd 02 91 a2 bd
       0.026852852 0.035889253 -0.042268224 -0.07937814
0003f0 53 7a 81 3c d6 87 94 bc 49 8f 60 bc 94 ab 44 bd
       0.015805399 -0.018131178 -0.013706037 -0.048015192

decoder.3.bias f4 [6]
000000 13 87 66 be 3f eb 55 3e a8 07 6b be 5b 40 b7 bd
       -0.22512464 0.2089052 -0.2295214 -0.08947822
000010 f3 39 48 3e ef db 0c 3e
       0.19553356 0.13755773

decoder.5.weight f4 [6, 1, 5, 5]
000000 43 89 21 be 70 c5 00 be 00 d0 d1 bd f3 29 dc bd
       -0.15775017 -0.12575316 -0.10244751 -0.10750189
000010 2c 81 9b bd 68 4f 08 be 79 ee 2d be 87 02 00 be
       -0.07592997 -0.13311541 -0.16985501 -0.12500964
000020 5a 96 b1 3c 61 24 8a 3d 3f 73 41 bd 49 88 3e 3d
       0.021678139 0.0674522 -0.047229048 0.04651669
000030 1b 52 a9 3c 84 e4 3b 3d 8b f4 37 3e 45 05 fd 3c
       0.020669034 0.045872226 0.1796438 0.030886302
000040 d2 b5 eb 3d 6f c5 66 3e 48 fa 82 3e 8e ca 45 3e
       0.11509289 0.22536252 0.25581574 0.1931555
000050 df 65 8d 3d 69 b3 35 3e 2b be 3d 3e 09 f7 56 3e
       0.06904196 0.17744221 0.18529575 0.20992674
000060 cc b1 0b 3e 5a be 41 be a6 c7 8d be 84 59 56 be
       0.13642043 -0.1892027 -0.27691382 -0.20932585
000070 9a 6a 10 be bf 06 79 bc 0e 42 33 be d6 d8 7c be
       -0.14103165 -0.015199362 -0.17505667 -0.24692091
000080 1e 0a 9b be b9 e2 74 be f5 2b 50 bc ab d5 a3 bd
       -0.30281156 -0.23914613 -0.012705793 -0.07999738
000090 ac 58 af bd df 87 15 be bc f3 1b be ef 8c e2 3b
       -0.08561835 -0.14602612 -0.15229696 0.0069137732
0000a0 c2 27 12 be ac 85 f6 bd f8 b8 d5 bd 97 ff d1 bd
       -0.14272979 -0.12037215 -0.104356706 -0.10253828
0000b0 8d 5d a6 3c 9a c9 ab bd 18 34 e3 bd 5c cb 62 bd
       0.02030828 -0.08388062 -0.110939205 -0.05536972
0000c0 ec be 1e bd cb f6 6d 3d 07 43 98 3d d1 8d 0e 3e
       -0.038756296 0.05809669 0.074346595 0.13921286
0000d0 d7 b2 3a 3e 8a b3 03 3e 77 cb 1a 3d 95 79 f4 3d
       0.18232284 0.12861457 0.037791695 0.119372524
0000e0 62 81 ac 3d 7e 13 04 3e 68 5d ca 3d d0 ce bd 3d
       0.08423115 0.1289806 0.09881097 0.09267962
0000f0 cb ce 70 3d 2b e4 11 3c 48 61 30 3d d8 27 92 3d
       0.058790963 0.008904497 0.043061525 0.07136506
000100 55 e1 34 3d 52 98 1f 3d b7 5f fc 3d a5 86 44 3e
       0.044160206 0.038963623 0.12322944 0.19191988
000110 d3 50 07 3e 4d 9d b9 3d c5 2a 1f 3d 31 9c 76 bb
       0.13214426 0.09063206 0.038859148 -0.0037629718
000120 f5 f2 07 3e 02 64 05 3e c5 87 ce 3d ec 47 d5 3d
       0.13276275 0.13026431 0.1008449 0.10414109
000130 f9 a3 35 3d a5 87 77 bd 89 df e7 bc 3b bc 20 be
       0.04434583 -0.060432095 -0.028304832 -0.15696804
000140 b6 34 70 3e b8 7e 31 3e a4 bc fe b8 ba f6 06 bd
       0.23457608 0.17333496 -0.00012146801 -0.03295014
000150 f2 d9 80 3d 76 5d 7d 3e 58 25 b2 3d 4c f3 44 3e
       0.0629157 0.24742684 0.08698529 0.19233435
000160 5a 1a 51 3d 25 31 98 bd 4c 77 b6 3d 20 0e 07 3e
       0.05105052 -0.074312486 0.08909473 0.13188982
000170 bb 42 e2 bd a2 b7 1a be d8 dc 2f be ab 10 1b be
       -0.11047884 -0.15109113 -0.17174089 -0.15143077
000180 54 38 b4 bd e7 8a d2 3c 0f 31 76 be 68 ed 8f be
       -0.08799806 0.025701 -0.24042152 -0.28110814
000190 1c ad 7e bd ea bb 1e be 18 16 d6 bd 5f 56 bc bd
       -0.06217681 -0.15501371 -0.10453433 -0.091961615
0001a0 42 f4 07 bd eb c0 56 be f1 b1 3a be c8 31 63 be
       -0.033191927 -0.2097203 -0.18231942 -0.22186959
0001b0 c3 2b 49 be 8a c5 68 bd b2 73 85 be 36 ff 6d be
       -0.196456 -0.056829013 -0.2606483 -0.23241886
0001c0 00 43 cf bd 37 9d c8 bd 83 0c 32 be d5 0b 22 be
       -0.10120201 -0.09795611 -0.17387585 -0.15824826
0001d0 12 b2 67 be f8 1f 54 be 83 eb 15 be 13 3c 02 be
       -0.22626522 -0.2071532 -0.14640622 -0.12718229
0001e0 9c eb 58 be ca 67 64 be a2 30 37 be 55 f7 74 be
       -0.21183628 -0.22305217 -0.17889646 -0.23922475
0001f0 88 6c 36 be 09 d1 81 3d 58 86 be bc d8 81 92 be
       -0.17814839 0.063386984 -0.02325742 -0.28614688
000200 b7 dd 18 be 63 75 df bd 25 2f fc 3c 12 75 81 be
       -0.14928328 -0.109110616 0.030784199 -0.2528463
000210 2e 1f c0 be 59 3a 64 be 7b a6 cb 3c 9f e6 2c bd
       -0.37523788 -0.22287883 0.024859658 -0.042212125
000220 45 3d 89 be 5f 52 1c be 2e 7a e3 bd 71 70 e7 3d
       -0.26804557 -0.15265797 -0.11107288 0.11300743
000230 a6 74 c6 bd d4 54 7f bd c6 01 ff bc f1 43 af 3d
       -0.09690218 -0.062336758 -0.031128775 0.08557881
000240 fb da de 3d 8c 6a 9d 3c 06 24 ec 3b ae d5 77 bc
       0.10881611 0.019215845 0.0072064428 -0.015126629
000250 c2 58 23 3c 31 77 36 bd
       0.009969892 -0.044547264
