Autoencoder-on-MNIST-in-Pytorch/Models/model_e10.pt (torch, 561729 bytes, 11 tensors)

encoder.0.weight f4 [6, 1, 5, 5]
00000000: 9d07 6cbe d221 33be b5db cabd 8882 55be
00000010: 2827 a4be 29a9 62be 4b9f 9ebe bec0 82bc
00000020: 7da2 f9bd 97e0 35be 982f 003e cf40 36be
00000030: 4813 e53c 602f 7abe adb4 3fbe f589 043e
00000040: 4974 483c 5237 44be b490 17be 694d b6bd
00000050: 3a98 7b3a a387 c4bd d6e4 93bc 9444 9dbe
00000060: e38d bcbe 6feb 4ebe c21d 96be e4b2 7cbe
00000070: a188 96be 8055 6ebe 87d8 a73d 7416 bd3c
00000080: 581f 703d 0457 d13c 69b7 453e 936c 11be
00000090: 82f6 6e3b 6745 123e 7c87 f9bc 422a 7dbd
000000a0: 0b70 443e 01cf 103e 6ed6 e23d e5bc 103e
000000b0: 09b8 6e3e e5a0 dcbd f08d 1bbe 4ea7 f2bd
000000c0: 2f8d 8f3e 04b4 7a3e 9340 203e 54df 1d3e
000000d0: de82 0a3e 137e c4bd 0092 e8bd 719e 3f3e
000000e0: b01e ac3d 5ef7 84be 8d87 8dbe 3a81 aebe
000000f0: c4a0 55be 2fcb e2bd 47ff b7be 7ca0 44be
00000100: beda aebd 132e d2bc 5200 e7bc c4ff a6be
00000110: edde c43c 0209 0ebe 0e00 39be 260b a8bc
00000120: fbfc 4bbe c020 3cbe ac72 a0be a655 44be
00000130: 8534 10be 0bee 40be a7dd 593e 6a61 bcbc
00000140: c552 20bd 9bf3 7d3d 7589 b5bd b13c 383e
00000150: 83f1 653e 9844 3a3e fdbb 493e 9a0a 34be
00000160: e7bd 5a3e 6a01 6f3e 7055 acbd d9e3 203e
00000170: ab49 803d 1de6 3bbd 78c7 193e 254d 6b3e
00000180: 41bd 793b 2eb0 053e 23d4 603e 9ba8 9d3d
00000190: eedc c3bc 14c2 493e 1327 893c 255a 7cbd
000001a0: 0201 1a3e d1c8 0c3d c112 aebd 5c13 80bd
000001b0: 20d7 7d3e 2f3c 743e 5f2d fcbd b0b3 11be
000001c0: befc 0a3e c80f bebb 4127 5f3e b013 ea3c
000001d0: f5db 6abc b784 2cbd ffa9 473e 222e 643e
000001e0: 743c 01be 39fc 8ebe 80fd 24be c7ae 603e
000001f0: 88cc ac3d 6396 85bd edb6 1e3e 65f7 fd3d
00000200: dd87 0ebe 9ed8 143c 3be6 8fbd c610 5b3e
00000210: 3d88 8fbd 271f 7bbe 79d2 22be 16f5 893d
00000220: ac5c 243e a1d2 84bc 2f77 70be c5fb 92be
00000230: 2f61 7e3e 7dc5 7c3e 3ec1 433e 9deb 29be
00000240: 77f8 1ebe b696 cc3d 9efe 20bd 6c72 7d3d
00000250: 473a 22be 0318 0ebe
-0.23049779 -0.1749337 -0.09905187 -0.20850575 -0.32061124 -0.22134842 -0.30980906 -0.015961047
-0.12189195 -0.17761455 0.12518156 -0.1779816 0.027963296 -0.24432135 -0.18721266 0.12943251
0.012234756 -0.19161728 -0.14801294 -0.089014836 0.00095975737 -0.09596183 -0.018053453 -0.30716383
-0.36827 -0.20206998 -0.29319578 -0.24677616 -0.29401115 -0.23274803 0.08195596 0.023081996
0.05862364 0.025554188 0.19308247 -0.14201574 0.0036462848 0.14284287 -0.030460112 -0.06180788
0.19183366 0.14141466 0.110760555 0.14134558 0.23312391 -0.10772876 -0.15190864 -0.11848317
0.28037402 0.24482733 0.15649633 0.15417224 0.13526484 -0.09594359 -0.11355972 0.18712784
0.08404291 -0.25969976 -0.2764248 -0.34082967 -0.20862108 -0.110739104 -0.3593695 -0.19201845
-0.085378155 -0.025656736 -0.028198395 -0.3261701 0.02403208 -0.13870624 -0.18066427 -0.020513128
-0.19920723 -0.18371868 -0.31337488 -0.19173297 -0.14082535 -0.18840806 0.2127596 -0.02299567
-0.039141435 0.0619999 -0.088641085 0.17991902 0.2245541 0.18190229 0.19700618 -0.17582169
0.21361504 0.23340383 -0.084147334 0.15711917 0.06264051 -0.04587375 0.15017498 0.22978647
0.003810719 0.13055488 0.21955924 0.076981746 -0.023909058 0.19702941 0.016742265 -0.061609406
0.15039447 0.0343712 -0.08499671 -0.062536925 0.24789095 0.23851083 -0.12313341 -0.14228702
0.13572976 -0.005800221 0.21792318 0.02857384 -0.014334668 -0.042118754 0.19498442 0.22283223
-0.12620717 -0.27926806 -0.16112328 0.21941672 0.08437449 -0.065228246 0.15499468 0.124007024
-0.13919015 0.009084849 -0.07026335 0.21393117 -0.07008407 -0.24523602 -0.15900601 0.067361996
0.16050977 -0.016213717 -0.23482965 -0.2870771 0.2484176 0.24684711 0.19116685 -0.16593786
-0.1552447 0.09989683 -0.039305322 0.0618767 -0.15842544 -0.13876347

encoder.0.bias f4 [6]
00000000: c21e 293e 36ca 323e 93f0 73bc 87be 263e
00000010: d460 21bd 9b29 3b3e
0.1651564 0.1745995 -0.0148889 0.16283618 -0.039398983 0.1827759

encoder.2.weight f4 [16, 6, 5, 5]
00000000: 8df9 4a3d 2eb2 273d 6e9f 38bd 28fb e33d
00000010: 2406 a23c 4c66 0c3a 7ddb 4bbd 28d8 82bd
00000020: 59ec 19bb c060 553d 5197 fcbd 3328 06be
00000030: 77c6 8ebc e47b 7ebc f87f e8bc 20f8 06be
00000040: dbfe 28bd 26a6 06be 4d5c a8bc a08d b93c
00000050: 0eea cdbd 1992 3cbd ef9b 96bd 4e80 4f3c
00000060: f9ff 46bd 6048 c23c c4a8 98bc e319 0dbd
00000070: 4e30 983b 8c0f a13c cb44 be3b f5cf c43d
00000080: 3b6d 843c 194d a9ba 70ec e0bc 0d47 603d
00000090: 932d b43d a7c2 993d 7718 44bd f12a 0fbd
000000a0: 6db4 6d3d 9ca0 f3bc ef2d 0dbd 732b 823d
000000b0: 7898 e83d aa38 a2bd 12f9 4a3d dd28 cdbd
000000c0: 6477 87bd 5575 8a3c e540 853d ce84 503d
000000d0: 792e 133c b611 dc3d 6e69 e3bb 20a5 b9bc
000000e0: 203a 463d c2d7 15bc dff2 ecbc 6213 b03d
000000f0: 1418 dcbd 4181 bfbc d261 15bd c45b 993d
00000100: 052c 273d 69ef 0cbe a6ab a8bd 1b06 e73c
00000110: d397 4ebc 78cb 143d d8e5 d2bd b6d2 83bd
00000120: 9a1a a5bc e964 e9bc 576f a9bc df9c bd3a
00000130: 7d2b a23d d2a3 5cbd 13f3 19bd 7967 97bc
00000140: b1a5 033d 8eda c43d 50e0 0b3d fe61 b43d
00000150: 0930 cf3d 0bb9 8c3d aad5 523d 5eca abbc
00000160: 8f9b 7ebd 185e 6cbc 09c1 d53d 2106 cb3d
00000170: ad52 333c 437a 0dbd d367 963d 6cf9 c03d
00000180: d7ec e7bc f866 ca3c 8e8d 4dbd 5f1b eebc
00000190: 1d21 4b3d b67b bf3d 9b3b a93d 4b4a 01bd
000001a0: ec77 3cbd 6971 163d d280 cd3d 6711 c2bc
000001b0: ab2e 79bd a7a6 783d acc7 e23d 1d3d 373d
000001c0: 571a 55bd 3d6b 95bc 92bb 47bd 61c2 983c
000001d0: 1e14 603d 547f 57bd f5d2 9bbd 34bd 3ebc
000001e0: a612 3d3d 6283 44bc 0b13 20bd 134f e43c
000001f0: 0831 33bd 1f12 7c3d 58d7 42bd ecd2 bdbb
00000200: e066 c7bb 00c5 12bd f0a9 eb3c db23 5fbd
00000210: 0bad b13d ae28 bd3d c88d 293d af6d 453d
00000220: bae7 233d 6b1a b53c e59f 5cbc 44fa 2abb
00000230: 4f25 8c3d 4691 803d b3f2 3abb 6c67 4d3d
00000240: 0cc5 62bd 7627 9e3c ecc4 003d 1aa7 eb3c
00000250: 386f 90bc 6ce5 983c 9efa 64bd 9ca8 5f3c
00000260: 7035 59bd 4e80 753d 18df 60bc 6d25 943d
00000270: 9687 763c 1d55 7fbd 3edb 8b3d 3775 c63c
00000280: 4410 4fbd 357a 3fbd 510b 84bc 6243 463d
00000290: 05df 12bb 53f1 283c e403 47bc 19b4 9bbd
000002a0: 4866 fdbc ec69 17bd 73c8 29bd fd8b 93bd
000002b0: d579 e9bd 882e 06be 5309 89bd 7e62 423c
000002c0: 82e3 4d3d 1ea2 91bd d3b3 10bd fd32 af3b
000002d0: 3970 ddbc ab40 a23c 141b 8d3b 1e99 4bbd
000002e0: 95a1 55bd 088f dbbb 6a2e 1f3d 2c50 44bd
000002f0: 64e1 d2ba 0178 1dbd 31bd 843d b7ea 463d
00000300: fcfc a0bc 9220 243d 845d 953d 0c83 5dbc
00000310: e553 143d acc6 50bd 4cde 823d 419c d93c
00000320: b9db 2e3d b1f6 47bd 6dac 32bd b279 7e3d
00000330: 3e2a 873d 0438 243d 93f6 3cbd 070c 213c
00000340: d5ed 2a3d 36f3 44bc a14a 803d a2be 8abd
00000350: 0cc2 96bd afc7 71bd bc3c 2ebd 4b88 80bd
00000360: a702 edbc 3203 1abe 5fcf 8ebd 922e dd3c
00000370: f78c 2cbc a5c0 b5bd ca09 e2bd 59e9 28bd
00000380: eba4 833d 5127 663d f6dd 9b3d 7961 ccbc
00000390: ccb9 903d 8984 a23c 0271 d33c 7704 863d
000003a0: cd78 b03d 24b6 7c3c 76d1 7cbd a586 14bc
000003b0: 6df6 363d 2026 29bd f442 d03d 3523 ac3c
000003c0: eda9 263d a8f3 ea3d c8d3 d63c 984c aa3d
000003d0: e03d 533d 823b 4e3d 4d9a 7b3d 63aa 59bd
000003e0: a94b 953d 818a a53d 6a0f ef3a 1e8a c2bc
000003f0: 82ae 863d 8f4a 6bbd 5ba8 2d3d 06cb 2cbc
0.049554396 0.04094141 -0.04507392 0.11131889 0.019778319 0.00053558196 -0.049769867 -0.06388885
-0.0023486821 0.05209422 -0.12333549 -0.13101272 -0.01742862 -0.0155324675 -0.028381333 -0.1318059
-0.041258674 -0.13149318 -0.020551825 0.02265054 -0.10054408 -0.046037767 -0.07353961 0.012664868
-0.04858396 0.023716152 -0.018635161 -0.034448516 0.0046444302 0.019660734 0.0058065406 0.09609977
0.016165366 -0.0012916654 -0.027456492 0.05475526 0.08797755 0.0750783 -0.047874894 -0.03495306
0.058033396 -0.02973967 -0.034467634 0.063559435 0.11357206 -0.07920964 0.04955394 -0.1001756
-0.06614569 0.016901651 0.06506518 0.050907902 0.008983248 0.107455656 -0.0069400584 -0.022661746
0.048395276 -0.009145679 -0.028924404 0.08597447 -0.1074678 -0.023377063 -0.03647024 0.07488206
0.040813465 -0.13763203 -0.08235864 0.028201154 -0.01260944 0.036326855 -0.102977455 -0.06436674
-0.020154286 -0.0284905 -0.020682974 0.0014466307 0.07918451 -0.05386717 -0.03758533 -0.018481957
0.032140438 0.096119985 0.034149468 0.08807753 0.10116584 0.06871232 0.051473297 -0.02097052
-0.06216007 -0.014426731 0.10437209 0.09913278 0.010945004 -0.034540426 0.07344022 0.094225734
-0.028311176 0.024707302 -0.050183825 -0.029065786 0.049592126 0.09349768 0.08263322 -0.031564992
-0.046012804 0.03672925 0.10034336 -0.023689939 -0.06083552 0.060705807 0.11073241 0.044736017
-0.052027073 -0.018239612 -0.048762865 0.018647375 0.054706685 -0.052611664 -0.07608596 -0.011641789
0.046160363 -0.011994215 -0.03908066 0.027869737 -0.04374793 0.06154072 -0.04756865 -0.005792966
-0.0060852617 -0.035832405 0.028767556 -0.054477554 0.086755835 0.09236275 0.04139498 0.048200306
0.040015914 0.022107324 -0.013465856 -0.0026089111 0.068430535 0.06277709 -0.0028526008 0.05014746
-0.0553637 0.019305926 0.0314378 0.028766204 -0.017631158 0.018664084 -0.05590307 0.013651039
-0.053029478 0.059936814 -0.013725065 0.07233701 0.015046975 -0.06233703 0.068289265 0.024225814
-0.05055262 -0.046747405 -0.016118677 0.048404105 -0.0022410762 0.010311442 -0.012146924 -0.0760271
-0.03093256 -0.03696625 -0.04145093 -0.07204435 -0.11400191 -0.13103688 -0.066912316 0.011864303
0.050265796 -0.071109995 -0.035327744 0.0053466544 -0.027031051 0.019806227 0.0043062065 -0.04970657
-0.05215605 -0.0067004003 0.038862623 -0.04792802 -0.00160889 -0.038444523 0.06481398 0.048563685
-0.019651882 0.040070124 0.07293227 -0.013520014 0.03621282 -0.05097072 0.06390056 0.026563765
0.042690013 -0.048819248 -0.04362147 0.062127776 0.06599854 0.040092483 -0.04613359 0.009829528
0.04173072 -0.012020877 0.06264234 -0.067746416 -0.0736123 -0.059028324 -0.04253839 -0.06275996
-0.028931929 -0.15040281 -0.06973147 0.026999746 -0.0105316555 -0.08874635 -0.11037023 -0.041238163
0.0642794 0.05618984 0.07610695 -0.024948822 0.07066688 0.019838588 0.025810722 0.0654382
0.08616791 0.015424285 -0.061723195 -0.009065305 0.044668604 -0.041296124 0.1016902 0.021012882
0.040689398 0.11472255 0.026224032 0.0831539 0.05157268 0.05034972 0.06142645 -0.05314101
0.07289822 0.08083058 0.0018238847 -0.0237475 0.065762535 -0.05744415 0.042396884 -0.010546451

encoder.2.bias f4 [16]
00000000: bc28 0e3b 0735 1f3d 61f8 ea3c 9917 4b3d
00000010: b60e d83d 659d fc3b 82bc 703d eb70 25bc
00000020: 903a bf82 c414 0b3e fe59 1b3d cee8 2c3d
00000030: a2f3 d63d ee1f b23c f651 e03c 132e 08bd
0.002169176 0.03886893 0.02868289 0.04958305 0.10549681 0.0077091926 0.058773525 -0.0100977225
-2.809854e-37 0.1358214 0.03792762 0.042214207 0.10495688 0.02174374 0.027382832 -0.033247065

encoder.5.weight f4 [10, 6400]
00000000: d906 50bc 33a0 0abd 7a91 afbc 2d10 36bd
00000010: 2eaf 22bd ceb2 acbc 53e6 0fbd 6b50 0cbd
00000020: 0d57 4ebc c0a9 d6bb 1e26 91bc bc91 5abc
00000030: 0df7 4f3b f421 cf3b 7d2a f7ba 23a3 2c3b
00000040: bbb9 2b3c 9016 103c 0e8f 8eba a293 04bc
00000050: c074 c23a 317a b4bc 8b09 74bc 49e7 dbbc
00000060: 0777 19bd f14c fbbc 990f adbc 0ba2 babc
00000070: da74 ee3b 2330 02bc a826 ac3a 9bf0 6c39
00000080: e42c d43b 74ed d13c 55d0 453c f727 be3c
00000090: 8f66 b83b c67d 853b a854 953b 1807 56bc
000000a0: 96d4 033d 41f0 a53c 224d 31bc c1ce 9dbc
000000b0: 6a5a a3bc 80d6 a9bc f9b1 c8bc 9e81 43bc
000000c0: 249c 10bc c0cf 3a3c 2f02 833c c885 803c
000000d0: 9bb8 bf3c 456f 453c 2468 933c 50b7 1e3c
000000e0: 27ae 593c 1fc4 203a 030c 05bb 76bf 7c3b
000000f0: 37d7 713d 0ee1 fd3c 2672 8abb 4c05 30bc
00000100: 9528 84bc 7f7e b0bc 4e37 16ba 072e 66bc
00000110: cc7d b7b9 16ee 9c3b 694e 8e3c f3ac a23c
00000120: 4a97 de3b dd2b 893c 143e 863c e75d 473c
00000130: 153e 223c c7f0 3b3c b418 263c 52de ca3b
00000140: 27ab 5b3d fe37 f53c 3885 12bc d87e a5bc
00000150: 2608 23bc 15fb 093b 8437 3e3a f3c4 513c
00000160: bccf b53b 719f 753c a407 193d 8032 143d
00000170: 4276 993c 5fc7 3c3a ec73 f8bb 48b0 50bc
00000180: 631a be3b e43f 463c e90e 813c 660e a93b
00000190: 512e e13c de08 533b 2aac 9bbc 862f aabc
000001a0: 811f 43bb 58da 48bc e49f 733a 5c2c fc3b
000001b0: b8be 5e3c 46e6 023d f45a 093d 47de 3f3d
000001c0: 01fc c93c e4cc 3e3c f8a8 0abc 185d 343a
000001d0: 696b 12bc 450a d939 bf2b 093c 3e68 4d3b
000001e0: 81b7 893c 21ad 73bc 5cda 0fbd e1d0 29bd
000001f0: 9900 c8bc a221 3bbc 7666 20bb 8f14 e03b
00000200: d06e 9d3c a42e f13c ad52 323d befb e43c
00000210: 09de 043b 3e51 6c3c d806 a338 0d3a cfbb
00000220: 499a f4bb 0840 ccbb 8001 bf3b 868c 36bc
00000230: 25ab 75bc 7b6b 0bbd 3665 07bd bc64 bbbc
00000240: 0136 72bc 04f7 bf3b ce4b 593b 9079 d73b
00000250: ed04 8c3b d1fb da3c 1bac dd3c 39b4 423c
00000260: 6a7a f33a 4cbc a1bb 1c30 dbbb 6691 d83b
00000270: 14a2 953b 6d28 3f3c 0ec3 e93b e78b 3fbc
00000280: db69 39bc 9135 a8bc fb74 cdbc 606b 84bc
00000290: 9578 c4ba a973 35bc da2f b6bb b530 d73b
000002a0: ce0b b23b 0531 fa3c b043 d03c 9262 ac3c
000002b0: 3a7f 4cbb 62be 00ba de9a f63b 0523 243b
000002c0: 087f 4ebb 7558 633c 7b8c 0ebc b7e5 65bc
000002d0: 5b66 29bb cd47 ddbc 0f30 03bd 30b9 5abc
000002e0: 62d2 51bb 4c5a 3fbc 85db 80bc a369 30b9
000002f0: 1d16 ff3b 60bd 963c 133f fbbb fa2b 583c
00000300: fd40 6c3b 7501 0a3c 7e87 b03c 4aa7 8d3c
00000310: 5d7b 073c 55e6 b63b 1eb7 0d3c 6a97 1cbc
00000320: 09bc df3c bc7f 3ebc e3e0 38bb 7d5a bd3b
00000330: 33fb 1a3c dfda 3e3b 9a7f 8ebb 47b7 813c
00000340: dfff 233c 95d9 91ba 4961 5c3b 4570 703c
00000350: 0f94 c93c 2cba f93b 7244 353c d4f2 a9bb
00000360: 11c7 15bb d3c5 a4bb ea14 093c ef6d 9cbc
00000370: dad4 e53c 819f 88ba 8ee4 b6bb dca4 563b
00000380: c908 ed3b 1bf4 1dbc 039b 4c3c 2825 f33b
00000390: db38 ba3b 0ed2 19bb b125 ca3b ed30 963b
000003a0: 9e0f db3c 472d 873b b22e 6eba 9694 e83b
000003b0: 40ea 07bb e104 4abc f104 bfbb 5d2f 8fbc
000003c0: f706 0d3d 1632 8d3c 7533 b83b 1415 883c
000003d0: 97d3 fc3b 58f7 f039 6ce1 8e3b ea64 9e3c
000003e0: f0f6 1b3c df50 53bc e67e 133c d9ea c03c
000003f0: 1603 863c 7ee4 953b 0172 f23b 589a 91ba
-0.012696945 -0.033844184 -0.021431673 -0.04444902 -0.039717846 -0.021081354 -0.035131764 -0.03425638
-0.012593997 -0.0065509975 -0.017718371 -0.01334041 0.0031732947 0.006321186 -0.0018857267 0.0026342354
0.010481293 0.008794442 -0.0010876374 -0.008091839 0.001483582 -0.022030922 -0.014894853 -0.026843684
-0.03746703 -0.030676337 -0.021125602 -0.022782346 0.0072771134 -0.007946047 0.0013134079 0.00022596346
0.006475078 0.025625922 0.012073596 0.023212416 0.0056274603 0.0040738313 0.004557211 -0.013063215
0.03218516 0.020256164 -0.010821613 -0.019263627 -0.019940574 -0.020732164 -0.024498926 -0.011932759
-0.008826289 0.0114020705 0.015992252 0.015688792 0.023403456 0.0120504545 0.017993994 0.00968726
0.01328615 0.000613274 -0.002030135 0.0038566268 0.059043135 0.030991104 -0.0042250333 -0.01074345
-0.016132632 -0.021544693 -0.0005730287 -0.01404906 -0.00034998206 0.0047891242 0.017371373 0.01985786
0.0067929374 0.016744548 0.016387023 0.012168384 0.009902497 0.01147098 0.010137726 0.0061910534
0.05363002 0.029933926 -0.008942895 -0.020202085 -0.009950673 0.0021054198 0.0007256197 0.012803304
0.0055484455 0.014991627 0.037360802 0.036180973 0.018733148 0.00072013395 -0.0075821783 -0.012737341
0.0058014854 0.012100194 0.01575418 0.005159187 0.027487906 0.003220133 -0.019002993 -0.020774614
-0.0029773416 -0.012259088 0.000929354 0.0076957177 0.013595276 0.031957887 0.033534005 0.04684284
0.024656298 0.011645529 -0.008463137 0.0006880327 -0.008936741 0.00041397117 0.008372246 0.003134265
0.016811134 -0.01487282 -0.035120353 -0.041458968 -0.024414347 -0.011421593 -0.0024475134 0.0068383883
0.019217879 0.029441185 0.043535877 0.027952071 0.0020273945 0.0144236665 7.7737204e-05 -0.006324059
-0.0074646813 -0.006233219 0.0058290362 -0.011141902 -0.014994417 -0.03403805 -0.033055507 -0.022875182
-0.014783383 0.005858304 0.0033156755 0.0065757707 0.004273048 0.026731404 0.027059605 0.011883789
0.0018575911 -0.004935777 -0.0066890847 0.0066091297 0.0045664404 0.011667353 0.007133848 -0.01169107
-0.011316742 -0.020533355 -0.025080195 -0.016164482 -0.001498955 -0.011074939 -0.0055599036 0.0065670856
0.005433536 0.030540952 0.0254229 0.021043096 -0.0031203763 -0.0004911182 0.007525786 0.0025045287
-0.0031508822 0.01387607 -0.008700485 -0.014031819 -0.0025848362 -0.027011776 -0.032028254 -0.013349816
-0.0032016267 -0.011679243 -0.015729675 -0.0001682402 0.0077846185 0.018400848 -0.007667431 0.013194079
0.0036049478 0.008423199 0.021548983 0.017291684 0.008269158 0.005581657 0.008649616 -0.009557584
0.027311342 -0.011627134 -0.0028210215 0.0057786093 0.009459305 0.0029122157 -0.0043487074 0.015834464
0.010009735 -0.0011127467 0.0033627322 0.014675205 0.024606733 0.0076210704 0.011063682 -0.005186418
-0.0022854249 -0.0050284653 0.008366803 -0.01909539 0.028055597 -0.0010423512 -0.005581445 0.0032752072
0.0072337133 -0.009640719 0.01248813 0.007420201 0.005683047 -0.002347115 0.006169044 0.004583469
0.026740845 0.0041252705 -0.00090859376 0.007097791 -0.002073899 -0.012330265 -0.0058294465 -0.01747864
0.03443047 0.017235797 0.0056213685 0.016611613 0.007715653 0.00045960653 0.0043603685 0.019335229
0.009519324 -0.012897699 0.009002423 0.023549484 0.016358893 0.0045743575 0.007398844 -0.001110862

encoder.5.bias f4 [10]
00000000: a10e f03b ef3c d3bb ba14 b33b 77fa f73b
00000010: beb8 80bb 3780 413c 5b61 be3b 9684 e2ba
00000020: c2da 2fb7 0593 57bb
0.0073259627 -0.006446473 0.0054651173 0.0075676995 -0.003928273 0.011810354 0.0058099455 -0.0017281945
-1.0481746e-05 -0.0032894027

decoder.0.weight f4 [6400, 10]
00000000: a768 8e3d b9de 3c3d bb04 ac3d 8966 77bd
00000010: 9d73 493e dbdf 6e3d 8e35 75be c3bb d83d
00000020: a8cb bc3b 81c0 293e 1f50 463d 690a 03bd
00000030: 2286 14bc cd36 a33c c808 bcbd 00c4 15be
00000040: 3e98 7cbe 7df0 213e 99b0 523e e2e7 1c3d
00000050: deb8 15bd 06f1 703c f2bf a83c 17f1 2e3e
00000060: 839b babd d6d0 9e3d 6af2 683e f4d2 00bd
00000070: 66f3 763e 31cf 47be 7d66 aa3c 9307 9fbc
00000080: 23b4 483e 7c8d e4bd 7bef 363d 2a72 193d
00000090: 2ff1 51bd 4396 e83d f329 413b e4f6 823e
000000a0: 3bcc 0abe a3bd ffbd 4c78 c13d 6064 df3d
000000b0: f05e e2bd 3221 2fbd ceb6 aabb 230e 4f3e
000000c0: 83e4 e7bd 8989 2a3e 66d5 0abe bc7c 813e
000000d0: 2384 84be 988a 123d 67b1 39bd f0b4 5ebd
000000e0: 5b5e 803d 458e 273e bf15 fe3c 731e edbd
000000f0: 787c 08be b3f6 79ba b489 fabd 7ad4 64be
00000100: 584e 01be 0193 703d d8ab f5bd 4870 8d3e
00000110: 04eb 063e a214 1e3c 6a50 813d 903c 63bc
00000120: 328a a8bd ab72 9d3e 657a 12be 45aa c93c
00000130: aa77 7f3e aaaf 793e f31f 1e3e 27ea 743e
00000140: baf1 2cbc 8068 193c 2282 85be e4c4 d43c
00000150: 3167 563e d12c 6bbe e839 c2bd 152a 0b3e
00000160: 85ca 18bd 05e7 563d 548c 19be 720e 663e
00000170: 4b27 95be e262 1b3d a054 303e 2b8b 1dbd
00000180: 3462 1b3c 95fa 7bbe 4baf a73e 280b 35be
00000190: 9ac1 fc3c 1bd7 c83d eac6 943c c078 1cbe
000001a0: fb68 6fbd 6c13 0bbe c8f8 ed3d 2af4 863e
000001b0: d914 18be 30ce 053d c0a5 2cbe b62b 173d
000001c0: aba3 ccbb ad2e 443e 8839 dbbd ba3b 6a3e
000001d0: 0642 d5bd bb8a 853d 6d56 683e c7f4 05be
000001e0: da40 05be 1eb8 7a3e 161a 473d 0976 1e3e
000001f0: 0aed 54bd c621 633d d7fa 30be 4a65 93bd
00000200: bf75 18be 323c 423e 1f6c 1a3e c6ca 9dbd
00000210: d22f d13d 8474 e5bd 984d acbd 8a04 0cbe
00000220: bb2a 863d 82fb 4f3e 1de1 99bd 0b1f 16bb
00000230: 1d8d 883e d478 1d3e 5fe0 4c3e 74a0 dd3d
00000240: 1ed7 1a3e 9fa9 64be 224b 47be 3409 013e
00000250: 7665 36be aa7b 03be cab0 663e 8aa2 283e
00000260: 94e6 8c3d 986c 50be ea67 753e 9bd6 08be
00000270: 5f46 9c3d 2058 a9be 36d7 aebd 9740 d3bc
00000280: bc6f 2f3e 6c0f eb3d 3e8d 99bd aa2e 9fbd
00000290: 0c96 8fbe 05ab 603e 6779 56bc 38bb dabd
000002a0: cbe7 183e 7a1e 113e c9be 33be c2c4 1a3e
000002b0: e78c debd 52c3 e03d a3d9 64be e300 693d
000002c0: 9b58 573e a2c9 09be 9ce6 183d 19b7 283e
000002d0: d5db 8fbd 08fb f83c 07f6 2f3e 81da bcbd
000002e0: 5436 c1bd f9a6 c7bd 2e8b 17be d887 6dbd
000002f0: 211d 66be 07eb 1c3e 1a3e 153e ccf0 ffbc
00000300: 60a2 013d fda6 6a3e 5924 7a3e cf32 2f3e
00000310: 5900 04be fb95 3cbe 4061 eebd 101e edbd
00000320: 92b7 25bd 25dc f83d 57c0 173d 01a4 b53b
00000330: 645b 59be fe6d 8cbd 5cbd 32bd 3b52 7cbc
00000340: 58cc e13d 0a4a d93b ab54 9d3d bf36 2d3e
00000350: 7e0f e73d 5e5d 793d 0517 2a3e 4e99 42bd
00000360: d7f7 c33d bc5b 2b3e 2b25 55be 2765 9a3d
00000370: f6ca fdbd 3d03 7c3d ee30 523c 5c08 f6bd
00000380: ee7b b9bd 4c19 da3d 8b71 7f3d 4d01 e2bd
00000390: 06ef b6bd 1496 223e 1f5a 37bd a7c7 353d
000003a0: 3d61 41bd 5d69 eabc 74b9 afb9 32ca 8fbd
000003b0: a5de c03d e380 1cbe 67ea 773e 2221 bdbd
000003c0: e01f a4be df05 783e 3793 823c f2da fbbd
000003d0: f0ee 80be 56e3 abbd 926e 05be 6187 8fbd
000003e0: f817 16be e687 213d 3c06 1b3d 009c cc3d
000003f0: 5b4f 13be 6d6c 343e 9eb6 b5bd ac8c 51bd
0.069535546 0.046110842 0.0839934 -0.06040052 0.19673009 0.058318954 -0.2394621 0.10582688
0.0057615824 0.1657734 0.048416253 -0.03199235 -0.009065183 0.019923592 -0.091813624 -0.1462555
-0.24667451 0.15814395 0.20575179 0.03830708 -0.036553256 0.014705902 0.02059934 0.17084156
-0.09111693 0.07754676 0.22748724 -0.03145118 0.24116287 -0.19512631 0.020800823 -0.019412791
0.19599967 -0.111597985 0.04466198 0.03746239 -0.0512554 0.11356785 0.0029474467 0.25578988
-0.1355447 -0.12487342 0.09446773 0.10907817 -0.11053264 -0.042756267 -0.0052097803 0.20220236
-0.11322882 0.16654028 -0.13557968 0.25290477 -0.25882062 0.035776705 -0.0453352 -0.054371774
0.06267997 0.16362865 0.031016229 -0.11578073 -0.13328731 -0.0009535357 -0.12233296 -0.22346678
-0.12627542 0.058733944 -0.11995667 0.27624726 0.13175589 0.009648474 0.06314166 -0.01386942
-0.08229484 0.30751547 -0.14304502 0.024617324 0.24947992 0.24383417 0.15441875 0.23917447
-0.010555679 0.009363294 -0.26075846 0.025972791 0.20937802 -0.22966315 -0.09483701 0.13590272
-0.037302513 0.05246641 -0.14994937 0.22466448 -0.2913154 0.0379361 0.17219782 -0.0384628
0.009483863 -0.24607308 0.32750925 -0.17680037 0.030854035 0.09806653 0.018161256 -0.15280437
-0.058449727 -0.13581628 0.11619717 0.26358157 -0.14851703 0.03266734 -0.16860104 0.03690692
-0.0062450967 0.1915843 -0.107043326 0.22874346 -0.104129836 0.06520601 0.22689219 -0.13081656
-0.1301302 0.24484298 0.048608862 0.15474714 -0.05198387 0.05545213 -0.17283188 -0.07197054
-0.14888667 0.18968275 0.15080307 -0.077046916 0.10214199 -0.11203864 -0.08413237 -0.13673607
0.06551119 0.20310786 -0.0751364 -0.0022906687 0.2667016 0.15378124 0.20007466 0.1082162
0.15121123 -0.2233033 -0.19462255 0.12601167 -0.17812142 -0.12840143 0.22528377 0.16468254
0.06879917 -0.20353925 0.23965421 -0.13363115 0.0763061 -0.33075047 -0.08537142 -0.025787635
0.17132467 0.11477551 -0.07497643 -0.07772572 -0.28044164 0.21940239 -0.013090468 -0.106802404
0.14932172 0.14171782 -0.17553248 0.1511412 -0.10866719 0.109747544 -0.22348647 0.05688561
0.21029894 -0.13455823 0.0373293 0.16476096 -0.070243515 0.030393139 0.17183696 -0.09221364
-0.094341904 -0.097486444 -0.14799187 -0.05799088 -0.2247205 0.15324031 0.14574471 -0.03124275
0.031648993 0.22915263 0.24427928 0.17109226 -0.12890758 -0.18416588 -0.11639643 -0.115779996
-0.04045827 0.12151364 0.037048664 0.0055432324 -0.21226269 -0.06856917 -0.04363762 -0.015400465
0.110253036 0.0066311406 0.07682165 0.16915415 0.11282252 0.060880058 0.16610344 -0.047509484
0.09568756 0.16734213 -0.2081496 0.075388245 -0.12392227 0.061526526 0.012829049 -0.12013313
-0.09056841 0.10649356 0.062364142 -0.11035404 -0.08932309 0.15877563 -0.04476368 0.044379856
-0.047211874 -0.028614694 -0.00033516774 -0.070209876 0.09417466 -0.15283541 0.24210511 -0.09234835
-0.3205557 0.2422099 0.015939338 -0.1229762 -0.25182295 -0.0839297 -0.1303046 -0.07008243
-0.14657581 0.039436243 0.037847742 0.09990692 -0.1438574 0.17619486 -0.08872722 -0.051159546

decoder.0.bias f4 [6400]
00000000: b829 3d3c 9ada 3a3c fc56 a7ba 5e43 aa3c
00000010: 0ddd 833b eb4d cb3b d112 6abc f22e 08bd
00000020: 45f0 43bd 8350 5ebd 0eda 4a3a d2ef b23c
00000030: f8fc a737 c98b 8a3b 702a 02bd deb1 703d
00000040: b728 133d 1d46 9abc ce73 c73b 9f74 ab3c
00000050: fedd da3b 3f02 813c 3d6a c53c 3cb4 963a
00000060: 1f71 e53c cfea edbc 5b1b 9b3c eee7 7c3d
00000070: c9d3 5fbb 55ae ffbc 7b77 78bc d0b9 4dbc
00000080: b394 6a3a 32a9 173d 8db3 42bc d0f3 223d
00000090: e4ce 8839 f7b0 e7bb aa16 b2bc c9ce 6ebc
000000a0: 1d73 e739 20f2 833c af58 783c dedb 023c
000000b0: 3e8a 513b 8318 42bb 04e0 72bc 5d10 94bc
000000c0: 28e2 c53c 64a8 303d 3ef6 3ebc 6ea3 363d
000000d0: 4710 cabb 0fed efbc 7f67 0dbd 14e1 54bd
000000e0: f839 31bd fb2f a7bb 1e86 813b fb48 9bba
000000f0: ed61 2dbb 7e93 693c 4914 723c 43ae 3ebb
00000100: 54ba 6e3b 61b0 74bb 49f0 dbbb 1989 1b3c
00000110: 19fc 0d3a dc40 1a3d d437 603c 7560 583d
00000120: 8ef5 d4bb cf05 cbbb 1e29 493b 3f71 7cbc
00000130: 8500 85bc 003d f53c 5469 df3c b972 d93a
00000140: 9cf9 d33c 387c 05bc a0cd 233c a544 893c
00000150: ff2d 82bc b34d 2c3d 0891 513c 6cd2 fa3c
00000160: f0b4 aa3c c42f 113e 982b 9d3d 7d69 bfbc
00000170: e339 efbb 94df 50bc b483 413d b08c 813b
00000180: 61d8 323c 26da 8dbc 863e d03c 4ebc 063c
00000190: d8a6 5eba b4e1 0fbc 3163 963c 2323 ec3a
000001a0: c622 06bc 1a65 3f3d 1af0 a33d c5f5 41bc
000001b0: 4b97 a63d 074d 823c 617b 313c a009 143d
000001c0: cada 6b3c 7f86 233d ef00 cf3c 055b fabb
000001d0: ab30 f23b d1cc 513d daa9 4c3c d5d5 943c
000001e0: 190a a73c e670 94bc 737b b0ba f1cb 963a
000001f0: b741 213c 2a6c da3d d154 803d a241 f53b
00000200: 80cc 63bb 5911 bd3c 5c1b 52bc 39dc 81bc
00000210: f38b 54bd a4d2 d93c eacf fabc 5eda cf39
00000220: 7963 183d 817e 2b3c 92bc 573b e2bd 53bb
00000230: 12a2 273c 3862 803b 59e4 a2ba d6ec 303d
00000240: a0de 5ebc 2d48 4c3b 4dc7 af3d cd80 c23d
00000250: f331 54bd a57c 433d a1f1 aebb ff1c beba
00000260: adc7 0cbb ad70 303c f352 033c a1ae 823d
00000270: 9e17 883c ebff 9d3c 51d3 e33c fbce d83b
00000280: ec40 0fbc e39c 613c b31a bdbb 8848 98bb
00000290: 5ad6 833b e26b 313d a191 6d3c c246 56bd
000002a0: ca77 d2bb 1cef 62bd 52d3 4b3c 660d 8a3b
000002b0: 8da4 78bc 90f7 253d a8aa 053c e5fc f4bb
000002c0: 1bec 2b3c dc3f 9f3c 8e70 e5bb 0d3d 003c
000002d0: 2811 4c3c 8a18 1c3d 73c1 973c 74b2 fb3b
000002e0: 5e30 6d3d 5500 113d 3884 e2bc efff 453c
000002f0: d3ef c93b 5fcb 4f38 1a4d fb3b e90b f1bc
00000300: e0ed f0bc 9271 2dbd d368 22bc 02c1 e33c
00000310: ab9c 273d 557c 73bb fd8d 993c 9970 d23a
00000320: e46f ca3b 19bc 5a3c dee7 083d 75b5 9c3c
00000330: 7faf 8bbb cbf6 51bc c88f cdbb df58 abbc
00000340: 2c51 53bc 5bd3 a23c a1f9 9abc 0cc9 afbb
00000350: f984 9c3d 2310 0ebc 1eec c03d 774e 0e3d
00000360: a7b3 a5bb ae79 763b 8574 7eba 391a 993b
00000370: 5b12 803c ce60 e13b b70f 2e3c d19c 203c
00000380: f9d9 b73b c6da 563b 86e0 20bc 79e5 c038
00000390: 052f 10bd 7395 4ebb 4ba2 ac3d 55ff 813d
000003a0: 94cd c83d 6072 d8bb 3c2e 8f3c 684c debc
000003b0: 8902 063c ff0b 873b d3a6 f43b a1bf 143c
000003c0: 1b9a 8d3a 1c55 273b 8ab3 123c c1b4 7a3c
000003d0: a64a 503c 6007 ff3c c618 a03d a6ee ba3c
000003e0: 3a32 d73c 4cd1 cf3c b663 a73b e13d d53d
000003f0: 7356 febc bf9c dfbb 36f1 663b 767f 80bb
0.011545591 0.011404658 -0.0012767012 0.020784076 0.004024154 0.006204357 -0.014286713 -0.033247896
-0.04783656 -0.054276 0.0007738181 0.02184287 2.002575e-05 0.0042280895 -0.031778753 0.058763377
0.0359275 -0.01883226 0.006086803 0.020929633 0.0066792956 0.015748141 0.02409851 0.0011497806
0.028008042 -0.02904263 0.018933943 0.061744623 -0.0034153333 -0.031211058 -0.015165205 -0.012556508
0.00089485495 0.03702659 -0.011883629 0.0397833 0.00026094087 -0.0070706564 -0.021739323 -0.014575669
0.0004414552 0.016106665 0.015157863 0.007986991 0.0031973268 -0.002961666 -0.014823917 -0.018074209
0.024155691 0.04312934 -0.011655388 0.044589452 -0.006166491 -0.029287843 -0.03452253 -0.051972464
-0.043268174 -0.0051021553 0.0039527556 -0.0011847311 -0.0026456073 0.014256356 0.014775344 -0.0029095567
0.0036426978 -0.0037336575 -0.006711994 0.009493136 0.00054162886 0.03765951 0.013685185 0.052826364
-0.006498999 -0.006195761 0.0030694674 -0.015407859 -0.0162356 0.029936314 0.027271904 0.0016589976
0.025875859 -0.008147292 0.009997755 0.016756365 -0.015891073 0.042066287 0.012790926 0.030617915
0.02083823 0.14178377 0.076743305 -0.02336573 -0.007300602 -0.012748618 0.047244743 0.003953539
0.010915847 -0.017315935 0.025420438 0.008223606 -0.00084934896 -0.008781839 0.018357845 0.0018015843
-0.008187002 0.046727277 0.0800478 -0.011838381 0.081343256 0.01590587 0.0108326385 0.03614199
0.014395425 0.039923187 0.025269 -0.007640245 0.0073910556 0.05122072 0.012491668 0.01816837
0.020390557 -0.01812024 -0.0013464525 0.0011504871 0.009842328 0.10665162 0.062661774 0.0074846307
-0.0034759343 0.023079561 -0.012823906 -0.01585208 -0.05189128 0.0265897 -0.03061672 0.00039644813
0.03720424 0.010467173 0.0032918793 -0.0032309224 0.010231512 0.0039179586 -0.0012427672 0.043194614
-0.013602883 0.003117095 0.085829355 0.09497223 -0.051805448 0.047726292 -0.005338863 -0.0014504491
-0.002148132 0.0107690515 0.008015382 0.06380964 0.016612824 0.01928707 0.027810724 0.006616471
-0.008743506 0.013770315 -0.005771005 -0.0046473183 0.0040233554 0.043315776 0.014500053 -0.052313574
-0.0064229714 -0.055403814 0.012440519 0.004213023 -0.015175951 0.040519297 0.008158363 -0.0074764364
0.010493304 0.01943963 -0.007001943 0.007827056 0.012455262 0.03810934 0.018524861 0.0076811854
0.057907455 0.035400707 -0.027650937 0.012084945 0.0061626225 4.954205e-05 0.0076691033 -0.029424625
-0.029410303 -0.042344637 -0.009912687 0.027801994 0.040920895 -0.0037152965 0.018744463 0.0016055285
0.006177889 0.01335051 0.03342425 0.019129494 -0.004262864 -0.012815188 -0.0062732436 -0.0209164
-0.012897771 0.019876173 -0.01891786 -0.005364543 0.0764255 -0.0086708395 0.09420036 0.0347428
-0.0050568166 0.0037609148 -0.0009706694 0.0046723154 0.015633753 0.006877995 0.010623864 0.009803013
0.005610701 0.0032784208 -0.009819156 9.198016e-05 -0.03520109 -0.0031522184 0.084293924 0.06347529
0.09804836 -0.0066054314 0.017478101 -0.027136043 0.008179315 0.004121303 0.007466176 0.009078891
0.0010803373 0.0025532907 0.008953938 0.015301884 0.01271311 0.031131446 0.07817225 0.022818875
0.026269067 0.025368355 0.005108322 0.10412193 -0.031047082 -0.0068241055 0.0035238988 -0.0039214445

decoder.3.weight f4 [16, 6, 5, 5]
00000000: 22b3 ed3c 3c87 a9bc 3a36 c63c 221c cabc
00000010: 87b3 10bc 746f 813c ff7a edbc ffff 023d
00000020: 3a14 a9bd df94 a6bd 3360 533d 9b8b d5bb
00000030: b969 12bc f27a efbc 9bd9 92bd c449 64bd
00000040: f143 57bd 4aa2 abbd 36f1 ebbd f1f5 0dbe
00000050: d8a0 a7bd 49a1 cebd ef8e 04bc 8f41 a2bd
00000060: 45c5 ffbd eaae d03d 9226 313d 1b8d 0bbd
00000070: 6c3a 3d3d 3810 683c 8d6f 833a 90c0 e8b9
00000080: 5dbb 83bc ff2f b7bd c252 a9bc 2649 8abd
00000090: 226d 44bd d8f3 90bc c63e dc3c 0dd8 f8bc
000000a0: b6c0 5a3c 1168 89bd 6d03 4e3d ac13 6bbc
000000b0: 08e1 18bd 28e4 36bd 6167 313c 6e30 62bd
000000c0: 09e7 8bbc 344a 243d 6f3c 8dbd 4a17 1fbd
000000d0: db7f 7bbc e3bc 8bbc 7cf3 8dbc f4ab 5dbd
000000e0: 3053 19bb 301a 82bd 609b adbc b894 1fbd
000000f0: ecb4 90bd ff92 61bd 369f 023d 10f7 1abd
00000100: f52c 6ebd 45bb 93bc 7938 b3bc 6ce4 963d
00000110: 4fd2 81bd 8d27 14bd 9e6a 2f3c 43fd 343d
00000120: 99dc 003d 58c1 d83c d626 37bd baef 7abc
00000130: 5824 9c3c 9cec 8f3d c96a 263d 8eb7 413d
00000140: 3115 7d3d 13e5 9e3d e6b1 d43d f781 c13d
00000150: 7215 003d 3c7e 823d 3156 4c3d 3181 923d
00000160: 97ba 983d f98c 85bb 8205 7b3d 9232 333c
00000170: 406e 3c3d fb6f 46bc 6b54 20bc 7eb0 ae3c
00000180: f1d0 ed3c 0799 3a3d e148 95ba ca33 3cbc
00000190: f20e 27bc 87de b93c dc6b 89bc bdac b03c
000001a0: dbeb 95bd 49be 98bc 0b8b 16bd 043b 6a3d
000001b0: 4ef5 3f3c e9a0 3ebd 60e3 6b3d 27c2 74bc
000001c0: bdeb 433a c0bc 983d 211f d13d 8d76 1a3d
000001d0: 7440 833d 99ca 9c3d 5332 0b3d c8bf f13d
000001e0: 5b66 803d 79ee 103d 4197 cf3d 9c59 1d3d
000001f0: 8a7d b93d feab babd 99c7 c83c 7ec4 45bd
00000200: d59a 1bbd 9205 6abd d262 48bd 733f 9ebb
00000210: 7175 7b3c fae8 cbbc 0a2e 99bd 4998 14bd
00000220: 046e 45bd 31ab 84bd 2021 f2bd c78e 34bc
00000230: 0c0f 62bb 63ff 66bd 4b2e fb3c 568c 28bd
00000240: e539 9cbc bbf4 c0bc 5ad6 60bc 1d47 8a3d
00000250: fe73 94bb 04cf 763d 124d 0c3d 4c16 833d
00000260: d41c fbbb 4775 8d3d 929a 2e3d 2173 fabb
00000270: 7eb6 e3bc 971e ef3b 19ea 623d ed3d 90bc
00000280: 1b89 213d 65d3 363d 7da9 c33d 8581 003d
00000290: a873 ab3c d37d 1f3d aee7 583a cced af3c
000002a0: 2d96 f93c 73ba 953b 6884 01bd a626 263c
000002b0: bf37 c83c 3b37 4c3d 43ab 16bc c32c 2b3d
000002c0: 0295 2e3b e8e6 52bd cb00 eabc 8417 70bd
000002d0: d448 78bc b4f5 4d3c 9e6e a4bd e045 24bd
000002e0: 9abf 183d 1b96 e1bc b105 7e3c 2eb0 de3c
000002f0: 693d b1bd 1401 0cbd ee2c 3fbd 6703 13bc
00000300: 0589 35bc 64fb a2bd 7f94 72bd 8dc5 a8bc
00000310: 0967 b6bc 0846 f0bd 0101 13bd f944 7ebd
00000320: a1a4 cf3c 4f2d 6dbd 5fa2 fe3c 0217 56bd
00000330: 0f0e d5bc 1b90 fabc 68b4 e4bc 2dd2 0a3d
00000340: 5f7d 923c 05a4 5fbd cd31 203d 2c97 ad3d
00000350: 4228 ca3a da55 493d ac76 7d3d 5336 8e3d
00000360: 9dd6 aa3c 25f6 38bd 2b44 85bd 9e6e 5e3c
00000370: b0d0 2bbd fce9 8e3d a45e 9d3d 9c37 fbb9
00000380: 029f 49bd 57ab 103c 51f8 153d 350f a73c
00000390: 8fd9 a53c 1afa 803d a183 c63c fad1 1e3b
000003a0: 3d95 a03d 504b 8d3c 61c8 b73c d0ff 5abc
000003b0: aeea c63c 8ca1 cf3d e80a 113d 56ad 453d
000003c0: f965 813d e4ea bf3d 32d8 923d 5edb e63c
000003d0: 49bb 773d ac62 943d 58eb 803d 1849 883d
000003e0: 00d2 dc3c bd80 0f3d f129 26bd 3c37 a7bd
000003f0: ccb6 533c e118 90bc 96c1 85bc eef8 31bd
0.029016081 -0.020694368 0.02419578 -0.024671618 -0.008831865 0.015800215 -0.028989313 0.03198242
-0.08255811 -0.08133864 0.051605415 -0.0065168864 -0.008936339 -0.02923343 -0.07170411 -0.05573441
-0.05255503 -0.083805636 -0.11520617 -0.1386335 -0.081849754 -0.100893565 -0.008090719 -0.079226606
-0.12488798 0.10189612 0.043249674 -0.034070116 0.046198294 0.014164023 0.0010027752 -0.00044393959
-0.016080553 -0.089447014 -0.020669345 -0.06752233 -0.04795564 -0.017694399 0.026885401 -0.030376459
0.01335161 -0.06709302 0.050296236 -0.014347952 -0.03732398 -0.04465118 0.01082787 -0.055221967
-0.01707794 0.040109828 -0.068962924 -0.03884057 -0.015350307 -0.017057842 -0.017328016 -0.054119065
-0.002339553 -0.06352651 -0.021192253 -0.03896019 -0.07065758 -0.055071827 0.031890117 -0.037833273
-0.058148343 -0.018033633 -0.021877514 0.07367787 -0.06338941 -0.03617053 0.010706572 0.04418684
0.03146038 0.026459381 -0.04471477 -0.015315944 0.019060299 0.070275515 0.040629182 0.047294192
0.061787788 0.07758536 0.10385494 0.09448617 0.03127045 0.063717335 0.049886886 0.071535476
0.07457464 -0.004075643 0.06128455 0.01093735 0.04600358 -0.012111659 -0.009785752 0.021324392
0.029030295 0.045556094 -0.0011389517 -0.011486957 -0.010196434 0.022689117 -0.016775064 0.021566743
-0.073203765 -0.018645423 -0.036753695 0.057185188 0.0117162 -0.046540175 0.05758989 -0.014938868
0.00074737874 0.07457876 0.102110155 0.037710715 0.06408778 0.0765583 0.03398354 0.118041575
0.06269523 0.035383675 0.10136271 0.038415536 0.09057148 -0.09114836 0.024509238 -0.048283093
-0.037989456 -0.05713422 -0.048922367 -0.004829341 0.015347824 -0.024891365 -0.074794844 -0.036278043
-0.048200622 -0.06477965 -0.11822724 -0.011020369 -0.0034493832 -0.0563959 0.030661723 -0.04114946
-0.019070575 -0.023554197 -0.01372298 0.06751845 -0.004530429 0.06025602 0.034253187 0.06400737
-0.0076633487 0.069071345 0.04262788 -0.007643119 -0.02779698 0.0072973478 0.055399034 -0.017607654
0.039437395 0.044635195 0.09553812 0.03137352 0.020929173 0.038938355 0.0008274269 0.021475695
0.030467117 0.0045693456 -0.031620413 0.01014105 0.024440644 0.04985736 -0.009196105 0.041790735
0.0026639109 -0.05148974 -0.028564831 -0.058616176 -0.015154082 0.012570787 -0.08028911 -0.0401057
0.0372921 -0.027537396 0.015504287 0.027183618 -0.08654291 -0.034180716 -0.046673708 -0.008972979
-0.011080031 -0.07958105 -0.05922365 -0.020602012 -0.022265928 -0.117321074 -0.03588963 -0.062077496
0.025347056 -0.057904538 0.031083284 -0.052268036 -0.02600768 -0.030586293 -0.027918056 0.033891845
0.017882047 -0.05459978 0.039109994 0.08476099 0.0015423375 0.04915414 0.061880752 0.06943955
0.020854289 -0.045156617 -0.06507143 0.013576178 -0.041947067 0.06978223 0.07684067 -0.00047915883
-0.049223907 0.008829913 0.036613766 0.020392993 0.020245342 0.06297703 0.024232687 0.0024234043
0.07840965 0.017247826 0.022434415 -0.0133666545 0.024281826 0.101382345 0.03541079 0.04826101
0.06318278 0.09370974 0.07170142 0.028180774 0.060481343 0.07245383 0.06294888 0.066545665
0.026955605 0.035034884 -0.040567342 -0.08164832 0.012922 -0.017589988 -0.01632766 -0.04345029

decoder.3.bias f4 [6]
00000000: 2953 3bbe 0c07 2b3e 5023 40be 04cf 86bd
00000010: 95d2 1e3e a230 f33d
-0.18293442 0.16701907 -0.1876347 -0.06582454 0.15510018 0.1187451

decoder.5.weight f4 [6, 1, 5, 5]
00000000: a9f3 23be a609 e2bd a9e1 b8bd 7222 e0bd
00000010: 5844 b3bd dcfe eabd 6d1b 27be 68d1 fabd
00000020: 9ccf 0c3d 9c6f 933d fc34 1dbd 971c 803d
00000030: 4df4 893c c1dd 093d 8eec 413e aaa4 113d
00000040: da3d eb3d 5db2 653e eab8 823e c241 473e
00000050: cbcd 923d d053 393e 5561 383e 455e 543e
00000060: edb5 0a3e 7f07 4ebe e5b4 8cbe 6f2c 3cbe
00000070: 8d26 ffbd a54a 53bb fc51 3abe 4450 6abe
00000080: 0f25 92be 7bc9 67be 7fbe 3b3a 8fe0 9cbd
00000090: 7015 8bbd c30b 00be 97f3 12be 6706 803c
000000a0: fa84 15be 7d8d e7bd 8996 a8bd d9f5 cdbd
000000b0: 1c1b c03c 7dba b5bd f797 ebbd 12ac 4abd
000000c0: c360 1ebd 4d91 883d 8134 9b3d 92d6 143e
000000d0: 0b28 443e d589 003e ca75 0a3d 5613 063e
000000e0: 4e23 a43d 5fff 013e 8c4d c73d 4daf cf3d
000000f0: 15be 833d 9328 40bb 047f 043d ed5b 833d
00000100: 17e1 2e3d 2bb7 153d 1ba1 033e 5f8c 443e
00000110: 7c9d fe3d 5063 b93d ad6f 303d 4524 92bc
00000120: d372 0a3e 5dfd 003e e75c df3d 6d7c d13d
00000130: 96eb 1d3d fd65 7fbd 6747 cbbc 32e9 1fbe
00000140: 92fd 6c3e 6fc8 293e 77a4 9cbb 3e70 f8bc
00000150: 05c5 9e3d 68fc 783e 6fdc 993d 5ee4 463e
00000160: b26c 793d 377c 77bd b6b5 b33d 5c10 0b3e
00000170: 1218 ddbd ecea 0cbe 40bb 24be 1d1e 1abe
00000180: 681f a6bd ac44 253d 4bc6 6abe 5962 8fbe
00000190: 8c9f 3ebd 18c8 22be 6785 b9bd a822 9ebd
000001a0: 4671 f2bc ed1a 50be a48a 22be 72dd 5ebe
000001b0: 0bdd 40be 043f 10bd 85b8 83be 4a32 5bbe
000001c0: 4a3d 9fbd d84a 94bd db4f 3abe 22be 00be
000001d0: 45e5 4dbe d29e 43be fe48 f5bd 1bca ddbd
000001e0: e923 53be a51d 53be 61d1 1fbe c73d 6dbe
000001f0: e3c2 34be 4ab9 913d a75d bdbb 5e91 8fbe
00000200: 960f dabd 0711 dbbd 2c5b 803d c907 80be
00000210: e197 b2be ba57 50be 6ae3 3f3d dae4 b2bc
00000220: 6b21 84be 3799 fdbd 246c ebbd bcaf fd3d
00000230: 2b2c ddbd 9d24 76bd 343e bfbc 72b1 b43d
00000240: 29f6 c83d 2bd7 693c 9ef4 0c3c dd7d e1bc
00000250: c1ad e4bb 4fef 8ebd
-0.16010918 -0.110369965 -0.09027416 -0.1094407 -0.0875327 -0.11474392 -0.16319056 -0.12246972
0.03437768 0.07199022 -0.038380608 0.06255453 0.016840125 0.033658747 0.18937895 0.035557427
0.114864066 0.22431321 0.25531703 0.19458678 0.07168158 0.18098378 0.18005879 0.20739086
0.13545962 -0.20120047 -0.27481762 -0.18376325 -0.12458525 -0.0032240537 -0.18195337 -0.22882181
-0.28543898 -0.22635452 0.000716187 -0.07660019 -0.06791198 -0.12504487 -0.14350735 0.015628053
-0.14601508 -0.113062836 -0.08231837 -0.10056657 0.023450427 -0.088734604 -0.11503594 -0.049480505
-0.038666498 0.06668339 0.07578374 0.14534977 0.191559 0.12552579 0.03380374 0.13093314
0.08014546 0.12695073 0.09731588 0.10140858 0.0643274 -0.002932106 0.032347694 0.06414018
0.04269513 0.036551636 0.12854426 0.19194172 0.124323815 0.090521455 0.043075252 -0.01783956
0.13520364 0.1259665 0.109063916 0.102288105 0.03855475 -0.062353123 -0.02481432 -0.156163
0.23143604 0.16580366 -0.004780348 -0.030326959 0.07752422 0.24315035 0.075127475 0.19423053
0.060894676 -0.060421195 0.08774893 0.1358046 -0.10795607 -0.1376149 -0.16087055 -0.1505055
-0.08111459 0.040348694 -0.22927205 -0.2800472 -0.046538875 -0.15896642 -0.090586476 -0.07721454
-0.029595029 -0.20322771 -0.158732 -0.21764162 -0.18834321 -0.035216346 -0.25726715 -0.21405903
-0.07775362 -0.07240838 -0.18194525 -0.1257253 -0.2010699 -0.19103554 -0.11976813 -0.10829564
-0.20619167 -0.20616777 -0.15607215 -0.23168097 -0.17652468 0.07115419 -0.0057789865 -0.28040594
-0.10647504 -0.10696607 0.0626739 -0.2500594 -0.348815 -0.20345965 0.04684774 -0.02183764
-0.25806746 -0.12382739 -0.114952356 0.12387034 -0.1079944 -0.06009351 -0.02334509 0.088229075
0.09812576 0.014272491 0.008603243 -0.027525837 -0.006978721 -0.06979238
