Autoencoder-on-MNIST-in-Pytorch/Models/model_e11.pt (torch, 561729 bytes, 11 tensors)

encoder.0.weight f4 [6, 1, 5, 5]
000000 b8 e0 72 be 38 7e 39 be b0 f0 d6 bd 91 c7 59 be
       -0.23718536 -0.18114555 -0.10495126 -0.21267535
000010 48 cd a6 be b7 5d 64 be 2c 48 a1 be f4 33 bb bc
       -0.32578492 -0.22301374 -0.31500375 -0.022851922
000020 61 d1 fd bd 55 d7 39 be 1c f6 04 3e 27 1b 38 be
       -0.123934515 -0.18148549 0.12984508 -0.17979108
000030 77 ed c7 3c 57 23 7b be ff 5e 45 be cc 40 08 3e
       0.024405224 -0.245252 -0.1927452 0.13305968
000040 42 c9 73 3c 5a b1 42 be 9d 72 19 be a1 f5 c5 bd
       0.014879527 -0.19012967 -0.14985128 -0.096659906
000050 80 f3 17 3b 19 8a c3 bd 0b e8 a9 bc b3 47 a0 be
       0.0023185909 -0.095478244 -0.02074053 -0.31304702
000060 2e b8 c0 be b0 47 55 be 77 5d 99 be b7 f8 80 be
       -0.37640518 -0.20828128 -0.2995412 -0.25189754
000070 21 cc 97 be 01 92 6d be 1d c4 a2 3d 04 93 aa 3c
       -0.29647925 -0.23200227 0.07947562 0.020822056
000080 e1 b6 6c 3d ed 59 d6 3c 41 f2 48 3e 53 2a 10 be
       0.057791594 0.026165927 0.19623663 -0.14078645
000090 99 cc a3 3b fd d2 13 3e ab 32 ec bc 1e 80 73 bd
       0.004998755 0.14435954 -0.028832754 -0.059448354
0000a0 cd 22 45 3e 6f 04 11 3e 14 24 e2 3d 62 ba 10 3e
       0.19251557 0.14161848 0.110420376 0.141336
0000b0 99 4d 6f 3e cf 91 de bd 42 b2 1b be b1 19 f1 bd
       0.23369445 -0.108676545 -0.15204719 -0.11772478
0000c0 23 88 90 3e 6e e2 7c 3e d3 46 22 3e 92 2f 22 3e
       0.28228864 0.24695751 0.1584733 0.15838459
0000d0 d7 4a 0d 3e 26 e8 c3 bd 7a 0a ef bd 17 86 3e 3e
       0.1379808 -0.09565763 -0.1167192 0.18605839
0000e0 76 b5 aa 3d 78 a8 85 be 97 00 8f be e8 40 b4 be
       0.08335392 -0.26105094 -0.27930138 -0.3520577
0000f0 26 1b 58 be f0 65 e9 bd 04 f9 b8 be e7 88 47 be
       -0.21104106 -0.11396396 -0.36127484 -0.19485818
000100 bc da bc bd fa e2 ff bc d0 c9 12 bd 95 49 a8 be
       -0.09221408 -0.03123616 -0.035836995 -0.3286864
000110 ef fe a6 3c 66 14 13 be 8a 02 41 be fc ba e6 bc
       0.020385234 -0.1436325 -0.18848625 -0.028165333
000120 de 56 4d be 3b 4a 3b be 9c 34 a0 be 60 5e 46 be
       -0.20052668 -0.18290035 -0.31290138 -0.19371939
000130 da 12 12 be 54 ea 40 be 50 da 5b 3e bf da a5 bc
       -0.14265004 -0.18839389 0.21469998 -0.020245908
000140 da 8c 25 bd 44 62 7c 3d 1e 28 b3 bd 87 0c 3a 3e
       -0.04041753 0.06161715 -0.08747886 0.18168841
000150 33 a0 67 3e a0 b3 3a 3e e6 1d 4b 3e e5 65 32 be
       0.22619705 0.18232584 0.19835624 -0.17421682
000160 e3 65 5b 3e 58 e4 6f 3e b1 9b a4 bd a2 81 23 3e
       0.21425585 0.2342695 -0.08037508 0.1596742
000170 49 2c 83 3d 79 1f 3a bd 36 7b 1a 3e 2d dc 6d 3e
       0.06404931 -0.04544017 0.15086064 0.23228522
000180 08 bb ba 3b 86 bf 06 3e 83 59 61 3e 1a f5 9f 3d
       0.0056985654 0.13158998 0.22006802 0.07810421
000190 66 c6 bb bc 57 d5 4b 3e 42 73 a3 3c 5e 91 75 bd
       -0.022921752 0.19905601 0.01995242 -0.059953086
0001a0 6f a4 1b 3e 62 a5 13 3d 2c cd a9 bd 10 cb 75 bd
       0.15199445 0.036046393 -0.082910866 -0.06000811
0001b0 d2 e0 7e 3e 8a 88 77 3e 20 41 fe bd 19 51 11 be
       0.2489045 0.2417318 -0.12414765 -0.14191093
0001c0 61 b9 0b 3e 53 c1 8d bb 63 0d 63 3e fa 5b b1 3c
       0.13644935 -0.0043260246 0.22173075 0.021650303
0001d0 e7 45 99 bc 1d e9 36 bd b5 fa 47 3e dd 2d 67 3e
       -0.01871009 -0.044655908 0.19529231 0.22576089
0001e0 7c 64 0d be 73 3b 92 be 75 44 28 be c5 2a 60 3e
       -0.13807863 -0.2856098 -0.16432364 0.21891315
0001f0 42 bc af 3d 91 6c 82 bd 2e 9a 20 3e c4 d2 01 3e
       0.08580829 -0.06368364 0.15683815 0.12678057
000200 c9 14 0d be 3e 86 e4 3b 9a b2 8b bd 60 09 5e 3e
       -0.1377746 0.0069740107 -0.06821175 0.21683264
000210 cd 25 88 bd 8a 1d 7a be ee 84 22 be 0a 0c 8f 3d
       -0.06647835 -0.24425331 -0.15871021 0.06984718
000220 44 b0 27 3e 5f 87 73 bc 59 bc 76 be a7 17 94 be
       0.16375834 -0.014863818 -0.24095286 -0.28924295
000230 66 6f 80 3e 01 01 7f 3e c9 70 42 3e 06 a6 31 be
       0.2508499 0.24902727 0.18988337 -0.17348489
000240 05 d7 21 be 14 51 d3 3d cd 30 17 bd 64 51 7d 3d
       -0.1580468 0.10318199 -0.036911774 0.0618452
000250 bd 90 23 be ca dc 0c be
       -0.15973182 -0.137561

encoder.0.bias f4 [6]
000000 3c 4d 2d 3e 8a a4 34 3e 49 70 05 bc 01 b4 28 3e
       0.16923994 0.17640892 -0.008144447 0.16474916
000010 bd f5 19 bd d3 e3 3a 3e
       -0.03758787 0.1825097

encoder.2.weight f4 [16, 6, 5, 5]
000000 0c 22 3f 3d f2 05 1a 3d 5c 0c 3c bd 2a 49 e3 3d
       0.04666333 0.037603326 -0.045910224 0.11097939
000010 1c c7 ac 3c 20 7b 28 bb c4 13 60 bd 81 c5 87 bd
       0.021091036 -0.0025708154 -0.05470635 -0.06629468
000020 ad 4d 89 bb ee 2f 53 3d 84 e3 02 be 8a a3 0e be
       -0.004190168 0.05155938 -0.12782103 -0.13929573
000030 0d 17 c1 bc 0d 3c 9d bc a0 ae f1 bc b2 86 09 be
       -0.023570562 -0.019193674 -0.029502213 -0.13430288
000040 c3 49 57 bd 81 51 0c be 63 e3 bb bc 36 fd b6 3c
       -0.05256058 -0.13702966 -0.022935575 0.022337537
000050 05 f2 d5 bd 24 1b 6e bd d3 78 a4 bd 0a c1 23 3c
       -0.10446552 -0.058131352 -0.08030858 0.009994755
000060 ac 85 4b bd 37 30 c0 3c 44 83 93 bc c8 a2 0c bd
       -0.049688026 0.02346049 -0.018006928 -0.034334928
000070 f9 bc 7b 3b f4 0f 9d 3c 6f bf af 3b bc 13 c6 3d
       0.0038412197 0.019172646 0.005363397 0.09671733
000080 6b 7d 8c 3c e8 1b 14 ba e2 9c d8 bc 6c 98 5f 3d
       0.017149648 -0.00056499103 -0.026441995 0.05458872
000090 ad 89 b3 3d ff e8 98 3d 44 03 42 bd 95 ba 0b bd
       0.08766494 0.074663155 -0.047366396 -0.034113485
0000a0 13 f3 66 3d 5b 89 ff bc 1b 74 10 bd 23 36 83 3d
       0.056384157 -0.031193426 -0.035266977 0.0640681
0000b0 93 7b ea 3d e1 9f a5 bd 70 c0 44 3d 17 1d cd bd
       0.11449351 -0.08087135 0.048035085 -0.10015314
0000c0 f6 27 86 bd c5 16 8f 3c 90 13 79 3d 12 ca 42 3d
       -0.06550591 0.017466912 0.060809672 0.04755599
0000d0 85 60 f6 3b b1 37 dc 3d 0a 7a 80 bb 1b 74 e7 bc
       0.0075188302 0.1075281 -0.003920798 -0.028253606
0000e0 e6 fa 3a 3d a8 40 1f bc d9 42 e6 bc 94 13 b4 3d
       0.04564943 -0.009720005 -0.028108047 0.08792797
0000f0 6e af e9 bd ab b5 bb bc 51 33 13 bd 16 a3 98 3d
       -0.11410414 -0.022913774 -0.03593761 0.07452981
000100 a0 3a 27 3d 8a 21 13 be 37 2b ac bd cf 23 ce 3c
       0.040827394 -0.14368263 -0.0840668 0.02516356
000110 a2 3e 86 bc 59 27 03 3d d3 cc dc bd 26 7f 8b bd
       -0.016387288 0.032019947 -0.107812546 -0.06811361
000120 da 4c c8 bc 77 a4 0a bd d3 25 d4 bc a0 ac 10 3a
       -0.024450708 -0.033848252 -0.025896942 0.0005518887
000130 f4 33 a1 3d ef 80 5c bd 2f 7a 1b bd 6b 16 9c bc
       0.078712374 -0.0538339 -0.03795832 -0.019053658
000140 6a 7f 00 3d 7b 0c c4 3d 13 ad 0a 3d bd f7 b2 3d
       0.03137151 0.09572693 0.033856463 0.087386586
000150 74 25 ce 3d 04 2d 8b 3d e5 b9 50 3d 00 a8 b1 bc
       0.10065737 0.067956954 0.050958533 -0.021686554
000160 89 e6 80 bd 42 d1 6a bc 1c b5 d2 3d 7a bd c8 3d
       -0.06293971 -0.0143321175 0.1028845 0.09801765
000170 59 77 1e 3c 2e 89 13 bd 41 c5 94 3d 0c b7 bd 3d
       0.009672009 -0.036019497 0.07264186 0.09263429
000180 e7 a8 f0 bc 0e ee c3 3c bd 80 53 bd ad 1b f8 bc
       -0.029377414 0.023917224 -0.051636446 -0.030286634
000190 8b 7d 48 3d a2 ce bd 3d 0b 4e a5 3d e0 1d 0b bd
       0.048947852 0.09267928 0.08071526 -0.033964038
0001a0 18 cc 47 bd 65 22 13 3d b2 f1 cb 3d af 65 cf bc
       -0.048778623 0.035921473 0.09958209 -0.025317041
0001b0 53 30 82 bd 74 31 6d 3d 18 ce e1 3d 81 72 36 3d
       -0.06356873 0.05790849 0.110256374 0.044542793
0001c0 62 4a 5a bd 58 e3 a9 bc 6c f9 51 bd c5 75 97 3c
       -0.053293593 -0.020738289 -0.051263258 0.018488774
0001d0 77 bf 60 3d 36 75 58 bd 6c ac 9c bd f7 ec 52 bc
       0.054870095 -0.052846156 -0.07650074 -0.01287388
0001e0 06 2d 3b 3d 34 12 3e bc 32 2d 1e bd 59 3d e8 3c
       0.045697235 -0.01160102 -0.03861732 0.028349565
0001f0 51 0a 34 bd c3 4d 78 3d d5 ca 47 bd 71 ce f5 bb
       -0.04395515 0.060621034 -0.04877742 -0.0075014164
000200 96 cb fe bb 0d 47 1b bd 5f 3c e1 3c 86 7e 63 bd
       -0.007775734 -0.037909556 0.027494607 -0.055540584
000210 0e ea ad 3d 75 a3 b9 3d 7b 4e 22 3d 64 9a 41 3d
       0.08491908 0.0906438 0.039625626 0.04726638
000220 0a 68 21 3d 83 05 a9 3c b0 74 76 bc 4f b8 7f bb
       0.03940586 0.020632511 -0.015042469 -0.0039019769
000230 27 05 8c 3d 58 83 80 3d 94 39 99 bb 15 11 44 3d
       0.0683692 0.06275052 -0.0046760533 0.047867853
000240 d4 47 6a bd 56 13 9b 3c 29 69 fa 3c da 81 d3 3c
       -0.057197407 0.018930119 0.030567722 0.025818754
000250 4d e4 a2 bc 4b 6e 86 3c 28 7d 64 bd eb 38 67 3c
       -0.019884253 0.016410014 -0.05578342 0.014112691
000260 8b 50 55 bd 9f 1a 79 3d aa a9 47 bc 4d 37 94 3d
       -0.052078765 0.060816403 -0.012186447 0.0723711
000270 06 79 83 3c fe 3e 78 bd d8 72 8d 3d df 05 ce 3c
       0.01604892 -0.06060695 0.0690667 0.025149284
000280 fc ac 4e bd 2a f8 3b bd 4f c3 7e bc de 27 43 3d
       -0.05045794 -0.045890965 -0.015549495 0.047645442
000290 33 da 1e bb 5d 0a 1d 3c 14 58 4e bc 87 ee 99 bd
       -0.0024238944 0.00958499 -0.012594242 -0.075161986
0002a0 94 2b f2 bc 2a d2 1b bd ec e2 2e bd 82 c7 96 bd
       -0.029561795 -0.038042225 -0.04269688 -0.07362272
0002b0 e3 e1 f0 bd 27 29 0b be c7 09 92 bd ee c1 60 3c
       -0.117618345 -0.13589917 -0.07130771 0.013718111
0002c0 44 ab 51 3d 6a 32 91 bd 99 98 11 bd f8 b0 a1 3b
       0.051188722 -0.07089694 -0.03554592 0.0049344264
0002d0 6c 30 d6 bc 16 90 a0 3c a1 41 5f 3b 62 cd 4f bd
       -0.026146136 0.019599956 0.0034066217 -0.050732978
0002e0 cd 20 59 bd 11 15 cb bb ff dd 1c 3d a7 c8 47 bd
       -0.053009797 -0.0061975797 0.03829765 -0.04877534
0002f0 3a 3b 22 bb 95 ee 1e bd 99 5d 85 3d 4d 8f 45 3d
       -0.002475454 -0.03880175 0.06511993 0.048232365
000300 cd 17 a4 bc ed da 22 3d e5 2d 96 3d 79 07 60 bc
       -0.02003088 0.039759565 0.073329724 -0.013673657
000310 05 f7 11 3d a9 85 52 bd 0d 51 82 3d e7 b9 df 3c
       0.035635967 -0.051397 0.063631155 0.027310325
000320 69 b8 2a 3d 91 ad 4b bd 27 db 39 bd 32 46 77 3d
       0.041679773 -0.049726073 -0.045375016 0.060369678
000330 ab a3 86 3d 61 fc 1f 3d aa dc 40 bd 1a 0b ef 3b
       0.06574186 0.039059047 -0.04708544 0.0072950246
000340 42 5a 21 3d b4 5a 3e bc dd 60 7a 3d 85 e3 8d bd
       0.039392717 -0.011618305 0.061127532 -0.069281615
000350 29 d0 9f bd 3b ce 7e bd e1 99 2d bd c5 a7 83 bd
       -0.07803375 -0.062208395 -0.04238308 -0.06428484
000360 69 16 00 bd c9 6e 1d be bd 4a 96 bd eb 6d d1 3c
       -0.031271372 -0.15374292 -0.07338474 0.025565108
000370 61 33 43 bc bc 7f b8 bd 0b 9b e6 bd 8f 18 30 bd
       -0.011914105 -0.090087384 -0.11260041 -0.04299217
000380 d2 68 82 3d bc 8e 6d 3d 2e 5f 9e 3d 02 d8 c4 bc
       0.06367649 0.05799745 0.07732998 -0.024028782
000390 4b e1 91 3d 2d 76 a3 3c 0d c3 e3 3c cf 58 88 3d
       0.07123049 0.019953812 0.027802968 0.06657564
0003a0 38 75 b1 3d 91 f7 7e 3c e0 4c 7d bd 1e 32 f6 bb
       0.08664936 0.015561954 -0.06184089 -0.0075132987
0003b0 03 2c 3a 3d 62 db 28 bd e2 e4 cf 3d bc 46 aa 3c
       0.04545213 -0.041224845 0.10151078 0.020785682
0003c0 48 e8 29 3d 67 96 eb 3d 75 74 d5 3c e6 af a9 3d
       0.041481286 0.11503296 0.026056508 0.08285503
0003d0 05 65 52 3d 61 78 4f 3d 0e fe 7b 3d 7c f5 5a bd
       0.05136587 0.05065191 0.061521582 -0.05345677
0003e0 ce a5 94 3d 7f 52 a5 3d b3 b7 31 3b 67 bb bf bc
       0.07258187 0.080723755 0.002711755 -0.02340479
0003f0 ce 37 86 3d 11 0b 6d bd cd 89 2b 3d d8 ac 21 bc
       0.06553613 -0.057871882 0.041879464 -0.009867869

encoder.2.bias f4 [16]
000000 a5 33 b7 3a 0e 21 20 3d 38 61 e8 3c 45 fa 50 3d
       0.0013977183 0.039094023 0.02836667 0.051019926
000010 e6 f5 d7 3d ee c5 bb 3b 17 56 74 3d a6 f8 21 bc
       0.10544948 0.005730382 0.059652414 -0.009885943
000020 90 3a bf 82 1f 62 0b 3e 97 35 1e 3d 1c 33 37 3d
       -2.809854e-37 0.13611649 0.038625326 0.044726476
000030 e9 23 da 3d 85 a6 ae 3c 5b 21 db 3c d1 cb 0e bd
       0.106513806 0.021319637 0.026749304 -0.034862343

encoder.5.weight f4 [10, 6400]
000000 76 fa f6 bb 2e db 06 bd 0f 41 b4 bc 8c a9 3d bd
       -0.0075371815 -0.03292387 -0.022003679 -0.04630427
000010 de 44 2a bd f3 49 b6 bc 83 58 0f bd c4 c8 0b bd
       -0.041569583 -0.022252059 -0.03499652 -0.034127012
000020 af cc 52 bc a0 39 df bb f9 ff 93 bc ba 8f 64 bc
       -0.012866183 -0.0068122894 -0.018066393 -0.013950283
000030 20 51 05 3b 8a c5 d7 3b a3 31 4c ba c7 3d 40 3b
       0.0020342544 0.006584828 -0.0007789379 0.0029333697
000040 e4 62 3c 3c 64 ee 1d 3c e1 f5 cb ba 43 e5 1d bc
       0.011498187 0.009639356 -0.0015560949 -0.00963718
000050 aa 8a 83 3b 8e 77 bc bc 2b c8 87 bc 88 8b ea bc
       0.004014333 -0.023006227 -0.01657494 -0.028630987
000060 c3 c8 1f bd 5a 9f ff bc 4c 63 a1 bc 9f 12 ac bc
       -0.03900982 -0.031203914 -0.019700669 -0.021004973
000070 ba 7c 0a 3c 5a 26 03 bc 4d b9 11 3a 62 ef ce b9
       0.008452589 -0.008004749 0.0005558923 -0.00039469736
000080 12 10 cc 3b e3 ae d9 3c 56 0b 56 3c 79 0d c4 3c
       0.0062275017 0.02657265 0.013064226 0.023932206
000090 02 46 e3 3b 36 1a 9b 3b 4d 6c 90 3b ad c1 57 bc
       0.006935836 0.004733349 0.0044074417 -0.0131687345
0000a0 30 44 0e 3d 81 21 a2 3c 64 42 3a bc 18 0a ab bc
       0.034732997 0.019791367 -0.011368368 -0.020878837
0000b0 db df a9 bc 31 51 a2 bc 2f 7f c1 bc 3d 81 28 bc
       -0.020736625 -0.019814106 -0.023620216 -0.010284719
0000c0 b2 a1 e3 bb 72 28 4b 3c 7a e7 81 3c 01 01 72 3c
       -0.006946766 0.01239978 0.015857447 0.014770747
0000d0 56 64 b4 3c f8 21 41 3c f7 0a 8d 3c 2b 56 1e 3c
       0.0220205 0.011787884 0.017217143 0.009664099
0000e0 94 92 73 3c 1a 07 a4 3a 24 6b 11 bb fb 4d 95 3b
       0.01486649 0.0012514323 -0.0022189105 0.004556415
0000f0 d9 7a 7d 3d a7 31 0a 3d 78 29 6a bb 7d f2 25 bc
       0.061884735 0.03373876 -0.0035730284 -0.0101286145
000100 53 cc 87 bc 00 4b ad bc 75 c6 29 3a 13 6e 42 bc
       -0.016576922 -0.021153927 0.0006476411 -0.011867064
000110 0c 9e 34 3a d9 05 b3 3b e5 75 94 3c 66 8c 9e 3c
       0.0006890006 0.0054633436 0.018122623 0.019354057
000120 a8 28 d1 3b d2 c4 79 3c a5 bf 72 3c 74 5d 3b 3c
       0.0063830204 0.0152446795 0.014816199 0.011435855
000130 ac 74 28 3c 7b 1f 3c 3c 03 66 27 3c 54 58 d0 3b
       0.010281723 0.011482115 0.010217193 0.006358186
000140 28 6b 66 3d a4 21 06 3d fb 53 02 bc ea 1d a0 bc
       0.056254536 0.032746926 -0.007954593 -0.019545514
000150 0f 2a 32 bc 00 e6 d0 3a 67 d0 05 3b 86 7e 72 3c
       -0.010874285 0.0015937686 0.0020418407 0.014800673
000160 fe 59 bd 3b e4 6a 82 3c 3d 18 20 3d 07 0e 19 3d
       0.00577855 0.01592011 0.039085615 0.037366893
000170 e8 a0 98 3c fc 1d 40 b9 46 0e 0e bc d6 41 5d bc
       0.018631414 -0.00018321717 -0.008670395 -0.013504466
000180 6b 3a af 3b f4 29 3f 3c f1 94 81 3c 4e 40 9e 3b
       0.00534754 0.011667717 0.015818091 0.004829443
000190 1b 29 f2 3c 17 e7 ab 3b e5 e3 96 bc f9 5e a6 bc
       0.029560616 0.005246054 -0.018419215 -0.020308958
0001a0 b9 3a 8a bb 3c 4b 57 bc 4c c8 84 3a d6 50 02 3c
       -0.004218426 -0.013140496 0.0010130494 0.007953843
0001b0 00 11 59 3c 30 55 08 3d 4a a3 12 3d b4 c8 41 3d
       0.013248682 0.033284366 0.035800256 0.047310546
0001c0 0c 29 c8 3c 14 0b 3c 3c a7 c4 04 bc bd 8b 19 3a
       0.024433635 0.011477251 -0.008103526 0.00058573094
0001d0 b1 18 1f bc ea 3a f1 b9 64 a1 08 3c 35 bb 28 3b
       -0.009710477 -0.00046010996 0.00833926 0.002574635
0001e0 e3 e3 8b 3c 2f 26 77 bc 0d 90 0c bd b0 24 29 bd
       0.017076438 -0.015084787 -0.034317065 -0.041294754
0001f0 d2 2c d5 bc ab 43 44 bc a2 d7 29 bb e0 d9 c4 3b
       -0.026022349 -0.011979024 -0.002591588 0.006007418
000200 eb 83 95 3c 35 03 fa 3c b6 4a 3a 3d 78 c1 e9 3c
       0.01825138 0.030519107 0.045481406 0.028534636
000210 d0 01 f2 3a 3d 3a 5e 3c cc fe 5e 3a ea 95 b1 bb
       0.0018463675 0.01356369 0.00085065956 -0.0054194825
000220 a2 b2 02 bc ab 5f ef bb 74 85 bf 3b 0f 33 4b bc
       -0.00797716 -0.0073051057 0.0058447663 -0.01240231
000230 82 0c 74 bc 3a 88 07 bd 50 5c 06 bd 0c 6e c4 bc
       -0.01489556 -0.0330889 -0.03280288 -0.023978256
000240 96 01 84 bc 76 9e b1 3b e9 6a 1d 3b 4b 75 c0 3b
       -0.016114037 0.0054205013 0.0024020022 0.0058733574
000250 98 08 7b 3b d4 a1 e3 3c 55 f0 ec 3c b8 b5 60 3c
       0.0038304683 0.027787127 0.028923193 0.0137152
000260 a5 c5 f6 3a 0a de b5 bb 47 2c d4 bb 9c b3 f6 3b
       0.0018827213 -0.0055501508 -0.006475005 0.0075287353
000270 d4 eb 8f 3b b5 08 27 3c 3b 43 ee 3b da a5 52 bc
       0.0043921266 0.010194947 0.007271198 -0.012856925
000280 ba bf 43 bc 97 67 8e bc 21 81 c9 bc f2 9b 94 bc
       -0.011947567 -0.01738338 -0.024597706 -0.018140767
000290 81 19 1a bb f2 8f 2e bc 99 63 cf bb 56 44 ca 3b
       -0.0023513737 -0.010654436 -0.0063290116 0.006172697
0002a0 5d 68 c0 3b a9 fb 00 3d 49 e5 e4 3c d1 f5 b9 3c
       0.005871816 0.03149 0.027941363 0.022700222
0002b0 51 cf 32 bb 28 69 df b9 32 25 f8 3b 20 d2 37 3b
       -0.0027284215 -0.00042612222 0.0075727934 0.0028048828
0002c0 c7 00 63 bb 70 6a 4b 3c 83 47 12 bc e2 67 77 bc
       -0.0034637915 0.012415513 -0.008928183 -0.015100451
0002d0 ac 12 95 36 db cd b4 bc 3f b7 fc bc 11 e8 72 bc
       4.4427197e-06 -0.022070816 -0.030849097 -0.014825837
0002e0 54 d3 6a bb bf a6 3a bc 57 ab 86 bc a4 42 82 ba
       -0.0035831528 -0.011392294 -0.016439123 -0.0009938073
0002f0 e2 11 ff 3b 9f 9d a3 3c 74 90 cf bb 65 c9 5a 3c
       0.007784114 0.01997262 -0.006334359 0.01335368
000300 95 a7 77 3b 8b fd 16 3c d5 a5 b3 3c 82 42 90 3c
       0.0037789096 0.009215723 0.02192966 0.017609838
000310 0e 36 00 3c 99 d1 82 3b 76 50 04 3c 7c 1d 1f bc
       0.007825388 0.003992271 0.008075824 -0.0097116195
000320 52 b3 07 3d 60 b3 eb bb 1c c9 1b bb bc d2 ac 3b
       0.033129998 -0.007193014 -0.0023770994 0.005274145
000330 48 c1 17 3c b8 ec 01 3b f2 7d b3 bb 01 8b 7f 3c
       0.00926239 0.0019824933 -0.0054776603 0.015597106
000340 37 b4 26 3c 2e 4e 63 ba 38 91 50 3b a1 41 69 3c
       0.0101748025 -0.00086710125 0.0031824838 0.014236839
000350 ce da ca 3c 30 4d 13 3c b8 26 44 3c 7c 33 ae bb
       0.024762537 0.008990571 0.011972122 -0.005316196
000360 3a d5 36 bb 42 72 be bb f3 88 07 3c 05 7b 94 bc
       -0.002789809 -0.0058119604 0.008272397 -0.018125067
000370 5f 25 17 3d 86 26 43 3b 83 89 b0 bb f4 3f 3c 3b
       0.036900874 0.00297776 -0.0053874864 0.0028724642
000380 24 07 df 3b bd a7 2c bc 76 9f 48 3c 14 ca fd 3b
       0.006806271 -0.010538039 0.01224505 0.007745037
000390 75 08 ac 3b b5 26 3a bb 2a af b8 3b 59 94 8e 3b
       0.0052500316 -0.002840442 0.0056361156 0.0043511805
0003a0 dc 16 de 3c 35 7e c2 3b 23 fc a9 39 18 77 d3 3b
       0.02711051 0.005935455 0.00032422048 0.006453406
0003b0 ea ed b8 ba eb 5e 4e bc 15 1a b6 bb fa f7 83 bc
       -0.001410899 -0.012595872 -0.0055573084 -0.016109455
0003c0 30 0d 2f 3d bd e2 9f 3c b7 64 a4 3b 35 11 82 3c
       0.042737186 0.019517297 0.005016889 0.015877346
0003d0 a7 4b dd 3b f6 39 81 ba c1 0f 87 3b 6a 48 9d 3c
       0.006753403 -0.0009859193 0.004121751 0.019199569
0003e0 13 f4 0e 3c e2 0b 64 bc 58 98 10 3c ed ed c5 3c
       0.008725184 -0.013918849 0.008825384 0.024161303
0003f0 38 ff 86 3c 35 e2 c7 3b aa 21 09 3c b1 5a 8b ba
       0.01647912 0.006099964 0.008369843 -0.0010631887

encoder.5.bias f4 [10]
000000 ef 03 fa 3b ca fe cf bb 33 5a c7 3b df 28 09 3c
       0.0076298635 -0.006347512 0.0060837506 0.008371561
000010 34 1b 71 bb 4c 91 3a 3c 47 2f be 3b 97 0e c8 ba
       -0.0036789896 0.011387181 0.0058039757 -0.0015263137
000020 c7 40 e8 39 a8 b9 44 bb
       0.0004429875 -0.0030017886

decoder.0.weight f4 [6400, 10]
000000 85 89 86 3d 08 49 4b 3d d5 03 aa 3d 83 20 69 bd
       0.065691985 0.049630195 0.08301512 -0.05691577
000010 79 38 44 3e 1d 1e 59 3d fb 38 72 be 8e 6a ca 3d
       0.19162168 0.053007234 -0.23654549 0.09883605
000020 1c 7e 51 3b a3 88 27 3e 9b 3d 3f 3d c2 f6 03 bd
       0.0031966036 0.16360717 0.04668961 -0.03221775
000030 29 8b 0b bc c7 dd aa 3c b2 bb bf bd b9 55 16 be
       -0.008517065 0.020857705 -0.09361972 -0.14681138
000040 a6 d5 77 be 34 6b 20 3e 19 ca 4b 3e 9d 8c 12 3d
       -0.24202594 0.15665895 0.19901313 0.03577863
000050 05 d7 02 bd ba 70 6a 3c d7 ff ac 3c 67 c9 24 3e
       -0.03194334 0.014309103 0.021118088 0.16092454
000060 08 1e a8 bd 80 06 9a 3d 03 ef 5f 3e 69 56 f1 bc
       -0.08208853 0.07520771 0.2186852 -0.029460149
000070 02 e2 73 3e e5 70 41 be d9 37 94 3c 86 86 8a bc
       0.23816684 -0.18890722 0.018093036 -0.016909849
000080 82 8d 3e 3e ee 14 de bd 97 37 26 3d ca 4d 1d 3d
       0.18608668 -0.10843836 0.04058036 0.038404264
000090 88 6f 49 bd 91 1b e2 3d 14 3e 95 3b 70 50 83 3e
       -0.04917863 0.11040414 0.0045545194 0.25647306
0000a0 a2 fe 09 be e2 f8 ff bd f1 2e b6 3d 50 bd d1 3d
       -0.13476041 -0.124986425 0.08895672 0.102411866
0000b0 8d 17 d5 bd ad 00 34 bd c1 0b 79 bb 56 94 4b 3e
       -0.104048826 -0.043945957 -0.003800139 0.19880804
0000c0 d5 93 dc bd 26 04 2b 3e 4f 9b 09 be fc 26 82 3e
       -0.10770384 0.16700801 -0.13438152 0.25420368
0000d0 3e 8c 85 be b9 af 17 3d 00 33 35 bd 7f 3f 49 bd
       -0.2608356 0.037032817 -0.04423809 -0.04913282
0000e0 5d ab 58 3d 0f e2 20 3e bb d6 fb 3c 55 17 d3 bd
       0.0528978 0.15711235 0.03074204 -0.103071846
0000f0 c1 c3 07 be c5 3f 69 bb 7f 69 fa bd 1a c2 59 be
       -0.13258268 -0.0035590988 -0.12227153 -0.2126545
000100 28 41 03 be 7a ba 64 3d aa ee e5 bd 47 80 88 3e
       -0.12817824 0.0558419 -0.11227162 0.26660368
000110 f0 2a 02 3e 0e 2b b7 3b 44 51 79 3d d0 c9 ad bc
       0.12711692 0.0055898493 0.060868517 -0.021214396
000120 f4 02 9e bd 36 35 9b 3e 88 86 11 be d6 94 dc 3c
       -0.07715407 0.30314034 -0.14211476 0.02692644
000130 e3 27 7b 3e 61 e2 79 3e db 32 1e 3e 7e 7e 73 3e
       0.24526934 0.24402763 0.15449087 0.23778722
000140 4f a8 01 bc c6 2f ba 3b 47 84 85 be d3 97 a8 3c
       -0.007913663 0.0056819646 -0.26077482 0.020580208
000150 74 3e 54 3e f9 31 65 be 41 f5 c4 bd 0d e8 0c 3e
       0.20726949 -0.22382344 -0.09617091 0.13760395
000160 5f 87 13 bd 3f 71 43 3d 0c c3 18 be 21 56 62 3e
       -0.03601777 0.04771542 -0.14918154 0.22103168
000170 b0 c4 93 be a4 be 13 3d 75 98 30 3e 36 70 13 bd
       -0.28860998 0.03607048 0.17245658 -0.035995685
000180 2b 81 0e 3c eb cd 7b be 36 3d a6 3e 5a 9e 33 be
       0.008697788 -0.2459027 0.32468575 -0.17540875
000190 99 61 02 3d 02 08 c4 3d f1 94 ac 3c 10 4f 14 be
       0.031831358 0.0957184 0.021067115 -0.14483285
0001a0 03 89 46 bd 56 7e 07 be 43 d4 d8 3d 2e 83 84 3e
       -0.04847051 -0.13231787 0.10587361 0.25881332
0001b0 b9 55 1d be 25 63 0d 3d 64 be 2a be 3f b1 0c 3d
       -0.15364732 0.03451838 -0.16674191 0.034348723
0001c0 e2 af 61 bb b1 b8 42 3e 7f 47 dc bd 6e cd 68 3e
       -0.003443711 0.19015767 -0.10755824 0.22734615
0001d0 a1 ec cc bd 85 49 89 3d 31 ef 66 3e 25 cc 02 be
       -0.10006071 0.06703476 0.22552182 -0.12773187
0001e0 f6 3c 05 be ac 16 7c 3e a2 5e 39 3d 12 c5 1e 3e
       -0.13011536 0.24618024 0.045256265 0.15504864
0001f0 c9 69 4c bd 29 62 65 3d f1 39 30 be ac 23 9a bd
       -0.049905572 0.056001816 -0.17209603 -0.07526335
000200 03 db 15 be 20 ba 3c 3e 38 eb 1a 3e 38 e5 91 bd
       -0.14634328 0.18430376 0.15128791 -0.07123798
000210 fb 65 d2 3d 12 e1 f7 bd ce 1b a4 bd ff 6c 09 be
       0.102733575 -0.12103476 -0.08013116 -0.13420485
000220 dc 27 88 3d 67 34 4d 3e a5 3f 9a bd f4 6c e9 bb
       0.066482276 0.20039521 -0.075316705 -0.007123584
000230 26 8c 85 3e cd 5f 20 3e 19 8f 48 3e b1 c2 e2 3d
       0.26083487 0.15661545 0.19585837 0.11072291
000240 66 c8 15 3e 8c cd 60 be 97 98 47 be 85 6c f0 3d
       0.14627227 -0.2195341 -0.19491802 0.117394485
000250 a7 91 35 be 99 b2 00 be 40 dd 63 3e b9 34 25 3e
       -0.17731343 -0.1256813 0.22252369 0.16133393
000260 15 e7 8b 3d a0 c8 51 be 3f 2b 71 3e c7 82 04 be
       0.06831185 -0.20486689 0.23551653 -0.12940513
000270 d5 4b a3 3d a5 52 a7 be fd 2f b2 bd c3 a2 fd bc
       0.07973448 -0.3268024 -0.08700559 -0.0309614
000280 bf f8 31 3e 6d 2e ea 3d dc 42 97 bd 09 bb 99 bd
       0.17380045 0.11434636 -0.07385799 -0.07506377
000290 f6 69 90 be 76 ed 5d 3e 08 3b 6f bc b4 44 d5 bd
       -0.28205842 0.21672615 -0.0146014765 -0.10413495
0002a0 c1 cc 16 3e 62 aa 0f 3e 03 c5 33 be ee 65 16 3e
       0.14726545 0.1402984 -0.17555623 0.1468732
0002b0 3e db d8 bd bb 3f e0 3d 96 e0 66 be ff ee 75 3d
       -0.10588692 0.109496556 -0.2254661 0.060042378
0002c0 67 ca 56 3e 3d 18 07 be 4f fc 22 3d ab c8 27 3e
       0.20975648 -0.1319284 0.0397914 0.16385143
0002d0 b4 7d 90 bd f4 18 fd 3c d2 3f 29 3e 8d 97 ba bd
       -0.07055226 0.030895688 0.16528252 -0.09110937
0002e0 d2 3d be bd 05 a8 c3 bd df 86 13 be 31 88 7f bd
       -0.09289135 -0.095535316 -0.14406918 -0.06238574
0002f0 29 55 64 be b8 df 1a 3e 37 56 0f 3e da f8 17 bd
       -0.22298111 0.15124404 0.13997732 -0.037102558
000300 af d9 17 3d f9 87 65 3e c9 e4 78 3e 11 86 2f 3e
       0.037072834 0.2241515 0.24306025 0.17140986
000310 45 93 01 be ac 00 35 be eb 74 ec bd e4 dc ef bd
       -0.12653835 -0.17676038 -0.11545738 -0.117120534
000320 ba e9 28 bd c4 43 f6 3d f1 8b 20 3d f2 37 24 3c
       -0.041238524 0.12024644 0.03919596 0.010023104
000330 7a 62 52 be 69 70 95 bd 2e b1 31 bd 78 bf 8b bc
       -0.20545378 -0.07296831 -0.043381862 -0.017059073
000340 9e 3b e1 3d 97 b5 fb 3b be 0b 96 3d 2d e2 29 3e
       0.10997699 0.0076815593 0.073264584 0.16590185
000350 59 77 e6 3d 39 77 77 3d 69 19 25 3e ef 75 43 bd
       0.112532325 0.060416434 0.16122974 -0.047719892
000360 c1 99 c3 3d 18 78 2b 3e 92 81 52 be b6 87 9b 3d
       0.095508106 0.16745031 -0.2055724 0.07594244
000370 0e 56 fc bd 72 d9 6b 3d 47 f4 3a 3c 6b 20 f6 bd
       -0.12321101 0.05758042 0.011410779 -0.12017902
000380 48 d2 ba bd 7c e3 e5 3d 74 4f 7f 3d d0 ca e1 bd
       -0.09122139 0.1122503 0.06233163 -0.110250115
000390 2e b9 bd bd 03 ed 23 3e 2b 23 34 bd 9e 29 28 3d
       -0.09263836 0.16008382 -0.04397885 0.041055314
0003a0 93 c3 31 bd 9e 10 e4 bc 2b ea 3a 39 21 6a 92 bd
       -0.043399405 -0.027839955 0.00017825577 -0.07149149
0003b0 0c ca bf 3d 03 8e 1b be a2 0d 76 3e a0 81 b8 bd
       0.09364709 -0.15190892 0.24028638 -0.09009099
0003c0 f7 c3 a1 be 48 29 76 3e 84 45 3c 3c 49 4e f3 bd
       -0.31594822 0.24039185 0.011491183 -0.11880166
0003d0 c6 80 79 be 1f d3 aa bd 98 26 0a be bb c0 91 bd
       -0.2436553 -0.083410494 -0.13491285 -0.071168385
0003e0 07 e7 12 be 1e 0d 40 3d 22 d9 0b 3d 37 42 b6 3d
       -0.14345942 0.04688751 0.03414262 0.08899348
0003f0 83 b4 0e be 09 97 2b 3e d2 de a3 bd bb 46 4b bd
       -0.13936047 0.16756834 -0.08001484 -0.049628

decoder.0.bias f4 [6400]
000000 ed 8a 67 3c 7e ec 2e 3c 2d bf fe b9 ae 7d be 3c
       0.014132244 0.010676501 -0.00048589092 0.023253288
000010 ee 04 80 3b 8f 28 18 3c be 97 6a bc e6 7b fa bc
       0.0039068377 0.009287014 -0.014318405 -0.030576658
000020 f1 9c 38 bd 02 ff 56 bd b6 e1 7a 3a 39 2b 81 3c
       -0.045071546 -0.05248929 0.0009570377 0.01576768
000030 d8 09 9f ba e4 b9 97 3b b7 fe cc bc 96 c8 55 3d
       -0.0012133671 0.004630314 -0.025023801 0.052193247
000040 30 56 03 3d 4a 28 77 bc 3d 79 bb 3b b8 c9 88 3c
       0.032064617 -0.015085289 0.00572124 0.01669775
000050 fa dd f9 3b 01 4f 61 3c 03 b6 ad 3c d1 c3 ec 3a
       0.0076253386 0.013751746 0.021204954 0.0018063729
000060 ea 72 d7 3c c5 9a ba bc 3e 15 44 3c 7b 3c 52 3d
       0.026299912 -0.022778878 0.011967955 0.05132721
000070 cf 85 b9 bb 97 18 eb bc 0e 93 48 bc 74 0d 49 bc
       -0.005661703 -0.028698249 -0.012242092 -0.012271274
000080 8d a6 5f ba 35 b3 f7 3c b4 20 49 bc e5 96 f1 3c
       -0.0008531593 0.03023682 -0.012275863 0.029490897
000090 1c cd db 3a eb 63 95 bb 8d 9b 99 bc e6 c1 5e bc
       0.0016769501 -0.0045590303 -0.01875093 -0.013596034
0000a0 d5 e4 e6 ba 0d 14 73 3c 3d 62 6a 3c 4e 77 d9 3b
       -0.0017615805 0.014836323 0.014305648 0.0066365367
0000b0 40 0a 91 ba d6 2b e0 ba 35 30 6d bc c0 1e 94 bc
       -0.0011065677 -0.0017102908 -0.0144768255 -0.018081069
0000c0 5f db af 3c 3a 3a 14 3d c2 d3 0b bc f2 82 13 3d
       0.021466909 0.03618834 -0.008534374 0.03601355
0000d0 5d e5 94 bb d2 c0 c8 bc e1 72 f9 bc 26 11 44 bd
       -0.004543944 -0.024506006 -0.030450286 -0.047867917
0000e0 b9 1e 10 bd c0 58 83 bb a1 dd 4e 3b cc e4 43 3a
       -0.03518555 -0.0040083826 0.0031565207 0.0007472753
0000f0 90 01 ab ba 42 c7 2c 3c bf 9d 62 3c 4c 35 f0 bb
       -0.001304673 0.010545554 0.013831555 -0.007330572
000100 d3 92 3c 3a f1 97 a9 bb dc f8 a8 bb 6e 94 5e 3c
       0.00071935094 -0.0051755835 -0.0051566195 0.013585193
000110 5e d3 06 3c c9 1a 0e 3d 78 23 36 3c 29 9b 41 3d
       0.008229105 0.034693513 0.011116855 0.047267113
000120 11 93 76 bb 76 b2 95 bb 26 9b a8 3b c0 49 5f bc
       -0.003762428 -0.0045683933 0.0051454483 -0.013628423
000130 4f 5c 6a bc 80 84 f6 3c c3 1e d6 3c 2e 25 81 3b
       -0.014304235 0.030092478 0.026137715 0.0039411997
000140 21 1f 9a 3c 1a c2 09 bc f8 4e bf 3b 6a 23 46 3c
       0.018813672 -0.008408094 0.005838271 0.012093404
000150 87 2b 5e bc 7b 7c 15 3d 4e 91 96 3c 3d aa 07 3d
       -0.013560182 0.036495667 0.018379834 0.033121336
000160 4a 19 ae 3c ea 79 0c 3e e9 61 89 3d 57 c8 8b bc
       0.021252293 0.13718382 0.06708128 -0.017063303
000170 20 3f 1c bb 82 06 37 bc f5 b6 24 3d cd 30 51 3b
       -0.0023841336 -0.011170985 0.040213544 0.0031919957
000180 11 83 38 3c 60 90 8a bc 02 c3 bc 3c 6d 26 16 3c
       0.011261717 -0.016914546 0.023042206 0.009164435
000190 f5 6f a7 ba 3d 49 0c bc 4f 17 6c 3c 29 df 01 3a
       -0.0012774455 -0.008562383 0.014409854 0.0004954213
0001a0 05 c9 22 bb 15 2a 1f 3d 60 93 9a 3d 03 ec 2c bb
       -0.0024839055 0.038858492 0.07547641 -0.002638579
0001b0 82 8b a9 3d c1 b8 a9 3c 04 6a 61 3c 80 34 fc 3c
       0.08278562 0.02071798 0.013758186 0.030786753
0001c0 1b 2f 50 3c 9c f4 22 3d 98 10 b9 3c 34 3a c6 bb
       0.012706543 0.03978406 0.02259092 -0.006049419
0001d0 14 71 c5 3b ba 1e 3e 3d b5 fb 39 3c 0b 54 6e 3c
       0.006025443 0.046416022 0.011351516 0.014546405
0001e0 a1 3f 8c 3c ee 20 99 bc 75 6d 80 ba 01 ba a2 b9
       0.017120184 -0.01869246 -0.0009798246 -0.00031037632
0001f0 fb fc f6 3b 6c bf ce 3d c1 f9 86 3d e6 da 1f 3c
       0.007537482 0.100951046 0.065906055 0.009756779
000200 b9 70 58 bb 94 aa c1 3c 40 9f 34 bc 60 99 23 bc
       -0.0033026172 0.023640908 -0.011024296 -0.009985298
000210 a2 b6 38 bd e2 4a a6 3c 1b 14 cd bc 00 30 a8 3a
       -0.045096047 0.020299379 -0.025034001 0.0012831688
000220 e9 47 14 3d 65 19 3b 3c 75 81 57 3b d5 67 1c bb
       0.03620139 0.011419629 0.003288356 -0.00238656
000230 ec 74 1f 3c 5a 36 dc 3b f8 45 4f 3b b4 50 27 3d
       0.009732466 0.0067203464 0.0031627398 0.04084845
000240 c3 7f d6 bb 8b 6a 9d 3b a6 b0 a5 3d 58 2c b6 3d
       -0.006545992 0.0048039607 0.08090334 0.08895177
000250 55 7c 3c bd e9 13 21 3d aa 99 c1 bb a5 39 d7 ba
       -0.04601701 0.03932563 -0.0059082108 -0.0016420378
000260 22 dc 25 3a 06 07 8c 3b e6 eb c9 3b 74 7e 76 3d
       0.0006327053 0.004273298 0.0061621545 0.06017919
000270 96 8b a9 3c 78 ac af 3c b2 bf dd 3c e0 d7 ed 3b
       0.020696443 0.021444544 0.027068947 0.0072584003
000280 3a 2b 16 bc 9e 67 84 3c 3d 06 80 bb 1c 64 8d 3a
       -0.009165579 0.01616269 -0.0039069937 0.0010787281
000290 a2 9f e8 3b 0f 53 18 3d bc a0 47 3c 26 80 48 bd
       0.007099108 0.037188586 0.012184318 -0.048950337
0002a0 d6 c7 0e bc 63 9c 65 bd 59 5b 95 3b c1 ee e3 ba
       -0.008714637 -0.056057345 0.0045580086 -0.001738988
0002b0 58 4c 7b bc 8f 52 13 3d e8 0b 74 3c ce e2 f0 ba
       -0.015338026 0.035967406 0.014895417 -0.001837814
0002c0 a9 c1 46 3c 6f c7 94 3c 09 27 e6 ba b0 fb 0e 3c
       0.012131133 0.018161504 -0.0017559241 0.008726999
0002d0 d2 13 60 3c e1 8d 0f 3d 95 b1 93 3c 71 06 c5 3b
       0.0136766005 0.035047416 0.018029014 0.0060127308
0002e0 60 28 4f 3d 84 72 00 3d 5e e3 cf bc 4e f2 d8 3b
       0.050575614 0.03135921 -0.025376972 0.006620682
0002f0 b8 94 e9 39 b1 ab 0d bc 33 a0 b7 3a f2 f0 d0 bc
       0.00044552027 -0.008646891 0.0014009535 -0.025505517
000300 de ef c9 bc 66 88 0e bd 55 c1 dd bb 2b ec dc 3c
       -0.02465051 -0.03479805 -0.0067674317 0.026968082
000310 6c ff 19 3d 95 ea 6c bb 3e 9c 72 3c d6 28 cc 39
       0.037597105 -0.0036150564 0.014807759 0.00038940337
000320 c9 df 8c 3b 2c 08 48 3c 50 21 ef 3c 94 59 7a 3c
       0.004299138 0.01220898 0.02919069 0.015280146
000330 bc 9e f9 bb f2 ba 2f bc b0 09 a1 bb b2 a6 a6 bc
       -0.0076177996 -0.010725724 -0.004914485 -0.020343158
000340 bf d7 2f bc 32 73 7f 3c b4 c4 6c bc 36 0a 3f bb
       -0.01073259 0.01559143 -0.014451195 -0.0029150373
000350 7a c5 97 3d 16 e5 ef bb fb 29 af 3d ef 58 f3 3c
       0.074107125 -0.0073210103 0.08552929 0.029705493
000360 fa 10 fb bb 19 99 78 3b ab 0f 7d b9 c0 76 aa 3b
       -0.007661936 0.003793305 -0.00024133797 0.0052021444
000370 e1 01 49 3c 41 05 21 3c cc b9 10 3c 69 72 0d 3c
       0.012268514 0.009827913 0.00883336 0.008633235
000380 28 ab d5 3b 9f c5 88 3b c1 27 25 bc 7b 0f 7b b9
       0.0065206476 0.004173949 -0.010080279 -0.00023942992
000390 8f 9f 05 bd 30 18 5a bb b4 a3 a6 3d 78 a9 83 3d
       -0.03262287 -0.0033278577 0.08136693 0.06428808
0003a0 79 aa b6 3d d8 ea a5 39 5d 80 88 3c 8a 0e b2 bc
       0.08919234 0.00031646225 0.01666277 -0.021735448
0003b0 8b 79 8b 3b be 02 24 3b 56 e8 a5 3b d8 a6 f0 3b
       0.0042564324 0.0025026049 0.005063097 0.007344108
0003c0 a7 b5 39 3b 29 b9 b6 3b 53 58 c2 3b b0 6c 3d 3c
       0.0028337033 0.005576272 0.005930939 0.011561558
0003d0 6d e7 5f 3c f6 5b c8 3c df 22 8f 3d 49 e2 c2 3c
       0.013666016 0.024457913 0.06989073 0.023789542
0003e0 00 49 e5 3c 18 0f d5 3c 37 2a d0 3b 0c 83 c9 3d
       0.02798891 0.026008174 0.0063526887 0.09839448
0003f0 b4 30 cb bc f0 5f 8e bb 99 53 fd 39 63 78 23 bc
       -0.024803497 -0.0043449327 0.00048318206 -0.009977433

decoder.3.weight f4 [16, 6, 5, 5]
000000 e3 77 04 3d f8 77 9d bc 07 6f b7 3c 3a c9 d6 bc
       0.032340895 -0.019222245 0.02239181 -0.026219
000010 6c 67 2e bc 69 af 86 3c 62 5a eb bc 44 91 f4 3c
       -0.010644775 0.016441064 -0.028729621 0.029854424
000020 28 6f af bd 77 e9 a6 bd c6 5b 53 3d 44 60 01 bc
       -0.08566123 -0.08149999 0.051601194 -0.007896487
000030 b7 1a 21 bc 1a cc 07 bd 4e cf 93 bd 82 33 64 bd
       -0.0098330295 -0.03315363 -0.072172746 -0.055713184
000040 d2 c2 5f bd 60 fe ae bd 1c b6 ee bd 69 af 10 be
       -0.054629155 -0.08544612 -0.11655828 -0.14129414
000050 f1 da a5 bd 09 ef d1 bd a7 98 2b bc dd 8f a3 bd
       -0.080984004 -0.102506705 -0.010473407 -0.07986424
000060 73 f0 01 be da 77 d3 3d 40 3e 34 3d 0f 2c 11 bd
       -0.1268938 0.10325594 0.04400468 -0.03544241
000070 82 a8 38 3d c6 ca 66 3c f6 3b bc 3a ee 6d 36 ba
       0.045082577 0.014086431 0.0014361131 -0.000695913
000080 ff e3 90 bc ca 98 b8 bd 04 b7 a3 bc 0b 03 8a bd
       -0.017686842 -0.09013517 -0.01998473 -0.06738862
000090 bc 61 44 bd cb be 97 bc 55 8e e7 3c f2 2f fc bc
       -0.04794477 -0.018523594 0.028266111 -0.03078458
0000a0 b5 28 2f 3c 94 54 88 bd 32 aa 4b 3d ba 9e 6b bc
       0.010690858 -0.06656757 0.049722858 -0.014381105
0000b0 df aa 12 bd 0c d2 2f bd aa 0d 1f 3c 9a 67 60 bd
       -0.035807487 -0.042924926 0.009707848 -0.054786302
0000c0 7f 81 80 bc b9 ff 22 3d c7 3d 8a bd d3 23 1b bd
       -0.015686749 0.039794657 -0.06750064 -0.03787596
0000d0 1b d0 88 bc ad d6 8b bc 63 61 83 bc bf a1 5f bd
       -0.016700795 -0.017070139 -0.016037649 -0.054597612
0000e0 a9 cf 15 bb 3c 11 82 bd 4f f4 b2 bc 8a ca 20 bd
       -0.002285937 -0.063509434 -0.021845011 -0.039255656
0000f0 ee f5 91 bd 63 03 61 bd f7 f5 03 3d b6 e6 19 bd
       -0.071269855 -0.05493487 0.032216992 -0.03757354
000100 e6 cf 6e bd b5 01 97 bc 01 9e b6 bc de 54 97 3d
       -0.058303736 -0.018433431 -0.022292139 0.07389234
000110 9b 53 82 bd 82 48 13 bd 17 47 1f 3c 3e fa 2d 3d
       -0.06363603 -0.03595782 0.009721539 0.042474978
000120 50 69 fd 3c 51 6c d2 3c ff bb 37 bd f2 d6 44 bc
       0.030934006 0.025686415 -0.04485702 -0.012014138
000130 ec 1a aa 3c d7 6c 91 3d 19 08 30 3d ba cf 3f 3d
       0.02076479 0.07100838 0.042976473 0.046828963
000140 c2 f8 80 3d 65 81 9c 3d 62 63 dd 3d 4a 04 ca 3d
       0.06297447 0.076418675 0.108099714 0.09864099
000150 3c 75 02 3d 94 ce 84 3d 9b a1 5e 3d 8b 06 97 3d
       0.031850085 0.06484714 0.054353338 0.07374295
000160 37 ea 9a 3d 08 a0 b4 bb 3f 83 79 3d 9b ee 86 3c
       0.07564204 -0.0055122413 0.06091618 0.016471198
000170 ae e6 44 3d ef c9 3c bc 63 b9 62 bc 22 5c c0 3c
       0.048071556 -0.011522754 -0.013838145 0.023481432
000180 0c e2 03 3d cb 3a 42 3d 86 bc 96 ba 9d 6b 5e bc
       0.032197997 0.04741935 -0.0011500276 -0.013575462
000190 ae 61 21 bc 89 6c bd 3c 41 3e 81 bc b1 d0 ad 3c
       -0.009849949 0.023123043 -0.015776755 0.021217676
0001a0 b7 09 96 bd 15 70 8d bc 91 18 15 bd c6 0d 66 3d
       -0.07326072 -0.017265359 -0.03640038 0.05616548
0001b0 34 83 3e 3c b0 81 3c bd b1 d9 69 3d 0b 54 7d bc
       0.011627961 -0.046022117 0.057092372 -0.015461932
0001c0 bc e3 df 3a b2 e8 97 3d 1b f0 d2 3d 79 f2 18 3d
       0.001708142 0.0741743 0.10299703 0.037340615
0001d0 45 8a 85 3d c5 80 a0 3d 08 d4 0c 3d 93 9e f5 3d
       0.065205134 0.07837061 0.034381896 0.11993136
0001e0 17 75 7e 3d 48 21 14 3d 0f 7b d3 3d 51 50 24 3d
       0.062123384 0.036164552 0.10326206 0.04011566
0001f0 b3 0c bf 3d 10 5b bb bd 53 7b c8 3c 52 d9 4f bd
       0.09328594 -0.09148228 0.024472868 -0.050744362
000200 65 46 2c bd 04 eb 63 bd 9f 36 53 bd b1 59 93 bb
       -0.04205932 -0.05564405 -0.051565763 -0.004496776
000210 94 c2 54 3c c5 79 dc bc 11 db 99 bd 7d c4 15 bd
       0.012985844 -0.026913533 -0.07512487 -0.03656434
000220 2d 30 3a bd 6d be 84 bd cb 0b ef bd 8b af 1b bc
       -0.0454561 -0.06481633 -0.11672171 -0.009502302
000230 39 1a cf bb 53 93 57 bd a7 a5 f1 3c f4 35 24 bd
       -0.0063202647 -0.052630734 0.029497935 -0.040090516
000240 c9 10 88 bc f0 be be bc 3f 78 73 bc 2b e5 90 3d
       -0.016609566 -0.023284405 -0.014860212 0.0707496
000250 72 f3 b9 ba 77 e3 7a 3d ab 18 06 3d e5 86 7f 3d
       -0.0014186932 0.061252084 0.03273837 0.062384505
000260 9e 2a e6 bb 34 58 8c 3d da ef 26 3d cb a2 dd bb
       -0.0070241233 0.06852761 0.040756084 -0.006763791
000270 d9 f5 e0 bc df b4 f1 3b c6 bb 60 3d d3 a6 8b bc
       -0.02746098 0.007376298 0.054866575 -0.017047321
000280 66 18 1b 3d 3e 40 3b 3d 10 2a c6 3d 74 74 fd 3c
       0.037865065 0.045715563 0.096759915 0.030939318
000290 e5 c4 b3 3c 6c ce 23 3d d8 e8 0d 3b 2d ef c4 3c
       0.021944473 0.03999178 0.0021653678 0.02403983
0002a0 35 f4 fa 3c e4 7c b1 3b 50 fa f5 bc 09 1f 3b 3c
       0.030634025 0.0054164995 -0.030026585 0.011420974
0002b0 09 67 c2 3c 13 86 47 3d 3c 6f 1e bc 8b 88 2c 3d
       0.023730772 0.048711848 -0.009670075 0.042122405
0002c0 ca e7 ec 3a b0 93 5b bd 7b ce e4 bc 07 0e 72 bd
       0.001807445 -0.053607643 -0.027930489 -0.05909541
0002d0 c3 0c 84 bc 85 c0 40 3c 33 3c a1 bd ae 5a 25 bd
       -0.016119367 0.01176465 -0.0787281 -0.040369682
0002e0 c0 28 16 3d fc ab e0 bc 50 c6 7a 3c c4 26 d6 3c
       0.036659956 -0.027425759 0.01530607 0.026141532
0002f0 c8 bc b4 bd 85 47 0e bd c2 68 3e bd af e8 13 bc
       -0.0882507 -0.034736175 -0.046486624 -0.009027644
000300 78 1b 42 bc 64 6a a4 bd 60 2f 6f bd 96 2b ac bc
       -0.011847369 -0.08028105 -0.05839479 -0.021016877
000310 81 00 b9 bc e9 09 f3 bd 6c 51 1c bd 1b d5 7f bd
       -0.022583248 -0.118671246 -0.038163587 -0.062459093
000320 00 16 ca 3c 60 26 71 bd 8a 99 00 3d d0 46 55 bd
       0.024668694 -0.058874488 0.031396426 -0.052069485
000330 e3 49 d4 bc 5a 9f 01 bd 5b 64 e6 bc 24 64 08 3d
       -0.025914138 -0.03164611 -0.028124025 0.033298627
000340 99 93 93 3c 7f 70 5d bd 3b 55 1d 3d ea 57 ac 3d
       0.018014716 -0.054062363 0.03841136 0.08415206
000350 32 c5 86 3a a3 11 4a 3d d6 d2 7f 3d 6a 72 8b 3d
       0.0010282157 0.049333226 0.06245693 0.06808932
000360 11 e3 a2 3c a6 fd 39 bd 26 76 86 bd c4 97 51 3c
       0.019883664 -0.045407914 -0.06565504 0.012792531
000370 49 fd 26 bd d9 c6 8d 3d 93 90 9b 3d db 98 0c ba
       -0.040768895 0.06922693 0.07595935 -0.00053633534
000380 31 0f 4b bd 63 85 20 3c c5 8b 09 3d 4d 17 a2 3c
       -0.049575035 0.009797427 0.03358056 0.019786501
000390 bf 36 9d 3c 22 c1 7c 3d 3f 9b d2 3c 45 7a a0 3b
       0.019191144 0.061707623 0.025708793 0.004897388
0003a0 e9 58 9c 3d 91 92 91 3c ef 48 bc 3c f2 61 52 bc
       0.07634146 0.017770084 0.022983996 -0.012840735
0003b0 c7 24 c9 3c 35 56 cd 3d 53 2b 0e 3d d5 e6 4a 3d
       0.02455367 0.10026208 0.034709286 0.049536545
0003c0 99 d5 82 3d b4 d2 c0 3d f0 e2 93 3d e8 f2 f1 3c
       0.06388397 0.094151884 0.07221019 0.029534772
0003d0 b8 1a 6f 3d 56 fe 90 3d da f1 81 3d d8 4a 8c 3d
       0.05837509 0.07079761 0.06344958 0.06850213
0003e0 a7 9d d5 3c 04 02 0f 3d 8a e0 27 bd fa ec a4 bd
       0.026076151 0.03491403 -0.04098562 -0.08053012
0003f0 18 db 6a 3c 52 03 90 bc e8 9e 7c bc bd 5b 38 bd
       0.014334463 -0.017579708 -0.015418746 -0.045009363

decoder.3.bias f4 [6]
000000 65 c6 49 be 47 48 39 3e 4a 6c 4e be 0b 47 98 bd
       -0.19704588 0.18093978 -0.20158496 -0.07435425
000010 06 c9 2c 3e a3 9a ff 3d
       0.1687356 0.124806665

decoder.5.weight f4 [6, 1, 5, 5]
000000 65 1f 24 be 3f a4 eb bd 2b 5d c4 bd aa 85 de bd
       -0.16027601 -0.11505937 -0.09588083 -0.10865338
000010 a4 2f ad bd 18 09 f9 bd e6 94 29 be a1 dc fd bd
       -0.08456352 -0.121599376 -0.16560706 -0.12395597
000020 04 93 00 3d 2b c5 92 3d 24 f0 27 bd b6 39 65 3d
       0.031390205 0.07166513 -0.0410005 0.05596324
000030 f9 81 97 3c 3d 35 1c 3d 08 ed 3e 3e 1c 99 0a 3d
       0.018494593 0.03813671 0.18645108 0.033837423
000040 90 76 eb 3d 20 8b 65 3e fd 16 82 3e f5 32 47 3e
       0.114972234 0.22416353 0.25408164 0.19453032
000050 cc 07 8f 3d 84 ec 37 3e 21 13 3a 3e 8c 92 55 3e
       0.06983909 0.17961317 0.1817136 0.20856684
000060 8a a3 0b 3e ce cc 4b be fc 9a 8c be bc bb 46 be
       0.13636604 -0.19902346 -0.27461994 -0.19407552
000070 ee 69 05 be c7 52 0d bc 3a e8 36 be 84 46 70 be
       -0.1302869 -0.008625693 -0.17862025 -0.234644
000080 3a 75 94 be dd 98 6d be 1c 69 5d bb 68 0a a2 bd
       -0.28995687 -0.23202844 -0.0033784574 -0.07912141
000090 ea 66 98 bd fb f7 07 be eb b1 15 be 24 ce 54 3c
       -0.07441504 -0.13278191 -0.14618652 0.012988601
0000a0 47 2a 14 be f7 58 ea bd f9 70 b8 bd d3 9b cd bd
       -0.14469253 -0.1144275 -0.09005923 -0.10039487
0000b0 3e 2b ac 3c f5 6b b1 bd 81 12 e8 bd 8f a7 52 bd
       0.021016713 -0.08663169 -0.11331654 -0.051429328
0000c0 48 c5 20 bd 03 5b 83 3d a4 96 9c 3d e8 99 13 3e
       -0.039250642 0.064138435 0.0764592 0.1441418
0000d0 90 06 3f 3e a2 76 01 3e 90 c5 10 3d 61 5d 00 3e
       0.18654847 0.12642911 0.03534466 0.12535621
0000e0 11 ef a7 3d b3 e0 02 3e 33 6d c9 3d be f8 c9 3d
       0.08199895 0.12781028 0.09835281 0.09861897
0000f0 bd 5f 80 3d 15 86 af 3a 39 b4 11 3d d6 5a 88 3d
       0.06268261 0.00133914 0.035572264 0.066579506
000100 2a 3f 30 3d d0 82 1d 3d dd 8a 02 3e 78 f5 43 3e
       0.043028988 0.03845483 0.12748285 0.19136608
000110 af 14 02 3e 6f b3 b8 3d f2 d8 25 3d 8b 4f 47 bc
       0.12703203 0.09018599 0.0404901 -0.012164961
000120 7c 44 09 3e e7 90 02 3e 5f dc da 3d 0c f5 d2 3d
       0.13405031 0.12750588 0.10686564 0.10300645
000130 5a 7a 26 3d 08 af 7c bd 72 71 d4 bc f6 40 20 be
       0.040644027 -0.06169036 -0.025933001 -0.1564978
000140 c4 13 6e 3e 72 67 2c 3e 97 41 5a bb d9 98 ff bc
       0.23249727 0.16836336 -0.0033303255 -0.031200813
000150 7a 9e 94 3d 44 09 7b 3e fd c0 a2 3d 59 8e 46 3e
       0.072567895 0.24515253 0.07946966 0.19390239
000160 64 e6 6b 3d d2 60 85 bd 63 8d b4 3d e3 f2 09 3e
       0.057592764 -0.06512608 0.0881603 0.1347156
000170 a2 38 df bd e4 6a 12 be 65 f8 27 be a7 e1 1a be
       -0.10899474 -0.14298588 -0.16403349 -0.15125142
000180 b4 1a ab bd 03 ae 0e 3d f7 30 6f be 41 7f 8f be
       -0.083547026 0.03483392 -0.23358522 -0.28026775
000190 9f 65 57 bd dc e1 20 be 63 46 c4 bd 9a 34 aa bd
       -0.052587148 -0.15711159 -0.09583738 -0.08310814
0001a0 6a 9b 02 bd cc dc 51 be c9 87 2a be 61 0e 5f be
       -0.031886496 -0.20494384 -0.1665336 -0.21782829
0001b0 e9 c6 43 be 83 b3 30 bd 21 7a 84 be a3 92 60 be
       -0.19118847 -0.043139946 -0.25874427 -0.21930937
0001c0 35 b5 b3 bd ae 4c a7 bd 47 08 37 be 78 83 0c be
       -0.08774797 -0.08168922 -0.17874251 -0.13722026
0001d0 de 5c 56 be c0 cb 49 be 12 65 04 be d2 2f ec bd
       -0.20933864 -0.1970663 -0.1292918 -0.115325585
0001e0 b5 de 54 be 02 3d 59 be 4b de 27 be cd 0b 70 be
       -0.20788081 -0.21214679 -0.16393392 -0.23442002
0001f0 eb 4c 35 be ae fe 8d 3d fb de 37 bc c8 c6 8f be
       -0.17705123 0.06933342 -0.011222596 -0.28081346
000200 6e 7b f4 bd 6f a4 d9 bd d6 5c 60 3d 29 65 81 be
       -0.11937605 -0.10627066 0.054776035 -0.25272492
000210 b0 96 b8 be ec d5 58 be 3e aa 19 3d 73 1d ff bc
       -0.36052465 -0.21175355 0.03751587 -0.031141972
000220 f7 99 85 be 84 21 09 be f8 9b eb bd c6 2c f4 3d
       -0.26094028 -0.13391691 -0.11504358 0.11922602
000230 88 57 d6 bd a0 13 75 bd 06 21 c9 bc 50 98 ad 3d
       -0.10465914 -0.05983317 -0.02455188 0.08476317
000240 ce 76 d2 3d cf a3 81 3c 59 47 01 3c fb e5 bf bc
       0.102765664 0.01582518 0.007890546 -0.023425093
000250 f9 83 09 bb 19 8c 6d bd
       -0.0020983203 -0.057994936
