Autoencoder-on-MNIST-in-Pytorch/Models/model_e12.pt (torch, 561729 bytes, 11 tensors)

encoder.0.weight f4 [6, 1, 5, 5]
-0.24254684 -0.18634762 -0.10920219 -0.21557266 -0.32998297 -0.22386627 -0.31941888 -0.028742705
-0.12512489 -0.1845289 0.13349822 -0.1825694 0.020932844 -0.24595325 -0.19861087 0.13508712
0.015439695 -0.18904619 -0.15165451 -0.10421165 0.0028438994 -0.09616757 -0.02317342 -0.3178105
-0.38386273 -0.21257918 -0.30537367 -0.2571421 -0.29897976 -0.23160005 0.07806732 0.018806389
0.056547258 0.02637641 0.19909948 -0.1387601 0.006885603 0.14624245 -0.026784033 -0.05615086
0.19386742 0.14253843 0.11095311 0.14219862 0.23559907 -0.10861817 -0.1514931 -0.11646145
0.28466603 0.2499022 0.15941149 0.16198264 0.14115721 -0.09448937 -0.11950825 0.18442681
0.082438074 -0.2615212 -0.28227192 -0.36377758 -0.21374775 -0.1175848 -0.36279258 -0.19799693
-0.099565074 -0.036561646 -0.043379877 -0.3314345 0.016450224 -0.14831597 -0.19601049 -0.03605266
-0.20279026 -0.18277809 -0.31211305 -0.19493869 -0.14461936 -0.18904245 0.21558242 -0.01819575
-0.041726004 0.060597938 -0.08714596 0.18269967 0.2274857 0.18237129 0.19899522 -0.17334461
0.21447954 0.2352857 -0.0774627 0.16163366 0.06540867 -0.04471734 0.15220976 0.23396158
0.007076727 0.13293532 0.22111572 0.07986848 -0.02253293 0.20036566 0.022301584 -0.059063178
0.15348883 0.03752464 -0.081429526 -0.05767674 0.25014114 0.24535213 -0.1252919 -0.14218143
0.13734451 -0.0023743683 0.22580382 0.016138319 -0.02233896 -0.046306312 0.19614518 0.22870849
-0.14739367 -0.2906422 -0.1668328 0.2185445 0.08713582 -0.064168505 0.15725967 0.12844542
-0.13763224 0.003447994 -0.06764457 0.21868564 -0.06396205 -0.24498372 -0.16039664 0.071432084
0.16637464 -0.014346174 -0.24824476 -0.2921642 0.25291377 0.25102034 0.18858907 -0.17991059
-0.15967475 0.10606092 -0.03440232 0.06247849 -0.15959166 -0.13558723
00000000: 335e 78be e9d1 3ebe 66a5 dfbd 14bf 5cbe
00000010: 87f3 a8be 333d 65be df8a a3be d275 ebbc
00000020: bd20 00be 25f5 3cbe c2b3 083e 79f3 3abe
00000030: 5b7b ab3c 2bdb 7bbe a660 4bbe 4754 0a3e
00000040: c6f6 7c3c 5395 41be 524b 1bbe eb6c d5bd
00000050: b760 3a3b 81f3 c4bd 2fd6 bdbc 0fb8 a2be
00000060: a889 c4be 5bae 59be f059 9cbe 21a8 83be
00000070: e013 99be 9028 6dbe c2e1 9f3d db0f 9a3c
00000080: 199e 673d 5713 d83c bce0 4b3e 2117 0ebe
00000090: a0a0 e13b 95c0 153e 306a dbbc 72fe 65bd
000000a0: 2e85 463e 98f5 113e 623b e33d 849c 113e
000000b0: e240 713e 3473 debd 0221 1bbe 5783 eebd
000000c0: bfbf 913e 5de6 7f3e c43c 233e c7de 253e
000000d0: 848b 103e a583 c1bd bec0 f4bd 62da 3c3e
000000e0: 4bd5 a83d 1be6 85be f285 90be 0e41 babe
000000f0: b1e0 5abe 4dd0 f0bd f3bf b9be b5bf 4abe
00000100: c6e8 cbbd aac1 15bd 19af 31bd c8b1 a9be
00000110: 9fc2 863c 24e0 17be f9b6 48be f4ab 13bd
00000120: 40a8 4fbe 2e2a 3bbe 48cd 9fbe 029e 47be
00000130: 1917 14be 5894 41be a3c1 5c3e 410f 95bc
00000140: e3e8 2abd 8b35 783d 9579 b2bd 9f15 3b3e
00000150: 03f2 683e 8abf 3a3e 67c5 4b3e 4081 31be
00000160: 86a0 5b3e bcee 703e c4a4 9ebd 4b83 253e
00000170: fbf4 853d 8829 37bd e0dc 1b3e a093 6f3e
00000180: e4e3 e73b 3220 083e 296c 623e 1692 a33d
00000190: fb96 b8bc a82c 4d3e d0b1 b63c 3bec 71bd
000001a0: 2d2c 1d3e 70b3 193d 86c4 a6bd 723e 6cbd
000001b0: 8012 803e 973d 7b3e 854c 00be 0298 11be
000001c0: 0aa4 0c3e 4a9b 1bbb 1e39 673e 8234 843c
000001d0: 3200 b7bc b0ab 3dbd 48da 483e 8f32 6a3e
000001e0: 5eee 16be 0ecf 94be 38d6 2abe 21ca 5f3e
000001f0: 4474 b23d c76a 83bd ae08 213e 3287 033e
00000200: 77ef 0cbe bdf7 613b 3c89 8abd 21ef 5f3e
00000210: 89fe 82bd 03dd 7abe 043f 24be fc4a 923d
00000220: 1d5e 2a3e 370c 6bbc e033 7ebe 8c96 95be
00000230: ea7d 813e bd85 803e 7e1d 413e 7b3a 38be
00000240: c781 23be 7836 d93d 72e9 0cbd 72e9 7f3d
00000250: ff6b 23be 61d7 0abe

encoder.0.bias f4 [6]
0.17259079 0.1780127 -0.0010196686 0.16698383 -0.034913357 0.18221906
00000000: a4bb 303e f648 363e 67a6 85ba cffd 2a3e
00000010: 4f01 0fbd a297 3a3e

encoder.2.weight f4 [16, 6, 5, 5]
0.045754757 0.035724953 -0.04586102 0.11118939 0.022632089 -0.0036846984 -0.05831053 -0.068197444
-0.0054714317 0.05131084 -0.13055618 -0.14658089 -0.028440217 -0.021480767 -0.02977654 -0.1364296
-0.06458616 -0.14157712 -0.024544971 0.022422608 -0.10812421 -0.07141022 -0.08691831 0.007796522
-0.04999524 0.023204437 -0.017754948 -0.034587193 0.00330378 0.01930994 0.0045174034 0.09691882
0.017900465 0.00049879216 -0.024671784 0.054842863 0.08790332 0.074899085 -0.045821793 -0.0321535
0.056461982 -0.030783335 -0.034389757 0.06619047 0.116475254 -0.08028609 0.048857354 -0.097941145
-0.062981546 0.019168122 0.05721904 0.045210004 0.007158436 0.10773802 -0.0016860364 -0.033133846
0.043900803 -0.0110487025 -0.028638896 0.088609844 -0.1226189 -0.024566427 -0.03787453 0.07280479
0.04058955 -0.15107113 -0.087629 0.02072273 -0.020671418 0.028059734 -0.114316 -0.07333537
-0.029844481 -0.039773732 -0.031062908 2.6773869e-05 0.078593746 -0.05350852 -0.038273565 -0.019285986
0.030476183 0.09515494 0.03349954 0.086650655 0.1003746 0.06697098 0.05044309 -0.022176191
-0.06334224 -0.013604177 0.10163903 0.097451314 0.0092191445 -0.03660273 0.07293424 0.091632366
-0.029456573 0.024249187 -0.05213298 -0.030718714 0.048711028 0.09245257 0.07968123 -0.035042033
-0.049567346 0.035060395 0.099058606 -0.026449183 -0.06520112 0.056566443 0.10949801 0.04423494
-0.054396532 -0.022538329 -0.052895542 0.018246137 0.055107746 -0.052875258 -0.07640562 -0.013320406
0.04565026 -0.010828353 -0.037552916 0.02921571 -0.043757446 0.058931272 -0.05059395 -0.010012306
-0.009997459 -0.040302545 0.025621433 -0.057328433 0.08245884 0.088778004 0.037514385 0.045467634
0.03831935 0.01904511 -0.016142149 -0.0051555657 0.067317136 0.06292657 -0.0056428835 0.046458606
-0.05832177 0.017593188 0.030439897 0.024501503 -0.020594113 0.015787326 -0.055040278 0.01524221
-0.05060596 0.062590346 -0.009422947 0.07293279 0.01767162 -0.058836993 0.07043986 0.027262093
-0.050006058 -0.044467803 -0.015189306 0.047578085 -0.0013081944 0.009018805 -0.0124943415 -0.0747663
-0.027480526 -0.037379667 -0.043785166 -0.07468588 -0.122432984 -0.13894272 -0.07290375 0.015522257
0.052102186 -0.07052605 -0.035664093 0.0045781545 -0.02512897 0.019648584 0.00283843 -0.05146041
-0.053651214 -0.0055213724 0.038103297 -0.049050134 -0.0026119316 -0.0383581 0.0658363 0.048520222
-0.019612167 0.04042939 0.07483838 -0.013103768 0.03593741 -0.050759412 0.064575724 0.029302811
0.04215057 -0.04919687 -0.045735292 0.059943832 0.066515855 0.039031044 -0.046897896 0.005581698
0.03803185 -0.011061417 0.060272153 -0.0697508 -0.081431374 -0.064182244 -0.043835428 -0.06563192
-0.0332967 -0.15700705 -0.07737781 0.02302831 -0.013567557 -0.091441646 -0.11492494 -0.045089997
0.0626809 0.059426412 0.07834661 -0.023172775 0.071952835 0.0203561 0.029604083 0.067557335
0.08712003 0.01587411 -0.061707944 -0.0060318154 0.046134792 -0.04114795 0.101480745 0.020811167
0.04220006 0.11530646 0.02603299 0.08286337 0.051502597 0.05083875 0.06165737 -0.05348779
0.07268197 0.08103792 0.0032702566 -0.023273572 0.06527299 -0.058044884 0.04185732 -0.009402588
00000000: 5769 3b3d 5454 123d c4d8 3bbd 43b7 e33d
00000010: ee66 b93c fb7a 71bb 06d7 6ebd 1aab 8bbd
00000020: b249 b3bb 512b 523d 85b0 05be 4d19 16be
00000030: 75fb e8bc 6ff8 afbc eeed f3bc 33b4 0bbe
00000040: c045 84bd 98f9 10be 8912 c9bc 9eaf b73c
00000050: 3a70 ddbd 853f 92bd 3a02 b2bd f879 ff3b
00000060: cfc7 4cbd 3b17 be3c d372 91bc 4dab 0dbd
00000070: 3b84 583b e12f 9e3c ba06 943b 607d c63d
00000080: ffa3 923c 60c1 023a 7b1c cabc e9a2 603d
00000090: a806 b43d b164 993d a2af 3bbd 63b3 03bd
000000a0: ae44 673d 552d fcbc 46dc 0cbd de8e 873d
000000b0: 948a ee3d 096d a4bd a61e 483d 5e95 c8bd
000000c0: 78fc 80bd 7706 9d3c 835e 6a3d 202e 393d
000000d0: 5091 ea3b c0a5 dc3d fefd dcba 5bb7 07bd
000000e0: 54d1 333d 9e05 35bc 1e9c eabc 1479 b53d
000000f0: 9e1f fbbd 883f c9bc 5322 1bbd ae1a 953d
00000100: 3a41 263d 64b2 1abe d576 b3bd b7c2 a93c
00000110: 1b57 a9bc 87dd e53c 821e eabd db30 96bd
00000120: 6a7c f4bc c8e9 22bd a477 febc 7298 e037
00000130: c2f5 a03d c02b 5bbd bec4 1cbd a5fd 9dbc
00000140: 30a9 f93c 98e0 c23d d036 093d e675 b13d
00000150: 3391 cd3d 1528 893d 6a9d 4e3d d8aa b5bc
00000160: 94b9 81bd 0ee4 5ebc 2028 d03d 8e94 c73d
00000170: e50b 173c bfec 15bd 8c5e 953d c0a9 bb3d
00000180: e94e f1bc 3ba6 c63c 6489 55bd d0a5 fbbc
00000190: 3785 473d c657 bd3d ea2f a33d 3c88 0fbd
000001a0: 2107 4bbd 7d9b 0f3d 3ddf ca3d f5ab d8bc
000001b0: 2a88 85bd 37b2 673d 7e40 e03d b22f 353d
000001c0: e6ce 5ebd 4da2 b8bc ffa8 58bd ec78 953c
000001d0: a9b8 613d ba93 58bd 8d7a 9cbd d53d 5abc
000001e0: c4fb 3a3d 6869 31bc 16d1 19bd c955 ef3c
000001f0: 023b 33bd eb61 713d 9a3b 4fbd a80a 24bc
00000200: 62cc 23bc 4814 25bd 0ae4 d13c 38d1 6abd
00000210: 2ee0 a83d 3ed1 b53d afa8 193d 453c 3a3d
00000220: c0f4 1c3d 7e04 9c3c 8a3c 84bc 05f0 a8bb
00000230: 91dd 893d a5df 803d f0e7 b8bb 614b 3e3d
00000240: cfe2 6ebd 971f 903c 175d f93c 60b7 c83c
00000250: fcb4 a8bc 6c54 813c ea71 61bd 76ba 793c
00000260: 3248 4fbd 5e2f 803d b462 1abc c95d 953d
00000270: 13c4 903c 0fff 70bd c642 903d c154 df3c
00000280: 27d3 4cbd df23 36bd 91dc 78bc 3de1 423d
00000290: b877 abba 9cc3 133c 11b5 4cbc 131f 99bd
000002a0: d71e e1bc 6c1b 19bd 1358 33bd e9f4 98bd
000002b0: 25be fabd 0047 0ebe 904e 95bd 1151 7e3c
000002c0: 1a69 553d f66f 90bd 8314 12bd 5804 963b
000002d0: 45db cdbc 11f6 a03c f404 3a3b 27c8 52bd
000002e0: 60c1 5bbd a1ec b4bb 3412 1c3d cbe8 48bd
000002f0: f12c 2bbb 621d 1dbd 2fd5 863d 24bd 463d
00000300: b2a9 a0bc 4a99 253d dd44 993d 30b1 56bc
00000310: 1b33 133d 1ae9 4fbd 4740 843d 730c f03c
00000320: 13a6 2c3d a882 49bd ee54 3bbd aa87 753d
00000330: 7739 883d 04df 1f3d 0218 40bd ade6 b63b
00000340: 49c7 1b3d f23a 35bc efdf 763d 82d9 8ebd
00000350: 7ec5 a6bd fb71 83bd c78c 33bd 076a 86bd
00000360: 1f62 08bd 75c6 20be 4278 9ebd dea5 bc3c
00000370: 754a 5ebc c245 bbbd c45d ebbd 4ab0 38bd
00000380: d85e 803d 1c69 733d 3074 a03d d5d4 bdbc
00000390: 025c 933d d6c1 a63c 4384 f23c 805b 8a3d
000003a0: fc6b b23d 6c0a 823c 78c1 7cbd 89a6 c5bb
000003b0: d6f7 3c3d c18a 28bd 23d5 cf3d 2e7c aa3c
000003c0: f8d9 2c3d cb25 ec3d 2343 d53c 45b4 a93d
000003d0: 63f4 523d 4b3c 503d 708c 7c3d 0316 5bbd
000003e0: 49da 943d 36f7 a53d cd51 563b 38a8 bebc
000003f0: d8ad 853d 79c0 6dbd 9572 2b3d 500d 1abc

encoder.2.bias f4 [16]
0.0017746743 0.03975651 0.028902315 0.05259961 0.10688994 0.0046230485 0.059944082 -0.00999842
-2.809854e-37 0.13647181 0.039739195 0.046879403 0.10725773 0.021296175 0.026067635 -0.036251362
00000000: 309c e83a b9d7 223d 8cc4 ec3c b072 573d
00000010: 1de9 da3d f17c 973b ed87 753d 6ad0 23bc
00000020: 903a bf82 44bf 0b3e 91c5 223d 9e04 403d
00000030: f1a9 db3d 5175 ae3c cb8b d53c 4f7c 14bd

encoder.5.weight f4 [10, 6400]
-0.004468631 -0.034243755 -0.025556538 -0.046653565 -0.0406776 -0.02189058 -0.03400806 -0.033113837
-0.011628683 -0.0055334014 -0.017495153 -0.0142869055 0.0013689329 0.00648797 -0.000903318 0.0026455363
0.011107612 0.00979441 -0.0015655045 -0.009879021 0.0042987214 -0.027125372 -0.02170706 -0.029286798
-0.03813227 -0.030936401 -0.018400183 -0.019423565 0.009617021 -0.007674512 0.0009851379 0.00019228873
0.006436474 0.026890717 0.013355096 0.023363696 0.006227138 0.004806201 0.0051928977 -0.012346993
0.03451498 0.016657988 -0.015026348 -0.021122623 -0.019154845 -0.018840242 -0.022285257 -0.008365851
-0.005506284 0.012924444 0.015729602 0.015138155 0.022115318 0.011899638 0.016356762 0.009029136
0.014730775 0.0013525398 -0.0018131207 0.005556738 0.06283977 0.03348667 -0.0055823 -0.008643364
-0.015195004 -0.019948762 0.0028702472 -0.009784477 0.0012410826 0.0059701153 0.01863511 0.019112846
0.0066944994 0.015108082 0.01370223 0.0099083735 0.010005685 0.012041081 0.010349985 0.006427929
0.0577884 0.032550946 -0.009718377 -0.018425519 -0.010047291 0.0025046803 0.0038034497 0.015916564
0.0054154145 0.01728775 0.041146316 0.03815218 0.01868374 -8.544791e-05 -0.009774878 -0.015543397
0.004427938 0.012185192 0.015873786 0.0037120497 0.030865995 0.004555946 -0.020270757 -0.020410197
-0.0036691367 -0.012779357 0.0010231757 0.0076198033 0.012715228 0.03519286 0.03863598 0.04824884
0.024547476 0.011488573 -0.00904139 -0.0011727917 -0.011218262 -0.0010002214 0.008141257 0.0015435476
0.016108183 -0.018178187 -0.03610519 -0.041476384 -0.025606459 -0.01175431 -0.0032968344 0.004454206
0.016822912 0.0319511 0.047723837 0.029496944 0.0025789721 0.012834553 -6.29901e-05 -0.006210703
-0.008866933 -0.007884991 0.0058006574 -0.013689163 -0.01660447 -0.03442454 -0.03469348 -0.024415605
-0.015704712 0.0053763054 0.001389013 0.004808968 0.0029551894 0.028653342 0.030931411 0.014965358
0.0019548682 -0.006171582 -0.0072177956 0.007365402 0.00444259 0.010017368 0.007905003 -0.014125011
-0.0141310925 -0.017423691 -0.026308484 -0.019084087 -0.0027527094 -0.010243525 -0.0066180844 0.005763489
0.0052780933 0.03229437 0.029713284 0.023425369 -0.00247876 -0.00035405674 0.0072168703 0.0033437556
-0.0023619363 0.012559369 -0.008588808 -0.016139353 0.0011767077 -0.020923661 -0.03231557 -0.014928049
-0.0043986994 -0.012122576 -0.017179567 -0.0017477768 0.007409618 0.021504788 -0.0055477126 0.013283084
0.0041044033 0.009815239 0.021996802 0.018496083 0.008730237 0.0034858696 0.007607957 -0.010171161
0.03751498 -0.0056209126 -0.0042371107 0.005583764 0.0079479655 -0.00039718105 -0.007313555 0.014635667
0.009415034 -0.0014065935 0.0023505455 0.014275841 0.025781129 0.009953411 0.012435331 -0.005040791
-0.0031398125 -0.0064951456 0.007929288 -0.017636187 0.04309212 0.0050692265 -0.0067703165 0.0032845745
0.005592182 -0.012896805 0.0105036395 0.0072345524 0.0041135265 -0.004022395 0.005005587 0.0047204774
0.028468776 0.0074566617 0.00094488973 0.006241269 -0.001669328 -0.013596361 -0.0050997813 -0.014671705
0.047987405 0.02086308 0.0039851265 0.016453017 0.0059240833 -0.0034266277 0.002584012 0.019407611
0.008727204 -0.014029713 0.008651857 0.024645446 0.01709971 0.007356295 0.00857535 -0.0008440523
00000000: 986d 92bb 2e43 0cbd f25b d1bc cf17 3fbd
00000010: 8e9d 26bd e053 b3bc 094c 0bbd 60a2 07bd
00000020: 3b86 3ebc 8951 b5bb ff51 8fbc a013 6abc
00000030: c46d b33a 0999 d43b a5cc 6cba bc60 2d3b
00000040: b4fc 353c bc78 203c 9d31 cdba 9edb 21bc
00000050: 4adc 8c3b 0736 debc 01d3 b1bc deea efbc
00000060: 9530 1cbd 566e fdbc fbbb 96bc 2b1e 9fbc
00000070: b690 1d3c 797a fbbb be1f 813a 1da1 4939
00000080: 0fe9 d23b ec49 dc3c 55cf 5a3c 3965 bf3c
00000090: 050d cc3b 567d 9d3b 2f29 aa3b 0b4b 4abc
000000a0: 945f 0d3d 5576 883c 1231 76bc 5a09 adbc
000000b0: 9fea 9cbc da56 9abc 928f b6bc ec10 09bc
000000c0: 0f6e b4bb 0cc1 533c 5edb 803c 0606 783c
000000d0: 2f2b b53c b3f6 423c 9efe 853c f1ee 133c
000000e0: 5959 713c b447 b13a 3ca6 edba 4c15 b63b
000000f0: 23b2 803d 5229 093d baeb b6bb e59c 0dbc
00000100: 77f4 78bc 966b a3bc c21a 3c3b 124f 20bc
00000110: d2ab a23a f5a0 c33b a9a8 983c 8b92 9c3c
00000120: 885d db3b e487 773c 517f 603c bb56 223c
00000130: e2ee 233c f447 453c fc92 293c 60a1 d23b
00000140: 88b3 6c3d 2454 053d d439 1fbc 1df1 96bc
00000150: 659d 24bc 9025 243b 4c43 793b 7463 823c
00000160: ca73 b13b 0a9f 8d3c 0a89 283d 7645 1c3d
00000170: a50e 993c 7f32 b3b8 cf26 20bc bba9 7ebc
00000180: 3c18 913b 66a4 473c be09 823c dc45 733b
00000190: afda fc3c 0c4a 953b dc0e a6bc 4933 a7bc
000001a0: e675 70bb 8260 51bc 141c 863a 8baf f93b
000001b0: 8853 503c 6326 103d c340 1e3d 93a0 453d
000001c0: ca17 c93c 913a 3c3c 5722 14bc 5cb8 99ba
000001d0: cdcc 37bc dc19 83ba e862 053c dd50 ca3a
000001e0: 4ff5 833c 6cea 94bc 09e3 13bd 24e3 29bd
000001f0: a3c4 d1bc 2695 40bc b40f 58bb 97f4 913b
00000200: 34d0 893c 28df 023d 127a 433d 93a3 f13c
00000210: f903 293b 0448 523c 8d19 84b8 2783 cbbb
00000220: 9d46 11bc 0d30 01bc 7113 be3b 8348 60bc
00000230: 1906 88bc bf00 0dbd c01a 0ebd 3c03 c8bc
00000240: 2ba7 80bc b82b b03b 8b0f b63a 8c94 9d3b
00000250: daab 413b 6aba ea3c df63 fd3c 4331 753c
00000260: 3f1d 003b fb3a cabb 4283 ecbb 7859 f13b
00000270: 2593 913b e31f 243c fc83 013c 976c 67bc
00000280: 1986 67bc 21bc 8ebc e484 d7bc 3b56 9cbc
00000290: cd66 34bb 75d4 27bc 84dc d8bb a6db bc3b
000002a0: dbf3 ac3b 1a47 043d 4669 f33c 8fe6 bf3c
000002b0: b172 22bb b1a0 b9b9 7f7b ec3b e922 5b3b
000002c0: b7ca 1abb d0c5 4d3c 12b8 0cbc ad36 84bc
000002d0: c23b 9a3a 1968 abbc 555d 04bd c794 74bc
000002e0: f722 90bb c59d 46bc 2abc 8cbc a815 e5ba
000002f0: 61cc f23b cf2a b03c 96c9 b5bb 4ba1 593c
00000300: 3b7e 863b 19d0 203c a332 b43c 1985 973c
00000310: 4509 0f3c 3073 643b 2b4c f93b f1a4 26bc
00000320: 4fa9 193d a22f b8bb 76d7 8abb 02f8 b63b
00000330: 2f38 023c bd3c d0b9 8ca6 efbb 70ca 6f3c
00000340: 8441 1a3c 725d b8ba 9c0b 1a3b 38e5 693c
00000350: f232 d33c a213 233c 8fbd 4b3c 382d a5bb
00000360: 50c5 4dbb 3bd5 d4bb d8e9 013c c479 90bc
00000370: 5d81 303d c11b a63b 88d9 ddbb 0442 573b
00000380: 9f3e b73b 1f4d 53bc 7517 2c3c d30f ed3b
00000390: c3ca 863b 4bce 83bb e805 a43b 3cae 9a3b
000003a0: 5a37 e93c 0357 f43b 7ab2 773a 8f83 cc3b
000003b0: 5acd daba 45c3 5ebc 111c a7bb 9761 70bc
000003c0: 718e 443d 0de9 aa3c aa95 823b 7ac8 863c
000003d0: d01e c23b 4691 60bb 8758 293b b6fc 9e3c
000003e0: 8cfc 0e3c e2dc 65bc 85c0 0d3c 3fe5 c93c
000003f0: b114 8c3c 130d f13b a07f 0c3c 6443 5dba

encoder.5.bias f4 [10]
0.007538039 -0.006140721 0.006674872 0.008641695 -0.004063656 0.011145451 0.0054010632 -0.0014697352
0.0007475314 -0.0026132895
00000000: a701 f73b 1a38 c9bb e2b8 da3b e595 0d3c
00000010: 6b28 85bb 699b 363c 67fb b03b 21a4 c0ba
00000020: fcf5 433a b943 2bbb

decoder.0.weight f4 [6400, 10]
0.061725505 0.052250307 0.08214516 -0.054110963 0.18339474 0.049908023 -0.23141947 0.095969744
-0.0010959934 0.15897945 0.04575974 -0.031599198 -0.006379003 0.022370666 -0.09928309 -0.14617394
-0.23694506 0.15624055 0.19125926 0.03217928 -0.028668476 0.015930941 0.023124337 0.15602115
-0.0786391 0.0720313 0.21226917 -0.030210493 0.2341399 -0.18140234 0.01605252 -0.017994285
0.17982648 -0.106710844 0.03779815 0.039143026 -0.043612547 0.10942258 0.003550493 0.25502047
-0.12948237 -0.12353286 0.086812094 0.0976872 -0.10122669 -0.04628473 5.0878625e-05 0.19392169
-0.10173897 0.16939193 -0.13182339 0.25196052 -0.26374257 0.04021817 -0.040438466 -0.045654144
0.04626011 0.15149489 0.0299112 -0.09421799 -0.13151531 -0.009852009 -0.118068464 -0.20649414
-0.1253277 0.05036204 -0.10297311 0.26079404 0.121382944 -0.00020541926 0.058277458 -0.028398834
-0.07225525 0.29782364 -0.1405995 0.02714059 0.24530694 0.24518606 0.1538747 0.23584089
-0.0049698823 0.0043144673 -0.26068956 0.01693613 0.20744991 -0.21903428 -0.09777768 0.13756463
-0.034006964 0.04673122 -0.14873427 0.21774107 -0.28498092 0.034198623 0.17338242 -0.032708406
0.0081250975 -0.24502398 0.32147136 -0.17298537 0.03397947 0.08809027 0.02411791 -0.13922897
-0.0477092 -0.13022123 0.09957481 0.25269848 -0.15229711 0.03601721 -0.16506203 0.033068083
-0.0001702129 0.1883652 -0.108975075 0.22562048 -0.09566029 0.06949251 0.22568627 -0.12277301
-0.13070056 0.24581318 0.042881258 0.1552458 -0.048401013 0.057619218 -0.1713095 -0.07727321
-0.14324187 0.17992565 0.14923598 -0.06661651 0.106186934 -0.12607707 -0.07712917 -0.1306612
0.06784932 0.2008623 -0.07192841 -0.012963991 0.25304547 0.15808976 0.19607739 0.11129493
0.14175467 -0.21598476 -0.19566467 0.10985424 -0.17666236 -0.12332946 0.21844672 0.15771231
0.07062552 -0.20845518 0.23212089 -0.12504475 0.08312594 -0.3233022 -0.0885703 -0.034624852
0.17525817 0.112095125 -0.07267096 -0.07373926 -0.28387758 0.2153698 -0.016723478 -0.10132837
0.14501292 0.13998976 -0.17423947 0.14463177 -0.1031525 0.110554606 -0.22524822 0.062114425
0.20733017 -0.12942699 0.044080496 0.16441901 -0.06803588 0.031243823 0.15630169 -0.09322139
-0.09149361 -0.0936318 -0.14213468 -0.062499233 -0.21970531 0.1486657 0.13457295 -0.04283806
0.041524384 0.21764235 0.24232155 0.17194144 -0.12584823 -0.16901034 -0.1125209 -0.11586523
-0.04236199 0.12044627 0.03994291 0.0124527635 -0.19897383 -0.07687161 -0.044866066 -0.017667012
0.1057155 0.008221074 0.072074614 0.16474456 0.1162244 0.06104816 0.1584806 -0.0495491
0.09247023 0.16787787 -0.20101501 0.078416936 -0.12273696 0.05537259 0.011965591 -0.11907776
-0.091827966 0.11607334 0.061128356 -0.11140453 -0.09479483 0.16065802 -0.043033164 0.03976456
-0.040890507 -0.02485899 0.0030191618 -0.07542014 0.09090172 -0.15251018 0.23994859 -0.08405666
-0.31164902 0.23901042 0.0052729878 -0.11412405 -0.2391958 -0.082409866 -0.13714974 -0.0727566
-0.14164458 0.05169497 0.029427452 0.08120762 -0.13422483 0.16061492 -0.07005172 -0.048035704
00000000: e2d3 7c3d 6b04 563d b93b a83d 75a3 5dbd
00000010: d5cb 3b3e 5b6c 4c3d 3af9 6cbe c98b c43d
00000020: 70a7 8fba 82cb 223e 916e 3b3d 296e 01bd
00000030: f506 d1bb b042 b73c ef54 cbbd 9fae 15be
00000040: baa1 72be 86fd 1f3e 78d9 433e 6cce 033d
00000050: 27da eabc 9b81 823c 406f bd3c 02c4 1f3e
00000060: 890d a1bd 2585 933d 175d 593e ff7b f7bc
00000070: 5fc2 6f3e 89c1 39be 9380 833c c068 93bc
00000080: 6f24 383e 378b dabd 3cd2 1a3d 7054 203d
00000090: 12a3 32bd f218 e03d 63af 683b 0b92 823e
000000a0: 0797 04be ccfe fcbd 8aca b13d 3a10 c83d
000000b0: f04f cfbd 0f95 3dbd 8266 5538 6893 463e
000000c0: 855c d0bd 1475 2d3e b6fc 06be f800 813e
000000d0: 4409 87be cfbb 243d cea2 25bd d7ff 3abd
000000e0: 3e7b 3d3d 7a21 1b3e 5508 f53c 5df5 c0bd
000000f0: f3ab 06be 526a 21bc e1cd f1bd 3373 53be
00000100: e855 00be 6d48 4e3d 91e3 d2bd cc86 853e
00000110: 9f97 f83d d065 57b9 58b4 6e3d aca4 e8bc
00000120: 8ffa 93bd 577c 983e 51f9 0fbe f155 de3c
00000130: be31 7b3e 0e12 7b3e 5491 1d3e 4680 713e
00000140: 65da a2bb 6060 8d3b 1a79 85be a4bd 8a3c
00000150: c06d 543e 864a 60be aa3f c8bd bedd 0c3e
00000160: e34a 0bbd 3c69 3f3d cc4d 18be 84f7 5e3e
00000170: 05e9 91be db13 0c3d 298b 313e 40f9 05bd
00000180: 211f 053c 91e7 7abe e597 a43e 1423 31be
00000190: 0f2e 0b3d ac68 b43d ec92 c53c 0a92 0ebe
000001a0: b96a 43bd b758 05be e1ed cb3d b261 813e
000001b0: c6f3 1bbe c886 133d 0506 29be 6672 073d
000001c0: 2d7b 32b9 cfe2 403e 532e dfbd 0e09 673e
000001d0: 8be9 c3bd 1752 8e3d 4d1a 673e 6a70 fbbd
000001e0: 5ed6 05be 73b6 7b3e 42a4 2f3d c1f8 1e3e
000001f0: 2440 46bd 2102 6c3d c26b 2fbe 6b41 9ebd
00000200: ffad 12be 6e3e 383e 51d1 183e 3d6e 88bd
00000210: 8978 d93d 591a 01be e6f5 9dbd 0dcc 05be
00000220: 96f4 8a3d d9ae 4d3e 344f 93bd eb66 54bc
00000230: 2d8f 813e 48e2 213e 83c8 483e 99ee e33d
00000240: 2328 113e 1c2b 5dbe 525c 48be 43fb e03d
00000250: fae6 34be 2894 fcbd 7fb0 5f3e 567f 213e
00000260: 1da4 903d 4675 55be 19b1 6d3e bb0b 00be
00000270: ef3d aa3d de87 a5be 5864 b5bd cad2 0dbd
00000280: e176 333e 2192 e53d 83d4 94bd 9c04 97bd
00000290: 6758 91be e789 5c3e adff 88bc 4085 cfbd
000002a0: 447e 143e 7a59 0f3e d56b 32be 5a1a 143e
000002b0: 9e41 d3bd 746a e23d 78a7 66be b26b 7e3d
000002c0: 5c4e 543e 8288 04be c08d 343d 755d 283e
000002d0: 6556 8bbd 0cf3 ff3c 8d0d 203e dbea bebd
000002e0: 0061 bbbd 07c2 bfbd c18b 11be 32ff 7fbd
000002f0: 6efa 60be d23b 183e 7ecd 093e f676 2fbd
00000300: 7915 2a3d a3dd 5e3e 2423 783e 6b11 303e
00000310: 5cde 00be 0c11 2dbe 5c71 e6bd c04a edbd
00000320: c483 2dbd 89ac f63d 2d9b 233d ad06 4c3c
00000330: ccbf 4bbe dd6e 9dbd 7bc5 37bd 69ba 90bc
00000340: 5e81 d83d afb1 063c db9b 933d ccb2 283e
00000350: 0f07 ee3d a30d 7a3d bd48 223e fff3 4abd
00000360: 0861 bd3d 2de8 2b3e e1d6 4dbe 0f99 a03d
00000370: 845d fbbd 5ece 623d 540b 443c 0adf f3bd
00000380: 4d10 bcbd dcb7 ed3d ba61 7a3d 0f28 e4bd
00000390: cb23 c2bd 8983 243e 8b43 30bd 2ae0 223d
000003a0: ce7c 27bd 15a5 cbbc 21dd 453b e075 9abd
000003b0: ae2a ba3d a12b 1cbe 15b5 753e e625 acbd
000003c0: 7690 9fbe 26bf 743e 07c9 ac3b dfb9 e9bd
000003d0: beef 74be 81c6 a8bd fb70 0cbe 6a01 95bd
000003e0: 470b 11be 1bbe 533d d711 f13c 2e50 a63d
000003f0: 3c72 09be 3d78 243e 4777 8fbd 16c1 44bd

decoder.0.bias f4 [6400]
0.014490853 0.010899865 0.0011777221 0.022505656 0.0047364817 0.010572407 -0.016223088 -0.029263487
-0.04084918 -0.051097922 -0.0011194305 0.01078925 -0.0028825488 0.0025270618 -0.021407785 0.04482845
0.028495867 -0.010615145 0.0057685683 0.0135177625 0.009885311 0.01415187 0.020205613 0.0039221626
0.02439415 -0.01678817 0.0059395432 0.041304447 -0.0073829335 -0.028386096 -0.013694049 -0.011311176
-0.0013636185 0.024565022 -0.011946368 0.021945953 -0.0016548774 -0.0029960787 -0.016341638 -0.012358478
-0.00022082226 0.014739734 0.011465027 0.0028345438 -0.0036500501 -0.003014489 -0.016444435 -0.019732283
0.018803617 0.028290853 -0.0075288117 0.028430425 -0.001962716 -0.020662045 -0.029502453 -0.04626879
-0.02925199 -0.001378716 0.0035203313 0.0016668238 -0.0015190982 0.008097999 0.011940039 -0.00891402
-0.004405316 -0.007939813 -0.0039556706 0.01515453 0.015189639 0.03190335 0.009041331 0.043395463
-0.00078223215 -0.0017705649 0.006427133 -0.011428826 -0.014328367 0.030144824 0.02388069 0.0054324903
0.015193065 -0.00857472 0.006356902 0.007966649 -0.011780689 0.032465752 0.018054983 0.03663093
0.019126432 0.13183507 0.059929445 -0.010883595 0.0017294058 -0.008192661 0.0353477 0.002512761
0.011953078 -0.012415345 0.020768162 0.006851841 -0.0015955153 -0.008474096 0.011844883 -0.001149474
-5.4235534e-05 0.03464928 0.072665654 0.0061894436 0.08445244 0.026702875 0.01606987 0.025381994
0.010342471 0.040327918 0.019802159 -0.0020588592 0.0052893995 0.042928573 0.009022276 0.01150159
0.015454898 -0.017846273 -0.00048418218 -0.00089671416 0.005596352 0.09654156 0.06863444 0.0128046
-0.0022506148 0.025814723 -0.006728887 -0.008957014 -0.040969837 0.014185627 -0.023997627 0.0002769844
0.032853615 0.011960898 0.00029966605 -0.004232937 0.0070019932 0.009474295 0.0043895724 0.03989468
-0.0010463535 0.0031111795 0.07741757 0.08342452 -0.041685715 0.033827152 -0.0059486046 -0.0003948843
0.0016383462 -0.0006019915 0.0047300328 0.058095567 0.023468334 0.02100443 0.02649379 0.005694618
-0.008970209 0.016954761 -0.0016392923 0.005596837 0.008068878 0.032212354 0.009980757 -0.046271294
-0.011759816 -0.056226987 -0.0021408512 -0.0065994533 -0.012458054 0.030430382 0.020044452 0.0022227988
0.010864509 0.017546691 0.0025994622 0.012192281 0.014375498 0.032490008 0.016765594 0.007855707
0.045345996 0.027121732 -0.0219565 0.0011443897 -0.004039968 -0.01519536 -0.004189426 -0.022538293
-0.019277608 -0.027848506 -0.0028520557 0.025513245 0.03489398 -0.0018020908 0.011598319 -0.0008449889
0.005142594 0.0119543625 0.025253037 0.013885593 -0.0065593803 -0.010428763 -0.0072525926 -0.021042403
-0.009174855 0.01133894 -0.011226299 -0.0034630639 0.073244065 -0.0061763995 0.07813748 0.024137076
-0.009718106 0.0064237253 0.0009693875 0.006182095 0.011077951 0.011397866 0.009695189 0.00824286
0.0072236187 0.0048585297 -0.010198761 -0.0013101975 -0.02858172 -0.0011094778 0.079086095 0.064541616
0.08091728 0.005021414 0.016536133 -0.018683163 0.0006835819 9.284307e-05 0.0024155178 0.009435797
0.005873258 0.007954846 0.0033124166 0.006438873 0.012813727 0.016580869 0.06148109 0.021446755
0.026744418 0.026701387 0.008077215 0.09294622 -0.01983415 -0.0019435578 0.0020623233 -0.015495692
00000000: 0b6b 6d3c 5995 323c cc5d 9a3a c85d b83c
00000010: 7d34 9b3b e437 2d3c 48e6 84bc fbb9 efbc
00000020: 7851 27bd 0e4c 51bd dbb9 92ba 65c5 303c
00000030: 25e9 3cbb 109d 253b 615f afbc 099e 373d
00000040: 2a70 e93c 25eb 2dbc 4206 bd3b 9b79 5d3c
00000050: 00f6 213c 3fdd 673c 3e86 a53c 7c85 803b
00000060: 3ed6 c73c 5887 89bc 80a0 c23b da2e 293d
00000070: 89ec f1bb f589 e8bc 015d 60bc 8352 39bc
00000080: 72bb b2ba 963c c93c b3ba 43bc 00c8 b33c
00000090: 79e8 d8ba dc59 44bb e6de 85bc 377b 4abc
000000a0: 868c 67b9 ed7e 713c cfd7 3b3c c1c3 393b
000000b0: ae35 6fbb bc8e 45bb 7bb6 86bc 99a5 a1bc
000000c0: 0b0a 9a3c 38c2 e73c 40b4 f6bb ece6 e83c
000000d0: e9a0 00bb 7343 a9bc 21af f1bc 5884 3dbd
000000e0: dfa1 efbc 08b6 b4ba 5cb5 663b 5379 da3a
000000f0: 7a1c c7ba 78ad 043c 27a0 433c 1c0c 12bc
00000100: 785a 90bb fd15 02bc 929e 81bb b54a 783c
00000110: f7dd 783c 16ad 023d 1722 143c 71bf 313d
00000120: b60e 4dba 4d12 e8ba b39a d23b f83f 3bbc
00000130: 87c1 6abc 47f2 f63c 70a1 c33c 0803 b23b
00000140: 55ec 783c fb7c 0cbc 8f4d d03b 8c86 023c
00000150: ca03 41bc cffa 043d 0be8 933c 500a 163d
00000160: 09af 9c3c c6ff 063e 9478 753d 1b51 32bc
00000170: 3bad e23a 833a 06bc c0c8 103d 22ad 243b
00000180: d8d6 433c bb69 4bbc fe21 aa3c 6985 e03b
00000190: 9c20 d1ba efd6 0abc 0a11 423c f2a9 96ba
000001a0: f67a 63b8 67ec 0d3d bbd1 943d d1d0 ca3b
000001b0: 67f5 ac3d fdbf da3c f6a4 833c e6ed cf3c
000001c0: 7873 293c e32e 253d 2338 a23c eded 06bb
000001d0: b352 ad3b dfd5 2f3d 2bd2 133c 2a71 3c3c
000001e0: 8a36 7d3c 5932 92bc d5d9 fdb9 7811 6bba
000001f0: 9a61 b73b 95b7 c53d 3790 8c3d 63ca 513c
00000200: 0d7f 13bb 6679 d33c ff7d dcbb 71c0 12bc
00000210: fdcf 27bd d56a 683c ac96 c4bc 3838 9139
00000220: 8391 063d a4f7 433c 7f1c 9d39 73b4 8abb
00000230: fa70 e53b 133a 1b3c 67d6 8f3b 9b68 233d
00000240: cc25 89ba eee4 4b3b 1a8d 9e3d 7ada aa3d
00000250: a4be 2abd 578e 0a3d 83ec c2bb 7908 cfb9
00000260: c7bd d63a f7ce 1dba 64fe 9a3b 9ef5 6d3d
00000270: aa40 c03c 7b11 ac3c 8109 d93c eb99 ba3b
00000280: c9f7 12bc b6e4 8a3c 86dd d6ba ac65 b73b
00000290: 5433 043c 1af1 033d 5486 233c f886 3dbd
000002a0: 3eac 40bc 454e 66bd 864d 0cbb 3a40 d8bb
000002b0: de1c 4cbc 2349 f93c 4334 a43c 60ac 113b
000002c0: 0e01 323c 14be 8f3c bd5b 2a3b 22c2 473c
000002d0: 3587 6b3c 3e14 053d 0058 893c 39b5 003c
000002e0: b9bc 393d 652e de3c 1ede b3bc 59ff 953a
000002f0: b561 84bb f6f5 78bc 7447 89bb 3aa2 b8bc
00000300: 13ec 9dbc 8d22 e4bc 8ee9 3abb 2701 d13c
00000310: fdec 0e3d 2234 ecba e006 3e3c 3f82 5dba
00000320: 3583 a83b 3bdc 433c 75df ce3c 6680 633c
00000330: 12f0 d6bb 67dd 2abc 28a7 edbb 1e61 acbc
00000340: 2252 16bc f6c6 393c 83ee 37bc 92f4 62bb
00000350: fc00 963d 6563 cabb 8b06 a03d 1ebb c53c
00000360: b138 1fbc 1d7e d23b 7e1e 7e3a 2c93 ca3b
00000370: 4b80 353c 1dbe 3a3c 92d8 1e3c 100d 073c
00000380: 1bb4 ec3b 4d34 9f3b b418 27bc efba abba
00000390: 3624 eabc e66b 91ba e4f7 a13d 652e 843d
000003a0: f5b7 a53d ac8a a43b c976 873c 6f0d 99bc
000003b0: 6832 333a beb4 c238 aa4d 1e3b 9a98 1a3c
000003c0: 7674 c03b 0b55 023c 2115 593b 2efd d23b
000003d0: abf0 513c 9ad4 873c 98d3 7b3d 1bb1 af3c
000003e0: 1c17 db3c debc da3c 4c56 043c 965a be3d
000003f0: 3a7b a2bc fabe feba 0b28 073b a5e1 7dbc

decoder.3.weight f4 [16, 6, 5, 5]
0.03507504 -0.019758223 0.019771202 -0.028022883 -0.010958865 0.016868928 -0.028414402 0.027254248
-0.08732583 -0.080786385 0.05219511 -0.0071953433 -0.01097742 -0.03612244 -0.07255791 -0.054003857
-0.05513087 -0.086430795 -0.117243946 -0.14373524 -0.08077939 -0.10515085 -0.013071885 -0.080420755
-0.12859437 0.10337993 0.043191623 -0.037013724 0.04366585 0.014044368 0.0025509882 -0.001148667
-0.018487701 -0.09108464 -0.019197715 -0.06769463 -0.04778478 -0.019689092 0.028153902 -0.031224564
0.007459385 -0.06674449 0.05001703 -0.014102872 -0.033876132 -0.042632535 0.008374459 -0.055239033
-0.013939303 0.039647453 -0.06598554 -0.03720593 -0.018236797 -0.017301388 -0.0151119055 -0.055165403
-0.0019528599 -0.06307054 -0.021244502 -0.039501593 -0.0715791 -0.05418756 0.032848213 -0.037628483
-0.05880483 -0.018914102 -0.022590611 0.074166775 -0.06370396 -0.036006734 0.008887647 0.041268677
0.03066918 0.0254731 -0.043607224 -0.009567544 0.022409635 0.07224508 0.046339147 0.046262845
0.062454972 0.074748375 0.110226125 0.099582754 0.030316953 0.06492074 0.056103226 0.07759369
0.07799662 -0.0074887094 0.060288575 0.020533886 0.047949243 -0.0075088106 -0.014403078 0.025221273
0.03423548 0.04909988 -0.0020608192 -0.014850923 -0.009359858 0.023594951 -0.015307139 0.02156785
-0.07398145 -0.016253289 -0.036357466 0.055835404 0.01072546 -0.04522287 0.05700762 -0.016050054
0.0026127675 0.0741811 0.103572264 0.03716494 0.06660501 0.08049087 0.034545947 0.12081334
0.06171461 0.037157048 0.10512069 0.042099517 0.095592 -0.09058002 0.023897946 -0.050170917
-0.043317594 -0.053816024 -0.052436803 -0.004503294 0.008927969 -0.027120573 -0.07470767 -0.034731355
-0.045586616 -0.0651594 -0.114806086 -0.009934798 -0.008857861 -0.049556706 0.02904098 -0.039476354
-0.018335922 -0.020805294 -0.015198567 0.07252943 0.00054711726 0.061037075 0.03268019 0.06279465
-0.0057055796 0.06923497 0.039832003 -0.0052642114 -0.025911037 0.008413921 0.055024628 -0.01641587
0.03656677 0.04624628 0.09675819 0.029161606 0.02298529 0.040526316 0.0037471382 0.026459882
0.030904688 0.007133453 -0.028836802 0.0117008975 0.023096655 0.047214575 -0.009247716 0.042495824
0.0015350485 -0.055389646 -0.027507408 -0.0597661 -0.017023653 0.010911427 -0.077787615 -0.03982084
0.035166383 -0.027584312 0.013867041 0.024174077 -0.08984608 -0.034919534 -0.046525072 -0.009282495
-0.013591511 -0.08178488 -0.058750354 -0.022041092 -0.022902185 -0.12079301 -0.041062392 -0.06410243
0.023895778 -0.059525512 0.0319901 -0.051558264 -0.026292386 -0.032431692 -0.028167043 0.03201187
0.017875545 -0.052960806 0.038742356 0.084506415 0.00094405335 0.049661357 0.06327641 0.06708496
0.019531213 -0.04554458 -0.06576916 0.012181111 -0.039908163 0.06867921 0.075058915 -0.00038846885
-0.049827687 0.0092354575 0.031074796 0.018071067 0.018400606 0.058116082 0.028894743 0.007688587
0.07518501 0.020070769 0.023933263 -0.011055621 0.027309826 0.10114713 0.03718395 0.05073441
0.06674031 0.09380185 0.072412595 0.029758375 0.058037642 0.07132755 0.06413677 0.07076498
0.025984364 0.03524502 -0.041787207 -0.08026066 0.015270468 -0.018345546 -0.0147676235 -0.046343345
00000000: d8aa 0f3d ffdb a1bc 37f7 a13c 3f90 e5bc
00000010: d08c 33bc b530 8a3c 52c5 e8bc 4d44 df3c
00000020: e2d7 b2bd 5573 a5bd 8aca 553d eac6 ebbb
00000030: a3da 33bc 20f5 13bd 3e99 94bd 2633 5dbd
00000040: e8d0 61bd a102 b1bd 981d f0bd 552f 13be
00000050: aa6f a5bd 5459 d7bd 762b 56bc a3b3 a4bd
00000060: 3eae 03be dbb8 d33d b3e9 303d b49b 17bd
00000070: f6da 323d 591a 663c 7b2e 273b de8e 96ba
00000080: 8573 97bc 958a babd 8744 9dbc 7ba3 8abd
00000090: f9b9 43bd 054b a1bc 03a3 e63c a8ca ffbc
000000a0: db6d f43b 56b1 88bd a8de 4c3d bc0f 67bc
000000b0: b3c1 0abd 749f 2ebd 0735 093c 5342 62bd
000000c0: ad61 64bc 5e65 223d 6d23 87bd 3f65 18bd
000000d0: 5665 95bc a4bb 8dbc ed97 77bc 1ef5 61bd
000000e0: 1bf7 ffba 212b 81bd f308 aebc 6ccc 21bd
000000f0: 1098 92bd c6f3 5dbd d98b 063d 5320 1abd
00000100: 55dd 70bd bff1 9abc f20f b9bc c0e4 973d
00000110: 3977 82bd cc7b 13bd 7e9d 113c 5809 293d
00000120: ef3d fb3c f6ac d03c 7d9d 32bd 30c1 1cbc
00000130: 6994 b73c 3af5 933d 1ece 3d3d 1c7e 3d3d
00000140: c9d0 7f3d ad15 993d 3cbe e13d 0bf2 cb3d
00000150: 425b f83c 2af5 843d 7fcc 653d 71e9 9e3d
00000160: b1bc 9f3d d963 f5bb 27f1 763d ae36 a83c
00000170: 6d66 443d 780c f6bb e3fa 6bbc d89c ce3c
00000180: 813a 0c3d f51c 493d cf0e 07bb 4951 73bc
00000190: 175a 19bc 334a c13c cbca 7abc 0faf b03c
000001a0: 9683 97bd 9e25 85bc 91eb 14bd aab3 643d
000001b0: d7b9 2f3c 9e3b 39bd d280 693d 677b 83bc
000001c0: f73a 2b3b 43ec 973d b21d d43d 443a 183d
000001d0: 3568 883d 66d8 a43d 0d80 0d3d fc6c f73d
000001e0: 75c8 7c3d fd31 183d 8449 d73d 8b70 2c3d
000001f0: bdc5 c33d 0482 b9bd a0c5 c33c 0580 4dbd
00000200: ca6d 31bd 316e 5cbd f9c7 56bd 5e90 93bb
00000210: 9e46 123c f72b debc 5600 99bd 7742 0ebd
00000220: 08b9 3abd 4b72 85bd 741f ebbd 90c5 22bc
00000230: 9020 11bc f9fb 4abd 59e7 ed3c f5b1 21bd
00000240: 3735 96bc dd6f aabc 6903 79bc 4f8a 943d
00000250: 6b6c 0f3a 0302 7a3d aadb 053d 7b9a 803d
00000260: dff5 babb 10cb 8d3d e226 233d 687f acbb
00000270: 6243 d4bc 8bda 093c 8161 613d 937a 86bc
00000280: 0ac7 153d bd6c 3d3d 2829 c63d 52e4 ee3c
00000290: a64b bc3c ecfe 253d 8c92 753b 65c2 d83c
000002a0: d42b fd3c bebf e93b 283b ecbc 1fb5 3f3c
000002b0: 3235 bd3c 1264 413d bb83 17bc 1a10 2e3d
000002c0: ae33 c93a 41e0 62bd 3757 e1bc 4ccd 74bd
000002d0: 3075 8bbc d8c5 323c 1d4f 9fbd 2d1b 23bd
000002e0: a00a 103d 7ff8 e1bc 9632 633c b708 c63c
000002f0: 3901 b8bd c907 0fbd 1391 3ebd 9b15 18bc
00000300: eeae 5ebc d57e a7bd 36a4 70bd 858f b4bc
00000310: 5d9d bbbc 5362 f7bd 0a31 28bd 2348 83bd
00000320: 14c1 c33c 06d1 73bd 0d08 033d c22e 53bd
00000330: 2163 d7bc 18d7 04bd 92be e6bc e11e 033d
00000340: bc6f 923c 6eed 58bd 4eb0 1e3d b311 ad3d
00000350: 597a 773a b569 4b3d 1097 813d d763 893d
00000360: ecff 9f3c f48c 3abd fbb1 86bd 4893 473c
00000370: be76 23bd b0a7 8c3d 7db8 993d 68ab cbb9
00000380: 1e18 4cbd 5150 173c 9290 fe3c c609 943c
00000390: debc 963c 210b 6e3d abb4 ec3c 8bf0 fb3b
000003a0: 99fa 993d 746b a43c b10f c43c a322 35bc
000003b0: dbb8 df3c 3a26 cf3d 334e 183d e2ce 4f3d
000003c0: 25af 883d 2f1b c03d 0e4d 943d d6c7 f33c
000003d0: e1b8 6d3d 2e14 923d 245a 833d 3bed 903d
000003e0: 29dd d43c 155d 103d 1029 2bbd b35f a4bd
000003f0: fc30 7a3c 6649 96bc e7f3 71bc 85d2 3dbd

decoder.3.bias f4 [6]
-0.2109688 0.1945839 -0.21520497 -0.08186747 0.181852 0.13133886
00000000: 3508 58be 0041 473e b15e 5cbe 22aa a7bd
00000010: 6937 3a3e b27d 063e

decoder.5.weight f4 [6, 1, 5, 5]
-0.15938939 -0.12069873 -0.099233896 -0.108131185 -0.08043959 -0.12761733 -0.16765131 -0.124236114
0.0266568 0.06933716 -0.043964643 0.049882054 0.01965305 0.042075563 0.1832295 0.033463117
0.11454076 0.22485548 0.25497225 0.194108 0.068664104 0.17836015 0.18326455 0.20883991
0.13621894 -0.19498079 -0.2761098 -0.2018788 -0.13550313 -0.0130185345 -0.1769431 -0.2422939
-0.29651073 -0.23476239 -0.0077315047 -0.07929631 -0.07851664 -0.14019004 -0.15002614 0.009911301
-0.14426729 -0.11801809 -0.0970814 -0.10199622 0.020428266 -0.08511236 -0.112065546 -0.052897602
-0.039138358 0.06100907 0.075310655 0.14129902 0.18432008 0.12799703 0.037000727 0.12309306
0.082909346 0.1287377 0.09851612 0.09645312 0.060828615 0.0051563135 0.039005566 0.06830021
0.043255314 0.03919379 0.12499787 0.19157049 0.12955171 0.08967195 0.039734814 -0.008421664
0.13325529 0.12914398 0.10374194 0.10363749 0.043061025 -0.060880054 -0.02758866 -0.1570398
0.23341416 0.17110166 -0.0021603173 -0.03257643 0.06736055 0.24633521 0.08361974 0.19311431
0.05419511 -0.0697637 0.08886192 0.13332537 -0.10999547 -0.1472773 -0.16774721 -0.15157662
-0.08579833 0.030176241 -0.23693933 -0.28071412 -0.057967547 -0.1561979 -0.1003964 -0.08891419
-0.032187846 -0.20775084 -0.1742383 -0.21893798 -0.1932905 -0.05033793 -0.26059905 -0.2251396
-0.09572938 -0.08968205 -0.17587467 -0.14918591 -0.21776436 -0.20280924 -0.1367283 -0.121293955
-0.2094544 -0.21714841 -0.17080837 -0.23739879 -0.17801696 0.0646996 -0.020094246 -0.28486073
-0.1357008 -0.10679059 0.043715555 -0.2519143 -0.36688414 -0.21710145 0.03053982 -0.039803207
-0.26381126 -0.1433839 -0.113819174 0.116270676 -0.10197605 -0.06282779 -0.028122991 0.08501352
0.105017036 0.017848564 0.006769895 -0.01851876 0.0045799906 -0.051668435
00000000: f936 23be e530 f7bd 243b cbbd e273 ddbd
00000010: 83bd a4bd 1eae 02be c9ac 2bbe 816f febd
00000020: 5d5f da3c a400 8e3d 4514 34bd 2051 4c3d
00000030: 6fff a03c 6d57 2c3d 84a0 3b3e 9f10 093d
00000040: 5994 ea3d 8440 663e b98b 823e 3fc4 463e
00000050: c49f 8c3d 0ba4 363e b4a9 3b3e 21da 553e
00000060: fa7c 0b3e 0ba9 47be 445e 8dbe 51b9 4ebe
00000070: 55c1 0abe b14b 55bc 9230 35be e41b 78be
00000080: 41d0 97be 8d65 70be 9058 fdbb 1b66 a2bd
00000090: 55cd a0bd fa8d 0fbe 74a0 19be 0263 223c
000000a0: ceba 13be 78b3 f1bd 9dd2 c6bd 65e3 d0bd
000000b0: 2e59 a73c 644f aebd 9f82 e5bd 28ab 58bd
000000c0: 8b4f 20bd a6e4 793d 793c 9a3d b1b0 103e
000000d0: 67be 3c3e a711 033e 138e 173d 3718 fc3d
000000e0: 60cc a93d d1d3 033e d2c2 c93d 3789 c53d
000000f0: 6d27 793d 4bf6 a83b 4dc4 1f3d fbe0 8b3d
00000100: 7c2c 313d ab89 203d e2fe ff3d 0e2b 443e
00000110: 34a9 043e eda5 b73d f9c0 223d 05fb 09bc
00000120: 1374 083e 523e 043e a776 d43d e43f d43d
00000130: c260 303d 5d5d 79bd 9d01 e2bc 0bcf 20be
00000140: 1f04 6f3e 4635 2f3e 1c94 0dbb dd6e 05bd
00000150: 54f4 893d 4c3f 7c3e d440 ab3d c2bf 453e
00000160: b1fb 5d3d 45e0 8ebd 3dfd b53d 7286 083e
00000170: 4e45 e1bd dccf 16be edc5 2bbe e736 1bbe
00000180: 09b7 afbd 2a34 f73c 39a0 72be c3b9 8fbe
00000190: 616f 6dbd 58f2 1fbe a19c cdbd a518 b6bd
000001a0: 67d7 03bd a3bc 54be 866b 32be 4731 60be
000001b0: f2ed 45be 252f 4ebd 3d6d 85be ff8a 66be
000001c0: c40d c4bd 39ab b7bd 7d18 34be 31c4 18be
000001d0: 9ffd 5ebe 3aad 4fbe 8102 0cbe f768 f8bd
000001e0: 377b 56be 275c 5ebe 64e8 2ebe ab18 73be
000001f0: 144a 36be 3981 843d b09c a4bc 44d9 91be
00000200: 27f5 0abe 06b5 dabd 150f 333d e9fa 80be
00000210: 3dd8 bbbe d84f 5ebe a52e fa3c b008 23bd
00000220: 4512 87be 3bd3 12be 071a e9bd 521f ee3d
00000230: d2d8 d0bd dbab 80bd 3062 e6bc 921b ae3d
00000240: 2c13 d73d 2737 923c ffd5 dd3b a8b4 97bc
00000250: bf13 963b 48a2 53bd
