Autoencoder-on-MNIST-in-Pytorch/Models/model_e8.pt (torch, 561729 bytes, 11 tensors)

encoder.0.weight f4 [6, 1, 5, 5]
000000 15 20 59 be 25 d0 23 be 6d b2 ad bd f4 1e 49 be
       -0.21203645 -0.1599737 -0.08481298 -0.19640714
000010 76 0a 9c be f4 c2 5b be 34 9a 99 be f4 80 e9 ba
       -0.3047673 -0.21461087 -0.3000046 -0.001781492
000020 27 8a ed bd 4e 34 2b be 5f e7 e8 3d b0 09 35 be
       -0.11598616 -0.16719171 0.113722555 -0.17679477
000030 80 11 12 3d 64 ae 75 be 8f ec 32 be 4f 96 f2 3d
       0.03566122 -0.23992306 -0.17473052 0.11845075
000040 a1 9b 9e 3b ce 77 45 be 9f 49 11 be 3a f7 95 bd
       0.0048403298 -0.19283983 -0.1418824 -0.07322545
000050 b6 5a a1 bb 82 9f c8 bd be 59 26 bc 00 d7 95 be
       -0.0049241437 -0.09796049 -0.010153232 -0.29265594
000060 eb b6 b3 be 4c 19 45 be 57 62 90 be 86 94 70 be
       -0.35100493 -0.19247931 -0.28200027 -0.23494157
000070 c3 d8 92 be da de 6e be b1 35 ac 3d 6b c2 d8 3c
       -0.28681 -0.23327199 0.08408678 0.026459893
000080 1d b5 7f 3d b1 e0 d0 3c 94 12 3f 3e ed 09 16 be
       0.062428582 0.025497766 0.1865943 -0.14652224
000090 c5 0e d0 39 61 f7 0f 3e 6e 93 0a bd 7e 0f 8b bd
       0.00039683856 0.14059211 -0.033832006 -0.06790064
0000a0 00 44 42 3e 1c 84 10 3e 51 b4 e3 3d 5b 1f 0f 3e
       0.18971252 0.14112896 0.11118377 0.13976805
0000b0 85 25 6b 3e ae 5a d8 bd 08 29 1b be 0f 7c f7 bd
       0.22963531 -0.10564171 -0.15152371 -0.12084209
0000c0 1c 44 8c 3e d2 9b 73 3e ae 70 1c 3e 5f 1f 16 3e
       0.27395713 0.2378991 0.15277359 0.14660405
0000d0 87 89 06 3e 67 ef be bd 13 76 d2 bd 13 8e 42 3e
       0.131384 -0.09323006 -0.10276427 0.1899951
0000e0 45 03 b0 3d 50 26 83 be 2e 58 89 be 2b ee a1 be
       0.085943736 -0.25615168 -0.26825088 -0.3162702
0000f0 1e ee 4e be 16 7e d1 bd 44 dd b4 be f7 61 3d be
       -0.20208022 -0.10229127 -0.35325062 -0.18494402
000100 8b 0d 90 bd 1e c8 58 bc b3 3b 33 bc c2 63 a3 be
       -0.07033833 -0.013231305 -0.010939526 -0.31912047
000110 37 1c 05 3d 55 1b 03 be 35 89 2a be 43 ae 22 bb
       0.03249761 -0.12803395 -0.16653903 -0.0024823106
000120 9d cc 45 be db f3 3b be 4e f8 9f be 43 0d 42 be
       -0.19316335 -0.18354742 -0.3124413 -0.18950371
000130 72 cb 0c be 09 b2 40 be a5 15 56 3e 4b e5 e7 bc
       -0.13749483 -0.18817915 0.20906694 -0.028307578
000140 22 a5 1a bd 4a 7a 80 3d 45 be b9 bd 57 54 34 3e
       -0.03775514 0.06273325 -0.09069494 0.17610298
000150 7e 70 62 3e ac 33 39 3e 64 27 47 3e d6 26 37 be
       0.22113225 0.18086118 0.1944862 -0.17885908
000160 54 03 59 3e 20 e1 6c 3e ac 2c bc bd 69 c7 1a 3e
       0.21192676 0.23132753 -0.09188208 0.15115131
000170 6f 6d 70 3d 30 67 43 bd 7f 8e 17 3e ec 04 66 3e
       0.058698114 -0.04770583 0.14800452 0.22462815
000180 a0 15 bf ba 51 a2 01 3e 00 1c 5e 3e c3 9a 96 3d
       -0.0014578588 0.12659575 0.21690369 0.07353737
000190 c8 ba c4 bc a8 18 46 3e 21 42 32 3c 2f 3e 83 bd
       -0.024014845 0.19345343 0.010880024 -0.06408345
0001a0 83 a8 17 3e 67 91 0a 3d 4a 7c b3 bd ff ab 87 bd
       0.14810376 0.033830073 -0.08763941 -0.066246025
0001b0 31 94 7c 3e ee 00 6e 3e 92 5d f3 bd f8 43 12 be
       0.24665906 0.23242542 -0.118830815 -0.1428374
0001c0 5f 84 09 3e 81 b9 10 bc 19 8b 57 3e 87 99 33 3d
       0.13429402 -0.00883329 0.21049155 0.043847587
0001d0 34 81 dc bb 70 ad 1b bd 1e 94 46 3e a3 2c 5e 3e
       -0.0067292694 -0.0380072 0.1939244 0.21696715
0001e0 27 ee d2 bd ba 8c 89 be 32 f9 1f be b3 fc 5f 3e
       -0.1029933 -0.26865178 -0.15622404 0.21873741
0001f0 fd 07 a3 3d eb 69 83 bd 65 01 1e 3e 53 4b f7 3d
       0.07960508 -0.064166866 0.1543022 0.12074914
000200 e7 55 0f be fd 95 74 3c 8f b1 91 bd a7 0f 57 3e
       -0.13997613 0.014928338 -0.07113945 0.21002065
000210 25 6d 9a bd 2e 21 7a be 9c ad 20 be b0 d0 83 3d
       -0.07540349 -0.2442672 -0.15691227 0.06436288
000220 23 a6 1e 3e ca 65 91 bc 43 94 62 be ad b2 90 be
       0.15493064 -0.017748732 -0.2212687 -0.2826132
000230 0e 1d 7a 3e 2d 70 78 3e d5 ba 46 3e 3e d1 1a be
       0.24425146 0.24261542 0.19407208 -0.15118882
000240 03 95 1c be f6 6d be 3d 14 de 37 bd db c5 7e 3d
       -0.15291218 0.09298317 -0.044889525 0.06220041
000250 d0 c9 1f be 32 8a 12 be
       -0.15604329 -0.1431053

encoder.0.bias f4 [6]
000000 ba 0a 1f 3e 7b 1c 2f 3e bb b2 ed bc 41 15 23 3e
       0.15531436 0.17100708 -0.02901589 0.15926076
000010 a9 33 37 bd 2f cb 3b 3e
       -0.044727 0.18339227

encoder.2.weight f4 [16, 6, 5, 5]
000000 a7 8d 52 3d 0c b2 34 3d 95 97 38 bd 0b 32 e2 3d
       0.05140462 0.04411511 -0.045066435 0.11044701
000010 d8 48 83 3c 16 12 0e 3b c5 44 3a bd e5 0d 7c bd
       0.016025946 0.002167826 -0.04547574 -0.06153669
000020 9c dc 1f ba e0 b3 51 3d 72 d7 f0 bd a6 83 f9 bd
       -0.0006098242 0.051196933 -0.11759843 -0.12183313
000030 6b 02 18 bc f3 bc 42 bc a2 70 ef bc 75 bc f5 bd
       -0.00927792 -0.011885869 -0.029228512 -0.11998836
000040 3a ad e1 bc b9 d5 00 be 97 69 9f bc d4 33 a8 3c
       -0.027548421 -0.12581529 -0.019459529 0.020532526
000050 c6 0e bd bd 67 24 00 bd 63 fd 87 bd d8 56 74 3c
       -0.092313334 -0.031284716 -0.066401266 0.014913283
000060 fa b5 47 bd 52 7e c7 3c 9c 1b a4 bc c2 54 12 bd
       -0.04875753 0.024352226 -0.020032696 -0.035725363
000070 6a b6 73 3b f5 6e 8e 3c dc bc d2 3b fa d3 bf 3d
       0.0037187585 0.017386893 0.006431205 0.09366603
000080 00 29 48 3c 43 c5 b6 bb f2 b0 05 bd 13 eb 5e 3d
       0.012216806 -0.0055777146 -0.03263945 0.054423403
000090 2c 85 b1 3d ee 29 97 3d 31 3e 52 bd fc 79 22 bd
       0.08667979 0.07381044 -0.05132884 -0.039667115
0000a0 90 c5 76 3d a4 b4 e8 bc fc 45 0c bd 84 0a 7a 3d
       0.060247004 -0.028406449 -0.03424643 0.061045185
0000b0 19 54 e2 3d 1d 92 9c bd 4c c2 55 3d 4e 37 cd bd
       0.110511966 -0.076450564 0.05218725 -0.10020314
0000c0 e6 6c 89 bd ec 9b 8d 3c a6 c0 8b 3d 0e 82 58 3d
       -0.06710224 0.017286263 0.06823854 0.052858405
0000d0 e1 00 11 3c f4 25 d8 3d c8 5d 58 bc 6f 71 99 bc
       0.008850307 0.10554114 -0.013205953 -0.018730847
0000e0 58 54 45 3d 9d 90 3a bc b4 72 02 bd 54 a1 a7 3d
       0.04817614 -0.011387018 -0.03184767 0.08185068
0000f0 e9 01 cc bd a2 11 dc bc 08 0d 22 bd 9c 81 98 3d
       -0.09961302 -0.026863877 -0.03956321 0.07446596
000100 35 bf 26 3d 28 51 04 be 0a d7 a4 bd 78 22 05 3d
       0.040709693 -0.12921584 -0.08048828 0.032503575
000110 97 e3 d1 bb e8 31 34 3d 3b dd c5 bd 63 24 73 bd
       -0.0064053047 0.043992907 -0.09661337 -0.059360873
000120 74 c5 59 bc a0 c5 9c bc 3c 6d 3e bc 60 5c 96 3b
       -0.013291705 -0.019137204 -0.011622723 0.0045886487
000130 db a7 a7 3d 2d 47 58 bd 10 26 16 bd 7b 2b 95 bc
       0.08186313 -0.052802254 -0.036657393 -0.01820921
000140 90 07 0c 3d 65 3f c8 3d 95 8c 0f 3d e7 e1 b4 3d
       0.0341869 0.097777165 0.03504618 0.0883215
000150 b6 30 cc 3d b4 c1 8e 3d be b9 53 3d 9d 42 aa bc
       0.099702284 0.0697054 0.05169081 -0.020783717
000160 cd 48 80 bd ae f7 8e bc b8 92 d9 3d 28 61 cd 3d
       -0.06263886 -0.017452087 0.106236875 0.10028297
000170 76 38 4c 3c 44 51 06 bd 42 89 95 3d 55 b5 c4 3d
       0.012464633 -0.032792345 0.073015705 0.09604899
000180 ec b9 e2 bc 66 e6 cf 3c 09 86 45 bd 0c bd e4 bc
       -0.027676545 0.025378417 -0.04822353 -0.027922176
000190 c8 ee 58 3d 94 f4 c7 3d e7 2f b4 3d 06 2f df bc
       0.052962095 0.097634465 0.08798199 -0.027244102
0001a0 18 1c 35 bd 12 5b 22 3d bd e4 d2 3d c1 3d a2 bc
       -0.044216245 0.039637633 0.102975346 -0.019804837
0001b0 1c 90 63 bd 7f 42 83 3d ff c9 e4 3d 60 cb 37 3d
       -0.055557355 0.064091675 0.1117134 0.044871688
0001c0 c1 8f 49 bd 36 de 59 bc 94 47 3b bd aa 91 95 3c
       -0.04920936 -0.013297608 -0.04572256 0.018257935
0001d0 c8 69 59 3d 01 0d 58 bd 8a d5 9b bd e8 2f 31 bc
       0.053079396 -0.052746776 -0.07609089 -0.010814644
0001e0 08 85 3b 3d 3d 87 6f bc 3f b1 27 bd 20 73 dd 3c
       0.045781165 -0.014619646 -0.04094052 0.027032435
0001f0 48 02 31 bd e3 e2 74 3d 7c 5e 42 bd a9 32 71 bb
       -0.043215066 0.05978669 -0.04745339 -0.0036803877
000200 3e 77 1e bb ee 67 f4 bc ca 07 e6 3c 6b 7d 5d bd
       -0.002417996 -0.029834714 0.028079886 -0.054074686
000210 2c 35 b8 3d 49 c0 c6 3d a8 4e 41 3d 0a ea 42 3d
       0.08994517 0.09704644 0.047194153 0.04758648
000220 61 76 25 3d a8 59 d4 3c a3 33 13 bc 6d fe 0a 3b
       0.040396098 0.025921658 -0.008984479 0.0021208778
000230 f7 38 87 3d 59 78 80 3d 10 60 fc 3a f2 78 63 3d
       0.06602662 0.062729545 0.0019254703 0.055535264
000240 b0 2e 4f bd 41 35 8f 3c e5 eb 08 3d 46 76 11 3d
       -0.050581634 0.017481448 0.03342809 0.035513185
000250 14 f8 53 bc cf f8 be 3c 18 be 65 bd 35 3b 4a 3c
       -0.012937564 0.023312 -0.05608949 0.012343218
000260 e8 a1 65 bd 56 e7 68 3d ec 14 8b bc 28 4e 94 3d
       -0.05606261 0.056861244 -0.01697775 0.072414696
000270 68 e7 49 3c b6 6b 8b bd fc cc 83 3d 01 dd bb 3c
       0.012323238 -0.068076536 0.06435582 0.022932531
000280 d1 d5 4d bd e6 e1 48 bd e4 32 9f bc bd d9 41 3d
       -0.05025274 -0.04904356 -0.019433446 0.047326792
000290 53 d4 ed 39 a2 c5 4c 3c 0a d0 39 bc 40 b2 9a bd
       0.00045362356 0.012498291 -0.011341104 -0.0755353
0002a0 e1 26 09 bd 1d 35 f8 bc b3 ff 1d bd 74 d3 8c bd
       -0.033484343 -0.030298764 -0.038573932 -0.06876269
0002b0 4b a2 d5 bd d5 b0 f5 bd 24 19 62 bd bb 1f 20 3c
       -0.104313456 -0.11996619 -0.055199757 0.00977319
0002c0 01 26 4c 3d 23 30 90 bd 42 8a 0a bd 03 c6 ea 3b
       0.04984093 -0.07040431 -0.03382326 0.007164718
0002d0 f4 e8 e5 bc 37 e5 aa 3c bb 95 d8 3b e0 49 42 bd
       -0.028065182 0.020861251 0.006609646 -0.047433734
0002e0 3f 2d 4f bd 98 7e 00 bc 88 8d 23 3d ea f0 3d bd
       -0.05058026 -0.007842682 0.039929897 -0.04637233
0002f0 83 23 ac b9 5a f8 1d bd 1d 02 82 3d ad f6 46 3d
       -0.00032832855 -0.038566925 0.06348059 0.048575092
000300 39 a4 9f bc bd 0c 23 3d ca e5 91 3d dc 49 69 bc
       -0.019487487 0.03980707 0.07123907 -0.014238801
000310 ad 35 15 3d b5 c4 51 bd 15 c3 81 3d ac 73 c4 3c
       0.036428142 -0.051212985 0.06336037 0.023980938
000320 dd bb 33 3d 2b 3e 45 bd 9e f3 2b bd 6c 4f 83 3d
       0.043880332 -0.04815499 -0.04198038 0.06411633
000330 c6 97 87 3d 77 92 29 3d ab 77 3b bd 7e 1c 4e 3c
       0.06620745 0.041399445 -0.04576842 0.012580035
000340 d9 2f 36 3d 19 a8 4f bc aa 88 85 3d 96 77 87 bd
       0.044479225 -0.012674355 0.06520207 -0.06614606
000350 02 0f 89 bd 69 4c 55 bd 97 96 27 bd f1 30 74 bd
       -0.06692316 -0.052074824 -0.040915098 -0.059616987
000360 ef 37 c4 bc c7 64 0d be 9d 98 69 bd 4e c7 06 3d
       -0.023952452 -0.13807975 -0.05703031 0.032904916
000370 ad da cb bb a5 e5 aa bd db 60 d1 bd 54 10 0f bd
       -0.0062211365 -0.083445825 -0.10223552 -0.03492768
000380 ed d8 89 3d 1d e1 5a 3d 9c 75 98 3d a1 8f d6 bc
       0.067308284 0.05343734 0.07444307 -0.026191534
000390 bd 6c 8f 3d 80 30 a3 3c 7d 36 b9 3c f8 50 82 3d
       0.07003162 0.019920588 0.02260899 0.063631
0003a0 c2 ed ae 3d a4 72 78 3c b7 8e 7c bd a4 90 3f bc
       0.085414425 0.015164051 -0.06165954 -0.0116922
0003b0 e1 6b 30 3d 7c 63 2b bd e3 fa cf 3d 3a da a9 3c
       0.04307163 -0.041842923 0.10155275 0.020733941
0003c0 89 76 1f 3d f6 6c e8 3d 78 65 d2 3c b7 56 a9 3d
       0.038931403 0.11348908 0.02568315 0.08268493
0003d0 9c 27 50 3d 50 31 4a 3d 58 de 77 3d 1c 79 5b bd
       0.050819024 0.049363434 0.060514778 -0.053582296
0003e0 d8 f7 93 3d d2 26 a3 3d fd 4f a3 3a 74 73 c5 bc
       0.07225007 0.07966389 0.0012459751 -0.024102904
0003f0 64 9c 87 3d d7 6d 67 bd 0c 73 33 3d 52 fe 32 bc
       0.06621626 -0.056501236 0.04381089 -0.0109248925

encoder.2.bias f4 [16]
000000 81 ee 0d 3b 0e 09 1f 3d 7a 79 ed 3c 6d 94 3e 3d
       0.0021657052 0.038826995 0.028988589 0.04652827
000010 8f 4a d4 3d 4e 97 33 3c 24 f3 62 3d 5e 2b 13 bc
       0.103657834 0.010961367 0.05540766 -0.0089825075
000020 90 3a bf 82 45 ad 09 3e a4 e8 13 3d d3 43 20 3d
       -2.809854e-37 0.13445003 0.036110535 0.039127182
000030 53 37 d2 3d 7e 7f b5 3c 26 e5 e8 3c 75 5e 03 bd
       0.102644585 0.02215552 0.028429579 -0.032072503

encoder.5.weight f4 [10, 6400]
000000 8f 1f 82 bc ba ac ca bc b5 72 5e bc 50 1b 21 bd
       -0.015884189 -0.024740566 -0.013577153 -0.039332688
000010 de 1c 12 bd f7 f1 a0 bc 36 f1 10 bd e9 0a 13 bd
       -0.03567206 -0.019646628 -0.035386287 -0.035899077
000020 50 ed 6f bc c6 4d 10 bc 73 6d 9b bc 05 b9 4b bc
       -0.014643982 -0.008807605 -0.018973088 -0.012434249
000030 24 6c 80 3b 57 13 bc 3b 86 be 2c bb 2d ab 40 3b
       0.0039191414 0.00573961 -0.0026358678 0.0029398904
000040 f6 e0 32 3c 15 c7 0e 3c 7d c5 f0 39 bc 59 88 bb
       0.010917893 0.008714457 0.00045923507 -0.004161088
000050 da e5 c9 3b 79 3b 3a bc 93 43 d1 bb cb 55 b0 bc
       0.0061614336 -0.011366718 -0.0063862293 -0.021525284
000060 f2 06 11 bd 89 17 f7 bc c8 63 b7 bc 9b ae d0 bc
       -0.035407014 -0.03016259 -0.022386447 -0.025473883
000070 da 84 c3 3b 6b 14 0e bc 77 c9 32 3a 59 5d 25 b9
       0.005966765 -0.00867186 0.0006820182 -0.00015770401
000080 c6 ec a8 3b a8 4c be 3c d8 76 2d 3c 5a 27 c3 3c
       0.0051551787 0.023229912 0.010587417 0.023822475
000090 65 9e bb 3b ed 3d 7b 3b 46 89 d5 3b f7 58 2e bc
       0.005725669 0.0038336471 0.0065166084 -0.010641328
0000a0 c9 56 19 3d cb 2c f3 3c 7b 10 9a bb 74 57 81 bc
       0.03743628 0.029684445 -0.0047016717 -0.015788771
0000b0 a9 ec 9d bc 99 b1 a7 bc 3c 5f d0 bc d8 89 67 bc
       -0.019277887 -0.020470427 -0.025436036 -0.014131986
0000c0 db c6 29 bc 85 32 27 3c e8 7d 79 3c 59 b2 80 3c
       -0.010362352 0.010204916 0.015227772 0.015710043
0000d0 8a 60 c2 3c c2 13 33 3c ef a1 99 3c 85 80 39 3c
       0.023727674 0.010930004 0.018753974 0.011322145
0000e0 e4 52 5c 3c 98 c8 70 3a 3f f4 71 ba 25 64 a3 3b
       0.013447497 0.0009185164 -0.0009229816 0.0049863034
0000f0 0d 7c 79 3d 90 71 06 3d e1 fc 22 ba c4 11 38 bc
       0.06090932 0.032823145 -0.00062174915 -0.011234704
000100 43 68 86 bc 5c cf b0 bc c9 57 26 bb 19 11 86 bc
       -0.016407138 -0.021583252 -0.0025381914 -0.016365575
000110 e4 80 bb ba e8 69 65 3b af 06 88 3c 74 03 aa 3c
       -0.001430538 0.0035005752 0.01660475 0.0207536
000120 bd 42 f9 3b 59 19 98 3c 90 43 96 3c 33 c1 72 3c
       0.007606833 0.018566774 0.018342763 0.01481657
000130 a8 2c 42 3c f9 2d 46 3c 97 15 2d 3c 3f fa e1 3b
       0.011851467 0.012095922 0.010564229 0.0068962867
000140 41 95 51 3d 0b c0 f9 3c d6 45 87 bb 7d 63 99 bc
       0.05116773 0.030487081 -0.004128198 -0.018724198
000150 f2 33 07 bc 2f 06 58 3b 97 6f 09 ba 91 f9 3a 3c
       -0.008252131 0.003296267 -0.00052427634 0.01141204
000160 85 80 a8 3b 18 46 4d 3c f9 84 0b 3d 8a 84 0b 3d
       0.005142274 0.012528919 0.03406236 0.034061946
000170 01 eb a2 3c 25 54 6c 3b 21 21 85 bb 80 e6 18 bc
       0.01988745 0.0036060896 -0.004062787 -0.009332299
000180 75 06 15 3c 83 f1 5d 3c 6f 58 87 3c d8 26 af 3b
       0.009095778 0.01354635 0.01652166 0.0053452067
000190 7c ff d7 3c a6 76 98 3b 8b 92 4f bc 55 35 8e bc
       0.026366942 0.004652816 -0.012669216 -0.017359415
0001a0 14 00 66 ba 97 b5 40 bc 08 32 39 3a 01 9b e2 3b
       -0.00087738154 -0.011762044 0.0007064645 0.0069154506
0001b0 6f e4 4f 3c a3 11 e6 3c 37 c2 e4 3c b3 84 35 3d
       0.01268874 0.028084582 0.02792464 0.044316005
0001c0 65 0c d3 3c bf fc 66 3c f4 8b c1 bb 7e ee 63 3b
       0.025762746 0.014098345 -0.0059065763 0.0034779604
0001d0 5d 72 b1 bb 2b a0 4a 3b db 0b 14 3c 65 30 25 3b
       -0.0054152445 0.0030918221 0.00903603 0.0025205847
0001e0 b2 9b 96 3c e6 cb 34 bc 62 80 ea bc 25 20 19 bd
       0.018384788 -0.011034941 -0.02862567 -0.03738417
0001f0 45 85 af bc 85 61 2e bc 35 67 01 bb c0 27 f1 3b
       -0.021425853 -0.010643368 -0.0019745354 0.007359475
000200 38 62 a1 3c 3f 81 de 3c 71 05 1d 3d 58 0d d6 3c
       0.019700155 0.027161239 0.038335267 0.02612941
000210 20 f0 62 3b 9d c0 85 3c 9c 43 c5 39 0a b7 ba bb
       0.003462799 0.016327197 0.0003762514 -0.0056980895
000220 18 6d c1 bb 26 25 a1 bb 1d 84 9a 3b 1c d7 41 bc
       -0.0059028976 -0.0049177585 0.004715456 -0.011831071
000230 fa ca 34 bc a9 0f f2 bc ee 3c e3 bc 9e bc 98 bc
       -0.0110347215 -0.029548483 -0.027739014 -0.018644627
000240 d7 1c 3f bc 93 b7 f8 3b 24 dc ad 3b ab 84 f0 3b
       -0.011664591 0.007590243 0.005305784 0.007340034
000250 2a 19 9e 3b d7 35 c7 3c 81 24 b9 3c ae 8b 04 3c
       0.004824777 0.024317665 0.022600414 0.008089943
000260 38 c1 1c 3b b8 fa 7b bb 3d da cd bb 13 56 cc 3b
       0.0023918878 -0.0038449 -0.0062821195 0.006235847
000270 f6 14 90 3b 2d 2d 44 3c 88 96 ac 3b e9 fe 47 bc
       0.00439703 0.011973661 0.005266968 -0.012206771
000280 bf fe e7 bb 3a 00 98 bc e3 85 ad bc 79 fa 57 bc
       -0.0070799286 -0.018554796 -0.021182006 -0.013182276
000290 d2 57 08 3a 3b 10 24 bc 15 fa 5c bb 23 98 09 3c
       0.00052010745 -0.010013635 -0.0033718396 0.008398089
0002a0 3b 81 d4 3b fa ca ef 3c 1f 58 b5 3c 1d bd 95 3c
       0.006485132 0.029271591 0.022136746 0.018278653
0002b0 3c 8c 69 bb 66 ae 9f b9 2c 93 fe 3b e2 83 0a 3b
       -0.0035636565 -0.0003045678 0.007769009 0.0021135737
0002c0 08 9e 68 bb 78 cc 64 3c cb 47 32 bc 4c 20 69 bc
       -0.0035494585 0.013964765 -0.010881375 -0.014228892
0002d0 91 fa 98 bb 08 31 e7 bc 21 eb f4 bc 59 f7 4c bc
       -0.0046685417 -0.028221622 -0.029897274 -0.012510144
0002e0 55 77 ef ba 49 7f 2b bc b6 99 64 bc ce 28 10 3b
       -0.0018269817 -0.010467359 -0.013952663 0.0021996978
0002f0 0a f8 20 3c aa f4 8f 3c 06 03 18 bc 53 01 57 3c
       0.009824762 0.01757272 -0.009278065 0.013122874
000300 d7 52 91 3b 4b f4 04 3c 4e 29 a9 3c e3 f5 87 3c
       0.004434924 0.008114885 0.020649578 0.01659674
000310 b9 95 05 3c 69 64 b2 3b f3 c1 e3 3b 0c e5 2b bc
       0.008153372 0.0054440987 0.006950611 -0.010491621
000320 c6 ee 91 3c ba 4d 6c bc e0 e8 2d ba 05 3c ae 3b
       0.017814051 -0.014422828 -0.00066341273 0.0053172135
000330 e8 93 30 3c ee bb bb 3b 83 f8 29 bb dd dd 89 3c
       0.010777451 0.00572919 -0.0025935478 0.016829425
000340 e8 11 3c 3c af a7 7e ba a6 da 81 3b 0b ae 82 3c
       0.011478879 -0.0009714318 0.0039628325 0.01595213
000350 d3 f0 cd 3c ac fc de 3b 12 f5 20 3c 8a 1d b2 bb
       0.025139248 0.006805023 0.009824054 -0.0054356502
000360 22 13 0d bb ee 67 b9 bb ee dc d4 3b 14 84 ae bc
       -0.0021526297 -0.0056581413 0.0064960634 -0.021303214
000370 70 ef 3a 3c 7b ce a4 bb 1b 84 87 bb 8a 6e 58 3b
       0.011409625 -0.005029497 -0.0041356212 0.003302487
000380 69 02 0e 3c 87 70 ec bb 99 a6 5a 3c ef b6 fd 3b
       0.008667567 -0.0072155627 0.013345384 0.0077427546
000390 d1 90 14 3c 69 6a 39 ba d8 6d 01 3c 54 8c b7 3b
       0.00906773 -0.0007073046 0.007899724 0.005601445
0003a0 cc df d9 3c c8 18 1a 3b c8 eb 06 bb f8 58 f9 3b
       0.026595972 0.0023513306 -0.0020587314 0.007609483
0003b0 08 1e 35 bb f2 68 3d bc 88 9b ee bb 4a 0b 9d bc
       -0.0027636308 -0.011560665 -0.0072817244 -0.019170422
0003c0 97 95 9a 3c 1d ec 5d 3c 3c b2 f3 3b 22 aa 93 3c
       0.018870158 0.013545063 0.0074370187 0.018025462
0003d0 c4 e3 25 3c 91 11 7b 3b b1 c2 97 3b 66 8c a2 3c
       0.010125104 0.003831003 0.0046313633 0.019842338
0003e0 07 6d 53 3c 3a f7 29 bc 3c f0 26 3c 24 73 c5 3c
       0.012904412 -0.010373885 0.010189112 0.024102755
0003f0 cb c8 8b 3c ee b5 45 3b 17 51 c9 3b e2 3d 9f ba
       0.017063519 0.0030168253 0.0061437 -0.001214918

encoder.5.bias f4 [10]
000000 99 15 f4 3b a4 3c d8 bb cc c7 8a 3b 7c 31 d5 3b
       0.0074488637 -0.006599026 0.0042352434 0.006506143
000010 a0 4d 5e bb 43 ad 44 3c 56 f6 dd 3b 1a 5c b0 ba
       -0.003392078 0.012004199 0.0067737503 -0.0013455183
000020 70 1b 8f ba 54 e7 88 bb
       -0.0010918211 -0.004177967

decoder.0.weight f4 [6400, 10]
000000 f7 5d 9c 3d 80 1a 3f 3d 41 e1 aa 3d b4 65 99 bd
       0.0763511 0.04665613 0.08343745 -0.074901015
000010 d1 81 5d 3e 0c 89 87 3d 5f 46 81 be c2 f0 eb 3d
       0.21631552 0.066179365 -0.25249 0.1152053
000020 ef 5a 0f 3c 90 fb 2e 3e 2e 12 4c 3d 25 57 05 bd
       0.008749708 0.17088151 0.049822025 -0.03255381
000030 6b 80 58 bc c8 d6 6f 3c 11 63 ae bd 5a f2 1b be
       -0.013214211 0.01463861 -0.08514989 -0.15229169
000040 65 07 83 be 1f c0 25 3e 41 19 5e 3e 03 5f 23 3d
       -0.2559158 0.1618657 0.21689321 0.039885532
000050 41 27 36 bd 65 07 a8 3c e1 ef f6 3c 8f 52 3f 3e
       -0.04447103 0.020511338 0.03014368 0.18683837
000060 ca c7 ce bd 0d 02 9f 3d b6 dc 6f 3e 2a 36 15 bd
       -0.100967005 0.07764063 0.23424038 -0.036428608
000070 35 aa 81 3e 5e 42 53 be 8c 64 c0 3c 97 9e ed bc
       0.2532517 -0.20630786 0.023485444 -0.029006286
000080 20 d9 5c 3e 19 63 f7 bd ba 03 66 3d 81 ba 07 3d
       0.21567202 -0.12079448 0.056155898 0.03313685
000090 96 00 4f bd 6e 65 ec 3d a3 4d bf ba af 61 82 3e
       -0.05053767 0.11542784 -0.0014595281 0.25465152
0000a0 e9 4c 0d be 1b 0a 05 be 8b 5b d8 3d 2a 5d 01 3e
       -0.1379887 -0.12992136 0.105643354 0.12633196
0000b0 cb 06 f0 bd 4a 4c 65 bd 13 54 c8 bb f2 ae 50 3e
       -0.11720046 -0.055980958 -0.006113538 0.20379236
0000c0 bf 32 fa bd 6c 2d 2b 3e 4b a9 0c be 8c b8 7f 3e
       -0.1221671 0.16716546 -0.13736455 0.24972743
0000d0 7a f9 83 be 78 44 25 3d 73 4f 5c bd ad 88 92 bd
       -0.25776273 0.0403485 -0.053786706 -0.07154975
0000e0 3e 29 a6 3d 8b 1a 3b 3e 8e 38 f3 3c 5b 23 13 be
       0.08113335 0.18271844 0.029690053 -0.14368956
0000f0 a7 01 0b be c5 e0 d7 3b 1a a2 f6 bd db 66 75 be
       -0.13574849 0.006588074 -0.12042637 -0.23965017
000100 a6 0e fe bd 3b 78 81 3d ee 6a 0d be 53 2d 94 3e
       -0.12405138 0.0632176 -0.13810322 0.2894083
000110 f2 ab 0e 3e f8 ba 98 3c 7a 28 89 3d cf ae 39 bb
       0.1393278 0.018643841 0.066971734 -0.0028332954
000120 f0 dd be bd 55 f5 a1 3e 85 6f 17 be c1 20 7f 3c
       -0.09319675 0.31632486 -0.14788635 0.015571774
000130 94 7f 84 3e 6c 5b 7c 3e 4a 95 1e 3e 80 bd 73 3e
       0.25878584 0.2464425 0.15486637 0.23802757
000140 02 c3 97 bc b2 5c 8e 3c 11 dd 85 be 5f c3 10 3d
       -0.018525604 0.017378185 -0.26145223 0.03534257
000150 f4 23 5b 3e 0f 8d 76 be eb d3 c1 bd 43 09 0d 3e
       0.21400434 -0.24077247 -0.09464248 0.13773064
000160 a8 ea 22 bd 70 62 75 3d 31 5e 1a be 85 fb 70 3e
       -0.039774567 0.05990833 -0.15074994 0.23533447
000170 19 2b 99 be 79 4a 2c 3d e1 77 32 3e 0a 01 37 bd
       -0.29915693 0.04206321 0.17428543 -0.044678725
000180 5b 99 0b 3c ca 8f 7b be 2a 06 ab 3e 2a 28 37 be
       0.0085204495 -0.2456657 0.3340314 -0.17886415
000190 ab 4d df 3c fb 04 e3 3d 4f ab 6b 3c 12 11 24 be
       0.027258715 0.11084934 0.014384105 -0.16022137
0001a0 59 13 92 bd be 7b 13 be 75 9d 0f 3e e2 4d 8d 3e
       -0.071325965 -0.14402673 0.14024909 0.27598482
0001b0 b4 33 1c be ae 0e 03 3d df 0a 35 be 77 7d 2c 3d
       -0.15254098 0.03199642 -0.17679928 0.04211184
0001c0 19 d2 55 bc e2 ff 47 3e 4a 6d c5 bd 2f 87 6e 3e
       -0.0130505795 0.19531205 -0.09639986 0.23293756
0001d0 67 2e e7 bd 67 c3 8a 3d 54 1e 67 3e 7f 6f 0e be
       -0.112881474 0.06775551 0.22570163 -0.1390972
0001e0 46 09 03 be da 62 7d 3e 49 bb 59 3d 0b 1b 20 3e
       -0.12796506 0.2474474 0.053157125 0.15635316
0001f0 d1 12 68 bd 0a 1f 57 3d 33 c9 33 be b9 c5 83 bd
       -0.05665857 0.052519836 -0.1755722 -0.06434197
000200 f9 95 20 be c0 ac 4b 3e 10 3c 1a 3e 9d 99 c1 bd
       -0.1568221 0.19890118 0.15061975 -0.094531275
000210 03 18 e2 3d eb 9f c5 bd f3 26 ba bd 89 fd 12 be
       0.11039736 -0.096496426 -0.0908946 -0.14354528
000220 ba 53 59 3d 12 6d 49 3e a2 aa 9f bd 39 ae 0a 3c
       0.053058363 0.19670513 -0.077962175 0.0084643895
000230 56 53 8f 3e cd 33 1b 3e 63 fe 50 3e 54 f0 d8 3d
       0.27993268 0.15156479 0.20409541 0.10592714
000240 ea 5c 22 3e 68 a9 6e be 3b db 45 be bd 3d 13 3e
       0.15855756 -0.23306811 -0.19321911 0.1437902
000250 11 ea 35 be 46 eb 08 be de 0c 6b 3e b2 a7 2c 3e
       -0.1776507 -0.13371 0.22954127 0.16860846
000260 08 62 89 3d b2 cc 4d be 5e d6 7d 3e bd d6 10 be
       0.06708151 -0.20097616 0.24788806 -0.14144416
000270 49 8a 97 3d 89 89 ad be c9 14 ac bd 34 79 8a bc
       0.07399423 -0.33893993 -0.08402402 -0.016903497
000280 a3 20 2d 3e 6d 33 f1 3d 1f 32 a2 bd 26 35 a6 bd
       0.16906981 0.11777387 -0.07919716 -0.08115606
000290 e5 35 8d be b6 3a 61 3e 8a f0 1b bc 42 09 e8 bd
       -0.2758018 0.21995053 -0.009517798 -0.11329891
0002a0 9e 5b 1c 3e a9 2b 10 3e 4e a5 32 be 56 96 20 3e
       0.15269324 0.14079155 -0.17445871 0.15682349
0002b0 a0 00 eb bd b7 de e1 3d d7 8d 64 be 7d b4 4f 3d
       -0.114747286 0.110288076 -0.22319733 0.050709236
0002c0 53 b6 65 3e 36 03 10 be 37 69 d5 3c 1a 95 22 3e
       0.22432832 -0.14063725 0.026051147 0.1587719
0002d0 8c 5d a1 bd 51 dd b1 3c fd 75 45 3e 7a e9 c1 bd
       -0.07879171 0.021711977 0.1928329 -0.0946836
0002e0 0c 42 ca bd e1 7a ce bd e2 e7 19 be 09 e6 52 bd
       -0.09875879 -0.10082031 -0.15029863 -0.05148891
0002f0 b2 75 6a be d5 00 1d 3e 1a a3 1e 3e 14 0f be bc
       -0.2289646 0.15332349 0.15491906 -0.02320055
000300 47 6b 98 3c 63 9c 76 3e 86 7e 80 3e 06 c1 2b 3e
       0.018605841 0.24083094 0.2509653 0.16772851
000310 30 69 05 be 7d f7 4a be 71 77 f6 bd 32 0b ec bd
       -0.13028407 -0.19820972 -0.120345004 -0.11525573
000320 e8 04 29 bd b4 2c 01 3e 48 ec 08 3d c2 29 f5 ba
       -0.041264445 0.12614709 0.03342846 -0.0018704461
000330 d4 bc 62 be 69 c3 89 bd af 7f 4a bd b0 43 48 bc
       -0.22142345 -0.06726725 -0.049438175 -0.012223169
000340 d5 7c ea 3d bb d1 e3 3b 6c 45 ad 3d 9d be 30 3e
       0.11449591 0.006952492 0.08460507 0.17260213
000350 83 2a dc 3d cb 05 6b 3d 2e 56 32 3e c8 64 2d bd
       0.10750296 0.05737857 0.17415687 -0.04233244
000360 fb f1 c7 3d db c4 30 3e 2f 10 62 be c9 2c 8b 3d
       0.09762951 0.17262594 -0.22076486 0.067956515
000370 1d c1 00 be f5 2a 84 3d a9 18 5b 3c 98 9b f5 bd
       -0.12573667 0.06453506 0.013372579 -0.11992568
000380 5a f6 9e bd 81 0c c6 3d 4b 23 7a 3d 1b 78 e4 bd
       -0.077618316 0.09670354 0.061068814 -0.11155721
000390 e8 2f b0 bd 2d e7 22 3e 9d 93 2e bd b2 61 33 3d
       -0.086028874 0.15908499 -0.042621244 0.04379434
0003a0 db 18 5a bd e1 7c fb bc df 61 ac b9 f1 7e 8a bd
       -0.05324636 -0.030699195 -0.00032879316 -0.067624934
0003b0 0f 56 c8 3d 4f 74 1b be 0b 7f 7b 3e 18 60 cf bd
       0.097820394 -0.15181087 0.24560182 -0.1012575
0003c0 03 75 a6 be 0f fa 7a 3e ef 37 b2 3c 0f 18 01 be
       -0.32511148 0.24509452 0.021755187 -0.12606834
0003d0 ab 50 83 be ad 24 b5 bd 2c 18 04 be 39 9b 91 bd
       -0.25647482 -0.08844886 -0.12899846 -0.071096845
0003e0 87 0b 15 be 82 79 c8 3c 30 28 5e 3d f1 51 06 3e
       -0.14555179 0.024472002 0.054237545 0.13117196
0003f0 ab 49 28 be cb 69 47 3e af 8e f4 bd a7 ed 59 bd
       -0.16434352 0.1947395 -0.11941277 -0.05320516

decoder.0.bias f4 [6400]
000000 bf 16 1e 3c ca 91 20 3c 7b 36 0e 3b 05 bb 38 3c
       0.009648978 0.009800384 0.0021699953 0.011275058
000010 b3 74 23 3c c6 1f a1 bb 84 59 49 bc d5 d6 26 bd
       0.009976554 -0.0049171178 -0.012289409 -0.040732224
000020 69 51 6b bd 03 98 68 bd 51 39 3e 3b c4 0e 1d 3d
       -0.057450686 -0.056785595 0.0029025862 0.03834416
000030 f3 20 cc 3b f4 fb a5 3b 8b 1b 3f bd c9 90 97 3d
       0.006229514 0.0050654355 -0.046657126 0.074006625
000040 f6 25 47 3d 4a d7 07 bd c9 55 d4 3a 74 81 02 3d
       0.048620187 -0.0331643 0.0016199882 0.031861737
000050 a2 5f 8c 3b 83 33 a0 3c 8b 5b 06 3d 2c c3 c0 bb
       0.0042838613 0.019555813 0.032802146 -0.0058826413
000060 07 50 21 3d 02 41 0e bd e1 66 18 3d 2c 06 ba 3d
       0.03938296 -0.034729965 0.037207488 0.090832084
000070 37 11 4f 3b 31 51 10 bd 36 bd 9f bc 6d 14 55 bc
       0.0031595954 -0.03523368 -0.019499402 -0.013005358
000080 54 b6 bf ba 82 14 66 3d ae 74 4a bc de b7 80 3d
       -0.0014626482 0.0561719 -0.01235692 0.0628507
000090 b7 59 a0 3a d8 d4 4b bc 37 dc e7 bc 4b 4f 7f bc
       0.0012233768 -0.012440883 -0.028303249 -0.01558287
0000a0 0d 59 9a 3a 5d 96 72 3c 7d 8d a7 3c c6 b0 52 3c
       0.0011775807 0.014806357 0.020453209 0.012859529
0000b0 e3 cd ab 3b 8d cd 15 bc 61 5c 1e bc ef 5a 81 bc
       0.0052430495 -0.009143245 -0.00966558 -0.01579043
0000c0 e5 0a f3 3c 85 74 70 3d 08 38 8d bc 91 29 82 3d
       0.02966828 0.05870487 -0.017238632 0.063555844
0000d0 f9 2c 15 bc e2 2f 24 bd 45 1c 3c bd de bc 76 bd
       -0.009104961 -0.040084727 -0.045925397 -0.06023871
0000e0 ff 65 83 bd 7e 7c 96 bb fc 2a 5e 3b 47 c0 5b bb
       -0.064159386 -0.0045924773 0.0033900132 -0.0033531354
0000f0 78 3f 01 bc 0f 75 bd 3c 7e e6 8c 3c 63 5f ee 3b
       -0.007888667 0.023127107 0.017199751 0.0072745546
000100 f4 c8 a9 3c 61 64 2e bb b0 49 6b bc 2b 99 34 ba
       0.020725705 -0.0026610123 -0.01436083 -0.0006889279
000110 0e 3f a9 bc 8f 91 2f 3d 39 74 7f 3c aa 3f 8a 3d
       -0.02065995 0.042863425 0.0155916745 0.06750424
000120 64 ec 56 bc ed ec d0 bb ce 56 4f bb 8e 4d 86 bc
       -0.013117883 -0.0063759 -0.0031637433 -0.016394403
000130 a6 89 c4 bc 3e 63 c8 3c e9 70 cf 3c 38 ec c1 bb
       -0.023991417 0.024461385 0.025322394 -0.005918052
000140 70 59 2e 3d a3 4c 1a bc 45 bb 71 3c 6b 8e c1 3c
       0.042565763 -0.009417686 0.014754121 0.02362748
000150 49 c4 b9 bc 02 e8 66 3d e1 a1 17 3c 1f 29 b0 3c
       -0.022676604 0.056373604 0.0092549035 0.021503983
000160 84 9f be 3c 23 d8 1a 3e 94 94 c1 3d 1f 96 1f bd
       0.023269422 0.15121512 0.09452167 -0.038961526
000170 3d 19 98 bc 79 05 95 bc c4 63 7d 3d 05 9f 35 3c
       -0.018566722 -0.018191086 0.061862722 0.0110852765
000180 ca 95 16 3c 39 24 b8 bc 82 82 0b 3d a2 a9 22 3c
       0.009190986 -0.02247821 0.03406001 0.009928139
000190 97 ff ab 3b f8 8d 85 bb 34 7b ef 3c 50 f7 ae 3b
       0.0052489745 -0.004075762 0.029233553 0.0053395405
0001a0 16 b0 c8 bc fc b1 84 3d db 13 b3 3d aa c8 05 bd
       -0.024498027 0.0647926 0.087440215 -0.03266207
0001b0 40 f3 a3 3d a6 1b 3c ba c7 44 1f 3b 1e f1 53 3d
       0.08005381 -0.0007175751 0.002430247 0.05174362
0001c0 05 88 84 3c 34 2a 38 3d e0 24 f7 3c 42 50 20 bc
       0.01617814 0.044962123 0.03016895 -0.00978476
0001d0 be 04 94 3b f0 08 74 3d 8c ee 4c 3c 67 2b de 3c
       0.004517167 0.059578836 0.012508046 0.027120305
0001e0 18 3f ee 3c 4c d9 ca bc 26 0c b8 bb 52 ff 31 bb
       0.02908282 -0.024761818 -0.0056166826 -0.002716024
0001f0 14 68 4a 3c d4 a1 f3 3d 9b 32 60 3d 03 73 ea 3b
       0.012353916 0.11896101 0.05473576 0.0071548237
000200 b8 80 28 bc fc 21 dc 3c 1e f6 99 bc 26 39 d0 bc
       -0.010284595 0.026871674 -0.018794116 -0.025417875
000210 06 f4 85 bd c2 3b 3f 3d 13 f2 29 bd e3 cc a3 3a
       -0.065406844 0.04668785 -0.041490626 0.0012496974
000220 93 ad 1e 3d df ab f4 3b 3b 92 7c 3b a4 e5 fe ba
       0.038739752 0.0074667777 0.0038539309 -0.00194471
000230 bc 24 78 3c 9a bd 99 bb f2 08 a0 bb c0 e8 44 3d
       0.015145477 -0.0046917917 -0.004883879 0.04807353
000240 28 34 fe bc aa 2d e4 3a ff 26 c8 3d 44 53 e7 3d
       -0.03103073 0.0017408628 0.09773063 0.112951785
000250 e0 25 82 bd 4e 71 8e 3d d6 c2 01 bc df b2 32 3b
       -0.0635488 0.06955205 -0.007919988 0.002726726
000260 12 99 22 bc bd 24 e6 3c 43 6f 2d 3c f8 2e 92 3d
       -0.00992419 0.02809369 0.010585609 0.07137865
000270 1b 88 16 3c e5 e7 6e 3c 29 e0 d7 3c a8 da 4d 3c
       0.0091877235 0.014581655 0.026352005 0.012564339
000280 0b a5 ea bb 57 12 19 3c 54 22 55 bb ab f8 a2 bc
       -0.007160788 0.0093427515 -0.0032521682 -0.019893965
000290 79 29 91 3a 01 84 6c 3d 92 3a 03 3d e1 aa 72 bd
       0.0011074982 0.057743076 0.03203828 -0.059244994
0002a0 f3 28 bc ba f3 5b 56 bd 05 75 0c 3d f4 6f a4 3c
       -0.0014355466 -0.052333783 0.034291286 0.020072915
0002b0 01 df 4d bc 84 17 56 3d 86 53 3a bc 0a 71 a4 bc
       -0.012565375 0.05226852 -0.011372453 -0.020073432
0002c0 f5 e5 20 3c 1a 49 c8 3c dc a5 84 bc c5 20 47 3b
       0.009820451 0.02444892 -0.01619237 0.0030384522
0002d0 1a 04 7e 3b 69 02 4e 3d 7f 3d 4b 3c 84 75 3b 3c
       0.003875977 0.050295267 0.0124047985 0.011441592
0002e0 a0 8b 9a 3d 5d 61 3b 3d 7f 9d e1 bc c6 8b f0 3c
       0.075461626 0.04574715 -0.02754092 0.029363524
0002f0 6e 5c a1 3c 8f 7d 86 3c 08 30 d6 3c 13 fa 2e bd
       0.019697394 0.016417293 0.02614595 -0.042718958
000300 83 e0 14 bd 8f f3 76 bd a9 50 90 bc 90 c6 ef 3c
       -0.036346924 -0.06029087 -0.017616587 0.029269487
000310 e5 a9 5c 3d 3b 1f 50 bb 1b ea 08 3d be 4d 9d 3b
       0.05387296 -0.0031756896 0.033426385 0.0048005274
000320 7c 70 a1 3b be df 50 3c db 0a 38 3d d4 16 af 3c
       0.0049267393 0.012748657 0.044932228 0.02137319
000330 b7 44 c6 ba fa 85 b1 bc 8d 4a e0 bb e5 7a c0 bc
       -0.001512668 -0.02167033 -0.0068448246 -0.0234961
000340 28 44 4b bc f8 75 05 3d 98 84 ee bc 73 1b 00 bc
       -0.012406386 0.032583207 -0.02911596 -0.007819044
000350 57 f0 ab 3d be 40 82 bc 1f 37 e6 3d 4f ba 4b 3d
       0.083954506 -0.015900012 0.11240982 0.049738225
000360 18 b1 f8 ba cc 14 0c 3a f8 1a 1f bb 05 e8 19 bb
       -0.0018973676 0.0005343675 -0.002427755 -0.0023484242
000370 09 3a ca 3c 7e 88 27 3b 73 bd 37 3c 29 83 6c 3c
       0.024685876 0.0025563533 0.011214602 0.014435568
000380 b4 0d 64 3b 82 e8 a0 bb d1 10 69 bc 0c 0c 3f 3a
       0.0034798207 -0.0049105296 -0.014225201 0.0007287867
000390 69 a4 35 bd 2c f8 44 bb 24 0b b9 3d 1e cf 7c 3d
       -0.044346247 -0.0030055149 0.09035328 0.06172096
0003a0 0d 17 f2 3d 2f 65 ca bc 6d c1 89 3c 5c 04 2c bd
       0.11820803 -0.024706451 0.016815865 -0.041996345
0003b0 e7 ca 85 3c af 2e c5 3b e6 8d 8d 3c d5 a8 e7 3b
       0.016332103 0.006017528 0.017279577 0.007069687
0003c0 1d 89 25 bc b9 19 a4 bb 0e 19 8b 3c 6b a3 b9 3c
       -0.010103491 -0.005007949 0.01697972 0.022660932
0003d0 72 f0 49 3c 21 d4 52 3d 0c 8a c7 3d 60 5e da 3c
       0.012325393 0.051471833 0.09743127 0.02665633
0003e0 01 6b b4 3c 85 79 cb 3c 40 cf 01 bb fc cb ed 3d
       0.02202368 0.024838218 -0.0019807369 0.116111726
0003f0 48 72 51 bd c1 b1 1b bc b4 45 d3 3b 3d 7a 4c 3c
       -0.051134378 -0.009502829 0.0064475182 0.012480316

decoder.3.weight f4 [16, 6, 5, 5]
000000 fb 7c cb 3c c5 21 de bc 48 4d ef 3c 4a 3c 9f bc
       0.024839869 -0.027115712 0.029211655 -0.019437928
000010 1a 6c 1c bc d3 e9 51 3c f2 10 e9 bc 96 5c 17 3d
       -0.009547258 0.012812096 -0.028450463 0.03695353
000020 ed 4a a0 bd 6a 78 a9 bd 79 9c 5c 3d 3b 9a 03 bb
       -0.07826791 -0.0827492 0.05386016 -0.0020080942
000030 00 24 a7 bb 6f 00 b2 bc 11 6f 95 bd fd 85 68 bd
       -0.005100727 -0.021728722 -0.07296575 -0.056768406
000040 49 cb 50 bd dd 94 a6 bd 1f dc e8 bd f8 f3 05 be
       -0.050975118 -0.08133862 -0.1137011 -0.13081348
000050 0c 99 a7 bd d7 55 c6 bd 83 ba 50 bb de 7b 9d bd
       -0.08183488 -0.096843414 -0.003184945 -0.076896414
000060 c2 bd f6 bd b5 74 cc 3d 56 2e 2c 3d 71 7b f0 bc
       -0.12047912 0.099831976 0.042036377 -0.029355736
000070 3f a7 4e 3d 1f 1b 88 3c b0 6a f2 ba e9 98 71 ba
       0.050452467 0.016614495 -0.001849493 -0.0009216206
000080 f3 c1 38 bc 57 41 b0 bd 21 80 b1 bc b6 a5 8a bd
       -0.01127671 -0.086062126 -0.021667542 -0.06769888
000090 2a d2 49 bd 67 21 6c bc 0c 47 d1 3c b8 c5 fe bc
       -0.049272694 -0.014412261 0.025546573 -0.031100139
0000a0 dd 15 98 3c 7a 57 87 bd 11 4e 4e 3d a9 6b 8b bc
       0.018565113 -0.06608482 0.05036742 -0.01701911
0000b0 5a 23 2e bd 97 e4 41 bd 18 54 52 3c 64 16 63 bd
       -0.042514183 -0.04733714 0.012837432 -0.055441275
0000c0 d9 1a 9d bc d1 ec 26 3d 61 9f 94 bd bc 45 28 bd
       -0.019177841 0.04075319 -0.072569616 -0.04108213
0000d0 6b a3 4a bc fb bf 84 bc 66 20 a2 bc 1b 8a 54 bd
       -0.012368063 -0.016204825 -0.01979084 -0.05188952
0000e0 d4 91 be ba 10 27 83 bd 6f 5a a9 bc a2 4d 1f bd
       -0.001453931 -0.06403935 -0.020673005 -0.038892396
0000f0 70 63 8d bd 9a 40 68 bd ab 27 00 3d 67 d7 21 bd
       -0.06903732 -0.056702234 0.03128783 -0.039512064
000100 24 a2 6f bd 3f 10 95 bc b1 8f af bc b3 07 94 3d
       -0.05850424 -0.018196223 -0.021430822 0.07228031
000110 71 b5 7d bd 83 65 14 bd f3 bc 36 3c 5f 4d 42 3d
       -0.061940614 -0.03622962 0.011153447 0.047437068
000120 98 2d 05 3d 3e 90 df 3c a5 48 3e bd 26 cd b4 bc
       0.032514185 0.02729046 -0.046455998 -0.022070479
000130 a4 dd 86 3c 63 23 90 3d 1a db fa 3c 56 3d 4a 3d
       0.016463108 0.070379995 0.030622054 0.0493749
000140 61 9d 7b 3d c2 52 9b 3d 25 c7 c3 3d 1d f9 b6 3d
       0.061429385 0.07584144 0.09559468 0.08934233
000150 5c ca 11 3d 86 a5 79 3d 9d 0f 34 3d bd 1f 84 3d
       0.035593376 0.06094887 0.043960202 0.06451366
000160 d9 09 8c 3d 71 b8 f8 bb 59 a5 80 3d 26 f4 e9 3b
       0.06837816 -0.0075903465 0.062815376 0.0071397005
000170 9a e6 1a 3d f4 86 89 bc 8f 9f 52 bb 21 ed 92 3c
       0.037817575 -0.016787983 -0.0032138561 0.017935337
000180 e7 bc b0 3c 30 64 3a 3d 54 a6 1f bb 42 36 c3 bb
       0.02157445 0.045505702 -0.0024360614 -0.005957396
000190 08 b9 5b bc 20 3f b1 3c 90 12 a0 bc a3 78 be 3c
       -0.013410814 0.021636546 -0.019540101 0.023250883
0001a0 b9 4a 91 bd 1e fb a7 bc ef 71 1c bd ed 7b 74 3d
       -0.0709433 -0.020505484 -0.038194593 0.059688497
0001b0 cd a2 59 3c 23 a2 39 bd 30 7d 6f 3d 17 23 63 bc
       0.013283444 -0.04532064 0.058468997 -0.013863347
0001c0 37 12 90 38 2f 3d 9b 3d e3 fc cc 3d 12 81 22 3d
       6.869848e-05 0.07580029 0.10009172 0.039673872
0001d0 a3 35 7e 3d 1b 27 95 3d 9a 8a 04 3d 02 98 e9 3d
       0.06206287 0.072828494 0.032358743 0.11405946
0001e0 64 b8 83 3d d3 77 02 3d 03 24 c9 3d 96 69 0f 3d
       0.06431654 0.031852555 0.09821322 0.035012804
0001f0 f0 fd ad 3d 3f 46 bb bd 50 93 e2 3c 53 51 41 bd
       0.084957 -0.09144258 0.027658135 -0.047196697
000200 c9 bb 07 bd 29 95 80 bd 9d d0 2e bd 87 9d a3 bb
       -0.03313807 -0.0627845 -0.042679418 -0.004993144
000210 d1 96 79 3c da 06 92 bc 94 65 99 bd 03 65 1e bd
       0.015233711 -0.017825533 -0.074900776 -0.03867055
000220 f9 7c 5d bd f4 d4 8c bd 90 23 00 be af 01 84 bc
       -0.05407426 -0.06876555 -0.12513566 -0.016114084
000230 37 00 e5 3a 88 24 6d bd 86 13 0e 3d 0d 78 30 bd
       0.0017471378 -0.057896167 0.034686588 -0.04308324
000240 92 92 74 bc 83 be cc bc 48 a9 50 bc 1a 58 89 3d
       -0.014927523 -0.024993187 -0.012735672 0.06706257
000250 cd 09 13 bc 38 f5 6b 3d 17 37 0d 3d 5f 77 85 3d
       -0.008974505 0.057606906 0.034476366 0.06516909
000260 c2 66 25 bc 75 62 89 3d 3d 14 2d 3d a9 30 1a bc
       -0.0100953 0.06708232 0.04225563 -0.009411016
000270 63 6a fe bc 69 e3 ca 3b 1c 8d 5e 3d 2c 02 88 bc
       -0.031056589 0.00619166 0.05433379 -0.016602598
000280 55 3c 34 3d f5 ed 32 3d 32 33 c5 3d 41 32 05 3d
       0.04400285 0.043683965 0.09628905 0.03251863
000290 62 60 a0 3c 97 44 19 3d b6 d3 13 ba 56 8b a8 3c
       0.019577209 0.037418928 -0.00056391524 0.020574253
0002a0 56 92 ef 3c b0 35 22 3b 0d 5d 0a bd 6c 29 dd 3b
       0.029244583 0.0024751239 -0.033780146 0.0067493226
0002b0 be 6a dc 3c 92 5d 60 3d 2c fc fd bb 6d ff 2b 3d
       0.026906367 0.054776736 -0.0077510085 0.04199164
0002c0 4b 1d 78 3b ce d9 3c bd 2b 3c e3 bc 3d ec 69 bd
       0.0037859257 -0.046106152 -0.027738651 -0.05711006
0002d0 8c f6 36 bc 4d 49 69 3c 10 f2 a6 bd 66 03 1b bd
       -0.01116718 0.014238668 -0.081516385 -0.037845038
0002e0 fb 77 26 3d 56 1f e1 bc fb 87 93 3c b8 f3 f6 3c
       0.040641766 -0.027480762 0.018009176 0.030145511
0002f0 e5 03 ab bd 4a 1c 06 bd 26 9a 3f bd 55 4d d3 bb
       -0.08350352 -0.032741822 -0.046777867 -0.0064484277
000300 f1 82 08 bc d4 ea 9e bd 12 44 74 bd 4f b0 9f bc
       -0.008332 -0.07759634 -0.05963523 -0.01949325
000310 89 25 ad bc 56 66 e8 bd ec d2 fa bc 6f 1b 76 bd
       -0.021136062 -0.11347644 -0.030618154 -0.060084756
000320 b9 7f d8 3c a7 f7 69 bd b7 19 f8 3c 39 c3 5c bd
       0.02642809 -0.057120945 0.0302857 -0.053897116
000330 cc 74 da bc 70 41 e5 bc 51 fe ea bc 48 88 0e 3d
       -0.026667021 -0.027985305 -0.02868572 0.034797937
000340 c4 6b 8c 3c ad b3 67 bd 62 e9 21 3d 32 ff ad 3d
       0.01714123 -0.056567837 0.03952921 0.0849594
000350 7b cd 20 3b d4 b1 43 3d 46 ec 79 3d 33 bb 90 3d
       0.0024536538 0.047777012 0.061016344 0.070669554
000360 d9 72 af 3c f3 3f 35 bd 01 23 82 bd bf 8d 75 3c
       0.021417068 -0.04425044 -0.06354333 0.014987408
000370 b9 c3 32 bd e1 f9 8f 3d 9b 53 a1 3d 60 ca c1 ba
       -0.043643687 0.070300825 0.078772746 -0.0014785044
000380 6f 80 47 bd fc 0e 05 3c 44 95 29 3d 08 09 be 3c
       -0.04870647 0.008121248 0.041402116 0.023197666
000390 42 33 b4 3c 76 39 8e 3d de d8 b0 3c 4a 8e 82 bb
       0.021997098 0.069445536 0.021587785 -0.0039842473
0003a0 f6 91 a1 3d de 06 8c 3c 64 4c 93 3c 31 57 5b bc
       0.07889168 0.017093118 0.017980762 -0.013387487
0003b0 3e f2 a9 3c 06 6e c9 3d 8a b0 14 3d e9 f8 37 3d
       0.020745393 0.098354384 0.036301173 0.044915114
0003c0 d8 f1 72 3d 22 f0 bb 3d d0 34 8c 3d b2 33 b5 3c
       0.05931267 0.09176661 0.06846011 0.022119377
0003d0 ed 3c 77 3d 1a 33 93 3d 11 2e 7d 3d 37 71 85 3d
       0.060360838 0.07187481 0.06181151 0.06515735
0003e0 5d 57 e0 3c bb de 1c 3d 23 75 1d bd b0 5e aa bd
       0.027385408 0.03829835 -0.03844179 -0.083188415
0003f0 fd 44 31 3c 61 1b 90 bc 20 02 97 bc 33 2c 2d bd
       0.010819671 -0.01759118 -0.01843363 -0.04227848

decoder.3.bias f4 [6]
000000 a0 f2 1e be 26 e0 0e 3e ba d4 23 be 24 99 3d bd
       -0.15522242 0.13952693 -0.15999117 -0.046288624
000010 55 a4 02 3e 04 82 d7 3d
       0.12758 0.105228454

decoder.5.weight f4 [6, 1, 5, 5]
000000 87 ad 27 be 7f f3 c6 bd fb 69 a4 bd 4f 72 e1 bd
       -0.16374789 -0.09714412 -0.08028027 -0.11008131
000010 3e 87 c3 bd 1b 23 d2 bd 3c d0 25 be be d1 f5 bd
       -0.0954728 -0.10260602 -0.16192716 -0.12002896
000020 af 6c 33 3d d8 6b 9d 3d d6 cf 05 bd 70 d8 a1 3d
       0.04380482 0.07686585 -0.03266891 0.0790261
000030 18 3a 61 3c 94 de bf 3c 09 92 49 3e f3 a4 23 3d
       0.013746761 0.023421563 0.19684614 0.03995223
000040 de 6b e9 3d fb 04 62 3e 3f ee 82 3e 90 5f 48 3e
       0.11397527 0.22072212 0.25572392 0.19567704
000050 0c 0f 97 3d 27 51 3a 3e eb f8 35 3e bb 8a 50 3e
       0.07375917 0.1819502 0.17770736 0.20365421
000060 68 ae 08 3e dd 44 57 be 34 6d 8c be 6b 51 27 be
       0.1334778 -0.21022363 -0.27427065 -0.16339652
000070 c4 fd dd bd be 65 e6 3b aa 6f 3b be 77 75 58 be
       -0.108394176 0.0070311716 -0.18304315 -0.2113856
000080 e4 52 8a be d5 11 5e be 7d 93 c8 3b 91 f9 9f bd
       -0.27016366 -0.2168649 0.0061210976 -0.07811273
000090 d5 80 59 bd 14 25 df bd 82 64 0e be 5a d7 a2 3c
       -0.05310138 -0.10895744 -0.13905528 0.019878078
0000a0 69 31 14 be c5 af da bd 05 b1 83 bd da cb c6 bd
       -0.14471973 -0.10678057 -0.06430248 -0.0970685
0000b0 b9 b6 d3 3c 5a 87 bb bd 67 8e f6 bd d5 0b 35 bd
       0.025843965 -0.09156676 -0.1203888 -0.044200737
0000c0 72 88 20 bd fd a5 9a 3d e2 82 9d 3d e0 00 1a 3e
       -0.039192624 0.07551191 0.076909795 0.15039396
0000d0 17 4a 4a 3e 91 df f9 3d 5b 2d f7 3c 53 c1 0f 3e
       0.19754826 0.12200845 0.030172994 0.14038591
0000e0 50 3d a7 3d 85 0e 00 3e 42 ea c6 3d 0d a3 d8 3d
       0.08165991 0.12505539 0.0971265 0.105779745
0000f0 4c 80 8f 3d ca b3 38 bc 82 81 d0 3c 74 3f 6b 3d
       0.070068926 -0.011273334 0.02545238 0.05743356
000100 ef 75 2b 3d 26 90 0e 3d 54 08 08 3e 56 8f 45 3e
       0.041860517 0.03480544 0.13284427 0.1929296
000110 16 bf f2 3d f8 3e bb 3d f5 56 44 3d 99 10 f5 bc
       0.11852853 0.0914287 0.04793449 -0.029915141
000120 84 b2 0f 3e e4 7f fa 3d 80 c2 ef 3d 30 a1 cd 3d
       0.14032942 0.122314245 0.1170702 0.1004051
000130 98 4c 07 3d be 04 88 bd 5f a6 b4 bc ad 4b 20 be
       0.03303203 -0.066415295 -0.022051988 -0.15653868
000140 4f 9a 6a 3e 5c b2 22 3e 1e e5 12 bc d4 26 e6 bc
       0.22910427 0.15888351 -0.008965759 -0.028094687
000150 70 6c b4 3d ce 12 76 3e b2 23 86 3d 80 af 47 3e
       0.08809745 0.24030611 0.06549777 0.19500542
000160 c6 1d 8a 3d fa d9 4a bd 64 de ae 3d fc 6e 0d 3e
       0.0674396 -0.049524285 0.085385114 0.13811868
000170 5f 89 d9 bd 1d 4a 01 be 20 27 1a be 8c aa 19 be
       -0.106219046 -0.12625928 -0.15053988 -0.15006465
000180 c2 e5 9a bd 97 dd 52 3d 5c cf 61 be 36 28 8e be
       -0.07563354 0.051480856 -0.22051758 -0.27765054
000190 3b 5a 0b bd 33 38 27 be ac 18 a6 bd bd 60 88 bd
       -0.034021597 -0.16330032 -0.081101745 -0.06659076
0001a0 94 68 c6 bc de a4 4d be d6 de 10 be 3d 00 5b be
       -0.024219789 -0.20082423 -0.14147505 -0.2138681
0001b0 d1 a9 3a be d7 ed b1 bc 46 25 82 be df cf 4c be
       -0.18228842 -0.021719856 -0.25419062 -0.20001172
0001c0 3e 78 75 bd 64 30 5f bd 88 de 3f be 9e 8a d0 bd
       -0.059929125 -0.05448951 -0.18737233 -0.10182689
0001d0 50 32 3b be 3a 54 34 be 08 21 cf bd ba 76 bb bd
       -0.18280911 -0.17610255 -0.10113722 -0.09153505
0001e0 84 86 53 be cd 37 48 be b1 ae 11 be 59 da 69 be
       -0.20656782 -0.19552536 -0.14226796 -0.228372
0001f0 30 7c 30 be 27 1d 99 3d 08 54 23 3c 37 d9 8b be
       -0.17234874 0.074762635 0.009968765 -0.2731416
000200 d0 9f 89 bd 69 83 df bd 66 d4 a4 3d 0c ef 7f be
       -0.06719935 -0.109137364 0.08048324 -0.24993533
000210 03 9f a2 be 34 0c 3d be b9 9e 87 3d b7 62 bb 3a
       -0.3176194 -0.18461686 0.06622071 0.0014296387
000220 f5 64 80 be e1 6b bf bd 5f 5d f0 bd 96 6d 04 3e
       -0.25077024 -0.09346748 -0.11736559 0.12932429
000230 bd a2 de bd 42 a0 78 bd 52 fb d1 bc c0 7b cb 3d
       -0.108708836 -0.06069971 -0.025632534 0.09935713
000240 fe 3f b0 3d 12 9f 1e 3c 8c 64 fb 3b dc cc 32 bd
       0.086059555 0.00968148 0.007671898 -0.0436524
000250 c4 42 a7 bc ff c6 ac bd
       -0.020417579 -0.08436393
