Autoencoder-on-MNIST-in-Pytorch/Models/model_e18.pt (torch, 561729 bytes, 11 tensors)

encoder.0.weight f4 [6, 1, 5, 5]
00000000: eb27 8abe 9a8c 64be 08fb 11be ed97 71be
00000010: 243e b1be 8f57 73be 197c b2be 0f90 85bd
00000020: fa2b 0abe 4c3e 4ebe c230 113e 544c 4bbe
00000030: 0daf b23b af1b 80be 476e 68be b8e7 133e
00000040: 0a4b d23c 6ee5 30be 9d15 24be 879f 0dbe
00000050: a0ec 153c 2cc5 b8bd 3cd6 f0bc 9825 aebe
00000060: b557 d3be 28b3 73be b94a abbe bc83 8fbe
00000070: 567b 9ebe e247 6fbe 0af3 8d3d a391 113c
00000080: 35d2 573d 3dbd d63c 8e68 553e 5710 09be
00000090: c31a 773c 1bd0 1e3e 8a5e b1bc 2912 37bd
000000a0: 31f0 453e 4aa9 143e 8641 e63d 0af1 123e
000000b0: cd78 793e e093 e5bd e057 17be 7c36 e0bd
000000c0: f5ec 973e 79c3 883e 0f87 2c3e d84c 383e
000000d0: 923c 1f3e a1e6 b8bd 964c 0dbe f972 363e
000000e0: 6e25 9b3d 2139 85be 7bcc 99be f616 dcbe
000000f0: a2f4 67be ff42 09be ee83 b9be 2802 57be
00000100: 112a 0bbe b952 86bd 2773 abbd 5c61 b0be
00000110: 49b6 53bb 2d8a 34be 8d46 70be a251 a0bd
00000120: 3475 5abe 5bf8 35be eeeb 9ebe a8d5 4ebe
00000130: 3d7d 1fbe a09d 45be 8a46 603e 22b3 1bbc
00000140: 8d87 41bd 1479 6c3d bbae aabd 9080 3f3e
00000150: 1055 6d3e ff2d 3b3e 2b01 503e ed27 2cbe
00000160: 6fcd 5a3e 8b48 733e 4e60 7ebd 84e4 2e3e
00000170: b542 913d 3c6e 33bd 8ac0 1f3e fda9 7b3e
00000180: 31eb 8a3c 751f 103e 4ac2 673e 207e b23d
00000190: eb90 3abc c629 583e e165 083d 725a 68bd
000001a0: c7dd 253e 081f 583d 7464 91bd d2b1 45bd
000001b0: 4937 813e e7d2 863e 6988 fdbd 037b 12be
000001c0: 29f0 0d3e b01a a83b f478 7e3e 66eb a2bb
000001d0: 4fcf 14bd b8b0 5fbd aec6 4e3e ed10 7f3e
000001e0: 5fe9 3ebe 0063 9ebe 263a 35be 32d8 603e
000001f0: 9cc2 c53d a069 89bd 72e9 213e 49ac 0d3e
00000200: d52c 06be 9007 d1bb 69c7 80bd 1a71 6b3e
00000210: 747b 3fbd 02b0 78be 4cc5 24be f234 aa3d
00000220: 241c 3b3e b956 0bbc 611b 92be 8eae 9bbe
00000230: 47a1 873e f9c1 853e 473e 3a3e f7e3 5ebe
00000240: ec0c 2fbe 3332 f63d 64ee babc 4e86 873d
00000250: 7437 21be 9649 01be
-0.2698358 -0.2231926 -0.14255917 -0.23593111 -0.34617722 -0.2376387 -0.34860304 -0.065216176
-0.13493338 -0.20140952 0.14178756 -0.19853336 0.0054529966 -0.2502112 -0.22698317 0.14443862
0.025670547 -0.1727502 -0.1602387 -0.13830386 0.009150654 -0.090219826 -0.02939903 -0.34013057
-0.41277853 -0.23798811 -0.33455446 -0.28030193 -0.30953473 -0.23367265 0.06931122 0.00888482
0.052690703 0.026213283 0.20840666 -0.1338514 0.015082064 0.15509073 -0.021651525 -0.044695053
0.19329907 0.14517704 0.11242966 0.14349762 0.24362488 -0.112098455 -0.14779615 -0.10947892
0.2967297 0.26711634 0.16848396 0.17998064 0.1555045 -0.09028364 -0.13798746 0.17817296
0.075754985 -0.26020148 -0.3003882 -0.42986268 -0.22651914 -0.13404463 -0.36233467 -0.20996916
-0.13590266 -0.06558747 -0.08371573 -0.3444928 -0.0032304695 -0.17630835 -0.23464413 -0.0782807
-0.21333772 -0.17770521 -0.31039375 -0.20198691 -0.15575118 -0.1929841 0.21901909 -0.009503158
-0.047248412 0.057732657 -0.083341084 0.18701386 0.2317698 0.18279265 0.20312946 -0.16812105
0.21367429 0.23758142 -0.062103562 0.1707936 0.070928015 -0.0438063 0.15600792 0.24576564
0.016957851 0.140745 0.22632709 0.08715463 -0.01138709 0.21109685 0.033300284 -0.05672688
0.16197883 0.05276397 -0.07099238 -0.048265286 0.25237492 0.2633278 -0.12379534 -0.14304738
0.13861145 0.0051301345 0.24850827 -0.0049719093 -0.036330517 -0.05461189 0.20192978 0.249088
-0.18643712 -0.30934906 -0.17697963 0.21957472 0.096562594 -0.067095995 0.15811709 0.13835253
-0.1310304 -0.0063790753 -0.062880345 0.22992364 -0.046748593 -0.24285892 -0.16090888 0.0831088
0.18272454 -0.008504563 -0.28536513 -0.30406612 0.26490232 0.26124552 0.1818782 -0.21766649
-0.17094773 0.120212935 -0.022818752 0.066174135 -0.1574381 -0.12625727

encoder.0.bias f4 [6]
00000000: b70d 443e b7a9 3c3e 5dc9 1a3d d5a5 363e
00000010: 64b9 97bc 725d 3c3e
0.19145857 0.18424116 0.03778969 0.17836697 -0.018521018 0.18395022

encoder.2.weight f4 [16, 6, 5, 5]
00000000: fc87 2b3d f065 ea3c 175b 21bd 19ef f93d
00000010: d15e 2c3d 54d7 25bb 283c 87bd 43fa 88bd
00000020: b1bb fbba 0880 783d 9ba3 01be 507a 30be
00000030: 7dda 3ebd ad6b d4bc c5bd b9bc 6636 e1bd
00000040: 027d fcbd 3e66 1fbe 5fda bebc b295 0a3d
00000050: b1d7 d8bd b924 16be 56a6 dbbd 9670 533c
00000060: 725c 17bd f53f bc3c 55a2 60bc f204 f3bc
00000070: dd88 eb3b 12a2 e43c f08a 8a3a 1864 ca3d
00000080: 1c70 aa3c 1686 4f3b 6570 7cbc 8cfe 5d3d
00000090: fd70 b33d 5647 983d 747d 24bd e904 b8bc
000000a0: 4bd4 653d 7865 febc cd77 0abd 68cc 953d
000000b0: 1e5c 013e 11a5 99bd 54d0 553d 4300 b6bd
000000c0: 92b4 4fbd eebc 003d 0df6 173d c7ef fa3c
000000d0: 03ca fc3b ffa7 ef3d 5103 bc3c 2187 50bd
000000e0: 11b7 2a3d ece2 5dbb ada0 87bc 3066 d23d
000000f0: ddb6 19be 7807 c7bc 1dd5 16bd 9632 8d3d
00000100: 88b7 243d d81e 32be c045 bdbd 3377 953b
00000110: bf9e 28bd 912f e53b 008e 0dbe acac c0bd
00000120: ce09 62bd 3ec6 8ebd 90e5 63bd 63c8 22bb
00000130: 5918 a03d 2030 56bd 9060 24bd 8924 aabc
00000140: 16a8 dd3c 2d46 be3d d56e 023d ad0c aa3d
00000150: ad28 c83d 9982 783d 26f5 3c3d ca31 debc
00000160: 62ea 8bbd 7cba 65bc b7ef c13d 6952 bf3d
00000170: 5478 9f3b 461a 2cbd 3254 923d 11b0 ad3d
00000180: 1503 02bd a492 c53c 47c9 66bd 6236 08bd
00000190: 33c3 453d 9eb9 bd3d a312 9c3d fd91 24bd
000001a0: 1616 78bd 3c0a fe3c 3a1a c83d ab59 f7bc
000001b0: fb1b 94bd d8b3 443d f8e9 d53d 73bf 2e3d
000001c0: 88bd 70bd b4a3 ecbc 9032 70bd 7513 703c
000001d0: a2c3 5d3d 0e9f 63bd 4183 9dbd 0ef3 7ebc
000001e0: 5746 343d 1797 0fbc c0df 13bd 49a4 053d
000001f0: 5247 27bd b5e0 5c3d b215 5cbd 0515 7bbc
00000200: 1767 8abc dd22 5dbd 5f86 c93c 9cef 63bd
00000210: 0503 9f3d 7bc4 a33d 56d7 b63c 01da 423d
00000220: bfe2 2c3d 2c2a 5e3c dfad d7bc 580e 8fbc
00000230: 1bf0 933d a170 913d 036c 2cbc 7153 0e3d
00000240: 06dd 8bbd 37a1 973c 17f6 0d3d 5821 8d3c
00000250: bc42 dfbc c9d0 0a3c 7b49 58bd 6a0c 993c
00000260: 27d4 37bd 4121 8d3d c2a4 463b d524 993d
00000270: 2180 ca3c 3364 46bd d810 a23d 1ba3 213d
00000280: 2faf 4abd 31f3 20bd c77d 23bc b266 553d
00000290: 4cb5 a33b a54c 363b 2b49 91bc b8b8 8dbd
000002a0: eb1d b8bc aca1 16bd 2e6d 56bd ea21 afbd
000002b0: eb62 0fbe 4176 12be ac4d b1bd 9819 c93c
000002c0: 31b8 663d fda5 8ebd 6fb1 16bd 5ce1 7f3b
000002d0: 8e77 afbc 0366 973c ec10 daba 3fcb 67bd
000002e0: d581 6ebd 96de 8dbb dcfa 0f3d 2251 57bd
000002f0: 502b bebb 3a37 20bd 3e2c 8b3d ae0d 483d
00000300: 7aba 9abc 495c 2a3d fbad a33d d6b3 30bc
00000310: ca80 193d e514 43bd fea4 8c3d be07 1f3d
00000320: 8ea3 293d ce7d 49bd 3422 45bd 7319 623d
00000330: e985 8e3d b08e 183d 5a80 42bd 6399 34bb
00000340: 1c04 043d b23f acbb 99a9 5c3d 59f7 99bd
00000350: 0488 cbbd eae6 9dbd c8b5 63bd 6e82 98bd
00000360: 6bf5 44bd 3b7c 31be 11c2 d1bd e2ca f53b
00000370: 70a3 b9bc b44f ccbd 7512 00be f313 64bd
00000380: bdac 6c3d 673f 8b3d db9c ab3d d96d 9bbc
00000390: 46d9 993d 53d9 b23c 4d8d 1d3d 8895 923d
000003a0: 5dcd b33d 7113 833c 807a 7ebd e36d 98b8
000003b0: df0d 443d 4e94 30bd 268f ca3d 783e 9f3c
000003c0: ad84 343d 7c65 eb3d ae61 c33c 7c72 a43d
000003d0: 7039 4f3d b77e 4b3d c23e 783d 499b 63bd
000003e0: bffd 903d 36f6 a63d 0571 c63b eab0 c1bc
000003f0: 5929 803d 6348 71bd 04ee 303d a87e f4bb
0.04187773 0.02861306 -0.03939351 0.122038074 0.04208261 -0.0025305348 -0.06603271 -0.06688359
-0.0019205717 0.060668975 -0.12660067 -0.17234159 -0.046595085 -0.02593025 -0.022673497 -0.10996704
-0.12328531 -0.15566346 -0.023297487 0.033834167 -0.10588015 -0.14662446 -0.107250854 0.012905261
-0.036953397 0.022979716 -0.013710578 -0.029665444 0.0071879462 0.027909312 0.0010569971 0.098823726
0.020805411 0.0031665615 -0.015407656 0.054197833 0.08761785 0.07435481 -0.040158704 -0.022463279
0.05611066 -0.031054243 -0.033805657 0.07314378 0.12632796 -0.07502187 0.05220063 -0.08886769
-0.050709315 0.031430177 0.037099887 0.030631913 0.0077145114 0.117019646 0.0229508 -0.05091012
0.041678492 -0.003385718 -0.016556108 0.10273397 -0.15011163 -0.024295554 -0.036824334 0.06894414
0.04021409 -0.17394578 -0.092418194 0.004561329 -0.041167017 0.0069941957 -0.138237 -0.094079345
-0.05518513 -0.069714054 -0.05563885 -0.0024838678 0.07817144 -0.05229199 -0.04013115 -0.020769374
0.027057689 0.09290729 0.03184398 0.08303199 0.09773383 0.060671423 0.04613223 -0.02712335
-0.06831814 -0.014021512 0.0946955 0.0934189 0.004866639 -0.042017244 0.07144965 0.084808476
-0.03174122 0.024117775 -0.056344297 -0.03325499 0.04828186 0.09263919 0.07620742 -0.040178288
-0.060567938 0.03101074 0.09770627 -0.030194124 -0.07231899 0.048023075 0.104450166 0.04266305
-0.0587745 -0.028886653 -0.05864197 0.014653076 0.054141648 -0.05557161 -0.0769105 -0.015560878
0.044012394 -0.00876405 -0.036102057 0.032627378 -0.0408395 0.053925235 -0.053731628 -0.015324836
-0.01689486 -0.053988326 0.024600206 -0.05564843 0.07764248 0.0799646 0.022319477 0.047571186
0.04220843 0.013559859 -0.026328025 -0.017462894 0.07223531 0.071015604 -0.010523799 0.034747545
-0.06829266 0.01850949 0.034658518 0.017227814 -0.027253501 0.00847263 -0.05280445 0.018682677
-0.04488006 0.06891108 0.0030310606 0.07477728 0.0247193 -0.0484354 0.07913369 0.03946219
-0.049483474 -0.039294425 -0.009978718 0.05209989 0.0049959775 0.002781668 -0.017735085 -0.06919998
-0.022475203 -0.036775276 -0.052350216 -0.085513905 -0.14002578 -0.14302923 -0.08657393 0.024548337
0.056328002 -0.069652535 -0.036790308 0.0039044237 -0.021419313 0.01848126 -0.0016637123 -0.056590315
-0.058229286 -0.004329513 0.035151348 -0.05256761 -0.005803503 -0.03911517 0.06795548 0.04884117
-0.018887747 0.041591916 0.079921685 -0.010785064 0.03747634 -0.04762735 0.06867407 0.038825743
0.041415744 -0.049192242 -0.04812832 0.05520005 0.06959135 0.037245452 -0.047485687 -0.0027557246
0.03223048 -0.0052566165 0.05387268 -0.07517881 -0.09938052 -0.07710059 -0.055593282 -0.074467525
-0.04808561 -0.17332546 -0.10242093 0.007500992 -0.02266094 -0.0997614 -0.12507041 -0.055683088
0.057781924 0.067992024 0.08379527 -0.018973278 0.07512145 0.021832144 0.038464833 0.07157427
0.08779404 0.016000481 -0.062128544 -7.268393e-05 0.04786479 -0.043110184 0.09890585 0.019438967
0.044071842 0.11493966 0.023850288 0.08029649 0.050591886 0.04968139 0.060606726 -0.055568013
0.07079648 0.0815243 0.0060559534 -0.02364393 0.062578864 -0.058906924 0.04319574 -0.0074613877

encoder.2.bias f4 [16]
00000000: cbc4 0c3c 2a67 2d3d 6fb8 f13c 5ac6 6e3d
00000010: 4397 e83d b647 b1bb ebc5 773d cecb 36bc
00000020: 903a bf82 26a5 0d3e 04fe 393d fad1 7e3d
00000030: 169e e93d 071e bd3c 1ba0 cb3c 623a 27bd
0.008591841 0.042334713 0.02950689 0.05829463 0.11356976 -0.00541016 0.060491484 -0.011156989
-2.809854e-37 0.1383253 0.045408264 0.062211968 0.114071056 0.023085607 0.024856618 -0.040827163

encoder.5.weight f4 [10, 6400]
00000000: 6e3e d9bb 4e31 e9bc f431 f6bc 1b1b 41bd
00000010: 6c9a 2fbd 694b d1bc e1cb 1cbd 423c 09bd
00000020: dfbc 13bc dbf1 80bb 3fbd 82bc eb6a 83bc
00000030: c3f2 4cba de7b 1d3c 30b5 573a b0e6 863a
00000040: ba70 493c 0cfd 283c d4b0 c4bb f275 61bc
00000050: 9c3e 80b9 2904 0dbd d8ed fdbc 9a1f f3bc
00000060: 157a 1ebd 7ef4 febc ac3f 78bc d1b1 90bc
00000070: 7198 693c a8c8 68bb 014c 453b a714 7eb9
00000080: 3711 b23b 07f6 f53c cfc3 873c 80a5 bc3c
00000090: adce f83b d5d6 cd3b 961f 793b c877 80bc
000000a0: 34e2 e33c d7d9 c23b 09eb aebc 9a33 adbc
000000b0: 881a 7cbc 2888 34bc fe11 92bc d7a5 90bb
000000c0: d4d0 db3a 7661 923c c98c 803c fce5 6b3c
000000d0: ba17 ab3c 730e 3c3c 4fda 453c 997e 753b
000000e0: ab89 523c fc49 153b df2e 7dbb bdaf 503a
000000f0: d981 7a3d c912 f63c 9c8d 0ebc 6f97 2dbb
00000100: 14c7 1dbc a8af 6ebc d977 eb3b 3e62 2fbb
00000110: 19d0 203c b77e 253c 7b23 883c 7598 843c
00000120: acf4 b63b ee3c 203c 98df 8a3b 9577 263a
00000130: d17a b13b 5ce8 3c3c cd2c f83b a2a1 443b
00000140: beee 7a3d 7f9e d43c 406f 12bc 372f 58bc
00000150: 7afa 07bc bb8c d23a 9591 ce3b 74f2 b33c
00000160: 9e5e 313c d436 b33c ef6e 363d 02d6 143d
00000170: ed01 843c a35e 31bb 4cbe 82bc 4965 bfbc
00000180: b75f dd3a 37f6 523c 2ab8 783c 34ff db3a
00000190: 0735 e23c fba3 57bb 5004 a7bc 0179 99bc
000001a0: b087 7bbb 4a24 8ebc cbd8 89b7 fca9 123c
000001b0: 0c27 613c 0c54 243d d756 313d 21f2 333d
000001c0: 1bde bc3c 7dec 763c 4753 1abc c5d0 ffbb
000001d0: e27a 6ebc 97f0 dfba c267 073c 6b9d b63a
000001e0: 3f30 f73b 28dd 03bd fa37 1cbd 14c1 33bd
000001f0: c871 e5bc b716 8bbc 6a54 f4bb fbc6 e7ba
00000200: 4a05 293c 1ef3 023d a32e 4b3d 2917 fc3c
00000210: a360 983b 5ea3 3d3c 3df8 d3ba dd11 26bc
00000220: da21 3abc 50f1 2dbc 1101 e83b bacd 81bc
00000230: c24d cbbc 5246 21bd 5570 1bbd 30b5 fabc
00000240: 66d6 a8bc df8a 59bb b569 c9bb 4ba7 b1ba
00000250: 4a83 0bbb 18c3 e53c e5c8 1e3d 11d8 c73c
00000260: 41b0 d23a 7d4f 2fbc 8b9e 2cbc 67bf a93b
00000270: 438d 7e3b 298a 0b3c b0f3 3a3c b240 98bc
00000280: e204 cebc 56a6 7ebc aaf5 fcbc 0ff9 d0bc
00000290: 4b04 16bc 78d2 8fbc 3ff6 43bc 2df7 5e3b
000002a0: d0d7 563b 94c0 073d 749e 213d 73df e33c
000002b0: 74f8 8dbb c515 36bb b792 923b bf05 273b
000002c0: 06be e1ba 5968 5c3c bb23 a8bb 7e45 9ebc
000002d0: 78e1 b73a 526f 2ebc b4fb 0bbd 3f49 70bc
000002e0: d4c1 f5bb 69fe 8abc fde4 8ebc dd43 54bb
000002f0: 300d 973b 6526 dd3c f2f6 0c3b ad01 273c
00000300: 03ed 12bb e1fd f63b 3a19 b73c 2b7e aa3c
00000310: 4150 243c 4042 6e3b 8738 e73b 5c98 4cbc
00000320: 34d3 5c3d b7c8 033c 23d8 a0bb e3a7 f13b
00000330: fb6d cb3b f90a a6bb 52fd b2bb 7560 973c
00000340: 986e ec3b 62a0 58b9 5e78 003b 69b2 2a3c
00000350: d68a ac3c c689 073c 2039 623c 3f15 33bb
00000360: 0a0d e0ba 2aed dbbb 961c b73b f0b2 acbc
00000370: e2a4 833d 8ff2 913c ae72 7cbb 8f70 413b
00000380: f8e2 823b d6fa 6cbc 0528 663c 3338 413c
00000390: 76dc a0ba fa51 25bc 5b89 273b 4e08 c03b
000003a0: e80c e53c d3c7 3a3c db2a 753b 2a4b d33b
000003b0: eacf 523a 283d 5fbc 745c d0bb 67ae 96bc
000003c0: f462 853d 2a6a ed3c 3bc9 e93b ebde 6b3c
000003d0: a987 933b c8b3 febb 88ec 6939 1b27 a33c
000003e0: aa8b 163b 2e8c a1bc fbc7 de3b 883f e13c
000003f0: 44b6 9f3c 2890 643c 7115 493c 0cf5 2f3b
-0.0066297567 -0.028465893 -0.030053116 -0.04714499 -0.042871878 -0.025548654 -0.03828037 -0.033504732
-0.009017198 -0.0039350814 -0.01595938 -0.016042193 -0.0007818157 0.009612052 0.0008228598 0.0010292139
0.0122949425 0.010314237 -0.006002525 -0.0137610305 -0.0002446071 -0.034427796 -0.030997202 -0.029678155
-0.038690645 -0.031122442 -0.015151899 -0.017662914 0.014257536 -0.003551999 0.0030105116 -0.00024231021
0.005434181 0.030024542 0.016572861 0.023028135 0.007592997 0.0062817135 0.0038013211 -0.015682116
0.027817823 0.0059463787 -0.021352308 -0.02114277 -0.015387185 -0.01101879 -0.017830845 -0.004414301
0.001677061 0.017868739 0.015692132 0.014398094 0.020885337 0.011478054 0.012075975 0.0037459491
0.012850205 0.0022779694 -0.0038632674 0.00079607574 0.06115899 0.030038254 -0.0087007545 -0.0026487967
-0.009629983 -0.014568247 0.007185918 -0.0026761438 0.009815239 0.010101012 0.01661848 0.016185978
0.0055833664 0.009780152 0.0042380802 0.00063502166 0.005416252 0.011530008 0.0075737 0.0030003567
0.06126284 0.025954483 -0.008937657 -0.013194851 -0.008299464 0.001606367 0.006303976 0.021966197
0.010825781 0.02187673 0.04453939 0.036336906 0.0161142 -0.0027064465 -0.015959881 -0.023363726
0.0016889487 0.012876085 0.015180627 0.001678443 0.027613176 -0.0032904136 -0.020387799 -0.018734457
-0.0038380437 -0.017351288 -1.6432625e-05 0.00895166 0.01374222 0.040119216 0.043295708 0.043932084
0.023055127 0.015071032 -0.009419269 -0.0078068697 -0.014555665 -0.0017085251 0.008264484 0.0013932412
0.007543593 -0.032193333 -0.03813932 -0.043885306 -0.028008357 -0.016978605 -0.007456352 -0.0017683202
0.010316202 0.031970136 0.049605023 0.030772762 0.004650192 0.011574594 -0.0016172003 -0.010136095
-0.01136061 -0.010616615 0.0070802053 -0.015845168 -0.024817351 -0.039373703 -0.037948925 -0.030603975
-0.020610046 -0.0033194346 -0.0061466345 -0.0013553886 -0.0021287971 0.02804713 0.038765807 0.02439502
0.0016074256 -0.010700104 -0.010535846 0.0051802876 0.0038841523 0.008516827 0.011410639 -0.018585537
-0.025148813 -0.015542587 -0.03087886 -0.025509385 -0.009156297 -0.017556414 -0.011960565 0.003402184
0.0032782443 0.03314264 0.039457753 0.02781651 -0.0043325964 -0.0027783972 0.004473056 0.0025485603
-0.0017222769 0.013452613 -0.0051312125 -0.019320246 0.0014028987 -0.010646658 -0.03417559 -0.014665901
-0.0074999128 -0.016967015 -0.017443174 -0.0032389082 0.0046097264 0.026995847 0.0021509496 0.010193271
-0.0022419102 0.007537589 0.022350896 0.020812115 0.0100289 0.0036355406 0.007056299 -0.012487497
0.053912356 0.00804346 -0.004908578 0.00737475 0.006208179 -0.005067226 -0.005462327 0.018478611
0.0072153322 -0.00020659112 0.0019602994 0.010418513 0.021062296 0.008272594 0.013807565 -0.0027325896
-0.001709373 -0.006711622 0.0055881245 -0.021081418 0.06427933 0.017815856 -0.0038520503 0.0029516553
0.003994342 -0.014464101 0.014047627 0.011793184 -0.0012272734 -0.0100903455 0.0025564048 0.005860365
0.027960256 0.011400181 0.0037409577 0.0064481692 0.0008041846 -0.013625421 -0.0063586775 -0.018393708
0.065130144 0.028981287 0.0071345842 0.0143964095 0.004502256 -0.0077728964 0.00022308726 0.019916108
0.002297143 -0.019720163 0.006798742 0.027496114 0.01949609 0.013950385 0.012273178 0.002684894

encoder.5.bias f4 [10]
00000000: 3ef8 f13b 198f bebb aae7 0f3c 8be4 313c
00000010: 4aed 80bb 269a 1c3c 66c5 763b 96e4 ebba
00000020: 3f26 3e3b e09f 9dba
0.007384329 -0.0058153984 0.00878326 0.010857712 -0.003934537 0.009558236 0.003765428 -0.0017997201
0.0029014496 -0.0012025796

decoder.0.weight f4 [6400, 10]
00000000: 76f1 3a3d c73f 6a3d b25e 903d daaf 4abd
00000010: 860c 173e 3096 343d eed0 55be 1fb4 a83d
00000020: 8d74 4bbc d885 0d3e 2e4d 1a3d 1e5c dcbc
00000030: c11e bdbb 2003 0c3d 4fc9 f1bd 16ee 11be
00000040: 8048 5bbe 7751 0d3e 83f8 173e ade0 b83c
00000050: d098 2dbc 634e b53c ddb7 073d 4b04 f43d
00000060: 8748 8ebd fe10 503d a7bd 3d3e c3f3 f7bc
00000070: 60ba 553e e244 1cbe d911 5639 e0ea 39bc
00000080: e275 0a3e a9b9 c4bd 15e2 d93c f71c 633d
00000090: 13d1 0cbd a528 cc3d 2ed5 da36 af99 7c3e
000000a0: ee65 fdbd f7b3 e9bd be9a 963d 2497 aa3d
000000b0: cf04 93bd 0438 8cbd d390 853b 3cdd 213e
000000c0: c4bb 9fbd 5697 343e f733 05be bc56 753e
000000d0: aea6 86be 4ff5 123d 227b ffbc 9cd2 a0bc
000000e0: 5d23 a43c 1ac7 133e bed8 bf3c a18a 97bd
000000f0: e0b1 0cbe dba9 1dbd f3b7 c1bd 5258 2bbe
00000100: b3df e9bd b961 d73c e4b9 5fbd 68fe 5f3e
00000110: fec9 b23d ed58 4abd e95b 143d 9c27 3ebd
00000120: fb09 75bd 5b17 8c3e cf48 05be 2833 f43c
00000130: 73ce 723e 2a2e 763e c856 143e d344 6d3e
00000140: ff79 193c fd56 42bb 930c 86be 847d bbbb
00000150: 0e58 4d3e e57d 51be d19f cdbd 0717 103e
00000160: 25c4 f0bc 2901 083d 8014 1abe e08a 4c3e
00000170: c5bb 8abe f6fb b53c 8928 2e3e b6cd a4bc
00000180: 97d9 7b3b 94bc 73be 3236 993e c184 23be
00000190: 3da7 f13c 7785 353d a391 4e3d d3a7 fabd
000001a0: ae06 d5bc 50a1 f9bd e26d a93d 2101 643e
000001b0: f6dc 0bbe 95e0 203d a829 1dbe 0d96 083d
000001c0: 1101 0a3b 14ac 3f3e 8b02 d8bd fab1 633e
000001d0: 320e b7bd 9072 883d e7b8 5d3e eabf cbbd
000001e0: 0481 0cbe 7b3e 7a3e f946 ff3c 2974 1a3e
000001f0: 38b3 43bd 3718 863d 6fe2 2cbe 5ad9 b0bd
00000200: 553f 0cbe 2f89 213e 869e 1a3e f33a 4fbd
00000210: 696b d83d 91ac 0cbe 2945 92bd c0e1 f9bd
00000220: 0b23 883d a26f 3f3e a9d7 85bd 9310 d5bc
00000230: 4c94 643e e534 233e 87e1 3f3e 05a7 e93d
00000240: 1370 043e 99ea 4bbe baf0 49be b37b a63d
00000250: bc35 2fbe 83ef d7bd c736 583e 648a 163e
00000260: 49b1 773d f044 58be 7f98 5b3e cf93 d8bd
00000270: ac2e b43d b23e 9cbe ab2d abbd 3934 25bd
00000280: acec 3e3e 6cca ce3d 71bc 82bd be90 7dbd
00000290: 64f0 91be ff65 513e 6796 e6bc 5a80 d0bd
000002a0: aa51 063e cca2 093e 0778 1abe 7c35 123e
000002b0: 7a5c bcbd 98e5 fa3d 5b48 5dbe 517c 813d
000002c0: a1d6 473e 295e fcbd 32e1 7a3d 900a 293e
000002d0: 1a55 70bd 0737 253d 8069 043e 304c b4bd
000002e0: 398e b2bd 1340 b7bd f7fd 0abe 4565 6abd
000002f0: df46 4dbe 3041 073e 9759 f63d cca9 87bd
00000300: 04f3 3f3d 6089 4a3e 3c3f 683e 7335 2e3e
00000310: 80b1 00be 1de3 0fbe fdbc d0bd 99d9 dfbd
00000320: 3f78 4fbd e00a f23d 8df4 1d3d b8c7 de3c
00000330: addb 36be a9ea b0bd 3534 24bd f98d bdbc
00000340: 0457 bd3d 3b00 123c 32ef 313d cb79 1e3e
00000350: b726 f13d 17f7 3a3d 8f0f 0a3e ac21 52bd
00000360: 9157 d53d 8254 173e 723a 3cbe e2af 933d
00000370: ae7f febd 7578 3f3d 5a97 1b3c 617b e5bd
00000380: 1364 c2bd b2a3 f83d df48 523d 0987 eabd
00000390: 8c1e c4bd 5840 2e3e 4b72 46bd e92b 033d
000003a0: 75c5 e1bc fda1 3bbc 6a7b bc3b c325 92bd
000003b0: 43f4 b23d 21b9 0fbe f30f 683e d957 94bd
000003c0: 048e 94be 7df2 6a3e 7e4b 59bc ccf5 c6bd
000003d0: ae72 64be 487b a2bd 1d1c 14be 8f47 8dbd
000003e0: dc42 10be 0ccd 863d 70f4 c6bb acbf 413d
000003f0: ceef bcbd 7b4e 0f3e bd06 d5bc 22ed 32bd
0.04564043 0.05718973 0.07049312 -0.04948411 0.14750871 0.044088542 -0.20880482 0.0823748
-0.012417925 0.13820589 0.03767126 -0.026899394 -0.0057714884 0.034182668 -0.11805975 -0.14250979
-0.21414375 0.13800608 0.14840893 0.022568071 -0.010595515 0.022132104 0.03313433 0.11914881
-0.06947427 0.050797455 0.18529378 -0.030267602 0.20871878 -0.15260652 0.00020415279 -0.0113475025
0.13521531 -0.09605724 0.026597062 0.055447545 -0.034379076 0.0996869 6.5217237e-06 0.24668
-0.12372957 -0.11411279 0.073537335 0.08329609 -0.071786515 -0.06846622 0.0040761023 0.1580705
-0.07799485 0.17635855 -0.13008104 0.23958868 -0.26299042 0.035878476 -0.031186644 -0.019631676
0.020036394 0.1443142 0.02341878 -0.07399488 -0.13739729 -0.038492065 -0.09458914 -0.1673291
-0.1141962 0.026291715 -0.05462064 0.21874392 0.08729933 -0.049401212 0.036220465 -0.046424493
-0.05982397 0.2736157 -0.13016056 0.02980955 0.23711567 0.24041048 0.1448623 0.23170786
0.009367465 -0.00296539 -0.26181468 -0.0057217497 0.20053121 -0.20458181 -0.10040248 0.14071284
-0.029390404 0.03320423 -0.15046883 0.19974852 -0.27096382 0.02221487 0.1700765 -0.020117622
0.0038429254 -0.23802406 0.2992416 -0.1596861 0.02949869 0.044316735 0.05043186 -0.12239041
-0.026004162 -0.12188971 0.082729116 0.22266056 -0.13658509 0.039276678 -0.15347922 0.033346225
0.0021057765 0.18717986 -0.1054736 0.22235861 -0.089382544 0.06662476 0.21652566 -0.09948714
-0.1372109 0.24437897 0.031161772 0.15083374 -0.04777834 0.06547587 -0.16883253 -0.086352065
-0.13696034 0.15774988 0.15099534 -0.050593328 0.10567362 -0.13737704 -0.071420975 -0.122012615
0.06647309 0.18694928 -0.065352745 -0.02600888 0.22322196 0.15938146 0.18738376 0.114088096
0.12933378 -0.1991371 -0.19720736 0.081290625 -0.17110342 -0.1054373 0.21114646 0.1470123
0.060471807 -0.21120048 0.21444891 -0.10575067 0.087979645 -0.30516583 -0.0835832 -0.040333007
0.1864497 0.10097203 -0.063835986 -0.061905615 -0.28503716 0.20449065 -0.02814789 -0.10180731
0.1311709 0.13441008 -0.1508485 0.14278215 -0.09197326 0.12250823 -0.21609633 0.063225396
0.19515468 -0.12322647 0.06124992 0.16507936 -0.05867491 0.04033568 0.1293087 -0.08803594
-0.08718533 -0.08947768 -0.13573442 -0.057225484 -0.20046566 0.13208461 0.12028807 -0.06624183
0.046862617 0.19778967 0.22680372 0.17012577 -0.12567711 -0.1405148 -0.10192297 -0.10930175
-0.050651785 0.118184805 0.0385633 0.027194843 -0.17857237 -0.08638508 -0.04008885 -0.023138987
0.092451125 0.008911188 0.043441005 0.15476148 0.117749624 0.0456458 0.13482498 -0.051301643
0.104170926 0.14778331 -0.1838167 0.07211281 -0.12426697 0.046745736 0.009496534 -0.11205173
-0.09491744 0.121405974 0.051339027 -0.11451537 -0.09576139 0.17016733 -0.048448842 0.032024298
-0.027559975 -0.011452195 0.005752017 -0.07136109 0.087379955 -0.14035465 0.22662334 -0.07243318
-0.290146 0.22944064 -0.013262628 -0.09714851 -0.22309372 -0.0793367 -0.1446385 -0.06898414
-0.14088005 0.06582078 -0.0060716197 0.047301933 -0.092254266 0.13994782 -0.02600419 -0.04368318

decoder.0.bias f4 [6400]
00000000: 4a86 7f3c 46d9 743c a009 773b 08bf b53c
00000010: 7f46 103c 1f51 433b a7d2 67bc 4ec0 94bc
00000020: 460f f6bc 2881 41bd ec78 93ba 3435 3c3b
00000030: d039 32bc b9ef 763b 9281 eabb c66f cf3c
00000040: cc9d a63c 1541 2e3c 1bdc d53b f9ea 213c
00000050: edbd 463c 362a 2a3c b1bb 753c ef0b 943b
00000060: 7dd1 223c 2a7c babb 15b2 e2bb c10f 013a
00000070: 83a6 24bc 7775 9dbc c4d6 a0bc 7c86 15bc
00000080: 6d1b 57bb 44c2 8d3b dafa ddbb 0681 0f3b
00000090: f32f 393b 0b74 063c a78c d3bb f196 2fbb
000000a0: a7ac 41ba 780f 853c c0d9 ac38 10d7 d2bb
000000b0: 551e 7fbc e8d5 3bbb b1ff acbc d5e4 c9bc
000000c0: f054 eb3b 6c4f 033c 43ae e9bb 1258 d13b
000000d0: 9c4e 12bb bd71 29bc b807 4cbc 431f cebc
000000e0: 3754 2fbb 8a3e e338 ba00 ab3b a09a 723b
000000f0: b5bb 663b 9e1d e63a 8053 5238 dfb2 87bc
00000100: 901a d0bb 117a 2fbc 9577 cdbb 7c7e b83c
00000110: f06f 123d bdca ac3c 8e5e bdba 6560 093d
00000120: 6949 b03b ba99 8abb 59c1 b83c d54c f7bb
00000130: 8039 a2ba 5467 013d 0a28 b83c aa0e 303c
00000140: 81ed 133b 74e0 d5bb 66b1 99bb 8a06 05bb
00000150: b39f a1bb 8736 9d3c 06f0 853c d57c 443d
00000160: cffe 3d3c 48d0 e53d 89ca 0d3d 82bb 683c
00000170: 82c8 633c 232b b9bb e763 9f3c 4bb6 88bb
00000180: c881 e53b c7c1 6c3a 03d2 f93b 46e9 f63b
00000190: 6b27 bbbb feea 9ebb 66d1 bf39 c652 aabb
000001a0: 5af6 9c3c 15a1 b73c 21bd 953d 3755 2c3d
000001b0: 13ce c03d 00c0 273d 58ca d53c 2a4f 253c
000001c0: b136 a9b9 be93 013d 6a1d aa3c 2327 61bb
000001d0: bc1f 2639 054a c03c a180 943c 19ef dd3a
000001e0: c395 013c 8698 27bc d256 9c3b 8aaa 413c
000001f0: 9744 f93a 1663 ad3d 9a09 a63d e432 813c
00000200: 55b8 2638 7506 d73c 8144 9cbb c271 debb
00000210: c933 dfbc 1100 e7bb f3fe 6cbc 1646 b93a
00000220: 0102 e23c 8227 113c 7392 5fbb bc0b cbbb
00000230: 905b a1ba 3889 403c 59fd 443b 4bbb 093d
00000240: 86f2 b23c 6b02 083c 7024 8d3d 3785 853d
00000250: ca3c aebc 8179 bb3b 8a9f f4bb 8288 50bb
00000260: 5925 49bb 4ce8 6cbc 4c3a b9bb 24f2 443d
00000270: 3f0e 0a3d 5aba 6f3c d75f d13c e508 263b
00000280: aa6e 83bb 562a 8f3c d80f d23b b173 b53c
00000290: b878 a43c 7ed5 7f3c 952c 203c 947f 12bd
000002a0: cc41 febc 7c2c 71bd b9e8 c1bc 100b 05bd
000002b0: 169e 52bc 39ae 5e3c be8b 163d 4c9f c73c
000002c0: cd6f eb3b 153b 9c3c d838 973c 3779 863c
000002d0: e707 373c 48ae b63c c277 b13c 5aa9 f83b
000002e0: 9ccf f23c 0416 913c 8fa4 7dbc d0ee 88bc
000002f0: f7c9 d5bc e009 36bd d71c cfbc 5c4b 1cbc
00000300: 1d01 fc39 e859 3fbb 8608 5b3c a2c5 6b3c
00000310: 2cec 9f3c 4bf8 013c 63c9 213c 765c 8339
00000320: 9157 b33b 7e3c 703c faaa a33c 9f91 383c
00000330: 1366 d6bb 41ae 543b 5c8c 0bbc 41bf dfbc
00000340: 881f 43bc 9614 b0bb 247e 833b 3042 b1ba
00000350: 4d96 8a3d 93a6 27ba 64b8 443d d7f5 353c
00000360: 9ede 21bc f61b 153c 7737 c7bb 90b7 983b
00000370: af19 033c 01e2 6b3c bd4b dc3b 1ca4 a73b
00000380: cc39 013c 4ef3 983b 409c 29bc 212f fbbb
00000390: 3324 80bc 3f37 483b 3ee0 9f3d 060a 923d
000003a0: 3982 5a3d 6d5f a93c 542c 783c a5aa 3abc
000003b0: 1854 9fbb cea5 ca3b 77e9 3dbb 4ef2 0e3c
000003c0: 774e 5c3c a6ac 4c3c 40bc 823a 101a 013c
000003d0: 7d35 403c 16a8 efba a046 f53c fd35 533c
000003e0: 5c5b d13c 1f64 163d 9892 723c 867f 9c3d
000003f0: 5037 bbba 9906 2d3b 92b0 9eba e2b3 c9bc
0.015595982 0.01494438 0.0037694946 0.022185817 0.00880587 0.002980299 -0.0141493445 -0.018158104
-0.03003658 -0.047242314 -0.0011251247 0.0028718235 -0.010878041 0.0037679507 -0.0071565593 0.025321852
0.020338915 0.010635634 0.0065264828 0.009882682 0.012130243 0.01038604 0.014998362 0.004518024
0.009937641 -0.005691071 -0.0069182017 0.0004923307 -0.010049465 -0.01922105 -0.019633658 -0.009126302
-0.0032822744 0.004326137 -0.0067742886 0.0021896972 0.002825734 0.008206378 -0.006455976 -0.002679285
-0.0007388093 0.016242728 8.242158e-05 -0.006434329 -0.015571197 -0.0028661434 -0.021118017 -0.024645248
0.007181756 0.008014541 -0.0071313693 0.0063886726 -0.0022324687 -0.010342059 -0.012453012 -0.025161391
-0.0026753077 0.00010835852 0.0052185925 0.0037018433 0.0035207097 0.0017556434 5.0145667e-05 -0.016564785
-0.0063508227 -0.010710255 -0.006270359 0.02252125 0.035751283 0.021092767 -0.0014447735 0.033539195
0.005379845 -0.0042297514 0.022553133 -0.007547001 -0.0012376755 0.031592682 0.02248003 0.010745684
0.0022571983 -0.006527001 -0.004690337 -0.0020298087 -0.0049323677 0.01919104 0.016349804 0.04797061
0.011596396 0.11221367 0.03461698 0.014204862 0.013902785 -0.0056508943 0.019456817 -0.0041721216
0.0070039965 0.00090315606 0.0076239123 0.0075351326 -0.005711486 -0.0048497906 0.00036586373 -0.0051978556
0.019160438 0.022415677 0.07311464 0.042073455 0.094143055 0.04095459 0.026097462 0.010089675
-0.0003227494 0.03163504 0.020765979 -0.0034355603 0.00015842816 0.023472795 0.018127741 0.0016932219
0.007909241 -0.0102292355 0.004771092 0.011820445 0.0019017634 0.08466165 0.081073 0.015771337
3.9749157e-05 0.026248196 -0.0047689085 -0.0067884633 -0.027246373 -0.0070495685 -0.0144650815 0.0014135267
0.027588846 0.008859517 -0.003411439 -0.006196467 -0.0012310613 0.0117514655 0.0030058234 0.033625882
0.02184416 0.008301358 0.068917155 0.06519549 -0.02126922 0.0057212715 -0.0074653076 -0.0031819646
-0.0030692427 -0.014459681 -0.0056527015 0.048082486 0.033704992 0.014631832 0.025558395 0.0025334891
-0.004010995 0.017476242 0.00641058 0.022149893 0.020077094 0.015614865 0.009776254 -0.0357662
-0.031037234 -0.058880314 -0.023670541 -0.032481253 -0.012855073 0.013591343 0.036754362 0.02436795
0.0071849586 0.019071141 0.018459722 0.016415222 0.011171318 0.0222999 0.02166355 0.0075885477
0.029640011 0.017710693 -0.015481128 -0.016715437 -0.02609728 -0.04444301 -0.025282307 -0.009539451
0.00048066015 -0.0029197875 0.013368731 0.014390381 0.019521795 0.007932733 0.0098746745 0.00025055156
0.005473085 0.01466286 0.019978989 0.0112651875 -0.00654293 0.0032452496 -0.008517351 -0.027312877
-0.011909373 -0.005373548 0.00401284 -0.0013523754 0.06766949 -0.0006395366 0.04802741 0.011105976
-0.009879736 0.009100905 -0.00607961 0.004660554 0.008001729 0.014397145 0.006722896 0.005115999
0.007887315 0.004667676 -0.010352194 -0.0076655303 -0.015642261 0.0030550507 0.07806443 0.07130818
0.053346846 0.020675385 0.015147287 -0.011393224 -0.0048623197 0.0061843162 -0.0028978267 0.008724762
0.013446442 0.0124923345 0.0009974316 0.007879749 0.011731503 -0.0018284346 0.029940903 0.01289129
0.025556259 0.036716577 0.0148054585 0.07641511 -0.0014283452 0.0026401638 -0.0012107065 -0.024621908

decoder.3.weight f4 [16, 6, 5, 5]
00000000: 1cb6 303d bbf3 a5bc b985 433c 22dc 03bd
00000010: 8417 85bc 9b28 9f3c 35aa bbbc cac4 7a3c
00000020: c187 c5bd e0b5 a4bd 97ee 663d ad87 02bc
00000030: 7f43 aebc 0b9d 5abd cdef a9bd c3f1 55bd
00000040: 46c4 71bd 3af6 ccbd 0e01 f7bd 3524 22be
00000050: dbce 9bbd f00a e4bd 1758 d3bc 6ba9 acbd
00000060: 9d5b 0bbe 750c df3d 70aa 273d c5c0 35bd
00000070: b0db 1d3d 60f1 653c 0790 ea3b 8ab0 32bb
00000080: 71d5 b8bc 4690 c1bd 6cb5 b3bc ff2b 90bd
00000090: 4d82 49bd f0c9 d9bc bff2 e03c 3776 1cbd
000000a0: 376b 1dbb 8097 83bd e46e 523d 8055 90bc
000000b0: 8b5a babc 9e7e 1dbd 47fe 5d3a 1b02 70bd
000000c0: 2922 23bc 40b7 303d af03 7fbd fec0 0cbd
000000d0: 2b43 b0bc fd37 9dbc 082c 27bc acdb 63bd
000000e0: 0aab b1ba ccb6 80bd adb9 a7bc ce1e 27bd
000000f0: e371 96bd 7da8 55bd cf58 143d 4f10 25bd
00000100: 0084 71bd aeed b9bc 6b57 e3bc 387f 983d
00000110: 923f 8cbd c07b 13bd f04c c73b d6fc 0a3d
00000120: 4543 f93c cfdf c13c 0c14 1ebd c4a9 8eb6
00000130: 6762 d73c e74a 923d 8543 513d 74ce 283d
00000140: 211b 8b3d 1108 983d 9928 043e 1746 d73d
00000150: 06f3 ec3c 2733 883d 79b0 953d db3c c03d
00000160: 8ca4 aa3d 6ce3 29bc ad1d 623d dd43 1a3d
00000170: 9a36 5d3d 32f3 c0ba 6245 bebc 3d6e d13c
00000180: 9885 143d 5272 313d 5d2e 26bc 5a3f 80bc
00000190: 64eb bbbb 32cb b53c 02ae 6dbc 370f ad3c
000001a0: 2768 98bd 9df5 53bc 00c7 18bd d214 5a3d
000001b0: 9add 3b3c 8c98 2fbd 5eee 573d 92ee 7cbc
000001c0: d4bc c73b 75cc 943d 5083 df3d 873f 143d
000001d0: 0776 963d 4a09 ba3d eac6 133d 7b66 003e
000001e0: 992a 773d 2ec2 313d bceb f03d 6681 523d
000001f0: 87ad df3d 4644 b9bd d2c6 db3c c83e 3ebd
00000200: 23fa 6abd 3bbf 58bd d79a 6dbd 4c09 a2ba
00000210: ed31 adbb 494b 26bc 014d 78bd e022 91bc
00000220: 72b0 12bd b67a 97bd 4a9f c5bd a261 8abc
00000230: 06fe 6fbc 95f6 0dbd c8cb dd3c 8624 09bd
00000240: 62ae 9ebc be15 53bc 7a97 9ebc 26d6 a43d
00000250: 5842 253c 3b3d 613d 5c12 f43c 49b1 773d
00000260: 054d b039 fcbf 913d 2dec 0c3d 6a30 0a3a
00000270: b119 b8bc b313 3d3c 5132 5d3d 302c 5ebc
00000280: eb7c 193d ba35 4f3d e4ef c93d a380 ba3c
00000290: c81d e73c e0f9 373d 4309 173c 7d84 153d
000002a0: 04b3 023d 8042 653c 0314 d0bc d5b9 653c
000002b0: 01d9 d03c cf1b 353d ce55 66bc 3d64 3b3d
000002c0: 1553 433a ee7e 85bd 2ee7 bcbc a7e3 77bd
000002d0: cd26 a0bc a3cd fa3b e4db 99bd 7c6c 26bd
000002e0: 1d05 0a3d f05a 04bd ffb5 223c eeaf 933c
000002f0: df6c cabd 406c 10bd 2c1e 46bd 2107 37bc
00000300: c4f7 9dbc 795c b2bd e613 7bbd 54f4 d7bc
00000310: 1c85 b8bc feb2 02be 9312 5ebd ba98 8abd
00000320: 8832 9e3c d582 83bd f02c 0f3d 6b61 4fbd
00000330: 778c e6bc 6f34 07bd f6b7 cebc cd3c e63c
00000340: 6a53 9c3c 69a2 48bd cf45 213d 2968 a83d
00000350: cec5 a6b9 d337 4f3d 095c 863d b367 7f3d
00000360: 21b7 973c e110 3cbd 5c8f 8bbd d04e ff3b
00000370: 207d 19bd a370 843d 154a 8f3d c1e9 fbba
00000380: 40ff 58bd a939 543c 9ae3 f33c 6faf 923c
00000390: 1b31 423c 3639 573d 3a55 e33c cd83 5b3c
000003a0: e676 8e3d 860f c93c 8a9e 003d 6eff 9ebb
000003b0: be05 f03c 58a2 cf3d a630 373d 13c7 643d
000003c0: e4da 8e3d 6f19 b03d 3879 923d 0646 173d
000003d0: 8701 6f3d c9f0 9b3d 2a34 8d3d cf74 9e3d
000003e0: a3c8 f93c 40d0 023d 301f 2abd d7a3 9ebd
000003f0: af2e 8b3c 1836 8fbc 2f7a 1abc 05e2 65bd
0.043142423 -0.020257821 0.011933737 -0.032192357 -0.016246565 0.019428542 -0.02290831 0.015305707
-0.09645034 -0.080425024 0.05637988 -0.007966918 -0.021272419 -0.053372424 -0.082976915 -0.052232515
-0.05902507 -0.100079015 -0.12060748 -0.15834124 -0.07607814 -0.11134899 -0.02579884 -0.084307514
-0.13609166 0.10891048 0.040934026 -0.044373292 0.03853959 0.014034599 0.0071582827 -0.002726587
-0.022562714 -0.09451346 -0.021937095 -0.070396416 -0.04919653 -0.02658555 0.0274595 -0.038198676
-0.0024020204 -0.06425381 0.051375285 -0.017618895 -0.022748252 -0.03845083 0.0008468371 -0.058595758
-0.009956875 0.04314351 -0.062259372 -0.03436374 -0.021516403 -0.019191736 -0.010203369 -0.055629417
-0.0013555002 -0.06284866 -0.02047428 -0.040800862 -0.07345941 -0.052162636 0.036217507 -0.040298756
-0.058963776 -0.022696342 -0.027751645 0.0744614 -0.068480626 -0.03600669 0.0060821697 0.03393253
0.030427584 0.02366629 -0.038593337 -4.251693e-06 0.02629204 0.07143193 0.051089782 0.041212514
0.06792284 0.074234135 0.12906112 0.105114155 0.028924476 0.066503815 0.0730905 0.09386607
0.08332166 -0.010369163 0.055204082 0.037662376 0.05400715 -0.0014720915 -0.023226444 0.025565261
0.036260217 0.043321915 -0.01014289 -0.015655208 -0.005734848 0.022191618 -0.014506819 0.021125419
-0.074417405 -0.012936977 -0.037299156 0.053242512 0.011466408 -0.04287009 0.05271756 -0.015437739
0.006095508 0.072655596 0.10913718 0.036193397 0.07346731 0.09083803 0.03607837 0.12539093
0.06034336 0.043398075 0.11763713 0.051392935 0.109217696 -0.09046225 0.026828203 -0.04644659
-0.057367455 -0.052916747 -0.058008995 -0.001236239 -0.0052854926 -0.010149785 -0.06062031 -0.017716825
-0.035812803 -0.07396452 -0.096495226 -0.016892258 -0.014647966 -0.034658987 0.02707471 -0.033482097
-0.019370262 -0.012883602 -0.019359339 0.08048658 0.010086618 0.054990035 0.02979391 0.060471807
0.0003362672 0.07116696 0.034404922 0.00052714965 -0.022473188 0.011540341 0.054003064 -0.01356034
0.037472647 0.050588347 0.09860209 0.022766417 0.028212443 0.044916034 0.009218517 0.036503304
0.031909004 0.013992906 -0.025400167 0.014021357 0.0254941 0.044215973 -0.014058543 0.04574989
0.000745104 -0.065183505 -0.023059454 -0.06051984 -0.019549752 0.0076539083 -0.07512644 -0.040630803
0.033696283 -0.032313287 0.009931087 0.018028226 -0.09884047 -0.035259485 -0.048368618 -0.011171133
-0.019283183 -0.08709044 -0.061298274 -0.026361622 -0.022524409 -0.12763593 -0.054216933 -0.067674115
0.019311205 -0.064214386 0.034954965 -0.050630014 -0.02814315 -0.03300899 -0.025234204 0.028105164
0.019082744 -0.04898301 0.039373215 0.08222992 -0.00031809363 0.050590347 0.06560523 0.062354755
0.01851994 -0.045914534 -0.06814453 0.0077913776 -0.037472844 0.06466796 0.06996552 -0.0019219444
-0.0529778 0.0129532 0.029771615 0.017905919 0.011852528 0.052544795 0.0277506 0.013398123
0.06956272 0.024543535 0.031401195 -0.004852227 0.029299613 0.101383865 0.04472413 0.055853914
0.06975344 0.08598601 0.07152027 0.036932014 0.058351066 0.076142855 0.06894715 0.07737123
0.030491179 0.031936884 -0.04153365 -0.07746094 0.016990034 -0.017481849 -0.009428545 -0.056123752

decoder.3.bias f4 [6]
00000000: 86e7 96be 4afe 8e3e 04f8 99be 7f9c f4bd
00000010: f2b4 863e 3523 313e
-0.29473513 0.27928382 -0.30072033 -0.11943912 0.26309925 0.17298587

decoder.5.weight f4 [6, 1, 5, 5]
00000000: 04e2 1ebe f862 0fbe d8a9 ebbd fb9c d7bd
00000010: b21d 85bd 1008 1bbe 3908 3abe 7b54 04be
00000020: 788d 223c 6a5d 783d 85e3 5fbd 88d7 ce3c
00000030: a400 cd3c 8875 7a3d 9989 2b3e ec65 c93c
00000040: ec1e ee3d 0fa5 683e 1300 853e 6fcd 463e
00000050: f167 8c3d 089e 343e 33ff 433e 6808 5a3e
00000060: fc9e 093e 6534 33be 9885 8bbe 9536 72be
00000070: 4d9b 2abe 33ac d8bc e95b 2abe d5ee 89be
00000080: a7f9 a8be 6ac5 84be 8d68 05bd c67c a4bd
00000090: 95e2 dcbd c920 34be 4a39 29be 8174 81bb
000000a0: 31af 0abe 8dd3 03be e3be 01be dcd8 d9bd
000000b0: ad0d 813c 7227 9cbd 6613 d4bd 0ee6 78bd
000000c0: 3cb8 13bd 1021 5b3d 3816 963d 5684 073e
000000d0: eef4 2e3e c50e 073e 4ca5 383d 6b37 d63d
000000e0: 5471 b83d 2f25 063e 0ab0 d33d faf1 b03d
000000f0: 7a18 633d 97ea d13c 43ab 743d 600e af3d
00000100: 48e7 4e3d 8887 1d3d 884b f63d 4e7f 423e
00000110: 2bca 143e 2b04 bb3d b8cc 143d c4d4 753c
00000120: d378 043e a2eb 083e 27a9 c23d 3b51 dc3d
00000130: bd98 553d 58c1 65bd 1240 07bd 0919 22be
00000140: 516c 753e 0b0d 3e3e c715 fb3b 7965 16bd
00000150: 53f2 303d 5313 833e e757 d63d cead 413e
00000160: 921b 133d 94ef c0bd 1b3a ba3d 2d8e 013e
00000170: c51e e3bd 4525 2cbe 19a8 3fbe c8d4 1abe
00000180: 6370 c7bd 0f01 ba3b 2b70 83be 0758 90be
00000190: c2fa a9bd 5039 1dbe 9749 f7bd 9c7c d8bd
000001a0: 1e41 28bd 067a 62be c25e 59be 9233 70be
000001b0: cf55 54be 47e2 aebd a472 8abe 7b6e 84be
000001c0: 1190 10be 3565 0abe 2266 2ebe 9c3b 49be
000001d0: 6721 87be ae38 6dbe 8035 39be 836c 1cbe
000001e0: 44d7 5fbe 697a 7abe aac4 56be 6f02 7cbe
000001f0: 6398 37be 2c5e 683d b08e 71bd 4b77 98be
00000200: b5cb 4abe f04e ebbd 0c67 81bb 9042 86be
00000210: 553c c9be b5ab 72be 9ab5 a53b 1427 7bbd
00000220: 47c2 89be 594d 42be 8341 dabd 5e2b c83d
00000230: 642c a5bd 4365 9fbd 7b8a 1abd 9f13 b33d
00000240: 2a08 023e fe7c e43c 5306 3d3c c409 bfbb
00000250: 5a60 d83c 62d7 edbc
-0.15515906 -0.14002597 -0.115070045 -0.105279885 -0.064998046 -0.15139794 -0.18167199 -0.12922852
0.009921424 0.06063596 -0.05466034 0.025249258 0.02502472 0.061147243 0.16751708 0.024584733
0.11626992 0.22719215 0.2597662 0.19414304 0.06855763 0.17638409 0.1914032 0.21292269
0.13439554 -0.17500456 -0.2725036 -0.23653634 -0.16660805 -0.026449298 -0.16636623 -0.26940027
-0.3300297 -0.25931865 -0.03257041 -0.08031611 -0.107854046 -0.17590632 -0.1652576 -0.003950656
-0.13543393 -0.12873669 -0.12670474 -0.10637066 0.015753591 -0.07624711 -0.103552625 -0.060766272
-0.03606437 0.053498328 0.07328457 0.13234076 0.17085621 0.13189228 0.045079514 0.10459789
0.090059906 0.13100122 0.10336311 0.08639903 0.055443265 0.025624556 0.05973364 0.08547664
0.050513536 0.03845933 0.12026125 0.18993875 0.14530246 0.09131654 0.036328048 0.015004341
0.12936716 0.13371137 0.095049195 0.10757681 0.052147616 -0.05609259 -0.033020087 -0.15829863
0.239671 0.18559663 0.007662508 -0.036717866 0.04319985 0.2560068 0.10465985 0.18913957
0.035914965 -0.09420696 0.09093114 0.12651892 -0.11089853 -0.16811092 -0.18716468 -0.15120232
-0.09738233 0.0056763957 -0.25671515 -0.2819216 -0.082997814 -0.15353894 -0.12074583 -0.10570642
-0.041077726 -0.22116861 -0.21227553 -0.23457173 -0.20735858 -0.08539253 -0.2704059 -0.2586554
-0.14117457 -0.1351517 -0.17031148 -0.19651645 -0.2639267 -0.23166153 -0.18086815 -0.15275769
-0.21859461 -0.24460758 -0.20973459 -0.24610303 -0.17929225 0.056730434 -0.058973968 -0.29778513
-0.1980427 -0.114896655 -0.0039490517 -0.26222658 -0.39303842 -0.23698314 0.005057049 -0.061316565
-0.26906034 -0.18974818 -0.106570266 0.09773897 -0.080651075 -0.07782986 -0.03772972 0.08743977
0.12698427 0.027891632 0.011537152 -0.0058300216 0.026413132 -0.029033367
