Autoencoder-on-MNIST-in-Pytorch/Models/model_e1.pt (torch, 561729 bytes, 11 tensors)

encoder.0.weight f4 [6, 1, 5, 5]
00000000: d68a e2bd 3d3a b8bd 6de6 a3bb c03e e8bd
00000010: 3e1a 32be 1d2a 06be e374 7cbe 1e53 893d
00000020: c8e3 8fbd 5339 a8bd d180 003e 0198 14be
00000030: d836 ad3d cf57 4bbe cdff a0bd 837e d93d
00000040: 57e7 0e3c 1faa 2bbe 391d c0bd 40c6 473d
00000050: df8b e1bc 71d5 bbbd b0da 313d 1265 55be
00000060: b96d 57be e9f8 0abe 522e 6dbe c81b 32be
00000070: 934a 6bbe 7b98 62be c9c3 dc3d 9123 283d
00000080: f1c6 9f3d bb3c d43c 3dc7 1e3e e72f 23be
00000090: 5abc 00bc f4b1 053e c5ed 6fbd 6f8e d5bd
000000a0: 46e7 383e f4f7 153e 86b3 e73d 4d3e f73d
000000b0: 54d5 503e 2e6e eabd 6f93 1abe b1a1 09be
000000c0: 6e59 6c3e 50fd 3d3e b18a 0b3e edef ea3d
000000d0: af76 f43d 7a95 9fbd 6c05 7abd a94a 4b3e
000000e0: bb51 c63d 9af7 57be bf02 76be 50bf 74be
000000f0: 1522 33be 31c7 36bd cd9f 98be 96c2 1ebe
00000100: baed b8bc 24f6 e63c caa7 a33d 354b 8bbe
00000110: 0e84 833d b068 cbbd 4d2b 00be 5344 ba3d
00000120: e528 16be c348 2fbe 9920 98be 53a1 1cbe
00000130: a0a4 cabd 813f 2bbe 7214 463e 80c1 63bd
00000140: 964e 3fbc 7d15 ae3d 1122 acbd 832a 1a3e
00000150: c274 473e b690 423e 8ca5 4b3e 834f 39be
00000160: 90a3 473e c0ea 573e 86c1 eebd c8a6 083e
00000170: a662 4e3d 74ab 70bd 9e07 093e c1b7 513e
00000180: 16db 96bc cd98 f43d a6cc 583e 0196 853d
00000190: 1294 b63a 6a00 453e ed7a 64bc db1a acbd
000001a0: 933f 0c3e 5592 6e3d 2b8c bfbd cc33 b4bd
000001b0: 6456 653e cb99 4a3e 7422 b9bd 1774 1bbe
000001c0: 176e f43d 1b6c 21bd 0515 2e3e 5f06 cd3d
000001d0: ce75 c23c 8e80 8cbc 584f 3d3e fa40 433e
000001e0: c962 c1bc 1e1c 60be c303 fabd d266 5b3e
000001f0: 4067 5b3d 5bf0 6abd 894a 1e3e f3b7 e03d
00000200: e167 0ebe 2cde 233d ced0 96bd 2370 433e
00000210: 2c70 c8bd e1bd 6ebe 425a 0fbe 27bf 3f3d
00000220: 2802 f53d 4d4b 03bd 224c 1bbe e4f7 84be
00000230: 9a84 5e3e 6107 573e 8619 4f3e 5fb8 97bd
00000240: 873e 20be 239b 673d 0104 99bd 1463 843d
00000250: aa59 1dbe bbc1 4cbe
-0.11061637 -0.08995483 -0.005001834 -0.113400936 -0.17392823 -0.13102002 -0.24653964 0.067053065
-0.07025868 -0.08214059 0.1254914 -0.1451111 0.08457726 -0.19857715 -0.0786129 0.10619833
0.008722148 -0.16764115 -0.09380574 0.04877305 -0.027532516 -0.0917157 0.043421447 -0.20839337
-0.2103795 -0.13571514 -0.23162201 -0.1739341 -0.22977667 -0.22128479 0.107795306 0.041049544
0.07801617 0.025907865 0.15505691 -0.15936242 -0.0078574065 0.13056165 -0.058576364 -0.10427558
0.18056974 0.14645368 0.11313538 0.1207243 0.20393878 -0.11446796 -0.15095304 -0.13440587
0.2308099 0.18553662 0.13627125 0.114715435 0.119366996 -0.07792182 -0.061040327 0.198527
0.096835576 -0.21090546 -0.24024485 -0.23901105 -0.1749347 -0.044623557 -0.29809418 -0.15503916
-0.022574294 0.02819354 0.079909876 -0.27205816 0.06421672 -0.09932077 -0.12516518 0.09095063
-0.14664038 -0.171176 -0.2971237 -0.15295915 -0.09894681 -0.16723444 0.19343737 -0.055604458
-0.011676451 0.08500192 -0.08404935 0.1505528 0.19478133 0.19000515 0.1988737 -0.18096738
0.19495988 0.21085644 -0.116580054 0.13344872 0.050387047 -0.05875726 0.13381812 0.20480253
-0.018415015 0.11943207 0.21171817 0.065227516 0.0013929626 0.19238439 -0.013945323 -0.0840356
0.13696127 0.05824502 -0.09352907 -0.08798942 0.22396237 0.1978523 -0.090397745 -0.15181004
0.119350605 -0.039409738 0.17000206 0.10010981 0.023737814 -0.017151143 0.18487298 0.19067755
-0.023606675 -0.21885726 -0.12207749 0.21425942 0.053565264 -0.057358127 0.1545812 0.109725855
-0.13906814 0.0400068 -0.07364045 0.19085746 -0.0978702 -0.2331462 -0.13999274 0.046813156
0.11963302 -0.032054234 -0.15165761 -0.25970376 0.21730271 0.20998909 0.2022458 -0.07408213
-0.15648852 0.056544434 -0.07471467 0.0646421 -0.15366235 -0.19995777

encoder.0.bias f4 [6]
00000000: 938d c93d 7e52 0d3e a81a a0bd 5b22 0a3e
00000010: ae33 aabd 68a8 3c3e
0.09841456 0.13801 -0.07817584 0.13489668 -0.08310638 0.18423617

encoder.2.weight f4 [16, 6, 5, 5]
00000000: 8622 3c3d 6238 e73c 311e 8abd ac67 b93d
00000010: de6e 44bc 4d65 0f3a a535 59bd 0366 87bd
00000020: 6cf1 a9bb bb02 2a3d 985d c1bd 56c3 d3bd
00000030: 9d6e 863c abc6 5cba 63c5 02bd e533 86bd
00000040: 971d cb3c 24da c0bd d734 dcbb 7b82 943c
00000050: d853 47bd 8f05 453c 9848 2bbd 4e9f a13c
00000060: 90b9 6fbd 7ddf e73b 9575 f4bc 6775 00bd
00000070: 7ba4 a83c 6c4c 073d 675e d2bb 2af8 b53d
00000080: 7eb0 823c c5e9 d43b b061 c9bc 44ac 583d
00000090: 0254 bb3d 870d b13d 93f3 26bd 4b17 29bd
000000a0: a134 8b3d 4109 60bc 79bf 55bc 93c8 993d
000000b0: 5794 db3d 352b 8abd 3f11 963d f616 a1bd
000000c0: fe58 5dbd b811 923c 1040 873d 144b 493d
000000d0: 61dd 703b 9494 cb3d 4249 07bd 3a64 56bc
000000e0: b906 433d d0cf c2bc fdd9 39bd cd07 883d
000000f0: a686 91bd d755 efbc 33ed 61bd 911a 883d
00000100: 517d fa3c 601e ddbd 8b36 b2bd 97a5 b73c
00000110: eb2f 18bc 84db 383d 302f c3bd e9c2 93bd
00000120: a4ca c4bc 3e0b a2bc 6589 1bbc 294d 653c
00000130: 3191 b33d cf5a 48bd 56d9 1fbd c1d4 e5bc
00000140: f5c3 063d e347 c13d ee02 143d d32e b23d
00000150: f556 ba3d 7861 803d 3444 363d df9c 83bc
00000160: 7ba1 6abd c16c b1bc 0d04 d23d 523e cd3d
00000170: 520c ca3c 5724 8bbc c1a6 a63d f527 c63d
00000180: 73d3 bfbc 0bbb 2d3d 2aab e0bc b447 37bc
00000190: ce74 643d 6e86 d33d 4f1a d93d 5555 2bbc
000001a0: 2479 51bd 084e 103d 6539 d43d 60ec 7136
000001b0: be00 c7bc 0f50 a03d 196e cd3d d208 1e3d
000001c0: 82ea febc 710f b53c 5368 e8bc 57d7 ae3b
000001d0: af8b 433d 80d1 10bd 9ea3 43bd 1a98 97b8
000001e0: 884d 263d 1af6 7abc ed14 c2bc c1ba 4a3d
000001f0: 73c7 24bd b9a8 523d 1d16 5fbd 1086 333a
00000200: 8115 a03b d6da 83bc 7b67 f93c ce32 60bd
00000210: ebb4 cf3d b33e e23d f5b1 7f3d 951b 6e3d
00000220: c0a8 3e3d 170f 2c3d 3d32 bf3b 4207 933c
00000230: 99f8 943d fce9 8a3d c841 8a3c ce37 923d
00000240: 6df1 18bd 0911 963c 5a4e 103d b8e0 393d
00000250: 82aa bcbb cdb3 013d 4636 66bd bd3e 0c3c
00000260: 5685 8cbd b7ac 2b3d 3ba7 02bd d23c 9d3d
00000270: d36d de3b 710d adbd e55a 543d 94b8 c23c
00000280: fe30 34bd cfe2 56bd 3c93 eabc 5284 503d
00000290: f4ba ca3c 5bee d93c 3ebd 2ab9 2d1d 75bd
000002a0: 8c00 b13c 76a1 d23c c440 abbc 9c68 4bbd
000002b0: 684e 8cbd 7fc1 7ebd bbce 883b 4587 2a3b
000002c0: 7b73 433d 955d 88bd 13a2 b4bc 4ae5 bd3c
000002d0: e8d3 02bd b32e c13c 9cc8 7a3c 6895 0ebd
000002e0: bc95 1cbd 09d8 4ebc 796b 2a3d 05fd 26bd
000002f0: 2d11 0f3c e58d 04bd 7e83 713d 318e 4b3d
00000300: 0bbe 83bc 9467 3a3d 237e 973d 2de7 abbc
00000310: 0bfc 163d 26b5 43bd 8fb0 8e3d 0d4d c83c
00000320: 0f4b 473d b106 43bd 7f50 22bd 3fa7 8a3d
00000330: 7a20 883d e63b 353d 4b21 49bd 8db1 853c
00000340: c8c6 433d a983 75bc ec61 8f3d b1c0 85bd
00000350: fd4e 56bd eedc ffbc 461d 1abd 245a 3abd
00000360: 21b1 f23b 9a61 a3bd ff6c 6cbc 56c6 3e3d
00000370: 2777 993c 8f99 5cbd bafc 99bd 5352 9bbc
00000380: 12a0 8e3d e7a5 3c3d 1514 8b3d 4acd fdbc
00000390: ae5e 8a3d c799 993c a0f6 313c 4ba6 573d
000003a0: 3b6e a13d a8c3 3f3c 4adb 83bd e51a d7bc
000003b0: 0184 ed3c 5e7b 51bd baae c63d 28a7 8a3c
000003c0: 5905 c13c ee9b cb3d fb49 883c 3d7d 9f3d
000003d0: feb8 3f3d 0104 183d 492b 4a3d a1f5 74bd
000003e0: 5c02 903d c64e a03d 8b5b 2bbb bd7e e1bc
000003f0: 53dd 8d3d cb4e 47bd da2e 593d 73e5 58bc
0.04593136 0.028225128 -0.0674404 0.09052977 -0.011989323 0.0005470112 -0.053029675 -0.06611254
-0.0051862504 0.04150651 -0.0944168 -0.10339992 0.016410166 -0.0008421938 -0.031926524 -0.06552867
0.024794383 -0.09416607 -0.006720166 0.018128624 -0.048663944 0.012025251 -0.041817278 0.019729283
-0.058526576 0.0070762024 -0.029841224 -0.031361964 0.020586243 0.033031866 -0.006419945 0.08885224
0.015953299 0.006497594 -0.024582714 0.05289866 0.091468826 0.08645158 -0.040759634 -0.04128198
0.067971475 -0.013674081 -0.013046139 0.075089596 0.10721653 -0.06746522 0.07327508 -0.078657076
-0.054039948 0.017830715 0.06604016 0.049143866 0.0036753046 0.099404484 -0.03302885 -0.013085419
0.047613833 -0.023780733 -0.045373905 0.06642113 -0.0710576 -0.029215736 -0.05515785 0.06645692
0.030577334 -0.10796809 -0.087018095 0.022417827 -0.009288768 0.04513122 -0.09530485 -0.072149105
-0.024022408 -0.019780751 -0.009493207 0.013995447 0.087679274 -0.048914727 -0.039025627 -0.02805555
0.032901723 0.094375394 0.036135606 0.08700337 0.09098617 0.06268591 0.044498637 -0.016066013
-0.057282906 -0.021658303 0.10254679 0.10021652 0.024664078 -0.016985102 0.081372745 0.0967559
-0.023416257 0.042414706 -0.027425367 -0.011186529 0.055775456 0.10328375 0.10600721 -0.010457356
-0.05114092 0.035230666 0.1036251 3.6049387e-06 -0.024292346 0.0782777 0.10030765 0.03858263
-0.031117681 0.02210209 -0.028370058 0.005335729 0.047740635 -0.035356045 -0.04776346 -7.228572e-05
0.040601283 -0.015317464 -0.023691619 0.04949451 -0.040229272 0.051430438 -0.05446445 0.0006848285
0.004885376 -0.01609556 0.030444851 -0.05473595 0.10141929 0.11047115 0.062425572 0.058131773
0.04654765 0.04200658 0.0058348463 0.017947797 0.07273979 0.0678291 0.01687707 0.0713955
-0.037339617 0.01831867 0.035230972 0.045380324 -0.005757631 0.031665612 -0.056204103 0.00855988
-0.06861369 0.04191276 -0.031897765 0.07677616 0.0067879944 -0.08449829 0.051844496 0.023769654
-0.043992035 -0.052462395 -0.02863466 0.05090744 0.02474735 0.026602915 -0.00016282962 -0.059842277
0.021606706 0.025711756 -0.020904906 -0.04966031 -0.06850892 -0.06219625 0.004175035 0.0026020568
0.047717553 -0.06658474 -0.02204994 0.023180623 -0.03194037 0.023581838 0.015306618 -0.034810454
-0.038228735 -0.012624749 0.0416064 -0.040768642 0.008732122 -0.032361884 0.05896329 0.04969615
-0.01608183 0.045508936 0.073971055 -0.020984257 0.03686146 -0.04778018 0.0696727 0.024450803
0.048655566 -0.047613803 -0.03962755 0.06770181 0.066468194 0.044246577 -0.049104016 0.016320014
0.047796994 -0.0149850035 0.07001099 -0.065308936 -0.052321423 -0.031233277 -0.037625574 -0.04549612
0.0074063693 -0.079776004 -0.014430284 0.046575867 0.018733574 -0.053857382 -0.07518907 -0.018960154
0.06964125 0.046056654 0.0679094 -0.030981679 0.0675634 0.018750085 0.010862023 0.052648824
0.07882353 0.011704363 -0.064383104 -0.026257941 0.028993608 -0.051143043 0.09701295 0.01692541
0.02356212 0.099418506 0.01663684 0.07787559 0.04680728 0.037113193 0.049357686 -0.059804562
0.070317 0.07827525 -0.0026147093 -0.027526254 0.0692698 -0.048659127 0.053023197 -0.013238299

encoder.2.bias f4 [16]
00000000: 9411 00bc ed6c 1c3d a95b c13c f451 ed3c
00000010: ffc4 c53d f5b8 823c 2733 a43c a300 cdbb
00000020: d6e2 f8ba 8625 d53d f943 cf3c 9e68 133d
00000030: a41a be3d 4ad1 993c 713f 1c3d 7467 92bc
-0.007816691 0.038189817 0.023603277 0.028969742 0.09656715 0.015957335 0.020043923 -0.0062561794
-0.0018988501 0.10407548 0.025300967 0.035988443 0.09282425 0.018776555 0.03814644 -0.017871596

encoder.5.weight f4 [10, 6400]
00000000: 2cd3 b33b 4188 563b 62e7 1f3c 6940 16bc
00000010: 6a60 3abc 5125 3fbc d1f9 fdbc 32b6 0cbd
00000020: 9e30 babc 35bc b2bc 3241 c7bc 47d2 5fbc
00000030: 29d6 f83a ed46 9b3b 4a0a b0bb 0b04 80ba
00000040: ad7c 073c 24e4 fc3b de51 af3b c915 8e3b
00000050: dfa0 953c b303 e53a 76d9 353c 36a5 e33b
00000060: 3de1 86bc fbde b9bc b86d 62bc cf9b cfbc
00000070: ab05 123b 6b89 4fbc b13b bbb9 48df feba
00000080: bb64 3ab9 65bd 923c 64bc ca3b 40bb b93c
00000090: 2ed3 c33b 8f42 ca3b 9ecb 3c3c 23ed 0fbc
000000a0: 060e b53c 58cd b13c 8889 04ba 45a2 173b
000000b0: 1da5 c1bb f435 98bc 15ee c5bc 720a 4dbc
000000c0: 3729 fdbb 5929 463c d3c5 773c 118d 703c
000000d0: 7374 b23c 8513 f03b d9ec 9b3c ff3b 823c
000000e0: e330 903c 5c66 993b 16e9 443b f9e0 f83b
000000f0: 5cf0 ab3c b11a 7b3b a96a 74ba 7a3f aa39
00000100: 4026 49bc a6f4 b9bc 38d8 533a f23f 21bc
00000110: 80f0 d43b 83da cb3b b4b9 8f3c b2cf c33c
00000120: 52c4 133c 6cb2 aa3c 01e3 c13c ec1e ce3c
00000130: 3a6f 9f3c 5778 8e3c 7fa3 6c3c 9ea9 e23b
00000140: b63e 403c 3dba f73b 2d05 223b 3b44 1dbc
00000150: 18aa b3bb a9c6 813b 1c90 f73a ad79 843c
00000160: 394a 293c 48a5 083c d8d2 d03c 31f1 f13c
00000170: b02b c53c d084 083c e6d9 613b 1c2c a33a
00000180: fb60 8b3c 7845 7f3c 8d00 a53c ebf6 833b
00000190: 1b05 c2ba a534 9fba a93d 053b 3b21 f4bb
000001a0: ee75 a63a 1419 42bc c284 8e3a e12e 1e3c
000001b0: c3f5 773c b0b2 a23c a53e 263c ed1f 033d
000001c0: 0475 e33c 35cd 993c 834b 17bb 807c 3f3c
000001d0: b7c9 8f3a 801e 813b 6a0d 453c ce14 c43a
000001e0: 2207 383c 2627 dcba 9d38 26bc 204d dabc
000001f0: 6865 81bc 6a18 2fbc b99a 00bb 3c4b 3c3c
00000200: b28d ca3c b354 a83c 2e8f af3c ee61 6d3c
00000210: 0ae8 ae3b 9a38 a43c 736a dab9 0138 12bb
00000220: 153a 32bb d448 1bbc b69d 2f3b ce35 95bb
00000230: 579c f7bb 1249 72bc ba75 37bc bc0b 02bc
00000240: 4f16 d5bb ebc5 1a3c 353c 0f3c da9b 463c
00000250: afca 133c 951a 803c f5aa d93b 0ab6 b3ba
00000260: f0ec b83b 5190 32b9 1389 febb 4632 f23b
00000270: acae a03b 1d14 993b 690a 0f3b 487a 53ba
00000280: c5ba b23b 6d92 13bc b1bf 49bc 07b5 0dbc
00000290: 54a6 3a3b 9bb2 9bbb ee3b ae3b 16ea 743c
000002a0: a6db 963b 622c 903c 7abb 363c 42c0 413c
000002b0: 1ebd 40bb dd61 d63a 43b9 b23b f899 b739
000002c0: 4a7f 2abb acd9 0a3c 167a 8cbc a6ca b9bb
000002d0: 9b13 d1bb 27ae 01bd 42b4 04bd f885 76bc
000002e0: 104e d139 f828 94ba 9df9 49bb c831 e43b
000002f0: 8999 a03b d04b 2b3c 8d44 1bbc 5dd9 483c
00000300: 3d13 1f3b 5e80 b23b 98c1 6b3c f4be 633c
00000310: 099c 283c 9fec 8b3a 8dc3 68ba fc69 bebb
00000320: 589a bebb 5dde dfbc 8f58 0abc 8359 08ba
00000330: 345d 843c 03ba a83c e710 e23b dbe4 743c
00000340: e76c d33b 18f7 04ba 705d 163c 72ed 7e3c
00000350: d21d 9b3c fb69 c53a 2d10 953b ce13 01bc
00000360: 5eb2 d3b9 3e07 0ebc 215f 8bba 3c8b 9cbc
00000370: 6c89 efbc 95b8 cfbc 317d 69bc 6d41 3dbb
00000380: 12b5 793c 70c8 e03b 9f91 9e3c 0572 a93b
00000390: d610 f73b 67c2 653b 615f 583c ff0f 073b
000003a0: 67af 9c3c 04e0 faba b4bd 6dbb 0caa 003c
000003b0: ad11 64bb 4256 4fbc a5fe 62bc 72fd 77bc
000003c0: 1c1f aebc 3b07 0fbc 85bf 3cbb 476f 943c
000003d0: 652a b33c ed9f 9f3c 5ba5 3c3c 523f ae3c
000003e0: 8998 833c 53c5 ebbb ac55 413c cda3 a83c
000003f0: b9c3 3e3c 5cc5 d639 2ad1 c93b e06a bb39
0.00548782 0.0032735022 0.009759756 -0.00917063 -0.011375526 -0.011666612 -0.03100291 -0.034353442
-0.02272826 -0.02181826 -0.02432308 -0.013660974 0.0018984723 0.0047386796 -0.0053723203 -0.000976683
0.008269471 0.007717626 0.0053503355 0.004336093 0.018265186 0.0017472416 0.01109921 0.006947185
-0.016464824 -0.022689333 -0.013820104 -0.02534285 0.002228121 -0.01266704 -0.00035711893 -0.0019445205
-0.00017775867 0.017912576 0.0061870087 0.022672296 0.0059761023 0.006172485 0.0115231555 -0.008784565
0.022101413 0.02170436 -0.0005055894 0.0023137492 -0.0059095756 -0.018580414 -0.024161378 -0.012514697
-0.0077258605 0.012094819 0.015122849 0.01468207 0.021784043 0.0073265457 0.019033836 0.015897749
0.017601436 0.0046813916 0.0030046157 0.007595178 0.020988636 0.003831547 -0.0009323755 0.0003247222
-0.012277186 -0.022699665 0.00080812303 -0.009841906 0.0064983964 0.006221117 0.017544605 0.023902748
0.009018974 0.020837031 0.023667814 0.02516123 0.019462217 0.017391367 0.014443277 0.0069171926
0.011733701 0.007560043 0.0024722323 -0.009598787 -0.0054829232 0.0039604497 0.0018887552 0.0161713
0.0103326375 0.008340187 0.025491163 0.029533954 0.024068683 0.008332446 0.0034462153 0.0012449059
0.017014017 0.0155805275 0.020141864 0.0040272377 -0.0014802547 -0.0012146427 0.0020330942 -0.0074502504
0.0012699941 -0.011846799 0.0010873305 0.0096547315 0.015134278 0.019860595 0.010146772 0.03201287
0.027765758 0.018774608 -0.002308578 0.011687398 0.001097015 0.0039404035 0.012027124 0.0014959814
0.011232169 -0.0016796335 -0.010145334 -0.026648104 -0.015795425 -0.010686973 -0.0019623472 0.011492547
0.024725769 0.0205482 0.021430578 0.01448868 0.00533772 0.020046521 -0.0004165951 -0.0022311213
-0.0027195264 -0.009477813 0.0026796884 -0.004553533 -0.007556479 -0.014787929 -0.011197502 -0.007937368
-0.0065029035 0.009446601 0.008742382 0.012122119 0.0090204915 0.015637675 0.006642694 -0.0013710868
0.0056434795 -0.00017029165 -0.0077678054 0.007391247 0.004903635 0.004671587 0.0021826273 -0.00080672326
0.0054543936 -0.009007079 -0.012313769 -0.008649117 0.0028480487 -0.004751516 0.005317203 0.014948389
0.004603821 0.017599288 0.011153096 0.011825623 -0.0029409598 0.001635607 0.005454214 0.00035019196
-0.0026015812 0.008474749 -0.017148059 -0.0056699095 -0.006380511 -0.031660225 -0.03239847 -0.015046589
0.00039921748 -0.0011303714 -0.0030818947 0.006963942 0.0049011153 0.010455087 -0.009476793 0.012258855
0.0024272942 0.0054474315 0.014389418 0.013900507 0.010291108 0.0010675377 -0.0008879237 -0.005810974
-0.005816739 -0.02732771 -0.008443966 -0.00052013266 0.016157724 0.02059651 0.0068989876 0.0149471415
0.006452191 -0.000507222 0.009177551 0.015559541 0.018935118 0.0015061492 0.0045490474 -0.007878257
-0.0004037795 -0.008668719 -0.0010633209 -0.01910936 -0.029240333 -0.02535657 -0.014251039 -0.0028878108
0.015240924 0.0068598315 0.019356547 0.005171063 0.007539849 0.00350585 0.013206334 0.00206089
0.019126607 -0.0019140248 -0.0036276402 0.007853042 -0.0034800575 -0.012654843 -0.013854657 -0.01513611
-0.021255068 -0.008729751 -0.0028800678 0.018119467 0.021870801 0.019485438 0.011514033 0.021270428
0.016063945 -0.0071951537 0.011800211 0.020585919 0.011643344 0.00040964305 0.0061589675 0.00035747048

encoder.5.bias f4 [10]
00000000: 1aed ea3b 3c9b 0abc 42a4 3ab9 5be4 1d3b
00000010: a4d8 be3a 180f 5e3c 76f2 2b3c 3b7e 083b
00000020: 0db6 a4bb 48c9 1cbc
0.007169378 -0.008459862 -0.00017799533 0.002409241 0.0014560414 0.013553403 0.010494819 0.0020827192
-0.005026585 -0.009569474

decoder.0.weight f4 [6400, 10]
00000000: eb68 fc3d dad1 9e3d 003c c13d 164a 0dbe
00000010: f057 933e 3158 fb3d 67be 94be a836 193e
00000020: fae4 323d f26f 3d3e 25e3 6d3d 00a2 a2bc
00000030: fef8 0fbd d22a c33c 49bf b3bd e6e1 41be
00000040: 8393 86be 1bd7 2b3e d6c2 763e 552a 0a3d
00000050: 64ac cebd 4fa0 923d f557 eb3d b0f3 753e
00000060: 23bc 0bbe 0a67 0b3d fe9c 773e eb27 43bd
00000070: 7bbe a33e 32f1 76be 47df 5f3d 8bdf 51bd
00000080: 9d7f 833e 761e 1ebe 08d2 e63d 592f f93c
00000090: ce31 8cbd 84bb e23d dfc4 8cbb 27ff 673e
000000a0: e0ff 50be 32fe 5fbe 2b12 a03d b247 663e
000000b0: d0df 17be f729 efbd 5f93 0e3d 3a04 3f3e
000000c0: 98a7 4bbe f71a 1d3e cee5 00be 62c3 8c3e
000000d0: 0119 99be 9147 ac3d 9d79 e1bd 23ae 12be
000000e0: 5f99 143e 3547 783e d6fa d23c a5cc 3cbe
000000f0: 59cd 45be b5dd 363d 77dc c5bd 9e8c 92be
00000100: b318 08be 32e9 823d dd23 3abe 9d90 b43e
00000110: d8bd 4b3e 17b2 063d 249c 7f3d 6912 023d
00000120: 0a95 19be 9e8f a03e 12cd 53be 325c 80bc
00000130: a273 a63e b3d0 813e 9af4 543e c2a0 703e
00000140: 006b 5fbd 9242 133d f5ba 88be a285 3f3d
00000150: 588d 713e 0529 93be 1097 b7bd 6f09 233e
00000160: 3074 4cbd 4835 5d3d 5cd2 23be 0241 943e
00000170: 1391 a9be 4cf2 343d 32d1 1e3e 56fc a2bd
00000180: 4065 8e3c e27e 7dbe 0ca7 b33e bd20 3cbe
00000190: 52e1 ca3c c3dc 583e fe5d e13c 077a dcbd
000001a0: b49a 49be 97f6 27be bcb0 8b3e ea27 683e
000001b0: d94e 88be 332b 6dbc d839 4ebe 28c4 323d
000001c0: d1dc 6bbc ac0c 473e 0b46 d4bc ad9c 923e
000001d0: c60b 30be eb6d 1f3e 04b0 6c3e 3c25 2bbe
000001e0: 7067 f4bd 685c 833e 5a94 8b3c d756 3c3e
000001f0: 97e9 42bd 7979 013d e1b9 69be 2aa6 10bd
00000200: 6eef 4fbe 177f 8a3e d834 d43d 9c54 30be
00000210: a886 313e 1c34 0fbd b304 e5bd 6da5 2dbe
00000220: d6ee 92bd 6235 0a3e 5158 f3bd 39c6 a43d
00000230: 5282 993e ccd2 013e 8c81 6b3e 2b0d e03d
00000240: 7572 023e 17be 8dbe 356c 5bbe 47d0 743e
00000250: 853c 54be 6f31 29be da64 473e f645 0f3e
00000260: a24e ae3d ba8a 5bbe 1782 843e 177d 22be
00000270: bf29 e93d 4923 b0be f94f 1dbe 1082 3cbc
00000280: daa1 213e 18e5 f83d fdee d4bd 6dc9 e3bd
00000290: be63 95be f158 633e c013 ca3c 9e96 e4bd
000002a0: cd47 1e3e 4391 0f3e e98f 24be 100e 3a3e
000002b0: 6ea1 2cbe 0744 fd3d ca13 63be 17d3 4a3d
000002c0: 3373 873e 4551 15be 27ac c5bc 4274 2d3e
000002d0: cf5a e2bd b89d 113d cd34 8b3e a75d bcbd
000002e0: f65d 05be 108e 18be afa8 49be 8fab ff3b
000002f0: 907c 72be baae 2e3e bd55 283e 99a8 00bd
00000300: 8bdf eebc 09b3 893e 2d73 973e 9fe5 243e
00000310: a304 04be e137 5ebe 4027 3dbe f79a 01be
00000320: e998 06bd 06c7 273e 1e95 4d3d 415d 00bc
00000330: 14eb 8abe 3fa6 e4bd 1acd 8fbd eb9b a63a
00000340: 7f30 1a3e 7e74 c63b 32fa ac3d f82a 393e
00000350: 5fc3 0f3e 4227 23bb 7763 3d3e 6ed0 f4bc
00000360: 22e5 eb3d 3c51 5d3e 036a 5bbe 9352 13ba
00000370: 31ff 35be ed6a 3dbc 9a42 153d 7f2e 3dbe
00000380: b9b7 6dbd e6cb 873d ad7d e63d 6d6a 5dbd
00000390: cb2c c0bd fd05 a93d e942 0abd 4771 143d
000003a0: e7c3 83bd ff29 a4bd 5e55 3dbc 4cf2 b2bd
000003b0: 7dec 0d3e bfee f8bd e15a 6f3e 2ae3 17be
000003c0: 8bf9 8fbe 9d31 873e 2eba f83c 8e54 d2bd
000003d0: b1c9 9ebe 8601 13be f8ee 02be 0177 94bd
000003e0: 6f67 53be 291b cebd 41b2 9e3d 7a73 7d3e
000003f0: 60ac 66be ad2c 863e 0eff 65be d14d d6bd
0.12324699 0.0775487 0.09435272 -0.13797793 0.28778028 0.122726806 -0.29051515 0.14962256
0.0436754 0.18499735 0.05807795 -0.019852638 -0.035149567 0.02382413 -0.08776719 -0.1893383
-0.26284418 0.16781275 0.24097762 0.033731777 -0.10091475 0.07159483 0.11491386 0.2401874
-0.13645987 0.034033813 0.24180982 -0.04764549 0.31981263 -0.24115446 0.054656293 -0.051238578
0.256833 -0.15441307 0.11270529 0.030418085 -0.06845437 0.11070922 -0.00429593 0.22655927
-0.20410109 -0.21874312 0.07815965 0.22488287 -0.14831471 -0.11677926 0.034808513 0.18653956
-0.1988815 0.15342318 -0.12587664 0.27492815 -0.2990189 0.08412088 -0.11009524 -0.1432424
0.14511631 0.24245913 0.025754374 -0.1843744 -0.19316615 0.04464503 -0.09661191 -0.28622907
-0.13290672 0.06392135 -0.18177743 0.3526658 0.19896638 0.032884683 0.062404767 0.03175584
-0.1499826 0.3135957 -0.20683697 -0.015668962 0.32510096 0.25354537 0.20796433 0.23498824
-0.054545403 0.03595216 -0.26705137 0.0467583 0.23589075 -0.28742233 -0.0896436 0.15921567
-0.049915493 0.05400589 -0.15998214 0.28955847 -0.33118495 0.044176385 0.15509489 -0.079582855
0.017382264 -0.24755433 0.35088384 -0.18371864 0.024765644 0.21177964 0.02751064 -0.10765462
-0.19687921 -0.1640266 0.27283275 0.22671476 -0.26622656 -0.0144756315 -0.20139253 0.0436441
-0.014395908 0.19438428 -0.025912305 0.2863516 -0.17191991 0.15569274 0.2311402 -0.16713423
-0.11933792 0.25656438 0.017038513 0.18392502 -0.04758605 0.031609986 -0.22824813 -0.035314716
-0.20306179 0.27050087 0.10361642 -0.17219776 0.17336524 -0.034961805 -0.11182537 -0.16957636
-0.071744606 0.13496926 -0.118820794 0.080456205 0.2998224 0.12678069 0.22998637 0.109400116
0.12738974 -0.2768409 -0.21427996 0.23907577 -0.20726211 -0.16522764 0.19472066 0.13991532
0.08511092 -0.21439639 0.258805 -0.1586803 0.113849156 -0.3440192 -0.15362538 -0.011505619
0.15784398 0.12153071 -0.10397146 -0.11122403 -0.2917766 0.22201897 0.02466762 -0.111615404
0.15457077 0.14020257 -0.16070522 0.18169427 -0.16858456 0.12366491 -0.22175518 0.049517717
0.26455078 -0.14581783 -0.02412994 0.1693888 -0.110524766 0.035550803 0.2718872 -0.0919755
-0.13024125 -0.14897943 -0.19693254 0.007802434 -0.2368033 0.1705884 0.16438957 -0.031410787
-0.029159328 0.26894405 0.2958006 0.16103218 -0.12892394 -0.21701004 -0.18472004 -0.1265677
-0.03286067 0.16384515 0.050191037 -0.007834733 -0.27132475 -0.111645214 -0.07021542 0.0012711262
0.15057562 0.0060563674 0.084461585 0.18082798 0.14039372 -0.0024895226 0.18494974 -0.029884543
0.11518313 0.2161302 -0.21427159 -0.00056199095 -0.17773129 -0.011561138 0.03644047 -0.18474768
-0.05803654 0.066306874 0.112544395 -0.054056574 -0.093835436 0.08253095 -0.033755217 0.036240842
-0.0643385 -0.080158226 -0.011555998 -0.08737621 0.13859744 -0.12154912 0.23374511 -0.1483275
-0.28120074 0.2640504 0.030362215 -0.10270034 -0.31013253 -0.1435605 -0.12786472 -0.07249261
-0.20644926 -0.10063774 0.07748843 0.24751082 -0.22526693 0.2620596 -0.22460577 -0.10464061

decoder.0.bias f4 [6400]
00000000: f7a0 c8bd 2b1b b2bd d975 413e ecd7 0cbe
00000010: 482e d23d 077c 0abe 6f1a 6abd aca8 f1bd
00000020: 73cc 43be 2bca eabd f578 c63d 7bab 2f3e
00000030: 28be a53d 1e8c 61bb 3c5f 47be a2f6 123e
00000040: 5203 583e 8c65 0ebe b02d 67bd fc1f b73d
00000050: 8e8c ddbd e000 f23d a705 c93d f356 0ebe
00000060: d9cf 273e 1a94 09bd ef9a 303e b51c 873e
00000070: cfca 7c3c 5fcc b5bd 477b ddbd 717f dabd
00000080: fd42 ae3d 643f 623e 96a9 b1bd 6228 823e
00000090: 63d1 c03c 9efb 2dbd 467c fdbd 56cb 33be
000000a0: c5eb b5bc 7a6e 28bd 885b 363e 332d 393e
000000b0: 7f56 5abc 1a0d a2bd b41c cbbc 187c 20bd
000000c0: 1a07 583d c4e0 3e3e 9d46 08be b04c 453e
000000d0: 0c7c 5f3d 6570 babd 528d 16be 966e 9bbd
000000e0: 1568 6bbe cc22 033e 03be b8bd a332 56bc
000000f0: 7ea7 ecbd 5a85 953d 450c d63d 7eaa 493e
00000100: 0b30 5e3e 0523 ca3b bb30 3ebe dfd8 ebbd
00000110: d9cb 2fbe e7ca 973d 03e6 213b fe8c 373e
00000120: d21e febd 4e3e 8b3d 2918 0dbd 7c70 c9bd
00000130: 8f89 f4bd ff14 043d b188 593d a887 07be
00000140: b25c 5f3e 1dcb bcbd 8aca 163e 38a0 283e
00000150: 5665 a7bd 9373 733e e2c0 0abe 2ebe 15bd
00000160: 0a14 373d 1177 6b3e 1d75 7a3e 1468 e3bd
00000170: 0e9f 14be 8201 abbd ab6f 593e 944f 423e
00000180: 225f 103c fc6e d2bd 9328 f33d 3fda fd3c
00000190: 6a99 58bc 2d78 fe3c 33bb 1b3e 93fd 853d
000001a0: e117 0fbe 62b9 823e a069 053e 5a26 2fbe
000001b0: ce2e 603d b421 43bd f9f2 2abc 9f04 573e
000001c0: 89e8 333d e8f1 bf3d 5f31 af3d 51c0 8dbd
000001d0: 8dd9 06be 631c 343e fecc e83d 35ba cd3d
000001e0: 6f87 eb3d 72af 93bd ac15 73bd 5cc0 52bd
000001f0: 7b65 5c3d 67cd 563e b188 073b edc0 643d
00000200: 80af f2bd b32b 873d 3138 d4bc 7de7 88bd
00000210: e73d 3abe 84f4 453e e736 0abe 1280 103d
00000220: 7184 de3d 5e61 bdbc 8626 71bd fd15 2d3d
00000230: 70c7 203e 8d1d bcbd 6d38 e4bc 3269 7b3d
00000240: b5e7 55be 5d88 dabc a5fd 423e 529b 873e
00000250: 996c 00be 0416 7e3e b8a0 933c a306 3c3e
00000260: d2fb 59bd 0485 273e 3b13 e13d ec32 ac3d
00000270: 0fc8 9dbd 21db 71bc ecee 9abd 98f0 e73c
00000280: 7b59 b6bc c8fa c33c 9850 f53d dfe1 08be
00000290: 42c2 d9bc 76b4 143e 78aa 5a3e b3b8 2dbe
000002a0: 8464 ea3b f460 73bd d5b4 3c3e ce01 d33d
000002b0: d226 bb39 c8c2 3a3e 924d 29be e09b 05be
000002c0: d455 4bbd b31d 113e b300 4abe b8e4 82bc
000002d0: e4c5 173a 7f01 3b3e 8288 c8ba a170 143e
000002e0: 77e3 453e 0dfc 0c3e ae61 06be eb02 5f3e
000002f0: 69ad ab3d a20e f93d 701f 243e 1b72 43be
00000300: 3cb3 06be afe2 57be 8dbc 5abd 4edb cf3c
00000310: d964 603e 4c16 31bc fd80 693e f553 3c3e
00000320: 41cd b8bc 4452 75bc 18cb d03d 3a22 753c
00000330: 6af0 8c3b 9914 cabd cacc db3b af09 9fbd
00000340: 2675 11bd a52b 1b3e 40b1 43be fbdf e3bd
00000350: a026 c23d 66e9 8cbd c593 703e 3824 803e
00000360: a15c f6bc cb8b a5bd 9de3 25bd 0c99 32be
00000370: 27ab 5c3e 399b c6bd a087 1f3c d540 983c
00000380: daad 0a3c f175 b1bd 4456 4ebd 410e 81bd
00000390: 6388 9bbd 03b4 fcbd aa8f 003e 7120 953d
000003a0: 4ce7 8e3e 111e 50be 394d 21bd 739c 43be
000003b0: c743 5e3e d70c 093e 3410 613e de0b 033e
000003c0: 6628 2abe d1d4 05be 7fe9 413e c538 413e
000003d0: c63f 243c 1f7c 6b3e b99a 743e 96b0 ab3d
000003e0: 9f89 2e3c 9c50 b8bb 3353 a8bc 02d3 6b3e
000003f0: a2a6 75be bb90 fbbd afc3 e13d 8bac 723e
-0.097963266 -0.08696588 0.18892612 -0.13754243 0.10262734 -0.13523875 -0.057154115 -0.1179975
-0.1912096 -0.11464342 0.096910395 0.17155258 0.0809291 -0.0034415792 -0.19469923 0.14351895
0.21095017 -0.13905925 -0.056440055 0.089416474 -0.10817824 0.11816573 0.09815531 -0.13900356
0.16387881 -0.033588506 0.17246602 0.2638909 0.015429213 -0.08876871 -0.10814529 -0.10668839
0.08508871 0.22094494 -0.08674924 0.25421435 0.023537343 -0.04247629 -0.12377219 -0.17558035
-0.02220715 -0.041120984 0.17808354 0.18083648 -0.013326286 -0.07912655 -0.02479396 -0.039180845
0.052741148 0.18640429 -0.13308187 0.19267535 0.05456166 -0.09103469 -0.14702347 -0.07589452
-0.22988923 0.12806243 -0.09020617 -0.013073596 -0.11555384 0.073008254 0.10451559 0.19693944
0.21698014 0.0061687254 -0.18573277 -0.11515974 -0.17167605 0.074117474 0.0024703748 0.17924878
-0.12408222 0.06798993 -0.03444687 -0.09835908 -0.119403 0.032246586 0.053108875 -0.13235343
0.21812704 -0.09218428 0.147257 0.16467369 -0.08173625 0.23774557 -0.13550141 -0.036558323
0.044696845 0.22994639 0.24458738 -0.11103836 -0.145138 -0.08349897 0.21234004 0.18975669
0.008811744 -0.10275075 0.11872973 0.030987857 -0.0132201705 0.031063164 0.1520813 0.06542506
-0.13973953 0.2553206 0.13028574 -0.17104474 0.054732136 -0.047639564 -0.010433906 0.20997857
0.043922935 0.09372312 0.08554339 -0.06921447 -0.13168927 0.17588954 0.11367224 0.10045282
0.11500441 -0.07211198 -0.05934684 -0.05145298 0.053807717 0.20976792 0.002068084 0.05584805
-0.1184988 0.06600132 -0.0259057 -0.06684778 -0.18187676 0.19331557 -0.13497506 0.035278387
0.10865105 -0.023117717 -0.05887463 0.042257298 0.1570108 -0.09185324 -0.027858937 0.06137962
-0.2088917 -0.026676351 0.1904207 0.26485687 -0.12541427 0.24813086 0.018020973 0.18361907
-0.05321867 0.16359335 0.10989996 0.0840815 -0.07704174 -0.014761717 -0.07565102 0.028312966
-0.022259464 0.023923293 0.11978263 -0.13367413 -0.026581887 0.14521965 0.21354091 -0.16964988
0.0071530957 -0.059418634 0.18428357 0.103030786 0.00035696343 0.18238366 -0.16533497 -0.13047743
-0.0496424 0.14171486 -0.19726829 -0.015978202 0.0005789681 0.1826229 -0.0015299472 0.1449609
0.19325052 0.13768025 -0.131232 0.21778457 0.08382685 0.12160994 0.16027617 -0.19086497
-0.1315431 -0.21082567 -0.053402472 0.025373127 0.2191347 -0.010808539 0.22803111 0.18391402
-0.02255881 -0.014973227 0.10194987 0.0149617735 0.0043011205 -0.0986721 0.0067077624 -0.07765519
-0.035512112 0.15153368 -0.19110584 -0.11126705 0.094800234 -0.06880455 0.2349387 0.25027633
-0.030073466 -0.08083304 -0.040500272 -0.17441195 0.21549664 -0.09697575 0.009736925 0.018585602
0.008464301 -0.08665074 -0.050375238 -0.06301547 -0.07594373 -0.12339022 0.12554803 0.07281578
0.2791084 -0.2032397 -0.039380286 -0.1910265 0.21705543 0.13383804 0.21978837 0.12797496
-0.16616973 -0.13069464 0.18936728 0.18869312 0.01002497 0.22996567 0.23887147 0.083832905
0.010652929 -0.0056248438 -0.020547485 0.23029712 -0.23989347 -0.122834645 0.11023652 0.23698632

decoder.3.weight f4 [16, 6, 5, 5]
00000000: 3304 263d f521 23bd e90a 4e3d 03d2 a5bc
00000010: f38e aebc c61d 413c fe14 afbc 0fcc 2f3d
00000020: 2ef0 89bd 06d3 afbd b422 8d3d a464 d73c
00000030: ef00 10bb e393 2dbb 54df 7abd acbd 83bd
00000040: 22d4 52bd 4e7c 6abd e50d e1bd 3d7b c6bd
00000050: f672 c1bd cee6 9fbd 89cb 2f3d 6971 78bd
00000060: a8ad babd c9ae ce3d c0cd e33c ee04 ebbc
00000070: 1982 623d 628d b03c a2ae a5bc 8ed6 36bc
00000080: 2af3 8abc 0e80 8dbd 80ee 36bc ca9e 8bbd
00000090: e156 76bd ad25 eebb 8f56 873c c4bf c4bc
000000a0: d5da 4d3c f56e 5fbd 83fa 193d 3318 e7bc
000000b0: 10b0 61bd a682 6abd 6612 ff3c 0335 83bd
000000c0: 11ce 15bd d874 133d e7e6 9abd da6e 2cbd
000000d0: 1198 823b 98ee 28bb 1a6a b9bc 7a8a 29bd
000000e0: bb7e 483b 1517 92bd 9b7c 8bbc ba83 2cbd
000000f0: 58a4 92bd 0580 6fbd 188d e83c 0f80 3ebd
00000100: b898 91bd 68b0 b6bc 847a a7bc 9e74 8e3d
00000110: 3f8f 51bd 465e 15bd 2f5b db3b 9a5e 7d3d
00000120: e993 273d 9a53 393d 159f 53bd fda0 14bd
00000130: 3bdd 92bc a768 4b3d 7c4b 8dbb b65a 163d
00000140: 96f0 1b3d fa8a 353d 8bcc 2b3d f30d 793d
00000150: a039 6e3d 24b7 b63c 03f9 32bc 55d6 ab3c
00000160: f680 503d 127f 5fbc 3b94 473d dc39 17bd
00000170: 1f94 123d 2dd5 9cbc c258 003c 1702 f43c
00000180: b4db 9cba 8d88 243d efd5 8b3c 837d 183d
00000190: 36e2 aabc 4e4b 8d3c 3d5f f7bc 7e51 1c3d
000001a0: f1da 73bd 0c87 c8bc 9029 f6bc 2aeb 813d
000001b0: 4f83 373c c01b 31bd bf21 753d 33e9 b7bc
000001c0: 5214 b9bb e673 9e3d bde8 c53d 5464 2f3d
000001d0: 8e57 533d 9179 853d 0605 c73c 651d c93d
000001e0: 13c9 893d a3bf 923c 2b1c b43d ebe6 553c
000001f0: cfa2 813d 37fb b5bd 1eb8 c1bc ef2b f5bc
00000200: 71d8 46bd 1762 04bd 38b9 24bd 7aca 98bc
00000210: 3a5f dc3b df7c 063c c217 72bd 7d2c a2bc
00000220: ec85 38bd 036e 6bbd 88fc aebd ad5c 21bd
00000230: 04fd c2bb eaf8 86bd d67d 193d e2bc 46bd
00000240: 8a61 003d a1a9 5dbd ecc2 d7bb d689 723d
00000250: 861d 03bd 3c2b 373d 62d9 473d d3bc a43d
00000260: 22a1 66bc dced 593d 570d 2c3d db0d 53bc
00000270: 8ac9 0bbd 2b36 5a3b 7e9a 1d3d 4c43 bebc
00000280: d57d 773d f132 143d 4714 ce3d 10de 293d
00000290: 41df 9f3c dfe7 c93c d30f 79bc 249f 393c
000002a0: 5f02 a33c f236 d9bc edd9 6abd e33a 0ebc
000002b0: c033 183d 0834 943d 048f 5f3a 269f 5c3d
000002c0: 2bd1 f93b eba4 f5bc f14e b7bb 2493 44bd
000002d0: 42ba 4ebc 3eef bf3c 7750 afbd dd3b ccbc
000002e0: e07e 503d 79fb 17bd d734 073d fda5 343d
000002f0: 6830 85bd 4968 f1bc cc9b 4cbd f185 293c
00000300: 794f 123a 9ad5 9cbd bd9e 6abd f8ce a1bb
00000310: 8d12 ba3a c7ca bebd 8d2c 53bc 9d3c 45bd
00000320: dcd9 0a3d 4831 60bd c6e2 d53c 6a1d 82bd
00000330: 548f 1abd a88a 51bc ce13 d3bc 9854 433d
00000340: 6e35 653c ee75 9ebd 2af5 2e3d 835b b83d
00000350: 24da 333c b18c 483d ed0b 803d 5eb0 983d
00000360: cabc 853c c072 24bd 64eb 75bd 104c a43c
00000370: 05e1 43bd 259b 923d 829c ac3d 9b3e 1dbb
00000380: 2f5f 4ebd d1ed 113c bba9 583d 0141 203d
00000390: ae57 263d 99c1 e23d 4313 36bb 96e9 26bd
000003a0: 5cbd a73d 38ce e03c 9756 d83c fb34 5ebd
000003b0: 2c2e 02bb 568a 9b3d 86ef 873c 3529 3e3d
000003c0: 925d 773d 0f43 b23d e5b4 913d 5757 39bc
000003d0: ba54 523d e3f1 8c3d 2434 4c3d 1574 363d
000003e0: 28c3 e93b a5d5 613d c0bc a9bc 1b6e b8bd
000003f0: ec15 a13c 1aa7 8bbc 36dd c1bb 8f0f f1bc
0.04053135 -0.039827306 0.050303373 -0.020241743 -0.021308398 0.011786884 -0.021372315 0.042919215
-0.06735264 -0.085851714 0.06891385 0.026293106 -0.0021973213 -0.0026485852 -0.06124814 -0.064326614
-0.051471837 -0.057247452 -0.10988978 -0.096914746 -0.09445755 -0.078076944 0.042918716 -0.06065503
-0.091151536 0.100919314 0.02780807 -0.028688874 0.055299852 0.021551792 -0.020224873 -0.011159552
-0.016961653 -0.0690919 -0.011165261 -0.06817396 -0.060141448 -0.007267675 0.016520767 -0.024017222
0.012564381 -0.054549176 0.037592422 -0.028209781 -0.055099547 -0.057253502 0.031136703 -0.064065956
-0.036573473 0.036000103 -0.075635724 -0.042097904 0.003985413 -0.0025776979 -0.022633601 -0.041391827
0.0030593115 -0.07133309 -0.01702719 -0.04211781 -0.07160252 -0.0584717 0.028387591 -0.046508845
-0.07109207 -0.022300914 -0.020444162 0.06955837 -0.051162 -0.03646686 0.0066942195 0.061857797
0.040912542 0.045245744 -0.051665384 -0.036286343 -0.017927757 0.04966035 -0.004311977 0.036707602
0.038071238 0.04432199 0.041943114 0.06080432 0.058160424 0.022304125 -0.010923627 0.020976225
0.050904237 -0.013641136 0.048725348 -0.036920413 0.03578579 -0.019144619 0.0078336615 0.029786153
-0.0011967332 0.040169287 0.017069785 0.037229072 -0.020859819 0.017247822 -0.03019678 0.038163655
-0.05953497 -0.024478458 -0.030049115 0.06343682 0.01120074 -0.043239355 0.059846636 -0.022450065
-0.0056481743 0.077369496 0.09663532 0.04282029 0.05159717 0.065173276 0.024294388 0.0982006
0.06727805 0.017913645 0.08794435 0.013055543 0.063298814 -0.08885806 -0.023647364 -0.029928176
-0.04854626 -0.03232011 -0.0402157 -0.018651236 0.006725219 0.0082084825 -0.05910469 -0.019796604
-0.045049593 -0.057477962 -0.0854426 -0.039395023 -0.005950572 -0.06590445 0.037473522 -0.048519976
0.03134302 -0.05411685 -0.006584516 0.05921348 -0.032010578 0.044718966 0.048791297 0.08043828
-0.014076503 0.053205356 0.04200491 -0.012881721 -0.03412775 0.0033296447 0.038477413 -0.023225449
0.060422737 0.036181394 0.10062461 0.04147154 0.019515635 0.024646698 -0.015201527 0.011329446
0.019898592 -0.026515458 -0.057336736 -0.008681032 0.037158728 0.07236487 0.0008528086 0.053862713
0.0076238117 -0.029985866 -0.0055941273 -0.047991887 -0.0126176495 0.02342951 -0.08560269 -0.024930889
0.050902247 -0.037105057 0.033009376 0.04410361 -0.065033734 -0.029468672 -0.049953267 0.0103468755
0.00055813004 -0.07657929 -0.05728029 -0.0049380027 0.0014196202 -0.093160205 -0.01288904 -0.04815351
0.033899173 -0.0547345 0.02610911 -0.063532665 -0.037734345 -0.012789406 -0.02576628 0.047688097
0.013989789 -0.07737337 0.042714275 0.090018295 0.010977302 0.0489623 0.06252275 0.07455514
0.016325373 -0.040148497 -0.06003894 0.0200558 -0.047822017 0.07158498 0.08428289 -0.0023993615
-0.050383743 0.0089067975 0.052896243 0.039124493 0.04061096 0.11072082 -0.0027782477 -0.04075011
0.08190414 0.027442083 0.026408477 -0.054249745 -0.0019863946 0.07594745 0.016593706 0.046426017
0.06039197 0.08704197 0.07114581 -0.011312327 0.051350333 0.06882074 0.049854413 0.0445443
0.00713386 0.055135388 -0.020719886 -0.09005376 0.019663773 -0.017047454 -0.005916263 -0.029426364

decoder.3.bias f4 [6]
00000000: c69c 56bd 5593 1b3d 84bd 8bbd 634d 133d
00000010: 3bd4 ca3c 3b2b 853d
-0.052395605 0.037982304 -0.068232566 0.035962474 0.024759402 0.06502386

decoder.5.weight f4 [6, 1, 5, 5]
00000000: 1940 2ebe bab5 93bc 4bf1 e2bc f898 ecbd
00000010: 6fb9 12be 6fc0 00bd bb19 26be 95a4 dfbd
00000020: 1611 c93d 2495 cb3d 1468 103c 400c 273e
00000030: c67e 74bc b155 2ebd b2b8 653e 4af6 683d
00000040: 703e df3d 8d37 553e 0951 723e fa00 503e
00000050: 0c46 b73d 34a5 4e3e b3b8 183e 57da 403e
00000060: 3b14 f73d 2510 61be 24e4 84be 7705 47bd
00000070: a42e cfbc 61f4 663d 4741 27be 8683 e8bd
00000080: 6a4c 49be d797 24be 4f57 823d 6ec7 5ebd
00000090: e442 243d 1850 3abd 216d eabd 145b 243d
000000a0: 36e0 fabd 095d 71bd d9d8 e73c 3313 97bd
000000b0: ad38 d93c 2dc0 b1bd 9b90 debd 2e84 ad3a
000000c0: 9e24 15bd d1eb c93d 5964 bf3d 6eae 303e
000000d0: 6cd5 693e 10a8 043e 67a7 7fbc 4818 4b3e
000000e0: 6a73 a93d cd65 f43d 4bac d33d 2625 093e
000000f0: e481 b53d d26f a3bd 9a0e c6bc 8337 233d
00000100: 8433 f73c 2c18 a73c 285b 1e3e dc70 563e
00000110: 2572 b63d 3dc7 ca3d 1fe2 993d fa1c e6bd
00000120: c52e 2e3e e871 d43d 81bf 1c3e 3e83 c13d
00000130: 2007 3b3c e769 bbbd 8f05 cbbc 6376 20be
00000140: 56e6 563e b3e9 ed3d 0214 16bd b276 debc
00000150: b476 f53d fa76 653e 40b4 ad3c 7f29 413e
00000160: 2516 ad3d 6f32 5bbb a4a8 6d3d d039 0f3e
00000170: 33f2 f1bd b70e 92bd 0b10 bbbd 6449 1bbe
00000180: 5dc5 3ebd 01d4 e83d 5d66 2bbe 2087 79be
00000190: e025 bb3c 0c13 2ebe c345 0fbd 7260 efbc
000001a0: 6ec5 fabb 5f0c 53be 5336 30bd 0c93 3abe
000001b0: 4160 25be cb4a 743d dbec 62be 48f1 01be
000001c0: 3e2f 8d3c 84c7 263d 740f 5abe e57d af3b
000001d0: e355 ddbd 7d76 c3bd 6817 01bc 8283 6ebc
000001e0: c355 61be 6391 26be 8439 93bd 5640 48be
000001f0: fcb0 11be a0cf 053d 89c6 813d d2c2 54be
00000200: fa66 b33d 8838 07be 01ae 033e db49 45be
00000210: 32e6 1bbe 1eb2 8cbd b746 1e3e d087 e73d
00000220: 72da 6cbe 20e7 9b3d f253 22be 8972 343e
00000230: 6e68 c0bd 5912 75bd 6ddc 36bb b67d 033e
00000240: e697 823d 400d 053d 69db fc3c cf4d 9cbd
00000250: dbff 66bc 61de 2abe
-0.17016639 -0.01803099 -0.027702948 -0.11552614 -0.1432855 -0.03143352 -0.16220753 -0.109200634
0.09817712 0.09940556 0.008813877 0.16313267 -0.014922803 -0.04256219 0.22433737 0.056875505
0.10900581 0.20821972 0.23663725 0.20312873 0.08948907 0.20180207 0.14914207 0.1883329
0.120644055 -0.21978815 -0.25955307 -0.048589196 -0.025290795 0.0563854 -0.16333495 -0.11353211
-0.19658056 -0.16073547 0.06364309 -0.05438941 0.040102854 -0.04548654 -0.11446596 0.04012592
-0.12249796 -0.058926616 0.028301643 -0.07376709 0.026516283 -0.08679233 -0.10867425 0.0013238245
-0.036411874 0.098594315 0.09345312 0.1725404 0.2283532 0.12954736 -0.015603877 0.19833481
0.082739666 0.119334795 0.10335597 0.13393077 0.08862665 -0.079803124 -0.024176884 0.039847862
0.030175932 0.020397268 0.15464461 0.2094149 0.0890849 0.09901283 0.07513832 -0.112359956
0.17010029 0.103732884 0.15307428 0.094488606 0.011415273 -0.09151059 -0.024782924 -0.15670161
0.20986304 0.1161684 -0.036640175 -0.027156208 0.119855314 0.22408667 0.021204114 0.18863486
0.08451489 -0.0033446809 0.058022156 0.13986897 -0.11813774 -0.07131713 -0.09133919 -0.15164715
-0.04657494 0.113685615 -0.16738267 -0.24367952 0.022845209 -0.16999453 -0.03497864 -0.029220793
-0.00765293 -0.20610188 -0.043020558 -0.18220156 -0.16149999 0.05964164 -0.22160666 -0.12689698
0.01723444 0.040717617 -0.21294957 0.005355584 -0.10807397 -0.09544084 -0.007879116 -0.014557721
-0.22005372 -0.16266398 -0.071887046 -0.19555792 -0.1422767 0.03266871 0.06336696 -0.20777443
0.087598756 -0.13205159 0.12859346 -0.19266455 -0.15224531 -0.06869911 0.15456663 0.11305201
-0.23130205 0.07612443 -0.15852335 0.17621817 -0.093949184 -0.05983195 -0.002790238 0.12840924
0.063766286 0.03248334 0.030866342 -0.07632028 -0.014099087 -0.16686393
