Autoencoder-on-MNIST-in-Pytorch/Models/model_e6.pt (torch, 561729 bytes, 11 tensors)

encoder.0.weight f4 [6, 1, 5, 5]
000000 0d 0c 41 be 4e c0 13 be 0e 77 8c bd 22 6e 38 be
       -0.18852253 -0.14428827 -0.068586454 -0.18010762
000010 eb 5b 90 be e9 1f 4e be eb d9 93 be 61 cc 63 3c
       -0.28195128 -0.2012936 -0.28877196 0.013903708
000020 99 77 dc bd 1e 33 1d be 24 8a d2 3d 2e db 32 be
       -0.10764999 -0.15351531 0.102802545 -0.17466423
000030 16 ca 36 3d 67 a8 6e be cf e1 21 be a3 f3 d9 3d
       0.044626318 -0.23306428 -0.15808795 0.10642173
000040 ab e6 04 bb 74 42 45 be 0b 65 08 be 51 61 57 bd
       -0.002027909 -0.19263631 -0.13319795 -0.052583043
000050 1d d1 31 bc 81 fb c9 bd 17 28 29 3a ac 4f 8c be
       -0.010853079 -0.09862424 0.0006452812 -0.27404535
000060 63 77 a7 be 4e 24 3a be a5 4d 8b be 56 9f 64 be
       -0.32708272 -0.18177912 -0.27207676 -0.22326407
000070 61 2e 8e be 99 f1 6f be 71 32 b0 3d 93 f3 e4 3c
       -0.2776976 -0.23432006 0.08603371 0.027948176
000080 ef d6 86 3d e0 46 ce 3c bf 18 36 3e 5c ee 1b be
       0.06583964 0.02518028 0.17782877 -0.15227646
000090 03 19 72 bb 8c 57 0d 3e 0c 63 1e bd 44 83 9b bd
       -0.0036941178 0.13802928 -0.038668677 -0.07593396
0000a0 9f be 3d 3e 26 6a 0f 3e 0f 01 e4 3d 01 64 0c 3e
       0.18529747 0.14005336 0.111330144 0.13710023
0000b0 28 d6 66 3e da 72 d6 bd a8 9a 1a be aa c1 fb bd
       0.22542632 -0.10471125 -0.15098059 -0.12292798
0000c0 22 75 88 3e 42 a1 6a 3e 5d 87 17 3e 94 e4 0b 3e
       0.26651865 0.22913077 0.1479773 0.13661414
0000d0 8d 98 ff 3d b4 68 bb bd 3e 60 ba bd 7c d8 45 3e
       0.124802686 -0.0915083 -0.09100388 0.19320863
0000e0 f5 e3 b0 3d 4a 15 82 be 29 f2 85 be 12 b5 95 be
       0.08637229 -0.25406867 -0.26161316 -0.29239708
0000f0 d6 15 46 be 95 72 be bd 1e 57 b1 be 72 8a 36 be
       -0.19344267 -0.092991985 -0.34636778 -0.1782625
000100 a8 7d 6f bd 0a 41 ca 39 a4 e3 fa 3b dd 8a 9f be
       -0.058469445 0.000385769 0.0076565314 -0.31160632
000110 85 86 24 3d 1a 48 f9 bd 60 0a 1a be 0d 5b a6 3c
       0.04016735 -0.121719554 -0.1504302 0.020307088
000120 d2 26 3c be e0 a0 3a be 8d 47 a0 be 00 da 3d be
       -0.18374184 -0.18225431 -0.3130459 -0.18540192
000130 8d 55 07 be e2 93 3e be 65 b5 52 3e b0 df 0d bd
       -0.13216229 -0.186111 0.20577009 -0.034637153
000140 f4 85 12 bd 77 30 83 3d 3c da bc bd 03 6b 2f 3e
       -0.03577228 0.06405728 -0.092213124 0.17130665
000150 b5 48 5d 3e 6e 3d 36 3e 6a 84 43 3e 2d 50 3b be
       0.21609767 0.17796871 0.1909348 -0.18292303
000160 cc 94 55 3e 96 1a 69 3e 47 a8 d5 bd 13 b9 11 3e
       0.20857543 0.22764048 -0.10432487 0.14230756
000170 7a 6b 5a 3d 55 88 4f bd 9f 2e 14 3e 0f 0c 5c 3e
       0.053325154 -0.050667126 0.1447091 0.21488975
000180 a9 b2 16 bc 8c 2a f9 3d 12 06 5b 3e c8 8c 8e 3d
       -0.009197869 0.12166318 0.21389034 0.06960446
000190 12 47 c7 bc a9 30 41 3e 31 d8 80 3b 35 48 8a bd
       -0.024325881 0.18866219 0.003932022 -0.06752054
0001a0 0e 33 15 3e 12 84 07 3d 37 5a be bd a2 5a 93 bd
       0.14570257 0.033084936 -0.09294551 -0.07195021
0001b0 61 0e 79 3e a5 20 66 3e d8 f2 ed bd 11 60 16 be
       0.24321891 0.2247339 -0.116185844 -0.14685084
0001c0 18 8e 05 3e 32 d1 66 bc 47 5b 4e 3e 49 f5 6f 3d
       0.13042486 -0.014087962 0.20152007 0.05858353
0001d0 b1 d4 bc b9 19 32 0d bd 5a c1 44 3e 33 41 57 3e
       -0.00036016622 -0.034471605 0.19214383 0.21020965
0001e0 9c 37 a4 bd c7 72 84 be 32 21 1b be fe 6f 5e 3e
       -0.08018419 -0.25868818 -0.15149382 0.21722409
0001f0 aa 96 96 3d 4e 78 7d bd 92 59 1e 3e cd 75 f0 3d
       0.07352956 -0.06188231 0.15463856 0.11741219
000200 aa 73 11 be 68 b5 93 3c 27 54 92 bd 2e bb 53 3e
       -0.14204279 0.018030837 -0.07144957 0.20676872
000210 92 52 a5 bd 40 34 7b be db 13 21 be 4f da 78 3d
       -0.0807239 -0.2453165 -0.1573023 0.06075507
000220 e7 b2 18 3e 7e 1a a4 bc e0 91 56 be 0d 54 8e be
       0.14911996 -0.020032164 -0.20954084 -0.277985
000230 f0 9d 74 3e ae 7d 73 3e 06 9a 49 3e ee 40 0b be
       0.23888373 0.23778412 0.19687662 -0.13598987
000240 d2 70 1a be 3c a0 ad 3d 5f 8f 51 bd ea 4d 7e 3d
       -0.150821 0.08477828 -0.05116212 0.062086023
000250 07 da 1e be 2e f1 1a be
       -0.15512858 -0.15131065

encoder.0.bias f4 [6]
000000 5f 96 11 3e 27 86 29 3e 3c 4f 2e bd 13 26 1f 3e
       0.14217518 0.16555081 -0.042556033 0.15541868
000010 77 1a 50 bd d7 c2 3c 3e
       -0.05080649 0.184337

encoder.2.weight f4 [16, 6, 5, 5]
000000 06 9a 5b 3d 65 ed 38 3d ce a5 3d bd 43 7d df 3d
       0.053613685 0.045148272 -0.0463007 0.10912564
000010 c3 bf 47 3c e6 18 8d 3b 2f 40 31 bd 02 2e 74 bd
       0.012191716 0.0043059466 -0.0432741 -0.05961419
000020 a0 d6 c1 3a 5a 3d 51 3d 66 ab dd bd 93 d4 e8 bd
       0.0014788695 0.0510839 -0.10823707 -0.1136867
000030 1d 68 4e ba 88 e8 f2 bb e8 34 ee bc c9 9e d5 bd
       -0.00078737905 -0.007412974 -0.029077962 -0.104306765
000040 89 63 74 bc fa 14 f4 bd e0 ee 8d bc 1b 7c 9e 3c
       -0.014916309 -0.119180635 -0.017325819 0.019346287
000050 2d ca a9 bd f9 e8 b6 bc f5 20 7d bd c5 e2 83 3c
       -0.08290515 -0.022327887 -0.06179901 0.016099343
000060 b3 fa 4c bd 38 2e c6 3c 02 26 ab bc 88 fb 0e bd
       -0.050043773 0.02419196 -0.020892147 -0.034907848
000070 4d d7 c5 3b 9a 33 94 3c 82 f8 d7 3b b7 3c be 3d
       0.0060376287 0.018091012 0.0065909037 0.09288924
000080 0c 89 33 3c b8 9b dc bb 6b 28 0e bd 01 7b 5d 3d
       0.0109579675 -0.0067324303 -0.034706514 0.054072384
000090 ff 87 b1 3d c2 94 98 3d cd 86 54 bd 83 59 2a bd
       0.08668517 0.07450248 -0.05188637 -0.04158927
0000a0 22 b1 7c 3d 90 1b d6 bc c1 cd 00 bd 01 b3 80 3d
       0.061692365 -0.02613619 -0.031446222 0.06284142
0000b0 69 3c e2 3d 4d 12 97 bd b9 cb 67 3d e1 56 c5 bd
       0.110466786 -0.073765375 0.05659077 -0.096357115
0000c0 dd 2a 81 bd 8b a8 a9 3c 60 8d 94 3d dd c5 62 3d
       -0.06307004 0.02071025 0.07253528 0.05536448
0000d0 d4 38 21 3c d2 5f d7 3d 64 72 90 bc 17 45 5b bc
       0.009840209 0.10516323 -0.01763267 -0.0133831715
0000e0 d3 55 4c 3d f7 17 58 bc fc 8a 0c bd 27 ba a0 3d
       0.049886536 -0.013189307 -0.034312233 0.07848006
0000f0 35 ac b2 bd 6a cd ea bc ec da 30 bd 29 a2 96 3d
       -0.08724252 -0.028662402 -0.04317753 0.07355148
000100 86 e1 21 3d 08 5b fa bd 7f ff a5 bd a7 d3 0a 3d
       0.039521717 -0.12224394 -0.08105373 0.033893254
000110 3a 78 3d bb 92 fe 47 3d df 1b bd bd b4 37 69 bd
       -0.0028910772 0.04882676 -0.092338316 -0.05693789
000120 2f ac 14 bc db 99 48 bc 0e 26 92 bb a5 a1 dc 3b
       -0.009074255 -0.012243713 -0.004460103 0.0067331367
000130 5d 2b aa 3d 08 97 56 bd d0 23 16 bd 6b 28 9a bc
       0.08309052 -0.05239013 -0.036655247 -0.0188181
000140 14 82 0c 3d e6 96 c7 3d 63 13 11 3d 31 1a b4 3d
       0.03430374 0.097455785 0.03541888 0.08794058
000150 02 4e c8 3d 90 c3 8c 3d 8a 1f 4d 3d 40 c1 a7 bc
       0.09780504 0.06873238 0.050078906 -0.020477891
000160 44 b2 7f bd 35 ec 9f bc 48 2c d8 3d db 8a cc 3d
       -0.062425867 -0.019521812 0.10555321 0.09987422
000170 a3 85 69 3c 2c 69 f4 bc 02 7c 99 3d 3a 87 c4 3d
       0.014253053 -0.029835306 0.07494356 0.09596105
000180 7e 74 e3 bc db 00 e1 3c ee 60 33 bd ee d1 bb bc
       -0.027765509 0.027466228 -0.04379361 -0.02292725
000190 cd c9 61 3d 74 4b ce 3d fb 10 c0 3d 4d 8c b1 bc
       0.055124093 0.10072985 0.09378239 -0.021673346
0001a0 9f ec 30 bd a1 75 28 3d e7 18 d8 3d b5 af 60 bc
       -0.04319441 0.041127805 0.10551625 -0.013713767
0001b0 e4 30 42 bd 94 6c 8d 3d d5 93 e3 3d 68 a6 38 3d
       -0.047409907 0.06905475 0.11112181 0.045080572
0001c0 18 bc 35 bd 78 e7 a1 bb 40 06 24 bd c9 45 86 3c
       -0.044368833 -0.0049409233 -0.040045023 0.016390698
0001d0 50 73 54 3d 8b 5a 4b bd fe 56 90 bd c4 dc d6 bb
       0.051867783 -0.049646895 -0.070478424 -0.006557079
0001e0 d0 ae 34 3d cf f7 85 bc 56 75 1f bd 91 53 04 3d
       0.044112027 -0.016353516 -0.03893026 0.032306258
0001f0 2a 01 1f bd 7f 54 71 3d 91 de 3f bd eb 80 81 38
       -0.03881947 0.058918472 -0.046843115 6.175212e-05
000200 d8 77 1c 3b f2 ed c4 bc c2 8a f2 3c 03 cc 54 bd
       0.0023875143 -0.024039242 0.02960718 -0.051952373
000210 1c eb c3 3d f3 93 d2 3d 30 2a 57 3d 7a c8 4c 3d
       0.09566328 0.10282125 0.052530468 0.049995877
000220 8a b2 31 3d de 23 03 3d 1d 54 8a bb d1 8e c9 3b
       0.04338316 0.032016627 -0.004221453 0.0061510582
000230 b1 d5 87 3d 7e c9 84 3d e5 0d f1 3b dc 36 75 3d
       0.06632555 0.06483744 0.0073563927 0.05986677
000240 d0 94 43 bd aa ec 90 3c ba 49 14 3d 3c 28 27 3d
       -0.04774934 0.017690975 0.036203124 0.040809855
000250 e2 87 25 bc 84 47 ce 3c 84 bf 61 bd 9c 1c 4c 3c
       -0.010103198 0.025180586 -0.055114284 0.012457993
000260 fd bc 6c bd ae 4a 5d 3d 6e 7e a4 bc f6 87 97 3d
       -0.05779742 0.0540263 -0.020079818 0.07398979
000270 d4 25 3b 3c e8 91 92 bd dc 2e 79 3d 30 29 b7 3c
       0.011422593 -0.07156736 0.060835704 0.022358507
000280 f8 64 46 bd 0c b3 4c bd 41 69 ad bc e1 61 41 3d
       -0.048436135 -0.04997544 -0.021168353 0.047212485
000290 79 e0 8d 3b c0 11 83 3c 9b ff 1a bc 75 cf 94 bd
       0.0043297377 0.015999675 -0.009460355 -0.07266132
0002a0 6b 84 e3 bc e8 d3 a2 bc 90 35 0e bd c6 91 85 bd
       -0.027773103 -0.019876435 -0.03471905 -0.06521945
0002b0 50 7e c2 bd 6b 7b db bd f4 85 27 bd fd 14 f6 3b
       -0.094967484 -0.107168995 -0.040899232 0.007509826
0002c0 be 63 4a 3d c0 5c 8e bd 85 10 01 bd 37 0a 23 3c
       0.049411528 -0.069512844 -0.031509895 0.009951166
0002d0 4d 14 ee bc bb 46 b4 3c 3e 8e 14 3c 10 dc 36 bd
       -0.029062415 0.022006383 0.009067116 -0.04464346
0002e0 56 43 47 bd 9b f8 19 bc b2 14 26 3d e1 dc 37 bd
       -0.0486482 -0.009397651 0.04054708 -0.04488838
0002f0 aa b9 b3 3a 92 23 1d bd 25 db 7b 3d 6e a8 45 3d
       0.0013711948 -0.038364 0.06148829 0.04825633
000300 b4 a0 9d bc 8e 2c 24 3d 59 7e 8f 3d d9 d0 84 bc
       -0.019241668 0.040081553 0.07006521 -0.016212868
000310 d7 5b 14 3d 76 1b 51 bd af 2b 82 3d d3 50 b6 3c
       0.036220398 -0.05105158 0.06355988 0.022255337
000320 32 58 3e 3d ed f9 3d bd d4 2d 21 bd 02 56 88 3d
       0.04647083 -0.046380926 -0.039350346 0.0665703
000330 14 91 88 3d b4 f2 32 3d db 8b 37 bd a7 30 82 3c
       0.066682965 0.04368849 -0.04481111 0.01589234
000340 22 4f 43 3d 21 7f 55 bc e1 50 8b 3d 39 6d 84 bd
       0.04768289 -0.013030798 0.06802536 -0.06466145
000350 7d 3a 77 bd b4 53 35 bd df ac 24 bd 56 93 65 bd
       -0.060358513 -0.04426928 -0.040203925 -0.056048714
000360 7a c4 8e bc 83 7c fb bd 9e 45 36 bd 80 40 1b 3d
       -0.017427672 -0.12279608 -0.044499986 0.03790331
000370 ee ec 53 ba 52 51 9d bd 42 c7 bf bd ef 7c ea bc
       -0.00080843165 -0.07681526 -0.09364177 -0.028624026
000380 e1 35 8f 3d d4 6f 51 3d af 60 95 3d d1 f0 df bc
       0.069926985 0.05113204 0.072938316 -0.02733651
000390 0c 3e 8e 3d 01 b7 a4 3c 4e 95 a0 3c f6 1b 7c 3d
       0.06945428 0.020106794 0.019602444 0.061550103
0003a0 09 9d ac 3d 4d ce 70 3c 91 0b 7d bd b2 74 72 bc
       0.084283896 0.014697623 -0.06177861 -0.01479833
0003b0 fd 24 26 3d 20 11 31 bd ab d1 ce 3d be 0a a4 3c
       0.04056262 -0.043229222 0.10098585 0.020024654
0003c0 f3 98 13 3d 66 68 e3 3d 87 09 c6 3c 33 68 a7 3d
       0.036034536 0.11103897 0.024174465 0.08174171
0003d0 ed 96 4b 3d 95 61 40 3d 88 0f 6f 3d 0a 1f 60 bd
       0.04970448 0.04696806 0.05836442 -0.0547171
0003e0 3f 75 92 3d be 07 a1 3d 3d 30 92 b9 4a 4e cf bc
       0.07151269 0.07862805 -0.0002788323 -0.025305886
0003f0 09 b2 87 3d 98 88 61 bd a2 62 3c 3d 02 7a 40 bc
       0.066257544 -0.055061907 0.0459925 -0.011747839

encoder.2.bias f4 [16]
000000 5c fc 0a 3b a9 26 1f 3d a2 ca eb 3c 9c 68 2c 3d
       0.0021207547 0.03885523 0.028783146 0.04209195
000010 2b e4 d3 3d 82 bb 5e 3c f4 d0 49 3d ee 2f 05 bc
       0.10346254 0.01359451 0.04927154 -0.008129103
000020 0b d5 25 a6 79 d8 05 3e c3 26 09 3d c9 b3 18 3d
       -5.75346e-16 0.13070859 0.03348423 0.03728083
000030 83 21 ce 3d 57 9d ba 3c 41 4f f6 3c 5c be f6 bc
       0.100649856 0.022780104 0.030067088 -0.030120067

encoder.5.weight f4 [10, 6400]
000000 b8 99 d1 bb dd f7 35 bc fc 2c 01 bc 4a b0 18 bd
       -0.0063964985 -0.0111064585 -0.00788426 -0.037277497
000010 93 ec 0a bd 4a b4 a7 bc c0 aa 0a bd cb d9 0e bd
       -0.03391702 -0.02047171 -0.033854246 -0.034875672
000020 1f c1 88 bc 08 68 3f bc 70 50 a6 bc ef 05 52 bc
       -0.01669365 -0.011682518 -0.020302027 -0.0128187975
000030 20 24 3b 3b f1 7b 99 3b 8e fc 52 bb 24 f5 00 3b
       0.0028555468 0.0046839644 -0.0032193991 0.0019677365
000040 50 29 20 3c 64 3d 0b 3c 13 78 f1 3a 94 4f f8 ba
       0.009775475 0.008498523 0.0018422626 -0.0018944615
000050 6c 0d 83 3c df a6 6e ba 2c 22 de ba db c2 a6 bc
       0.015997611 -0.0009103845 -0.001694744 -0.020356586
000060 28 bd 13 bd 2e 65 f5 bc 8f 60 a1 bc b1 b4 d3 bc
       -0.036069065 -0.029955473 -0.019699363 -0.025842996
000070 75 00 8f 3b 27 3c 1c bc 19 d5 b6 39 6d fb 68 ba
       0.004364068 -0.009535826 0.00034872515 -0.0008887563
000080 49 54 3f 3b a0 93 ad 3c 8e 9c 23 3c 38 b5 c3 3c
       0.0029194525 0.021188557 0.009986056 0.023890123
000090 ff b0 ac 3b 27 af 73 3b 8f 6a ff 3b c0 26 19 bc
       0.005270123 0.0037183256 0.007794685 -0.009347618
0000a0 92 53 29 3d bb da 0c 3d 4c 4c a3 bb ce fd 8d bc
       0.041339464 0.034388285 -0.0049834605 -0.017332938
0000b0 e7 23 a5 bc 54 fc a9 bc 23 fb c6 bc da 2e 70 bc
       -0.020158721 -0.020750202 -0.024289673 -0.014659608
0000c0 bb 6f 34 bc 87 58 20 3c 4d 71 61 3c c3 ae 70 3c
       -0.011012967 0.009786732 0.013759923 0.014690104
0000d0 ae 01 bd 3c a2 c8 20 3c 02 b4 a1 3c 2f 8e 5d 3c
       0.02307209 0.00981346 0.019739155 0.013522669
0000e0 9c bf 6a 3c 6c 13 da 3a 0e 92 9a b9 ef 6d b3 3b
       0.01432791 0.0016637868 -0.00029481988 0.0054757516
0000f0 2d d4 68 3d 60 56 ea 3c 1d 33 51 bb 93 5b 67 bc
       0.05684297 0.02860564 -0.0031921335 -0.014120954
000100 8d 3e 99 bc 67 6b af bc 46 cf c4 ba 41 3e 7e bc
       -0.018706584 -0.021413518 -0.0015015386 -0.015517772
000110 25 91 81 ba 7d 00 37 3b ac dc 7d 3c 57 15 ab 3c
       -0.0009885175 0.0027923875 0.015494507 0.020884199
000120 ec ba f6 3b 8c 31 a0 3c 6e e8 a7 3c ae 5c 93 3c
       0.007529607 0.019554876 0.020496573 0.017988529
000130 45 25 5d 3c 52 df 57 3c cf 04 2a 3c a9 f3 be 3b
       0.013497655 0.013175802 0.010377123 0.0058273864
000140 1f e6 31 3d 7b 21 cf 3c 4a 38 91 bb 17 b6 9c bc
       0.04343235 0.02528452 -0.004431759 -0.019129796
000150 68 78 15 bc 68 b7 91 3b bc b2 27 3a fc ef 43 3c
       -0.009122945 0.0044469126 0.0006397178 0.011959072
000160 bd 50 bb 3b 85 3f 24 3c c6 3b f7 3c 25 89 00 3d
       0.005716412 0.01002491 0.03017987 0.03138079
000170 e0 4f a3 3c 90 4a b6 3b 99 f6 65 ba eb 6b d9 bb
       0.019935548 0.0055630878 -0.00087724027 -0.0066351793
000180 75 d2 3e 3c dc 92 63 3c 73 d8 80 3c 13 4f 7e 3b
       0.011646857 0.0138899945 0.015728211 0.0038804456
000190 d5 6b 9f 3c 99 3f 28 3b a4 61 20 bc a2 f5 8a bc
       0.019460598 0.0025672673 -0.009788904 -0.01696283
0001a0 c0 8b 61 ba 33 85 3b bc 14 74 8c 3a 23 b5 f8 3b
       -0.0008603893 -0.011445331 0.0010715746 0.0075899526
0001b0 07 be 5e 3c 29 a8 cc 3c 25 5c b1 3c 98 bb 25 3d
       0.013595111 0.024982529 0.021650383 0.040462106
0001c0 d5 c1 d3 3c c9 9d 81 3c 82 ac 70 bb 00 46 a9 3b
       0.025849262 0.015822308 -0.0036723916 0.0051658154
0001d0 5a d2 65 bb 51 e4 83 3b f2 1b 03 3c 53 a5 46 b9
       -0.0035068006 0.00402502 0.008002268 -0.0001894434
0001e0 17 af 59 3c 48 20 2b bc d4 02 cb bc ab 28 14 bd
       0.013286374 -0.010444708 -0.024781622 -0.036171596
0001f0 bb 30 a9 bc ed fe 3d bc 93 bd fc ba b4 fe 12 3c
       -0.02065312 -0.011596424 -0.0019282572 0.008971859
000200 47 73 af 3c ec 7c c9 3c 3a c3 ff 3c 17 bd b5 3c
       0.021417273 0.0245957 0.031221021 0.022184892
000210 b7 8d 74 3b 88 23 92 3c 47 3a ea 39 8e 74 c7 bb
       0.0037315914 0.017839208 0.00044675378 -0.0060868924
000220 0d c4 9a bb 81 2c a6 bb 7d 74 ff 3a aa f5 53 bc
       -0.004723078 -0.0050712232 0.0019489672 -0.012936989
000230 88 77 83 bc fa 38 e9 bc 08 88 c9 bc b9 c7 86 bc
       -0.016048208 -0.028469551 -0.024600998 -0.016452657
000240 9d 7f 2f bc c0 62 d1 3b 66 48 c0 3b 76 e3 11 3c
       -0.010711578 0.0063899457 0.0058680056 0.008904329
000250 95 41 c6 3b 09 7a aa 3c 89 ea 83 3c c1 e1 4b 3b
       0.0060502985 0.020810144 0.016103046 0.0031109902
000260 cd 3f 2d 3b 95 f2 26 bb 2a 1e e1 bb 6a 65 b3 3b
       0.0026435733 -0.002547418 -0.006870051 0.005474736
000270 07 61 a8 3b 96 d6 2d 3c f8 20 23 3b d4 30 3b bc
       0.0051385197 0.010610243 0.0024891477 -0.011425216
000280 dd 38 33 bc b1 0b a5 bc 38 11 a1 bc bc 82 3c bc
       -0.01093885 -0.020147176 -0.01966153 -0.011505779
000290 de c6 3f 3a f2 57 32 bc 7b 49 a8 ba c6 8b 2f 3c
       0.00073157053 -0.010885226 -0.0012839282 0.010714477
0002a0 73 b5 e1 3b bc 1c db 3c ff a2 90 3c 25 eb 6a 3c
       0.0068880855 0.0267471 0.017655848 0.014338289
0002b0 6d 7f 84 bb c2 6f 1c b9 8b d6 d9 3b 29 a0 a6 3a
       -0.0040435106 -0.00014918952 0.00664789 0.0012712526
0002c0 96 e4 47 bb 92 45 54 3c d1 22 61 bc 96 c7 5d bc
       -0.0030501238 0.01295604 -0.013741211 -0.0135363545
0002d0 02 39 67 bc 3c 77 08 bd e9 e6 f9 bc fa 92 4c bc
       -0.014112713 -0.033316836 -0.030505614 -0.012486214
0002e0 da 53 25 bb 67 e1 23 bc 93 f4 2b bc ac 93 ac 3b
       -0.0025226981 -0.010002471 -0.010495323 0.0052666273
0002f0 10 5e 23 3c 0f 0c 7a 3c 98 45 30 bc d0 3d 3e 3c
       0.009971157 0.015261664 -0.01075878 0.011611417
000300 51 77 87 3b e8 ef db 3b b6 1e 93 3c 0c ce 70 3c
       0.0041340967 0.0067119487 0.01795898 0.014697563
000310 19 4a 05 3c 85 e5 a1 3b eb 41 82 3b e3 e1 46 bc
       0.008135342 0.004940691 0.003975143 -0.0121388165
000320 1a d9 40 3b c5 83 a8 bc 6e e2 cc ba 1f 9c 95 3b
       0.0029426278 -0.020570645 -0.0015631446 0.00456573
000330 04 ea 2f 3c 17 e4 0d 3c 57 cd f5 3a c4 cf 96 3c
       0.010736946 0.008660338 0.0018753213 0.018409617
000340 44 7a 31 3c a2 35 03 bb 75 1f 81 3b 5e 3b 81 3c
       0.010832373 -0.0020020981 0.0039405175 0.015775379
000350 a3 80 c5 3c bb 50 85 3b 40 cd cb 3b b7 0a fb bb
       0.02410919 0.0040684617 0.006219536 -0.0076611894
000360 41 93 0c bb 08 0b c5 bb bd 16 55 3b 7d ef c8 bc
       -0.0021450075 -0.006013278 0.0032514774 -0.02452826
000370 ff 4e a3 bb 3e 08 37 bc c8 0d 9e bb 88 2e 39 3b
       -0.0049837823 -0.011171399 -0.00482342 0.0028256495
000380 14 15 1a 3c c0 32 57 bb 9e fc 8d 3c a2 77 10 3c
       0.0094044395 -0.0032836646 0.017332371 0.008817585
000390 91 86 24 3c 6a 79 9f 38 a9 ae 14 3c 3f 58 9f 3b
       0.010041849 7.604326e-05 0.009074845 0.0048628147
0003a0 0e 9e c4 3c 62 ce c0 ba e2 21 a2 bb bb 49 d0 3b
       0.024001148 -0.0014709944 -0.004947887 0.0063564456
0003b0 15 70 5a bb 8c 5e 34 bc 65 24 2e bc f9 70 b0 bc
       -0.0033330966 -0.01100887 -0.010628794 -0.021538245
0003c0 97 88 e5 3b 89 bb 0f 3c 87 e6 de 3b 03 92 9d 3c
       0.007004808 0.008772739 0.0068023833 0.019234663
0003d0 b0 76 4f 3c f6 f5 06 3c 38 f7 00 3c 6b da af 3c
       0.012662575 0.008237353 0.007871442 0.021466454
0003e0 be 68 74 3c 61 d6 17 bc 66 f9 38 3c c0 f2 c2 3c
       0.014917551 -0.0092674205 0.01128993 0.023797393
0003f0 6b bb 73 3c aa ef 6e b7 dc 65 9c 3b ea b4 d5 ba
       0.014876227 -1.4241707e-05 0.004772885 -0.0016304527

encoder.5.bias f4 [10]
000000 3a 56 e4 3b 4f 2c df bb 25 8f 32 3b c4 b9 8f 3b
       0.006968287 -0.006810702 0.0027245965 0.0043861587
000010 2d 0a 34 bb 44 9a 4d 3c d5 a8 e8 3b bd 3b ad ba
       -0.0027471886 0.012548987 0.0071002045 -0.0013216656
000020 c7 a9 17 bb 9a 09 a9 bb
       -0.0023141967 -0.0051586153

decoder.0.weight f4 [6400, 10]
000000 ed 80 ae 3d c0 14 45 3d dc 1b ac 3d ce 21 be bd
       0.085206844 0.048115492 0.08403751 -0.092837915
000010 2d 69 76 3e 81 49 99 3d 0a 4f 88 be 9c 0a 03 3e
       0.24063559 0.07484723 -0.26622802 0.12797016
000020 8b 5c 97 3c d2 a2 34 3e db da 53 3d 1f a5 0a bd
       0.018476745 0.17640236 0.05172239 -0.033848878
000030 a9 d0 85 bc 91 a0 43 3c fa 80 a2 bd 9e 6a 24 be
       -0.016334848 0.0119401375 -0.079347566 -0.16056296
000040 12 7c 86 be 3d 97 28 3e 6e 66 6b 3e 79 59 1f 3d
       -0.26266533 0.16463943 0.22988293 0.038903687
000050 29 2e 86 bd 86 86 db 3c 0a e9 52 3d 3c 63 4f 3e
       -0.06551773 0.026797544 0.051491775 0.20252699
000060 8b 69 df bd b5 af 85 3d 8b e5 79 3e 00 39 28 bd
       -0.109088026 0.06527654 0.2440397 -0.041069984
000070 37 14 89 3e d8 c1 5d be 92 ce de 3c 21 26 0e bd
       0.26773235 -0.21655977 0.02719811 -0.03470433
000080 32 0b 70 3e 6d bd 03 be 69 8a 8c 3d b1 9d 06 3d
       0.2344177 -0.12865229 0.06862337 0.03286523
000090 d7 46 5f bd ff f5 ea 3d 46 77 84 ba 82 47 80 3e
       -0.054510918 0.11472701 -0.0010106347 0.25054556
0000a0 14 de 1a be 06 f7 19 be c9 14 d7 3d 69 c2 1a 3e
       -0.15123779 -0.15035638 0.10502011 0.15113224
0000b0 5b 9f fb bd 37 4b 92 bd da ae 60 3b 79 be 4e 3e
       -0.12286254 -0.07143252 0.0034283907 0.20189847
0000c0 62 4b 09 be c6 bf 24 3e 65 81 0e be ec a6 80 3e
       -0.13407663 0.16088781 -0.13916548 0.2512735
0000d0 b1 5d 82 be ef 66 59 3d e3 b1 81 bd 7d a2 be bd
       -0.25462106 0.05307668 -0.06332757 -0.09308336
0000e0 d9 b6 cd 3d 6a eb 50 3e 1d 17 be 3c 66 0e 2c be
       0.10044641 0.20402303 0.02320438 -0.16802368
0000f0 bb ae 0d be fd 24 29 3c fd 7e f0 bd 22 62 83 be
       -0.13836186 0.01032376 -0.11742971 -0.25660807
000100 bb 89 02 be b5 75 87 3d 6f 00 1b be b3 0e 9b 3e
       -0.12747853 0.06614248 -0.15136884 0.30284652
000110 c3 14 1a 3e a4 d8 c8 3c 49 ef 8a 3d 00 3f 2d 3c
       0.15046982 0.024517365 0.06783921 0.010574102
000120 72 11 d8 bd 08 e3 a4 3e db d0 1f be 06 54 ff 3b
       -0.105502024 0.3220446 -0.15607016 0.007791999
000130 b3 fe 89 3e 7b e2 7c 3e da c4 21 3e 64 18 74 3e
       0.26952133 0.2469577 0.15797749 0.2383743
000140 6c e2 fb bc 2a 23 b9 3c 9f 28 85 be 81 db 2a 3d
       -0.030747615 0.022599775 -0.26007554 0.04171324
000150 f2 16 60 3e 6d 0a 83 be 07 3d ba bd 12 0e 10 3e
       0.21883753 -0.25593892 -0.09093671 0.14067867
000160 f9 90 3b bd 96 e7 81 3d 30 f3 1b be ad f4 7d 3e
       -0.045792554 0.06343 -0.15229487 0.24800368
000170 99 8f 9e be fa 57 38 3d bc 51 35 3e ea 1a 49 bd
       -0.3096893 0.045005776 0.1770696 -0.049097933
000180 c7 cb f7 3b 11 7a 79 be 06 64 ac 3e fd 87 37 be
       0.007562134 -0.24362971 0.33670062 -0.17922969
000190 e2 82 6b 3c 06 a1 02 3e 26 91 b9 3c e2 9f 26 be
       0.014374467 0.12756738 0.02265222 -0.16271928
0001a0 dd 86 bf bd d3 4b 16 be 5d 0a 36 3e bc e1 8f 3e
       -0.09351895 -0.14677362 0.17777391 0.2810191
0001b0 89 39 32 be c7 cc b5 3c 52 47 3f be 33 82 3d 3d
       -0.1740476 0.022192372 -0.1867955 0.046266746
0001c0 ce ed 72 bc 5d 46 49 3e 6f 73 a9 bd 8b 04 78 3e
       -0.014827205 0.19655748 -0.0827397 0.24220483
0001d0 d0 db fd bd 7f 6c 98 3d 9a e1 62 3e a9 f5 18 be
       -0.123954415 0.07442569 0.22156373 -0.14937462
0001e0 3e c4 04 be 4f 4d 7d 3e a1 57 6c 3d e1 d7 1e 3e
       -0.12965485 0.24736522 0.057700757 0.15512039
0001f0 24 96 71 bd ab bc 59 3d 06 f1 38 be a7 53 5c bd
       -0.058981076 0.053158443 -0.18060693 -0.053790715
000200 e3 19 2f be 19 e5 56 3e 25 15 17 3e f5 cd ea bd
       -0.17099719 0.20985831 0.1475416 -0.114650644
000210 03 7e f7 3d a8 aa a2 bd 14 e7 ce bd 31 8f 1c be
       0.12084582 -0.07942706 -0.101026684 -0.15288998
000220 64 37 05 3d 7a 88 3d 3e 5f c7 a5 bd 05 cf a7 3c
       0.032523528 0.18509093 -0.08094668 0.020484457
000230 9f a0 94 3e 82 88 1a 3e ec e9 4f 3e f4 6b d7 3d
       0.29028794 0.15091136 0.20304078 0.10518637
000240 04 3d 2a 3e 79 47 7c be a8 8a 49 be ac 52 2b 3e
       0.16624838 -0.2463664 -0.196818 0.16730756
000250 de f7 38 be 2f 3f 11 be 1b f2 6b 3e 16 f6 2f 3e
       -0.18063304 -0.14184259 0.23041575 0.17183718
000260 72 4e 82 3d 72 67 4d be 8b 3a 83 3e c9 1e 1b be
       0.063626185 -0.20058993 0.25630602 -0.15148462
000270 71 dd 9e 3d 6b e2 b0 be 02 a0 b2 bd a2 9f 01 bc
       0.0775708 -0.34547743 -0.08721925 -0.007911595
000280 4e 36 28 3e f9 59 f5 3d cd 85 ac bd d9 26 b7 bd
       0.16426966 0.119800515 -0.08423958 -0.089429565
000290 21 e6 8d be 6e 8d 60 3e 7d f1 9f bb 2f 4d f4 bd
       -0.27714637 0.21928951 -0.0048810826 -0.11928784
0002a0 99 d7 1e 3e 02 14 0e 3e 72 dc 2c be 4b fd 2c 3e
       0.15511931 0.1387482 -0.16880968 0.16893499
0002b0 50 2f 01 be 9c 6a e9 3d e6 1b 66 be 15 bc 2e 3d
       -0.12615705 0.11397287 -0.2247158 0.042659838
0002c0 14 5d 73 3e c9 47 15 be a4 83 49 3c b7 47 1e 3e
       0.23765975 -0.14578165 0.012299452 0.15457045
0002d0 d7 7b ae bd 78 65 c2 3c fd c0 62 3e e1 38 c4 bd
       -0.08519714 0.023730025 0.22143932 -0.09581161
0002e0 f6 39 df bd 39 3e e5 bd 5c df 22 be 6e 10 29 bd
       -0.10899727 -0.11193509 -0.15905517 -0.041275434
0002f0 23 a8 6a be bc 77 23 3e 13 c1 23 3e ba 34 9b bc
       -0.22915702 0.15963644 0.1599162 -0.01894604
000300 04 2f 26 3b f7 af 7e 3e c9 e6 83 3e 76 25 2b 3e
       0.0025357613 0.24871813 0.25762013 0.16713509
000310 fe d3 06 be 75 91 5c be f2 23 09 be a9 32 e7 bd
       -0.13166806 -0.21539862 -0.13392618 -0.112889595
000320 fe 7f 31 bd 78 22 05 3e 1b cc 07 3d 2a 9a 5c bb
       -0.043334953 0.1300143 0.033153635 -0.0033661225
000330 dd f6 74 be 54 cf 88 bd a5 84 5b bd ca 51 cb bb
       -0.23922296 -0.0668017 -0.053593297 -0.0062048184
000340 79 fe f3 3d 3f 6d b5 3b 12 bd bc 3d fe a1 36 3e
       0.11913771 0.005536705 0.0921575 0.17835233
000350 e7 f6 e0 3d e4 5d 4b 3d 2d ed 38 3e 1a 7c 1b bd
       0.10984593 0.049650088 0.18059225 -0.03796015
000360 59 e1 c2 3d 4d ce 35 3e 3b be 62 be 56 94 6b 3d
       0.09515638 0.17754479 -0.2214288 0.05751451
000370 1d 29 03 be 97 ba 81 3d 7b 60 96 3c 9c da fa bd
       -0.12808652 0.06334417 0.018356552 -0.12248728
000380 a5 d3 91 bd 3c 05 b4 3d fa 5c 78 3d 3e c2 e0 bd
       -0.07120446 0.08790061 0.060635544 -0.10974549
000390 52 0c ad bd 67 ee 1b 3e 84 08 2f bd 71 18 2d 3d
       -0.084496155 0.15227662 -0.04273273 0.042259637
0003a0 b6 a9 63 bd dc 2b 18 bd b9 e8 14 bb 5a 7f 8a bd
       -0.05558177 -0.037151203 -0.0022721721 -0.06762572
0003b0 7e d1 da 3d 84 61 18 be 88 74 7b 3e 84 b1 e4 bd
       0.10684489 -0.1488095 0.24556172 -0.11166671
0003c0 6c e9 aa be 3c 4f 78 3e 5b f5 f9 3c 1c 43 04 be
       -0.33381212 0.24248976 0.030512502 -0.12916225
0003d0 63 67 88 be d4 4c c6 bd 9b 7c f4 bd 0a fc 8a bd
       -0.26641378 -0.096826226 -0.11937829 -0.06786354
0003e0 17 e4 1d be 1a f0 ad 3a c9 2f 8d 3d 70 a4 24 3e
       -0.1541904 0.0013270408 0.0689388 0.16078353
0003f0 82 d4 3b be f8 99 5b 3e 37 2c 22 be 06 8a 74 bd
       -0.18342784 0.21445453 -0.15837179 -0.059701942

decoder.0.bias f4 [6400]
000000 40 08 85 3b 11 f0 bd 3a 11 49 34 3c fd 50 cd ba
       0.0040598214 0.0014491101 0.0110037485 -0.0015664395
000010 38 20 4f 3c df ae bf bc b8 d1 60 bc af ca 59 bd
       0.012641959 -0.023398815 -0.013721876 -0.05317181
000020 7b a7 9c bd 2e 9c 7f bd 27 71 20 3b 07 79 7d 3d
       -0.07649132 -0.062404804 0.0024481507 0.061883
000030 ab 2a 70 3c 2f 6d e4 3b bb 8c 86 bd c7 77 c2 3d
       0.01465861 0.0069710235 -0.06569811 0.09495502
000040 c0 b8 8f 3d 03 c7 3c bd 25 d2 32 3a 58 66 32 3d
       0.0701766 -0.04608823 0.0006821475 0.043554634
000050 f4 98 8b bb ef 82 dd 3c 1a 5d 30 3d f9 b7 ab bc
       -0.004260177 0.027039973 0.04305754 -0.020961748
000060 6d 5e 4d 3d 07 b8 14 bd 2b 03 81 3d 17 db 02 3e
       0.05013888 -0.036308315 0.06299432 0.12778889
000070 30 d3 3c 3c 2f d6 27 bd 76 6b 06 bd 58 c4 8a bc
       0.01152496 -0.040975746 -0.032817326 -0.016939327
000080 47 eb 4d bb 64 33 ad 3d 5f a0 79 bb 5a 4a cb 3d
       -0.0031420754 0.084570676 -0.0038089973 0.09926291
000090 4b b0 6c 3b 70 85 88 bc e4 bf 28 bd b4 e3 b5 bc
       0.003611582 -0.01666519 -0.041198626 -0.022203304
0000a0 9e 97 d1 b9 08 91 18 3c e2 2c 03 3d 73 7d b7 3c
       -0.0003997655 0.009311922 0.032025225 0.022398686
0000b0 26 e9 fe 3b 83 87 a4 bc eb 76 da bb 13 30 91 bc
       0.0077792583 -0.020084148 -0.006667008 -0.017723119
0000c0 19 06 19 3d c9 3e b2 3d af ff 1a bd e3 ec bb 3d
       0.03735933 0.087033816 -0.037841495 0.09176042
0000d0 ae 01 fe bb fe bd 49 bd 8a fb 75 bd 87 ef 82 bd
       -0.007751665 -0.049253456 -0.06005434 -0.063933425
0000e0 26 4f b6 bd 7d 2a 09 bb 39 14 01 3b e0 bb 74 bb
       -0.08901815 -0.0020929866 0.0019695892 -0.0037343428
0000f0 f8 a4 a3 bc 66 c8 04 3d 8c d5 cb 3c 47 34 03 3d
       -0.019976124 0.032417677 0.0248821 0.032032277
000100 72 7c 4b 3d d6 e5 a4 bb b7 22 f9 bc fd dd 92 bc
       0.049679227 -0.0050322814 -0.030412061 -0.017928118
000110 f6 13 49 bd 08 db 4b 3d a8 ba 9d 3c 5f 8f b6 3d
       -0.0490913 0.04976943 0.019254044 0.089140646
000120 87 cd 9b bc 0f be 32 3b 99 96 46 bc f0 16 83 bc
       -0.019018902 0.0027273928 -0.012120866 -0.016002148
000130 c4 69 0a bd 99 fa 9d 3c 64 44 cb 3c cd 4e a2 bc
       -0.033792272 0.019284533 0.024812885 -0.019812966
000140 84 28 8f 3d 5c c9 4d bc 9b 5c e7 3c b6 85 2c 3d
       0.069901496 -0.012560215 0.0282424 0.042119704
000150 29 51 03 bd a9 99 a3 3d 27 09 aa ba 7a da 19 3c
       -0.032059822 0.07988293 -0.0012972698 0.009390468
000160 88 12 f4 3c fc de 29 3e c2 6c f6 3d 33 b5 6c bd
       0.029793993 0.16588968 0.12032463 -0.057789993
000170 ce e4 16 bd 82 18 d4 bc 80 7c ac 3d 5e 5a ca 3c
       -0.0368393 -0.025890592 0.08422184 0.024701294
000180 71 34 18 3c 28 10 14 bd 22 53 46 3d a5 8b 03 3c
       0.009289847 -0.03614822 0.048419125 0.008028899
000190 ec 14 07 3c 45 b5 ba ba 70 5c 3b 3d a8 8b 32 3c
       0.008244734 -0.0014244696 0.045742452 0.010897554
0001a0 e7 0d 25 bd d1 2d be 3d 39 47 c3 3d 77 9f 80 bd
       -0.04029646 0.092860825 0.09535069 -0.062804155
0001b0 80 c9 9e 3d a4 de 91 bc b4 50 d0 ba f6 20 a1 3d
       0.07753277 -0.017806359 -0.0015893192 0.07867615
0001c0 7e 3a 88 3c 55 7e 57 3d 62 03 35 3d aa 08 2b bc
       0.016629454 0.052610714 0.04419268 -0.010439077
0001d0 8f 54 65 bb f7 15 98 3d bb c6 b5 3c 7b 3a 20 3d
       -0.0034993028 0.074260645 0.022189489 0.03911827
0001e0 ad d1 28 3d 52 fd f5 bc a3 da 35 bc 6d 45 ec bb
       0.041215587 -0.03002802 -0.01109949 -0.0072104246
0001f0 e5 e2 96 3c b2 cf 09 3e 87 d0 44 3d a3 3c 65 3c
       0.018418739 0.13458136 0.04805043 0.013991508
000200 a5 91 92 bc 9d 3c 09 3d 46 4c aa bc 36 2f 14 bd
       -0.017891714 0.03350507 -0.020788323 -0.036177836
000210 9e 79 ac bd 4b be 93 3d 74 d3 6d bd 1a 03 02 3c
       -0.08421634 0.0721403 -0.058062986 0.00793531
000220 e4 91 13 3d aa 41 16 3c 8f 63 ba 3b d8 43 86 39
       0.036027804 0.009170929 0.005688138 0.0002560902
000230 31 6c cd 3c 59 a4 a8 bc 85 a5 bb bb d7 4b 65 3d
       0.025076004 -0.02058618 -0.0057265186 0.05598053
000240 df 51 67 bd 14 9e 60 ba fd 60 ed 3d 9a 40 10 3e
       -0.056474563 -0.00085684774 0.11590765 0.14087144
000250 0b 00 a0 bd d3 e7 ce 3d e6 f1 0d bc c7 4f 67 3c
       -0.07812508 0.10102811 -0.00866363 0.0141181415
000260 d5 aa 97 bc 60 41 62 3d 2b 63 e3 3b 52 c5 9e 3d
       -0.018514076 0.055238128 0.006939312 0.077524796
000270 b5 c7 af bb f6 c6 38 3c 15 13 a6 3c 7e fc 8e 3c
       -0.005364383 0.011277905 0.02027277 0.017454382
000280 c7 e5 a6 bb 97 9a c5 3b 35 d7 47 3c 61 ab 18 bd
       -0.0050933096 0.0060303914 0.012197305 -0.037272815
000290 ec 46 fa ba 1b 98 9f 3d 6e 7a 72 3d 9b 32 90 bd
       -0.0019094623 0.07792684 0.05919879 -0.07040902
0002a0 06 1e a1 3a 18 a3 44 bd 89 7e 73 3d 9b 98 22 3d
       0.0012292273 -0.0480071 0.059446845 0.039696317
0002b0 b1 c0 34 bc 75 17 83 3d b0 68 14 bd ff d6 1f bd
       -0.011032269 0.064009584 -0.03623265 -0.039023396
0002c0 43 d3 b4 3b 77 84 15 3d ee 21 22 bd da d8 b2 bb
       0.0055183484 0.03650328 -0.03958314 -0.0054579796
0002d0 3a be 89 3b 35 32 91 3d 39 31 20 3c 25 20 2b 3c
       0.004203585 0.07089654 0.009777361 0.010444676
0002e0 b6 05 cd 3d 49 1a 7f 3d 9a 09 0c bd d3 64 48 3d
       0.10010855 0.062280927 -0.034188844 0.04892428
0002f0 57 37 0f 3d 4e e4 17 3d 8a a9 40 3d b6 45 88 bd
       0.034964886 0.037082963 0.047036685 -0.06653921
000300 21 83 53 bd 3b 73 b0 bd 18 89 c4 bc 86 a6 f9 3c
       -0.051638726 -0.086157285 -0.023991153 0.030474912
000310 a0 91 a1 3d b8 70 62 bb 31 23 65 3d 74 3f 26 3c
       0.07889104 -0.003455205 0.055941764 0.010146964
000320 4c 9b d2 3b 8a c1 76 3c 73 36 77 3d 48 a1 d0 3c
       0.0064272042 0.015060792 0.06035466 0.02546753
000330 5c 01 7c bb 12 20 0f bd 41 63 c7 bb 4a 7a fb bc
       -0.0038452959 -0.034942694 -0.00608483 -0.03069796
000340 60 e2 a1 bc 8d 4b 48 3d e9 66 49 bd 75 63 2d bc
       -0.019761264 0.048900176 -0.04917041 -0.010582794
000350 2f 7d b4 3d 48 26 76 bc d8 07 0a 3e d2 a7 9e 3d
       0.088129394 -0.015023775 0.13479555 0.07746853
000360 cf b8 8e 39 8a 3b a0 bb bf da c4 bb 64 ba 59 bc
       0.00027222044 -0.00488991 -0.006007522 -0.013289068
000370 86 03 3c 3d 8d 50 72 ba 1a 9f 74 3c 18 9b 71 3c
       0.045901798 -0.00092435704 0.014930511 0.01474645
000380 ff 2f c3 3b 9e ee a2 bc b0 cb af bc 4c 5e 44 bb
       0.0059566493 -0.019889172 -0.02145943 -0.0029963432
000390 d9 a1 5d bd 87 80 3d bc 8c d2 ca 3d 19 a5 73 3d
       -0.054109428 -0.011566288 0.0990344 0.05948362
0003a0 e1 af 16 3e 60 38 5d bd 1f e8 35 3c 81 f7 85 bd
       0.1471553 -0.05400884 0.011102705 -0.06541348
0003b0 2e 60 f5 3c 30 14 3f 3c 57 7d 23 3d 42 e3 22 b9
       0.029953089 0.011662528 0.039914455 -0.00015534184
0003c0 22 e1 f9 bc 86 b0 70 bc 88 da 16 3d 54 e8 18 3d
       -0.03050286 -0.014690524 0.0368295 0.03733094
0003d0 6a 6b 2b 3c 2d 34 a8 3d 34 7e f9 3d 7e d6 ed 3c
       0.010462621 0.08213077 0.121822745 0.029032942
0003e0 52 88 94 3c 2e f1 d3 3c b1 28 05 bc 44 60 08 3e
       0.018131409 0.02587184 -0.008127377 0.13317972
0003f0 83 8e a8 bd 29 d2 a0 bc 9d 66 90 3c b9 c7 13 3d
       -0.08230307 -0.019631462 0.017627055 0.036079142

decoder.3.weight f4 [16, 6, 5, 5]
000000 e1 b6 d2 3c fd 84 06 bd 8b f8 0c 3d 07 9a 69 bc
       0.02572197 -0.03284167 0.034416717 -0.014257914
000010 05 fa 2d bc 1e 3a 2e 3c 44 45 d9 bc 65 17 1c 3d
       -0.010618691 0.010633973 -0.026522286 0.03810825
000020 17 70 98 bd ff cb b1 bd dd 2c 5e 3d f3 f9 17 3b
       -0.074432544 -0.08681487 0.054242004 0.0023189753
000030 91 57 94 bb 02 05 77 bc f0 81 97 bd 88 8a 6c bd
       -0.0045270403 -0.015076878 -0.073978305 -0.0577493
000040 65 2f 4b bd d8 d9 a0 bd 41 da e6 bd 54 b8 fe bd
       -0.049605746 -0.078540504 -0.112720974 -0.124375015
000050 5d 40 aa bd 39 c8 bc bd 18 20 c2 3b 40 33 97 bd
       -0.083130576 -0.09217877 0.005924236 -0.07382822
000060 fd b2 eb bd be 48 cc 3d b3 68 26 3d 93 94 d9 bc
       -0.11508749 0.09974812 0.040627193 -0.026560104
000070 a9 b6 58 3d de e1 91 3c cd e2 ac bb 4f 87 00 bb
       0.052908573 0.017807897 -0.00527606 -0.00196119
000080 b4 13 0c bc fc aa a7 bd 19 5b c1 bc fe 13 8c bd
       -0.0085496195 -0.081869096 -0.023603009 -0.06839751
000090 e2 e2 53 bd d2 8c 4c bc 15 78 cb 3c 97 59 fb bc
       -0.051730044 -0.012484746 0.024837533 -0.030682368
0000a0 67 45 a6 3c c3 fb 82 bd fe 66 4b 3d 5b 57 9f bc
       0.020296765 -0.06395676 0.049658768 -0.019450834
0000b0 4d fa 44 bd ec b7 4a bd a5 72 84 3c 3b 7d 6b bd
       -0.048090268 -0.049491808 0.016167948 -0.057492476
0000c0 5d 0d b6 bc 6f c8 24 3d 9e 4a 9a bd f9 34 32 bd
       -0.022223169 0.04023021 -0.07533763 -0.04350755
0000d0 46 34 10 bc d1 bc 59 bc e2 2c b0 bc b0 11 4b bd
       -0.008801525 -0.013289646 -0.021505777 -0.049577415
0000e0 da 7e 9b b9 07 f9 86 bd 2a 29 a3 bc 22 5a 20 bd
       -0.00029658416 -0.06590467 -0.01991709 -0.039148457
0000f0 a9 44 8c bd 5d fb 6c bd e3 41 f9 3c 38 ee 25 bd
       -0.068490334 -0.057856906 0.030426925 -0.040510386
000100 78 d8 78 bd 72 ae 90 bc 1f d1 a8 bc f1 dc 93 3d
       -0.060753316 -0.017661307 -0.02060753 0.072198756
000110 06 e7 78 bd 1e c1 17 bd 9f 95 27 3c a0 67 4a 3d
       -0.060767196 -0.037049405 0.010228544 0.04941523
000120 c3 8b 09 3d f3 88 f1 3c 00 ab 45 bd 39 78 ef bc
       0.033580553 0.029484248 -0.04825878 -0.029232131
000130 42 54 30 3c fb 91 8d 3d 4d ce bf 3c 69 bc 4a 3d
       0.010762276 0.06912609 0.023413802 0.04949609
000140 8a 64 77 3d ed 21 90 3d 1b 41 aa 3d cb 65 b4 3d
       0.060398616 0.07037721 0.08313199 0.08808478
000150 e5 aa 3c 3d d2 8b 66 3d a7 f7 05 3d 8b a1 5d 3d
       0.046061415 0.056285687 0.032706883 0.054109138
000160 3e b6 87 3d 7f 74 30 bc 37 cf 7b 3d 07 05 16 ba
       0.06626557 -0.010769962 0.061476912 -0.0005722795
000170 97 d4 01 3d 5a ba aa bc f0 0a b3 3b b3 a6 81 3c
       0.031696882 -0.020840812 0.0054639503 0.015826559
000180 8f bb 57 3c 77 a3 28 3d 15 b9 86 bb ef 26 b1 3b
       0.013167276 0.041171517 -0.004111419 0.0054062526
000190 ae f2 8b bc 90 e4 9c 3c 48 4f c0 bc d2 64 cf 3c
       -0.017083492 0.019151956 -0.023475304 0.02531663
0001a0 85 98 8a bd fa 1f b4 bc 1d 28 1f bd 72 1e 80 3d
       -0.06767372 -0.021987904 -0.038856614 0.06255807
0001b0 74 28 6b 3c 8d d6 36 bd ac bf 6f 3d a1 a5 73 bc
       0.0143529065 -0.044638205 0.058532402 -0.014871032
0001c0 95 20 8a ba 16 88 9e 3d 86 f3 cb 3d 61 28 29 3d
       -0.0010538275 0.077408 0.09958558 0.041298274
0001d0 ea 15 73 3d 8c c1 91 3d 5b 62 05 3d 5e 46 e4 3d
       0.05934707 0.07116994 0.032564502 0.11146234
0001e0 6d 0a 8a 3d 7f ad e7 3c 64 a5 c4 3d e6 c7 f5 3c
       0.0674027 0.028280972 0.09601858 0.030002546
0001f0 34 52 a2 3d 77 ea af bd 47 d9 8b 3c d3 f2 48 bd
       0.07925835 -0.085896425 0.01707138 -0.0490597
000200 a3 e9 03 bd 67 c2 79 bd ee fa 15 bd af 16 ec bb
       -0.032205235 -0.060976412 -0.03661626 -0.0072048525
000210 95 3d 23 3c 27 38 ba bb eb 55 95 bd b9 79 2f bd
       0.009963413 -0.0056829634 -0.07291778 -0.042840693
000220 61 83 60 bd 8c 6f 93 bd 6a ca 05 be 5d 8d ca bc
       -0.054812793 -0.0719901 -0.13065496 -0.02472561
000230 1b 73 22 3b 3f 68 78 bd 01 65 0c 3d 04 bb 28 bd
       0.0024787846 -0.06064629 0.034276012 -0.041193977
000240 a2 a3 09 bc dd 36 07 bd d3 9d d9 bb d5 81 7a 3d
       -0.0084008295 -0.033011306 -0.0066411286 0.061158974
000250 2f 0b 7b bc e1 c7 5b 3d 79 19 16 3d c1 cd 8b 3d
       -0.015322491 0.053657416 0.036645386 0.06826354
000260 40 ea 68 bc 54 17 83 3d 89 a3 29 3d c4 ab 31 bc
       -0.014216006 0.06400934 0.041415725 -0.010844175
000270 b6 98 04 bd f8 24 d0 3b 53 2b 5a 3d 9f 73 87 bc
       -0.0323722 0.0063520633 0.053263973 -0.016534625
000280 a4 40 4e 3d 33 cb 2e 3d 60 88 c8 3d e5 66 12 3d
       0.050354615 0.042674255 0.097916365 0.03574266
000290 f3 f0 a0 3c f3 48 11 3d 2a de 22 bb b3 87 9d 3c
       0.019646144 0.03546996 -0.0024851658 0.019229745
0002a0 09 a4 d0 3c 39 39 19 bb 40 cc 0f bd b0 f7 5e 3b
       0.025468843 -0.0023380055 -0.035106897 0.0034022145
0002b0 b6 05 fd 3c bd b0 73 3d cd 30 ac bb 55 be 32 3d
       0.030886512 0.059494723 -0.005254841 0.043638546
0002c0 d7 21 b9 3b 2b 40 2c bd 4b a9 cc bc 03 0e 5e bd
       0.005649786 -0.042053383 -0.024983069 -0.05421258
0002d0 13 4c fe bb 9d bf 81 3c 5d 94 a9 bd 54 2e 19 bd
       -0.0077605336 0.015838439 -0.08280251 -0.037397698
0002e0 ff 38 32 3d 31 7a e8 bc 5d 3f ba 3c 7c 8f 0f 3d
       0.043511387 -0.028378578 0.022735292 0.035048947
0002f0 2b 31 a4 bd 11 07 00 bd 2d 3b 41 bd ef 91 56 bb
       -0.080171905 -0.03125674 -0.047175575 -0.0032740792
000300 6b d9 ab bb 7a 84 9b bd ff 8e 72 bd 4b 91 8c bc
       -0.005244424 -0.07593627 -0.059218403 -0.017159125
000310 64 47 a3 bc fc cd dd bd 77 a8 ce bc 12 21 6e bd
       -0.019931503 -0.10830304 -0.025226815 -0.058137007
000320 c6 47 dc 3c dc 7e 63 bd 22 e9 ef 3c d1 b6 5f bd
       0.026889693 -0.055540904 0.029285971 -0.054617707
000330 20 b2 e1 bc 25 5d cb bc 9a 99 ea bc 28 fc 17 3d
       -0.027550757 -0.024824688 -0.028637696 0.03710571
000340 58 ab 8a 3c 3b 63 76 bd 5d 34 21 3d d9 d1 ad 3d
       0.016927406 -0.060153227 0.03935658 0.08487291
000350 51 b6 87 3b 98 5b 42 3d 7c 60 79 3d d6 fd 93 3d
       0.004141607 0.04745063 0.06088303 0.0722615
000360 49 0b b0 3c 51 a4 2f bd f7 25 7d bd 95 63 88 3c
       0.021489756 -0.042881314 -0.061803784 0.016649047
000370 43 5b 39 bd 40 89 92 3d 50 39 a6 3d 8a 77 11 bb
       -0.04525305 0.071550846 0.081164 -0.0022196495
000380 04 69 45 bd 11 21 e9 3b 21 4e 3f 3d 5b d5 d0 3c
       -0.048195854 0.0071145375 0.04670537 0.02549236
000390 57 a2 cd 3c 07 d1 a0 3d d1 d4 85 3c 9b d5 50 bc
       0.025101824 0.07852369 0.01633683 -0.01274624
0003a0 a7 62 9d 3d 3e b5 92 3c 1b 6b 84 3c 01 48 92 bc
       0.07684832 0.017908689 0.016164353 -0.0178566
0003b0 d4 e4 91 3c d2 a1 c6 3d 66 9e 0d 3d 73 99 31 3d
       0.017809309 0.096988335 0.03457489 0.04335923
0003c0 d0 ee 5f 3d ec 98 ba 3d 52 48 87 3d fc 3d 96 3c
       0.05467111 0.09111199 0.06605591 0.018340103
0003d0 84 59 78 3d e1 08 92 3d 1a 95 72 3d c8 9f 7b 3d
       0.060632244 0.071306 0.059224226 0.061431676
0003e0 87 f5 b5 3c 98 07 21 3d f3 78 15 bd e4 8e b0 bd
       0.022211803 0.039313883 -0.0364923 -0.08621004
0003f0 3a 57 22 3c eb a5 9d bc c3 97 96 bc c8 0a 24 bd
       0.009908492 -0.019244155 -0.018382913 -0.040049344

decoder.3.bias f4 [6]
000000 c5 12 02 be 94 77 e8 3d cd b2 08 be 1a 8a d1 bc
       -0.12702473 0.11350933 -0.13349457 -0.025578547
000010 2d 40 ce 3d cb a3 ba 3d
       0.10070834 0.09113272

decoder.5.weight f4 [6, 1, 5, 5]
000000 8c e0 2b be 08 f7 a7 bd 53 22 90 bd 5e 19 df bd
       -0.16784877 -0.08201414 -0.07037797 -0.1089351
000010 52 e8 d2 bd db c8 af bd e8 14 25 be fe 59 f1 bd
       -0.10298218 -0.08583232 -0.16121256 -0.11784743
000020 e9 5a 59 3d 7f f2 a7 3d 67 63 e1 bc 1d da c2 3d
       0.053065214 0.08200549 -0.027513219 0.09514258
000030 0d 54 44 3c b3 27 43 3c a4 a8 53 3e 62 22 3a 3d
       0.01198293 0.0119113205 0.206698 0.045442946
000040 f7 b4 e8 3d 3b 54 5e 3e 0e e5 81 3e 91 f4 49 3e
       0.11362641 0.21711819 0.25370067 0.19722201
000050 31 c6 9e 3d f1 39 3d 3e d6 82 2f 3e a8 02 4e 3e
       0.07752646 0.18479134 0.17139754 0.20118201
000060 d3 88 06 3e 15 9a 5e be cd 7d 8b be 5e c8 0c be
       0.13138132 -0.21738465 -0.27244416 -0.13748309
000070 bd ce bd bd 46 e6 9b 3c e6 77 38 be a9 d8 43 be
       -0.09267948 0.019030701 -0.18014488 -0.19125618
000080 5d ea 81 be 84 e8 52 be 6e 38 74 3c b3 e3 98 bd
       -0.25374117 -0.2059651 0.014906032 -0.07465305
000090 e7 c0 17 bd 3c a5 c3 bd e3 ab 09 be b9 31 b4 3c
       -0.0370492 -0.09553 -0.13444476 0.021996366
0000a0 04 3e 13 be 15 cc c9 bd c1 68 32 bd fa 5b bf bd
       -0.14379126 -0.09853379 -0.043556932 -0.09343715
0000b0 33 61 f0 3c 4e 85 b7 bd 06 57 f9 bd 66 3e 18 bd
       0.029343223 -0.08960973 -0.121748015 -0.037168883
0000c0 e7 ac 1d bd 69 64 ac 3d 11 cf a1 3d 85 83 20 3e
       -0.03849497 0.08417589 0.07900823 0.1567517
0000d0 f8 b2 53 3e 6d 82 f5 3d 6b ee af 3c 20 55 1b 3e
       0.2067374 0.11987767 0.021475991 0.15169191
0000e0 16 a8 a6 3d bb 4f 01 3e 3a 6e cb 3d f9 ad e4 3d
       0.081375286 0.12628071 0.099331334 0.11165995
0000f0 95 5a 95 3d 02 0d bf bc b7 de 8b 3c 8b 52 51 3d
       0.07292668 -0.023321632 0.017073972 0.05110411
000100 b6 56 23 3d 48 c5 06 3d 54 94 0b 3e 72 2b 48 3e
       0.039877616 0.032902986 0.13630801 0.19547823
000110 06 bc e4 3d 6f e9 bf 3d 20 d7 58 3d 20 c3 43 bd
       0.11168675 0.09370696 0.052939534 -0.047793508
000120 6a 54 15 3e d0 d5 f3 3d 3b c0 fe 3d 35 bb cb 3d
       0.14582983 0.11906016 0.12439009 0.09947816
000130 bb 2b e8 3c 65 1c 90 bd e6 be a6 bc b9 0f 21 be
       0.028341165 -0.07036666 -0.0203547 -0.15728654
000140 b0 fc 66 3e ff 6d 1a 3e fb 91 5b bc 9f 5a c8 bc
       0.2255733 0.15081023 -0.013401504 -0.024457274
000150 11 fa c9 3d 28 0e 73 3e 60 97 64 3d 38 00 47 3e
       0.098621495 0.23735869 0.055808425 0.19433677
000160 52 e3 95 3d 08 cd 19 bd 05 04 a7 3d 96 56 10 3e
       0.073187485 -0.03754905 0.081550635 0.1409553
000170 ee e2 d6 bd 7c 4a e6 bd 7e 17 0c be fd 74 19 be
       -0.10492502 -0.112446755 -0.13680837 -0.14986034
000180 44 36 8d bd e4 c0 88 3d fe a1 55 be 89 16 8c be
       -0.06895116 0.06677416 -0.20862576 -0.27360943
000190 aa 4a ac bc c2 b8 2a be f2 4e 90 bd 90 1c 65 bd
       -0.021031696 -0.16672042 -0.070463076 -0.055935442
0001a0 a5 c6 b9 bc ff 08 4d be d8 0a f8 bd f6 60 58 be
       -0.022677729 -0.20022963 -0.12111443 -0.21130738
0001b0 3c 2d 37 be 8c 26 51 bb 87 ff 7e be 34 88 3c be
       -0.1788835 -0.0031913845 -0.24902163 -0.18411332
0001c0 dc eb 20 bd 30 50 06 bd a7 31 44 be 67 f9 98 bd
       -0.039287433 -0.032791317 -0.19159566 -0.07469445
0001d0 fe e7 29 be ab 72 23 be 86 05 9f bd a6 dc 90 bd
       -0.16592404 -0.15961711 -0.077647254 -0.07073335
0001e0 27 76 53 be c7 f4 3c be 5e 2e 03 be 1e 34 66 be
       -0.2065054 -0.1845275 -0.12810656 -0.22480819
0001f0 da c5 28 be ea 0b 94 3d 27 32 d9 3c 5b d6 83 be
       -0.16481724 0.07228835 0.026513172 -0.25749478
000200 dd 87 c6 bc 69 42 dd bd b9 05 c1 3d 9f dd 75 be
       -0.024234707 -0.10803682 0.0942492 -0.24010323
000210 92 2f 8f be ea cb 22 be e7 95 bc 3d 9b 6e 17 3d
       -0.2796598 -0.158981 0.09208279 0.036970716
000220 46 88 80 be 40 4d 76 bd fa 10 f3 bd 26 27 14 3e
       -0.25103968 -0.060132265 -0.118684724 0.14468059
000230 cf 36 e0 bd 1b 25 7d bd 9e 15 93 bc af a7 db 3d
       -0.10947954 -0.061802965 -0.017954644 0.107253425
000240 16 35 a9 3d 3d e3 52 3b a6 d3 5e 3c 80 07 6f bd
       0.082620785 0.0032178902 0.013600266 -0.058356762
000250 66 45 a5 bc 16 1a d1 bd
       -0.020174693 -0.102100536
