Autoencoder-on-MNIST-in-Pytorch/Models/model_classic.pt (torch, 561729 bytes, 11 tensors)

encoder.0.weight f4 [6, 1, 5, 5]
0	0xbe8c1891	-0.27362493
1	0xbe6a867d	-0.22902866
2	0xbe17df00	-0.14831161
3	0xbe7501d2	-0.23926476
4	0xbeb220df	-0.34790704
5	0xbe750dd8	-0.23931062
6	0xbeb3db5d	-0.35128298
7	0xbd8fceb2	-0.07021846
8	0xbe0b7865	-0.13620146
9	0xbe50fadc	-0.20408195
10	0x3e132fec	0.1437375
11	0xbe4b8703	-0.19875722
12	0x3b90bff3	0.0044174134
13	0xbe8027b2	-0.25030285
14	0xbe6d8d78	-0.23198497
15	0x3e15dc19	0.14634742
16	0x3ce78b52	0.028264675
17	0xbe2cdd2e	-0.16881248
18	0xbe24f71e	-0.16109893
19	0xbe138278	-0.14405239
20	0x3c1f3379	0.009716862
21	0xbdb66503	-0.08905985
22	0xbcf19efc	-0.029494755
23	0xbeaf5e5a	-0.34251672
24	0xbed5722c	-0.4168867
25	0xbe79e42c	-0.24403447
26	0xbeae42b1	-0.34035257
27	0xbe91e8fd	-0.28498068
28	0xbe9fbfad	-0.31200925
29	0xbe707fed	-0.234863
30	0x3d885ebf	0.066586964
31	0x3bcf23a8	0.006321389
32	0x3d5031f4	0.05082889
33	0x3ccd56c4	0.025065787
34	0x3e55d438	0.20881736
35	0xbe087904	-0.13327414
36	0x3c85e2af	0.016343443
37	0x3e202ba5	0.15641649
38	0xbcac0c9f	-0.021002112
39	0xbd3157ec	-0.04329674
40	0x3e46051a	0.19337884
41	0x3e1566b7	0.14589964
42	0x3de804d6	0.113290474
43	0x3e138d5e	0.14409396
44	0x3e7a99f3	0.2447279
45	0xbde5eed4	-0.112271935
46	0xbe16ca7e	-0.14725682
47	0xbddf081c	-0.108902186
48	0x3e985f6f	0.2976031
49	0x3e899a91	0.26875737
50	0x3e2e0557	0.16994224
51	0x3e3ab9da	0.18234959
52	0x3e219bb6	0.15782055
53	0xbdb4dc56	-0.08831088
54	0xbe0ec5f4	-0.139427
55	0x3e35b576	0.17745003
56	0x3d989c02	0.07451631
57	0xbe84f891	-0.2597089
58	0xbe9b38b7	-0.30316707
59	0xbee181eb	-0.44044432
60	0xbe696e66	-0.2279602
61	0xbe0c2a99	-0.13688125
62	0xbeb94d73	-0.36191902
63	0xbe59330d	-0.2121088
64	0xbe11e94b	-0.1424915
65	0xbd90dd0a	-0.0707341
66	0xbdbcb118	-0.092134655
67	0xbeb1a90e	-0.3469929
68	0xbbc36014	-0.005962381
69	0xbe38d32f	-0.1804931
70	0xbe77f627	-0.24214993
71	0xbdb21a37	-0.08696406
72	0xbe5c18a7	-0.21493779
73	0xbe326791	-0.1742232
74	0xbe9d1caf	-0.30685946
75	0xbe4fe610	-0.20302606
76	0xbe20ed06	-0.15715417
77	0xbe45fad2	-0.19333962
78	0x3e613f73	0.2199686
79	0xbbff635c	-0.007793827
80	0xbd442771	-0.047889177
81	0x3d6ced06	0.05784323
82	0xbda84fbc	-0.08218333
83	0x3e40aee6	0.18816718
84	0x3e6e3779	0.23263349
85	0x3e3b8f95	0.18316491
86	0x3e5118ab	0.20419566
87	0xbe2ae1fb	-0.16687767
88	0x3e5b116c	0.21393365
89	0x3e73cfa7	0.23809682
90	0xbd73ce5c	-0.05952297
91	0x3e30829e	0.17237327
92	0x3d935016	0.071930096
93	0xbd325b43	-0.043544065
94	0x3e204cfc	0.15654367
95	0x3e7d7b5c	0.24754089
96	0x3c94e9c3	0.018177873
97	0x3e10def2	0.14147547
98	0x3e6825a1	0.22670604
99	0x3db3e25b	0.08783408
100	0xbc135595	-0.008992572
101	0x3e5a0f0b	0.21294801
102	0x3d0df45c	0.034656867
103	0xbd6a880d	-0.057258654
104	0x3e260e62	0.16216424
105	0x3d64514d	0.055741597
106	0xbd8cba19	-0.06871433
107	0xbd40296d	-0.046914507
108	0x3e811c78	0.25217032
109	0x3e88043b	0.26565728
110	0xbdfc3bc1	-0.12316085
111	0xbe12762b	-0.1430289
112	0x3e0e0605	0.13869484
113	0x3bca5954	0.0061751995
114	0x3e81157f	0.25211713
115	0xbc020475	-0.007935633
116	0xbd1a7194	-0.037705973
117	0xbd65a44d	-0.056064893
118	0x3e4f6728	0.20254195
119	0x3e8137fc	0.25238025
120	0xbe432d15	-0.19060166
121	0xbe9f183d	-0.3107318
122	0xbe36e70a	-0.17861572
123	0x3e606d01	0.21916582
124	0x3dc84cbb	0.0978026
125	0xbd8b944c	-0.06815395
126	0x3e2172ee	0.15766498
127	0x3e0ec543	0.13942437
128	0xbe056ef6	-0.1303061
129	0xbbf69cb8	-0.0075260065
130	0xbd80afef	-0.06283557
131	0x3e6c84f3	0.23097591
132	0xbd36a21b	-0.04458819
133	0xbe787509	-0.24263395
134	0xbe24d176	-0.16095528
135	0x3dacc748	0.084364474
136	0x3e3d12a0	0.18464136
137	0xbc03c71c	-0.008043077
138	0xbe9506cb	-0.29106745
139	0xbe9ca8f0	-0.3059764
140	0x3e887097	0.266484
141	0x3e865f43	0.26244554
142	0x3e392d6d	0.18083735
143	0xbe645560	-0.22298193
144	0xbe30866c	-0.17238778
145	0x3df9ff14	0.122068554
146	0xbcafbe03	-0.02145291
147	0x3d895629	0.06705887
148	0xbe2038ea	-0.15646711
149	0xbe002eb1	-0.12517811

encoder.0.bias f4 [6]
0	0x3e46b0f5	0.19403441
1	0x3e3d6826	0.1849676
2	0x3d334d55	0.04377492
3	0x3e3851d0	0.17999959
4	0xbc85d142	-0.016335133
5	0x3e3ced78	0.18449962

encoder.2.weight f4 [16, 6, 5, 5]
0	0x3d2e414f	0.042542752
1	0x3ce757de	0.02824014
2	0xbd1b87e9	-0.03797141
3	0x3dfdf517	0.12400263
4	0x3d393bb7	0.045222964
5	0xba8c5c8f	-0.0010708737
6	0xbd87080e	-0.06593333
7	0xbd87f0ca	-0.06637724
8	0xbab03921	-0.001344476
9	0x3d7d9a4e	0.061914735
10	0xbdfc4ee8	-0.12319738
11	0xbe33f103	-0.17572407
12	0xbd474905	-0.04865362
13	0xbcd97d1b	-0.026548913
14	0xbcb1368d	-0.021632457
15	0xbdcac8f2	-0.099016085
16	0xbe06ce40	-0.13164616
17	0xbe20777b	-0.15670578
18	0xbcb63419	-0.022241639
19	0x3d137786	0.03600266
20	0xbdcdbcf2	-0.10045804
21	0xbe1fb889	-0.15597738
22	0xbdde10e2	-0.10843064
23	0x3c7deee5	0.015498851
24	0xbd0afbce	-0.033931546
25	0x3cc172a5	0.023614237
26	0xbc4fbdde	-0.012679545
27	0xbceb8c3b	-0.02875339
28	0x3bfd2ae9	0.0077260626
29	0x3cef4f97	0.029212756
30	0x3a205c42	0.0006117263
31	0x3dcaa927	0.098955445
32	0x3caad382	0.020852808
33	0x3b4192af	0.0029536893
34	0xbc70ca6a	-0.014696697
35	0x3d5af0c4	0.05345227
36	0x3db26dc9	0.08712346
37	0x3d9714d1	0.07377017
38	0xbd233a4c	-0.039850518
39	0xbcb02e23	-0.021506375
40	0x3d6110bd	0.054947603
41	0xbd03e915	-0.032204706
42	0xbd0e90f9	-0.034806225
43	0x3d95f178	0.07321447
44	0x3e023d63	0.1271873
45	0xbd9a654d	-0.07538853
46	0x3d538cb4	0.051647857
47	0xbdb55aa3	-0.08855178
48	0xbd4c2242	-0.04983736
49	0x3d04f4d6	0.032460056
50	0x3d0f6af3	0.035014104
51	0x3ceb328d	0.028710628
52	0x3bfcc682	0.0077140937
53	0x3df2e54e	0.11860143
54	0x3cde5ddd	0.027144367
55	0xbd55da85	-0.05221035
56	0x3d2a4692	0.041571207
57	0xbb156459	-0.0022795408
58	0xbc631061	-0.0138588855
59	0x3dd74863	0.105118535
60	0xbe19edc3	-0.15032105
61	0xbcc8545c	-0.024454288
62	0xbd12fa17	-0.035883036
63	0x3d8ce244	0.06879094
64	0x3d2389dd	0.0399264
65	0xbe2e17f3	-0.17001323
66	0xbdb95912	-0.09050192
67	0x3b603e65	0.0034216878
68	0xbd337f3e	-0.04382252
69	0x3b82c079	0.0039902297
70	0xbe107e25	-0.1411062
71	0xbdc5629e	-0.0963795
72	0xbd70b39f	-0.05876505
73	0xbd97ae86	-0.074063346
74	0xbd71fffa	-0.05908201
75	0xbafc4ed6	-0.0019249569
76	0x3da22c2c	0.07918581
77	0xbd52b9b4	-0.05144663
78	0xbd25276c	-0.0403208
79	0xbcad507b	-0.02115654
80	0x3ce16eb6	0.027518611
81	0x3dbfacd1	0.09359134
82	0x3d03ee5c	0.03220974
83	0x3da8ed55	0.082483925
84	0x3dc6af7f	0.09701442
85	0x3d762dbe	0.060102217
86	0x3d3b5f8f	0.04574543
87	0xbce32d6d	-0.027731622
88	0xbd8e8618	-0.0695917
89	0xbc7a67dd	-0.015283552
90	0x3dbfd8ac	0.09367499
91	0x3dbde652	0.09272446
92	0x3b85f4a7	0.0040880027
93	0xbd327036	-0.043564044
94	0x3d8ed1cd	0.0697361
95	0x3daa9608	0.083293974
96	0xbd05b8e8	-0.032647043
97	0x3cbfa6a2	0.023394886
98	0xbd6df198	-0.05809173
99	0xbd1084cc	-0.035282895
100	0x3d490592	0.049077578
101	0x3dbf394e	0.09337102
102	0x3d9b7d30	0.07592237
103	0xbd2c954e	-0.042134576
104	0xbd841551	-0.06449378
105	0x3cfeb0bd	0.031090135
106	0x3dc97e00	0.09838486
107	0xbcf8e7b4	-0.030383922
108	0xbd97dd61	-0.074152716
109	0x3d386b1b	0.04502402
110	0x3dd5227e	0.104069695
111	0x3d306e72	0.04307408
112	0xbd7101aa	-0.058839478
113	0xbcf3b28d	-0.029748226
114	0xbd7773f4	-0.060413316
115	0x3c669a1d	0.014074829
116	0x3d5d3ee6	0.054015063
117	0xbd64aaf5	-0.0558271
118	0xbd9dd9df	-0.07707571
119	0xbc8cf9d6	-0.017208975
120	0x3d3212ee	0.043475084
121	0xbc0d50e2	-0.008625241
122	0xbd1390f7	-0.03602692
123	0x3d0637bf	0.032768007
124	0xbd29b4d1	-0.041432206
125	0x3d5527ba	0.05203984
126	0xbd5f9a1d	-0.054590333
127	0xbc81826f	-0.015809266
128	0xbc8e1b97	-0.01734714
129	0xbd62a1e2	-0.055330165
130	0x3cc40f47	0.023933066
131	0xbd623e43	-0.05523516
132	0x3d9e06f9	0.07716174
133	0x3da16877	0.07881253
134	0x3ca8c9eb	0.020604094
135	0x3d45021e	0.048097722
136	0x3d30fac7	0.04320791
137	0x3c543c39	0.012953811
138	0xbce4f106	-0.02794696
139	0xbc9a3d63	-0.0188281
140	0x3d966f8d	0.073454954
141	0x3d94d23a	0.0726666
142	0xbc347ed3	-0.011016565
143	0x3d07e884	0.03318073
144	0xbd8de419	-0.06928272
145	0x3c9c7727	0.019099785
146	0x3d118a92	0.03553254
147	0x3c84e58f	0.016222743
148	0xbce59d93	-0.028029239
149	0x3c00d777	0.007863871
150	0xbd56f63e	-0.05248093
151	0x3c9d32e1	0.0191893
152	0xbd336198	-0.043794245
153	0x3d9063cb	0.07050284
154	0x3bb8b9a2	0.0056373635
155	0x3d9a1510	0.075235486
156	0x3cd405a7	0.025881601
157	0xbd3da1a9	-0.04629675
158	0x3da6a1f7	0.08136361
159	0x3d2bbd8d	0.041928817
160	0xbd4ab4ee	-0.049488954
161	0xbd1e36f3	-0.038626622
162	0xbc04f7dd	-0.008115736
163	0x3d5a74b7	0.053333964
164	0x3bcf960b	0.006335025
165	0x3abbd7d2	0.0014331287
166	0xbc9e5df4	-0.01933191
167	0xbd89c492	-0.06726946
168	0xbcafc2a0	-0.02145511
169	0xbd145a07	-0.03621867
170	0xbd5eee9b	-0.05442677
171	0xbdb52d2a	-0.08846505
172	0xbe12c6ec	-0.14333695
173	0xbe126cf0	-0.14299369
174	0xbdb4f348	-0.08835465
175	0x3cd480ed	0.025940383
176	0x3d6904fb	0.056889515
177	0xbd8eca35	-0.06972162
178	0xbd18d078	-0.037308186
179	0x3b610eea	0.0034341165
180	0xbcabb1a7	-0.020958735
181	0x3c956d7f	0.018240688
182	0xbb26dcd2	-0.002546121
183	0xbd6ca884	-0.057777897
184	0xbd732c19	-0.059368227
185	0xbb8dd062	-0.0043278197
186	0x3d0da131	0.034577552
187	0xbd5af612	-0.053457327
188	0xbbdc87d5	-0.0067300596
189	0xbd2238ff	-0.039605137
190	0x3d8b2ddf	0.067958586
191	0x3d4745e4	0.048650637
192	0xbc9bb6a1	-0.019007983
193	0x3d2a2cac	0.04154651
194	0x3da4fc15	0.08055893
195	0xbc330a26	-0.010927713
196	0x3d190519	0.037358377
197	0xbd4239a0	-0.047418237
198	0x3d8d7a4e	0.069080934
199	0x3d24d5ce	0.040242963
200	0x3d2937b2	0.04131288
201	0xbd4901fd	-0.04907416
202	0xbd451c90	-0.048122942
203	0x3d62407c	0.05523728
204	0x3d9056e7	0.07047825
205	0x3d16e3d3	0.036838364
206	0xbd438102	-0.047730453
207	0xbb550735	-0.0032505516
208	0x3d06125c	0.032732353
209	0xbb8008ff	-0.0039073224
210	0x3d5678f6	0.05236145
211	0xbd9cbf46	-0.0765367
212	0xbdce65e8	-0.10078031
213	0xbd9e2222	-0.07721354
214	0xbd6b1d08	-0.057400733
215	0xbd9c5f36	-0.076353475
216	0xbd4f95ff	-0.050680157
217	0xbe3168cb	-0.17325132
218	0xbdd65770	-0.10465896
219	0x3bb242bd	0.0054400847
220	0xbcccbfba	-0.024993766
221	0xbdd08fa6	-0.10183649
222	0xbe017590	-0.12642503
223	0xbd6954ae	-0.056965522
224	0x3d6a349c	0.05717908
225	0x3d8e2c89	0.06942088
226	0x3daddbd7	0.08489197
227	0xbc93da50	-0.018048435
228	0x3d9b4740	0.07581949
229	0x3cb47a78	0.022031054
230	0x3d23a588	0.039952785
231	0x3d941bd2	0.07231869
232	0x3db442c9	0.08801801
233	0x3c830ca7	0.015997244
234	0xbd7f6902	-0.062356003
235	0x3a791feb	0.00095033523
236	0x3d452748	0.048133165
237	0xbd32186d	-0.043480325
238	0x3dc94357	0.09827297
239	0x3c9b19a1	0.01893312
240	0x3d359e95	0.04434069
241	0x3deaf903	0.114732765
242	0x3cbe7eee	0.023253884
243	0x3da2daaf	0.07951867
244	0x3d4d2248	0.05008152
245	0x3d49d654	0.049276665
246	0x3d766c0f	0.060161646
247	0xbd666162	-0.056245215
248	0x3d8f98c7	0.07011562
249	0x3da67fb2	0.08129825
250	0x3bdae52d	0.006680152
251	0xbcc2d33b	-0.023782363
252	0x3d7dfecd	0.062010575
253	0xbd721204	-0.059099212
254	0x3d31774e	0.04332667
255	0xbbe55cdf	-0.0069995965

encoder.2.bias f4 [16]
0	0x3c245754	0.010030586
1	0x3d2e88ee	0.042611055
2	0x3cf67561	0.030085267
3	0x3d72f6c1	0.059317354
4	0x3deae97f	0.11470317
5	0xbbd379ff	-0.006453752
6	0x3d77d9ac	0.060510322
7	0xbc33e4b1	-0.010979817
8	0x82bf3a90	-2.809854e-37
9	0x3e0dffed	0.13867159
10	0x3d3dbdbb	0.04632352
11	0x3d856647	0.065136485
12	0x3deb739a	0.114966586
13	0x3cbd4fbb	0.023109308
14	0x3cca59a1	0.024700942
15	0xbd2c7e03	-0.04211236

encoder.5.weight f4 [10, 6400]
0	0xbbebdbef	-0.007197849
1	0xbcfd6541	-0.03093207
2	0xbd0eba7f	-0.034845825
3	0xbd53f6d1	-0.051749054
4	0xbd39e40d	-0.0453835
5	0xbcd6f56f	-0.026240079
6	0xbd205b48	-0.039149553
7	0xbd0b9c62	-0.034084685
8	0xbc1e49ee	-0.009661181
9	0xbb8b5eb9	-0.004253235
10	0xbc81061c	-0.015749983
11	0xbc876450	-0.016527325
12	0xba9d12ca	-0.0011983749
13	0x3c29de3b	0.010367925
14	0x3af6b073	0.0018820897
15	0x3aef9402	0.0018278363
16	0x3c566a54	0.013086874
17	0x3c2369e6	0.009973979
18	0xbc02b37a	-0.007977361
19	0xbc8a5d44	-0.016890176
20	0xba86eda5	-0.0010294212
21	0xbd18be93	-0.03729112
22	0xbd0e4788	-0.034736186
23	0xbd09e835	-0.033668716
24	0xbd229d00	-0.039700508
25	0xbcf7cc77	-0.030248864
26	0xbc6b1fd6	-0.014350852
27	0xbc8efe87	-0.017455352
28	0x3c66b406	0.014081007
29	0xbb423ded	-0.0029638961
30	0x3b578714	0.003288691
31	0xba237dae	-0.0006236684
32	0x3ba4986d	0.0050230534
33	0x3cfa5acd	0.030560875
34	0x3c8de80c	0.017322563
35	0x3cc17945	0.023617396
36	0x3c097b19	0.008391165
37	0x3bcb27bd	0.0061998055
38	0x3b0aa422	0.002115496
39	0xbc8727b2	-0.01649842
40	0x3ce19493	0.027536666
41	0x3b862bbc	0.004094569
42	0xbcc1ee18	-0.023673102
43	0xbcc37f6e	-0.023864474
44	0xbc69acd7	-0.0142624
45	0xbc0cae7f	-0.008586525
46	0xbc8864bd	-0.016649598
47	0xbb7b05e3	-0.003830307
48	0x3b3b82a1	0.0028611796
49	0x3c9e9824	0.019359656
50	0x3c865ed6	0.016402643
51	0x3c6ed7bf	0.014577805
52	0x3cab1089	0.020881908
53	0x3c3ec829	0.011644402
54	0x3c40cb65	0.011767243
55	0x3b519a0a	0.0031982684
56	0x3c56bab6	0.013106039
57	0x3b3c2013	0.002870564
58	0xbb8b7566	-0.0042559383
59	0x38957e19	7.128361e-05
60	0x3d809c13	0.06279769
61	0x3cfd55e6	0.030924749
62	0xbc0f3711	-0.008741156
63	0xbb2c8375	-0.0026323472
64	0xbbf9bda6	-0.007621485
65	0xbc5c5521	-0.013448031
66	0x3c006540	0.00783664
67	0xbaafc4f1	-0.0013410134
68	0x3c4873e1	0.012234659
69	0x3c48b60b	0.012250434
70	0x3c8bd854	0.017070927
71	0x3c819958	0.01582019
72	0x3bb0f30e	0.005400068
73	0x3c17d97c	0.009268161
74	0x3b4e41c5	0.0031472307
75	0xba8b8bc7	-0.0010646515
76	0x3b8da8e2	0.004323111
77	0x3c44a932	0.01200323
78	0x3bfae744	0.0076569635
79	0x3b1191a1	0.0022212046
80	0x3d856c76	0.06514828
81	0x3ce3ebcd	0.0278224
82	0xbc05986b	-0.008154015
83	0xbc4b3136	-0.0124018695
84	0xbbda57e6	-0.0066633103
85	0x3accb291	0.0015617182
86	0x3bde2ad5	0.0067800083
87	0x3cc01da9	0.023451643
88	0x3c5791cc	0.013157319
89	0x3cc74265	0.024323652
90	0x3d3a01e7	0.04541197
91	0x3d10e52a	0.035374798
92	0x3c809223	0.015694683
93	0xbb1c7eab	-0.002387921
94	0xbc833004	-0.016014107
95	0xbcc63146	-0.024193417
96	0x3ab240cf	0.0013599637
97	0x3c548ab4	0.0129725225
98	0x3c7d09f6	0.015444269
99	0x3ac91e2b	0.0015344074
100	0x3d044441	0.032291654
101	0xbab24832	-0.0013601838
102	0xbc9882a0	-0.018616974
103	0xbc918b37	-0.017766578
104	0xbb44808d	-0.0029983849
105	0xbc942a2e	-0.01808652
106	0xba0d9288	-0.0005400558
107	0x3c0d449a	0.008622313
108	0x3c71d24d	0.014759612
109	0x3d2ba444	0.041904703
110	0x3d3315ba	0.043721892
111	0x3d3169d4	0.043313816
112	0x3cc1a662	0.023638908
113	0x3c89374c	0.01675
114	0xbc09c3e1	-0.008408518
115	0xbc083f02	-0.0083158035
116	0xbc746387	-0.014916307
117	0xbb23f0a1	-0.0025015252
118	0x3c007c0c	0.007842075
119	0x3ab4d644	0.0013796766
120	0x3c545b71	0.012961254
121	0xbcfab1e9	-0.030602412
122	0xbd168044	-0.036743417
123	0xbd31dc90	-0.043423235
124	0xbce52d85	-0.027975807
125	0xbc92e5a5	-0.017931769
126	0xbc0d723d	-0.008633194
127	0xbb4ee0da	-0.0031567127
128	0x3c16d4ec	0.009206038
129	0x3d02ac39	0.031902526
130	0x3d477635	0.048696715
131	0x3cf667ad	0.030078733
132	0x3bb64d3c	0.0055634063
133	0x3c4bb28e	0.0124327075
134	0xbaddb974	-0.0016916231
135	0xbc34d657	-0.011037431
136	0xbc3d0afa	-0.011538262
137	0xbc3f7833	-0.011686373
138	0x3bd6b060	0.0065517873
139	0xbc84e1a6	-0.016220879
140	0xbc9ff9a0	-0.01952821
141	0xbd18d009	-0.037307773
142	0xbd1681e7	-0.03674498
143	0xbd00523b	-0.03132842
144	0xbcad3885	-0.021145115
145	0xbba56534	-0.0050474647
146	0xbbeeb119	-0.0072842953
147	0xbb4aba29	-0.0030933714
148	0xbb6491bf	-0.003487691
149	0x3ce22a23	0.027607983
150	0x3d1b7adf	0.037958976
151	0x3cc42cd8	0.023947164
152	0x3a5d92af	0.00084523385
153	0xbc3ce404	-0.011528973
154	0xbc357ed0	-0.011077598
155	0x3b94c0dd	0.0045395927
156	0x3b86142b	0.0040917597
157	0x3c10272b	0.008798401
158	0x3c3e9a44	0.0116334595
159	0xbc9f6eb8	-0.019461975
160	0xbcb07a8e	-0.021542814
161	0xbc655d7a	-0.013999337
162	0xbcfe3f7a	-0.031036127
163	0xbcd608a2	-0.026127163
164	0xbc27d7c4	-0.010244314
165	0xbc995bf6	-0.018720608
166	0xbc52aded	-0.01285885
167	0x3b3ab634	0.002848995
168	0x3b1b119f	0.0023661626
169	0x3d07bf3c	0.03314136
170	0x3d247ad1	0.04015619
171	0x3ce3cb25	0.027806828
172	0xbbb198a0	-0.0054198056
173	0xbb7019aa	-0.003663639
174	0x3b9118dc	0.0044280123
175	0x3b37a6d8	0.002802303
176	0xbaae7615	-0.0013310338
177	0x3c70a49b	0.0146876825
178	0xbb84844e	-0.0040440923
179	0xbca9c649	-0.020724433
180	0x3b935763	0.0044965013
181	0xbc20603d	-0.00978857
182	0xbd0fab4d	-0.035075475
183	0xbc6a87ab	-0.014314572
184	0xbc0757e0	-0.008260697
185	0xbc9591ba	-0.018257964
186	0xbc8f811f	-0.017517624
187	0xbb4b8b85	-0.0031058502
188	0x3b8d74c5	0.0043168985
189	0x3ce382f8	0.027772412
190	0x3b53a4ee	0.003229435
191	0x3c1e1964	0.009649608
192	0xbb8089e1	-0.0039226864
193	0x3bd90a9d	0.0066235797
194	0x3cbac475	0.022798756
195	0x3cb1b094	0.021690644
196	0x3c2b4c76	0.010455241
197	0x3ba7d9f1	0.005122416
198	0x3bfbeca7	0.0076881233
199	0xbc668f95	-0.014072319
200	0x3d684b5d	0.056712497
201	0x3c0fd3e0	0.008778542
202	0xbbcdc2db	-0.006279332
203	0x3bf6c965	0.0075313323
204	0x3bbce827	0.0057649794
205	0xbbb3ce5a	-0.0054872455
206	0xbba3d651	-0.0049999137
207	0x3c9e9952	0.019360218
208	0x3bf7a318	0.007557284
209	0x39b02884	0.00033599522
210	0x3aeae47e	0.0017920879
211	0x3c1d42c9	0.009598442
212	0x3ca69d0b	0.020338556
213	0x3bf554a7	0.007486898
214	0x3c6c406b	0.014419655
215	0xbaa66af6	-0.0012696672
216	0xba466da7	-0.000756944
217	0xbbb8385f	-0.0056219543
218	0x3bbfb837	0.0058508175
219	0xbcb79811	-0.022411378
220	0x3d8555eb	0.06510528
221	0x3c8d82f4	0.017274357
222	0xbbb72a69	-0.0055897725
223	0x3b35d2f0	0.0027744137
224	0x3b5a6959	0.0033326952
225	0xbc62299b	-0.013803865
226	0x3c7b7b5e	0.015349237
227	0x3c513120	0.01276806
228	0xbaf1aedf	-0.0018438956
229	0xbc30ba30	-0.010786578
230	0x3b1c46fd	0.0023846023
231	0x3bda27cf	0.0066575776
232	0x3ce85254	0.02835957
233	0x3c44fca0	0.012023121
234	0x3b8b1f72	0.004245692
235	0x3bdf387c	0.0068121534
236	0x3a93ddf1	0.0011281354
237	0xbc63ecee	-0.013911469
238	0xbbe3cba8	-0.006951768
239	0xbca54099	-0.020172404
240	0x3d853a7c	0.06505296
241	0x3cdc944c	0.026926182
242	0x3bb88a06	0.005631688
243	0x3c6489a4	0.013948832
244	0x3b6fd10c	0.0036593108
245	0xbc015a43	-0.007895055
246	0xb90690fe	-0.0001283325
247	0x3c9eeba2	0.019399468
248	0x3aa7d134	0.0012803436
249	0xbca6ba55	-0.020352522
250	0x3be8b2a5	0.007101374
251	0x3cea0632	0.028567407
252	0x3ca8dd7b	0.020613423
253	0x3c8101aa	0.015747864
254	0x3c5670b2	0.013088392
255	0x3b266602	0.0025390391

encoder.5.bias f4 [10]
0	0x3bef08d8	0.0072947554
1	0xbbbe4e19	-0.00580765
2	0x3c0d884b	0.008638452
3	0x3c3244b5	0.010880639
4	0xbb7b5e90	-0.0038355924
5	0x3c18bc3a	0.00932222
6	0x3b5e2965	0.0033899185
7	0xbae7f363	-0.0017696436
8	0x3b4e371a	0.0031465949
9	0xba8f3a9c	-0.0010927501

decoder.0.weight f4 [6400, 10]
0	0x3d30382d	0.043022323
1	0x3d6d4837	0.057930198
2	0x3d907063	0.07052686
3	0xbd5117ac	-0.051047966
4	0x3e12ca4b	0.14334981
5	0x3d27d138	0.04097101
6	0xbe5277dc	-0.20553535
7	0x3da56afa	0.08077045
8	0xbc4cc43f	-0.012497961
9	0x3e0aef22	0.13567784
10	0x3d15fb82	0.03661681
11	0xbcd2b17e	-0.0257194
12	0xbb79c82d	-0.0038113699
13	0x3d068d4d	0.0328496
14	0xbdfb4453	-0.12268891
15	0xbe1116ba	-0.14168826
16	0xbe5652c0	-0.20930004
17	0x3e0bc894	0.13650733
18	0x3e140c0b	0.14457719
19	0x3ca145c5	0.019686589
20	0xbb8cc5fc	-0.0042960625
21	0x3cd12442	0.025529984
22	0x3d12c630	0.035833538
23	0x3de7032a	0.112799
24	0xbd8d7348	-0.06906754
25	0x3d4829b4	0.048867896
26	0x3e3ac1eb	0.18238036
27	0xbd00642c	-0.03134553
28	0x3e5104db	0.20412008
29	0xbe1a8e9c	-0.15093464
30	0xbb1c078f	-0.0023808216
31	0xbc3d84be	-0.011567293
32	0x3e07237a	0.13197127
33	0xbdc28cb9	-0.09499497
34	0x3cd86814	0.026416816
35	0x3d66c60b	0.056341212
36	0xbcfc3f2a	-0.030791838
37	0x3dca42ee	0.09876047
38	0xba05a198	-0.00050976267
39	0x3e7955dd	0.2434916
40	0xbdfd8f64	-0.12380865
41	0xbdf3b67a	-0.11900039
42	0x3d951c48	0.07280785
43	0x3d9b833b	0.075933896
44	0xbd8e532c	-0.069494575
45	0xbd894f56	-0.06704585
46	0x3c144353	0.0090492545
47	0x3e21bb68	0.15794146
48	0xbda7995d	-0.081835486
49	0x3e2f374a	0.17110935
50	0xbe08da15	-0.13364442
51	0x3e715eaf	0.23571275
52	0xbe8459a7	-0.2584965
53	0x3d0eb9c1	0.034845117
54	0xbcfe4598	-0.031039044
55	0xbc8fd109	-0.01755573
56	0x3cac3bff	0.021024702
57	0x3e144a08	0.14481366
58	0x3cb294ce	0.021799471
59	0xbd9cc3d5	-0.076545395
60	0xbe0c425e	-0.13697192
61	0xbd27f082	-0.04100085
62	0xbdb907be	-0.0903468
63	0xbe22c0f0	-0.15893912
64	0xbde41cec	-0.11138329
65	0x3c9e7c72	0.01934645
66	0xbd504045	-0.050842542
67	0x3e58c0bb	0.21167271
68	0x3da862c9	0.08221967
69	0xbd5c8ca5	-0.053845067
70	0x3d015aa7	0.031580593
71	0xbd47eb9c	-0.04880868
72	0xbd6dd800	-0.05806732
73	0x3e89351c	0.26798332
74	0xbe029ece	-0.12755892
75	0x3d0b6902	0.03403569
76	0x3e7296ff	0.23690413
77	0x3e779de3	0.24181323
78	0x3e126c95	0.14299233
79	0x3e69e3e9	0.22840847
80	0x3c3ef033	0.011653948
81	0xbb59ddf3	-0.0033243864
82	0xbe85d136	-0.26136178
83	0xbc2e5e9b	-0.010642673
84	0x3e4cbbc7	0.19993506
85	0xbe4eaa5d	-0.20182176
86	0xbdcf0486	-0.10108285
87	0x3e10e13b	0.14148419
88	0xbcfb37e5	-0.030666301
89	0x3d065a56	0.032800995
90	0xbe1938ef	-0.14963125
91	0x3e4bea9d	0.19913717
92	0xbe89ae9b	-0.26891026
93	0x3caac5ed	0.020846331
94	0x3e2d698f	0.16934799
95	0xbca165b8	-0.019701824
96	0x3aeffc62	0.0018309469
97	0xbe73e535	-0.23817904
98	0x3e97c4b6	0.29642266
99	0xbe20ceb1	-0.15703847
100	0x3cc9aef5	0.024619559
101	0x3d2022ed	0.039095808
102	0x3d6760fa	0.05648897
103	0xbdf703f1	-0.12061299
104	0xbccd0320	-0.025025904
105	0xbdf2e612	-0.11860289
106	0x3da4d3d3	0.08048215
107	0x3e5f19df	0.21787213
108	0xbe08cc1d	-0.13359113
109	0x3d1adbb3	0.037807178
110	0xbe1a57f2	-0.15072611
111	0x3d0d99db	0.034570556
112	0xb9e755c6	-0.0004412366
113	0x3e3f7cb7	0.18699919
114	0xbdd70025	-0.104980744
115	0x3e612d14	0.21989852
116	0xbdb634f1	-0.088968165
117	0x3d897b9e	0.06713031
118	0x3e5d0988	0.21585667
119	0xbdc73c56	-0.09728305
120	0xbe0caeb9	-0.13738526
121	0x3e7acd06	0.24492273
122	0x3cf6b395	0.030114928
123	0x3e19c970	0.15018249
124	0xbd4798cd	-0.048729707
125	0x3d864986	0.06556992
126	0xbe2d001e	-0.16894576
127	0xbdb407f5	-0.0879058
128	0xbe0a529c	-0.13508075
129	0x3e1eca2a	0.15506807
130	0x3e18a889	0.14908041
131	0xbd4c32ac	-0.049853012
132	0x3ddae8ab	0.10688909
133	0xbe0eef61	-0.13958503
134	0xbd92da4a	-0.071705416
135	0xbdf55fc7	-0.11981159
136	0x3d895514	0.067056805
137	0x3e3c8de9	0.1841351
138	0xbd8842b1	-0.066533454
139	0xbcef9ada	-0.029248644
140	0x3e5f30a9	0.21795906
141	0x3e22f1ba	0.15912524
142	0x3e3f583b	0.18686001
143	0x3de89334	0.11356202
144	0x3e01b8bf	0.12668131
145	0xbe47bc25	-0.19505365
146	0xbe4b96b7	-0.19881712
147	0x3da0df37	0.07855075
148	0xbe2f6823	-0.17129569
149	0xbdd30a52	-0.10304703
150	0x3e575235	0.21027453
151	0x3e1493fc	0.14509577
152	0x3d71d0ec	0.059037134
153	0xbe589162	-0.21149209
154	0x3e582e3f	0.21111391
155	0xbdd1932e	-0.102331504
156	0x3db159e8	0.086597264
157	0xbe9a77c0	-0.30169487
158	0xbdaa16c2	-0.08305122
159	0xbd2514d0	-0.04030305
160	0x3e4040ee	0.18774769
161	0x3dc94a27	0.098285966
162	0xbd80c6e3	-0.06287935
163	0xbd7817fc	-0.06056975
164	0xbe90d99e	-0.2829103
165	0x3e4f7dc5	0.20262821
166	0xbceeb225	-0.02913768
167	0xbdce213a	-0.10064931
168	0x3e04bc7c	0.12962526
169	0x3e09634f	0.1341679
170	0xbe170b55	-0.14750417
171	0x3e1317c8	0.1436454
172	0xbdb49fd7	-0.088195495
173	0x3dfceb72	0.12349595
174	0xbe5b73fc	-0.21430963
175	0x3d7a3e66	0.061094664
176	0x3e474549	0.19460024
177	0xbdf8b035	-0.12142984
178	0x3d84bb43	0.0648103
179	0x3e28098c	0.16409892
180	0xbd71a100	-0.058991432
181	0x3d251166	0.040299796
182	0x3e002ff7	0.12518297
183	0xbdb29e02	-0.08721544
184	0xbdb03728	-0.0860427
185	0xbdb7052a	-0.08936532
186	0xbe0b7fec	-0.13623017
187	0xbd605abd	-0.054774035
188	0xbe4ac9c6	-0.19803533
189	0x3e03bfe3	0.12866168
190	0x3df1c4fe	0.118051514
191	0xbd90ddae	-0.07073532
192	0x3d434b7f	0.04767942
193	0x3e4755ee	0.19466373
194	0x3e64e08a	0.2235128
195	0x3e2efbce	0.17088243
196	0xbe005341	-0.12531759
197	0xbe0c2401	-0.1368561
198	0xbdcd371a	-0.100202754
199	0xbdde4e83	-0.10854819
200	0xbd50156a	-0.050801672
201	0x3df1cfa0	0.118071795
202	0x3d1b88e0	0.03797233
203	0x3ce67e57	0.028136415
204	0xbe35f89c	-0.17770618
205	0xbdb39861	-0.08769298
206	0xbd1c4fb7	-0.03816196
207	0xbcbc29cd	-0.02296915
208	0x3db80b96	0.08986585
209	0x3be16c28	0.0068793483
210	0x3d19c999	0.037545774
211	0x3e19c5b1	0.1501682
212	0x3debda31	0.11516226
213	0x3d2baa73	0.0419106
214	0x3e091227	0.13385831
215	0xbd478573	-0.04871125
216	0x3ddc2ce3	0.10750749
217	0x3e15d1f7	0.14630876
218	0xbe3a9ea3	-0.18224578
219	0x3d92bf6a	0.071654156
220	0xbe00af00	-0.12566757
221	0x3d379453	0.044819187
222	0x3c4cb9f8	0.01249551
223	0xbde6bc25	-0.112663545
224	0xbdbb0ada	-0.09132929
225	0x3df6fbfa	0.120597795
226	0x3d516248	0.05111912
227	0xbdea6a57	-0.11446064
228	0xbdc70ba7	-0.097190194
229	0x3e2e2192	0.17004994
230	0xbd4590ea	-0.048233904
231	0x3d00c721	0.031439904
232	0xbcd6d769	-0.026225762
233	0xbc34ec33	-0.011042642
234	0x3baf0a32	0.0053417915
235	0xbd8fdcbf	-0.07024526
236	0x3db2aeb8	0.08724731
237	0xbe0dc8c5	-0.13846119
238	0x3e661de2	0.22472337
239	0xbd9460d8	-0.07245034
240	0xbe92d6e4	-0.28679574
241	0x3e692e02	0.22771457
242	0xbc43ec28	-0.0119581595
243	0xbdc4510e	-0.095857725
244	0xbe61958b	-0.22029702
245	0xbda63804	-0.08116153
246	0xbe142556	-0.14467368
247	0xbd8d1c88	-0.068902075
248	0xbe0d4d3c	-0.13798994
249	0x3d85dde1	0.06536461
250	0xbc2cece4	-0.010554526
251	0x3d344e10	0.04401976
252	0xbdabe390	-0.083930135
253	0x3e0d52a0	0.1380105
254	0xbcae5705	-0.021281729
255	0xbd35c380	-0.044375896

decoder.0.bias f4 [6400]
0	0x3c88f9ca	0.016720671
1	0x3c6646f3	0.014055002
2	0x3b832cc9	0.0040031415
3	0x3ca97616	0.02068619
4	0x3b9d4841	0.004799873
5	0xba60ca1d	-0.0008575039
6	0xbc3ce0e0	-0.011528224
7	0xbc9a876e	-0.018863406
8	0xbcea3776	-0.028590899
9	0xbd3ba74f	-0.045813855
10	0xbb3c9dab	-0.00287805
11	0x3b0b1319	0.00212211
12	0xbc44a09a	-0.012001181
13	0x3b5127d7	0.0031914616
14	0xbbd2e246	-0.0064356653
15	0x3cc2db96	0.023786347
16	0x3ca5196e	0.020153727
17	0x3c4cc715	0.012498637
18	0x3bd6ee4b	0.0065591685
19	0x3c13396b	0.0089858575
20	0x3c3f27e9	0.01166723
21	0x3c1694fd	0.009190795
22	0x3c5e4c18	0.013567947
23	0x3ba4d2f6	0.0050300313
24	0x3bfe81d0	0.0077669397
25	0xbba80615	-0.005127678
26	0xbbeea585	-0.007282915
27	0xbb52de9b	-0.003217614
28	0xbc0af28b	-0.008480678
29	0xbc967de8	-0.018370584
30	0xbca2d9b3	-0.019879198
31	0xbc1caf9b	-0.009563352
32	0xbb0c6216	-0.0021420768
33	0x3b2d392e	0.0026431787
34	0xbbf7185f	-0.007540747
35	0x3a83c062	0.0010051841
36	0x3b2e58f2	0.0026603309
37	0x3c0d8ebe	0.008639989
38	0xbbaa5991	-0.0051986654
39	0xbb103ca3	-0.0022008799
40	0xb97c9897	-0.00024089437
41	0x3c829ef3	0.015944934
42	0xba667ffb	-0.0008792874
43	0xbc100920	-0.008791238
44	0xbc8f3a76	-0.017483931
45	0xbb039e2d	-0.0020083294
46	0xbcbb4541	-0.022860171
47	0xbcc84ddd	-0.02445119
48	0x3b9e4381	0.0048298244
49	0x3bab23e5	0.005222785
50	0xbbd30c76	-0.0064406944
51	0x3bac7caa	0.0052638846
52	0xbb909005	-0.0044116997
53	0xbc1f8b76	-0.00973784
54	0xbc2609c1	-0.010134161
55	0xbcb9883c	-0.02264797
56	0x3a9d31af	0.0011992956
57	0xba858d5b	-0.0010189222
58	0x3baf9b77	0.005359109
59	0x3b8fb212	0.0043852413
60	0x3b784cbf	0.003788754
61	0x3a62d360	0.0008652713
62	0x39c11870	0.00036830036
63	0xbc894df4	-0.016760804
64	0xbc071af4	-0.008246172
65	0xbc209af6	-0.009802571
66	0xbbec0bd3	-0.007203558
67	0x3cca5f18	0.024703547
68	0x3d1bc2e4	0.03802766
69	0x3ca267fe	0.019824978
70	0xba940b3e	-0.0011294854
71	0x3d023f38	0.03179857
72	0x3bb99d57	0.0056645083
73	0xbba7c9eb	-0.005120506
74	0x3cd00082	0.025390867
75	0xbbc281b8	-0.005935874
76	0x3a4a1672	0.0007709033
77	0x3d087f86	0.03332474
78	0x3cb74fe4	0.022376962
79	0x3c36b715	0.011152049
80	0x3aaee43a	0.0013343163
81	0xbc0ac8d8	-0.008470736
82	0xbb8e562f	-0.00434377
83	0xbb220953	-0.0024724796
84	0xbbb7003a	-0.005584744
85	0x3c820b82	0.015874628
86	0x3c8b5555	0.017008463
87	0x3d4a736e	0.04942649
88	0x3c58bea0	0.013229042
89	0x3de128df	0.10994124
90	0x3d0791bb	0.033097964
91	0x3c81f1ee	0.015862431
92	0x3c79a1d1	0.015236334
93	0xbbe73458	-0.0070558004
94	0x3c95ae03	0.018271452
95	0xbb2d82e1	-0.0026475715
96	0x3be70216	0.007049809
97	0x39f53f76	0.00046777324
98	0x3bf4065f	0.0074470486
99	0x3c010caa	0.0078765545
100	0xbbb311b2	-0.005464756
101	0xbbf32f57	-0.007421415
102	0xbabd515d	-0.0014443804
103	0xbbbb47ed	-0.0057153613
104	0x3cb052c6	0.021523844
105	0x3cb72443	0.022356158
106	0x3d973f86	0.07385163
107	0x3d3cfeb2	0.046141334
108	0x3dc56e1f	0.096401446
109	0x3d2af5fa	0.041738488
110	0x3cccb615	0.024989167
111	0x3c293c2a	0.010329286
112	0x3a8dd364	0.0010820446
113	0x3d0573d6	0.032581173
114	0x3cabb068	0.02095814
115	0xba989681	-0.0011641533
116	0x39c86654	0.00038223213
117	0x3cad7838	0.021175489
118	0x3c81e18e	0.015854623
119	0x3af65585	0.0018793797
120	0x3bc84eca	0.006112908
121	0xbc48e34c	-0.012261223
122	0x3b7c534f	0.0038501804
123	0x3c4ba633	0.012429762
124	0x3aa4ccf6	0.001257329
125	0x3dabef7e	0.08395289
126	0x3da85c09	0.08220679
127	0x3c8cf7b4	0.017207958
128	0x3b044056	0.0020179949
129	0x3ccda2f6	0.02510212
130	0xbb4f5b1e	-0.0031640003
131	0xbbbd75eb	-0.005781879
132	0xbcca7dd3	-0.0247182
133	0xbbc6bb3b	-0.0060648
134	0xbc62a6ee	-0.013833744
135	0x3ac928e1	0.0015347266
136	0x3cdae6b3	0.026721334
137	0x3c04db1d	0.008108881
138	0xbb6595fd	-0.0035032027
139	0xbbc97c63	-0.0061488613
140	0xbb3655d7	-0.002782216
141	0x3c49a158	0.012306534
142	0x398bc103	0.0002665595
143	0x3d066f8e	0.03282123
144	0x3cc6e7e2	0.024280492
145	0x3bc5275e	0.006016656
146	0x3d8e1d65	0.069392
147	0x3d80661c	0.06269476
148	0xbc957047	-0.018242015
149	0x3b19c132	0.00234611
150	0xbbfb67fc	-0.007672308
151	0xbb65d7c7	-0.003507124
152	0xbb664842	-0.0035138284
153	0xbc69d950	-0.014273003
154	0xbbf591cb	-0.0074941865
155	0x3d423819	0.04741678
156	0x3d0bed59	0.0341619
157	0x3c633580	0.013867736
158	0x3cccd716	0.025004905
159	0x3b07d0c1	0.0020723792
160	0xbb7a69fa	-0.003821014
161	0x3c83ea11	0.016102822
162	0x3b278115	0.0025559117
163	0x3cc2a0ed	0.023758376
164	0x3cadb59f	0.021204768
165	0x3c61bb07	0.013777501
166	0x3c338524	0.010957036
167	0xbd09bb7d	-0.03362607
168	0xbd07d00e	-0.0331574
169	0xbd71f924	-0.05907549
170	0xbcbfeafd	-0.02342748
171	0xbd105736	-0.03523942
172	0xbc46777e	-0.01211345
173	0x3c51b15b	0.0127986325
174	0x3d1b39ad	0.0378968
175	0x3cd57c99	0.02606039
176	0x3bf5e9bb	0.0075046695
177	0x3c8dd6c9	0.017314332
178	0x3ca44a79	0.020055043
179	0x3c83bbae	0.016080704
180	0x3c138baa	0.0090054665
181	0x3ca6b20a	0.020348568
182	0x3cab11b7	0.02088247
183	0x3bef10aa	0.0072956877
184	0x3cdd6668	0.02702637
185	0x3c84d4ba	0.016214717
186	0xbc5c5c84	-0.013449792
187	0xbc92627f	-0.017869232
188	0xbcdfd14c	-0.02732148
189	0xbd42d38f	-0.04756504
190	0xbce10897	-0.027469916
191	0xbc1e11e8	-0.009647824
192	0x3b3f30ec	0.0029173447
193	0xba5c31be	-0.0008399746
194	0x3c692739	0.014230543
195	0x3c504ffa	0.01271438
196	0x3c91d143	0.01779998
197	0x3bf513f5	0.0074791857
198	0x3c0f5ddc	0.008750405
199	0x3a52281e	0.0008016842
200	0x3c033b0d	0.008009684
201	0x3c6b35d8	0.014356099
202	0x3ca84936	0.020542722
203	0x3c521898	0.012823246
204	0xbbd47f26	-0.006484884
205	0x3b980933	0.0046397685
206	0xbc276421	-0.010216744
207	0xbcea8390	-0.028627187
208	0xbc390010	-0.011291519
209	0xbbfc799e	-0.0077049276
210	0x3bdf8fcb	0.0068225614
211	0xba35c7ac	-0.00069343555
212	0x3d89e505	0.06733135
213	0xbb96abfb	-0.0045981384
214	0x3d38aa06	0.045084022
215	0x3bdc714d	0.0067273737
216	0xbc218642	-0.00985867
217	0x3bfd2cdc	0.007726295
218	0xbc03462c	-0.008012336
219	0x3b97090d	0.0046092332
220	0x3c0e2aed	0.0086772265
221	0x3c84539d	0.016153151
222	0x3c03a038	0.008033805
223	0x3bd9b27b	0.006643591
224	0x3bbc983f	0.005755454
225	0x3b88cc9c	0.004174782
226	0xbc25235a	-0.010079229
227	0xbc1d5b63	-0.009604308
228	0xbc6b3a24	-0.0143571235
229	0x3b2da48c	0.0026495783
230	0x3d9f3836	0.07774393
231	0x3d94181c	0.07231161
232	0x3d52346e	0.051319532
233	0x3cb0f7b1	0.021602483
234	0x3c78df9c	0.015190031
235	0xbc41bc84	-0.011824731
236	0xbba38f84	-0.0049914736
237	0x3bad0e82	0.0052812705
238	0xbb2473f7	-0.0025093534
239	0x3c13364f	0.008985116
240	0x3c507575	0.012723316
241	0x3c4a232b	0.012337486
242	0x3afa297c	0.001908585
243	0x3c01fc15	0.007933636
244	0x3c28898f	0.010286703
245	0xbaf4b7b9	-0.0018670476
246	0x3cdc6728	0.026904657
247	0x3c34f918	0.011045717
248	0x3ccf65cf	0.0253171
249	0x3d1b441e	0.03790676
250	0x3c93df4b	0.01805081
251	0x3d99cd43	0.07509854
252	0x3acaa37b	0.0015460098
253	0x3b99deb1	0.0046957363
254	0x39eccb87	0.00045165067
255	0xbcd3eba7	-0.025869204

decoder.3.weight f4 [16, 6, 5, 5]
0	0x3d383278	0.044970006
1	0xbca86eb0	-0.020560592
2	0x3c27870a	0.010225067
3	0xbd0583e7	-0.032596495
4	0xbc876fc9	-0.016532796
5	0x3ca48bfe	0.020086285
6	0xbcb5e9c1	-0.02220619
7	0x3c63f9c2	0.013914527
8	0xbdc7b1c7	-0.09750705
9	0xbda65d4c	-0.08123264
10	0x3d6d3f7a	0.057921864
11	0xbc037e59	-0.008025729
12	0xbcb85725	-0.022502491
13	0xbd60f3a9	-0.054919872
14	0xbdac6296	-0.08417241
15	0xbd565f07	-0.05233672
16	0xbd745220	-0.059648633
17	0xbdd154c3	-0.10221245
18	0xbdf760c8	-0.120790064
19	0xbe237527	-0.15962659
20	0xbd9a57df	-0.07536291
21	0xbde5b35a	-0.11215849
22	0xbce3575d	-0.027751619
23	0xbdaf8c54	-0.08571687
24	0xbe0d4e0e	-0.13799307
25	0x3de0367d	0.10947893
26	0x3d25016c	0.04028456
27	0xbd39e53e	-0.045384638
28	0x3d189556	0.037251793
29	0x3c5a08e0	0.01330778
30	0x3bf6668b	0.0075195483
31	0xbb486c0f	-0.0030581986
32	0xbcb7cae3	-0.022435611
33	0xbdc1ab46	-0.09456496
34	0xbcbbb3fb	-0.02291297
35	0xbd913b4b	-0.07091387
36	0xbd4bf319	-0.049792383
37	0xbce2d5dd	-0.027689869
38	0x3cdf7e08	0.027281776
39	0xbd214397	-0.0393711
40	0xbb6c7c28	-0.0036084745
41	0xbd862f2c	-0.06551966
42	0x3d5023bd	0.050815333
43	0xbc97807e	-0.018493887
44	0xbcaaaf69	-0.020835595
45	0xbd1c0d4f	-0.03809863
46	0xbaa79117	-0.0012784329
47	0xbd725105	-0.059159297
48	0xbc210e67	-0.009830094
49	0x3d31e06f	0.043426927
50	0xbd7e308a	-0.06205801
51	0xbd0b06a3	-0.033941876
52	0xbcac900b	-0.021064779
53	0xbca1f5e9	-0.01977058
54	0xbc162e96	-0.00916638
55	0xbd644248	-0.055727273
56	0xba6d2d87	-0.00090476166
57	0xbd8080c2	-0.062745586
58	0xbca48680	-0.020083666
59	0xbd28b18b	-0.041184943
60	0xbd973e1e	-0.07384895
61	0xbd5330e5	-0.0515603
62	0x3d14e92a	0.036355175
63	0xbd280aaa	-0.041025795
64	0xbd71b877	-0.05901381
65	0xbcbf84c9	-0.023378747
66	0xbce4d314	-0.027932681
67	0x3d989cff	0.0745182
68	0xbd8db933	-0.069200896
69	0xbd1328d4	-0.03592761
70	0x3bbfcb49	0.005853091
71	0x3d087853	0.033317875
72	0x3cf50cc9	0.029913323
73	0x3cbff346	0.023431432
74	0xbd1c66c1	-0.03818393
75	0x3b0e75ed	0.002173777
76	0x3cc8f72d	0.024531925
77	0x3d90dfc3	0.07073929
78	0x3d58e784	0.052955166
79	0x3d2368fe	0.03989505
80	0x3d8aab06	0.067709014
81	0x3d9be937	0.076128416
82	0x3e06c955	0.1316274
83	0x3dd7f517	0.10544794
84	0x3ce1c9ca	0.02756204
85	0x3d87020e	0.06592189
86	0x3d9bb251	0.076023705
87	0x3dc29def	0.0950278
88	0x3daad91f	0.08342194
89	0xbc31fc7a	-0.010863418
90	0x3d68279e	0.056678407
91	0x3d2ac0b3	0.04168768
92	0x3d63f4c7	0.05565336
93	0xbad415c8	-0.0016180808
94	0xbcbcff96	-0.023071092
95	0x3ccb1745	0.02479137
96	0x3d1ae9f8	0.037820786
97	0x3d2d0993	0.04224546
98	0xbc295fe5	-0.010337804
99	0xbc7cfcef	-0.015441163
100	0xbbb48798	-0.005509328
101	0x3cad3f79	0.02114843
102	0xbc71ede1	-0.014766187
103	0x3ca4714b	0.020073554
104	0xbd9785a7	-0.07398539
105	0xbc4cdc62	-0.012503715
106	0xbd18e06a	-0.037323393
107	0x3d595833	0.05306263
108	0x3c414ed3	0.011798578
109	0xbd2b6dd3	-0.041852783
110	0x3d56e9bf	0.05246901
111	0xbc7e5f19	-0.015525603
112	0x3bd4ee7b	0.0064981556
113	0x3d9275a6	0.07151346
114	0x3de15344	0.1100221
115	0x3d15de44	0.036588922
116	0x3d979fec	0.074035496
117	0x3dbc164d	0.09183941
118	0x3d1229e7	0.035684492
119	0x3e00b98b	0.12570779
120	0x3d78aa43	0.06070925
121	0x3d34c313	0.04413135
122	0x3df39cce	0.118951425
123	0x3d563920	0.052300572
124	0x3de208a3	0.110368036
125	0xbdbb08e8	-0.09132558
126	0x3ccd760b	0.025080701
127	0xbd3e3eb6	-0.046446525
128	0xbd74484e	-0.059639268
129	0xbd60fce4	-0.054928675
130	0xbd7514dc	-0.059834346
131	0x3a8d5691	0.0010783245
132	0xbc0fffd3	-0.008789021
133	0xbc09e854	-0.008417208
134	0xbd72a3d1	-0.05923826
135	0xbc5f927a	-0.013645763
136	0xbd117155	-0.035508472
137	0xbd9c3234	-0.07626763
138	0xbdbfaebb	-0.09359499
139	0xbc85501a	-0.016273547
140	0xbc86bb99	-0.016446875
141	0xbd0397c9	-0.032127175
142	0x3cda1710	0.026622325
143	0xbd07796f	-0.033074792
144	0xbc9d619d	-0.019211585
145	0xbc303f21	-0.010757239
146	0xbc9da375	-0.019242981
147	0x3da29868	0.079392254
148	0x3c43ba06	0.011946207
149	0x3d5e4c53	0.054272007
150	0x3cf3cb47	0.029760016
151	0x3d7039d0	0.058648884
152	0xb9c4812e	-0.0003748028
153	0x3d933064	0.07186964
154	0x3d0e9ffe	0.03482055
155	0x3a63ec64	0.0008694588
156	0xbcb17263	-0.02166099
157	0x3c41f3fa	0.011837954
158	0x3d60b9e5	0.054864783
159	0xbc6000e6	-0.013672089
160	0x3d19271c	0.037390813
161	0x3d5178cb	0.051140588
162	0x3dcb3616	0.099224254
163	0x3caf184a	0.021373887
164	0x3ceb7029	0.028740006
165	0x3d391730	0.04518813
166	0x3c16c0d8	0.009201251
167	0x3d1a5a2b	0.037683647
168	0x3d01de36	0.031706057
169	0x3c76166b	0.015019993
170	0xbcc91ac3	-0.024548894
171	0x3c6d566f	0.014485939
172	0x3ccd83ff	0.025087355
173	0x3d3387aa	0.04383055
174	0xbc60be86	-0.013717299
175	0x3d3c406d	0.04595988
176	0x39adaf8e	0.0003312793
177	0xbd86896b	-0.06569179
178	0xbcb78acc	-0.02240505
179	0xbd79ddb0	-0.061002433
180	0xbca26dbd	-0.019827718
181	0x3bfa1128	0.0076314397
182	0xbd9992ed	-0.07498727
183	0xbd25536a	-0.040362753
184	0x3d0bcec1	0.034132723
185	0xbd08bb18	-0.03338155
186	0x3c1a3fac	0.009414595
187	0x3c971cad	0.01844629
188	0xbdcb93d0	-0.09940302
189	0xbd10bffb	-0.035339337
190	0xbd46bf23	-0.048522126
191	0xbc385b50	-0.011252239
192	0xbca01885	-0.019542942
193	0xbdb53eae	-0.08849846
194	0xbd813e2e	-0.06310688
195	0xbce27eb1	-0.027648302
196	0xbcb8ec06	-0.022573482
197	0xbe034160	-0.12817907
198	0xbd651f39	-0.05593798
199	0xbd8bea8f	-0.06831848
200	0x3c9e6387	0.019334568
201	0xbd84844d	-0.06470547
202	0x3d0fb369	0.03508321
203	0xbd500d5e	-0.050793998
204	0xbce67689	-0.028132694
205	0xbd0620d1	-0.03274614
206	0xbcc8a635	-0.024493316
207	0x3ce10de6	0.027472448
208	0x3c9ce810	0.019153625
209	0xbd4803c2	-0.04883171
210	0x3d235702	0.0398779
211	0x3da76d22	0.08175112
212	0xba46b1ed	-0.00075796136
213	0x3d4f254b	0.050572675
214	0x3d874bb9	0.0660624
215	0x3d7dd73e	0.06197285
216	0x3c94eeec	0.018180333
217	0xbd3ba7cb	-0.045814317
218	0xbd8d1eb3	-0.06890621
219	0x3bf0b03a	0.0073452266
220	0xbd16c787	-0.036811378
221	0x3d831def	0.06402194
222	0x3d8dfaa8	0.069325745
223	0xbb348f66	-0.0027551292
224	0xbd5a9177	-0.053361382
225	0x3c421dbf	0.011847912
226	0x3cef6fa3	0.029228037
227	0x3c8ed97d	0.01743769
228	0x3c601145	0.013675992
229	0x3d4ffe60	0.0507797
230	0x3ce90331	0.028443905
231	0x3c67efb2	0.014156269
232	0x3d8e1d87	0.06939226
233	0x3cd4ac28	0.025960997
234	0x3d056292	0.032564707
235	0xbb35cbfc	-0.0027739992
236	0x3d046b91	0.032329146
237	0x3dd025a3	0.10163429
238	0x3d391afd	0.045191754
239	0x3d70c962	0.058785804
240	0x3d90d4d3	0.07071843
241	0x3daddd6e	0.084895
242	0x3d9287e2	0.07154824
243	0x3d1783cc	0.036990926
244	0x3d6f6838	0.058449
245	0x3d9b3052	0.07577576
246	0x3d90d3c3	0.0707164
247	0x3da32c84	0.07967475
248	0x3d023007	0.031784084
249	0x3cf4cc1d	0.029882485
250	0xbd2d621a	-0.042329885
251	0xbd9e8b7a	-0.07741447
252	0x3c8cec65	0.017202565
253	0xbc909ca8	-0.017652825
254	0xbc1cceac	-0.009570759
255	0xbd6b3d3e	-0.057431452

decoder.3.bias f4 [6]
0	0xbe9e1c03	-0.30880746
1	0x3e961817	0.29315254
2	0xbea138cf	-0.31488654
3	0xbdfdcb9e	-0.123923525
4	0x3e8d74d5	0.27628198
5	0x3e3816ee	0.17977497

decoder.5.weight f4 [6, 1, 5, 5]
0	0xbe203e5e	-0.15648791
1	0xbe124a03	-0.14286046
2	0xbdf19e4d	-0.117977716
3	0xbdd75d9d	-0.10515902
4	0xbd8002a0	-0.06250501
5	0xbe1d53b4	-0.15363961
6	0xbe3d125a	-0.18464032
7	0xbe05f369	-0.13081135
8	0x3c0d1293	0.0086103855
9	0x3d7224e6	0.05911722
10	0xbd631898	-0.055443376
11	0x3cb28a87	0.02179457
12	0x3ccb4645	0.02481378
13	0x3d830b87	0.06398683
14	0x3e2997d8	0.1656183
15	0x3cc0ec40	0.023550153
16	0x3df0344a	0.11728723
17	0x3e692a30	0.2277
18	0x3e859a35	0.26094213
19	0x3e4753f7	0.19465624
20	0x3d8d5b25	0.0690215
21	0x3e343f2e	0.17602226
22	0x3e456907	0.19278346
23	0x3e5aaff9	0.2135619
24	0x3e0786da	0.13235036
25	0xbe3148eb	-0.17312972
26	0xbe8c15be	-0.27360338
27	0xbe77cd61	-0.2419944
28	0xbe2dc406	-0.16969308
29	0xbceab617	-0.02865128
30	0xbe296aab	-0.16544597
31	0xbe8c167f	-0.27360913
32	0xbeab1fd8	-0.33422732
33	0xbe862d75	-0.26206556
34	0xbd154cd5	-0.036450226
35	0xbda6319f	-0.08114933
36	0xbde6c5f3	-0.112682246
37	0xbe37f003	-0.17962651
38	0xbe2b81a9	-0.1674868
39	0xbbb6628b	-0.0055659465
40	0xbe0885c2	-0.13332275
41	0xbe05e274	-0.13074666
42	0xbe0446ad	-0.12917586
43	0xbdde436d	-0.10852704
44	0x3c7d7987	0.015470869
45	0xbd9a5fa7	-0.075377755
46	0xbdd4c85a	-0.103897765
47	0xbd7f2d05	-0.062298793
48	0xbd0c0099	-0.034180257
49	0x3d5752e8	0.0525693
50	0x3d9299f9	0.07158274
51	0x3e052027	0.13000546
52	0x3e2e422f	0.17017435
53	0x3e06c3bd	0.13160606
54	0x3d3af355	0.045642216
55	0x3dce3786	0.10069184
56	0x3dbcb156	0.09213512
57	0x3e0780fe	0.132328
58	0x3dd5b73f	0.10435342
59	0x3daff33e	0.08591317
60	0x3d62750a	0.0552874
61	0x3cef7008	0.029228225
62	0x3d7fb541	0.062428717
63	0x3db4227e	0.08795641
64	0x3d5509c2	0.05201126
65	0x3d22e28f	0.039766844
66	0x3df4d95f	0.11955523
67	0x3e43344b	0.19062917
68	0x3e15c530	0.14626002
69	0x3dbc8260	0.092045546
70	0x3d172075	0.036896188
71	0x3c922ebf	0.017844556
72	0x3e0490ae	0.12945816
73	0x3e090b28	0.13383162
74	0x3dbe6191	0.09295953
75	0x3ddc24e9	0.107492276
76	0x3d59931f	0.05311882
77	0xbd61d393	-0.055133414
78	0xbd073583	-0.033010017
79	0xbe21b367	-0.15791093
80	0x3e761eb7	0.24035154
81	0x3e402f48	0.18768036
82	0x3c0de2f4	0.008660067
83	0xbd17dacd	-0.0370739
84	0x3d1f5cf3	0.038907003
85	0x3e83a7b5	0.25713888
86	0x3dddcdc3	0.108302616
87	0x3e40ff61	0.1884742
88	0x3d08d88c	0.03340964
89	0xbdc8a054	-0.09796205
90	0x3dba98e4	0.09111193
91	0x3e00d0d2	0.12579659
92	0xbde32d9d	-0.110926844
93	0xbe2f7662	-0.17135003
94	0xbe42224b	-0.18958394
95	0xbe1abbda	-0.15110722
96	0xbdca0c44	-0.09865621
97	0x3afc0b32	0.0019229411
98	0xbe84f649	-0.2596915
99	0xbe9017aa	-0.28143054
100	0xbdafe9e0	-0.0858953
101	0xbe1cf116	-0.15326342
102	0xbdfa8a2d	-0.12233386
103	0xbde08285	-0.109623946
104	0xbd33623e	-0.043794863
105	0xbe6602ce	-0.22462007
106	0xbe5e4168	-0.21704638
107	0xbe71fc31	-0.2363136
108	0xbe559f1a	-0.20861474
109	0xbdb79fed	-0.0896605
110	0xbe8b41ea	-0.27198726
111	0xbe876ae6	-0.26448745
112	0xbe18269a	-0.14858475
113	0xbe0eaed0	-0.13933873
114	0xbe2fa6e7	-0.17153512
115	0xbe4eec37	-0.20207296
116	0xbe8acac2	-0.27107817
117	0xbe755386	-0.23957643
118	0xbe400be9	-0.18754543
119	0xbe1f5473	-0.15559559
120	0xbe625a9d	-0.22104879
121	0xbe800a92	-0.25008065
122	0xbe5c3f41	-0.21508504
123	0xbe7f05d7	-0.24904571
124	0xbe366a76	-0.17814049
125	0x3d516cca	0.05112914
126	0xbd81e37f	-0.063422196
127	0xbe9a835a	-0.30178338
128	0xbe5469ed	-0.20743532
129	0xbdeb375d	-0.11485169
130	0xbc0803da	-0.0083016995
131	0xbe870edc	-0.26378524
132	0xbeca4b2d	-0.3951048
133	0xbe748676	-0.23879418
134	0x3ad17a5c	0.00159819
135	0xbd8214bc	-0.06351611
136	0xbe89c27e	-0.26906198
137	0xbe4aaf3a	-0.19793406
138	0xbdd70b80	-0.1050024
139	0x3dc4d6dc	0.09611294
140	0xbd9bbf1f	-0.07604813
141	0xbda464fd	-0.080270745
142	0xbd24fefb	-0.04028223
143	0x3db51590	0.08842003
144	0x3e0337c0	0.12814236
145	0x3cf05c52	0.029340897
146	0x3c60d2e5	0.013722156
147	0xbb8f2d30	-0.0043694004
148	0x3cdb3aef	0.0267615
149	0xbcd67e0e	-0.026183154
