Autoencoder-on-MNIST-in-Pytorch/Models/model_e15.pt (torch, 561729 bytes, 11 tensors)

encoder.0.weight f4 [6, 1, 5, 5]
-0.25839034 -0.20599148 -0.12528719 -0.22584535 -0.34056836 -0.23002522 -0.3343658 -0.046620205
-0.12969682 -0.19388354 0.13937353 -0.19035734 0.012637942 -0.24839628 -0.21314892 0.14082682
0.020958005 -0.18206836 -0.156707 -0.12135009 0.0063747857 -0.09412162 -0.028199494 -0.3312648
-0.40011105 -0.22654259 -0.321084 -0.2696 -0.30422541 -0.23058638 0.07359682 0.014419167
0.055005305 0.02675662 0.20550698 -0.13582641 0.011434143 0.15055974 -0.023910208 -0.049268786
0.19422509 0.14361788 0.11059335 0.14247993 0.24019028 -0.1102362 -0.15018055 -0.11341907
0.29080814 0.2589466 0.16400382 0.17164873 0.14894055 -0.09261262 -0.12849203 0.18081726
0.07879908 -0.26119992 -0.29012933 -0.39684233 -0.22182442 -0.12814836 -0.36478174 -0.20540579
-0.11993542 -0.052045323 -0.063488305 -0.33847758 0.005424779 -0.16436286 -0.21519727 -0.055805158
-0.2077971 -0.18182062 -0.31440112 -0.19960049 -0.1506441 -0.19079751 0.21808618 -0.012967598
-0.045487657 0.05884276 -0.085043885 0.18546574 0.23012991 0.18209788 0.20114179 -0.17053403
0.21413122 0.23646526 -0.06886311 0.16726516 0.0686309 -0.044329874 0.15403871 0.24070363
0.012653853 0.13709933 0.22357543 0.08369615 -0.017001173 0.20571505 0.027397547 -0.058323216
0.157592 0.044808205 -0.07656079 -0.05345209 0.25066862 0.25466496 -0.12535922 -0.14228825
0.13806866 0.0015239245 0.23802024 0.005105153 -0.029154055 -0.050418273 0.19943209 0.2398232
-0.1697037 -0.30162722 -0.17292842 0.21901144 0.09203679 -0.06522379 0.15824613 0.13414603
-0.13467853 -0.0028966102 -0.06573361 0.22428907 -0.05497426 -0.24486123 -0.16144446 0.07667913
0.17430215 -0.011820855 -0.26890874 -0.2981775 0.25898406 0.25637046 0.18461218 -0.20018207
-0.16380076 0.113686234 -0.028006345 0.064212956 -0.1585397 -0.12903355
00000000: bd4b 84be 6eef 52be 494b 00be 0144 67be
00000010: fa5e aebe bb8b 6bbe fe31 abbe d4f4 3ebd
00000020: 3ecf 04be 6889 46be efb7 0e3e 09ed 42be
00000030: 5f0f 4f3c 985b 7ebe b643 5abe e834 103e
00000040: 1fb0 ab3c 2170 3abe cd77 20be 6586 f8bd
00000050: 94e3 d03b d6c2 c0bd a002 e7bc 8a9b a9be
00000060: 5bdb ccbe c8fa 67be 1f65 a4be 0309 8abe
00000070: 6fc3 9bbe d61e 6cbe eeb9 963d 5f3e 6c3c
00000080: 3e4d 613d b330 db3c 6c70 523e 1416 0bbe
00000090: 4656 3b3c 552c 1a3e 57df c3bc 11ce 49bd
000000a0: f1e2 463e 9110 133e c47e e23d 42e6 113e
000000b0: 71f4 753e 84c3 e1bd eec8 19be 4248 e8bd
000000c0: cee4 943e a694 843e 9ef0 273e afc4 2f3e
000000d0: df83 183e afab bdbd 6a93 03be 2928 393e
000000e0: 6961 a13d ffbb 85be d58b 94be eb2e cbbe
000000f0: f125 63be 5339 03be acc4 babe e555 52be
00000100: b4a0 f5bd 7a2d 55bd 2806 82bd ef4c adbe
00000110: 58c2 b13b bd4e 28be ac5c 5cbe f393 64bd
00000120: c3c8 54be 2f2f 3abe 2ff9 a0be 1264 4cbe
00000130: 7242 1abe 6c60 43be fc51 5f3e 0c76 54bc
00000140: 4451 3abd 1b05 713d 7d2b aebd bbea 3d3e
00000150: 2da7 6b3e de77 3a3e 1df8 4d3e 79a0 2ebe
00000160: 3745 5b3e f323 723e 1a08 8dbd 8f47 2b3e
00000170: 5b8e 8c3d 3e93 35bd 53bc 1d3e 037b 763e
00000180: 1b52 4f3c c463 0c3e f5f0 643e e368 ab3d
00000190: 0b46 8bbc f7a6 523e d270 e03c 53e4 6ebd
000001a0: cc5f 213e cf88 373d e7cb 9cbd 94f0 5abd
000001b0: a357 803e 7263 823e 2b5e 00be 03b4 11be
000001c0: df61 0d3e 6cbe c73a 94bb 733e 2149 a73b
000001d0: 7cd4 eebc 6483 4ebd ed37 4c3e 3794 753e
000001e0: cfc6 2dbe e26e 9abe 2614 31be 8944 603e
000001f0: c97d bc3d 0d94 85bd 460b 223e 945d 093e
00000200: 2be9 09be 0ed5 3dbb 589f 86bd 09ac 653e
00000210: b12c 61bd e7bc 7abe b251 25be f309 9d3d
00000220: 437c 323e 42ac 41bc 68ae 89be b9aa 98be
00000230: 8f99 843e fd42 833e fa0a 3d3e 87fc 4cbe
00000240: 63bb 27be 54d4 e83d 906d e5bc 1582 833d
00000250: 3b58 22be 5f21 04be

encoder.0.bias f4 [6]
0.18223056 0.18143855 0.019568626 0.17304984 -0.026489723 0.1825266
00000000: a69a 3a3e 07cb 393e 624e a03c fa33 313e
00000010: fa00 d9bc 41e8 3a3e

encoder.2.weight f4 [16, 6, 5, 5]
0.044790167 0.032825027 -0.042719387 0.115593 0.030895853 -0.00196381 -0.06284676 -0.06841285
-0.004932827 0.0543788 -0.12785918 -0.16148871 -0.03981096 -0.025253583 -0.027543563 -0.12675792
-0.09798837 -0.15156229 -0.02556054 0.02752974 -0.110947624 -0.11374613 -0.10146581 0.008199792
-0.044410337 0.022859475 -0.015505533 -0.031691916 0.0057630753 0.024109658 0.0022931532 0.09816877
0.020143187 0.0026349695 -0.019607782 0.05410044 0.087512046 0.074438274 -0.04288995 -0.02709279
0.055287402 -0.03172763 -0.03469551 0.06936592 0.12109615 -0.079785615 0.048358604 -0.095131725
-0.058373086 0.023761204 0.04655175 0.03702582 0.0067595267 0.11202447 0.0109297875 -0.042104293
0.043021314 -0.007239916 -0.02286864 0.096478544 -0.1376748 -0.023296952 -0.037064366 0.071641564
0.041445475 -0.16353756 -0.09029726 0.012901168 -0.03045509 0.017406793 -0.12666853 -0.08401867
-0.0425945 -0.055238385 -0.04464509 -0.002396071 0.07726206 -0.053360563 -0.03907603 -0.019295912
0.027189203 0.09274542 0.03210903 0.08481663 0.09982884 0.062317923 0.047034148 -0.025217388
-0.06561977 -0.012478418 0.09674177 0.09429722 0.0062190774 -0.039333615 0.07299915 0.08703105
-0.031469975 0.023534682 -0.054342054 -0.031844907 0.04608516 0.090740636 0.0770415 -0.037087258
-0.053256426 0.0313239 0.0974573 -0.028606188 -0.06847992 0.05317056 0.105791666 0.042872593
-0.056954138 -0.026096044 -0.055753216 0.015783368 0.05451304 -0.05411385 -0.076448716 -0.013344391
0.04382175 -0.010242812 -0.036915924 0.031356458 -0.04116897 0.05720099 -0.051787242 -0.013498102
-0.0150336465 -0.04868904 0.025234198 -0.05612345 0.07952997 0.08293675 0.028366238 0.046234902
0.040411726 0.015932122 -0.022481402 -0.012925621 0.06979209 0.06703844 -0.0085193105 0.03933709
-0.064878 0.018267164 0.03225405 0.020061053 -0.024813518 0.010693434 -0.054016523 0.01717486
-0.047132887 0.0663871 -0.002888233 0.07382191 0.02146075 -0.053178843 0.075231604 0.033275515
-0.049977522 -0.04175162 -0.012636287 0.04987792 0.0012898798 0.0057866396 -0.014816403 -0.07132075
-0.025699338 -0.039061397 -0.048208173 -0.080167174 -0.13135715 -0.14607942 -0.08345855 0.0203206
0.05434698 -0.07020975 -0.036451485 0.0039362567 -0.023096245 0.019076986 0.00038112878 -0.054279763
-0.056076836 -0.0047287177 0.03658524 -0.051030967 -0.0045615067 -0.038998347 0.06704471 0.04855973
-0.019580817 0.040558655 0.076867715 -0.01204338 0.03638715 -0.04969274 0.065826 0.03338682
0.041076083 -0.04955634 -0.047313794 0.057075154 0.067952655 0.03773833 -0.047396187 0.00057245366
0.0339433 -0.008382094 0.05664116 -0.072634734 -0.09138363 -0.07122044 -0.04755261 -0.07001773
-0.040143896 -0.1651391 -0.08948643 0.015940782 -0.018269695 -0.09608489 -0.12101533 -0.0511932
0.059727628 0.0640715 0.08123733 -0.020924116 0.07354581 0.020964896 0.034352437 0.0697565
0.08753399 0.015964383 -0.062052973 -0.0027725026 0.0471925 -0.042108368 0.10019737 0.020040188
0.043486606 0.11545182 0.025037669 0.08162473 0.05101805 0.05085224 0.061563935 -0.054366935
0.07176157 0.08123962 0.0044512954 -0.023332674 0.06383053 -0.058882028 0.041692507 -0.008292376
00000000: e575 373d 8973 063d 86fa 2ebd 06bc ec3d
00000010: 4d19 fd3c 44b3 00bb cdb5 80bd 091c 8cbd
00000020: 8da3 a1bb 4ebc 5e3d 84ed 02be 4c5d 25be
00000030: d110 23bd 9ae0 cebc 0aa3 e1bc d4cc 01be
00000040: 20ae c8bd 2533 1bbe 5664 d1bc 0d86 e13c
00000050: 8238 e3bd bbf3 e8bd 4ecd cfbd 6c58 063c
00000060: 9de7 35bd cb43 bb3c eb0a 7ebc 62cf 01bd
00000070: 2ed8 bc3b 9e81 c53c ba48 163b b50c c93d
00000080: 5303 a53c 74af 2c3b 80a0 a0bc 6c98 5d3d
00000090: 8439 b33d 1873 983d 5fad 2fbd b3f1 ddbc
000000a0: 0b75 623d d5f4 01bd e11c 0ebd b80f 8e3d
000000b0: 4201 f83d a466 a3bd ac13 463d 6cd4 c2bd
000000c0: 9e18 6fbd dba6 c23c 0cad 3e3d 63a8 173d
000000d0: 057f dd3b 166d e53d da12 333c 8d75 2cbd
000000e0: 1e37 303d d13c edbb 0457 bbbc 8b96 c53d
000000f0: 9ffa 0cbe 40d9 bebc ced0 17bd d0b8 923d
00000100: bbc2 293d 6476 27be c5ed b8bd 6c5f 533c
00000110: f47c f9bc b198 8e3c 65b5 01be fb11 acbd
00000120: 9277 2ebd a541 62bd c5dd 36bd 6707 1dbb
00000130: 923b 9e3d 9b90 5abd 300e 20bd 7612 9ebc
00000140: e4bb de3c 50f1 bd3d c284 033d 57b4 ad3d
00000150: 1073 cc3d 1441 7f3d e1a6 403d b294 cebc
00000160: a863 86bd 4772 4cbc 8d20 c63d e71e c13d
00000170: 67c9 cb3b 491c 21bd 9480 953d 563d b23d
00000180: a9e6 00bd cecb c03c c695 5ebd ce6f 02bd
00000190: cbc3 3c3d 3ad6 b93d efc7 9d3d cfe8 17bd
000001a0: 6923 5abd 7d4d 003d b197 c73d 8657 eabc
000001b0: 333f 8cbd 60c9 593d 4da9 d83d 2c9b 2f3d
000001c0: be48 69bd 5fc7 d5bc 7c5d 64bd 1f4c 813c
000001d0: 1149 5f3d 7ca6 5dbd 2591 9cbd 6fa2 5abc
000001e0: 6f7e 333d 78d1 27bc 2735 17bd a16f 003d
000001f0: cba0 28bd 964b 6a3d dc1e 54bd 2527 5dbc
00000200: af4f 76bc 296e 47bd f3b7 ce3c b4e1 65bd
00000210: 9ce0 a23d beda a93d 5060 e83c cf60 3d3d
00000220: c486 253d 1584 823c eb2a b8bc fcc5 53bc
00000230: 28ef 8e3d 734b 893d 9494 0bbc ee1f 213d
00000240: c2de 84bd 05a5 953c d31c 043d 1457 a43c
00000250: b845 cbbc 8333 2f3c 6e40 5dbd 4bb2 8c3c
00000260: 6a0e 41bd f6f5 873d 8248 3dbb f12f 973d
00000270: 74ce af3c 0fd2 59bd 0713 9a3d e84b 083d
00000280: 3bb5 4cbd bf03 2bbd 6e08 4fbc ca4c 4c3d
00000290: 2f11 a93a da9d bd3b 80c0 72bc 9d10 92bd
000002a0: 6b87 d2bc d8fe 1fbd ef75 45bd b02e a4bd
000002b0: 7d82 06be d895 15be 51ec aabd 6377 a63c
000002c0: f09a 5e3d 21ca 8fbd 274e 15bd b7fb 803b
000002d0: 5634 bdbc 5747 9c3c 3dd2 c739 7554 5ebd
000002e0: d3b0 65bd 5cf3 9abb 68da 153d d905 51bd
000002f0: b178 95bb bbbc 1fbd bd4e 893d 91e6 463d
00000300: f367 a0bc d520 263d d26c 9d3d 9951 45bc
00000310: b10a 153d 9d8a 4bbd c8cf 863d 9ec0 083d
00000320: 653f 283d 97fb 4abd 1ccc 41bd a3c7 693d
00000330: c32a 8b3d 8293 1a3d 8122 42bd b710 163a
00000340: 2108 0b3d 0d55 09bc 9000 683d 85c1 94bd
00000350: 5727 bbbd 06dc 91bd 87c6 42bd 7565 8fbd
00000360: ed6d 24bd 391a 29be a944 b7bd 3e96 823c
00000370: 54aa 95bc 28c8 c4bd e3d6 f7bd f6af 51bd
00000380: f5a4 743d eb37 833d c25f a63d 0d69 abbc
00000390: 309f 963d 93be ab3c 24b5 0c3d 7fdc 8e3d
000003a0: 0545 b33d bdc7 823c 422b 7ebd e0b2 35bb
000003b0: ec4c 413d d379 2cbd 4734 cd3d 522b a43c
000003c0: 031f 323d 0172 ec3d cc1b cd3c de2a a73d
000003d0: 4ef8 503d 704a 503d 772a 7c3d ddaf 5ebd
000003e0: bbf7 923d f560 a63d 2cdc 913b 2a24 bfbc
000003f0: 95b9 823d 482e 71bd c3c5 2a3d bfdc 07bc

encoder.2.bias f4 [16]
0.004358138 0.040928587 0.029620212 0.05530818 0.11059469 -0.0013843148 0.060808416 -0.010422754
-2.809854e-37 0.13686411 0.042465627 0.05451383 0.110124685 0.021998739 0.025068669 -0.039325908
00000000: b6ce 8e3b bca4 273d 16a6 f23c d58a 623d
00000010: 787f e23d e671 b5ba 3f12 793d 33c4 2abc
00000020: 903a bf82 1b26 0c3e 70f0 2d3d e549 5f3d
00000030: 0d89 e13d b336 b43c cf5c cd3c 3414 21bd

encoder.5.weight f4 [10, 6400]
-0.00092378043 -0.030571591 -0.027712664 -0.050145674 -0.043028235 -0.023390073 -0.035883997 -0.03408334
-0.0110153835 -0.004809441 -0.016823344 -0.015398185 0.00018541396 0.007556026 -0.0001718787 0.0016291527
0.011429472 0.009697592 -0.00528732 -0.014296198 0.0045977286 -0.029973717 -0.025383597 -0.031579163
-0.038628824 -0.029995842 -0.017081557 -0.01834421 0.012523956 -0.0053254 0.0017691156 -0.00050182553
0.0063851243 0.02912792 0.015559335 0.022736184 0.0066776383 0.0062938184 0.003501464 -0.017331706
0.03157322 0.0123962965 -0.016950509 -0.022698909 -0.017559372 -0.014559232 -0.019984474 -0.0053467657
-0.0017475127 0.014831569 0.015083432 0.013810476 0.020774338 0.012501801 0.014997355 0.0066584894
0.014353746 0.001943478 -0.0038550678 0.0014194439 0.062133033 0.033203017 -0.0056792046 -0.005393386
-0.013093272 -0.016533293 0.0065645045 -0.005034501 0.0046591074 0.0067405156 0.017188339 0.016587904
0.0054109194 0.013052749 0.009730354 0.0056302757 0.0084719 0.011840306 0.008094725 0.003262259
0.059108995 0.030297967 -0.007805996 -0.014935994 -0.010327261 0.0023400038 0.005553448 0.019264126
0.007269058 0.018551853 0.04220019 0.036840823 0.017481346 -0.0004999882 -0.012762239 -0.01977781
0.0024107408 0.012031042 0.01422183 0.00094969256 0.028979266 0.00092252414 -0.01897908 -0.018949054
-0.004743536 -0.014996079 0.0009457922 0.0087053655 0.012259129 0.03694905 0.04074846 0.045242798
0.023639593 0.01334179 -0.009807655 -0.0053001163 -0.013186559 -0.0018056706 0.007147729 0.0010760151
0.010802963 -0.025809232 -0.036333885 -0.042561714 -0.0286086 -0.0144545 -0.0053800857 0.0010514444
0.012838273 0.031260066 0.048214674 0.029968899 0.0037993249 0.012635616 -0.0012403327 -0.0077954056
-0.009856905 -0.009406211 0.005967398 -0.014170648 -0.023372093 -0.037563365 -0.037118074 -0.027384616
-0.01946044 0.000719286 -0.0028404226 0.0017308873 0.00048400435 0.028236795 0.034802772 0.02019773
0.0021145795 -0.008090325 -0.009427527 0.0074900477 0.005123294 0.008734705 0.009767258 -0.015028209
-0.02220588 -0.015735561 -0.029347464 -0.022586247 -0.0062979744 -0.013556835 -0.0092595 0.004703011
0.004293596 0.03248509 0.03525537 0.027145611 -0.0019064705 -0.0021756247 0.0049367202 0.0038551637
-0.0007661852 0.012865334 -0.0070495033 -0.016350945 0.0011311776 -0.0143643 -0.03322188 -0.015156245
-0.0058178785 -0.013869638 -0.016534617 -0.0018227029 0.0060246424 0.024601955 -0.0017529564 0.012179705
0.0015788686 0.008547873 0.020849926 0.019945009 0.010685057 0.0033132245 0.0077536134 -0.0097586345
0.04858815 0.0017559207 -0.0033202395 0.0066899983 0.0070832702 -0.003424083 -0.0063205627 0.017256094
0.0073068053 -0.001733708 0.0014690895 0.012090132 0.02370312 0.00922052 0.01207972 -0.004150232
-0.0022841708 -0.0070206407 0.0072934437 -0.01765508 0.05798769 0.0130218025 -0.0043354407 0.004073383
0.0048400345 -0.01471438 0.012811182 0.011023812 0.0006123658 -0.00831052 0.0027701806 0.0058115176
0.02895255 0.008611722 0.0017963543 0.0066656605 -0.00091121806 -0.01447197 -0.005434822 -0.015143675
0.05898913 0.026521811 0.0059565287 0.016698238 0.0043369667 -0.006983507 0.0020794417 0.021042813
0.004921104 -0.018094145 0.0073855445 0.026485318 0.018685274 0.00940898 0.010108952 0.0012176296
00000000: db29 72ba 4671 fabc ab05 e3bc 8d65 4dbd
00000010: 603e 30bd 8a9c bfbc 19fb 12bd f99a 0bbd
00000020: de79 34bc 8498 9dbb 1cd1 89bc ab48 7cbc
00000030: ae6b 4239 8a98 f73b 563a 34b9 4b89 d53a
00000040: ae42 3b3c a6e2 1e3c 4141 adbb 9a3a 6abc
00000050: 8ba8 963b 718b f5bc 43f1 cfbc 2759 01bd
00000060: 4239 1ebd d7b9 f5bc 9fee 8bbc 9946 96bc
00000070: 4731 4d3c b180 aebb abe1 e73a f18c 03ba
00000080: 4e3a d13b ad9d ee3c 95ec 7e3c 3c41 ba3c
00000090: 17d0 da3b 603c ce3b d178 653b 39fb 8dbc
000000a0: ec52 013d d619 4b3c cbdb 8abc 10f3 b9bc
000000b0: acd8 8fbc d889 6ebc 7bb6 a3bc ec33 afbb
000000c0: cc0c e5ba 1c00 733c 8020 773c 5645 623c
000000d0: f22e aa3c 5bd4 4c3c 77b7 753c 752f da3b
000000e0: f92b 6b3c 4dbc fe3a 4ea5 7cbb a20c ba3a
000000f0: 357f 7e3d e3ff 073d 9f18 babb 00bb b0bb
00000100: 2a85 56bc d470 87bc 0e1b d73b 75f8 a4bb
00000110: 6dab 983b 8bdf dc3b 8fce 8c3c 5be3 873c
00000120: 154e b13b 33db 553c 106c 1f3c 2d7e b83b
00000130: b9cd 0a3c d8fd 413c bd9f 043c a0cb 553b
00000140: 461c 723d 7133 f83c 71c9 ffbb 19b6 74bc
00000150: ac33 29bc c05a 193b b3f9 b53b cdcf 9d3c
00000160: 4731 ee3b 0efa 973c 1bda 2c3d 67e6 163d
00000170: 0a35 8f3c a411 03ba b618 51bc 1305 a2bc
00000180: 85fd 1d3b d91d 453c ae02 693c caf4 783a
00000190: ed65 ed3c 8cd5 713a 047a 9bbc 0c3b 9bbc
000001a0: aa6f 9bbb 1db2 75bc 0aef 773a f3a0 0e3c
000001b0: 84da 483c e357 173d dbe7 263d 8350 393d
000001c0: d2a7 c13c 8697 5a3c 49b0 20bc 99ac adbb
000001d0: 700c 58bc 40ac ecba 7f37 ea3b 1309 8d3a
000001e0: e9fe 303c e26d d3bc d7d2 14bd 3155 2ebd
000001f0: 955c eabc 91d2 6cbc 6e4b b0bb 9fd0 893a
00000200: 9f57 523c 8e0a 003d c07c 453d 5681 f53c
00000210: 18fe 783b 9d05 4f3c a992 a2ba 9a70 ffbb
00000220: db7e 21bc 821c 1abc 2a8a c33b 012c 68bc
00000230: d576 bfbc 0bdc 19bd 1f09 18bd b455 e0bc
00000240: 806b 9fbc 778e 3c3a 6226 3abb f1de e23a
00000250: f7c1 fd39 da50 e73c 5a8d 0e3d b675 a53c
00000260: c294 0a3b 488d 04bc ea75 1abc 136f f53b
00000270: 4ee1 a73b 021c 0f3c d906 203c e138 76bc
00000280: 1be9 b5bc dde7 80bc 186a f0bc cb06 b9bc
00000290: 3d5f cebb 7d1d 5ebc 28b5 17bc b71b 9a3b
000002a0: 4bb1 8c3b 160f 053d ef67 103d 7960 de3c
000002b0: 89e2 f9ba ed94 0ebb 36c4 a13b eaa6 7c3b
000002c0: d2d9 48ba 1fc9 523c 85ff e6bb 6bf2 85bc
000002d0: 0644 943a 3e58 6bbc ab13 08bd e651 78bc
000002e0: e7a3 bebb 7a3d 63bc 9b73 87bc c3e7 eeba
000002f0: 5d6a c53b 0a8a c93c 75c3 e5ba 638d 473c
00000300: 0af2 ce3a 610c 0c3c 77cd aa3c b763 a33c
00000310: 6110 2f3c af22 593b 0612 fe3b aee2 1fbc
00000320: 5e04 473d ec26 e63a 6098 59bb c637 db3b
00000330: c71a e83b 9566 60bb b91c cfbb a75c 8d3c
00000340: ed6d ef3b 963d e3ba 778e c03a b015 463c
00000350: 0c2d c23c aa11 173c 05ea 453c abfe 87bb
00000360: 07b2 15bb 670d e6bb d7fd ee3b 63a1 90bc
00000370: 8084 6d3d 6659 553c 5010 8ebb 037a 853b
00000380: 2799 9e3b 9514 71bc fee5 513c 389d 343c
00000390: 2c87 203a d928 08bc eb8b 353b 8b6e be3b
000003a0: e62d ed3c 2e18 0d3c a673 eb3a 9d6b da3b
000003b0: cfde 6eba d71b 6dbc 9716 b2bb 2d1d 78bc
000003c0: 969e 713d 4544 d93c fc2e c33b beca 883c
000003d0: 1d1d 8e3b e7d5 e4bb 3e47 083b fa61 ac3c
000003e0: 3641 a13b 2c3a 94bc 7002 f23b bdf7 d83c
000003f0: dc11 993c 1f28 1a3c 05a0 253c df98 9f3a

encoder.5.bias f4 [10]
0.007653825 -0.005861289 0.0077678347 0.009723048 -0.004014416 0.010370079 0.0045952215 -0.0016876331
0.0022078392 -0.0020288392
00000000: f0cc fa3b 0e10 c0bb 5289 fe3b 6b4d 1f3c
00000010: 5d8b 83bb 44e7 293c 8393 963b 9233 ddba
00000020: 65b1 103b 46f6 04bb

decoder.0.weight f4 [6400, 10]
0.053897474 0.058609065 0.07569744 -0.049275123 0.16237962 0.04525545 -0.21973482 0.08591204
-0.008539901 0.14829843 0.04299321 -0.02815796 -0.008275198 0.031411834 -0.10606088 -0.14265059
-0.2268516 0.14590797 0.16575703 0.027459051 -0.020878641 0.016483802 0.023903355 0.13975686
-0.06914917 0.06096108 0.19941221 -0.02665726 0.21991006 -0.1633185 0.00813874 -0.014456283
0.15268044 -0.100483835 0.030812545 0.050426107 -0.038746964 0.10363343 -0.00012122857 0.25182587
-0.12347068 -0.119091175 0.07455963 0.09145716 -0.08104458 -0.058276627 -0.0006150623 0.17207041
-0.08057378 0.18123007 -0.12929247 0.24472195 -0.26542562 0.03979104 -0.034197625 -0.027876195
0.02944205 0.1474673 0.02782507 -0.07904905 -0.13229051 -0.029191896 -0.10714522 -0.18638723
-0.12176952 0.03666681 -0.07426099 0.24585673 0.10410017 -0.027330237 0.047113024 -0.039881248
-0.06339629 0.2839475 -0.13664277 0.028598225 0.23953158 0.2449073 0.15027796 0.23358992
0.0039586253 0.0005699907 -0.2619276 0.0070096822 0.20368849 -0.20812018 -0.099264495 0.13904472
-0.028584626 0.038430355 -0.15018006 0.20675726 -0.27664992 0.027008895 0.17284346 -0.023842582
0.006001819 -0.24101007 0.31163985 -0.16629031 0.03379014 0.06661412 0.035452068 -0.12701643
-0.0379148 -0.12611069 0.09435663 0.22979206 -0.14884429 0.038277652 -0.15737376 0.03157615
0.0017927497 0.190416 -0.10736219 0.22237052 -0.09146236 0.06981849 0.2226376 -0.11108141
-0.13397457 0.24538599 0.034062624 0.15363204 -0.0476878 0.06188079 -0.17131957 -0.082564
-0.13957274 0.16841103 0.15080574 -0.05457066 0.1070829 -0.13551302 -0.07174127 -0.12521341
0.06615789 0.19523135 -0.06556914 -0.020612057 0.23617508 0.15895985 0.19266453 0.11245902
0.13432309 -0.20784895 -0.19435325 0.09370516 -0.17532803 -0.11600835 0.2132554 0.15386102
0.06858317 -0.2099852 0.22316343 -0.11521089 0.08732991 -0.31395438 -0.086496145 -0.041001942
0.17995995 0.106674545 -0.06842979 -0.068874516 -0.28591004 0.21305215 -0.024302224 -0.098377116
0.13586621 0.13539383 -0.16319445 0.1409151 -0.09868024 0.11601519 -0.2198625 0.06609947
0.19940224 -0.12392003 0.051565554 0.16684963 -0.05969907 0.042392235 0.14276822 -0.08892144
-0.09028896 -0.094713986 -0.14029455 -0.060116384 -0.2038606 0.14380352 0.124789946 -0.056196246
0.046828087 0.2046524 0.23503006 0.17174882 -0.12325486 -0.15170299 -0.10869988 -0.114095755
-0.049039304 0.11976535 0.038607538 0.019226426 -0.18679237 -0.07998822 -0.04185945 -0.02112782
0.094971396 0.0055578514 0.05881446 0.1582783 0.11246112 0.04934094 0.14702073 -0.049404882
0.10037024 0.1624896 -0.19461252 0.071762726 -0.12536347 0.05040456 0.010411259 -0.11802499
-0.0949138 0.12197665 0.05770801 -0.111766435 -0.097707585 0.16381353 -0.048604216 0.0355648
-0.0318794 -0.017331824 0.005987554 -0.072435975 0.08848156 -0.14995877 0.23022337 -0.07758875
-0.29873052 0.23428877 -0.006448753 -0.10415109 -0.23036681 -0.080774106 -0.1424834 -0.071891904
-0.13966386 0.06140127 0.011031465 0.059279114 -0.11011787 0.14575188 -0.04071465 -0.043898083
00000000: 99c3 5c3d 0f10 703d 4207 9b3d b6d4 49bd
00000010: d846 263e c75d 393d 2a02 61be a7f2 af3d
00000020: f1ea 0bbc 8bdb 173e a619 303d 86ab e6bc
00000030: b294 07bc b2a9 003d 7236 d9bd ff12 12be
00000040: c94b 68be e668 153e 36bc 293e cef1 e03c
00000050: af09 abbc 0a09 873c f8d0 c33c 6c1c 0f3e
00000060: 149e 8dbd 53b2 793d b732 4c3e 5360 dabc
00000070: 1a30 613e f73c 27be 5a58 053c 0cda 6cbc
00000080: 4358 1c3e 78ca cdbd 976a fc3c 9b8b 4e3d
00000090: 23b5 1ebd c43d d43d 183c feb8 52ef 803e
000000a0: 32de fcbd 13e6 f3bd b8b2 983d e44d bb3d
000000b0: b3fa a5bd 79b3 6ebd 223c 21ba 3a33 303e
000000c0: de03 a5bd 6094 393e 3f65 04be 6498 7a3e
000000d0: dee5 87be eefb 223d cf12 0cbd 9e5c e4bc
000000e0: 7430 f13c ab01 173e 67f1 e33c 78e4 a1bd
000000f0: 2a77 07be d823 efbc f46e dbbd 4bdc 3ebe
00000100: 4c62 f9bd f02f 163d 2516 98bd dec1 7b3e
00000110: 7832 d53d a9e3 dfbc 96f9 403d 855a 23bd
00000120: ead5 81bd 9161 913e 15ec 0bbe d346 ea3c
00000130: c447 753e fbc8 7a3e 77e2 193e 3232 6f3e
00000140: 5bb7 813b 6e6b 153a 601b 86be 7ab1 e53b
00000150: b793 503e 751d 55be 2f4b cbbd bd61 0e3e
00000160: 4e2a eabc 2669 1d3d cdc8 19be 2db8 533e
00000170: 0fa5 8dbe c241 dd3c e0fd 303e 8551 c3bc
00000180: e8aa c43b 58cb 76be 428f 9f3e 0248 2abe
00000190: 8867 0a3d fc6c 883d 3036 113d 9810 02be
000001a0: 8d4c 1bbd 2923 01be 0d3e c13d 9c4e 6b3e
000001b0: a36a 18be 07c9 1c3d 9626 21be fe55 013d
000001c0: b3fa ea3a 69fc 423e b5e0 dbbd 19b5 633e
000001d0: 9e50 bbbd fffc 8e3d 1cfb 633e a67e e3bd
000001e0: a130 09be 7746 7b3e 4085 0b3d b851 1d3e
000001f0: 4854 43bd b676 7d3d 666e 2fbe 5017 a9bd
00000200: 28ec 0ebe f173 2c3e d26c 1a3e 7c85 5fbd
00000210: 484e db3d edc3 0abe 16ed 92bd f237 00be
00000220: ca7d 873d baea 473e 1d49 86bd 9eda a8bc
00000230: e1d7 713e 5fc6 223e da49 453e ea50 e63d
00000240: fe8b 093e 5bd6 54be 8a04 47be 7ee8 bf3d
00000250: 3189 33be c995 edbd a05f 5a3e be8d 1d3e
00000260: 5575 8c3d 5c06 57be f484 643e b0f3 ebbd
00000270: 06da b23d a1be a0be e424 b1bd a7f1 27bd
00000280: 6c47 383e 2f78 da3d eb24 8cbd 150e 8dbd
00000290: cd62 92be 582a 5a3e 7515 c7bc f179 c9bd
000002a0: 8320 0b3e aea4 0a3e 721c 27be 0c4c 103e
000002b0: de18 cabd 5f99 ed3d a323 61be 295f 873d
000002c0: 1a30 4c3e c9c9 fdbd 6736 533d a1da 2a3e
000002d0: 0387 74bd 7ba3 2d3d d531 123e 721c b6bd
000002e0: 6be9 b8bd 68f9 c1bd 60a9 0fbe 993c 76bd
000002f0: d5c0 50be 3b41 133e df91 ff3d 092e 66bd
00000300: cfce 3f3d 6690 513e b8ab 703e ecde 2f3e
00000310: 0b6d fcbd 0758 1bbe 0b9e debd 09ab e9bd
00000320: 70dd 48bd 8947 f53d f022 1e3d bd80 9d3c
00000330: 8046 3fbe ddd0 a3bd d174 2bbd 4014 adbc
00000340: 5d80 c23d a31e b63b 6ee7 703d b513 223e
00000350: 0452 e63d ba19 4a3d 9a8c 163e c65c 4abd
00000360: ea8e cd3d ac63 263e 8148 47be 56f8 923d
00000370: 485f 00be 0375 4e3d fc93 2a3c 16b7 f1bd
00000380: 2b62 c2bd e5ce f93d 3c5f 6c3d cde5 e4bd
00000390: ea1a c8bd bcbe 273e 3715 47bd 65ac 113d
000003a0: f993 02bd 78fb 8dbc 3e33 c43b 5059 94bd
000003b0: d235 b53d cb8e 19be adbf 6b3e dae6 9ebd
000003c0: 35f3 98be 65e9 6f3e 1050 d3bb 2b4d d5bd
000003d0: 47e5 6bbe e56c a5bd 2be7 11be 103c 93bd
000003e0: 0b04 0fbe e67f 7b3d 51bd 343c a8ce 723d
000003f0: 7a85 e1bd fb3f 153e 68c4 26bd 7ace 33bd

decoder.0.bias f4 [6400]
0.01645457 0.014504496 0.0007751688 0.022923734 0.010042155 0.0070172274 -0.019819817 -0.022204796
-0.033960793 -0.04882538 -0.0007423963 0.0061647217 -0.005936078 0.0038148905 -0.0134912 0.032465838
0.021053411 0.0008885379 0.009376104 0.009662619 0.0112178 0.010077081 0.014837786 0.004534811
0.016687192 -0.009632213 -7.814818e-05 0.016657112 -0.008510781 -0.024243802 -0.015687782 -0.009680541
-0.0016641599 0.0132635515 -0.011371838 0.008299603 0.001230075 0.0027608408 -0.0099859545 -0.0069098836
-0.0012039873 0.012747111 0.0036683448 -0.0018783336 -0.011571179 0.0030279614 -0.020446189 -0.022662908
0.01258301 0.015961504 -0.0055188295 0.016192125 -0.0018162533 -0.013553516 -0.018005392 -0.03691517
-0.014729406 -0.001955803 0.005545083 0.0031208799 0.0036305366 0.0044016736 0.006476725 -0.015694832
-0.007803543 -0.009590003 -0.005267537 0.020366805 0.028048769 0.025142282 0.001268015 0.036866434
0.003583236 -0.0025468199 0.014934287 -0.010856729 -0.010237296 0.031150358 0.024785286 0.00802651
0.0054355506 -0.0064131445 0.00042986943 0.0008298967 -0.007269514 0.024723846 0.01958053 0.043872684
0.01648364 0.11968521 0.042809866 0.0040164636 0.010354982 -0.0070233284 0.025794374 0.00071947405
0.011675942 -0.0012891882 0.0135295 0.007831546 -0.0061494205 -0.006565301 0.0071785348 -0.004703235
0.01497991 0.024670122 0.070551075 0.025356792 0.08784903 0.036067482 0.021933272 0.015066527
0.003823834 0.035741802 0.01772071 -0.0019526281 0.003301484 0.03341009 0.014903361 0.007925456
0.012790038 -0.015855553 0.0021783502 0.0069053974 0.0032676116 0.08808252 0.07485516 0.016733553
-0.0040074764 0.026665336 -0.0074838744 -0.0068607405 -0.03185525 -0.0009004446 -0.018410372 0.0027079768
0.031340122 0.01388496 -0.0012905548 -0.0054086256 0.0024049392 0.010376147 0.0022097863 0.036096025
0.011639753 0.0057819206 0.070854224 0.072613105 -0.03161242 0.01943503 -0.0074533015 -0.00073152024
0.0022691644 -0.009870601 -0.000506396 0.05169275 0.028867777 0.02113454 0.025905691 0.004903136
-0.007932708 0.0190566 0.006932239 0.015063567 0.013332507 0.02170943 0.007121684 -0.039969616
-0.022508532 -0.05613926 -0.01609283 -0.021256883 -0.011229168 0.017882273 0.031210838 0.016921364
0.0071960026 0.01810091 0.013347043 0.017321547 0.009419394 0.026841294 0.020324154 0.009475107
0.033997905 0.020212138 -0.019297495 -0.010870577 -0.017292941 -0.030508552 -0.016742548 -0.012899255
-0.008430724 -0.011682685 0.007802545 0.020093938 0.027037712 0.0047635115 0.012319736 -0.0006272196
0.0031764847 0.013376368 0.021465274 0.01192933 -0.005363971 -0.0040173996 -0.0073761214 -0.021966077
-0.006018882 0.001441103 -0.00078442437 -0.0019396736 0.0694983 -0.003468358 0.05987079 0.017328912
-0.011633959 0.00953374 -0.0012097349 0.0050715776 0.007461022 0.012131007 0.009796776 0.006428291
0.0073528793 0.008330313 -0.009749938 -0.0044661965 -0.020814989 0.0026189473 0.0763604 0.06710331
0.06347276 0.015198927 0.015658505 -0.011207469 -0.005496294 -0.00035967113 -0.0026217937 0.013916984
0.012765753 0.010462346 0.002005064 0.0066722254 0.01177525 0.00046052213 0.04411579 0.01794187
0.02609768 0.03254833 0.008479497 0.0830713 -0.009198397 -0.0020651561 -9.882692e-05 -0.021025524
00000000: bccb 863c 44a4 6d3c b334 4b3a 8eca bb3c
00000010: da87 243c c5f0 e53b 2b5d a2bc d5e6 b5bc
00000020: 791a 0bbd 1ffd 47bd 5f9d 42ba 6f01 ca3b
00000030: 6e83 c2bb 3e03 7a3b 320a 5dbc e6fa 043d
00000040: 3478 ac3c c5ec 683a 3b9e 193c f64f 1e3c
00000050: ddca 373c 571a 253c 2f1a 733c c098 943b
00000060: 94b3 883c 6ed0 1dbc 7ce3 a3b8 7f74 883c
00000070: ce70 0bbc f09a c6bc aa83 80bc 229b 1ebc
00000080: f11f daba 5e4f 593c f250 3abc 0ffb 073c
00000090: 783a a13a 39ef 343b 219c 23bc 4e6c e2bb
000000a0: 1ccf 9dba 42d9 503c 9d68 703b 6b32 f6ba
000000b0: 0b95 3dbc c370 463b c47e a7bc 90a7 b9bc
000000c0: f828 4e3c b3c1 823c 4cd7 b4bb 59a5 843c
000000d0: 590f eeba 910f 5ebc 0b80 93bc 5c34 17bd
000000e0: 9b53 71bc ee2c 00bb 87b3 b53b ad87 4c3b
000000f0: 4cee 6d3b ea3b 903b b53a d43b 7392 80bc
00000100: ddb4 ffbb 631f 1dbc 4e9b acbb 49d8 a63c
00000110: 88c6 e53c 30f7 cd3c 8633 a63a 4201 173d
00000120: b9d4 6a3b 8ce8 26bb f1ae 743c 6ce0 31bc
00000130: 55ba 27bc 092f ff3c 830a cb3c 9f81 033c
00000140: b41c b23b 5b25 d2bb 1960 e139 6d8d 593a
00000150: 1a35 eebb aa89 ca3c 5967 a03c d8b3 333d
00000160: b308 873c 851d f53d 6659 2f3d 8a9c 833b
00000170: f1a7 293c f323 e6bb b94e d33c 169b 3c3a
00000180: 734c 3f3c faf9 a8ba d6aa 5d3c e24f 003c
00000190: 1481 c9bb bd21 d7bb ea39 eb3b 981d 9abb
000001a0: 4c6e 753c ff18 ca3c 157d 903d 0cb9 cf3c
000001b0: 31ea b33d 7fbb 133d 68ad b33c 98d9 763c
000001c0: 4a99 7a3b ff65 123d 062b 913c 54ef ffba
000001d0: b65d 583b 05d9 083d 3a2d 743c c6d9 013c
000001e0: 4f8d 513c 81e3 81bc a7c2 0e3b ac46 e23b
000001f0: 6d25 563b 9c64 b43d aa4d 993d ce14 893c
00000200: 2651 83bb 4371 da3c 4a3b f5bb 10d0 e0bb
00000210: a77a 02bd d00b 6cba 59d1 96bc 5078 313b
00000220: 805e 003d be7d 633c d527 a9ba d73a b1bb
00000230: 2f9c 1d3b b700 2a3c 10d2 103b 6dd9 133d
00000240: aab4 3e3c 4476 bd3b 051c 913d 2eb6 943d
00000250: 067c 01bd 3636 9f3c d33a f4bb 7ec3 3fba
00000260: 43b6 143b 4db8 21bc a9bf 04ba c7bb 533d
00000270: 1e7c ec3c 5822 ad3c 2c38 d43c 7caa a03b
00000280: 30f8 01bc 961c 9c3c d627 e33b 2ecd 763c
00000290: 9670 5a3c f9d7 b13c 045d e93b 2eb7 23bd
000002a0: d063 b8bc 48f2 65bd 1cd5 83bc ea22 aebc
000002b0: 8bfa 37bc d87d 923c dfad ff3c ac9e 8a3c
000002c0: 72cc eb3b 5c48 943c 8ead 5a3c ebe5 8d3c
000002d0: cd53 1a3c 46e2 db3c d77e a63c 7b3d 1b3c
000002e0: 6341 0b3d ed93 a53c c815 9ebc 811a 32bc
000002f0: eda9 8dbc 12ed f9bc ab27 89bc 6657 53bc
00000300: 0521 0abc bc68 3fbc 7eac ff3b 0b9c a43c
00000310: 317e dd3c 3b17 9c3b b8d8 493c ff6b 24ba
00000320: 922c 503b 8e28 5b3c f1d7 af3c 3d73 433c
00000330: 40c4 afbb 64a4 83bb 64b3 f1bb 34f2 b3bc
00000340: 0b3a c5bb 65e3 bc3a d4a1 4dba a53c feba
00000350: 2055 8e3d 644d 63bb 133b 753d 5df5 8d3c
00000360: 5c9c 3ebc 6733 1c3c f88f 9eba 7a2f a63b
00000370: 977b f43b 22c1 463c a882 203c 6aa4 d23b
00000380: 6cf0 f03b dd7b 083c 34be 1fbc 2c59 92bb
00000390: 3284 aabc a5a2 2b3b d762 9c3d 766d 893d
000003a0: 02fe 813d ec04 793c 4446 803c 889f 37bc
000003b0: 411a b4bb 3e92 bcb9 66d2 2bbb 1004 643c
000003c0: 7327 513c 426a 2b3c 6467 033b afa2 da3b
000003d0: faec 403c 3c72 f139 c2b2 343d d4fa 923c
000003e0: cdca d53c 6651 053d 97ed 0a3c 4921 aa3d
000003f0: e0b4 16bc 9257 07bb 4c41 cfb8 b83d acbc

decoder.3.weight f4 [16, 6, 5, 5]
0.039144468 -0.021262186 0.015562088 -0.03072265 -0.013781867 0.017653145 -0.024179593 0.02190219
-0.091244236 -0.07915822 0.054695696 -0.007224118 -0.016556716 -0.046672594 -0.07695263 -0.051791124
-0.057994705 -0.09161308 -0.11897622 -0.1511457 -0.0773228 -0.10845377 -0.019980952 -0.08183715
-0.13392644 0.107264705 0.042133298 -0.040716294 0.04049739 0.0140200285 0.005250493 -0.0024222573
-0.021312485 -0.09394528 -0.020267917 -0.06896695 -0.0497052 -0.024533102 0.028164644 -0.034319732
0.0013485564 -0.06510231 0.050908815 -0.015299563 -0.028180256 -0.039631084 0.004260419 -0.056763384
-0.011292022 0.04166465 -0.06354559 -0.03580333 -0.020307925 -0.01850611 -0.012662756 -0.05586441
-0.0020648625 -0.06286035 -0.021534564 -0.04013945 -0.07247646 -0.053345814 0.034885786 -0.03862595
-0.05887304 -0.020913804 -0.025353177 0.0750127 -0.0654884 -0.035938866 0.0075866724 0.037800543
0.030102225 0.024498641 -0.040790062 -0.004676785 0.02452811 0.07254882 0.04983539 0.04401741
0.0651576 0.0744184 0.12028066 0.102432504 0.025904989 0.06535627 0.06366225 0.08665505
0.0811333 -0.008419795 0.057449546 0.029553875 0.05225258 -0.0036645012 -0.019143585 0.024539514
0.03759587 0.046762533 -0.0067927362 -0.014973025 -0.0068903808 0.02399921 -0.014300563 0.021857074
-0.074799344 -0.014235901 -0.037542596 0.05481715 0.01022745 -0.04389329 0.05463178 -0.016184105
0.0035258555 0.07316121 0.106562875 0.03635345 0.06951586 0.0853662 0.035214122 0.123030454
0.060525022 0.040098567 0.110999405 0.04696135 0.10272132 -0.089570954 0.02285851 -0.04673202
-0.051155012 -0.05306153 -0.056684613 -0.0029903029 0.0010212391 -0.020848729 -0.068362795 -0.025128987
-0.041709512 -0.06977635 -0.107500255 -0.017789088 -0.01418808 -0.03942093 0.02826106 -0.038176753
-0.019033398 -0.018200254 -0.01540276 0.07873201 0.00510657 0.056889847 0.030189823 0.060828738
-0.0024420358 0.069123395 0.037026428 -0.002826465 -0.023834752 0.010323426 0.05460489 -0.013827443
0.035677608 0.047912907 0.0974801 0.025259836 0.02444469 0.04384051 0.007593849 0.03222217
0.03168832 0.010335501 -0.026175978 0.012957407 0.024783663 0.044775162 -0.012028259 0.04408015
0.000489025 -0.060935494 -0.025804002 -0.060477473 -0.019026143 0.008301761 -0.07626196 -0.040699326
0.033507947 -0.029018568 0.011578216 0.020829525 -0.0954818 -0.034736376 -0.047590133 -0.01115882
-0.017083222 -0.08407566 -0.058923285 -0.024409262 -0.022664951 -0.12570545 -0.048457343 -0.06647375
0.021346949 -0.06262401 0.033440188 -0.050728444 -0.026958128 -0.03306036 -0.026750354 0.030169727
0.01826726 -0.049835376 0.038717017 0.08362426 0.00039607318 0.049747624 0.06460118 0.06462623
0.018887212 -0.04554806 -0.06721594 0.009460227 -0.038505323 0.06622327 0.07230155 -0.0006288803
-0.0515648 0.010999269 0.029540442 0.018243402 0.014596939 0.052230805 0.02966594 0.011561474
0.07135629 0.02258777 0.028678298 -0.007274112 0.029713452 0.1013185 0.040281337 0.05286043
0.068528265 0.08781655 0.06937571 0.033815935 0.059058018 0.073068485 0.06614868 0.073161855
0.029084882 0.034248386 -0.04098858 -0.07700646 0.016147902 -0.01768687 -0.012284231 -0.050592054
00000000: f355 203d 092e aebc 21f8 7e3c 11ae fbbc
00000010: 57cd 61bc 549d 903c 4814 c6bc 396c b33c
00000020: 42de babd b41d a2bd 9808 603d 4bb8 ecbb
00000030: f3a1 87bc c32b 3fbd 5799 9dbd ee22 54bd
00000040: db8b 6dbd a39f bbbd cea9 f3bd f0c5 1abe
00000050: 6b5b 9ebd 031d debd 18af a3bc 3c9a a7bd
00000060: 0324 09be 99ad db3d f793 2c3d 21c6 26bd
00000070: 97e0 253d 43b4 653c 540c ac3b bcbe 1ebb
00000080: 8597 aebc 6266 c0bd e708 a6bc 8b3e 8dbd
00000090: ae97 4bbd a5f9 c8bc 8ab9 e63c d992 0cbd
000000a0: 0bc2 b03a 5c54 85bd c385 503d 05ab 7abc
000000b0: 48da e6bc 3454 22bd fc9a 8b3b b980 68bd
000000c0: 2c02 39bc 8da8 2a3d 3124 82bd 83a6 12bd
000000d0: ce5c a6bc 209a 97bc 7377 4fbc 14d2 64bd
000000e0: a552 07bb edbc 80bd 4169 b0bc 4469 24bd
000000f0: 8a6e 94bd 2481 5abd 66e4 0e3d 3f36 1ebd
00000100: db24 71bd 6d53 abbc 77b1 cfbc 42a0 993d
00000110: c81e 86bd a234 13bd 9f99 f83b bed4 1a3d
00000120: f198 f63c 60b1 c83c 7b13 27bd b73f 99bb
00000130: 2def c83c 7a94 943d 3220 4c3d 9a4b 343d
00000140: 5971 853d ad68 983d b555 f63d 22c8 d13d
00000150: b336 d43c 82d9 853d 5b61 823d 3478 b13d
00000160: 3729 a63d 2ef3 09bc 3750 6b3d f81a f23c
00000170: cd06 563d 2128 70bb 02d3 9cbc 1707 c93c
00000180: 21fe 193d 128a 3f3d 9a95 debb 6b51 75bc
00000190: b4c8 e1bb fe99 c43c e94c 6abc 9b0d b33c
000001a0: 6630 99bd b23d 69bc 44c6 19bd f387 603d
000001b0: 0991 273c 73c9 33bd 93c5 5f3d 8794 84bc
000001c0: 0a12 673b 8bd5 953d a33d da3d 5be7 143d
000001d0: 555e 8e3d 79d4 ae3d af3c 103d 64f7 fb3d
000001e0: 16e9 773d 653e 243d a853 e33d 8b5a 403d
000001f0: 8e5f d23d fa70 b7bd c541 bb3c 136a 3fbd
00000200: eb87 51bd 0c57 59bd 202e 68bd f5f8 43bb
00000210: 19db 853a f4ca aabc cb01 8cbd 4edb cdbc
00000220: 98d7 2abd e7e6 8ebd 1829 dcbd 6cba 91bc
00000230: 1f75 68bc d777 21bd bd83 e73c 3a5f 1cbd
00000240: eeeb 9bbc b318 95bc dc5b 7cbc 403e a13d
00000250: 0455 a73b 5405 693d a650 f73c 8e27 793d
00000260: 900a 20bb 9190 8d3d 06a9 173d 373c 39bb
00000270: 1941 c3bc 9623 293c 61a9 5f3d 808c 62bc
00000280: af22 123d 5340 443d a6a3 c73d b7ed ce3c
00000290: 3b40 c83c 1b92 333d d3d5 f83b 65fb 033d
000002a0: 9dcb 013d 3c56 293c 016f d6bc 4e4b 543c
000002b0: 1c07 cb3c 2966 373d 2d12 45bc 638d 343d
000002c0: ea31 003a 7f97 79bd ea62 d3bc 3ab7 77bd
000002d0: b7dc 9bbc 1c04 083c 3b2f 9cbd 56b4 26bd
000002e0: a13f 093d 59b8 edbc 8fb2 3d3c aea2 aa3c
000002f0: f68b c3bd bb47 0ebd dfed 42bd 7cd3 36bc
00000300: 1df2 8bbc dc2f acbd 8b59 71bd eff5 c7bc
00000310: d9ab b9bc eeb8 00be 357b 46bd 6423 88bd
00000320: ccdf ae3c 0441 80bd 94f8 083d a1c8 4fbd
00000330: 4bd7 dcbc 4d6a 07bd 8f23 dbbc 8126 f73c
00000340: 39a5 953c 2e20 4cbd bc95 1e3d 3243 ab3d
00000350: 0ba8 cf39 2ac4 4b3d a04d 843d c25a 843d
00000360: 5bb9 9a3c 9a90 3abd 83a8 89bd 11ff 1a3c
00000370: c2b7 1dbd 11a0 873d d612 943d 71db 24ba
00000380: 9d35 53bd 4736 343c ccfe f13c 3073 953c
00000390: 0028 6f3c f8ef 553d fc05 f33c 566c 3d3c
000003a0: 3f23 923d fd09 b93c c0ee ea3c ad5b eebb
000003b0: a069 f33c 1380 cf3d 0bfe 243d 2e84 583d
000003c0: 8c58 8c3d 2ad9 b33d da14 8e3d 9482 0a3d
000003d0: d2e6 713d eea4 953d f678 873d e2d5 953d
000003e0: 6b43 ee3c 0948 0c3d a4e3 27bd 90b5 9dbd
000003f0: 9b48 843c 0ee4 90bc cd43 49bc 9d39 4fbd

decoder.3.bias f4 [6]
-0.25313097 0.23783432 -0.25882375 -0.10357254 0.22327565 0.151092
00000000: 629a 81be d78a 733e 8c84 84be d71d d4bd
00000010: 5fa2 643e dcb7 1a3e

decoder.5.weight f4 [6, 1, 5, 5]
-0.15499158 -0.13379583 -0.10711142 -0.10699556 -0.07058791 -0.14207919 -0.1748844 -0.126157
0.015305478 0.06431149 -0.05176357 0.037351582 0.022898545 0.053937916 0.17397222 0.028806323
0.11574991 0.22621728 0.2576275 0.1921979 0.06944444 0.17568779 0.18799634 0.21165869
0.13543847 -0.18202643 -0.27622405 -0.22179057 -0.1518443 -0.01963415 -0.17035836 -0.25703672
-0.31463027 -0.24850857 -0.021237776 -0.08131284 -0.09635743 -0.15906984 -0.15720424 0.0010696352
-0.14006267 -0.12260503 -0.11544594 -0.10589511 0.018499488 -0.08007868 -0.10901751 -0.058218393
-0.037273455 0.055893246 0.073470734 0.13605578 0.17611209 0.13188583 0.0418013 0.11345787
0.08647302 0.13051972 0.100380205 0.09172585 0.057634592 0.015717696 0.05040139 0.07712818
0.04631332 0.03865367 0.12110213 0.19053447 0.13804351 0.0915851 0.03637754 0.0052648685
0.1310812 0.13093844 0.09816755 0.10605229 0.048339833 -0.05838024 -0.030567344 -0.1578116
0.23657562 0.17855513 0.0031357745 -0.034627803 0.05419487 0.251276 0.094713755 0.19149348
0.044602975 -0.08259093 0.08988897 0.12932225 -0.11075481 -0.1578581 -0.17824547 -0.15112388
-0.09239861 0.016824929 -0.24694726 -0.28138345 -0.07023584 -0.15477931 -0.111287355 -0.100598104
-0.035712205 -0.2155567 -0.19515467 -0.22451928 -0.2016536 -0.069637015 -0.2639792 -0.24392878
-0.11562913 -0.11477912 -0.1706603 -0.17487276 -0.24094434 -0.21936576 -0.16246146 -0.13730268
-0.21380559 -0.23167574 -0.19217096 -0.24311759 -0.17837262 0.06182569 -0.038939618 -0.28854877
-0.16886853 -0.11298442 0.015485537 -0.25889006 -0.38339013 -0.2304392 0.013574921 -0.052218877
-0.2671743 -0.1690495 -0.1120241 0.10846329 -0.0887152 -0.06731845 -0.03183236 0.08527679
0.117385484 0.02231409 0.0073435484 -0.009692615 0.017030867 -0.03520191
00000000: 1db6 1ebe c601 09be 3b5d dbbd 7d20 dbbd
00000010: 6590 90bd 357d 11be e514 33be 4d2f 01be
00000020: d4c3 7a3c beb5 833d 0a06 54bd f9fd 183d
00000030: bb95 bb3c 01ee 5c3d c625 323e 3dfb eb3c
00000040: 4a0e ed3d 81a5 673e c0e7 833e 87cf 443e
00000050: e338 8e3d 80e7 333e 1d82 403e 0ebd 583e
00000060: 62b0 0a3e 2365 3abe 3d6d 8dbe 111d 63be
00000070: 127d 1bbe ccd7 a0bc 6c72 2ebe 519a 83be
00000080: 3817 a1be 0879 7ebe d8fa adbc 5987 a6bd
00000090: 0b57 c5bd 34e3 22be 26fa 20be 0033 8c3a
000000a0: 976c 0fbe 5918 fbbd ec6e ecbd 89df d8bd
000000b0: 3d8c 973c 4a00 a4bd 9344 dfbd 6976 6ebd
000000c0: 0dac 18bd 51f0 643d d377 963d 3552 0b3e
000000d0: ba56 343e 140d 073e d737 2b3d 9a5c e83d
000000e0: c418 b13d f6a6 053e 2394 cd3d c3da bb3d
000000f0: 4012 6c3d 66c2 803c b071 4e3d 61f5 9d3d
00000100: 09b3 3d3d 5053 1e3d 6504 f83d 781b 433e
00000110: 475b 0d3e f890 bb3d 9e00 153d eb84 ac3b
00000120: 263a 063e ba14 063e 120c c93d f131 d93d
00000130: fdff 453d 1e20 6fbd 5e68 fabc 5d99 21be
00000140: e140 723e 28d7 363e 9181 4d3b e2d5 0dbd
00000150: 71fb 5d3d 3fa7 803e 49f9 c13d de16 443e
00000160: 9cb1 363d 6f25 a9bd b517 b83d 0d6d 043e
00000170: 6bd3 e2bd 8ea5 21be fb85 36be 38c0 1abe
00000180: 7c3b bdbd 6fd4 893c bedf 7cbe 7e11 90be
00000190: cfd7 8fbd 787e 1ebe a0ea e3bd 6106 cebd
000001a0: f646 12bd e5ba 5cbe a0d6 47be 62e8 65be
000001b0: 487e 4ebe da9d 8ebd 4828 87be 77c8 79be
000001c0: f7ce ecbd 5111 ebbd 93c1 2ebe d811 33be
000001d0: 1dba 76be 6ba1 60be 4c5c 26be 1399 0cbe
000001e0: daef 5abe 683c 6dbe 77c8 44be d1f3 78be
000001f0: 50a7 36be ef3c 7d3d 267f 1fbd aabc 93be
00000200: dfeb 2cbe 6064 e7bd 0db7 7d3c 3d8d 84be
00000210: b64b c4be 41f8 6bbe 5869 5e3c 76e3 55bd
00000220: 12cb 88be 501b 2dbe e46c e5bd 0022 de3d
00000230: 51b0 b5bd 41de 89bd a662 02bd 99a5 ae3d
00000240: cd67 f03d 0acc b63c 26a2 f03b c6cd 1ebc
00000250: 5184 8b3c e12f 10bd
