Autoencoder-on-MNIST-in-Pytorch/Models/model_with_10_to_2_level.pt (torch, 563253 bytes, 15 tensors)

encoder.0.weight f4 [6, 1, 5, 5]
000000 06 34 a1 3e d7 0c b3 3d f4 dc 08 bc 4a f5 e7 bd
       0.31485003 0.087426834 -0.008353461 -0.11326082
000010 ad 68 43 be 93 77 9c 3e 26 a3 80 bd a0 cd 15 be
       -0.190829 0.30559978 -0.06281118 -0.14629221
000020 bf b6 4d be c7 fe b0 3d 80 37 3b 3e 9c 55 27 3e
       -0.20089243 0.08642345 0.1828289 0.16341251
000030 c2 2b 0a 3e b8 d5 fd 3d 8b 49 76 3b 85 15 8e bd
       0.13493255 0.12394279 0.0037580456 -0.06937698
000040 4f 61 78 be 05 bd 70 be 97 cd b4 bc 68 ab ae bd
       -0.2425587 -0.23509605 -0.02207069 -0.08528787
000050 0a 31 41 3b c9 79 a8 be ef b3 be be 48 c4 b9 be
       0.0029478692 -0.32905415 -0.37246653 -0.36282563
000060 68 3e b7 be e9 16 d4 bc 16 ae 7b 3e 8a 30 4c 3b
       -0.357898 -0.02588983 0.24578127 0.0031156861
000070 f9 fa 9b 3d 8f b4 61 3c 27 cc 72 3e cf 17 a6 3e
       0.076162286 0.013775959 0.2371069 0.3244004
000080 49 3c 06 3e 72 85 e6 3d 69 05 85 3d 9f 11 f3 3d
       0.13108934 0.112559214 0.064951725 0.11868595
000090 54 24 80 3e ba 1a 4b 3e f0 da 90 3e c9 f0 ce 3b
       0.25027716 0.19834414 0.28292036 0.006315325
0000a0 c1 14 b1 3c 88 8f b2 3d 41 e1 16 be 0e 06 35 3e
       0.021616342 0.08718783 -0.14734365 0.17678091
0000b0 9a ba ae 3d 53 1b 77 be 53 d4 97 be 5d ab 6f be
       0.08531685 -0.24131517 -0.29654178 -0.23405214
0000c0 5b fc b6 bd 2a 2a 96 3d ed 76 93 3d d5 51 ab 3e
       -0.08934852 0.07332261 0.07200418 0.3346087
0000d0 8e f3 f6 3d 41 d9 64 3e 62 f5 16 be 47 34 93 3e
       0.12058173 0.22348501 -0.14742044 0.28750822
0000e0 d4 a3 9e 3e 2b 47 71 3e 56 33 45 3d 3f 67 30 be
       0.30984366 0.23562305 0.04814466 -0.17226885
0000f0 45 2a 90 3e e4 95 18 3e 2e d8 0b be ef 5c 8c be
       0.2815725 0.14900929 -0.13656685 -0.27414653
000100 fe 2a 86 be a2 71 a6 3e 23 ee 3b 3e 7f 7a 15 3e
       -0.26204675 0.3250857 0.1835256 0.1459751
000110 53 35 de bd b4 1d 30 be 3b 38 57 3e d8 8d 34 3e
       -0.108500145 -0.17198831 0.21017544 0.17632234
000120 f5 06 66 3e 8e 37 70 3e 31 f6 bb bc 05 10 87 3e
       0.22463591 0.23458692 -0.022944542 0.2637941
000130 37 9a ab bc 24 96 73 be 03 85 0b be 74 92 6d bd
       -0.020947559 -0.23787743 -0.13624959 -0.058000997
000140 4f d3 9e 3d 6e 9e f6 bd ee 23 67 be 5c b8 7e be
       0.07755148 -0.12041937 -0.225723 -0.24875015
000150 c4 ef ba be 69 a2 f3 3d 94 52 2f bc 43 1a 65 be
       -0.36511052 0.11896212 -0.0107008405 -0.223733
000160 19 1d 81 be 15 c5 f9 bd 25 d4 36 3e fe 2b 89 bd
       -0.25217512 -0.121957935 0.17854364 -0.06697844
000170 e3 7d ac bd 7c a9 61 be fa 25 6c be fa 0c 36 bd
       -0.084224485 -0.2203731 -0.23061362 -0.04444597
000180 2e 7a 98 be d0 09 a6 be 89 ec 37 be 63 e8 ab be
       -0.29780716 -0.3242936 -0.17961325 -0.33575734
000190 7e 2f 12 bd e6 9f c4 3d 98 33 19 3e f4 22 02 3d
       -0.035689823 0.09600811 0.14961088 0.031771615
0001a0 31 87 ee 3c 97 d3 da bc 4c 71 5c bd e4 f6 33 3e
       0.029117199 -0.026712222 -0.053818986 0.1757465
0001b0 44 48 e9 3d a0 96 c8 bd be c8 2b 3e 76 54 80 bd
       0.11390737 -0.097943544 0.16775796 -0.0626611
0001c0 37 52 18 3e 7a 08 8b 3e d6 f0 08 bd f7 be 57 3d
       0.14875112 0.27154905 -0.033432804 0.052672353
0001d0 44 22 81 3e 5f ab 85 3e 0c f4 83 3c e1 ed 54 bd
       0.25221455 0.26107308 0.016107582 -0.05198467
0001e0 6b e7 b1 3d c6 d6 18 3e a0 ce 74 3e a5 34 20 3e
       0.086867176 0.1492568 0.23906946 0.15645082
0001f0 f3 76 28 3e a6 69 3d 3e e7 81 a5 3e 97 9d 2e 3d
       0.16451626 0.18497333 0.3232567 0.042630758
000200 4f ad 0a 3e 00 34 1c 3e 35 0e 82 3e 9a 4a 91 3e
       0.13542674 0.15254211 0.25401464 0.2837723
000210 6a 7e ab 3c a7 86 37 3e e1 46 1c be 36 40 32 3e
       0.020934302 0.1792246 -0.15261413 0.17407307
000220 42 88 91 3e 32 63 6d 3e e9 21 2d be 2a 1e b0 bc
       0.2842427 0.23182371 -0.16907467 -0.021498758
000230 3f 4b aa bd e3 d1 a4 3d 2e 54 b3 bd 36 8e 36 bd
       -0.08315133 0.08047845 -0.087562904 -0.044569217
000240 79 f5 0b 3d a0 41 49 3e 50 da 45 bc 95 f3 2c 3e
       0.034169648 0.1965394 -0.012075976 0.16889794
000250 67 e9 bd 3d 6a 4a c2 bd
       0.092730336 -0.094868496

encoder.0.bias f4 [6]
000000 ea e4 99 3e 79 b2 c5 3c de e5 ee 3d 2c 6e 72 3e
       0.3005746 0.024132954 0.116649374 0.2367484
000010 a4 cd 06 bc 2a 97 82 3e
       -0.0082277395 0.25505954

encoder.2.weight f4 [16, 6, 5, 5]
000000 09 6d 01 3d 7e 6e b8 3d 4b cf 07 3d 62 d6 b2 3c
       0.031598125 0.0900545 0.033156674 0.021830741
000010 ba 75 03 be 70 48 0d be 3b a9 d1 bc da f9 9c bb
       -0.12837878 -0.13797164 -0.02559339 -0.004790527
000020 98 55 0c bd ea d5 72 bd 0b d5 84 3b 64 47 20 bd
       -0.034261316 -0.059286036 0.004053717 -0.039130583
000030 27 fe a7 3d 52 f3 62 bb 86 b7 84 bd e3 53 d4 bd
       0.082027726 -0.0034629893 -0.06480317 -0.103675626
000040 ae da 82 3d d9 49 ca 3d bf 3f 84 3d d5 e4 81 bd
       0.06389366 0.098773666 0.06457471 -0.06342474
000050 30 ab 0e be 88 6d 25 bd 78 0b 98 3d 8b 3c 15 3c
       -0.1393249 -0.04038766 0.074240625 0.009108673
000060 49 d8 02 be e1 e8 76 bd e8 53 46 bd d7 67 2a bd
       -0.12777819 -0.060280684 -0.048419863 -0.041602936
000070 be d3 09 be 70 ed 7a bd f4 80 22 39 78 c2 8d 3c
       -0.1345968 -0.061261594 0.00015497563 0.017304644
000080 b2 90 b1 bd 4e ed 4b bc 5c 33 37 3c 7b ca 55 3d
       -0.086701766 -0.012446715 0.011181679 0.052195054
000090 3c 79 e7 3d 43 e6 45 3d 51 00 28 bc 18 c4 a7 3d
       0.113024205 0.048315298 -0.010253982 0.08191699
0000a0 63 c7 d0 3d 40 79 06 3e f7 d2 1c 3d 23 15 87 3c
       0.1019428 0.1313219 0.03828713 0.016489571
0000b0 4f 74 c1 bc 8c 16 d9 bc 9f cd 9b 3c 3c ef 9b 3d
       -0.02361503 -0.026500009 0.019018946 0.0761399
0000c0 f9 e4 6c 3d b6 0e a2 3b 9f 1e c6 3d 1a 89 fd 3d
       0.057835553 0.0049456013 0.09673809 0.12379666
0000d0 90 ac 81 3b 51 86 10 be 6d 27 3c be b6 ee c0 3d
       0.0039573386 -0.14113738 -0.18374415 0.094205305
0000e0 ac bb 9c 3d 6d b7 2a 3d 98 df 20 be 89 e1 f9 bd
       0.07652983 0.041678835 -0.15710294 -0.122012205
0000f0 cb 27 49 3d 56 08 1b 3d e1 ad 43 3c ca 32 cb 3a
       0.049110215 0.037849747 0.011943311 0.0015502807
000100 72 d6 e7 bd 1c 41 5f 3d 4d ab 5a 3d ab ac 85 3d
       -0.11320199 0.054505453 0.05338602 0.065270744
000110 71 23 86 3c 40 28 54 bc 3b 73 48 3c 75 28 b5 3d
       0.016374322 -0.0129490495 0.012234504 0.08845607
000120 3f 61 bc bc e1 98 19 bd 86 11 80 bd 75 dd a8 bd
       -0.02299559 -0.037499312 -0.06253342 -0.082453646
000130 c3 d5 99 3b 8d 9c 65 3d 37 a6 71 3d d1 4d b4 bd
       0.004694672 0.0560575 0.058996405 -0.08803905
000140 32 e3 09 bd 27 fb 3b 3d bd 37 82 bb 3f cd 8a bd
       -0.033663936 0.045893814 -0.0039739297 -0.06777429
000150 09 7f 4b be bd e2 a6 bd b5 d0 11 39 f2 c6 6b 3c
       -0.19872679 -0.08148716 0.00013906027 0.014390694
000160 e3 e4 d6 bd c3 d3 76 be 5c cf 2a be cf c2 ad bd
       -0.104928754 -0.24104218 -0.16680664 -0.084844224
000170 0f 17 e5 3c b7 97 2d bd 82 8b 2f be 69 31 55 be
       0.027965097 -0.042381015 -0.17143062 -0.2081963
000180 46 8a ca bc fd e6 12 3b 59 b0 10 bd 12 4f 2b be
       -0.024724137 0.0022415512 -0.03532443 -0.16729382
000190 56 0c 59 3d 48 a9 ad 3d 57 6d af bc 95 50 85 bb
       0.05299028 0.084795535 -0.021414442 -0.004068444
0001a0 58 a1 a3 3c ec 2c a5 3d 97 4d 70 3d d8 ac 4a 3a
       0.019974396 0.08065209 0.058667745 0.0007731444
0001b0 9f 5e 1c bd 43 88 8c 3d 46 f3 f8 3d d7 13 ab 3c
       -0.038176175 0.06861927 0.12155776 0.020883484
0001c0 0a 06 ed 3c 2e 62 8c bc 8c 54 8d 3d f9 0a 3a 3d
       0.028933544 -0.01713666 0.06900892 0.04542062
0001d0 d3 8a 97 3d c6 58 75 bd 7f cf 45 bd af 16 83 bc
       0.073995255 -0.059899114 -0.048293587 -0.016002027
0001e0 7c dd 0e 3d 3a 41 18 3d 7b 66 44 bd b8 16 0d 3d
       0.034879193 0.03717158 -0.047949295 0.034445494
0001f0 80 aa 05 3d 28 66 ca 3d 19 07 ba 3d 2d 92 fc 3c
       0.032633305 0.09882766 0.09083385 0.03083142
000200 f5 af 15 be 76 a3 f2 bd 91 31 a7 3b 71 cb 80 3d
       -0.14617904 -0.11847584 0.0051023443 0.06288803
000210 46 51 7c 3d 36 e8 a2 bd af cb 3f bc b2 72 91 bc
       0.061600946 -0.07954447 -0.011706277 -0.017754886
000220 77 fa c3 3d c5 a6 46 ba 3b 16 ff bc fa 73 ef 3c
       0.09569257 -0.0007577951 -0.03113853 0.029230107
000230 2c 93 65 3c e6 4e ba 3d 86 d2 e6 3d 65 a0 8f 3d
       0.014012139 0.0909708 0.11270623 0.07013015
000240 60 ab e0 3c 4c b1 f3 3c b3 29 14 bc 76 c2 93 bc
       0.027425468 0.029747628 -0.009043145 -0.018037062
000250 cb 5b e8 3c 36 7a 03 3d 32 17 12 be 2f 65 cd bd
       0.028364083 0.03209897 -0.14266661 -0.10029065
000260 53 57 e1 3c ec ed 9d 3c 1a e4 fe 3d 62 33 18 be
       0.02750746 0.019278489 0.12445851 -0.14863351
000270 08 99 00 be 48 4e 00 3d 96 db b2 3d 35 b5 65 3d
       -0.12558377 0.031324655 0.08733289 0.056081016
000280 57 a3 00 be b8 c7 96 bd cd 1c df bc b2 b0 4b bc
       -0.12562309 -0.07362312 -0.027235413 -0.012432264
000290 08 77 64 bc 40 1b 04 be d5 b8 f5 bd a5 91 8f 3c
       -0.013944395 -0.1290102 -0.119981445 0.017525503
0002a0 03 81 54 3d 61 f5 11 bd d2 21 34 bd 1e 84 cf bc
       0.051880848 -0.035634402 -0.043977566 -0.025331553
0002b0 c4 28 80 3d 12 61 45 3d 8d ee c7 bc 02 3b 9e bd
       0.062577754 0.048188277 -0.024405742 -0.077260986
0002c0 86 d2 63 bd ee 9d 81 bd 1f 00 a0 bd a1 62 80 bd
       -0.055620693 -0.06328951 -0.07812523 -0.06268812
0002d0 61 7f d0 bd bf 9e f7 bd 76 cb 34 bd d5 97 53 bd
       -0.101805456 -0.12090825 -0.044139348 -0.05165847
0002e0 50 d0 dd bc 6d 0c bb bd f1 b3 d5 bb cb 37 dd 3c
       -0.02707687 -0.091332294 -0.006521695 0.027004143
0002f0 d8 1f 61 bd a0 ee 8d bd e2 6f 63 bd c0 5e 48 3d
       -0.05496201 -0.0693028 -0.05552662 0.048918486
000300 74 1c 28 3d 07 fd 20 bd 2f 94 a8 bc 0b 02 51 3c
       0.04104276 -0.039303806 -0.020578472 0.012756835
000310 30 68 9d 3d 31 12 bc 3c 51 5d ae 3c ba 43 3c bb
       0.07685888 0.022957893 0.021284731 -0.0028726892
000320 15 6d 88 bd 08 cb 25 3c 20 c1 a6 3d 3e 99 2d 3c
       -0.06661431 0.010119207 0.081423044 0.010595618
000330 d4 1c 65 3d 67 5c 1c bd aa 46 04 3d 52 a1 ef 3c
       0.055935696 -0.03817406 0.032293953 0.029251728
000340 21 f5 cd 3d 0a 46 53 3d c6 74 87 bd 9a f6 00 bd
       0.1005652 0.051580466 -0.0661407 -0.031485178
000350 70 e5 c8 3d 3a c2 ff 3d e8 c0 84 3d 18 94 30 3c
       0.09809387 0.12488218 0.064821064 0.010777496
000360 0e 7c b7 3d 93 7f a2 3d 57 5b 7e bc ee 4e 49 bd
       0.089592084 0.07934489 -0.015524707 -0.04914754
000370 29 4c d5 3a 94 86 b2 bc 75 94 cc bd 79 6d 93 bd
       0.0016273308 -0.021792687 -0.099892534 -0.071986146
000380 c6 16 02 be 44 26 d9 bd 42 64 61 bd 1a ed bd 3d
       -0.12704 -0.10603002 -0.055027254 0.09273739
000390 67 a0 e0 3c 39 08 66 3d c6 80 cd bd 38 56 32 bd
       0.027420236 0.056160185 -0.10034327 -0.043539256
0003a0 ae 2e 90 3d a8 02 d3 3d 86 df 0b 3d d5 b7 f9 bd
       0.070401534 0.10303241 0.034148715 -0.12193266
0003b0 97 8c 75 bd a9 6e 05 3d 26 c6 b1 3d 75 af 90 3c
       -0.05994853 0.032576237 0.08680372 0.01766179
0003c0 48 7d 3f be 14 ad d5 bd 9e 1d d7 3c 0d b8 80 3d
       -0.18700135 -0.10433403 0.02625924 0.06285105
0003d0 99 d6 bd bc 69 ce 32 be 2d d1 ea bd ee 7f fe 3c
       -0.023173617 -0.17461552 -0.11465678 0.031066861
0003e0 9d 2e 57 bc b1 09 2b bc 3a b5 76 bd 23 b9 05 bb
       -0.013133672 -0.010439322 -0.060231425 -0.002040454
0003f0 9a e1 83 3c 06 2b 20 3d 45 0f 89 3c 1c 2c 4d 3d
       0.016098786 0.03910353 0.016730914 0.050090894

encoder.2.bias f4 [16]
000000 3e b6 1f 3d c2 b1 49 bd 1d bd 22 bd 5e 5c fc bc
       0.03899216 -0.04924179 -0.039731134 -0.030805763
000010 cb c2 3d bc 33 d7 3a bd f9 60 c4 bc 3b ce 68 3d
       -0.011582087 -0.045615386 -0.023972021 0.0568373
000020 82 5b 02 3d ee 3e 82 bd 3d 6a a0 3d 5e 32 35 bd
       0.03182555 -0.06359659 0.07832763 -0.044237487
000030 84 f8 22 3d cc 0c bc bd db c8 1b bd 48 b5 aa 3b
       0.039787784 -0.09182128 -0.038033348 0.0052095987

encoder.5.weight f4 [10, 6400]
000000 7b 86 62 3a a8 db b9 3b cc ec d5 3b 0d 24 54 bb
       0.0008641255 0.005671937 0.0065284725 -0.003237012
000010 ed 7b af bb 72 48 5b 3b 85 a0 ab 3c d6 bc 67 3c
       -0.0053553493 0.0033459929 0.020950565 0.014144143
000020 68 be 1f 3c 01 44 a8 3c 1c d9 83 3c c9 c4 b7 3c
       0.009749986 0.02054024 0.016094737 0.022432702
000030 4d 74 23 3d 99 ae 01 3d 3d d9 89 3c af 73 9e 38
       0.039905835 0.03166065 0.01682722 7.555575e-05
000040 4e ed fb bc e1 b0 47 bd 79 e3 12 bc a5 f0 11 bc
       -0.030752804 -0.04875267 -0.0089653665 -0.008907472
000050 e7 36 cc b9 cd bd 06 3b c9 9f 87 bb 6f 40 d1 bc
       -0.00038950818 0.0020559907 -0.004138921 -0.02554342
000060 01 8b e6 bc ff c3 98 bc cf d6 41 3a af d9 27 bb
       -0.028142454 -0.018648146 0.00073943747 -0.0025611927
000070 6e 25 8c bb 42 29 a0 ba 05 74 c3 ba 55 f0 9e 3c
       -0.004276923 -0.0012219327 -0.0014911896 0.019401709
000080 8a 1e f7 3c 91 b0 c2 3c 8f ed 8c 3c d6 19 27 3c
       0.03016593 0.023765834 0.01720312 0.010199031
000090 3d e5 9f bc 8f 3c 3b bd ee 3b e5 bc 52 ea 30 bd
       -0.019518489 -0.04571205 -0.027982678 -0.043192215
0000a0 a6 21 32 b9 30 06 3a 3a 4d f8 49 bb f0 0a cd bc
       -0.00016987938 0.0007096259 -0.0030818165 -0.02502963
0000b0 95 49 0c bd 85 44 f1 bc 9b eb a0 bc bf fb ab bc
       -0.03424986 -0.029451618 -0.019643595 -0.020994065
0000c0 06 76 93 bb 71 9f 60 bc f1 14 0b bc c6 7f 37 3b
       -0.0045001535 -0.013709889 -0.00848888 0.0027999743
0000d0 19 e6 b1 3c 37 11 0c 3c 8c bf 4e bc 8c cd 2e bc
       0.021716164 0.008549026 -0.0126189105 -0.010669123
0000e0 f5 fc bd bc dd 41 bf bc 0d 8d d0 bc 10 2b 80 bc
       -0.023191908 -0.023346836 -0.025457883 -0.015645534
0000f0 17 29 a2 3a 5e 9a b9 bb ed fc 9b bc c3 ab dc bc
       0.0012371865 -0.005664154 -0.019041503 -0.026937371
000100 14 de 0b bd c8 00 a5 bc ee 69 59 bc b3 43 4d bc
       -0.034147337 -0.020141974 -0.0132698845 -0.012528348
000110 24 73 3b 3b 59 16 76 bc bd 53 45 bc 15 34 53 bb
       0.0028602565 -0.0150199765 -0.012043891 -0.0032227088
000120 61 91 f5 3b ad 40 08 3c df b5 8d bb 31 a4 94 bc
       0.007494137 0.008316201 -0.0043246592 -0.018144699
000130 23 2b b9 bc eb 1f 82 bc c4 6a 4e bb 11 11 6d 3c
       -0.022603577 -0.01588436 -0.0031496743 0.014469401
000140 2f ed f7 3b 72 76 c8 bb bc 14 45 bc ed da a6 bc
       0.0075661163 -0.0061176354 -0.012028869 -0.020368064
000150 3d eb dd bc d0 de 59 bb 35 7e b1 bb 88 72 47 bc
       -0.02708971 -0.003324438 -0.0054166564 -0.0121733025
000160 f4 f7 f9 bb aa 3d b7 bc b4 20 53 bc ad 00 0b bc
       -0.0076284353 -0.02236827 -0.012886215 -0.008484048
000170 59 2c 2a 3b bb 11 7a 3c 8e ab 25 bb d6 ab 63 bc
       0.0025966375 0.015263016 -0.0025279257 -0.013895949
000180 98 e0 63 bc e7 51 62 bc 2d 86 2d ba 2a 5e 9d 3c
       -0.013908528 -0.013813472 -0.000661942 0.01920994
000190 0b b1 bb 3c ee 4a 8b 3c 03 ab c1 3b dc d7 04 bc
       0.02291157 0.017003503 0.0059102788 -0.0081081055
0001a0 5a 53 85 bb 49 7e ad 3b 6f a7 6a 3c ed 7c a3 b9
       -0.004068774 0.0052945954 0.014322146 -0.0003118286
0001b0 db 2f 8d bc 19 5f 8d bc 3c c5 69 bb df 76 0a 3c
       -0.017234733 -0.01725726 -0.003567054 0.008451193
0001c0 cb ec 9a 3c 03 f0 0a bc 99 4d 0d bc cc c1 a9 bc
       0.01891174 -0.008480075 -0.008624458 -0.020722292
0001d0 2b 14 c4 bb 57 8c c1 ba 0b ea b9 bb b6 74 f3 3c
       -0.0059838495 -0.0014766556 -0.005673652 0.029718738
0001e0 d0 72 81 3c 92 3d ce 3c 0e 0b 1a 3a 5f f8 89 bb
       0.015801817 0.025175843 0.0005876281 -0.0042105163
0001f0 46 b8 71 3c a9 c1 e1 3c f5 f9 93 3c dc e0 cb 3a
       0.014753407 0.027558165 0.018063525 0.0015554684
000200 dd be a0 3b 9a de d3 3b a2 d4 27 3b 0c 70 48 3c
       0.004905565 0.006465745 0.0025608917 0.012233745
000210 00 4c cf 3b a4 06 a2 bc 87 dc d5 bc 07 a0 f7 3a
       0.0063261986 -0.019778557 -0.026106132 0.0018892296
000220 55 17 16 bc f3 37 ba bb 19 03 83 bc 73 7e 2c 3c
       -0.009160836 -0.005682939 -0.015992688 0.010528195
000230 ab f9 eb 3b e2 dc 66 3c 51 13 a4 3b 0d 9f 3e bb
       0.0072013936 0.0140907485 0.0050071855 -0.00290865
000240 59 4c c9 3c 10 0a ca 3c 4e 3f 93 3c 41 db ac bb
       0.024572538 0.024663001 0.017974522 -0.0052751605
000250 3b c6 1a bc 89 8a 01 bc 52 b5 d5 bc 9b 24 5c bc
       -0.009446676 -0.0079065645 -0.026087437 -0.013436462
000260 56 e5 29 bc a0 e6 07 bd 94 4c c0 bc d9 ab 26 ba
       -0.010369619 -0.033178926 -0.023474015 -0.0006358005
000270 14 ee e6 bb c3 12 2d 3c a4 3c 1e bc 54 af e6 3b
       -0.007047424 0.010563555 -0.009658013 0.0070399437
000280 8f 32 e8 b9 3e 2b 0d b9 14 e6 a5 bc d1 fa 6e bc
       -0.00044288157 -0.00013462917 -0.020251311 -0.0145861665
000290 12 34 6b 3c 92 68 76 3a 79 de d9 3a 44 23 aa 3a
       0.014355676 0.00093997375 0.0016622088 0.0012980481
0002a0 e9 20 d9 bc af e6 d3 bc 06 29 17 bd 80 dc 9f bc
       -0.02650495 -0.025866834 -0.036904357 -0.019514322
0002b0 36 c1 62 bc 58 22 1e bd 85 f4 6f bc 75 6b 3a bb
       -0.01384001 -0.03860697 -0.0146457 -0.0028445397
0002c0 12 20 73 bc 98 1d 52 3c 86 a3 39 3c 6b a6 9d 3c
       -0.014839189 0.0128244385 0.011330491 0.019244393
0002d0 48 21 d5 bb 43 58 ba bb c1 e1 0d bd ec 23 bc bc
       -0.0065042116 -0.005686791 -0.034639124 -0.022966348
0002e0 6a 8c 74 3c bd 2b 84 3c 98 f1 a4 3b 7b b9 8b bb
       0.014926055 0.016134137 0.005033683 -0.0042640544
0002f0 24 fc 8c bc e0 13 17 bd 3d 90 2c bd c9 50 df bc
       -0.017210074 -0.03688419 -0.042129744 -0.027260201
000300 44 51 12 bc 87 1d b6 bc db 5d 5e bb af f3 2d bc
       -0.008930508 -0.022230877 -0.0033930454 -0.010617181
000310 32 54 fd bc 98 a6 3f 3c 0d e4 ed 3c 6c ea d6 3c
       -0.030923937 0.011697434 0.029039407 0.026234828
000320 3a 85 0f bc fe df c5 bc 1c a8 0b bd 0d 65 b4 3b
       -0.008759791 -0.02415466 -0.03409587 0.0055052103
000330 30 7d 23 3d 3f 4a 10 3d 21 c5 8e 3c d7 08 d5 3b
       0.03991431 0.035227057 0.017427983 0.006501298
000340 5f b8 8f bc 88 de e4 bc 8d dc 08 bd 28 a9 da bc
       -0.01754397 -0.027938142 -0.03341346 -0.026691988
000350 53 bd 5c 3a f0 7d f7 bb ce b6 f3 bb cd 13 87 bc
       0.00084205455 -0.0075528547 -0.0074375635 -0.016488934
000360 6b 94 d8 bc 3c 9c 78 3a a5 0c a1 3c 07 24 24 3d
       -0.026437959 0.000948373 0.01965935 0.04007342
000370 b4 07 09 3c 63 20 f3 bb 12 ee 2c 3b 07 6e d8 3c
       0.008363653 -0.0074196323 0.0026387018 0.026419653
000380 07 2e 81 3d 0a e8 34 3d 24 c4 d3 3c 89 b5 6f bb
       0.06307607 0.044166602 0.025850363 -0.003657671
000390 14 72 04 bd 23 e2 0c bd ea 17 09 bd af 4d 89 bc
       -0.032335356 -0.03439535 -0.03347007 -0.016760675
0003a0 e5 64 9b 3c 9c 8b 12 3c 19 e2 93 bc cb ff ad bc
       0.018969009 0.008944418 -0.018052148 -0.021240136
0003b0 62 b2 bc bc df 32 25 bc b6 73 32 bb 8b 82 0d 3d
       -0.023034278 -0.010082929 -0.0027229614 0.034548324
0003c0 e5 e8 fd 3c e5 65 d4 3c 1d a9 d6 3c 24 ca 89 3b
       0.030994842 0.025927493 0.026203686 0.0042050052
0003d0 ad 59 3c 3d 93 f7 1d 3d 1d ec d1 3c ed e9 16 bb
       0.04598396 0.038566183 0.025625283 -0.0023027614
0003e0 69 16 dd bc 94 39 27 bd df 03 17 bd cd f4 b9 bb
       -0.026988225 -0.040826395 -0.036868926 -0.0056749345
0003f0 98 e1 fa 3c 95 9b a4 3c 72 1d e9 bb f3 b9 bc bc
       0.03062515 0.020093719 -0.007114106 -0.023037886

encoder.5.bias f4 [10]
000000 a7 8d 1f 3b 4d c2 a9 b9 23 20 c4 3a 6f 84 a5 3c
       0.0024345906 -0.00032378957 0.0014963191 0.02020475
000010 a9 06 08 bb 8a 18 7d 3b 82 bb be 3c b6 86 c8 bb
       -0.0020755923 0.0038619363 0.02328277 -0.0061195744
000020 8f 25 93 bb cc 98 16 bc
       -0.0044905613 -0.009191703

encoder.7.weight f4 [2, 10]
000000 18 63 2e 3e bf 8b 88 be cd 54 45 bb 76 20 4b be
       0.17029989 -0.26669118 -0.003011036 -0.19836602
000010 3f 29 f5 3c 94 6d 1f bd a0 0b 0a be 54 a8 b9 3c
       0.029926894 -0.03892286 -0.13480997 0.022663273
000020 91 f8 4d 3e b5 06 a6 3e b1 97 8c 3e 63 cb 9b 3e
       0.20114352 0.32426992 0.2745948 0.3042861
000030 a3 ce 05 be 8b 4f 97 bd 75 a1 c8 bd 6b 93 25 bf
       -0.13067107 -0.073882185 -0.097964205 -0.64678067
000040 f1 36 91 3d d7 2a 4f bd 42 3a 28 3e 3a 1f 35 be
       0.07090557 -0.050577965 0.16428474 -0.17687693

encoder.7.bias f4 [2]
000000 9b da 61 3e a9 91 a8 3d
       0.22056048 0.082309075

decoder.0.weight f4 [10, 2]
000000 77 03 8c 3e c7 3b 8f 3e 01 9f e1 be b5 3d 21 3f
       0.27346393 0.27975294 -0.44066623 0.6298478
000010 38 86 ad 3e 25 81 e2 3e 6d e6 ac 3e f5 16 81 3e
       0.33891463 0.44239154 0.3376955 0.25212827
000020 c6 15 1e 3f 4c 14 1d 3d e1 b8 4c bd 5b 95 06 bf
       0.61751974 0.038349435 -0.049981 -0.5257165
000030 9b fe ce 3e 28 2b 62 be 56 f8 15 bb f6 f9 ba 3e
       0.40428624 -0.22086775 -0.0022883615 0.3651883
000040 e3 63 ca be 2f dc 2d 3f db 3c 41 bf 5d a1 a7 bc
       -0.39529333 0.679141 -0.75483483 -0.020462686

decoder.0.bias f4 [10]
000000 ce 0d 0e 3e ca 03 f2 be 78 9f 16 bf 12 e0 91 bf
       0.13872454 -0.47268516 -0.5883708 -1.1396506
000010 82 56 77 3f 1a 45 c5 3e c4 31 57 3e 4e 3b 75 bf
       0.96616375 0.38529283 0.21015078 -0.95793617
000020 02 d1 9e 3e f1 05 31 be
       0.31018835 -0.17287423

decoder.2.weight f4 [6400, 10]
000000 83 f8 3c b9 05 e4 06 bb df f1 f1 b8 6b 25 12 ba
       -0.00018021655 -0.0020582688 -0.000115368275 -0.0005575034
000010 a3 22 3a ba 6d c5 e8 a8 5b 59 a8 ba 3c ce 91 ba
       -0.0007100498 -2.5842794e-14 -0.0012844013 -0.0011124085
000020 d2 96 fc ba 33 ed 04 bb 81 3c d2 3b 74 1b 5b 3c
       -0.0019271022 -0.0020282983 0.006415904 0.013373245
000030 62 ed c5 3c 6b 5f 4b bb e8 5d 17 3c 81 9b 47 bb
       0.024161045 -0.0031032215 0.009238698 -0.0030457678
000040 2b 60 45 3c 43 ca 7b 3c d9 b1 d9 3b 0a d9 cc bc
       0.012046854 0.015368047 0.0066435155 -0.025005836
000050 91 af 1a bc 25 bc 47 3d b5 c4 4b 3d ab 68 18 bd
       -0.009441272 0.048763413 0.04974814 -0.037209194
000060 9a f7 6e bc d0 6e 06 ba cf 00 ed bc 47 32 03 3d
       -0.0145854 -0.00051282067 -0.02893105 0.03203037
000070 55 0b de 3d 6b 00 81 bd ff ef 34 3d 0e 92 54 3a
       0.10842005 -0.06298908 0.04417419 0.0008108922
000080 d8 a1 eb 3c 7b 3e 2f bd ed 71 97 bc fe f2 32 bc
       0.028763697 -0.042784195 -0.018486941 -0.010922192
000090 92 2b 3e bd e5 1c 41 3b 0b 5a 82 3d 9a 8e 10 bd
       -0.04642827 0.0029466685 0.063648306 -0.035292245
0000a0 72 2e a1 3d ae 51 bb 3c 5a 2e b2 3d 3b 51 e3 bc
       0.07870187 0.022866096 0.08700247 -0.027748695
0000b0 5b 3d d7 bd 76 16 e4 bc 15 b2 59 bd 72 2f 1a 3d
       -0.105097495 -0.027842741 -0.053148348 0.037642904
0000c0 9d 95 aa 3d 2d 96 80 bd cb 34 d3 3c 8f 3b 16 3e
       0.08329318 -0.06278644 0.02578201 0.14671157
0000d0 4d a7 1b 3d 04 5e 0c 3d 96 a7 97 bd 90 8b c6 3d
       0.038001347 0.034269348 -0.07405011 0.09694588
0000e0 4d ec 68 bd 4f 25 70 3d b4 03 d8 3d 51 d3 87 bc
       -0.05686598 0.05862933 0.10547581 -0.016580256
0000f0 32 29 bf bd df f2 0d 3d 1e 2b d2 3d 6b 72 8d 3d
       -0.09334029 0.034655448 0.1026213 0.06906589
000100 8b 66 66 bd 4b 90 6f 3d 74 16 7c bd a3 a1 4c bc
       -0.056250136 0.058487218 -0.06154485 -0.012489709
000110 d0 5b fa 3d 79 e0 71 3c 9a bc bf 82 99 57 bd 02
       0.12224543 0.014762991 -2.817318e-37 2.7821333e-37
000120 fa 3e c7 82 02 8c c3 82 3e 02 36 02 98 de c4 82
       -2.9276569e-37 -2.8733035e-37 1.3371892e-37 -2.8927374e-37
000130 be a6 2f 82 db 58 cb 82 4c c9 b0 82 1f c7 b5 82
       -1.2904822e-37 -2.987917e-37 -2.5976414e-37 -2.670985e-37
000140 f4 2b c9 bc 5b ea 31 3e 46 cd 94 3d 86 ee 51 3c
       -0.024557091 0.17374556 0.07265715 0.012813216
000150 89 0e bf bd b4 c7 4e 3d 17 43 96 bc 92 e0 ed 3d
       -0.09328944 0.05048342 -0.018342538 0.11615099
000160 ad c0 eb 3d 52 d9 43 bd 0b 7a fb 3d 24 1c 2e bc
       0.11511359 -0.047814675 0.12279137 -0.010626826
000170 e4 c5 2e be 7f 1a bc 3d 13 5a db 3c bc 93 78 bb
       -0.17067677 0.09184741 0.02677635 -0.0037929853
000180 73 b7 0d 3e 62 62 96 bd 64 dc 66 be 2c 6f 1d bd
       0.13839512 -0.07342984 -0.2254501 -0.0384361
000190 0e 33 0d be 8a f4 28 3e 01 ff 02 3e a3 70 66 bd
       -0.13789007 0.16499534 0.12792589 -0.056259762
0001a0 29 a2 48 3e ab 74 55 3d 45 7b 0e 3e ef 55 3e 3b
       0.19593109 0.052113216 0.13914211 0.002904292
0001b0 3e 6f a5 3d 0b 98 66 3d b5 02 2b bd 24 0b 57 3d
       0.080778584 0.056297343 -0.04175063 0.05250086
0001c0 a1 4d 57 bc 8c 39 44 3c 97 5b 9d bd fd 43 0d bd
       -0.013141067 0.011976611 -0.07683485 -0.034488667
0001d0 77 47 cb bd 83 32 de 3c d7 c6 38 3d 5a 09 ec 3d
       -0.0992574 0.027123695 0.045111503 0.11525221
0001e0 31 b0 2f bd 02 46 96 3d 75 a5 9d b9 81 41 34 3d
       -0.04289264 0.07337572 -0.0003006865 0.044007782
0001f0 bd b0 a4 bd 71 c6 cd bc dc 57 0f be 4f 91 7c 3d
       -0.08041523 -0.025119038 -0.1399836 0.061662015
000200 6d ed 4b 3e e4 54 02 3e 78 1e 9e bd e1 bf 3c 3e
       0.1991479 0.12727696 -0.07720655 0.18432571
000210 4f 46 5d 3e be 30 ab bd db 79 27 3e 19 6d 56 bd
       0.21608852 -0.08358906 0.16355078 -0.052350137
000220 6a 1f 58 3e 85 dd 46 3c 11 53 f0 3d db fa 9a bd
       0.21105734 0.012137775 0.11734594 -0.07567378
000230 b1 7c 55 3a 0b 8e c8 3d 53 e8 1d 3c af ed 0b 3c
       0.00081438856 0.097927175 0.00963791 0.008540555
000240 96 b4 e1 bd 82 0b 7b 3c 81 86 da 3c e6 d8 38 3d
       -0.11020772 0.015322568 0.026675465 0.045128725
000250 b9 6a 8d 3d 4c 74 13 be 47 8f d7 bd 90 42 e8 bd
       0.06905121 -0.14399832 -0.10525375 -0.11340821
000260 18 4c 63 bd 57 f7 aa 3d a2 37 76 3e 74 04 f7 3b
       -0.05549249 0.083479576 0.2404466 0.0075383727
000270 5c d9 43 3d 1e 33 0a bd 0c 39 70 be ed dc 26 be
       0.047814712 -0.033740155 -0.23459262 -0.16295214
000280 6f 21 d4 3d 92 9f b0 3a bb 9f ee 3d 61 26 b8 bd
       0.103579395 0.001347529 0.1165156 -0.08991695
000290 93 28 d0 3d 2e 01 84 bc 4c f7 1a 3e b4 6c 5a 3c
       0.10163989 -0.016113844 0.15133399 0.013331581
0002a0 11 71 d1 3d 13 7d 75 be 58 02 14 bb 00 f8 f6 3c
       0.10226644 -0.23973493 -0.0022584405 0.030147552
0002b0 00 34 a4 bc db 1c 57 3c 9f 5a c0 3d 00 1c 79 bc
       -0.020044327 0.013129438 0.093922846 -0.01520443
0002c0 7d 67 ad 3d dd cf 6e 3c 48 6a 82 3d 8e a4 0d be
       0.084670044 0.014575926 0.06367928 -0.13832304
0002d0 b3 f2 91 bc cc f9 95 3d 91 3c 19 be 61 b7 36 bd
       -0.017815923 0.073230356 -0.1496451 -0.044608478
0002e0 2b 4a 35 3e 57 4c 89 3c 85 b2 a3 bc 67 0b 50 bc
       0.17704074 0.016760034 -0.019982586 -0.012698031
0002f0 23 bb bc 3d bd 90 b2 bd f1 8b 08 be 6d cf 15 3e
       0.09215381 -0.08719013 -0.13334633 0.14629908
000300 39 f7 26 bd c9 d2 2f bd 3b 6c aa bc 33 11 06 3d
       -0.040763114 -0.04292563 -0.020803561 0.032731246
000310 e8 58 a4 bc 02 aa 55 3d 91 6c e1 3d d7 c6 b8 3c
       -0.020061925 0.052164085 0.110070355 0.022555752
000320 37 7a 3a bc 38 8f aa 3b b6 92 fa bb 55 eb cc bb
       -0.011381677 0.0052050613 -0.007646884 -0.0062536397
000330 9a 75 05 bb 8c 07 2b 38 44 01 de ba 05 93 b6 bb
       -0.0020364285 4.0776606e-05 -0.0016937633 -0.0055717253
000340 bc 15 70 3c 6b f2 4c bc c7 13 ec 3b 88 33 ab bc
       0.014653619 -0.012508969 0.007204506 -0.020898595
000350 f1 fb 38 3d 78 28 de bc 70 f5 2b bc e5 b5 0f bc
       0.045162145 -0.027118906 -0.010495529 -0.008771394
000360 2d 2e 1d bc d2 d0 27 3c 35 56 e5 3d c2 92 36 bd
       -0.009593529 0.010242658 0.11198083 -0.044573553
000370 d3 65 ac 82 ef bc 47 02 1c 15 38 83 5b 9c 4b 03
       -2.5331573e-37 1.4674432e-37 -5.4096973e-37 5.9835826e-37
000380 a6 11 12 82 2e c0 19 83 38 d3 a5 82 0b f6 90 82
       -1.0731451e-37 -4.518327e-37 -2.4365805e-37 -2.130012e-37
000390 74 b4 a5 82 56 07 9d 82 ec f4 22 3d 36 cf e2 39
       -2.4348146e-37 -2.3073287e-37 0.039784357 0.00043260463
0003a0 6f 06 87 bc 7d 12 bc 3c b3 c8 0d bc ed 4f 3a bc
       -0.01648256 0.022958035 -0.008653807 -0.011371595
0003b0 f5 68 b6 3c 28 ed b0 bb f0 b9 22 3d a6 9b 20 bd
       0.022266844 -0.005399365 0.039728105 -0.039210938
0003c0 ba 7e 83 bd 2c d2 89 3c ad 60 34 3b 60 ab 9a bc
       -0.064206555 0.01682385 0.0027523444 -0.018880546
0003d0 19 33 7c 3d 17 c1 99 3d 98 ff ee 3c 97 2a dc 3a
       0.061572168 0.07507532 0.029174611 0.0016797361
0003e0 34 73 9b 3d 74 b3 ce bc 13 aa 83 3d 6b 7a 0e 3d
       0.075903326 -0.025232054 0.064289235 0.034784716
0003f0 90 f6 80 3c 8d c0 20 bd 78 d7 da bc eb 89 a6 3d
       0.01574257 -0.03924613 -0.026714072 0.081317745

decoder.2.bias f4 [6400]
000000 3d 3f 0c ba f1 f4 12 3c 87 93 0a 3d ae d1 a0 3c
       -0.00053499994 0.008969531 0.0338321 0.019631233
000010 91 74 56 3d bb e3 e5 3c 01 21 2c 3d 19 7f 80 82
       0.05235726 0.028062692 0.042023662 -1.888086e-37
000020 99 90 23 bb 33 43 0c 3d d7 f1 20 be 63 af 6d bd
       -0.0024958013 0.034243774 -0.15717255 -0.05802859
000030 49 00 56 3d 4b 8f 3e 3d 58 00 b0 3b ab f3 de 3d
       0.052246366 0.046523374 0.0053711347 0.1088632
000040 b5 08 b0 bc 9d e6 33 3d 72 e7 e9 ba 2a e5 44 3d
       -0.021488527 0.0439211 -0.0017845465 0.04807011
000050 fe 1f d4 3c 65 1c 2b 3d ee 2e 9e 82 52 71 bf bb
       0.025894161 0.041775126 -2.324295e-37 -0.0058423663
000060 d0 30 cb 3d cc 33 e4 3a ca 65 67 bd 5b b4 78 3d
       0.099214196 0.0017410456 -0.056493558 0.060718875
000070 ce 9f 9e bb b8 de f5 bc c7 6c c6 bd a9 25 20 be
       -0.0048408275 -0.030013427 -0.096887164 -0.15639366
000080 b5 85 82 bc 28 2e cf bc e5 2e c4 3d 50 6f 65 3d
       -0.015932897 -0.025290564 0.09579257 0.05601436
000090 54 5b f5 3c dd 11 e1 3c 9c cf c9 b7 6e b7 4c 3d
       0.029950775 0.027474338 -2.4057743e-05 0.04997962
0000a0 ef 30 5c 3c dd 27 03 3e 5e db 90 3d 07 e9 1c 3c
       0.013439401 0.12808175 0.07073091 0.009577042
0000b0 4f a6 01 3e cb 6f fb 3c 28 f0 6f bd 20 b4 b9 82
       0.12661098 0.030692955 -0.05857864 -2.7286694e-37
0000c0 de 82 89 3d ed de 0e be 06 68 b5 3c 4e 39 cc 3d
       0.06714414 -0.13952227 0.022144329 0.099718675
0000d0 79 55 b8 82 a1 9c c6 bd e0 61 98 3d 2e 5a 27 bc
       -2.708543e-37 -0.09697843 0.07440543 -0.010214372
0000e0 7b ad ea 3d 9e 78 a4 bd cf 8d 0e 3e 38 b8 36 3e
       0.1145887 -0.080308184 0.13921283 0.17843711
0000f0 8a 45 33 3d b0 35 ff 3d f9 60 48 3d 5e 65 db 3d
       0.04376749 0.12461412 0.048920605 0.10712694
000100 b7 a2 71 3c e2 b7 4e 3c ac a8 1f bd 79 59 c1 82
       0.014748267 0.012617083 -0.038979217 -2.8410156e-37
000110 37 5f 16 be 04 eb ba 3a 09 67 30 bd e5 34 b0 bc
       -0.14684759 0.0014260714 -0.043067012 -0.021509597
000120 44 e5 05 3d 7a 89 c7 3b 47 c5 83 bd 1f a0 5e 3e
       0.032689348 0.0060893865 -0.06434112 0.21740769
000130 6f f2 2c bc bf 77 7b 3e 6b 2d 36 3d ca 98 29 3e
       -0.010555848 0.24557398 0.044476908 0.1656219
000140 83 b3 4f 3d 5d 4c ad 3d be e2 b4 3d d9 f8 20 bc
       0.050708305 0.08461831 0.0883231 -0.009824955
000150 d1 00 ce 3d 0e 4a 65 bd 09 6b 9f 3d a8 c6 24 3d
       0.100587495 -0.055978827 0.07784087 0.040228516
000160 54 34 64 bd 71 97 27 be f0 ad ad bb 08 d1 0c 3c
       -0.055713966 -0.16366364 -0.005300276 0.008594759
000170 f1 3f fa ba 46 a5 6a bd 23 53 fb 3b a6 58 1b 3e
       -0.0019092542 -0.057286523 0.007669823 0.15170535
000180 d3 3e 9f 3d ea a1 02 bd 3b fd 62 3e b5 61 02 3e
       0.07775655 -0.031892695 0.22166912 0.12732585
000190 c3 b3 00 3e 7f 5e 55 3e c9 5c 11 3e 6b 70 23 3e
       0.12568574 0.20836829 0.14195551 0.15960853
0001a0 24 cf c9 02 3a 97 8e 82 45 f8 e0 3c a2 9b 74 bd
       2.9653188e-37 -2.0951825e-37 0.027462134 -0.059718736
0001b0 1a 08 c1 82 fd db 92 02 63 9e e3 3d e2 2f 18 3d
       -2.8363451e-37 2.157904e-37 0.11114194 0.03715504
0001c0 eb b9 17 be a7 2c fc 3d d5 27 77 3c 48 0c a5 82
       -0.14817016 0.12313204 0.01508518 -2.425162e-37
0001d0 38 fb 98 82 9f 26 3f 3e 2a 70 47 3e 41 8b 6e 3e
       -2.2478585e-37 0.18667077 0.19476381 0.23295309
0001e0 88 86 4c 3e ad 3c b2 82 ab e0 42 bb 0c 90 1f 3e
       0.19973195 -2.6189575e-37 -0.0029735963 0.15582293
0001f0 32 7c d4 3b 9a d1 70 3c 75 6e 91 82 b4 ec d2 bd
       0.006484532 0.01469841 -2.1369234e-37 -0.10299054
000200 60 8f c2 82 5b e3 0d 3d af 0f 61 3d aa d3 52 3c
       -2.8588031e-37 0.03464065 0.054946598 0.012867847
000210 f4 bb 57 3c f3 b7 54 3d 0a 35 17 3e 2c 80 05 be
       0.01316737 0.05193324 0.14766327 -0.13037175
000220 71 4f 38 be 49 2f 37 3e a0 36 36 3e 32 50 4d 3e
       -0.17999054 0.17889132 0.17794275 0.20050123
000230 75 5b 63 3e db 0a 35 3e 3a 58 75 80 e1 ff 23 3e
       0.22202857 0.17679922 -1.0776403e-38 0.16015579
000240 8e 19 ff 3c dc c4 98 bd 10 bb 6c bd cb 2f e6 bd
       0.031140115 -0.07459423 -0.057795584 -0.112395845
000250 1c 44 83 3c 27 e4 2d be 29 0e 0c be df ed 02 bd
       0.016023688 -0.16981564 -0.13677277 -0.031965133
000260 4d 38 b1 bd ae 1d 29 bd aa 42 47 3e c0 09 8c 3e
       -0.08653317 -0.04128807 0.19459024 0.2735119
000270 e1 7b 97 3e 3b 7c a3 3e 93 35 ef 3d 37 1c c0 82
       0.295867 0.31930718 0.1168014 -2.822806e-37
000280 54 b8 8f 3e c4 f1 6b 3e 55 3e 81 3e fc fd a5 3e
       0.2807032 0.23041445 0.25242868 0.32420337
000290 66 e6 d3 3d f8 69 1f 3e 67 6d 80 bd 52 96 c2 82
       0.103466794 0.15567768 -0.06270867 -2.8592018e-37
0002a0 b9 c6 9f 3c 7b 0b 92 3d 3f 2b 10 be 20 25 c8 ba
       0.019503938 0.07131096 -0.14078997 -0.0015269853
0002b0 50 36 67 bd b3 1c e8 bd cc 02 11 be 17 45 8c 3e
       -0.05644828 -0.11333599 -0.14161223 0.2739646
0002c0 a9 22 0a 3e 6e a1 56 3e dc f9 cc 3e 12 c5 82 3e
       0.13489784 0.20960018 0.40034378 0.25540978
0002d0 49 96 75 3e be 8f 7a 3e 09 5c 82 3e f1 b4 74 3e
       0.2398311 0.24468896 0.25460842 0.23897149
0002e0 8e 73 e7 3d 88 f6 8f 80 24 8c 22 3d d3 6a 10 bd
       0.11301337 -1.3220915e-38 0.03968443 -0.035258126
0002f0 a2 80 df 82 ad df d7 be 1f 84 79 be ae 36 61 be
       -3.2840737e-37 -0.4216284 -0.24366806 -0.21993515
000300 c4 e3 c9 bd b0 97 5d 3e 19 7c f3 be 4b 5e b2 3e
       -0.09857896 0.21639895 -0.47555616 0.34837565
000310 81 ed 60 3e 3a fb ae 3e 07 a3 df 3d 15 79 58 3e
       0.219656 0.34176046 0.10919767 0.21139939
000320 10 b2 64 3e dc 9a bd 3e 1e 3b 3b 3e 64 73 b5 3d
       0.2233355 0.3703221 0.1828427 0.088599
000330 24 88 40 3e e9 05 d1 3d 26 8c 0d be 23 8b 8c 82
       0.18801934 0.102062054 -0.13822994 -2.0651012e-37
000340 0c af 7f bd 91 ca 63 be ae 15 31 be 4b d3 fc 3d
       -0.062422797 -0.22245242 -0.17293426 0.123449884
000350 1e 76 53 bd ac 4c d1 bd ab 1f b0 3e 60 8d 9b 3e
       -0.051626317 -0.10219702 0.3439916 0.30381298
000360 23 d9 bb 3e 30 f0 81 3e e3 42 c0 3d 14 36 ac 3e
       0.366891 0.2537856 0.09387758 0.33635008
000370 32 bb 31 3e 45 84 b4 3e d8 d1 8a 82 82 2c 57 3e
       0.17356566 0.35257164 -2.0397722e-37 0.21013072
000380 b1 fe aa 82 b5 4f 77 3d e2 9c 55 bd 44 ab 41 3e
       -2.512544e-37 0.06037875 -0.05215157 0.18912989
000390 c1 e6 e7 3d f8 9d 99 be 9b e2 a0 be ae ff 6c be
       0.1132331 -0.30003333 -0.31422886 -0.23144409
0003a0 bc f6 77 be 46 99 5d 3c d1 97 ab be 54 d4 08 3e
       -0.24215215 0.013525313 -0.33514264 0.13362247
0003b0 ad 82 d4 3d e1 1f 11 3e 9a 36 d7 3d ae 9e 90 3d
       0.10376487 0.14172317 0.10508461 0.07061516
0003c0 b1 62 ad 3e bd 80 ce 3e e7 a7 7e 3e a8 44 a1 3d
       0.33864358 0.40332595 0.24868737 0.07874423
0003d0 71 8e 26 3e 61 d9 3e 3e e2 ef 5a 3e cb cf 25 3c
       0.16265275 0.18637611 0.2138057 0.0101203425
0003e0 4d 49 b7 82 19 6a 18 bd 19 d5 a9 be bc ab a8 3c
       -2.6931506e-37 -0.037210558 -0.33170393 0.020589702
0003f0 a1 82 63 3e e5 ed 52 02 15 cf 38 3d dc de 64 3e
       0.222178 1.5496636e-37 0.045119364 0.22350639

decoder.5.weight f4 [16, 6, 5, 5]
000000 6d bf b1 3c c0 aa 92 3d eb 04 0f 3e ca 8a 86 3d
       0.021697724 0.07161474 0.1396672 0.06569441
000010 ca 6b 06 3e be c8 8d 3d 3f 4d 04 3e 53 15 f0 3d
       0.13127056 0.06923054 0.12920092 0.11722817
000020 e6 08 97 3d 1f ec 29 3d 24 2c 3a 3d e9 22 d4 3d
       0.07374744 0.04148495 0.045452252 0.10358221
000030 a8 4c fe 3d c2 ef c0 3d ae 6a dd 3d 83 11 a8 3d
       0.12416965 0.0942073 0.10811363 0.08206465
000040 c4 42 0d 3e a4 52 db 3d 10 d2 68 3d 2d fc d4 3d
       0.13795 0.10709122 0.056840956 0.10399661
000050 a8 84 c4 3d 42 54 9e 3d eb e1 12 3d 2f 14 73 3d
       0.09595615 0.07730915 0.035859983 0.05934542
000060 6c c4 aa bc 06 f8 16 3d d8 35 d3 3d 20 08 49 3d
       -0.020845614 0.036857627 0.10313004 0.049080014
000070 e1 32 dc bc 8e 5f 52 bd 5d f8 e1 3d 45 b7 db 3d
       -0.02687973 -0.05136066 0.110337 0.10728315
000080 d5 db 22 3d fd 33 d3 bd e8 1c a5 bd 26 13 4f bd
       0.03976043 -0.1031265 -0.08062154 -0.05055537
000090 28 cf 9d bd 5b c9 40 be 99 a4 fb bc e1 43 4e bd
       -0.077055275 -0.18826811 -0.030718135 -0.050357703
0000a0 27 b2 06 be 1f 53 0a be 3c 93 e7 bd f8 50 7f bd
       -0.13153897 -0.1350827 -0.113073796 -0.062333077
0000b0 d0 73 2d bd f4 11 f7 3c 17 a4 31 bd a7 b7 ff bd
       -0.042346776 0.030159928 -0.04336938 -0.12486201
0000c0 ae 3a e7 3b 11 29 d6 bd 99 bc aa bd 1e 18 85 3c
       0.0070565557 -0.104570515 -0.083367534 0.016246852
0000d0 e3 c1 1a 3e 64 a2 1a 3e d7 38 de 3d 7f be 34 bd
       0.15113024 0.1510101 0.10850685 -0.044126984
0000e0 1e d0 15 3e be a0 1d 3e 65 6f d7 3d 5d 55 15 3e
       0.14630172 0.1539335 0.10519294 0.14583345
0000f0 6b 22 b1 bb 36 c4 8f 3d 47 3f 8e 3d a4 c5 1f 3e
       -0.0054057143 0.07019846 0.06945663 0.15602738
000100 42 14 6c 3d 36 c7 19 3d 89 14 cb 3d c4 f2 ed 3d
       0.057636507 0.037543498 0.09916026 0.116185695
000110 b7 27 2f 3e e6 cd 1e 3e d7 87 c4 3c 3d b3 b8 bb
       0.17104994 0.15508232 0.023990555 -0.0056366012
000120 0b fe a8 3b 88 4c b2 3c cf 52 16 bd 16 46 b8 bc
       0.0051572374 0.021765009 -0.036700066 -0.022494357
000130 5d 2b b2 bd 24 96 87 bd 05 48 b3 bd b8 cc 3f 3d
       -0.08699677 -0.06620434 -0.08753971 0.046826094
000140 7b 38 ab 3c 76 6f f1 bd 6a cf 78 bd 74 da 3b bb
       0.020900955 -0.117888376 -0.06074468 -0.0028664144
000150 71 5e 59 bc 5e 24 60 bd 44 c1 0e be cc 74 02 be
       -0.0132671455 -0.054722182 -0.13940912 -0.12739867
000160 20 47 82 bd 85 d9 01 be 7a 05 07 be 44 af ba bd
       -0.06361222 -0.12680633 -0.13185683 -0.091154605
000170 b1 f3 03 be 1a 20 5f bd 21 f0 c5 bd 36 0f 01 bd
       -0.1288593 -0.054473974 -0.096649416 -0.031508647
000180 39 04 58 bd 76 70 76 bc ba 52 94 3c 40 50 94 bd
       -0.052738402 -0.015041461 0.018105853 -0.07241869
000190 e9 c3 85 3b 2a 90 34 3d 57 bb dd 3d 3f 13 b8 bc
       0.004082192 0.044082798 0.10826748 -0.022470115
0001a0 b6 0d 02 3d 9c 93 12 3e 8c bc 34 3e 4a 0f 71 3d
       0.031751357 0.14314121 0.1765005 0.05885247
0001b0 7e 11 0b 3e ab c8 9d 3d fe 84 91 3d 0d 6a e2 3d
       0.13580891 0.0770429 0.07105444 0.11055384
0001c0 7d de b5 3d 22 aa dd 3d 6e 19 05 3e be 83 d8 3d
       0.08880327 0.10823466 0.12997982 0.10572003
0001d0 ab bb 78 3d 87 aa 11 3e 22 07 c3 3d 94 0d d3 3d
       0.06072585 0.14225207 0.09522845 0.10305324
0001e0 02 d0 c3 3d a5 93 0e 3d 0f 15 aa 3d 99 07 af 3c
       0.09561159 0.034808774 0.08304798 0.021365928
0001f0 a0 53 eb 3d 12 41 43 be 3b 2d 01 be 79 37 cf bd
       0.114905596 -0.19067791 -0.1261491 -0.101180024
000200 88 04 45 bd 4c 72 cb 3b 03 9c 1d be 39 ed ca bd
       -0.048100024 0.0062086936 -0.15391545 -0.09908528
000210 a8 7a 8e bd 7c 75 d5 bb eb 89 97 bc 0f 68 15 be
       -0.069569886 -0.0065142494 -0.018498382 -0.14590476
000220 65 d0 2e be 33 0c ad bd 44 00 58 bc 3d 74 21 bb
       -0.17071684 -0.084495924 -0.013183657 -0.0024635934
000230 45 5a db bd 6f 17 e6 bd dd 9e 2c bd d8 94 4f bd
       -0.10710577 -0.11234938 -0.04214369 -0.050679058
000240 5c 2d 04 3d 44 0c d1 3c de 01 44 3c fa 67 37 bd
       0.03226982 0.025518544 0.011963336 -0.044776894
000250 96 ae a0 bd b6 77 63 bd 4a e9 d7 3c 93 f5 ac 3d
       -0.078457996 -0.055534087 0.026356358 0.08445277
000260 61 0e f8 3d 36 fe 59 3d 69 16 6e 3c f7 1f 1a 3d
       0.121121176 0.05322095 0.01453171 0.03762814
000270 56 96 7f bc 8a a0 e9 3d e8 66 13 3d cc 6e c1 3d
       -0.015599808 0.114075735 0.03598681 0.09444961
000280 b2 14 c0 3d 2c 6e b0 3d b7 ba fd 3d a3 6f 0a 3e
       0.09378947 0.086147636 0.12389129 0.13519149
000290 67 ab 84 3d 5c 86 68 3d a7 11 99 3d ef cf 57 3d
       0.06478005 0.05676876 0.0747407 0.052688535
0002a0 e5 84 d4 3d 2c 30 82 3d c6 39 1e 3e ce a0 bf 3d
       0.1037691 0.06356844 0.15451726 0.09356843
0002b0 ae 71 e6 3d 75 d0 87 3d 2a 1e 1b 3d 2b 6d 5f 3e
       0.112521514 0.06631557 0.037870564 0.21818988
0002c0 14 d9 4d 3e 49 a0 dc 3d 91 c4 8b 3d 5e cc 07 3d
       0.2010234 0.107727595 0.068246014 0.033153884
0002d0 6c be 46 3e a6 d3 e5 3d 2e 2a 13 3e d4 e3 d1 3d
       0.19408578 0.11222009 0.14371559 0.10248533
0002e0 c8 a3 25 3d 5c 4a 2b 3e 14 28 e3 3d 32 1c d3 3d
       0.040439397 0.16727585 0.11091629 0.10308112
0002f0 92 55 83 bc 27 57 0c bd 00 92 9f 3d d5 e7 13 3d
       -0.016032014 -0.034262802 0.07791519 0.036109764
000300 ac 19 c0 bc 57 13 84 bd 94 9e a8 bd 38 84 7c bd
       -0.023449741 -0.06449001 -0.082333714 -0.06164953
000310 83 16 dc bb 44 4c fe bb 5d 1f 19 be 2f 83 17 be
       -0.006716551 -0.0077605564 -0.1495337 -0.14796136
000320 a7 0d 5d bd 9a 47 81 bd ca e5 bb 3a 0e 8c a6 3d
       -0.053968098 -0.06312485 0.001433545 0.08132182
000330 7d ee 47 3d a4 31 b2 bd 34 bc b4 bc 8a db af bc
       0.048811425 -0.087008744 -0.022062398 -0.02146699
000340 f4 51 7e 3c fd dc c5 3d af 24 a1 bd ff b7 66 3d
       0.015522469 0.09661291 -0.07868325 0.056327816
000350 86 af c2 3d 38 c6 1a 3d 9b 20 26 3e 03 8e 52 3b
       0.09506135 0.037786692 0.16223375 0.0032128103
000360 77 fb 91 3d 88 eb 33 3d 68 f3 48 3e e1 cf 19 3e
       0.07128041 0.043925792 0.19624102 0.15020706
000370 44 8a 40 bd bd c7 39 bd da 6a a5 3d 1b 2b 19 3d
       -0.04700686 -0.0453565 0.08077021 0.037394624
000380 b6 e6 d0 3d 06 4d e0 bc 06 79 f2 3b 50 b6 48 bd
       0.102002546 -0.027380478 0.007399681 -0.04900199
000390 a9 aa 92 bd 55 0e 05 bd 4d f4 91 bc ef 3b c1 bd
       -0.07161457 -0.03248437 -0.017816687 -0.094352596
0003a0 a9 0b 8e bd 21 40 c9 bd 51 2a e5 3c fe 7d b0 bc
       -0.06935818 -0.09826685 0.02797428 -0.021544453
0003b0 ef aa ce bc 01 43 f1 bd c1 c7 08 be 7c 2f 28 bb
       -0.025227992 -0.11780358 -0.1335745 -0.0025663069
0003c0 ab 6a e3 bd f5 1e b3 bd c6 14 f8 bd ad c2 ed bd
       -0.1110433 -0.08746139 -0.12113337 -0.11609397
0003d0 37 1e ae bd c4 f7 b3 bd a7 3c 1b be 84 72 95 bd
       -0.08501857 -0.08787492 -0.15159856 -0.07297233
0003e0 20 6c 02 bc 6a 88 d4 bd 0f cd 96 3d cb 93 14 3b
       -0.007960349 -0.103775814 0.073633306 0.00226711
0003f0 bb 47 2c 3c ba 17 d1 3d 64 9a da 3d 8b 0c d3 3d
       0.010515149 0.102096036 0.10673979 0.10305127

decoder.5.bias f4 [6]
000000 6f 36 97 3d 45 42 3e 3e be eb 17 3e 90 17 9e bd
       0.07383429 0.18579967 0.14836022 -0.07719338
000010 06 46 21 3e af 76 dc 3c
       0.15749368 0.026912061

decoder.7.weight f4 [6, 1, 5, 5]
000000 9b 8c 1b 3e f6 2c b3 bc 72 07 92 bc 7c 17 f1 3c
       0.15190355 -0.021872025 -0.017825816 0.029430144
000010 8a 9a 85 be f1 51 38 be 03 f2 a4 be f9 f5 4e 3d
       -0.26094466 -0.18000008 -0.3221589 0.050527547
000020 44 1b ac be 9d 45 ab be f9 47 54 be 09 48 de bd
       -0.33614552 -0.33451548 -0.2073058 -0.10853583
000030 d1 33 dc bd a3 74 98 bd 0a 32 b8 be e9 62 99 be
       -0.10752071 -0.07444122 -0.35975677 -0.29958275
000040 ee 62 af bd 85 5d b5 bd 50 46 b5 be d5 14 d4 be
       -0.08563791 -0.08855728 -0.35405207 -0.41422144
000050 72 2e 18 be 45 98 59 be 4e 00 58 3d c0 a7 d9 3b
       -0.14861467 -0.21249492 0.052734666 0.006642312
000060 30 6e 42 be 01 db 0e be dd 04 93 bd 2a 7a 8a 3c
       -0.18987346 -0.13950731 -0.07178662 0.016903955
000070 4c 2e 70 3d 5a a8 32 be 11 8f 49 3e 5a 55 76 3e
       0.058637902 -0.17447034 0.19683482 0.24055997
000080 fc fe 08 3e 00 a0 13 3e 80 af 3d 3e 95 1d 53 3e
       0.13378519 0.14416504 0.18523979 0.20616753
000090 85 20 98 3e 52 a3 fb 3c 58 ab 58 3e 25 06 02 bc
       0.2971231 0.030717526 0.21159112 -0.007936035
0000a0 b9 a0 d7 bd 83 0f 24 3d 29 7e 09 be 19 1a b2 3d
       -0.10528702 0.040053856 -0.13427033 0.08696384
0000b0 78 fa dd bd f5 ca 06 3e 72 8b 9f bd 65 47 86 be
       -0.10838789 0.1316336 -0.07790269 -0.26226345
0000c0 08 df 89 be 44 35 8b be 9d fe 2f be 7f d5 9b bd
       -0.26927972 -0.27189076 -0.17186971 -0.076090805
0000d0 1d 64 88 be 98 61 44 be 75 44 aa 3d ae 1a c3 bd
       -0.2663888 -0.19177854 0.083138384 -0.09526573
0000e0 5d 90 5c be ca 82 8d be df f8 dc 3d 28 20 c2 bd
       -0.21539445 -0.27638847 0.10789656 -0.094787896
0000f0 07 74 1e be a3 0f a8 be af 68 6a be 71 b3 65 bc
       -0.15473948 -0.3282443 -0.22891496 -0.014019833
000100 81 c3 ca 3d 35 7c e7 bd e1 ff bf be b9 21 8d be
       0.09900571 -0.113029875 -0.37499908 -0.2756479
000110 32 ac e2 3d 38 99 d6 3c af 5e 2c be e1 53 19 be
       0.11068 0.026196107 -0.16832994 -0.14973404
000120 4d 14 db 3d e2 f0 3f 3d d2 ee 91 3e cf 4a 74 3d
       0.106972314 0.046860583 0.28502518 0.059641656
000130 1f ea 58 3d 04 cd 6e 3e e9 df 9f 3e 04 d1 6d 3e
       0.05295765 0.23320395 0.31225517 0.23224264
000140 01 66 aa bc 82 35 a6 3b 95 8f 29 3e 70 eb 87 3e
       -0.020800592 0.0050722966 0.16558678 0.26546812
000150 51 ff 08 3e 8c 09 d7 bd c8 4e 8e 3e 9a 52 8e 3e
       0.13378645 -0.10499868 0.2779448 0.27797395
000160 3a 03 90 bd 89 71 85 3d 7c 93 52 3e 85 ab 48 3e
       -0.070318654 0.06515796 0.20564073 0.1959668
000170 8c d5 93 3e 45 93 f4 3d 19 bd 8b bc d1 d6 9c 3d
       0.2887386 0.11942152 -0.017057942 0.076581605
000180 a4 ce cf 3d 92 34 67 bd dc 2b 04 3d ce 41 b3 3d
       0.101468354 -0.05644662 0.03226839 0.087527856
000190 83 28 ba bd 45 6c 76 be 99 90 80 be 63 da 4e 3c
       -0.09089758 -0.24064739 -0.2511032 0.01262531
0001a0 17 ce a9 be a2 1e ed bb a2 f6 51 be 5a c1 63 3d
       -0.33165047 -0.0072363177 -0.20504239 0.055604316
0001b0 4e 1e 0d be 53 3e 2a be a7 ad c5 bd e2 21 53 3d
       -0.13781092 -0.16625337 -0.09652262 0.051545985
0001c0 09 3f 03 be 52 20 bf be de c7 81 be ee de ba bd
       -0.12817015 -0.37329346 -0.253478 -0.09124552
0001d0 c8 cb 26 bc 95 54 54 be 1c 1a 18 be e4 d4 89 be
       -0.010180421 -0.2073539 -0.1485371 -0.26920235
0001e0 1e 1b 4b bd 38 9d e6 bd 66 da 4b be 0b 82 c4 bc
       -0.049586408 -0.11260456 -0.19907531 -0.02398779
0001f0 07 b4 5e 3d 58 90 94 bd 0e bf 30 3d 6e 71 63 3e
       0.054370906 -0.07254094 0.043150954 0.22211239
000200 35 28 02 3c 85 d1 41 3e 9b b4 34 be 4a 5e 0a bd
       0.007944156 0.18927582 -0.1764702 -0.033781327
000210 38 10 3d 3e b5 54 f1 3d 77 de ac 3c 36 17 7a be
       0.18463218 0.11783735 0.021102173 -0.24422917
000220 61 da 0a bd 63 c2 71 3c dc 6c ad 3e ed e2 33 3e
       -0.03389967 0.014755818 0.33872116 0.17567034
000230 33 89 af 3d 92 30 18 be 8a cf ac 3e 0e 00 71 3e
       0.085710905 -0.14862278 0.3375209 0.23535177
000240 90 4a c3 3e 3c 9f 11 be 6a 26 e7 3b ef 0c 7c 3e
       0.38142824 -0.142209 0.00705414 0.24614309
000250 6b f1 bb 3d 3d 26 a0 3e
       0.09176906 0.31279173
