Autoencoder-on-MNIST-in-Pytorch/Models/model_e17.pt (torch, 561729 bytes, 11 tensors)

encoder.0.weight f4 [6, 1, 5, 5]
000000 dc cb 88 be db dd 5f be 0e c7 0c be 54 87 6e be
       -0.26718032 -0.21861975 -0.13747808 -0.23293811
000010 c2 8b b0 be d4 a6 71 be 57 24 b0 be d5 04 71 bd
       -0.34481627 -0.23598796 -0.34402725 -0.0588425
000020 63 18 08 be c9 c1 4b be 8c 91 0f 3e d2 0c 49 be
       -0.13290553 -0.19898142 0.14020365 -0.19633797
000030 22 60 06 3c 3a 58 7f be bb 27 64 be 39 f6 11 3e
       0.008201631 -0.24936 -0.22280781 0.14254083
000040 ee 3d c1 3c 5a 81 34 be a6 b8 22 be 1a 0a 08 be
       0.0235891 -0.17627469 -0.1589075 -0.13285103
000050 9a f9 09 3c fa f9 ba bd b1 dd ec bc 92 77 ac be
       0.008421326 -0.091297105 -0.028914304 -0.33684975
000060 29 53 d1 be 25 2e 70 be 25 12 a9 be 67 6f 8d be
       -0.4088376 -0.23455103 -0.33021656 -0.27624056
000070 cf 22 9d be 64 a1 6d be 57 2a 90 3d 2d 95 29 3c
       -0.3069062 -0.23206097 0.07039326 0.010350508
000080 6e 5a 5a 3d 75 4d da 3c 29 f5 54 3e 67 dc 09 be
       0.053308897 0.026648263 0.20796646 -0.13462983
000090 83 4a 5b 3c ed c6 1c 3e 11 62 b9 bc ae c7 3c bd
       0.013384464 0.15310259 -0.02262977 -0.046088867
0000a0 93 57 46 3e c2 b7 13 3e b6 4f e4 3d d4 92 12 3e
       0.19369344 0.14425567 0.11148016 0.14313823
0000b0 f1 87 78 3e c9 97 e4 bd b1 67 18 be 33 f9 e2 bd
       0.24270608 -0.11161763 -0.14883305 -0.11082687
0000c0 7f 20 97 3e fc 9f 87 3e f0 1c 2c 3e af d9 36 3e
       0.2951698 0.26489246 0.16807914 0.17856477
0000d0 e1 c1 1e 3e bc 47 b7 bd 6f 4c 09 be 27 fc 37 3e
       0.15503646 -0.08949229 -0.13408063 0.17967282
0000e0 74 27 9f 3d c6 c6 84 be 8a e8 97 be ae a9 d6 be
       0.07771197 -0.25932902 -0.296696 -0.4192633
0000f0 65 5f 66 be c7 10 07 be 6d 03 ba be b3 f6 55 be
       -0.22497328 -0.13189994 -0.3633074 -0.2089489
000100 ef 5f 06 be bd 82 7d bd 2c f5 9d bd f2 6b af be
       -0.13122533 -0.06189226 -0.077127784 -0.34262043
000110 02 18 3a ba e0 dd 30 be 52 d5 6a be c0 2c 91 bd
       -0.00070989144 -0.17272139 -0.22932938 -0.070886135
000120 c1 12 59 be 59 aa 38 be d1 b6 a0 be 23 db 4d be
       -0.2119856 -0.18033732 -0.31389478 -0.20103125
000130 f0 45 1d be ed 51 44 be 5c 2d 60 3e 27 24 2e bc
       -0.1535871 -0.19171877 0.21892303 -0.010628737
000140 ee 66 3d bd e6 e8 6f 3d 8e 13 ab bd f4 f7 3e 3e
       -0.04624074 0.05857172 -0.08353339 0.18649274
000150 ef ca 6c 3e b9 c6 3b 3e db c7 4f 3e 8c d7 2c be
       0.23124288 0.18337525 0.20291083 -0.168791
000160 6c e7 5a 3e 11 d4 72 3e ae 85 81 bd 0a 45 2e 3e
       0.21377343 0.2371371 -0.063243255 0.17018524
000170 42 a4 8f 3d e9 38 35 bd d9 d0 1e 3e 3a 95 7a 3e
       0.070137516 -0.044243727 0.15509357 0.24470988
000180 68 05 7e 3c 9b 96 0e 3e a3 86 66 3e 7e 90 af 3d
       0.015504219 0.13924639 0.22512297 0.085724816
000190 d1 33 5d bc 83 35 56 3e e7 cf 00 3d 7e 92 69 bd
       -0.0135011235 0.2091885 0.03144827 -0.05702447
0001a0 9e 80 24 3e de 29 4d 3d 3b b9 94 bd c9 d2 4a bd
       0.16064689 0.050088756 -0.072618924 -0.049517427
0001b0 fe f2 80 3e e2 39 85 3e c0 2e fe bd c6 89 11 be
       0.25185388 0.26020724 -0.124112606 -0.14212713
0001c0 cc 2d 0e 3e c9 d8 81 3b 06 c1 7a 3e cf 8b 06 bb
       0.13884658 0.0039626104 0.24487695 -0.002053011
0001d0 27 e0 09 bd 5b db 58 bd e1 fe 4d 3e 10 e5 7b 3e
       -0.033661034 -0.05294357 0.2011676 0.24599099
0001e0 e7 5d 39 be 6d c1 9c be 1e 6a 33 be 1c cf 60 3e
       -0.18102227 -0.30616322 -0.17520949 0.21954006
0001f0 a8 cd c2 3d 05 82 88 bd 90 a3 21 3e 7b 23 0c 3e
       0.09511882 -0.06665424 0.1578505 0.1368541
000200 2e ed 06 be 33 73 96 bb 1f 29 82 bd 58 b4 69 3e
       -0.13176414 -0.0045913695 -0.063554995 0.22822702
000210 78 70 49 bd f0 a3 78 be 26 5d 24 be a3 b2 a6 3d
       -0.049179524 -0.24281287 -0.16051158 0.08139541
000220 7b 8d 38 3e 11 a7 1a bc 80 6d 8f be ca de 9a be
       0.1802272 -0.009439246 -0.2801323 -0.302481
000230 b4 a7 86 3e 31 ea 84 3e 64 f1 3a 3e c0 11 5a be
       0.26299822 0.25959924 0.18256146 -0.21295834
000240 3d eb 2d be 26 c7 f0 3d f8 a2 cd bc 5d a4 84 3d
       -0.16984268 0.117567345 -0.025102124 0.06476662
000250 a0 72 22 be ea 40 03 be
       -0.15864038 -0.12817731

encoder.0.bias f4 [6]
000000 2d b7 40 3e f2 f7 3b 3e 60 b9 03 3d 4f d4 34 3e
       0.18819876 0.18356302 0.03215921 0.17659114
000010 ee 40 ad bc ea ad 3b 3e
       -0.021149125 0.18328062

encoder.2.weight f4 [16, 6, 5, 5]
000000 43 46 2e 3d c2 88 f0 3c e4 36 28 bd 66 42 f4 3d
       0.042547476 0.029362086 -0.041067973 0.11926727
000010 23 e5 1b 3d 85 3c 16 bb 4b a1 86 bd 9c 7b 8a bd
       0.03806032 -0.0022924256 -0.06573733 -0.06761858
000020 b2 23 4a bb 26 e6 6f 3d 22 1c 01 be e0 60 2d be
       -0.003084403 0.058569096 -0.12608388 -0.16931486
000030 2f b3 36 bd 3a 74 d3 bc 59 8f c6 bc 5f 93 ed bd
       -0.044604477 -0.025812257 -0.024238275 -0.116003744
000040 46 12 ed bd be 11 1e be ff 13 c6 bc 1a 98 02 3d
       -0.11575751 -0.15436456 -0.024179457 0.031883337
000050 37 35 df bd e9 83 0b be 67 b2 d8 bd f3 8e 32 3c
       -0.10898822 -0.13624538 -0.105809025 0.01089834
000060 16 bb 21 bd ea 86 ba 3c d2 e3 69 bc 09 4e f8 bc
       -0.03948506 0.02276941 -0.014275508 -0.030310648
000070 9b 0e de 3b d4 30 da 3c db 52 7d 3a 66 31 c9 3d
       0.0067766435 0.026634611 0.00096635305 0.09823875
000080 d3 2c a5 3c 25 5f 2c 3b 8f 8c 8d bc 05 d4 5b 3d
       0.020162975 0.0026301828 -0.017278938 0.053668994
000090 87 59 b2 3d cd 44 97 3d 20 3c 2a bd 4a 4f cb bc
       0.08708482 0.073861696 -0.041561246 -0.024818081
0000a0 3a 5b 62 3d 9d cf 02 bd 27 d8 0e bd 92 d9 91 3d
       0.05526278 -0.031936277 -0.034874108 0.07121576
0000b0 d3 21 fd 3d 4f a7 9d bd fb df 4e 3d e2 1a bb bd
       0.12359967 -0.07697927 0.050506573 -0.09135987
0000c0 46 86 5b bd e6 f4 e6 3c 3a 0c 22 3d 96 56 03 3d
       -0.05359485 0.028192949 0.03956244 0.032064997
0000d0 87 bb d8 3b 4a c4 ea 3d 85 93 95 3c d8 49 47 bd
       0.006614152 0.114632204 0.01825882 -0.048654407
0000e0 a4 8e 2c 3d 86 ac a0 bb a9 d5 9b bc dc 9a cd 3d
       0.04212822 -0.004903379 -0.01902278 0.10039303
0000f0 55 b4 14 be aa cf bd bc ce b0 18 bd 79 97 8e 3d
       -0.14521916 -0.023170311 -0.03727799 0.06962485
000100 50 c7 26 3d 2d cf 30 be 4e 51 be bd 72 c4 dd 3b
       0.040717423 -0.17266531 -0.092928514 0.006767803
000110 17 1c 1a bd 31 44 34 3c 7d 29 0a be ff d4 b9 bd
       -0.037624445 0.011002586 -0.13492389 -0.09073829
000120 6b 1a 4f bd 6f 84 83 bd 03 6c 52 bd 0e ec 27 bb
       -0.050562304 -0.06421744 -0.05137254 -0.0025622877
000130 73 3c 9f 3d 03 82 57 bd 50 03 22 bd 48 15 a4 bc
       0.07775202 -0.052614223 -0.03955394 -0.020029679
000140 5c 2c db 3c 93 9c bd 3d ef 06 02 3d 4b 0f ab 3d
       0.02675455 0.0925838 0.031744894 0.08352526
000150 df 44 c9 3d 9f 15 79 3d f8 57 3c 3d 25 cd dc bc
       0.09827589 0.060811635 0.04598233 -0.02695329
000160 8c dd 8a bd ba 0e 64 bc fd 39 c2 3d e7 c5 be 3d
       -0.06780538 -0.013919527 0.09483717 0.093150906
000170 a0 5a 98 3b 47 88 2a bd e7 4e 92 3d 00 17 ae 3d
       0.004649475 -0.04163387 0.07143956 0.08500481
000180 8a 73 03 bd 1f 37 c0 3c 35 91 65 bd f5 cb 07 bd
       -0.03209261 0.023463784 -0.056046683 -0.033153493
000190 4f 9d 41 3d 4f b6 bb 3d c7 0e 9c 3d ba 87 1f bd
       0.04726916 0.09165632 0.07620006 -0.0389478
0001a0 23 8f 6a bd b8 36 fe 3c 38 95 c7 3d f1 b9 f3 bc
       -0.057265412 0.031031951 0.09745258 -0.02975175
0001b0 d4 08 91 bd 7f 1a 4e 3d 0b bb d6 3d 80 29 2f 3d
       -0.07081762 0.050318237 0.10484894 0.042764187
0001c0 d7 17 6e bd 15 79 e6 bc 84 6e 6d bd 32 68 75 3c
       -0.058128204 -0.028133908 -0.057966724 0.014978455
0001d0 80 79 5e 3d a7 43 62 bd e4 01 9e bd da 77 7d bc
       0.05431509 -0.0552403 -0.07715204 -0.015470469
0001e0 fa a6 32 3d 17 77 1c bc 44 b6 16 bd 1f 16 02 3d
       0.043616273 -0.009549878 -0.036794916 0.031759378
0001f0 e2 97 2a bd 2e 2c 63 3d e8 56 59 bd cc 8b 79 bc
       -0.041648753 0.055462055 -0.053061396 -0.015231084
000200 83 2a 89 bc 49 1f 55 bd 24 c6 cd 3c de 42 65 bd
       -0.016743904 -0.05203179 0.025118895 -0.055971973
000210 cf 72 9f 3d 7e c4 a5 3d 32 c4 cb 3c c8 1a 41 3d
       0.0778557 0.080941185 0.024873827 0.04714468
000220 1f 2d 29 3d dc fe 66 3c be 1a cb bc 43 14 7d bc
       0.041302796 0.014098849 -0.024793025 -0.015446725
000230 12 1d 91 3d 3d be 8d 3d 1d cd 24 bc 79 ae 15 3d
       0.07085623 0.06921051 -0.010058668 0.036543343
000240 90 15 89 bd 47 6d 90 3c cb 3f 09 3d ba 40 95 3c
       -0.06693566 0.017630232 0.033508103 0.01821934
000250 cf 92 d5 bc cb 51 15 3c 4a 92 5a bd 15 56 94 3c
       -0.02607098 0.009113739 -0.05336217 0.018107453
000260 9b 59 3a bd 03 30 8b 3d 8c ee 44 3a 61 4c 98 3d
       -0.04549561 0.06796267 0.0007512353 0.07436443
000270 26 96 c2 3c 1c 42 4b bd e9 6b 9f 3d 49 77 18 3d
       0.023753237 -0.049623594 0.07784254 0.037223134
000280 c7 be 4b bd 6c 22 24 bd e4 48 28 bc a9 f1 52 3d
       -0.049742486 -0.04007189 -0.010271285 0.051499996
000290 6d e6 65 3b 3f 90 66 3b 92 32 8b bc 79 da 8f bd
       0.0035079971 0.0035181192 -0.016991887 -0.07024092
0002a0 e0 d7 c1 bc 39 fa 1b bd 33 63 52 bd c6 17 ac bd
       -0.023662508 -0.038080428 -0.051364135 -0.08402972
0002b0 61 e6 0b be e4 5f 13 be 17 9e ae bd 6f 71 bc 3c
       -0.13662101 -0.14392048 -0.08526247 0.023003308
0002c0 7e 63 63 3d 5a 62 8f bd 60 e7 16 bd e8 67 77 3b
       0.055514805 -0.07001181 -0.03684175 0.0037751142
0002d0 64 8a b4 bc 40 84 97 3c 87 b9 aa ba f9 22 66 bd
       -0.022038646 0.018495679 -0.0013025262 -0.056185696
0002e0 66 42 6d bd 88 0c 92 bb 94 1e 11 3d 13 ab 56 bd
       -0.05792465 -0.0044570602 0.035429552 -0.052409243
0002f0 9c 2a bf bb 38 41 22 bd 5b ba 8a 3d e7 4e 47 3d
       -0.005833937 -0.03961298 0.06773826 0.04865923
000300 1a 1b 9f bc 04 f6 26 3d d0 76 a0 3d 1e 64 35 bc
       -0.019422103 0.040761963 0.07835162 -0.011071233
000310 b8 2a 18 3d 90 90 46 bd fc ef 89 3d 70 24 16 3d
       0.037150115 -0.04847771 0.067352265 0.036655843
000320 cf 20 29 3d 7d fa 49 bd bf 3f 44 bd bc 83 63 3d
       0.041291054 -0.04931115 -0.047912356 0.055545554
000330 f3 a8 8c 3d c1 a0 19 3d 79 7b 41 bd 66 4d cd ba
       0.06868162 0.037506822 -0.047236893 -0.0015663325
000340 3e fd 05 3d 38 68 d7 bb 32 5f 61 3d a0 c2 97 bd
       0.032712214 -0.006573703 0.055022426 -0.07410169
000350 0f b5 c5 bd aa a9 9a bd b1 66 58 bd 61 35 95 bd
       -0.09653675 -0.07551892 -0.05283231 -0.07285572
000360 e5 75 39 bd 6c 3d 2f be bf 30 ca bd 65 73 26 3c
       -0.04527845 -0.17113274 -0.09872579 0.010159348
000370 d2 11 ae bc 6a 25 ca bd d1 60 fe bd a6 26 5f bd
       -0.021248732 -0.098704174 -0.1242081 -0.054480217
000380 db 69 6f 3d 3e f3 88 3d a2 16 aa 3d 3a 4f a0 bc
       0.05845056 0.0668702 0.08305098 -0.019569028
000390 e3 cd 98 3d 77 40 b0 3c 89 ae 18 3d 40 90 91 3d
       0.07461145 0.021515114 0.037275825 0.07107592
0003a0 89 af b3 3d 72 eb 82 3c 0f c9 7e bd ae 08 65 ba
       0.08773715 0.01598141 -0.062203463 -0.000873695
0003b0 67 39 43 3d e0 4a 2f bd 54 4a cb 3d 81 61 9f 3c
       0.047662165 -0.042796016 0.09926286 0.019455673
0003c0 72 dd 33 3d 9f c0 eb 3d ff 3c c6 3c 2d 3b a5 3d
       0.04391236 0.11511349 0.024199007 0.080679275
0003d0 90 f4 4e 3d 7f b8 4c 3d 3d 44 79 3d 92 54 62 bd
       0.0505262 0.049980637 0.060856093 -0.055256434
0003e0 f6 6b 91 3d ff 66 a6 3d e2 84 bd 3b 6a 0d bf bc
       0.0710067 0.08125114 0.005783663 -0.023321826
0003f0 5d 65 81 3d df c1 70 bd ce 4f 2e 3d 30 00 f9 bb
       0.06318162 -0.05877864 0.042556576 -0.0075988993

encoder.2.bias f4 [16]
000000 6b ac e1 3b f0 d4 2a 3d 52 98 f0 3c a1 b2 6a 3d
       0.006887009 0.04170698 0.029369507 0.05729926
000010 4b 79 e6 3d f1 28 82 bb 03 9f 7a 3d 98 8d 33 bc
       0.112536035 -0.0039721658 0.0611868 -0.010959052
000020 90 3a bf 82 d8 32 0d 3e f0 2f 36 3d 63 d0 72 3d
       -2.809854e-37 0.13788927 0.04447931 0.059280764
000030 4d 83 e7 3d 10 41 bb 3c 2a 6e c9 3c a6 a4 29 bd
       0.113043405 0.022858173 0.024588663 -0.041416787

encoder.5.weight f4 [10, 6400]
000000 d3 52 b7 bb ce d3 e5 bc 0c 92 e8 bc 40 83 43 bd
       -0.00559459 -0.028055098 -0.028389953 -0.04773259
000010 fa 0c 2d bd 18 92 c5 bc 0b 61 17 bd eb f4 09 bd
       -0.042248704 -0.024117514 -0.03695778 -0.033680838
000020 37 4a 1e bc 21 fa 8d bb a8 5f 8b bc ff 59 8c bc
       -0.009661249 -0.004332796 -0.017013386 -0.017132757
000030 c6 f6 e7 ba e0 bc 00 3c 62 f9 ce b9 61 74 36 3a
       -0.0017697446 0.007857531 -0.00039477187 0.0006960091
000040 25 9c 48 3c 4b 87 30 3c 91 2d b9 bb 43 0a 65 bc
       0.012244259 0.010774444 -0.005651184 -0.013979497
000050 14 0f 6f ba b2 2c 09 bd 1b 95 f0 bc 43 21 f9 bc
       -0.0009119373 -0.03348989 -0.029367974 -0.030411368
000060 dd 47 1e bd c6 9c fb bc f0 bf 84 bc f7 5e 98 bc
       -0.038642753 -0.030714404 -0.016204804 -0.01859997
000070 08 d0 58 3c 0e 0c 87 bb 9b 34 35 3b a1 d6 54 ba
       0.013233192 -0.00412131 0.0027649764 -0.00081191404
000080 c0 0a 9a 3b 94 3c eb 3c da 40 82 3c 1f 59 ba 3c
       0.0047009885 0.02871541 0.015900064 0.022747574
000090 2b 3f ec 3b 63 6d e4 3b 5a 77 8b 3b 0e 84 7f bc
       0.0072096786 0.0069710477 0.004256171 -0.015595449
0000a0 76 9b de 3c 35 48 f9 3b 91 cb a2 bc e7 93 b2 bc
       0.027173739 0.0076074847 -0.019872459 -0.021799041
0000b0 8b 7d 81 bc 44 54 44 bc 9f 06 97 bc 40 81 ab bb
       -0.015806934 -0.011982981 -0.018435774 -0.0052339137
0000c0 f5 e0 5b 39 dc 06 8a 3c 66 1f 81 3c 03 51 6b 3c
       0.0002096927 0.016848974 0.015762042 0.014362576
0000d0 1e 46 a9 3c 47 39 3d 3c 7e 9d 4e 3c 1d 1a 9c 3b
       0.020663317 0.0115493005 0.012610791 0.004763855
0000e0 ea 07 5d 3c 96 df 0b 3b e0 0a 6a bb 8c e6 c3 3a
       0.013490656 0.0021342984 -0.0035712048 0.0014946028
0000f0 78 ee 76 3d e6 81 fd 3c e7 28 eb bb ed c7 6b bb
       0.060286015 0.03094573 -0.007176507 -0.003597732
000100 b6 02 29 bc df f0 69 bc 4a 4d f7 3b 53 1b 73 bb
       -0.010315588 -0.01427862 0.0075470554 -0.0037095144
000110 0a 22 03 3c 0a 56 14 3c 2f 89 89 3c ea 42 86 3c
       0.008003721 0.009053716 0.016789047 0.016389329
000120 ea 98 bd 3b 57 e6 39 3c 18 b0 c0 3b d6 66 1c 3b
       0.005786051 0.011346421 0.005880367 0.0023865006
000130 af 78 df 3b 8f ec 3b 3c df c6 ec 3b 6f 3f 65 3b
       0.0068198065 0.011469974 0.0072258557 0.0034980436
000140 b0 bb 75 3d 38 32 e2 3c d5 c4 ff bb 71 55 68 bc
       0.059993446 0.027611837 -0.0078054466 -0.014180527
000150 46 f5 09 bc c7 9a 46 3b a0 24 c8 3b 4e 2c ac 3c
       -0.008420294 0.0030304657 0.0061078817 0.02101722
000160 e5 92 21 3c 55 b2 aa 3c 3d 39 33 3d 89 f5 15 3d
       0.009861683 0.020836988 0.04375576 0.036611114
000170 03 e6 88 3c 20 bc be ba b0 d1 6e bc 00 73 b4 bc
       0.01671124 -0.0014551915 -0.014576361 -0.022027493
000180 dc f8 08 3b 78 8e 52 3c bc 7b 72 3c 31 35 e8 3a
       0.0020900285 0.01285135 0.014800008 0.0017716048
000190 d0 18 e3 3c 46 18 a8 ba 72 48 9e bc 8d f1 9c bc
       0.027721792 -0.0012824617 -0.019321654 -0.01915815
0001a0 f4 71 6e bb c4 f4 82 bc 5d 48 0b 39 51 f1 12 3c
       -0.003638384 -0.015985854 0.0001328303 0.008968667
0001b0 30 2a 5c 3c a3 09 20 3d 6a 53 2d 3d 9a e1 36 3d
       0.013437793 0.03907169 0.042315878 0.044648744
0001c0 91 7d b9 3c 30 5c 67 3c 2a 7b 19 bc 96 19 e6 bb
       0.022642883 0.0141211 -0.0093677435 -0.007022093
0001d0 0d ef 6c bc 67 3d a9 ba e6 60 08 3c 8a 6b 60 3a
       -0.014461291 -0.0012911976 0.008323884 0.00085609464
0001e0 c4 4a 14 3c 39 b8 ea bc 93 68 15 bd 86 4d 32 bd
       0.009051029 -0.028652297 -0.036476683 -0.043530963
0001f0 fe f7 e5 bc ed 37 86 bc d6 ea e8 bb c6 8f 35 ba
       -0.028072353 -0.01638409 -0.0071080728 -0.0006926026
000200 cc 91 3a 3c 1b 39 02 3d 81 e6 4b 3d 19 ae fa 3c
       0.0113873 0.03179274 0.049780373 0.030600594
000210 e9 36 85 3b b9 8d 3d 3c cb b2 a6 ba b4 02 12 bc
       0.0040653837 0.011569434 -0.0012718079 -0.008911777
000220 ec aa 37 bc 19 e3 27 bc 23 8e ee 3b ec 1a 87 bc
       -0.011210185 -0.010247015 0.0072801276 -0.01649233
000230 50 e5 c4 bc b3 5d 18 bd ec 0c 16 bd 01 ed f5 bc
       -0.024035126 -0.037198734 -0.036633417 -0.030020239
000240 ec 75 a7 bc 6f d0 25 bb a5 cd b1 bb f5 4e b7 b8
       -0.020441972 -0.0025301238 -0.005426126 -8.740827e-05
000250 29 75 7c ba ed 89 e7 3c 1a 50 1b 3d 3b 94 bd 3c
       -0.00096304953 0.02826401 0.037918188 0.02314197
000260 88 84 f1 3a b4 f2 23 bc 66 3f 24 bc 0c c6 d8 3b
       0.0018426338 -0.010006595 -0.010024881 0.006615406
000270 aa 97 86 3b c1 5c 0e 3c ae de 35 3c 9a dd 9c bc
       0.0041074352 0.008689106 0.011100454 -0.019148637
000280 44 78 c6 bc f6 56 6e bc b7 1e f7 bc 25 8f d1 bc
       -0.024227269 -0.0145471 -0.030166013 -0.025580952
000290 35 25 10 bc 9f 5a 87 bc c7 eb 31 bc 08 13 8f 3b
       -0.008797933 -0.016522704 -0.010859436 0.0043662824
0002a0 28 ec 8a 3b 75 a6 05 3d 8e e8 19 3d 3c 4c e0 3c
       0.004239578 0.03262945 0.037575297 0.027380101
0002b0 22 a1 66 bb 6d 6b 25 bb 4c 8c a2 3b 81 dd 58 3b
       -0.0035191257 -0.0025241033 0.0049605723 0.003309101
0002c0 4a 7a b8 ba 04 3f 5d 3c 4b a4 b8 bb a3 55 a2 bc
       -0.0014074531 0.013503794 -0.0056348196 -0.019816225
0002d0 4d 6d fc 3a ae 50 44 bc 40 df 0d bd 31 d4 82 bc
       0.0019258648 -0.011982126 -0.034636736 -0.015970321
0002e0 0d 8b f4 bb b0 44 7c bc f3 da 85 bc 35 0c 02 bb
       -0.007462865 -0.015397236 -0.016339755 -0.0019843702
0002f0 9e 31 b8 3b bb d9 d7 3c a7 58 63 3a 21 c2 2e 3c
       0.005621149 0.02634894 0.0008672573 0.010666401
000300 0c f3 96 ba 10 51 03 3c 56 4b b5 3c d8 a7 a6 3c
       -0.0011516525 0.008014932 0.02213065 0.020343706
000310 2c c2 27 3c cb 47 8a 3b 88 bd fd 3b 52 58 41 bc
       0.010239165 0.004219984 0.007743541 -0.011800842
000320 c9 ea 58 3d 8c 33 b3 3b 65 f3 b3 bb 6a e5 d1 3b
       0.052958284 0.0054687914 -0.0054916614 0.006405522
000330 9a 12 cc 3b 49 5e 77 bb 9b a2 9a bb 98 c7 9d 3c
       0.0062278034 -0.0037745407 -0.004719091 0.019260213
000340 52 72 f0 3b 07 21 a0 ba 28 f5 04 3b dd 62 37 3c
       0.007337847 -0.0012216874 0.0020287726 0.011193004
000350 ce b0 b5 3c 3e 3b 12 3c 15 b8 5c 3c a6 53 76 bb
       0.022179034 0.008925257 0.013471623 -0.003758648
000360 87 8b 0b bb 41 d5 d3 bb 9a 68 d4 3b 87 77 a1 bc
       -0.0021292882 -0.006464631 0.006482196 -0.019710315
000370 ce 59 81 3d d4 cd 70 3c d2 7e 9d bb 32 0f 45 3b
       0.06315957 0.014697511 -0.004806378 0.0030068872
000380 39 ba 8e 3b c9 1b 66 bc 57 05 69 3c 39 06 50 3c
       0.0043556956 -0.01404471 0.0142224645 0.012696796
000390 d3 30 d4 b9 33 32 24 bc b9 53 29 3b 1f 52 c7 3b
       -0.00040472168 -0.010021734 0.0025837256 0.0060827876
0003a0 61 87 eb 3c d8 b3 2e 3c 35 52 5a 3b dd c9 c5 3b
       0.028751077 0.010662995 0.003331316 0.006036027
0003b0 61 60 b2 b9 51 1e 60 bc 9e 68 bc bb 24 ea 89 bc
       -0.00034022614 -0.013679103 -0.005749776 -0.01683528
0003c0 15 28 81 3d 0e 35 db 3c a6 c7 cc 3b 3d cf 72 3c
       0.06306473 0.026758697 0.006249386 0.014819917
0003d0 58 ed 8c 3b 57 9b f3 bb ac a8 73 3a 55 22 ae 3c
       0.0043007545 -0.0074342894 0.00092948484 0.021256605
0003e0 90 0e 4a 3b c4 a6 9e bc a0 00 f1 3b 52 51 e0 3c
       0.0030831434 -0.01936663 0.007354811 0.027382527
0003f0 89 b0 9c 3c e4 d5 49 3c 82 78 40 3c 65 58 d8 3a
       0.019127147 0.012319062 0.011747481 0.0016505836

encoder.5.bias f4 [10]
000000 19 42 f4 3b 56 2b c5 bb be e6 0a 3c a8 a4 2d 3c
       0.0074541685 -0.006017129 0.008477865 0.010598339
000010 ba 62 7f bb e8 ba 20 3c 6f fb 80 3b a7 3e fb ba
       -0.0038968758 0.009810187 0.003936223 -0.0019168452
000020 0f 89 36 3b 53 cf bc ba
       0.002785269 -0.0014405049

decoder.0.weight f4 [6400, 10]
000000 0a 13 47 3d 29 ee 74 3d e9 4b 98 3d eb d5 4d bd
       0.04860214 0.05979744 0.07436354 -0.050252836
000010 d9 16 1c 3e ea 6b 2d 3d 0a dc 5a be d6 12 a7 3d
       0.1524309 0.042339243 -0.21373 0.081578895
000020 c6 a9 11 bc d7 a6 11 3e 32 e7 1f 3d de 77 de bc
       -0.008890575 0.142238 0.039038844 -0.027156767
000030 3e f1 b7 bb 90 35 f5 3c 9a 1e e8 bd d8 2b 10 be
       -0.005613475 0.029932767 -0.11333962 -0.14079225
000040 53 e1 5f be 57 4f 12 3e 13 87 1e 3e f0 71 bc 3c
       -0.21863298 0.14288078 0.15481214 0.023003548
000050 17 05 40 bc e4 78 a7 3c 75 2c fd 3c ec e9 02 3e
       -0.0117199635 0.020443387 0.030904988 0.12784547
000060 d9 9d 90 bd ca 20 5e 3d d6 54 3f 3e c0 10 dd bc
       -0.07061357 0.05423049 0.18684706 -0.026985526
000070 77 97 5d 3e 1e ca 1c be f0 1a 6c 3b 71 b2 43 bc
       0.2163981 -0.15311477 0.0036026798 -0.011944399
000080 34 7b 0f 3e 90 3e c8 bd e3 d5 e1 3c ff f8 62 3d
       0.14011842 -0.09777558 0.02756781 0.055413242
000090 66 2c 13 bd 0c 66 cb 3d e4 77 ed b9 19 c2 7e 3e
       -0.035931014 0.09931573 -0.00045293488 0.2487873
0000a0 53 c2 fc bd 8e 79 f4 bd 20 9b 94 3d 67 82 ac 3d
       -0.12341752 -0.11937247 0.0725615 0.0842331
0000b0 a1 35 99 bd 1c 75 80 bd 37 86 91 3b a5 c7 27 3e
       -0.07480932 -0.06272337 0.0044410485 0.16384752
0000c0 98 8a a4 bd c4 80 33 3e 4b 12 05 be d2 68 76 3e
       -0.08034247 0.17529589 -0.1299526 0.24063423
0000d0 24 56 87 be 7b a3 18 3d 93 c9 02 bd e2 bb bb bc
       -0.26432908 0.037265282 -0.031930517 -0.022916738
0000e0 a7 10 ba 3c 44 ea 15 3e 43 ed dc 3c 3e cc 99 bd
       0.022713019 0.14640146 0.026968604 -0.07509659
0000f0 89 2b 0c be c6 16 0f bd 4d 20 c9 bd f1 da 31 be
       -0.13688482 -0.034933828 -0.09820614 -0.17368676
000100 a8 53 f3 bd 4c 76 e7 3c 60 4e 79 bd 4f a4 67 3e
       -0.118811905 0.02825465 -0.06086576 0.22621273
000110 e4 ab bd 3d d8 78 31 bd fb 1d 26 3d f7 12 37 bd
       0.09261301 -0.043328136 0.040555935 -0.04469582
000120 13 18 80 bd 8a 44 8e 3e ce be 05 be 20 a7 f4 3c
       -0.06254592 0.27786666 -0.13061067 0.029864848
000130 6d cc 72 3e b9 ab 77 3e e1 a1 15 3e 2a 3a 6d 3e
       0.23710795 0.241866 0.14612533 0.23166719
000140 13 df fd 3b e0 7f a1 ba 74 79 86 be 1e 4b 4d ba
       0.00774754 -0.0012321435 -0.26264536 -0.0007831323
000150 f7 e5 4c 3e 4b 83 52 be d8 20 cc bd e3 39 10 3e
       0.200096 -0.20557897 -0.09967202 0.14084582
000160 fb 11 f1 bc 27 58 0a 3d 6e 84 1a be 94 b6 4e 3e
       -0.029427519 0.033775475 -0.1508958 0.20186836
000170 7e a7 8b be bd 39 c2 3c 82 e3 2e 3e b7 54 b0 bc
       -0.27276224 0.023709172 0.17078975 -0.02152477
000180 2f b2 a0 3b ab 63 74 be d1 3e 9b 3e bc d4 25 be
       0.0049040536 -0.23866145 0.30321363 -0.16194433
000190 a7 ed 01 3d 9b 26 4e 3d 19 b3 2b 3d 85 39 00 be
       0.031720784 0.050329786 0.041918848 -0.12521942
0001a0 08 3d fe bc cc fe fa bd a7 7c b5 3d 2f fa 64 3e
       -0.031034961 -0.1225563 0.08861666 0.22361062
0001b0 63 ed 11 be 9f 3c 17 3d 8e 3e 1e be 00 75 03 3d
       -0.14250712 0.036923047 -0.1545355 0.032094
0001c0 df 19 ec 3a 5f ba 41 3e 0e 44 d9 bd 85 26 63 3e
       0.0018013081 0.18918751 -0.106086835 0.22182663
0001d0 bf 5f b6 bd 44 de 8c 3d 5b 80 5f 3e 4b c2 d6 bd
       -0.08904981 0.06878331 0.21826307 -0.10486277
0001e0 0c df 0a be b5 9a 7a 3e 8e be 01 3d 06 4e 1c 3e
       -0.13561648 0.24473079 0.031675868 0.15264139
0001f0 a8 0f 41 bd 88 a4 80 3d 06 26 2e be 92 31 af bd
       -0.04713407 0.06281382 -0.17006692 -0.08554377
000200 c6 87 0c be 1b 14 26 3e 2d 5f 1b 3e f2 59 51 bd
       -0.13723668 0.16218607 0.15173025 -0.05111117
000210 04 74 d7 3d 43 63 0d be fb ad 92 bd 92 e2 fb bd
       0.10520175 -0.13807397 -0.071620904 -0.12299074
000220 3a f3 88 3d 1a 98 40 3e 7e bf 86 bd 40 2e d0 bc
       0.06687017 0.18808022 -0.06579493 -0.025412679
000230 c3 5a 6a 3e 8d c9 23 3e f3 04 40 3e 4f 67 e9 3d
       0.22886185 0.15994854 0.18751888 0.11396658
000240 fd f7 06 3e cd f5 4e be 83 a3 4a be 8a 10 af 3d
       0.13180538 -0.20210953 -0.19788937 0.085480765
000250 4f 74 2f be 45 fe dd bd d7 08 5a 3e 75 7f 19 3e
       -0.17134212 -0.10839514 0.21292435 0.14990027
000260 36 74 7b 3d dc fc 57 be 8a c1 5f 3e 40 cb dd bd
       0.061390124 -0.21092552 0.21851173 -0.108297825
000270 e5 8c b0 3d 37 3a 9d be da 84 ab bd 7f 94 25 bd
       0.086206235 -0.30708477 -0.08374949 -0.04042482
000280 d6 26 3e 3e 53 02 d0 3d 33 5e 85 bd 32 31 84 bd
       0.18569502 0.10156693 -0.06512108 -0.06454696
000290 21 39 91 be e1 41 55 3e b7 f7 e0 bc a3 52 ce bd
       -0.28363898 0.20825912 -0.02746187 -0.100743555
0002a0 8e 81 07 3e 0a 53 0a 3e 14 6b 1e be c7 8e 0f 3e
       0.13233015 0.1350824 -0.15470535 0.14019309
0002b0 83 f4 bf bd be 6e f5 3d 68 6b 5e be ea f9 85 3d
       -0.09372809 0.11984013 -0.2172066 0.06541808
0002c0 25 e8 4a 3e f2 5e fc bd d7 3b 6c 3d 54 21 28 3e
       0.19815119 -0.12322797 0.057674255 0.16418964
0002d0 7a a2 74 bd 6c 48 22 3d 60 0b 0a 3e 7d bd b7 bd
       -0.059725262 0.039619848 0.13480902 -0.08971689
0002e0 b1 11 b6 bd ba be b8 bd 1a 46 0c be 37 62 6b bd
       -0.08890093 -0.09020753 -0.13698617 -0.05746671
0002f0 17 e5 4d be 57 87 09 3e 82 c3 fb 3d cd f3 81 bd
       -0.20106922 0.13430534 0.122931495 -0.063453294
000300 12 30 39 3d 05 94 4d 3e 55 a6 6c 3e a8 8e 2d 3e
       0.04521186 0.20075996 0.23110326 0.1694895
000310 1a 4a 00 be 47 8a 14 be f7 43 d4 bd ad d7 e0 bd
       -0.12528268 -0.14505874 -0.10364526 -0.10978637
000320 8e 54 57 bd 29 21 f6 3d 72 4f 24 3d da 18 c8 3c
       -0.052570872 0.120180435 0.040114827 0.024425913
000330 02 50 39 be 4a fa ae bd dc 82 26 bd 85 93 ba bc
       -0.18096927 -0.085438326 -0.04065214 -0.02277542
000340 19 6b be 3d ad be f1 3b 4f 29 41 3d d4 7a 1e 3e
       0.09297771 0.0073774667 0.047158536 0.15476543
000350 95 65 ee 3d 2f a0 3b 3d 89 28 0e 3e d9 3a 4a bd
       0.11640469 0.04580706 0.1388265 -0.049372528
000360 65 a9 d8 3d 18 30 1b 3e 8a 82 41 be d8 d5 8f 3d
       0.105791844 0.15155065 -0.18897453 0.07023209
000370 70 7b 00 be c9 ce 44 3d 58 55 22 3c c5 1d e8 bd
       -0.12547088 0.04804877 0.009908043 -0.11333803
000380 e3 77 c0 bd 05 bf fd 3d 83 c6 5a 3d bb fe ea bd
       -0.093978666 0.1238995 0.05341197 -0.11474367
000390 d1 22 c4 bd 9a 1d 2c 3e 31 9d 49 bd 6e 3f 0b 3d
       -0.09576953 0.16808167 -0.049222175 0.03399604
0003a0 90 ce f9 bc a4 14 53 bc a7 bf bc 3b 20 14 8e bd
       -0.030494004 -0.012883339 0.0057601514 -0.06937432
0003b0 4e 2d b1 3d bf 06 13 be ee 30 69 3e ec 2f 97 bd
       0.08651219 -0.14358042 0.22772571 -0.07382187
0003c0 fb a3 95 be 0d 0f 6d 3e 04 0c 56 bc d8 56 c8 bd
       -0.2922667 0.23150273 -0.013064388 -0.09782189
0003d0 53 ce 65 be f2 08 a1 bd 9b 4d 14 be a1 18 92 bd
       -0.22441988 -0.07863034 -0.14482729 -0.07133604
0003e0 da 3c 0f be 09 11 86 3d d8 8c 0d bb 63 22 51 3d
       -0.13988057 0.06546218 -0.0021598842 0.051058184
0003f0 30 32 c6 bd 42 78 12 3e 13 46 ff bc 28 6c 31 bd
       -0.09677541 0.14303687 -0.031161344 -0.043316036

decoder.0.bias f4 [6400]
000000 0c 62 91 3c 6b bb 73 3c dd 28 8a 3b 7f 1e bd 3c
       0.017746948 0.014876227 0.004216297 0.02308583
000010 7e e8 c4 3b 76 ab 86 3b d3 c2 7d bc 43 c6 9a bc
       0.0060091605 0.004109795 -0.015488344 -0.018893367
000020 07 81 01 bd d4 e6 44 bd 46 8f 38 ba c1 ad 5d 3b
       -0.03161719 -0.048071697 -0.00070403924 0.003382549
000030 03 21 15 bc 2f 2e 8c 3b c8 90 05 bc 1e 39 e2 3c
       -0.009102109 0.0042779665 -0.008152194 0.027615126
000040 22 64 a4 3c 52 67 cd 3b 8b 95 ba 3b 1f 31 30 3c
       0.020067278 0.0062684203 0.0056940964 0.010753899
000050 c8 07 46 3c 7a ba 18 3c b3 88 7d 3c 41 c1 92 3b
       0.012086816 0.009321803 0.015474486 0.004478604
000060 1e c7 50 3c a9 d3 f0 bb 9a 67 85 bb 41 17 8c 3b
       0.012742786 -0.0073494506 -0.004071188 0.004275233
000070 47 53 1e bc e2 34 ae bc 60 64 94 bc e1 5a 23 bc
       -0.00966341 -0.02126545 -0.018114269 -0.009970398
000080 6c 3b 2f bb ee 73 e7 3b a1 b0 01 bc d4 31 34 3b
       -0.00267383 0.0070633804 -0.007915647 0.002749552
000090 56 cd 59 3b 16 8f ae 3b 7c 2e 08 bc a8 91 36 bb
       0.0033233962 0.0053271158 -0.008311864 -0.0027857814
0000a0 3a 0c a0 ba 41 8f 89 3c 71 8b 58 3a c1 fc 89 bb
       -0.0012210675 0.016791942 0.00082605245 -0.004211039
0000b0 7a 9d 59 bc 8f 85 7b ba 31 2b b2 bc 1d a8 ce bc
       -0.013282174 -0.0009594792 -0.02174911 -0.025226647
0000c0 d4 a7 14 3c 6e 36 25 3c 27 00 d4 bb c4 80 15 3c
       0.0090732165 0.010083778 -0.0064697447 0.009124938
0000d0 78 9f 15 bb 04 6c 39 bc 5d 77 69 bc 4b f2 ea bc
       -0.0022830646 -0.011317257 -0.01424965 -0.028679987
0000e0 00 bd cf bb ad 03 93 ba 5b 1d 99 3b 1f a2 80 3b
       -0.006339669 -0.0011216305 0.004672689 0.0039255763
0000f0 c1 95 26 3b 2c d2 16 3b 69 26 e3 3a ab a6 83 bc
       0.002541885 0.0023013456 0.0017330173 -0.016070684
000100 e7 05 e0 bb 81 08 20 bc 80 07 cc bb ab 5e b1 3c
       -0.006836641 -0.0097676525 -0.00622648 0.021651587
000110 7b 0a 09 3d 65 dd b3 3c 41 a7 32 bb 32 d5 10 3d
       0.03345726 0.021956155 -0.0027260336 0.03535957
000120 cc c5 7f 3b 1d a1 35 bb 7d 77 ad 3c b0 8a 22 bc
       0.0039027808 -0.002771444 0.02117514 -0.009920761
000130 a5 98 ba bb 6a f4 fd 3c 54 25 bf 3c 4f 3e 27 3c
       -0.005694466 0.031000335 0.02333323 0.010207727
000140 49 22 42 3b 15 72 df bb 78 0d 2b bb 6e c1 72 ba
       0.0029622486 -0.0068190196 -0.0026100557 -0.00092603907
000150 de 67 9f bb 9a 3f a8 3c 7d 4f 8a 3c 86 13 3e 3d
       -0.004864677 0.02053814 0.016883606 0.046405338
000160 50 b2 50 3c a4 95 e9 3d 57 31 1b 3d dc 59 36 3c
       0.0127378255 0.11405495 0.03788885 0.011129823
000170 6e 10 48 3c 3d f5 99 bb 9a f4 a8 3c 96 33 1f bb
       0.012210948 -0.004698424 0.020624448 -0.0024292222
000180 64 33 17 3c 75 ff bb ba 14 c9 28 3c e8 32 de 3b
       0.009228561 -0.00143431 0.010301847 0.006780971
000190 33 5c 90 bb 00 84 9e bb 95 a0 6e 3b 73 0c c7 bb
       -0.0044055223 -0.004837513 0.0036411632 -0.006074482
0001a0 94 18 99 3c e3 b7 be 3c b9 2d 94 3d 44 01 1a 3d
       0.018688478 0.023281043 0.072352834 0.037598863
0001b0 87 83 bc 3d 3c 94 1c 3d 9d d1 c4 3c c3 3a 45 3c
       0.09204774 0.038227305 0.024025733 0.012037936
0001c0 5d 15 a0 3a 80 0d 05 3d 4a b3 9d 3c e5 6d 25 bb
       0.0012213398 0.032483578 0.01925053 -0.0025242504
0001d0 c0 3f 98 3a 97 3d e2 3c 04 f4 9a 3c 97 0d 5e 3b
       0.0011615679 0.027617259 0.018915184 0.0033882612
0001e0 3d e9 0e 3c 94 3c 4c bc 9a c1 60 3b 21 21 21 3c
       0.0087226005 -0.012465615 0.0034295083 0.009834559
0001f0 93 52 99 3a 87 31 af 3d 57 57 a1 3d c7 4b 89 3c
       0.0011697583 0.085543685 0.07877987 0.016759766
000200 ee 22 15 ba 20 3a cd 3c 76 5b cc bb c3 dd ce bb
       -0.0005689104 0.02505213 -0.006236489 -0.006313057
000210 c3 99 f1 bc f0 09 a4 bb ec ed 88 bc 2a c3 15 3b
       -0.029492265 -0.0050060675 -0.016715012 0.0022851923
000220 6c 59 ed 3c 98 4d 35 3c 79 86 fb ba 04 59 02 bc
       0.028973304 0.011065863 -0.0019189856 -0.007955793
000230 5b 22 ee ba ad 1d 34 3c 95 24 ee 3a 1e 8d 0c 3d
       -0.0018168198 0.010993403 0.0018168861 0.034314267
000240 d4 9b 9f 3c 1d 74 e1 3b e6 82 8e 3d e1 90 89 3d
       0.019483484 0.006880297 0.06958561 0.067170866
000250 cf 9e cd bc 0d 31 14 3c ed 42 f6 bb 24 2b 4f bb
       -0.02510014 0.009044898 -0.0075153024 -0.0031611407
000260 45 35 04 bb 49 96 52 bc 30 b9 90 bb 4b fc 47 3d
       -0.0020173353 -0.012853214 -0.0044166073 0.04882459
000270 20 8e 01 3d c6 29 88 3c 41 5b cc 3c 6a 98 46 3b
       0.03162968 0.016621482 0.024945857 0.0030303248
000280 1b 37 94 bb 0b 77 96 3c b7 2a 81 3b 14 a8 a1 3c
       -0.0045231706 0.018367311 0.0039418596 0.019733466
000290 67 36 95 3c c2 fe 92 3c cd f2 12 3c 96 44 16 bd
       0.018214418 0.017943744 0.008969021 -0.036686502
0002a0 aa 02 e8 bc 2c 5e 6c bd 85 9c bc bc 9f 72 ed bc
       -0.028321583 -0.057706997 -0.023023853 -0.02898532
0002b0 6d 7a 64 bc 41 f3 64 3c 7f 3b 11 3d ec f8 b2 3c
       -0.013945204 0.013974012 0.03545713 0.02184721
0002c0 9a c3 df 3b ab eb 98 3c 46 c6 80 3c 1f 76 84 3c
       0.0068287374 0.018667063 0.015719544 0.016169606
0002d0 f6 ed 32 3c 56 43 c1 3c c8 db ba 3c c5 6f 12 3c
       0.010920992 0.023591679 0.022809878 0.008937781
0002e0 67 9e fd 3c e4 34 91 3c 23 99 8e bc 9e 53 70 bc
       0.030959321 0.017725416 -0.017407006 -0.014668373
0002f0 a6 bb c2 bc 5d 91 1f bd a8 bc c3 bc 39 7a 30 bc
       -0.023771118 -0.03895699 -0.02389367 -0.010771328
000300 2b 54 1e bb 2d c3 8c bb 4a 6e 43 3c 5a 23 8a 3c
       -0.0024159055 -0.0042957277 0.01192815 0.01686256
000310 08 2b ac 3c 02 90 e8 3b e3 20 32 3c 0b 3e 1a ba
       0.021016613 0.007097245 0.010872099 -0.0005883879
000320 bf dc 39 3b 13 7f 67 3c fd b9 9d 3c 35 f0 35 3c
       0.0028360335 0.014129418 0.019253725 0.011104633
000330 64 8a e6 bb ba e9 12 3b 12 19 06 bc 74 ae ce bc
       -0.0070355404 0.0022417144 -0.008184688 -0.02522967
000340 f6 04 21 bc 6e ac 7e bb 12 ac 20 3b 60 4f 99 ba
       -0.009827843 -0.00388601 0.0024516624 -0.0011696629
000350 ac 88 8c 3d 03 9c 0d bb c7 49 55 3d 91 a9 4b 3c
       0.068620056 -0.0021607883 0.052072313 0.0124305645
000360 48 27 32 bc db cd 25 3c f1 06 8d bb b4 3e c8 3b
       -0.010873623 0.010119881 -0.004303806 0.0061109904
000370 c0 96 0c 3c 14 71 62 3c da 90 0c 3c ed 45 bb 3b
       0.0085808635 0.013820905 0.008579457 0.005715123
000380 36 81 e9 3b e2 0e ab 3b 13 75 24 bc 01 2f d9 bb
       0.007125999 0.00522028 -0.010037678 -0.0066279178
000390 d6 09 8d bc 2e c4 60 3b 41 0d 9e 3d 60 d8 8f 3d
       -0.017216604 0.003429662 0.07717372 0.07023692
0003a0 03 2d 68 3d fb ce 9e 3c 1c 0e 77 3c db 88 27 bc
       0.05668355 0.019385805 0.0150790475 -0.0102255
0003b0 d5 9f 93 bb f8 3b 8e 3b f1 a6 0b bb 22 fd 2e 3c
       -0.0045051374 0.004340645 -0.0021309222 0.010680469
0003c0 6f 43 53 3c d8 d9 48 3c 7c b2 51 3b 14 2c d9 3b
       0.012894495 0.012258969 0.0031997254 0.006627569
0003d0 b2 59 35 3c c3 de 2c bb 7e 85 0b 3d d6 4c 6f 3c
       0.011068748 -0.0026377894 0.034062855 0.014605721
0003e0 75 73 ce 3c 74 1f 0f 3d a6 6c 51 3c 63 9b 9f 3d
       0.025201539 0.034942105 0.012782251 0.077933095
0003f0 7c 9f 97 bb 8b 5e 41 3a 19 8f 9f ba 4f aa c6 bc
       -0.0046271663 0.0007376454 -0.0012173384 -0.024251131

decoder.3.weight f4 [16, 6, 5, 5]
000000 bb 9a 2d 3d 7f a2 a6 bc cb 62 59 3c 28 ef 00 bd
       0.04238389 -0.020341156 0.013268183 -0.031478077
000010 27 02 73 bc aa 53 96 3c 62 20 c4 bc 7a 6a 93 3c
       -0.014832056 0.018350441 -0.023941223 0.017995108
000020 e3 3a c1 bd 6f 55 a6 bd 09 df 62 3d 31 10 0b bc
       -0.0943506 -0.08121764 0.055388484 -0.008487747
000030 2b 89 9e bc 53 21 52 bd 7b b6 a5 bd b5 b3 55 bd
       -0.019352516 -0.05130131 -0.08091446 -0.052173335
000040 3a 7b 6c bd ec 73 c6 bd 3a 3b f5 bd 00 a1 1f be
       -0.057734706 -0.09690079 -0.11974187 -0.1558876
000050 bc 57 9c bd cc 55 e0 bd d6 85 bf bc 98 68 ab bd
       -0.076339215 -0.109538645 -0.023379248 -0.08369559
000060 a4 bc 09 be 24 da de 3d 1f f1 2a 3d 69 67 30 bd
       -0.13450867 0.10881451 0.041733857 -0.04306737
000070 00 f4 1f 3d ea c1 61 3c a9 43 ec 3b fd 82 35 bb
       0.039051056 0.013779143 0.007210214 -0.0027696483
000080 1b b6 b1 bc 39 04 c2 bd d1 73 b3 bc 36 81 8f bd
       -0.02169328 -0.09473462 -0.021905812 -0.07007067
000090 18 5a 49 bd 6d 8d d7 bc 57 41 e4 3c 53 21 17 bd
       -0.049158186 -0.026312554 0.027863188 -0.036897015
0000a0 5c ae b5 ba 6d 6f 83 bd 13 8a 52 3d 84 83 8a bc
       -0.0013861167 -0.06417737 0.05140121 -0.016908415
0000b0 d5 82 c5 bc 03 e7 1d bd 31 77 0f 3b 05 4a 6d bd
       -0.024110237 -0.038550388 0.0021891112 -0.05793192
0000c0 dc 6f 2b bc e3 66 2f 3d 80 80 80 bd aa 9d 0f bd
       -0.010463681 0.04282273 -0.062745094 -0.03506247
0000d0 ca bc b0 bc 4e 59 99 bc 5f cf 30 bc 19 5a 65 bd
       -0.021574397 -0.018719342 -0.010791629 -0.055994127
0000e0 e6 42 0f bb 68 03 81 bd 70 d4 ab bc ae d6 24 bd
       -0.0021859943 -0.06299478 -0.020975322 -0.040243797
0000f0 55 fb 95 bd 20 e1 58 bd 31 61 11 3d a1 c2 22 bd
       -0.073233284 -0.05294907 0.03549308 -0.039736394
000100 4f 3d 72 bd f3 84 b3 bc 82 f1 dd bc bf f9 98 3d
       -0.0591405 -0.021913981 -0.027092699 0.0746951
000110 b0 7c 89 bd db aa 12 bd bc d1 cb 3b 9c 11 0e 3d
       -0.067132354 -0.03580747 0.0062200706 0.034684762
000120 4e 89 f8 3c 89 3b c4 3c f7 4d 21 bd d5 78 3c bb
       0.03033891 0.02395417 -0.039380994 -0.0028758545
000130 70 51 c4 3c 0e c9 94 3d e6 fb 48 3d 91 ea 2b 3d
       0.023964614 0.07264911 0.049068354 0.041971747
000140 de fd 8c 3d 6a 0d 9c 3d f7 26 00 3e 44 fa d2 3d
       0.06884359 0.07619746 0.12514864 0.10301641
000150 1c 5a e4 3c 8f 1f 86 3d bd eb 8d 3d d9 01 bc 3d
       0.027874999 0.06548988 0.06929729 0.0918004
000160 81 3e a8 3d 81 fd 2d bc d7 9b 65 3d 42 1e 09 3d
       0.08215047 -0.010619522 0.056056824 0.03347612
000170 2f 9c 5d 3d ab 90 d6 ba 73 98 c0 bc d5 02 cf 3c
       0.054104026 -0.0016370019 -0.023510193 0.025269905
000180 fa 27 13 3d 11 eb 33 3d 34 e5 04 bc 1a ea 84 bc
       0.035926796 0.04392535 -0.008111287 -0.01622491
000190 d7 95 c5 bb 7c 31 bb 3c 67 a9 6a bc b0 3b b0 3c
       -0.006029825 0.022850744 -0.014322615 0.021512836
0001a0 a1 48 9a bd 54 b6 51 bc 61 f5 18 bd 89 67 5b 3d
       -0.07533384 -0.012799818 -0.037343387 0.053565536
0001b0 6b 92 33 3c c3 02 2e bd d6 69 5a 3d 21 31 86 bc
       0.010960202 -0.042483103 0.05332359 -0.016380848
0001c0 ba b5 a6 3b ee 24 95 3d bc 32 de 3d b2 97 13 3d
       0.0050875815 0.072824344 0.108495206 0.03603334
0001d0 24 19 94 3d 6a 04 b7 3d 31 46 11 3d df 7f fe 3d
       0.07231358 0.08936389 0.03546733 0.12426733
0001e0 75 fa 78 3d 88 2e 2d 3d 78 c9 ec 3d 99 61 4c 3d
       0.06078573 0.042280704 0.115618646 0.049897764
0001f0 38 d0 db 3d 02 38 b6 bd 0b cb c8 3c 1c 52 35 bd
       0.10733074 -0.088974014 0.024510881 -0.04426776
000200 df 35 66 bd 28 d8 5a bd 2a cd 6c bd 47 89 cc ba
       -0.05620372 -0.0534288 -0.057812847 -0.0015604877
000210 98 75 2e bb 5c a1 6b bc f1 9b 81 bd 53 98 a6 bc
       -0.0026620384 -0.014381733 -0.063285716 -0.020336306
000220 ce ee 1f bd 25 41 94 bd 83 46 d2 bd dc be 8e bc
       -0.0390461 -0.07238988 -0.10267355 -0.017424993
000230 00 3a 68 bc 39 de 11 bd c8 37 df 3c 06 bf 0f bd
       -0.0141739845 -0.03561232 0.027248278 -0.035094284
000240 48 b4 9e bc bf e5 88 bc 8d 8e 93 bc ab df a3 3d
       -0.019373074 -0.016711114 -0.01801231 0.08001646
000250 18 e0 09 3c 26 29 66 3d b1 77 f9 3c 12 e5 7a 3d
       0.0084152445 0.056191586 0.030452581 0.061253615
000260 c1 b5 51 b9 1f 92 91 3d 70 0c 12 3d 8d b6 78 ba
       -0.00019999502 0.071079485 0.035656393 -0.00094876514
000270 e1 be b6 bc 49 f4 32 3c f1 f7 5d 3d d4 bd 5b bc
       -0.022307815 0.0109225 0.054191533 -0.013411958
000280 38 7b 15 3d 15 7d 4a 3d a9 38 ca 3d 21 82 bf 3c
       0.036494464 0.049435694 0.09874088 0.02337748
000290 51 0c d9 3c 71 35 37 3d f6 6c fe 3b 9c 71 0f 3d
       0.02649513 0.0447287 0.007764454 0.035020456
0002a0 e0 4f 00 3d ee ba 51 3c ff bb d0 bc 22 3d 6a 3c
       0.031326175 0.012800915 -0.025480269 0.014296802
0002b0 3b 9e d1 3c 84 bf 34 3d 53 b7 59 bc 14 83 39 3d
       0.025588145 0.044127956 -0.013288337 0.04529102
0002c0 64 0c 15 3a 4a c0 82 bd 7a b8 c2 bc ef 85 77 bd
       0.0005685745 -0.063843325 -0.023769606 -0.060430463
0002d0 ce 38 9f bc 6d 77 03 3c 20 cb 9a bd 0c 38 26 bd
       -0.019436266 0.008024079 -0.07558274 -0.040580794
0002e0 d2 ee 08 3d ef f0 00 bd b2 7f 2a 3c 7d 74 98 3c
       0.03343088 -0.031479772 0.0104064215 0.018610233
0002f0 d7 73 c8 bd 07 b0 0d bd 03 b1 45 bd 6b 4b 3b bc
       -0.0978772 -0.0345917 -0.048264515 -0.011431555
000300 41 ad 96 bc 43 42 b0 bd 73 56 78 bd c7 5d d3 bc
       -0.01839316 -0.086063884 -0.06062932 -0.025801552
000310 27 cc b8 bc d1 31 02 be b1 39 55 bd c7 b1 89 bd
       -0.022558285 -0.12714316 -0.052056972 -0.067233615
000320 74 1e a6 3c 4a 60 82 bd 27 64 0d 3d bf 2e 4f bd
       0.020278193 -0.06366022 0.03451934 -0.05058169
000330 79 8a e2 bc e4 cd 07 bd ee b4 d1 bc bd 8a e6 3c
       -0.02765392 -0.033155337 -0.02559897 0.028142327
000340 56 37 96 3c 6d f6 49 bd 99 71 1f 3d 10 90 a9 3d
       0.018336933 -0.049307276 0.038926695 0.08279431
000350 8a 81 44 39 b5 a7 4f 3d 13 13 86 3d 59 f4 80 3d
       0.00018740274 0.050697047 0.06546607 0.062966056
000360 97 4e 98 3c 96 89 3a bd a9 91 8a bd b9 ff 0a 3c
       0.018592162 -0.04554137 -0.06766064 0.008483821
000370 c4 6b 1a bd eb 34 85 3d 4b 01 90 3d 10 36 c2 ba
       -0.03770043 0.06504234 0.070314966 -0.0014817137
000380 bc 1e 58 bd 1d ed 4f 3c e3 22 f6 3c 0b 0e 8e 3c
       -0.052763686 0.01269081 0.030045932 0.01734068
000390 9e 95 57 3c cb a6 58 3d 17 19 f0 3c 7c 82 61 3c
       0.01315823 0.05289344 0.029308839 0.01376402
0003a0 0b 81 90 3d 7f 97 cf 3c 04 be fa 3c 3e 0d 98 bb
       0.07055863 0.025340794 0.030608185 -0.0046402505
0003b0 0c f0 f5 3c c3 56 cf 3d 6b bd 33 3d 79 f2 64 3d
       0.03002169 0.1012397 0.043881815 0.055895302
0003c0 75 f0 8e 3d eb 0c b1 3d 2f 7e 92 3d 1b f0 15 3d
       0.06979457 0.08645042 0.07152974 0.036605936
0003d0 36 d8 6c 3d f7 32 9a 3d 69 1a 8a 3d 66 0e 9c 3d
       0.057823382 0.07529252 0.067433186 0.07619934
0003e0 2e 9c 01 3d 11 5e 02 3d b7 41 29 bd 10 d2 9d bd
       0.031643085 0.03182799 -0.041322436 -0.07706082
0003f0 dd a9 88 3c e8 ff 8e bc 4f 3e 2b bc be 86 5c bd
       0.01668256 -0.01745601 -0.010451867 -0.053839438

decoder.3.bias f4 [6]
000000 f8 92 8f be e8 ee 87 3e 56 c7 92 be fc 7e ec bd
       -0.28041816 0.26549459 -0.28667706 -0.11547658
000010 49 c9 7f 3e 95 8c 29 3e
       0.24979128 0.16557534

decoder.5.weight f4 [6, 1, 5, 5]
000000 a6 02 1f be 0c 78 0d be 19 4b e4 bd 3e d2 d7 bd
       -0.15528354 -0.13815325 -0.11147136 -0.105381474
000010 77 27 87 bd 3f 1d 17 be 1e 03 38 be c4 1d 03 be
       -0.06599324 -0.1475725 -0.17969939 -0.12804323
000020 ec 3e 35 3c ce e4 7a 3d 59 df 5c bd 9b 07 f8 3c
       0.011062365 0.06125336 -0.05392394 0.030277064
000030 9b 45 c3 3c 55 95 70 3d 3c 00 2d 3e 25 0e d2 3c
       0.023836901 0.058736164 0.1689462 0.02564151
000040 0c d0 ec 3d b4 74 68 3e ab c3 84 3e bd 2a 46 3e
       0.11563119 0.22700769 0.25930533 0.19352241
000050 d6 f9 8f 3d 4c e0 34 3e 42 b7 42 3e 16 0d 5a 3e
       0.07030074 0.17663687 0.1901522 0.21294054
000060 42 99 09 3e 53 46 36 be 08 10 8d be 43 d4 6c be
       0.1343737 -0.17800264 -0.27551293 -0.23127846
000070 88 d7 25 be ec d2 c8 bc 08 87 2a be f8 10 88 be
       -0.161955 -0.024514638 -0.16653073 -0.26575446
000080 5f b6 a6 be fb e8 82 be c0 97 f0 bc 22 a2 a5 bd
       -0.32561013 -0.25568375 -0.029369235 -0.08087565
000090 af c2 d2 bd 34 05 2f be 57 ac 26 be d4 d9 17 bb
       -0.10291039 -0.17091829 -0.1627668 -0.0023170607
0000a0 0b 85 0c be 90 83 02 be 7e a5 fc bd 04 c0 d9 bd
       -0.13722627 -0.127455 -0.12336253 -0.10632327
0000b0 dc 9a 8c 3c 90 d3 9d bd d4 4b d6 bd e1 93 73 bd
       0.017163686 -0.07706368 -0.10463682 -0.0594672
0000c0 36 ed 16 bd 71 96 5f 3d e9 23 97 3d 54 9b 07 3e
       -0.036847316 0.05458683 0.07379896 0.13242847
0000d0 02 17 30 3e a7 15 07 3e 88 a0 33 3d ac 2f db 3d
       0.17196277 0.13191853 0.043854266 0.10702452
0000e0 26 72 b8 3d 12 d9 06 3e 2a a1 d1 3d 5a 5d b3 3d
       0.09006147 0.13168743 0.10235818 0.0875804
0000f0 22 4b 61 3d 32 ac bb 3c a2 74 66 3d 04 e8 a8 3d
       0.055003293 0.022909258 0.056263573 0.082473785
000100 8c 98 4b 3d 4a e3 1f 3d f0 b0 f7 3d 40 5e 42 3e
       0.049706027 0.03903512 0.12094295 0.18981266
000110 41 55 12 3e 3d a5 ba 3d 85 02 16 3d 49 c3 3f 3c
       0.14290334 0.09113548 0.036623497 0.011704274
000120 0a 42 05 3e 3f ac 07 3e 7a 96 c4 3d 29 b9 da 3d
       0.13013473 0.132493 0.095990136 0.10679848
000130 09 0c 50 3d a0 4f 68 bd 8e 9f 03 bd bc 06 22 be
       0.050792728 -0.05671656 -0.032134585 -0.15822881
000140 43 19 74 3e 99 6b 3b 3e 14 fe d3 3b 20 2e 14 bd
       0.23837762 0.18302764 0.0064694975 -0.0361768
000150 04 88 40 3d 57 1c 82 3e 9a 23 cf 3d af 61 42 3e
       0.047004715 0.25412247 0.10114212 0.18982576
000160 39 9b 1d 3d c3 88 b9 bd b8 80 b8 3d 8c 84 02 3e
       0.03847811 -0.09059288 0.09008926 0.12745875
000170 69 40 e3 bd 8d 05 29 be 50 c4 3c be 5e ba 1a be
       -0.1109627 -0.16506024 -0.18434262 -0.15110156
000180 69 f2 c3 bd e8 fd 18 3c b9 05 82 be 03 c8 90 be
       -0.095677204 0.00933788 -0.2539499 -0.28277597
000190 79 97 a0 bd b9 54 1c be 2b d8 f0 bd e7 1f d7 bd
       -0.07841391 -0.15266694 -0.11759981 -0.10504132
0001a0 a5 96 1b bd 8e 2d 60 be 1b 44 55 be 44 f9 6b be
       -0.037985463 -0.21892378 -0.20826761 -0.23044306
0001b0 6b 8f 52 be 2a c8 a5 bd 40 92 89 be 79 c3 81 be
       -0.20562522 -0.08094819 -0.26869392 -0.25344446
0001c0 07 bc 07 be d7 44 03 be e1 9c 2d be b1 6b 41 be
       -0.1325532 -0.12819229 -0.16954376 -0.18888737
0001d0 d5 4c 83 be c4 d9 6a be b8 61 33 be 80 6b 17 be
       -0.25644556 -0.22934633 -0.17517745 -0.14787102
0001e0 86 f5 5d be e3 5b 76 be bd 3c 51 be 9e 0e 7b be
       -0.21675691 -0.2405849 -0.20433326 -0.24517295
0001f0 22 e5 36 be 44 10 71 3d 45 57 56 bd 34 a1 95 be
       -0.17860845 0.058853403 -0.05232932 -0.2922455
000200 1a 6e 41 be b6 6b ea bd f1 5a 51 3b c8 ed 86 be
       -0.18889657 -0.114463255 0.0031945074 -0.26353288
000210 7d 8c c8 be a6 dc 70 be 68 71 07 3c ee 0a 76 bd
       -0.39169684 -0.2352167 0.008266784 -0.060069017
000220 b5 07 89 be d9 51 3a be d4 5a db bd 03 6c cb 3d
       -0.26763692 -0.18195285 -0.107106835 0.09932711
000230 e8 35 ad bd f8 f3 9a bd 23 6f 09 bd d9 64 ac 3d
       -0.084575474 -0.075660646 -0.033553254 0.08417673
000240 42 9c 02 3e a7 ce d7 3c 4c 74 41 3c 3f 1e fa bb
       0.1275492 0.026343657 0.0118075125 -0.007633
000250 64 1b bd 3c 69 9e e3 bc
       0.02308435 -0.027785497
