Autoencoder-on-MNIST-in-Pytorch/Models/model_e7.pt (torch, 561729 bytes, 11 tensors)

encoder.0.weight f4 [6, 1, 5, 5]
000000 bd be 4d be 4a e7 1b be b6 8a 9d bd 13 56 41 be
       -0.20092292 -0.15224949 -0.07692473 -0.18880491
000010 4e 70 96 be ef 69 55 be 48 82 96 be 9e 13 d3 3b
       -0.29382557 -0.20841192 -0.29396272 0.0064415475
000020 57 c6 e4 bd 7f 09 24 be a8 f6 de 3d a2 11 33 be
       -0.11170643 -0.16019247 0.1088689 -0.17487195
000030 ff cc 26 3d 65 cd 71 be e7 20 2a be 6b 6d e7 3d
       0.040722843 -0.23613508 -0.16614114 0.11300167
000040 c2 8f 11 3b f0 d3 44 be c9 7e 0c be 13 76 80 bd
       0.002221093 -0.19221473 -0.1372024 -0.06272521
000050 14 20 00 bc ee 02 c9 bd e7 c1 9a bb 24 24 91 be
       -0.007820148 -0.09815012 -0.004722822 -0.28347886
000060 68 b4 ad be 5a d3 3f be b1 27 8e be 39 ad 6b be
       -0.33926702 -0.18732968 -0.27764657 -0.23015298
000070 99 36 91 be 0e 3e 70 be c6 08 ad 3d 67 d3 da 3c
       -0.28361967 -0.23461172 0.08448939 0.026712133
000080 0a b1 82 3d ed fe cd 3c e5 b4 3a 3e da 37 19 be
       0.06381424 0.025145972 0.18233068 -0.14962712
000090 62 11 f0 ba 28 a6 0e 3e e8 ab 13 bd 71 69 92 bd
       -0.0018315727 0.13930571 -0.036052614 -0.071490176
0000a0 72 01 40 3e 8a f4 0f 3e 08 cb e3 3d 1c de 0d 3e
       0.18750551 0.14058128 0.111227095 0.13854259
0000b0 05 60 69 3e 22 c1 d7 bd e5 e9 1a be b7 9d f9 bd
       0.22790535 -0.10534884 -0.15128286 -0.12188285
0000c0 a7 8a 8a 3e f1 ae 6f 3e a1 19 1a 3e 5a cb 10 3e
       0.27058908 0.23406579 0.15048839 0.14140072
0000d0 ac 7c 02 3e 9f 10 bf bd 0c 15 c8 bd 75 54 44 3e
       0.12742871 -0.09329342 -0.097696394 0.19172843
0000e0 6d 1d b0 3d 3e ee 82 be 54 f3 87 be 0b 25 9c be
       0.085993625 -0.2557239 -0.26552832 -0.30497012
0000f0 0d ec 49 be f0 87 c7 bd 2c 18 b3 be a6 d6 39 be
       -0.19718952 -0.09742725 -0.3497938 -0.18148288
000100 db 8a 83 bd 0c 0c be bb 1d db c8 ba 3a 88 a1 be
       -0.06422969 -0.005799776 -0.001532409 -0.31549245
000110 bd c1 14 3d 26 86 ff bd 9d f2 21 be b9 9f 0e 3c
       0.036317576 -0.12476759 -0.15815206 0.008705073
000120 9c 6e 41 be 13 46 3b be fc 4a a0 be 74 6d 40 be
       -0.1888985 -0.1828845 -0.3130721 -0.18791753
000130 70 c9 0a be 3d 3d 40 be 6f 45 54 3e 81 5c 00 bd
       -0.13553405 -0.1877336 0.20729612 -0.03133822
000140 17 40 19 bd 3d 9e 80 3d 74 1c bc bd b6 fd 31 3e
       -0.037414636 0.062801816 -0.091851145 0.1738194
000150 b7 20 60 3e 15 27 37 3e 08 d4 44 3e f0 a7 39 be
       0.2188748 0.17886002 0.19221509 -0.1813047
000160 55 6d 57 3e 65 49 6b 3e 9e 63 c9 bd 90 02 16 3e
       0.210378 0.22977217 -0.098334536 0.14649415
000170 2c 6b 64 3d 76 20 49 bd f9 01 16 3e 86 36 61 3e
       0.05576627 -0.049103223 0.1464919 0.21993455
000180 f3 ce ab bb ff 4d fe 3d e3 b1 5c 3e 55 87 92 3d
       -0.005243176 0.1241722 0.21552233 0.07154719
000190 ba cb cb bc ae 47 43 3e 8d b8 e3 3b b9 be 87 bd
       -0.024877418 0.19070312 0.0069494904 -0.06628174
0001a0 26 eb 15 3e 7f 2a 05 3d 9a 55 b9 bd 09 ee 8d bd
       0.14640483 0.03251123 -0.0904953 -0.06930167
0001b0 36 98 7a 3e 88 c4 69 3e 1d cf f2 bd eb 70 14 be
       0.24472126 0.22828877 -0.1185591 -0.144962
0001c0 0a 6b 07 3e 31 d0 3a bc 2c cc 52 3e e3 98 4d 3d
       0.13224426 -0.011402176 0.20585698 0.050194632
0001d0 f0 d4 76 bb cf c2 14 bd 23 cf 45 3e 57 b4 5a 3e
       -0.0037663542 -0.036318596 0.19317298 0.21357857
0001e0 44 06 be bd 24 2b 87 be a2 73 1d be ac cd 5f 3e
       -0.09278539 -0.264001 -0.15376142 0.21855801
0001f0 4d a0 9d 3d 98 ed 80 bd ce 35 1e 3e eb 28 f4 3d
       0.076965906 -0.062953174 0.15450212 0.11921867
000200 db 80 10 be ce c3 84 3c 34 89 91 bd 02 8f 55 3e
       -0.14111654 0.016206648 -0.071062475 0.20855334
000210 6d e1 9f bd 88 3b 7b be d4 d7 21 be 9a 2c 81 3d
       -0.078066684 -0.24534428 -0.15804988 0.06307335
000220 c2 07 1c 3e 53 ed 99 bc df 17 5d be 37 b9 8f be
       0.15237334 -0.018789923 -0.21591137 -0.28070995
000230 60 e7 77 3e 76 61 76 3e b1 6c 48 3e fc 1e 13 be
       0.24209356 0.24060616 0.19572712 -0.14367288
000240 e8 13 1b be 8e 37 b7 3d e9 6a 42 bd 84 4c 80 3d
       -0.15144312 0.08946143 -0.04746524 0.06264594
000250 3e 8d 1e be dd 67 15 be
       -0.15483567 -0.14590402

encoder.0.bias f4 [6]
000000 0f 5a 18 3e 81 e2 2c 3e ca f5 12 bd ce bf 20 3e
       0.14878105 0.1688328 -0.035878934 0.15698168
000010 cf 98 44 bd 4d 20 3c 3e
       -0.047997292 0.18371697

encoder.2.weight f4 [16, 6, 5, 5]
000000 9e 20 57 3d 08 a9 38 3d b2 d5 38 bd de c0 e1 3d
       0.05252134 0.045083076 -0.04512567 0.110231146
000010 51 0b 70 3c a6 67 38 3b 29 3f 35 bd 72 db 76 bd
       0.014651136 0.002813795 -0.044249687 -0.060267873
000020 0e 73 4a 3a 52 c1 52 3d 1a eb e7 bd 22 dd f0 bd
       0.0007722833 0.051453896 -0.11324139 -0.11760928
000030 ba 01 a1 bb 59 0b 18 bc e4 68 ec bc be 85 e5 bd
       -0.004913536 -0.009280049 -0.02885861 -0.1120715
000040 62 24 a8 bc 7a ea f9 bd 0c e8 93 bc f3 53 a6 3c
       -0.020525161 -0.12202926 -0.018054985 0.020303702
000050 9c 4d b2 bd 29 55 d1 bc 6e c5 81 bd 6a 6d 82 3c
       -0.08706209 -0.025553303 -0.06336485 0.015921313
000060 0e ab 48 bd 01 ed cb 3c b8 e7 a3 bc 82 69 0f bd
       -0.048991255 0.024893286 -0.020007953 -0.03501273
000070 a8 44 a7 3b 87 4a 92 3c aa e8 f8 3b 38 8e c0 3d
       0.00510462 0.017857803 0.007596095 0.09402126
000080 9a b4 45 3c bd 55 c3 bb 17 b9 09 bd 73 68 62 3d
       0.012066985 -0.0059611485 -0.03362378 0.05527539
000090 e6 e6 b2 3d 3c 88 98 3d 6b fc 52 bd ee a6 25 bd
       0.08735447 0.0744786 -0.051510256 -0.0404424
0000a0 5a d1 7c 3d 96 67 dc bc b9 33 06 bd 90 3e 7d 3d
       0.06172309 -0.026904862 -0.03276417 0.061827242
0000b0 bf 12 e2 3d a0 2f 99 bd 62 49 5e 3d 7b 2b ca bd
       0.11038732 -0.07479787 0.054269202 -0.098715745
0000c0 3e a8 86 bd 63 ec 95 3c c9 fa 8f 3d 5e 7f 5f 3d
       -0.065750584 0.018301195 0.07030255 0.054564826
0000d0 fa 78 22 3c 6a d7 d8 3d 5c b9 78 bc 22 fd 86 bc
       0.009916538 0.10587962 -0.015180912 -0.016478125
0000e0 3b 2a 48 3d 0a c8 42 bc 98 cb 05 bd a0 3b a4 3d
       0.0488684 -0.011888513 -0.032664865 0.08019185
0000f0 00 fa bf bd 4c 14 e4 bc 06 f7 27 bd f0 33 98 3d
       -0.093738556 -0.02784171 -0.041007064 0.07431781
000100 42 5c 24 3d e6 2b 01 be d7 44 a5 bd de e0 09 3d
       0.040127046 -0.12614402 -0.08069771 0.033661716
000110 6c e0 8e bb 96 4b 3e 3d f1 c8 c1 bd ae d4 6c bd
       -0.0043602493 0.046458803 -0.09462155 -0.057820015
000120 35 88 30 bc 92 00 7c bc 0a 27 fe bb 8a 51 ad 3b
       -0.010774662 -0.015380995 -0.0077561187 0.005289261
000130 08 52 a8 3d 53 94 58 bd 3e 7a 15 bd 9e a7 95 bc
       0.08218771 -0.052875828 -0.036493532 -0.018268403
000140 9e 68 0c 3d 5b 58 c8 3d fc ee 10 3d 2e 38 b5 3d
       0.03427946 0.097824775 0.035384163 0.08848606
000150 7b f2 ca 3d a7 e2 8e 3d 4a e9 52 3d 20 51 a6 bc
       0.09909531 0.06976824 0.051492013 -0.020302355
000160 7e 8d 7e bd 04 60 95 bc 36 c9 da 3d 6b 19 ce 3d
       -0.062146656 -0.01823426 0.10682909 0.10063442
000170 5c 75 5f 3c 83 55 fe bc 01 92 97 3d e8 65 c6 3d
       0.0136388205 -0.031046635 0.07400895 0.09687406
000180 b6 1b df bc 38 ae d8 3c 92 9d 3c bd 1a fa d1 bc
       -0.027234893 0.026450261 -0.04604871 -0.025631953
000190 90 50 5e 3d 55 2e cb 3d 17 41 b9 3d 8d b3 cd bc
       0.05427605 0.099209465 0.09045618 -0.02511003
0001a0 56 81 33 bd 87 85 28 3d fa 08 d6 3d 3a d5 8c bc
       -0.043824516 0.041142967 0.10450931 -0.017191518
0001b0 f9 d7 55 bd ba 56 87 3d 34 77 e6 3d 90 fc 39 3d
       -0.05220792 0.06608339 0.11253205 0.045406878
0001c0 ca b0 40 bd f7 9f 21 bc 46 24 31 bd 9e 47 99 3c
       -0.0470436 -0.009864799 -0.043247484 0.018710908
0001d0 d2 07 59 3d 80 9b 52 bd fb 39 97 bd 91 cd 11 bc
       0.052985974 -0.051417828 -0.07384106 -0.0088991085
0001e0 db 9a 3d 3d ac 78 75 bc d3 9f 24 bd 3d 55 ee 3c
       0.04629026 -0.014982384 -0.040191483 0.02909338
0001f0 bf 14 2a bd eb 0b 74 3d da f0 3e bd 50 f3 af ba
       -0.04152369 0.05958168 -0.046616413 -0.0013423953
000200 83 5d 9a 39 f2 46 dc bc 16 5c ea 3c 30 6d 58 bd
       0.0002944284 -0.026889298 0.028608363 -0.052838504
000210 21 d0 be 3d 01 6f cd 3d 04 ea 4c 3d 28 99 46 3d
       0.09317041 0.10030938 0.050027862 0.048485905
000220 82 dd 2c 3d 4d f0 f1 3c ce 1a c4 bb af a3 94 3b
       0.042203434 0.02953353 -0.0059846407 0.004536114
000230 a4 50 87 3d 8c 30 83 3d ac c8 a8 3b cb 09 6e 3d
       0.06607178 0.06405744 0.005150875 0.058114808
000240 ea 35 48 bd d9 9b 8f 3c f6 5e 0f 3d 1e e8 1d 3d
       -0.04887954 0.017530369 0.03500267 0.038551442
000250 3c 97 38 bc 84 ed c8 3c 59 9f 64 bd c9 f0 45 3c
       -0.011266526 0.024527319 -0.05581603 0.012081333
000260 56 cf 6a bd 9e 55 61 3d f8 c6 9a bc 21 8b 95 3d
       -0.057326637 0.05501329 -0.018893704 0.07301927
000270 34 d3 3f 3c 40 79 8f bd a2 16 7f 3d 80 58 b7 3c
       0.01170807 -0.070055485 0.062277444 0.022381067
000280 17 7a 4a bd 01 bc 4a bd c5 8d a3 bc d3 a9 40 3d
       -0.04943284 -0.0494957 -0.019965062 0.047036957
000290 de 6c f2 3a d5 f5 65 3c 41 49 2e bc 83 87 97 bd
       0.001849558 0.014035662 -0.010637582 -0.07398894
0002a0 95 84 00 bd d5 9e d3 bc 07 93 17 bd 9c c6 89 bd
       -0.03137644 -0.025832573 -0.03700545 -0.06727335
0002b0 dc 0f cb bd 11 7c e6 bd 5c 65 42 bd 3b 8f 06 3c
       -0.09915134 -0.112541325 -0.047459945 0.00821286
0002c0 0f 2c 4a 3d a1 c3 8f bd c9 a8 06 bd ea 72 08 3c
       0.049358424 -0.07019735 -0.03287581 0.008328179
0002d0 40 bd ec bc cd b9 ad 3c 94 ba f9 3b e5 66 3d bd
       -0.028898835 0.02120676 0.007621119 -0.046240706
0002e0 46 47 4c bd 9c 39 0f bc f8 9f 24 3d 9b 23 3b bd
       -0.04987266 -0.0087417625 0.04019162 -0.045688253
0002f0 82 64 ea 39 f5 83 1e bd c9 d9 7f 3d 42 ff 45 3d
       0.00044706842 -0.038700063 0.062463555 0.048339136
000300 2c 5f 9f bc b8 44 23 3d 70 1f 90 3d 20 74 74 bc
       -0.019454561 0.039860457 0.07037246 -0.0149202645
000310 1f 76 15 3d dc 63 51 bd 0c 9c 81 3d a2 e8 b9 3c
       0.036489602 -0.051120624 0.06328592 0.022693936
000320 91 05 39 3d e3 0c 41 bd fe 4b 25 bd c2 a5 86 3d
       0.045171324 -0.04713143 -0.040355675 0.065745845
000330 d5 64 88 3d 27 33 2f 3d c9 74 37 bd 93 28 77 3c
       0.06659857 0.042773392 -0.04478911 0.015085357
000340 22 47 40 3d b4 b6 50 bc fc 17 89 3d ae 76 84 bd
       0.046942838 -0.012738872 0.06694028 -0.06467949
000350 4c 47 7f bd 2b de 41 bd fd 69 25 bd 67 60 6c bd
       -0.062323853 -0.047331017 -0.04038428 -0.057709124
000360 88 84 a8 bc 00 ec 05 be c6 3d 51 bd 24 49 11 3d
       -0.020571008 -0.13078308 -0.051084302 0.035470143
000370 4b dc 7e bb 17 3d a5 bd 18 b7 c9 bd 58 1c 03 bd
       -0.003888863 -0.080682926 -0.098493755 -0.032009453
000380 67 61 8c 3d 43 c1 53 3d 75 d6 95 3d 94 0e df bc
       0.068545155 0.05169798 0.07316295 -0.027228631
000390 1d 18 8e 3d ef 0b a2 3c 74 6c a8 3c 3e a0 7e 3d
       0.06938193 0.019781081 0.020559527 0.062164538
0003a0 9d 13 ad 3d 91 b0 70 3c 43 7b 7d bd d6 95 60 bc
       0.084510066 0.014690534 -0.06188513 -0.013707599
0003b0 de 1d 2a 3d e0 11 2f bd 3b 25 cf 3d 45 23 a6 3c
       0.04153239 -0.042741656 0.10114523 0.02028049
0003c0 f8 0d 18 3d 76 9e e5 3d da 55 cb 3c be 40 a8 3d
       0.037122697 0.11211865 0.02482121 0.082154736
0003d0 15 8d 4d 3d 20 36 44 3d f8 5d 73 3d 43 bf 5d bd
       0.050183374 0.04790318 0.059415787 -0.05413748
0003e0 3a 3b 93 3d 2e d9 a1 3d 0a a5 ea b8 f0 34 cd bc
       0.07189031 0.07902752 -0.000111887304 -0.025049657
0003f0 e6 2e 87 3d e8 32 65 bd 3f 67 37 3d ff 1e 43 bc
       0.06600742 -0.05595675 0.044776198 -0.0119092455

encoder.2.bias f4 [16]
000000 cc 06 0a 3b c6 ff 1d 3d 04 91 ec 3c 6b 22 38 3d
       0.002106118 0.038574003 0.028877743 0.0449547
000010 4c d7 d2 3d 06 06 46 3c d3 34 58 3d c0 1d 0e bc
       0.10294971 0.012086397 0.052784752 -0.008674085
000020 90 3a bf 82 6f f5 07 3e 9e 6f 0d 3d 64 4b 1a 3d
       -2.809854e-37 0.13277219 0.034530275 0.037669554
000030 1b f1 cf 3d 1c ab b7 3c 56 80 ef 3c a9 f3 00 bd
       0.10153409 0.022420458 0.029236 -0.031482372

encoder.5.weight f4 [10, 6400]
000000 39 28 3d bc b7 cf 9c bc 9d dd 3c bc 2d 2e 22 bd
       -0.011545234 -0.019142015 -0.011527446 -0.039594818
000010 66 b6 10 bd 59 eb a5 bc d0 56 10 bd 6b da 12 bd
       -0.0353302 -0.020253824 -0.03523904 -0.03585283
000020 60 4c 7f bc 86 d0 25 bc 46 a7 a1 bc 91 97 51 bc
       -0.015582174 -0.010120517 -0.019733083 -0.012792484
000030 54 23 4e 3b c6 30 a6 3b 3e 84 49 bb f8 1d 12 3b
       0.0031454163 0.005071732 -0.0030748989 0.0022295695
000040 6b 81 25 3c 14 c8 08 3c 5e f3 95 3a 28 91 48 bb
       0.010101656 0.008348484 0.0011440327 -0.0030604098
000050 9e ab 37 3c 29 47 c7 bb 77 9e 8d bb c9 28 b0 bc
       0.01121035 -0.006081481 -0.004321869 -0.021503823
000060 23 fa 12 bd 18 06 fa bc fc 32 b0 bc f6 ba d5 bc
       -0.03588308 -0.030520484 -0.021508686 -0.026090126
000070 dd 89 a7 3b 25 1a 13 bc cd 69 76 39 a5 ed 89 ba
       0.00511287 -0.008978401 0.00023499802 -0.0010523094
000080 67 f1 69 3b 54 2a b2 3c 59 4c 26 3c f9 54 c7 3c
       0.0035696866 0.0217487 0.010150039 0.02433251
000090 4f 06 bd 3b 40 63 65 3b 6d fe eb 3b 2c 02 20 bc
       0.0057685743 0.0035001785 0.007201961 -0.009766143
0000a0 f8 cb 24 3d 95 14 08 3d c1 84 aa bb 04 a8 8b bc
       0.040233582 0.033222754 -0.005203814 -0.01704789
0000b0 2e 64 a2 bc 63 b6 a9 bc ad 7f c9 bc d0 da 67 bc
       -0.01982316 -0.020716852 -0.024597013 -0.01415129
0000c0 3c 4f 29 bc db 5c 25 3c 6e 49 63 3c e5 3b 6f 3c
       -0.010333832 0.010092939 0.0138724875 0.014601682
0000d0 d2 5c be 3c 80 67 25 3c b9 95 9b 3c 44 59 51 3c
       0.02323762 0.010095477 0.018992292 0.01277763
0000e0 d9 e8 6b 3c 76 1d 9d 3a c0 94 62 ba 8f 10 a5 3b
       0.014398777 0.001198693 -0.00086433813 0.0050373743
0000f0 11 af 74 3d dd ff 00 3d ba 9b 3a bb 30 b0 60 bc
       0.05973727 0.03149401 -0.0028474168 -0.013713881
000100 5b 99 90 bc a4 b5 b0 bc 8b 71 ef ba 00 99 7e bc
       -0.01765125 -0.021570988 -0.0018268091 -0.015539408
000110 44 08 57 ba 0c e1 50 3b a6 25 80 3c dc 75 a9 3c
       -0.0008202831 0.003187242 0.015642952 0.020686083
000120 00 ae fe 3b e5 72 9d 3c a6 33 9f 3c 84 3b 88 3c
       0.0077722073 0.019219825 0.019433808 0.016629942
000130 39 30 5a 3c 8a 52 50 3c 08 6d 25 3c ec 34 bf 3b
       0.013317161 0.012714991 0.010096796 0.005835166
000140 87 24 43 3d 5e 54 e5 3c 6f 38 bc bb ce 01 a3 bc
       0.047642257 0.027994331 -0.005744032 -0.019898321
000150 86 04 0e bc 74 1e 6c 3b 18 47 b9 b8 7b 31 44 3c
       -0.008668071 0.0036028894 -8.83473e-05 0.011974688
000160 67 80 bc 3b de fd 3b 3c 16 54 03 3d 1c ea 04 3d
       0.0057526114 0.011474101 0.032062612 0.032449827
000170 66 3c a3 3c c6 3d a3 3b 23 ad 0b bb bf df fd bb
       0.019926261 0.004981729 -0.0021312914 -0.00774762
000180 7d 11 36 3c 86 6c 62 3c ba 42 7c 3c b4 5c 72 3b
       0.011112568 0.013819819 0.015396768 0.0036981525
000190 81 9e bb 3c bc fd 33 3b b4 b1 59 bc c0 89 95 bc
       0.022902729 0.002746447 -0.013286997 -0.01825416
0001a0 a1 d5 88 ba 2a d6 40 bc e7 a6 47 3a e1 85 f1 3b
       -0.0010439643 -0.011769811 0.0007616118 0.007370696
0001b0 0d 83 57 3c 57 39 d8 3c d7 93 cc 3c 41 7c 2d 3d
       0.013153804 0.02639453 0.02497284 0.042354826
0001c0 2b 40 d3 3c 6a 82 81 3c dc 0f 84 bb c1 bc 98 3b
       0.025787434 0.015809257 -0.004030211 0.004661173
0001d0 5f ee 75 bb 35 43 7b 3b 90 73 fc 3b ff 5d ad 39
       -0.0037526113 0.003833962 0.007704206 0.00033067164
0001e0 60 1b 74 3c 72 8b 44 bc 98 2e eb bc bf a8 1a bd
       0.014899105 -0.011996137 -0.028708741 -0.037758585
0001f0 3e 31 ae bc 75 55 39 bc 68 0b 0e bb ff 7e 03 3c
       -0.021263715 -0.011311878 -0.002167428 0.008025884
000200 22 b3 a7 3c e9 f1 d1 3c d1 b9 0d 3d 1d 16 c5 3c
       0.02047116 0.025628047 0.034601036 0.024058396
000210 31 11 58 3b 12 b1 92 3c a3 62 9b 3a 89 51 c1 bb
       0.0032969231 0.0179067 0.0011854958 -0.0058996123
000220 ef 18 a6 bb 78 9c 96 bb 76 43 21 3b 79 69 59 bc
       -0.0050688903 -0.0045962892 0.002460686 -0.013269776
000230 90 83 74 bc 4d 86 f9 bc a5 e7 e1 bc d4 42 97 bc
       -0.014923945 -0.030459547 -0.027576277 -0.018464483
000240 2e 49 3e bc 4c 77 dc 3b 9b 76 b0 3b 1b b4 03 3c
       -0.011614127 0.0067280885 0.0053852326 0.008038546
000250 dd b3 b9 3b 03 d2 ba 3c bb db a0 3c 27 98 b2 3b
       0.0056671933 0.02280522 0.019636026 0.005450267
000260 f0 48 1c 3b 07 bb 1f bb 13 78 c4 bb f9 f8 b4 3b
       0.0023847185 -0.0024372952 -0.0059957593 0.005522844
000270 fd 45 98 3b 27 bc 3d 3c 3c 0d 4b 3b 62 c1 50 bc
       0.004647015 0.011580504 0.003098323 -0.012741419
000280 66 19 35 bc c8 35 a9 bc 8f bc aa bc 82 42 50 bc
       -0.011053419 -0.020655528 -0.020841865 -0.012711169
000290 55 76 c4 39 3b b3 30 bc 5c e9 3f bb 2b c9 19 3c
       0.00037472197 -0.010784919 -0.002928338 0.009386341
0002a0 e2 41 ed 3b 2c dc e9 3c 6b 7b a4 3c 57 f5 83 3c
       0.00724052 0.028547369 0.020078382 0.016108198
0002b0 53 17 75 bb 67 b7 1b 39 ee 07 f2 3b 41 e0 b3 3a
       -0.0037397936 0.00014850275 0.007386199 0.0013723449
0002c0 5d b0 6e bb c3 7c 5c 3c b8 82 4f bc e6 d1 6a bc
       -0.0036421039 0.01345748 -0.012665443 -0.01433227
0002d0 2a 57 3e bc 58 da 02 bd 7c 39 f9 bc 45 7d 50 bc
       -0.011617461 -0.03194651 -0.030422918 -0.012725179
0002e0 63 a9 08 bb 76 3a 29 bc 9c a3 50 bc 51 65 6e 3b
       -0.0020852915 -0.01032888 -0.01273432 0.0036376307
0002f0 7c a0 30 3c 3e 23 8a 3c e8 a2 26 bc 3a 33 44 3c
       0.01078045 0.016862508 -0.010170676 0.011975104
000300 6b 19 97 3b 42 ae 02 3c ec 9f 9e 3c 6f 76 79 3c
       0.0046111844 0.007976117 0.019363366 0.015225991
000310 43 b7 f9 3b 01 9a a7 3b 0a 15 c0 3b 31 08 3d bc
       0.0076207235 0.0051147942 0.005861883 -0.0115375975
000320 15 b2 06 3c e7 7a 99 bc 82 62 c3 ba 0e 73 99 3b
       0.008221169 -0.018735362 -0.0014906677 0.004682905
000330 d9 6a 34 3c 44 fa e9 3b 96 8e 61 ba 2e 6c 90 3c
       0.011011803 0.0071404297 -0.0008604316 0.01762971
000340 f6 c1 3f 3c f9 af b9 ba 06 35 62 3b a7 ea 7b 3c
       0.011703959 -0.0014166824 0.0034516468 0.01537577
000350 37 c2 cb 3c 4a 5d c1 3b e6 c6 02 3c e8 2e ee bb
       0.024872882 0.0059010135 0.007981991 -0.0072687753
000360 f5 b3 30 bb 80 33 b7 bb 6f 75 b4 3b 88 54 bb bc
       -0.0026962731 -0.005590856 0.0055071632 -0.022867456
000370 19 8e a1 3a e8 bc 16 bc 37 b2 aa bb f1 da 2d 3b
       0.0012325674 -0.009200312 -0.005209233 0.0026528204
000380 6d b9 13 3c 80 ac ae bb 72 be 75 3c f6 0c 0a 3c
       0.009016377 -0.005330622 0.014999019 0.008425942
000390 52 71 26 3c 6a 80 7b b9 8e ed 03 3c ea 9f a3 3b
       0.010158854 -0.00023985063 0.008052243 0.0049934285
0003a0 b8 14 d1 3c 57 84 3f 3a 80 16 7e bb 29 68 cf 3b
       0.025522575 0.0007305792 -0.0038770735 0.0063295555
0003b0 92 e8 5a bb 0a 42 31 bc db e0 04 bc 1f 4c a6 bc
       -0.0033402783 -0.010818968 -0.00811025 -0.02029997
0003c0 bb 38 45 3c b3 04 31 3c fb a4 d4 3b 60 6f 96 3c
       0.012037451 0.010804343 0.0064893938 0.018363655
0003d0 07 62 3a 3c ec 73 ba 3b 5a 8e b6 3b 12 d6 a7 3c
       0.011375911 0.0056900885 0.005571169 0.020487819
0003e0 bb 73 67 3c 51 18 22 bc c5 69 2c 3c d2 f3 c2 3c
       0.014126713 -0.009893493 0.010523264 0.023797903
0003f0 3e 42 84 3c b4 72 bd 3a 3d e2 99 3b ac c1 12 bb
       0.016144868 0.001445374 0.004696159 -0.002239327

encoder.5.bias f4 [10]
000000 06 fe e8 3b 42 6a da bb fa 89 61 3b 50 b5 ae 3b
       0.00711036 -0.006665499 0.0034414516 0.0053316727
000010 d9 af 5a bb bb d5 49 3c 6f a2 e6 3b 1b 57 ca ba
       -0.0033368974 0.012319024 0.0070384066 -0.0015437336
000020 29 13 e8 ba c8 b4 96 bb
       -0.0017705905 -0.0045991875

decoder.0.weight f4 [6400, 10]
000000 90 94 a4 3d c5 d2 40 3d fc fa a8 3d 2e 7c ab bd
       0.080361485 0.047076005 0.082509965 -0.08373295
000010 a4 96 68 3e ed 0b 90 3d 09 00 85 be 2f 7f fa 3d
       0.22713715 0.07033525 -0.2597659 0.122312896
000020 0d ba 44 3c d7 2f 31 3e e3 6f 4d 3d 3e 89 07 bd
       0.012007249 0.17303406 0.05015553 -0.03308987
000030 d2 06 6c bc 8b 82 4b 3c 9b ea ab bd 81 9c 1f be
       -0.014405923 0.012421261 -0.08394357 -0.15587045
000040 8e ac 84 be b5 e7 27 3e f2 0f 65 3e 92 09 1c 3d
       -0.259129 0.16396983 0.22369364 0.038095064
000050 14 e8 5c bd a5 f4 bd 3c 54 2b 1f 3d 48 7b 48 3e
       -0.053932264 0.023187945 0.03885968 0.19578278
000060 a1 fd da bd 1c 3f 95 3d 90 69 73 3e 0e dd 1c bd
       -0.10692907 0.07287428 0.23770738 -0.03829675
000070 71 a7 84 3e 47 83 59 be ec 42 d3 3c cf eb fe bc
       0.25908998 -0.21241485 0.025788747 -0.031118302
000080 5c fe 63 3e 1b 50 fa bd 27 31 7a 3d a1 8b 04 3d
       0.22264999 -0.1222231 0.06108203 0.032359723
000090 74 b6 5b bd 79 49 e9 3d 60 60 37 ba 04 57 82 3e
       -0.053640798 0.11390967 -0.0006995257 0.25457013
0000a0 63 01 11 be 45 45 0b be 90 aa d4 3d e8 63 0f 3e
       -0.14160685 -0.13600643 0.10384095 0.14002955
0000b0 a1 29 fc bd a4 f9 7c bd 8b e2 68 bb b6 22 4e 3e
       -0.123126276 -0.061761513 -0.003553542 0.20130429
0000c0 89 6b 01 be 1d a0 29 3e 21 82 0b be d0 06 81 3e
       -0.12638678 0.16564985 -0.13623859 0.2520051
0000d0 6f 48 83 be 8a 27 3e 3d f5 18 6a bd 02 b4 a4 bd
       -0.256412 0.046424426 -0.057152707 -0.08042146
0000e0 6d 4a b8 3d ef cf 43 3e ad 6f e5 3c 13 28 22 be
       0.089985706 0.19122289 0.028007353 -0.158356
0000f0 8e c7 08 be 7f bd 10 3c 84 a1 f7 bd 08 af 7d be
       -0.13357374 0.008834242 -0.120913535 -0.247738
000100 45 32 fe bd f5 43 8a 3d 49 43 16 be 51 92 96 3e
       -0.12411932 0.06751243 -0.14674105 0.29408506
000110 63 7a 15 3e d3 e2 c5 3c 14 7b 88 3d f3 8a 74 3b
       0.14597468 0.02415601 0.066641 0.0037314266
000120 26 f7 c9 bd 99 28 a3 3e 20 9b 1a be ce 68 4e 3c
       -0.09861593 0.3186691 -0.15098238 0.01259823
000130 7b c1 86 3e ac ed 7d 3e ac 80 20 3e d0 62 73 3e
       0.2631949 0.24797696 0.15674084 0.23768163
000140 54 b8 ce bc 4d c4 a5 3c e3 87 85 be aa 70 1f 3d
       -0.025234379 0.020235205 -0.26080236 0.038925804
000150 dc d0 5d 3e ac 64 7e be 0c c5 be bd 8c b5 0d 3e
       0.21661705 -0.24843091 -0.093149275 0.13838786
000160 02 7b 2c bd 86 79 7f 3d 69 d8 1b be 80 52 77 3e
       -0.042109497 0.062371753 -0.15219273 0.24152565
000170 49 4d 9b be 39 d6 31 3d 9d 2f 33 3e 94 3c 41 bd
       -0.303324 0.04341719 0.17498632 -0.047176912
000180 6f 34 0a 3c 02 2a 7a be cd 6d ac 3e 4d 94 37 be
       0.008435353 -0.24430087 0.3367752 -0.17927666
000190 6d 16 b7 3c 11 7e f4 3d a2 84 7b 3c 9b 43 25 be
       0.02234956 0.11938108 0.015351446 -0.1613907
0001a0 b1 e3 ab bd 10 ed 13 be 2f 6a 23 3e 7d c2 8e 3e
       -0.08393038 -0.14445901 0.15958475 0.27882758
0001b0 50 b5 23 be 8d 9f df 3c 06 6b 3a be e5 8c 34 3d
       -0.15987134 0.02729776 -0.18204889 0.04407968
0001c0 86 53 51 bc 4b 93 47 3e 57 ea b9 bd 2f af 73 3e
       -0.012776261 0.19489782 -0.090779 0.23797296
0001d0 c5 98 f0 bd 45 4d 91 3d 57 9e 64 3e 13 1a 14 be
       -0.117478885 0.07094816 0.22326027 -0.14463072
0001e0 72 b7 03 be 31 b6 7e 3e 3d ef 65 3d 93 f1 1f 3e
       -0.12862948 0.24874188 0.05613636 0.15619497
0001f0 95 84 72 bd 15 17 57 3d 88 dd 36 be 26 1b 76 bd
       -0.05920847 0.052512247 -0.17857945 -0.060084485
000200 d6 ee 27 be 7e 37 52 3e 3e da 18 3e cc b4 d2 bd
       -0.16399702 0.20528981 0.14927003 -0.102883905
000210 46 e0 ec 3d 5c ab b2 bd 72 2e c4 bd db c0 17 be
       0.11566214 -0.087240905 -0.09579171 -0.14819662
000220 b5 58 35 3d c6 be 43 3e 36 cb a2 bd 24 ed 4b 3c
       0.04427405 0.19115743 -0.07948916 0.012446675
000230 1d 0e 92 3e c6 87 1b 3e d1 ca 50 3e ee 62 d6 3d
       0.28526393 0.15188512 0.20389868 0.10468088
000240 5b 8d 26 3e bf eb 74 be 6b 69 47 be fe 42 1f 3e
       0.1626486 -0.23918055 -0.19473808 0.15552899
000250 26 68 37 be c6 27 0d be 54 1c 6c 3e cf 5d 2f 3e
       -0.17910823 -0.13784704 0.23057681 0.17125629
000260 59 f6 84 3d d8 b4 4d be 06 33 81 3e 33 6c 15 be
       0.064922996 -0.20088518 0.2523424 -0.14592056
000270 89 68 9a 3d 86 39 af be d5 b4 af bd 52 47 41 bc
       0.0753947 -0.34223574 -0.08579413 -0.011796789
000280 f1 0f 2b 3e e9 40 f3 3d 17 26 a5 bd 50 96 ae bd
       0.167053 0.11877615 -0.08063906 -0.085247636
000290 94 6a 8d be e8 25 61 3e b9 2c 04 bc 61 e4 ed bd
       -0.27620375 0.21987116 -0.008067303 -0.116158254
0002a0 83 c1 1d 3e 2f aa 0f 3e a6 7b 2f be bf 92 25 3e
       0.1540585 0.14029764 -0.17137012 0.1616926
0002b0 7d 85 f5 bd a4 68 e3 3d 2c 0a 65 be 61 55 3f 3d
       -0.119883515 0.11103943 -0.22367162 0.046712283
0002c0 db 8c 6d 3e ac 18 12 be 21 92 9b 3c 02 14 21 3e
       0.23198263 -0.14267224 0.018990578 0.15730289
0002d0 bb b7 a5 bd ec 3b ba 3c ac 95 52 3e 0b 81 c2 bd
       -0.080916844 0.022733651 0.20564908 -0.09497269
0002e0 ba 6d d5 bd fb aa da bd e7 d1 1e be 0f 59 45 bd
       -0.10421319 -0.10677143 -0.15509759 -0.048180636
0002f0 3c a2 69 be 50 55 21 3e c4 53 22 3e 13 ac a4 bc
       -0.22815794 0.157552 0.15852267 -0.020101583
000300 45 8a 22 3c e9 f2 7a 3e d7 bf 81 3e f6 68 2b 3e
       0.009920661 0.24506725 0.25341675 0.16739258
000310 9c ce 05 be 57 ca 53 be 00 fb 01 be f5 47 e8 bd
       -0.13067096 -0.20682655 -0.12693405 -0.1134185
000320 33 af 2c bd 97 52 03 3e 19 c4 06 3d 78 79 9d bb
       -0.04215927 0.12824474 0.032901857 -0.00480574
000330 fd 6e 6b be 1d 82 8b bd 4a 73 54 bd ce 90 13 bc
       -0.22991557 -0.068119265 -0.05186776 -0.009006692
000340 70 27 f0 3d 42 9d d0 3b c9 1e b6 3d a9 ee 33 3e
       0.11726272 0.006366403 0.088925906 0.1757151
000350 20 a8 d7 3d 68 d9 57 3d d7 19 37 3e e0 dd 19 bd
       0.10530114 0.05269757 0.17880951 -0.037565112
000360 38 c0 c4 3d ad d8 33 3e f6 78 63 be 2d 84 82 3d
       0.09606975 0.17563124 -0.22214112 0.06372867
000370 34 fc 01 be fa b4 85 3d 5b 18 83 3c 67 15 f4 bd
       -0.12693864 0.06528659 0.016002825 -0.11918145
000380 ee 8c 9b bd 85 65 b8 3d 90 e1 75 3d d3 5b e4 bd
       -0.075952396 0.09003738 0.060029566 -0.111503266
000390 bf e5 ab bd 98 40 20 3e ba cc 2a bd fa e1 39 3d
       -0.0839343 0.1564964 -0.04169915 0.045381524
0003a0 31 f0 62 bd 49 f1 02 bd 02 b3 06 b9 00 11 8c bd
       -0.055404846 -0.03196839 -0.00012845921 -0.0683918
0003b0 8d b3 ce 3d c9 64 1b be fa 98 7c 3e a4 e4 d5 bd
       0.1009284 -0.15175165 0.24667731 -0.10444
0003c0 93 c8 a8 be a5 7a 7a 3e 0a ad d9 3c cf 9f 01 be
       -0.32965526 0.24460848 0.02657177 -0.12658618
0003d0 af 2b 85 be c2 32 bd bd ec b9 01 be e1 fe 8e bd
       -0.2600989 -0.09238197 -0.1266858 -0.06982208
0003e0 fc 2e 18 be d7 7f 84 3c 7a 15 83 3d f5 0e 19 3e
       -0.14861673 0.01617424 0.06400581 0.14947112
0003f0 ae d8 33 be 08 bc 53 3e ee c7 0c be da 4b 6a bd
       -0.17563125 0.20677197 -0.13748142 -0.057201244

decoder.0.bias f4 [6400]
000000 b4 e3 ea 3b 8b a9 c0 3b e1 aa a5 3b 4b f1 d6 3b
       0.0071682576 0.005879586 0.0050557707 0.006559526
000010 e1 c0 45 3c ee e9 34 bc 9e 92 2f bc ea 16 41 bd
       0.012069912 -0.011042101 -0.010716109 -0.047140993
000020 b5 19 88 bd 66 92 75 bd 61 8e 53 3b 1f 9c 46 3d
       -0.06645528 -0.05995407 0.003228091 0.048488732
000030 84 02 2b 3c ed 88 b0 3b 85 8b 63 bd c1 bf ab 3d
       0.0104376115 0.0053874166 -0.055552978 0.083861835
000040 cd 74 6c 3d 11 71 22 bd 30 16 bb 3a 5b d2 1a 3d
       0.057728577 -0.03965861 0.001427358 0.037798267
000050 ff 9b 95 3a 86 03 b8 3c b6 85 1b 3d 13 9d 2c bc
       0.0011414288 0.022462618 0.037969314 -0.010535496
000060 a9 2a 3a 3d c1 cb 06 bd f0 af 47 3d f8 90 dc 3d
       0.04545084 -0.03290916 0.04875177 0.10769838
000070 58 18 eb 3b 16 2f 1b bd b6 bb d0 bc ca 1b 67 bc
       0.007174533 -0.0378867 -0.025480133 -0.0141057465
000080 99 d9 b7 ba ff 05 8d 3d fb ee 13 bc a9 b2 9f 3d
       -0.0014026641 0.06885909 -0.009029145 0.077977486
000090 c7 24 7a 3b fc c3 6c bc 96 d9 0d bd f9 df 8f bc
       0.0038168894 -0.014451023 -0.034631334 -0.017562853
0000a0 81 d7 21 3b 52 33 59 3c da f8 d2 3c 56 4a 93 3c
       0.00246951 0.013256865 0.025753427 0.017979782
0000b0 30 aa fb 3b 70 13 5c bc b0 d8 00 bc e1 47 88 bc
       0.0076802 -0.013432369 -0.007864162 -0.016635837
0000c0 40 dc 06 3d e3 2c 94 3d 04 52 d4 bc 2d 80 9b 3d
       0.03292489 0.07235124 -0.025918014 0.07592807
0000d0 54 36 20 bc 66 bc 36 bd 07 56 56 bd be 98 7c bd
       -0.009778578 -0.044613265 -0.052328136 -0.061669104
0000e0 c3 2c 9a bd bc a8 a8 bb a7 b3 10 3b 0f 63 89 bb
       -0.07528069 -0.005147068 0.0022079737 -0.004192717
0000f0 27 77 51 bc 72 c8 e5 3c 44 e9 a2 3c 59 37 99 3c
       -0.012784756 0.028049681 0.01988662 0.01870315
000100 ef b9 0e 3d 85 aa 32 bb ec 21 a5 bc 90 79 0f bc
       0.03484529 -0.0027262282 -0.020157777 -0.00875701
000110 1a ca 0a bd a1 e1 3f 3d 47 79 8c 3c 8e f9 9d 3d
       -0.033884145 0.046846036 0.017147673 0.077136144
000120 16 4b 80 bc ec b4 5c bb 37 49 03 bc 4a 5e 68 bc
       -0.015660804 -0.0033677174 -0.008013061 -0.0141826365
000130 2e c6 e5 bc 44 be a9 3c 41 83 cc 3c 76 42 4d bc
       -0.028048601 0.020720609 0.02496493 -0.012528053
000140 80 34 5f 3d a4 c8 12 bc c6 ca a4 3c 9f 60 00 3d
       0.054493427 -0.008958969 0.020116221 0.031342145
000150 8b 7c da bc bf 5d 87 3d 5f f1 c1 3b b2 1a 7e 3c
       -0.026670715 0.066096775 0.0059186663 0.015509294
000160 04 5f d0 3c bf 3d 22 3e b0 3d db 3d d4 53 41 bd
       0.025435932 0.15843867 0.10705125 -0.047199085
000170 8d 8d dc bc 57 16 aa bc e3 7b 92 3d fe 8b 84 3c
       -0.026922965 -0.020762606 0.07152536 0.016180035
000180 34 d7 f9 3b b0 d2 ed bc ab 31 22 3d 5b 1b 1d 3c
       0.007624531 -0.029031128 0.03959815 0.009589042
000190 96 6a f9 3b d1 12 6c bb 6c b7 14 3d 98 ab 17 3c
       0.007611583 -0.0036021958 0.036307737 0.00925722
0001a0 17 73 02 bd 9e a9 9d 3d 21 71 ba 3d a0 1b 44 bd
       -0.03184804 0.076983675 0.09103609 -0.047877908
0001b0 6e ba a2 3d ec 91 01 bc 29 f4 89 39 3a 17 83 3d
       0.07945715 -0.007908326 0.0002631259 0.064009145
0001c0 70 02 82 3c fc a4 4a 3d 17 38 13 3d 6c 16 28 bc
       0.015870303 0.049473748 0.035942163 -0.010259252
0001d0 02 55 15 3b 60 bf 85 3d 44 a4 86 3c 28 09 06 3d
       0.0022786264 0.065306425 0.01643575 0.032723576
0001e0 0d d2 0b 3d fa 25 dd bc 89 aa 02 bc ff a8 97 bb
       0.034135867 -0.026995648 -0.007975229 -0.0046283
0001f0 8e 2b 7d 3c 0c 4a 01 3e 85 c3 54 3d 2f 90 48 3c
       0.015452279 0.12625903 0.051944274 0.012241407
000200 0c db 56 bc 00 ea ee 3c fe ee 9b bc 1f f5 00 bd
       -0.013113748 0.029164314 -0.019034859 -0.031483766
000210 e5 36 9b bd 3c 65 6e 3d a8 7b 4e bd 7c cc 7d 3b
       -0.0757883 0.058202013 -0.050410897 0.0038726619
000220 3b aa 1d 3d 57 86 bf 3b d8 24 af 3b 09 3d 34 bb
       0.038492423 0.005844872 0.0053449683 -0.00275022
000230 42 c3 99 3c 63 84 44 bc 5f ca a3 bb a5 4d 56 3d
       0.018769864 -0.011994454 -0.0049984897 0.05232014
000240 3e 3e 2b bd 8f a2 ff 3a 08 6f db 3d f9 13 01 3e
       -0.041807406 0.0019503402 0.10714537 0.12605275
000250 bb 92 90 bd 94 4c a9 3d 4f 64 ef bb ea 56 fc 3b
       -0.070592366 0.08266559 -0.007305659 0.0077007907
000260 e8 2b 41 bc aa 47 20 3d b2 90 13 3c 70 0c 97 3d
       -0.011790253 0.039130844 0.009006666 0.07375419
000270 37 a5 31 3b 04 62 3f 3c cc 3b b7 3c 2e eb 75 3c
       0.0027106532 0.011681084 0.02236738 0.0150096845
000280 05 96 cf bb d9 d5 b0 3b 7c ba 39 3b e0 e5 e0 bc
       -0.0063350224 0.0053965864 0.0028339913 -0.027453363
000290 98 7a d0 b9 ea 63 8b 3d 80 4d 38 3d 89 ec 81 bd
       -0.0003976419 0.068061665 0.044995785 -0.063439436
0002a0 73 41 08 ba b7 b9 4b bd f6 28 42 3d 79 8f ed 3c
       -0.0005197741 -0.04973766 0.047402345 0.028999077
0002b0 fe 84 28 bc 18 a0 6f 3d 3f 41 b7 bc f9 75 ec bc
       -0.010285614 0.058502287 -0.022369979 -0.028864847
0002c0 91 94 11 3c e0 cd ef 3c a9 df d9 bc c4 71 81 ba
       0.008885519 0.029272974 -0.026595907 -0.0009875824
0002d0 c5 39 1a 3b 52 00 6f 3d 19 4d 16 3c 4d 42 0f 3c
       0.0023532968 0.058349915 0.009173655 0.008743835
0002e0 45 49 b2 3d d2 2e 5a 3d 8b 3b f3 bc a4 61 13 3d
       0.08705381 0.053267308 -0.029691478 0.03598179
0002f0 80 91 e2 3c cb d7 da 3c f2 7f 12 3d e3 6a 5e bd
       0.02765727 0.026714226 0.03576655 -0.054301154
000300 75 32 30 bd d8 cd 96 bd 14 58 ae bc 8b 40 eb 3c
       -0.04301687 -0.0736348 -0.021282233 0.0287173
000310 91 d5 83 3d 57 ca 8b bb 5d 4a 30 3d 1f 7b e3 3b
       0.06437219 -0.004266064 0.04303967 0.0069421674
000320 7d 40 c2 3b f7 e8 6d 3c 70 6b 58 3d f9 58 c5 3c
       0.0059280978 0.014520875 0.052836835 0.024090277
000330 34 1e 07 bb 4b be e6 bc 8b a1 e3 bb 0b e7 da bc
       -0.0020617368 -0.02816691 -0.0069467477 -0.026721498
000340 34 9b 8b bc 37 1a 21 3d 39 29 1a bd 06 6f 0d bc
       -0.01704178 0.03933164 -0.03763697 -0.008632427
000350 c9 bb b1 3d b3 e3 8b bc 52 a5 fb 3d 35 8d 7c 3d
       0.08678395 -0.017076349 0.12287392 0.061658103
000360 d3 d6 2d b9 f0 13 cd ba 26 03 6a bb 8b 58 08 bc
       -0.00016578594 -0.0015646201 -0.0035707443 -0.008321892
000370 e4 cf 06 3d da 82 06 3b f3 48 61 3c e9 34 5f 3c
       0.032913104 0.002052477 0.013750303 0.013623455
000380 92 3c 2a 3b 7b e1 43 bc 73 9a 96 bc ec 4c 5f ba
       0.0025976044 -0.011955614 -0.018384194 -0.0008518237
000390 f8 6f 47 bd fc 68 c1 bb c3 68 c1 3d d6 1f 7a 3d
       -0.048690766 -0.0059024077 0.0944381 0.061065517
0003a0 6a 00 07 3e f1 b6 17 bd 93 2d 72 3c 4c 8a 51 bd
       0.13183752 -0.0370397 0.014781374 -0.05115728
0003b0 1f bd b1 3c 84 35 05 3c db 33 d6 3c 15 f9 31 3b
       0.021696625 0.008130435 0.026147773 0.002715652
0003c0 80 b8 97 bc 35 99 0e bc 7e 45 d6 3c ba 6d e9 3c
       -0.018520594 -0.00870352 0.026156183 0.028494705
0003d0 d1 3b 4e 3c 94 86 85 3d 18 e4 de 3d 19 10 e9 3c
       0.0125875035 0.06519809 0.10883349 0.028450059
0003e0 1e 2c a8 3c d5 36 ce 3c eb 49 b2 bb 0a 3b fe 3d
       0.02052885 0.02517263 -0.0054409406 0.124136046
0003f0 97 51 86 bd 90 bd 59 bc f2 27 1e 3c 4c 74 b4 3c
       -0.06558531 -0.013289824 0.009653078 0.02202811

decoder.3.weight f4 [16, 6, 5, 5]
000000 89 41 cf 3c 68 98 f4 bc 0a dd 02 3d 30 1a 84 bc
       0.025299804 -0.02985783 0.03194908 -0.016125768
000010 e7 32 20 bc 2a b9 35 3c 82 7c df bc 53 53 1d 3d
       -0.009777761 0.01109151 -0.02728105 0.038409542
000020 a5 38 99 bd b5 c9 ad bd ae 15 5d 3d e4 2f 69 39
       -0.07481507 -0.08485738 0.053975753 0.00022238452
000030 07 4c 7d bb c7 ef 92 bc 8d 1b 97 bd c9 ab 6a bd
       -0.0038650052 -0.0179366 -0.07378302 -0.057292733
000040 e2 60 50 bd 2b f9 a4 bd 0e 4f e8 bd 84 32 03 be
       -0.050873645 -0.080553375 -0.113432035 -0.12812239
000050 f3 5e a8 bd 16 a8 c1 bd 30 79 8f 39 96 c6 9a bd
       -0.08221235 -0.09455888 0.00027365377 -0.075574085
000060 8d f2 f0 bd e3 d8 cc 3d 87 00 2a 3d a3 1a df bc
       -0.11765013 0.10002305 0.04150441 -0.027234381
000070 5a 37 55 3d d9 7a 8f 3c b3 db 53 bb 8e 69 c7 ba
       0.05205474 0.017514633 -0.0032326996 -0.0015213953
000080 70 dc 16 bc 95 20 ab bd 17 b3 b8 bc e4 1b 8b bd
       -0.00920783 -0.08355824 -0.022546334 -0.06792429
000090 e5 d6 4f bd dc 40 59 bc ad 18 d2 3c 92 4f f8 bc
       -0.05074205 -0.013260093 0.025646532 -0.03031138
0000a0 a8 d2 9e 3c b3 dc 85 bd 25 46 4c 3d 5e 08 92 bc
       0.019387558 -0.06536236 0.049871583 -0.017826255
0000b0 44 17 3b bd 7e f1 46 bd 68 27 6b 3c 0c f0 65 bd
       -0.045676485 -0.04857015 0.014352657 -0.05613713
0000c0 d8 29 af bc 13 82 24 3d c2 29 97 bd 12 8c 2d bd
       -0.021382257 0.04016311 -0.073810115 -0.04236991
0000d0 6b 8d 27 bc b5 3a 77 bc 31 b9 a8 bc 2c f1 4f bd
       -0.010226588 -0.01508968 -0.020596119 -0.05076711
0000e0 dc 5f da b9 96 80 84 bd be dc a7 bc d6 13 20 bd
       -0.0004165162 -0.06469838 -0.020491 -0.039081417
0000f0 3b 9c 8b bd 78 3e 6b bd d3 c2 fa 3c a7 7b 24 bd
       -0.06816908 -0.05743262 0.030610478 -0.040156987
000100 27 2b 74 bd 79 1a 91 bc 58 e4 aa bc 47 2a 93 3d
       -0.059611466 -0.017712818 -0.020860836 0.07185798
000110 27 eb 79 bd 83 16 14 bd 32 33 30 3c 41 de 47 3d
       -0.061015274 -0.03615428 0.010754393 0.048795942
000120 ba 81 08 3d df 98 e5 3c 84 b2 42 bd af c1 cb bc
       0.033326842 0.028026996 -0.047533527 -0.024872629
000130 27 1e 6b 3c 46 59 8d 3d 78 82 d6 3c 24 92 50 3d
       0.014350451 0.06901793 0.02618526 0.05092062
000140 47 79 7a 3d 03 c8 98 3d 5f 51 ba 3d d6 03 b7 3d
       0.061150815 0.07460024 0.090975516 0.089362785
000150 c8 4c 25 3d f6 43 72 3d 85 26 1f 3d 1c af 76 3d
       0.040356427 0.059146844 0.038855094 0.06022559
000160 7a a2 88 3d 11 3c 12 bc a7 d6 7f 3d 03 06 b4 3b
       0.06671615 -0.008925454 0.062460568 0.0054938807
000170 a0 54 0c 3d fc 8c a1 bc 6e 51 49 3b c8 94 81 3c
       0.034260392 -0.019720547 0.0030718702 0.015818015
000180 4b 0b 89 3c e8 3f 34 3d c9 ae 3b bb f2 c9 26 ba
       0.016729018 0.04400626 -0.0028638116 -0.00063624897
000190 b2 56 7f bc f2 23 a1 3c aa 31 b5 bc 4f bc c3 3c
       -0.015584635 0.01967046 -0.022118408 0.023893503
0001a0 e9 bf 8e bd 73 5d af bc 62 40 1f bd e1 62 79 3d
       -0.06970198 -0.021406865 -0.03887976 0.060885314
0001b0 c5 47 63 3c 4d 27 38 bd 92 93 6d 3d 7e 7c 71 bc
       0.013872092 -0.044959355 0.058002062 -0.014739154
0001c0 f1 5d f5 b9 3f 36 9d 3d 73 9d cb 3d b5 4f 25 3d
       -0.00046800033 0.07676362 0.099421404 0.040359218
0001d0 9e ff 77 3d fb 6a 92 3d f5 cb 01 3d ef c4 e6 3d
       0.06054651 0.07149311 0.03168865 0.11268031
0001e0 c7 8a 86 3d e5 51 f2 3c dc e1 c5 3d 52 8c 04 3d
       0.065694384 0.029580066 0.0966222 0.032360382
0001f0 4a f1 a7 3d 38 cf b9 bd d9 da af 3c 94 88 4b bd
       0.08200319 -0.09072727 0.02146666 -0.049690798
000200 aa f4 f5 bc 3b 51 83 bd 8f cc 27 bd e7 23 ba bb
       -0.030023891 -0.06411978 -0.040966567 -0.0056805494
000210 31 64 4e 3c 38 bd 5d bc f2 3e 98 bd 70 34 32 bd
       0.01259713 -0.013533883 -0.07433881 -0.04350704
000220 10 2e 69 bd 31 72 91 bd 7d ec 03 be 3b bd 8d bc
       -0.056928694 -0.071018584 -0.12883182 -0.017302146
000230 1a 57 1f 3b 08 09 76 bd 52 be 0b 3d 82 6d 32 bd
       0.0024313391 -0.060067207 0.03411705 -0.043561466
000240 a0 fc 35 bc fd 06 e6 bc ea 3b 30 bc a1 24 84 3d
       -0.011107594 -0.028079504 -0.010756472 0.06452299
000250 d8 13 4d bc a8 98 68 3d d9 f5 0f 3d c0 28 88 3d
       -0.012516938 0.05678621 0.035146568 0.066483974
000260 5d f1 4f bc 8b 85 88 3d 17 d2 2b 3d 44 8e 20 bc
       -0.012691823 0.06666096 0.041948404 -0.009799544
000270 1d 6c 00 bd 0c b4 c4 3b 83 58 5f 3d 9e ce 85 bc
       -0.031353105 0.0060029086 0.05452777 -0.016333874
000280 f3 20 3f 3d 05 88 33 3d 62 48 c6 3d 06 51 0c 3d
       0.046662282 0.04383089 0.09681775 0.034256957
000290 49 72 a0 3c 26 f4 12 3d 8d 68 fa ba fa 9f 9f 3c
       0.019585745 0.03587737 -0.0019104645 0.019485462
0002a0 c7 09 e2 3c d5 8c 5c b8 93 4d 0e bd b7 24 95 3b
       0.027592553 -5.2583247e-05 -0.03474195 0.004551496
0002b0 00 9d e5 3c 7c cf 6a 3d f9 53 b5 bb 7d 99 30 3d
       0.028028965 0.05732678 -0.005533692 0.043115128
0002c0 50 ac 96 3b 18 22 33 bd be fc d8 bc 31 fe 64 bd
       0.004598178 -0.043733686 -0.026487704 -0.05590648
0002d0 45 6a 17 bc aa 7e 7b 3c 06 ae a8 bd 4a e0 19 bd
       -0.009241645 0.015350023 -0.08236317 -0.037567414
0002e0 21 9f 2d 3d f4 51 e0 bc c8 0b a5 3c 78 7e 05 3d
       0.042388085 -0.027382828 0.02014722 0.032591313
0002f0 e8 3a a8 bd 13 f6 04 bd fd 48 3e bd 44 3d 9d bb
       -0.082143605 -0.032461237 -0.046456326 -0.004798563
000300 07 c8 d3 bb 14 67 9c bd 7f 80 74 bd b6 b9 96 bc
       -0.006463054 -0.07636848 -0.059692856 -0.0183991
000310 19 8a a8 bc aa 42 e2 bd a0 6b e0 bc fa c9 72 bd
       -0.020573663 -0.110478714 -0.02739507 -0.05927465
000320 e0 a4 da 3c f4 9e 66 bd c2 81 f5 3c 54 d6 5d bd
       0.026689947 -0.056303933 0.0299691 -0.054159477
000330 a6 ff da bc 4a 63 d8 bc f3 81 eb bc 3c ca 11 3d
       -0.02673323 -0.026414532 -0.028748488 0.035593256
000340 b2 df 88 3c c8 5d 6d bd 13 fd 21 3d 43 e3 ad 3d
       0.016708229 -0.057950765 0.03954799 0.08490612
000350 a9 8d 5e 3b 0e c6 42 3d f5 76 78 3d 45 dd 91 3d
       0.0033958948 0.04755216 0.06066032 0.07122282
000360 e2 f5 ae 3c 75 f4 32 bd 75 50 80 bd d5 cf 81 3c
       0.02135748 -0.043690164 -0.06265346 0.015846172
000370 be 13 38 bd 7f 3d 90 3d fc 09 a3 3d 5b 75 ef ba
       -0.044940703 0.070429794 0.07960889 -0.0018269228
000380 6a 18 45 bd 80 e3 16 3c 3f fb 2e 3d 24 35 c6 3c
       -0.048118986 0.009209514 0.042720076 0.024195261
000390 ae ca bb 3c 1b 53 95 3d 7a 07 99 3c a7 56 f1 bb
       0.022923794 0.07291242 0.018680323 -0.007365066
0003a0 57 b9 a0 3d 61 e5 8a 3c 2f bf 91 3c 36 b9 74 bc
       0.07847851 0.01695508 0.017791359 -0.014936736
0003b0 73 11 9b 3c 08 6b c9 3d 1a d1 10 3d 9f 2b 32 3d
       0.018929219 0.09834868 0.035355665 0.04349863
0003c0 c4 d2 69 3d b8 26 bd 3d 34 71 89 3d 74 5b a7 3c
       0.057085767 0.09235901 0.06711045 0.02042935
0003d0 65 14 79 3d bd 82 96 3d 29 d7 76 3d 3d 0e 7f 3d
       0.060810465 0.07349155 0.060263786 0.062269438
0003e0 40 4f c8 3c 24 26 23 3d f8 52 1a bd f1 f1 ad bd
       0.024451852 0.039831296 -0.03767678 -0.08493412
0003f0 30 ee 27 3c dd ea 98 bc af 37 9c bc 0a 07 2a bd
       0.010249659 -0.018666679 -0.01906952 -0.04151062

decoder.3.bias f4 [6]
000000 02 96 10 be f1 71 01 3e 61 33 16 be f9 92 13 bd
       -0.14119723 0.12641121 -0.14668037 -0.036028836
000010 bb 42 e9 3d 1f 52 c8 3d
       0.11389681 0.09781288

decoder.5.weight f4 [6, 1, 5, 5]
000000 3b fb 29 be 27 2e b8 bd 54 d3 9c bd 3e 9d de bd
       -0.16599743 -0.08993178 -0.07657495 -0.10869835
000010 9f 04 cb bd f5 23 c0 bd bf 65 25 be 3e b4 f3 bd
       -0.09912991 -0.09381858 -0.16152094 -0.11899613
000020 46 04 45 3d a3 66 a3 3d e5 7a f7 bc 3e 25 b2 3d
       0.04809978 0.07978561 -0.030209968 0.0869851
000030 40 8a 5b 3c 3f 3b 9a 3c 35 21 4f 3e da ee 2e 3d
       0.013399661 0.018827079 0.20227511 0.042708255
000040 aa 00 ea 3d b7 db 5f 3e 72 ac 82 3e d8 3c 49 3e
       0.11425908 0.21861158 0.2552219 0.19652116
000050 47 e8 98 3d c3 58 3c 3e fb 2b 32 3e 56 f6 4e 3e
       0.074661784 0.18393235 0.1739959 0.20211157
000060 4e c6 07 3e 41 83 5a be fb 39 8c be c5 a0 19 be
       0.13259241 -0.21339132 -0.27387986 -0.15002735
000070 51 c6 cf bd 01 94 4d 3c c0 43 3a be 22 f1 4e be
       -0.10145248 0.012547494 -0.18189907 -0.20209172
000080 ae 55 86 be d8 9a 59 be e8 b2 29 3c f0 27 9d bd
       -0.26237243 -0.21250474 0.010357596 -0.07673633
000090 66 80 3b bd e2 59 d1 bd fd d5 0b be d3 4f ac 3c
       -0.045776747 -0.10222222 -0.13655849 0.021034157
0000a0 cf 58 13 be 5c 27 d1 bd eb 93 5e bd 1a 71 c3 bd
       -0.14389347 -0.10212585 -0.054340284 -0.09543057
0000b0 9e 4b e6 3c 11 b4 b8 bd 05 31 f9 bd 4b 30 27 bd
       0.028112229 -0.0901872 -0.12167553 -0.04081754
0000c0 42 96 1f bd 45 c7 a2 3d 31 b8 9e 3d 07 14 1d 3e
       -0.038961656 0.07948164 0.077499755 0.15339671
0000d0 a5 bd 4d 3e 18 43 f7 3d ac b4 d8 3c 11 ec 14 3e
       0.20091875 0.12073344 0.026453339 0.14543177
0000e0 89 39 a6 3d 70 9f 00 3e ef 51 ca 3d e6 54 df 3d
       0.08116443 0.1256082 0.09878909 0.10904865
0000f0 ab 7e 91 3d 61 0e 8c bc 5f e3 b6 3c ce f2 62 3d
       0.07104238 -0.0170967 0.022325216 0.055407338
000100 1d ca 26 3d c2 fb 0b 3d f4 fe 09 3e 7c 41 46 3e
       0.040720094 0.03417564 0.13476163 0.19360918
000110 af cd ea 3d e0 54 bd 3d 3c 25 50 3d 96 e3 1b bd
       0.11465012 0.09244704 0.05081676 -0.03805884
000120 41 47 12 3e 0d 07 f7 3d 1a 4b f6 3d e7 36 cc 3d
       0.14284994 0.12061892 0.12026043 0.09971409
000130 18 42 fe 3c 3a d2 8b bd 29 6b aa bc b6 83 20 be
       0.031037375 -0.06827207 -0.020803051 -0.15675244
000140 f2 6c 69 3e 85 d6 1e 3e 53 7c 3a bc ea 2d d7 bc
       0.22795466 0.1551152 -0.01138218 -0.02626701
000150 d3 6b bf 3d 8f b8 74 3e 99 1e 7c 3d 24 7b 47 3e
       0.09346738 0.23898529 0.061552618 0.19480568
000160 c1 5c 90 3d 6b 3a 32 bd 95 57 ab 3d 53 3f 0f 3e
       0.070489414 -0.043512743 0.08366314 0.13989
000170 3d 8a d8 bd e6 71 f5 bd 91 83 13 be 53 71 19 be
       -0.10573242 -0.11984615 -0.14405657 -0.14984636
000180 58 0c 94 bd 60 e2 70 3d 32 00 5c be 93 58 8d be
       -0.07228917 0.058809638 -0.2148445 -0.2760664
000190 37 6c eb bc cc 3b 28 be 58 fb 9a bd d2 87 7a bd
       -0.028738124 -0.1642906 -0.07567471 -0.061164685
0001a0 d9 8b bc bc 8c ac 4d be cb 56 06 be c8 68 5a be
       -0.023015903 -0.20085353 -0.13119046 -0.21329033
0001b0 31 2e 38 be b3 5e 50 bc b4 11 81 be 6e eb 44 be
       -0.1798637 -0.012717891 -0.2520882 -0.19230434
0001c0 42 57 48 bd c6 25 32 bd 76 f1 42 be 98 1a b6 bd
       -0.04891134 -0.043493055 -0.19037423 -0.08891791
0001d0 98 40 33 be 29 af 2b be ca 18 b5 bd 5d 8d a8 bd
       -0.1750511 -0.16766037 -0.08842619 -0.08230088
0001e0 fe cc 52 be b0 95 41 be ed 31 0a be 1d 4a 68 be
       -0.20586011 -0.18904757 -0.13495608 -0.22684522
0001f0 0f 17 2c be 31 ea 97 3d 9a 4b 9c 3c 44 49 89 be
       -0.16805671 0.07417715 0.019079018 -0.2681371
000200 08 69 3c bd a0 9b e0 bd c6 61 b0 3d 0c 74 79 be
       -0.045998603 -0.10967183 0.08612399 -0.24360675
000210 83 d4 9a be 51 d7 31 be 89 d9 9b 3d fe 3e a5 3c
       -0.3024026 -0.17367293 0.07609851 0.020171639
000220 32 5c 80 be 56 75 9d bd fc 58 f2 bd f3 d2 0b 3e
       -0.2507034 -0.07688396 -0.11833379 0.1365469
000230 96 86 e0 bd 48 2a 6f bd 1c 3d b3 bc 7d 60 d1 3d
       -0.1096317 -0.058389932 -0.021879725 0.10223482
000240 b8 fb ac 3d 34 8a ab 3b 25 69 27 3c 16 33 51 bd
       0.08446449 0.005234981 0.0102179395 -0.05107411
000250 de cc c2 bc 30 8e bb bd
       -0.023779329 -0.091579795
