Autoencoder-on-MNIST-in-Pytorch/Models/model_e2.pt (torch, 561729 bytes, 11 tensors)

encoder.0.weight f4 [6, 1, 5, 5]
-0.12519246 -0.10256623 -0.023401545 -0.13094759 -0.20708275 -0.1513267 -0.25933132 0.050996263
-0.08214289 -0.1060777 0.10940177 -0.15733577 0.07107655 -0.20962287 -0.10410407 0.10018103
0.0020023726 -0.17660418 -0.10489133 0.019084685 -0.021346938 -0.09096535 0.035442673 -0.22103402
-0.24100631 -0.15036602 -0.24472481 -0.1867694 -0.24230437 -0.22717334 0.09629348 0.034595273
0.07594943 0.027295597 0.16030648 -0.16134949 -0.008022073 0.13378513 -0.05102882 -0.095355734
0.18302429 0.14545943 0.11421455 0.12801848 0.21265094 -0.105222546 -0.1491882 -0.13025531
0.24161322 0.19800745 0.1387291 0.11994478 0.12218362 -0.07691853 -0.06263704 0.197423
0.092074126 -0.22672912 -0.24537358 -0.247832 -0.17872906 -0.06186886 -0.31528252 -0.16191791
-0.03263606 0.024427718 0.057550006 -0.28589728 0.057264317 -0.10734823 -0.12548846 0.07241169
-0.15916595 -0.17712446 -0.30677855 -0.16267617 -0.1101547 -0.17533256 0.19566466 -0.051253676
-0.02242213 0.074668035 -0.09129013 0.15436102 0.19988681 0.18137628 0.19159648 -0.18668057
0.19700825 0.21513689 -0.11926133 0.13093594 0.046821494 -0.058019616 0.13605 0.20322604
-0.020199247 0.115772486 0.20943901 0.06380596 -0.007856257 0.18740346 -0.013181315 -0.08155759
0.13855174 0.04831832 -0.09839281 -0.088501826 0.2275745 0.20377146 -0.09828423 -0.15520132
0.11832535 -0.033535574 0.17748414 0.093658425 0.015796967 -0.023937527 0.18646647 0.19477516
-0.030899506 -0.2300645 -0.13189682 0.21386011 0.05670552 -0.058387645 0.15565172 0.11169471
-0.14230005 0.02949769 -0.07264885 0.19678366 -0.092800975 -0.23999354 -0.15184698 0.051211152
0.1302501 -0.02764833 -0.17164925 -0.26890078 0.22436897 0.22063577 0.20182528 -0.09497887
-0.15718439 0.06571837 -0.06590347 0.063851215 -0.15720764 -0.18925588
00000000: 7432 00be 3e0e d2bd 99b4 bfbc 2017 06be
00000010: 800d 54be 63f5 1abe 13c7 84be 75e1 503d
00000020: 883a a8bd 443f d9bd 090e e03d a11c 21be
00000030: 9590 913d 61a7 56be 8434 d5bd b62b cd3d
00000040: 3d3a 033b bad7 34be 44d1 d6bd 7c57 9c3c
00000050: c6df aebc 0b4c babd 562c 113d be56 62be
00000060: 5cca 76be 8df9 19be 2499 7abe 7a40 3fbe
00000070: a31e 78be 21a0 68be 8435 c53d c6b3 0d3d
00000080: 608b 9b3d 049b df3c 6227 243e cd38 25be
00000090: 036f 03bc f8fe 083e 9903 51bd de49 c3bd
000000a0: b86a 3b3e 51f3 143e 51e9 e93d 4717 033e
000000b0: 2bc1 593e eb7e d7bd cbc4 18be a661 05be
000000c0: 7569 773e 77c2 4a3e 000f 0e3e 9ca5 f53d
000000d0: 683b fa3d 7687 9dbd d947 80bd 4129 4a3e
000000e0: 5c91 bc3d ae2b 68be 3643 7bbe acc7 7dbe
000000f0: c004 37be 346a 7dbd b66c a1be cfcd 25be
00000100: 64ad 05bd a31c c83c 8eb9 6b3d 2161 92be
00000110: fd8d 6a3d 64d9 dbbd 0c80 00be 954c 943d
00000120: 66fc 22be 1d60 35be 1412 9dbe 9594 26be
00000130: ca98 e1bd 618a 33be 515c 483e 60ef 51bd
00000140: 9dae b7bc 8eeb 983d 52f6 babd d110 1e3e
00000150: 21af 4c3e b4ba 393e de31 443e 3129 3fbe
00000160: 88bc 493e d84c 5c3e 493f f4bd 1214 063e
00000170: e5c7 3f3d faa5 6dbd b150 0b3e 7d1a 503e
00000180: e478 a5bc 201a ed3d 2e77 563e b3ac 823d
00000190: 88b7 00bc b1e6 3f3e 71f6 57bc aa07 a7bd
000001a0: 82e0 0d3e 6ee9 453d 2b82 c9bd 7240 b5bd
000001b0: 4a09 693e 77a9 503e 3e49 c9bd 18ed 1ebe
000001c0: 9054 f23d 995c 09bd 67be 353e fdcf bf3d
000001d0: a468 813c a218 c4bc 11f1 3e3e 2473 473e
000001e0: f620 fdbc 0796 6bbe f60f 07be 25fe 5a3e
000001f0: 0c44 683d e227 6fbd 2a63 1f3e 32c0 e43d
00000200: 1bb7 11be 24a5 f13c ecc8 94bd a881 493e
00000210: 700e bebd dec0 75be c67d 1bbe c9c2 513d
00000220: 4860 053e c07e e2bc d2c4 2fbe 5dad 89be
00000230: fbc0 653e 58ee 613e 49ab 4e3e 4884 c2bd
00000240: f2f4 20be 5a97 863d 66f8 86bd 6dc4 823d
00000250: 0afb 20be 4bcc 41be

encoder.0.bias f4 [6]
0.10893093 0.1475365 -0.06983505 0.14314407 -0.07256277 0.1852475
00000000: 2e17 df3d cf13 173e ae05 8fbd 5c94 123e
00000010: ca9b 94bd 85b1 3d3e

encoder.2.weight f4 [16, 6, 5, 5]
0.049921937 0.031533804 -0.06330857 0.094925046 -0.005740376 0.0035055357 -0.05217164 -0.0655083
-0.0037743947 0.044229135 -0.095321305 -0.1082728 0.0107787475 -0.0036365748 -0.03171168 -0.07143462
0.013324739 -0.10253682 -0.010988585 0.017611915 -0.05561099 0.0006697709 -0.050094787 0.01642633
-0.05725378 0.010279571 -0.027160846 -0.031923518 0.016219793 0.028857887 -0.00362967 0.090931
0.015661847 0.0039490983 -0.024762815 0.051816482 0.090515085 0.08421686 -0.04160321 -0.037093606
0.065594286 -0.016918382 -0.017203405 0.074366204 0.11286008 -0.069840275 0.0685709 -0.08273826
-0.053001635 0.024024231 0.070123576 0.051156994 0.006453482 0.1025818 -0.027889034 -0.009751159
0.049410418 -0.019904526 -0.041622728 0.070813864 -0.07068049 -0.029071525 -0.052657362 0.06841524
0.03447545 -0.1087832 -0.086101286 0.02503192 -0.0065786503 0.04940615 -0.09313252 -0.067831874
-0.018500842 -0.014147069 -0.0026921954 0.010349073 0.08445857 -0.051615342 -0.040294632 -0.026462048
0.030952653 0.093522854 0.035039388 0.08586086 0.09261856 0.062229257 0.044854164 -0.017546719
-0.05954535 -0.020480948 0.101751804 0.09939996 0.021635916 -0.020669091 0.08160208 0.09435604
-0.025906166 0.0378209 -0.0313642 -0.011138734 0.055974957 0.1043208 0.10529792 -0.0123316245
-0.04888505 0.037137445 0.10659416 -0.00055127573 -0.028844347 0.07725028 0.102466576 0.042866603
-0.031889405 0.016915679 -0.02828635 0.006550962 0.04997268 -0.037458155 -0.051962912 0.0023268529
0.039279614 -0.015681341 -0.026559299 0.048034508 -0.03350578 0.05708412 -0.047871064 0.0058914404
0.009115952 -0.01369671 0.034786638 -0.04956511 0.10488086 0.11327079 0.06412763 0.059746422
0.0489676 0.043064922 0.0068645664 0.018319316 0.07338181 0.06906957 0.016694354 0.07036175
-0.03823528 0.01971159 0.03700096 0.045758586 -0.0059066415 0.030856919 -0.053732764 0.010903897
-0.06510238 0.044774532 -0.028826753 0.07834151 0.008890118 -0.081341684 0.052209765 0.022984859
-0.042818792 -0.051265594 -0.02811624 0.04593787 0.019753512 0.026142472 -0.001651251 -0.0641293
0.005368018 0.016241776 -0.02246669 -0.052706115 -0.07457229 -0.076627225 -0.00595195 0.003041728
0.04804476 -0.06711503 -0.024106441 0.02006428 -0.031892903 0.023359591 0.014152999 -0.036977127
-0.04087817 -0.013086673 0.041023675 -0.041854825 0.0067741666 -0.034315336 0.05856894 0.04907817
-0.016855272 0.04383216 0.07229687 -0.020694146 0.0363437 -0.048678625 0.06770731 0.023424897
0.050768554 -0.045282025 -0.037945114 0.06832914 0.06720922 0.046730485 -0.046731953 0.017429886
0.049655356 -0.013044744 0.07173986 -0.064640455 -0.054512605 -0.031987224 -0.03691925 -0.046737876
0.0013893472 -0.08861117 -0.017968249 0.046436414 0.014905057 -0.059060942 -0.07821321 -0.018275384
0.072301574 0.04713852 0.06934633 -0.030072404 0.06746761 0.018486334 0.012710011 0.054872505
0.08014884 0.012064093 -0.06429423 -0.023574833 0.03157998 -0.049392134 0.09761131 0.016897103
0.027010916 0.102084324 0.018158328 0.0784036 0.046662193 0.039957494 0.051155217 -0.05931075
0.069652714 0.07710563 -0.0025218644 -0.02720576 0.06831488 -0.050659608 0.050795984 -0.013384512
00000000: f27a 4c3d 9729 013d eca7 81bd 1068 c23d
00000010: c419 bcbb 21bd 653b eeb1 55bd 3729 86bd
00000020: d65b 77bb 9c29 353d d137 c3bd 21be ddbd
00000030: 5899 303c 9a53 6ebb 1be4 01bd 504c 92bd
00000040: 0250 5a3c d3fe d1bd 7709 34bc dd46 903c
00000050: 59c8 63bd 9093 2f3a 3130 4dbd 8390 863c
00000060: f182 6abd a56b 283c 6c80 debc 3cc2 02bd
00000070: 5fdf 843c 6067 ec3c c2df 6dbb 083a ba3d
00000080: 464d 803c 7067 813b 63db cabc 853d 543d
00000090: f95f b93d e479 ac3d 2168 2abd 77ef 17bd
000000a0: 4c56 863d 6b98 8abc 28ee 8cbc 4f4d 983d
000000b0: 3023 e73d 6b08 8fbd e66e 8c3d ad72 a9bd
000000c0: 3e18 59bd 77ce c43c f39c 8f3d ff89 513d
000000d0: bb77 d33b 6816 d23d 8b77 e4bc 53c3 1fbc
000000e0: 9462 4a3d d10e a3bc 987c 2abd dc06 913d
000000f0: efc0 90bd 6827 eebc 3faf 57bd 4a1d 8c3d
00000100: 2136 0d3d bac9 debd df55 b0bd be0f cd3c
00000110: b891 d7bb 1a5e 4a3d 43bc bebd 70eb 8abd
00000120: 148f 97bc 1cc9 67bc 8b6f 30bb 298f 293c
00000130: 9df8 ac3d 9c6a 53bd fc0b 25bd f0c6 d8bc
00000140: 6b90 fd3c e988 bf3d 7685 0f3d d2d7 af3d
00000150: cdae bd3d 1be4 7e3d 00b9 373d 23be 8fbc
00000160: d3e5 73bd a9c7 a7bc 4063 d03d 3592 cb3d
00000170: ce3d b13c 3a52 a9bc fe1e a73d bd3d c13d
00000180: 2b39 d4bc 17ea 1a3d bf77 00bd 3d7f 36bc
00000190: ff45 653d 25a6 d53d 70a6 d73d 950a 4abc
000001a0: b13b 48bd 6f1d 183d 0a4e da3d 7d83 10ba
000001b0: fb4a ecbc 6535 9e3d ffd9 d13d e494 2f3d
000001c0: 779e 02bd c092 8a3c c7b8 e7bc 74a9 d63b
000001d0: 27b0 4c3d b96d 19bd 10d7 54bd 1d7e 183b
000001e0: a9e3 203d 2876 80bc e392 d9bc d5bf 443d
000001f0: 5b3d 09bd 0ad1 693d 7314 44bd fc0c c13b
00000200: 135b 153c 2a68 60bc 6f7c 0e3d c904 4bbd
00000210: c7cb d63d 84fa e73d 5955 833d aab8 743d
00000220: 4092 483d d864 303d 28f0 e03b 6412 963c
00000230: 3449 963d 5974 8d3d 99c2 883c d219 903d
00000240: 999c 1cbd 337a a13c 528e 173d 5b6d 3b3d
00000250: 808c c1bb a6c7 fc3c e316 5cbd 42a6 323c
00000260: 6654 85bd 8065 373d 1526 ecbc 8371 a03d
00000270: dca7 113c 7896 a6bd e8d9 553d be4a bc3c
00000280: c262 2fbd dffb 51bd 0754 e6bc 5929 3c3d
00000290: 1ed2 a13c bd28 d63c ca6e d8ba 3956 83bd
000002a0: 33e6 af3b 790d 853c 100c b8bc 5ee2 57bd
000002b0: 5bb9 98bd bcee 9cbd 9308 c3bb ba57 473b
000002c0: 95ca 443d 9b73 89bd df7a c5bc d85d a43c
000002d0: 22a2 02bd 9d5c bf3c fbe1 673c 5475 17bd
000002e0: de6f 27bd 7c69 56bc 7108 283d f76f 2bbd
000002f0: d4f9 dd3b 3d8e 0cbd fce5 6f3d 3106 493d
00000300: 1114 8abc 5a89 333d 6210 943d c586 a9bc
00000310: 22dd 143d 3d63 47bd 21aa 8a3d 92e5 bf3c
00000320: b0f2 4f3d a579 39bd 566c 1bbd 26f0 8b3d
00000330: fda4 893d 7768 3f3d 016a 3fbd 1fc9 8e3c
00000340: 6a63 4b3d 9fb9 55bc 59ec 923d 3762 84bd
00000350: 9c48 5fbd 0905 03bd a438 17bd 3770 3fbd
00000360: c21a b63a c679 b5bd 2632 93bc 1c34 3e3d
00000370: 5734 743c e3e9 71bd 3f2e a0bd 42b6 95bc
00000380: d912 943d 5214 413d 7305 8e3d 675a f6bc
00000390: 752c 8a3d a770 973c a63d 503c fec1 603d
000003a0: 1325 a43d 79a8 453c b1ac 83bd 0220 c1bc
000003b0: 025a 013d 684f 4abd 70e8 c73d cb6b 8a3c
000003c0: ff45 dd3c 9611 d13d c6c0 943c 1192 a03d
000003d0: db20 3f3d 78aa 233d 2288 513d d4ef 72bd
000003e0: 15a6 8e3d 8ee9 9d3d dd45 25bb 9dde debc
000003f0: ace8 8b3d 7380 4fbd 730f 503d b64a 5bbc

encoder.2.bias f4 [16]
-0.0023313898 0.03970152 0.025973437 0.031843577 0.10058137 0.018376954 0.027468953 -0.0057654865
-0.0012571276 0.113633476 0.028599197 0.038015954 0.09582617 0.021615501 0.035803217 -0.020878805
00000000: 3bca 18bb 109e 223d 3fc6 d43c 696e 023d
00000010: 9bfd cd3d 448b 963c 9206 e13c 68ec bcbb
00000020: 34c6 a4ba abb8 e83d dd48 ea3c 9eb6 1b3d
00000030: 8340 c43d fe12 b13c 65a6 123d 070a abbc

encoder.5.weight f4 [10, 6400]
0.0040963427 0.0030858144 0.007842177 -0.014201658 -0.017592762 -0.015229662 -0.032322176 -0.035373468
-0.022762496 -0.020272108 -0.023418093 -0.01346476 0.001596959 0.0039382284 -0.0054537468 0.0002523919
0.009638816 0.008589441 0.0058755884 0.004019854 0.018340537 0.0028364724 0.009037572 0.0010943412
-0.021074468 -0.024744576 -0.015105032 -0.025651244 0.0023248284 -0.011656719 0.0004814444 -0.0022969034
-0.0005827971 0.01753286 0.006877574 0.024323054 0.0072637564 0.0065410323 0.011690401 -0.008020885
0.026052877 0.02510803 -0.0019752851 -0.0033051283 -0.010332006 -0.019569874 -0.024283016 -0.013944427
-0.009790159 0.011336893 0.014681777 0.01388515 0.021211209 0.00711027 0.01899854 0.016368363
0.018000651 0.004502452 0.0020892357 0.006992235 0.026838696 0.008492455 -0.0019501277 -0.004792507
-0.015108445 -0.021880364 0.0011003659 -0.011241946 0.004363503 0.0051392624 0.017077992 0.02303273
0.008300693 0.020510793 0.022909902 0.024163598 0.018599784 0.015642086 0.012622258 0.005455474
0.01584553 0.010511375 0.00024558682 -0.013265265 -0.007389499 0.004514366 0.001979495 0.014938771
0.008746974 0.008038438 0.025503187 0.028677098 0.022220012 0.0075461254 0.0028599426 -0.00033078407
0.015658116 0.013919194 0.017408343 0.001810482 0.0007045297 -0.0007964907 -0.0006637974 -0.010725171
-0.00025296683 -0.01171346 0.0010579531 0.009364879 0.015042207 0.020457357 0.011331431 0.032726705
0.02648912 0.017897254 -0.0025007443 0.009981744 -0.0001276881 0.0028893186 0.008883566 -0.0011136128
0.0100132665 -0.003088145 -0.0139170615 -0.030302182 -0.017738061 -0.01153118 -0.0022926705 0.011130821
0.024420286 0.020648193 0.021530464 0.014217584 0.0037664713 0.018920952 -0.00092005485 -0.004103445
-0.0036150638 -0.008931673 0.0005185905 -0.0073228474 -0.009985589 -0.017211197 -0.014645683 -0.010825154
-0.008630347 0.0076993383 0.0075737876 0.011255509 0.008672337 0.016032657 0.0067825583 -0.0022043923
0.0038726586 -0.0014812098 -0.008479365 0.005919428 0.0046526035 0.0063804267 0.0015508597 -0.002949701
0.0008591674 -0.011048873 -0.01387944 -0.010046269 0.00095770205 -0.0078509655 0.0030017318 0.014121681
0.0052092364 0.019170843 0.011623847 0.010812264 -0.004390383 0.00068840955 0.005129669 -0.00016510674
-0.0023995594 0.010884084 -0.01622677 -0.007917525 -0.010161343 -0.031752713 -0.031434875 -0.015161469
-0.0021135018 -0.0048327195 -0.004576532 0.007302996 0.0057212375 0.010961847 -0.009994858 0.011327795
0.002036069 0.005284152 0.0147006875 0.013414733 0.009945585 0.0031159262 -0.000117787524 -0.009354427
-0.0060686152 -0.025828501 -0.006071308 2.9048988e-05 0.013093577 0.017159965 0.0073283203 0.017513985
0.007400372 -0.0014579151 0.0078873085 0.015373751 0.019794678 0.0019303382 0.0041521727 -0.008931159
-0.001203486 -0.007990541 -0.0012703632 -0.02403147 -0.025326744 -0.021272128 -0.010644945 -0.0017343486
0.012644846 0.0047830213 0.021090927 0.008102481 0.008296843 0.0026805745 0.0130724795 0.0030467976
0.020065777 -0.0022339413 -0.0049252105 0.0063867387 -0.0038136477 -0.01226616 -0.015428794 -0.020822328
-0.0152902845 -0.0034805438 0.001198964 0.018730495 0.019522194 0.018203245 0.013555651 0.022982566
0.016038788 -0.0069448357 0.013298819 0.022344923 0.011899798 -0.000985775 0.004800132 -0.00029359706
00000000: 9d3a 863b 603b 4a3b 797c 003c 12ae 68bc
00000010: b21e 90bc d585 79bc 4264 04bd c5e3 10bd
00000020: 6a78 babc b111 a6bc 4dd7 bfbc 4c9b 5cbc
00000030: 0d51 d13a 410c 813b 58b5 b2bb 7853 8439
00000040: 20ec 1d3c baba 0c3c 0288 c03b fbb8 833b
00000050: e53e 963c 1ce4 393b 5312 143c ff6f 8f3a
00000060: 5da4 acbc 23b5 cabc 197b 77bc 8f22 d2bc
00000070: 265c 183b d3fb 3ebc 606a fc39 a587 16bb
00000080: dac6 18ba 13a1 8f3c 465d e13b 2441 c73c
00000090: ce04 ee3b 2856 d63b 1889 3f3c 086a 03bc
000000a0: d86c d53c 5baf cd3c c973 01bb da9a 58bb
000000b0: 9347 29bc 0051 a0bc 2ded c6bc 2a77 64bc
000000c0: e766 20bc 60be 393c d68b 703c 8a7e 633c
000000d0: 21c3 ad3c 45fd e83b d3a2 9b3c f216 863c
000000e0: 1a76 933c 4e89 933b 8feb 083b 1e1f e53b
000000f0: d3dc db3c f023 0b3c 6d9b ffba 760a 9dbb
00000100: 6989 77bc 733e b3bc 273a 903a 2430 38bc
00000110: b7fb 8e3b 4267 a83b 25e7 8b3c 23af bc3c
00000120: a1ff 073c 4006 a83c 8cad bb3c bdf2 c53c
00000130: 935e 983c d523 803c 96cd 4e3c d5c3 b23b
00000140: 7cce 813c e737 2c3c 1bc2 8039 8e56 59bc
00000150: 9c23 f2bb 3fed 933b 6aba 013b bfc1 743c
00000160: 784f 0f3c a7b3 033c 0fec d03c 3cec ea3c
00000170: be06 b63c 7d45 f73b e06d 3b3b 166d adb9
00000180: 7345 803c 550d 643c f19b 8e3c b24d ed3a
00000190: 30b0 383a 96cb 50ba b002 2eba a1b8 2fbc
000001a0: a2a0 84b9 d0e9 3fbc 04ab 8a3a 266f 193c
000001b0: 9773 763c 3096 a73c 77a7 393c 700c 063d
000001c0: b6ff d83c 439d 923c 87e3 23bb 788a 233c
000001d0: 03e4 05b9 b95a 3d3b 608c 113c a5f6 91ba
000001e0: af0e 243c 7a62 4abb 6304 64bc 483c f8bc
000001f0: 694f 91bc 46ed 3cbc a140 16bb 0c5e 363c
00000200: 0d0d c83c 6626 a93c a860 b03c dff0 683c
00000210: e7d6 763b 1d00 9b3c d62f 71ba 3176 86bb
00000220: b5ea 6cbb 2756 12bc 05f2 073a 7ff4 efbb
00000230: 999a 23bc 7ffe 8cbc 72f4 6fbc fd5b 31bc
00000240: 4d66 0dbc bb4a fc3b 892d f83b 0769 383c
00000250: 6b16 0e3c eb56 833c 3940 de3b 9177 10bb
00000260: 6ecc 7d3b 2725 c2ba 09ed 0abc c3f7 c13b
00000270: de74 983b e612 d13b 3746 cb3a c54f 41bb
00000280: c039 613a 5506 35bc 9766 63bc 1b99 24bc
00000290: 4c0e 7b3a 56a1 00bc b4b8 443b a05e 673c
000002a0: 3eb2 aa3b 2c0c 9d3c f371 3e3c ec25 313c
000002b0: 34dd 8fbb 6276 343a c816 a83b 8120 2db9
000002c0: ed41 1dbb 2853 323c 01ee 84bc 82b8 01bc
000002d0: c37b 26bc 220f 02bd dbc1 00bd cf67 78bc
000002e0: ad82 0abb ca5b 9ebb bcf6 95bb f84d ef3b
000002f0: 3879 bb3b 5299 333c 79c1 23bc 3798 393c
00000300: 926f 053b ae26 ad3b 27db 703c 78c9 5b3c
00000310: cff2 223c 9134 4c3b b204 f7b8 5043 19bc
00000320: 3cdb c6bb 4b96 d3bc d3f1 c6bb 3aae f337
00000330: 7186 563c 0e93 8c3c 6822 f03b 7d79 8f3c
00000340: d27e f23b 8317 bfba c539 013c 2fe2 7b3c
00000350: 7328 a23c 6703 fd3a f30e 883b ff53 12bc
00000360: 4abe 9dba c2ea 02bc 5182 a6ba a5dd c4bc
00000370: 087a cfbc e342 aebc 2368 2ebc 1553 e3ba
00000380: 542c 4f3c e4ba 9c3b e1c6 ac3c 45c0 043c
00000390: 7bef 073c 94ac 2f3b f42d 563c c8ac 473b
000003a0: fc60 a43c 5167 12bb a963 a1bb d947 d13b
000003b0: 64ee 79bb 01f8 48bc 0dc9 7cbc 9693 aabc
000003c0: 1a84 7abc d619 64bb 8e26 9d3a b270 993c
000003d0: 02ed 9f3c f91e 953c 8518 5e3c ef45 bc3c
000003e0: c763 833c 8191 e3bb 4ae3 593c b30c b73c
000003f0: 5ff7 423c 1f35 81ba 6d4a 9d3b eeed 99b9

encoder.5.bias f4 [10]
0.006795567 -0.0076230373 0.0004396898 0.0017774302 0.00092771207 0.012891668 0.0094246315 0.0007126136
-0.0049085706 -0.0084997015
00000000: 59ad de3b acca f9bb 2a86 e639 a9f8 e83a
00000010: b431 733a 9337 533c c569 1a3c b0ce 3a3a
00000020: 13d8 a0bb 5542 0bbc

decoder.0.weight f4 [6400, 10]
0.111148566 0.0667073 0.09234492 -0.12591694 0.2792421 0.108422205 -0.2885166 0.15229653
0.039615255 0.1817152 0.051919654 -0.02473442 -0.032932278 0.022010589 -0.07649085 -0.18821788
-0.2665008 0.1675228 0.23961255 0.03723845 -0.09535803 0.060304977 0.0987499 0.23781568
-0.13048673 0.034079317 0.24212083 -0.050960504 0.31078544 -0.23273315 0.04780354 -0.04722681
0.2548383 -0.1486484 0.099555366 0.03448401 -0.06633573 0.113970555 -0.002139636 0.2327223
-0.19053943 -0.20067173 0.076372445 0.20605765 -0.15175164 -0.09863871 0.032155033 0.19043393
-0.18809281 0.15328853 -0.13109474 0.27180824 -0.286097 0.08553054 -0.08590745 -0.14460728
0.12933066 0.2338594 0.027740942 -0.1787667 -0.17531061 0.03017447 -0.10276767 -0.28957915
-0.12714216 0.06264076 -0.17266223 0.33812794 0.18449323 0.041033145 0.067557745 0.032470312
-0.1372618 0.3187419 -0.19235326 -0.008735619 0.3077621 0.25221935 0.1884873 0.2330313
-0.05114296 0.030688394 -0.26414236 0.042099506 0.23427577 -0.28352752 -0.084830254 0.16007584
-0.054915782 0.0534135 -0.15591453 0.28003132 -0.32912323 0.04780595 0.16643287 -0.069067456
0.012640934 -0.24493384 0.34520856 -0.17926039 0.017848046 0.1907685 0.030796302 -0.12097607
-0.17067668 -0.15621832 0.26418415 0.24731782 -0.25171918 -0.010075896 -0.20110995 0.03933036
-0.0145403 0.19455405 -0.041457165 0.2729012 -0.15193883 0.13532546 0.2237722 -0.16626234
-0.12095412 0.25810733 0.026917242 0.17675665 -0.04535298 0.04031189 -0.21159753 -0.042189024
-0.192726 0.24873391 0.11925665 -0.16331628 0.16077396 -0.039837107 -0.11347834 -0.1695229
-0.048516273 0.14673658 -0.10972305 0.06361347 0.30242866 0.13555925 0.21633746 0.10719716
0.14240307 -0.27364802 -0.20367616 0.22495443 -0.20104279 -0.16538203 0.21327032 0.16045353
0.06889146 -0.20199737 0.26802227 -0.16666093 0.10445952 -0.35569602 -0.12708685 -0.004952882
0.16133225 0.12877709 -0.09962326 -0.101587996 -0.28792343 0.2143819 0.014070247 -0.1250415
0.15955085 0.13728774 -0.15881328 0.18241839 -0.1597715 0.12092413 -0.22709763 0.044879667
0.25805417 -0.14804693 -0.0147545505 0.16151664 -0.10329889 0.023729365 0.27025652 -0.09337662
-0.11920724 -0.14211975 -0.19062395 -0.003914017 -0.23550582 0.1706132 0.16825192 -0.026474088
-0.023810327 0.26652095 0.28609633 0.15982994 -0.1291221 -0.22829261 -0.17093155 -0.11795244
-0.043992717 0.15215118 0.051696856 -0.0010937651 -0.26891363 -0.09674402 -0.06558292 0.0020418614
0.14148183 0.0016401741 0.09337011 0.17922132 0.11937008 0.014155656 0.1871737 -0.025493648
0.1015944 0.2092556 -0.22018817 0.014655186 -0.16402553 0.020340828 0.030494986 -0.1559323
-0.053099386 0.0628614 0.08924081 -0.07784572 -0.1001192 0.10232545 -0.03465795 0.042133898
-0.06102141 -0.061053455 -0.00825508 -0.08647642 0.12553073 -0.1349595 0.23739386 -0.14040148
-0.3031994 0.2543999 0.031545535 -0.11035167 -0.3044824 -0.1350642 -0.12058766 -0.071056955
-0.18662247 -0.07751711 0.07579288 0.22371285 -0.21135019 0.25053903 -0.22387217 -0.09345721
00000000: dca1 e33d d69d 883d 551f bd3d 5ff0 00be
00000010: d2f8 8e3e 760c de3d 73b8 93be 9ff3 1b3e
00000020: 9b43 223d 8d13 3a3e b4a9 543d d79f cabc
00000030: ffe3 06bd 8d4f b43c 3ca7 9cbd 30bc 40be
00000040: cb72 88be 198b 2b3e fe5c 753e 5887 183d
00000050: 124b c3bd 5a02 773d 633d ca3d f485 733e
00000060: 509e 05be c196 0b3d 86ee 773e f6bb 50bd
00000070: 451f 9f3e 9951 6ebe a5cd 433d e670 41bd
00000080: 2a7a 823e 4937 18be afe3 cb3d 1b3f 0d3d
00000090: 07db 87bd 6569 e93d 2339 0cbb c14e 6e3e
000000a0: c51c 43be e47c 4dbe 2869 9c3d c700 533e
000000b0: c864 1bbe 1803 cabd ffb4 033d 1d01 433e
000000c0: 679b 40be abf7 1c3e b33d 06be 732a 8b3e
000000d0: 4e7b 92be a32a af3d 3ff0 afbd ee13 14be
000000e0: 426f 043e d778 6f3e f940 e33c 9e0e 37be
000000f0: a084 33be 7330 f73c db77 d2bd b843 94be
00000100: 8e31 02be cc49 803d 5ece 30be 1b1f ad3e
00000110: cbeb 3c3e 5f12 283d b75b 8a3d 97ff 043d
00000120: 5b8e 0cbe 2332 a33e 41f8 44be d71f 0fbc
00000130: fe92 9d3e e522 813e d102 413e c29f 6e3e
00000140: 487b 51bd 3a66 fb3c ab3d 87be 8870 2c3d
00000150: fde5 6f3e 852a 91be 7cbb adbd ecea 233e
00000160: 5fef 60bd 1dc8 5a3d 0fa8 1fbe 4460 8f3e
00000170: d782 a8be 2cd0 433d 616d 2a3e 3d73 8dbd
00000180: ec1b 4f3c f0cf 7abe 2dbf b03e 0990 37be
00000190: 1136 923c d158 433e 8748 fc3c 4dc2 f7bd
000001a0: dec5 2ebe b2f7 1fbe 2543 873e e240 7d3e
000001b0: 56e1 80be 5f15 25bc c4ef 4dbe df18 213d
000001c0: 703a 6ebc 2d39 473e fdce 29bd b5b9 8b3e
000001d0: da95 1bbe c292 0a3e 8a24 653e ad40 2abe
000001e0: cbb6 f7bd a526 843e 8c81 dc3c b2ff 343e
000001f0: 0cc4 39bd 151e 253d 06ad 58be 66ce 2cbd
00000200: f759 45be 1ab4 7e3e d53c f43d 623c 27be
00000210: eea1 243e 3c2c 23bd 5567 e8bd 6997 2dbe
00000220: 00b9 46bd 1d42 163e 7ab6 e0bd c747 823d
00000230: eed7 9a3e 0bd0 0a3e 9187 5d3e 2f8a db3d
00000240: 1cd2 113e 981b 8cbe 7c90 50be 745a 663e
00000250: 29de 4dbe e859 29be 8963 5a3e ee4d 243e
00000260: f716 8d3d 66d8 4ebe 373a 893e 2aa9 2abe
00000270: dfee d53d ca1d b6be 0e23 02be c94b a2bb
00000280: 4834 253e 24de 033e 4807 ccbd 5e0d d0bd
00000290: b36a 93be ee86 5b3e e586 663c e10a 00be
000002a0: 4c61 233e 2895 0c3e f39f 22be e3cb 3a3e
000002b0: 249b 23be 12a7 f73d 488c 68be bed3 373d
000002c0: ad1f 843e 9d99 17be 12bd 71bc 9e64 253e
000002d0: 5e8e d3bd 1664 c23c 105f 8a3e 3e3c bfbd
000002e0: ed22 f4bd d787 11be ed32 43be 2841 80bb
000002f0: 7028 71be 3ab5 2e3e 3b4a 2c3e 30e0 d8bc
00000300: e00d c3bc 6f75 883e 387b 923e 76aa 233e
00000310: 9538 04be 8ac5 69be ae08 2fbe 0d91 f1bd
00000320: b531 34bd 85cd 1b3e 15c0 533d ab5c 8fba
00000330: 0caf 89be bb21 c6bd 5750 86bd c0d0 053b
00000340: 9de0 103e 1cfb d63a d438 bf3d cb85 373e
00000350: 4d78 f43d 20ed 673c 76aa 3f3e 0ed8 d0bc
00000360: ba10 d03d 1a47 563e 0279 61be 4e1c 703c
00000370: 4ff6 27be cfa1 a63c 9fd0 f93c b8ac 1fbe
00000380: be7e 59bd 7abd 803d e3c3 b63d 946d 9fbd
00000390: 4c0b cdbd 0190 d13d 7ff5 0dbd 9894 2c3d
000003a0: 96f1 79bd 3013 7abd 5140 07bc 8d1a b1bd
000003b0: 218b 003e d332 0abe 6017 733e 68c5 0fbe
000003c0: f43c 9bbe b440 823e e435 013d 0e00 e2bd
000003d0: 1ee5 9bbe 454e 0abe aaf6 f6bd 4f86 91bd
000003e0: f619 3fbe 4ac1 9ebd 4c39 9b3d fb14 653e
000003f0: 2f6c 58be a746 803e bf3e 65be 7e66 bfbd

decoder.0.bias f4 [6400]
-0.054728903 -0.051699445 0.12565333 -0.0863925 0.055996537 -0.098068416 -0.039408267 -0.0993601
-0.15956742 -0.09391871 0.06210888 0.13790561 0.062072247 0.0053799944 -0.15505573 0.14448193
0.16959839 -0.10579517 -0.027019255 0.080790125 -0.06774199 0.081249505 0.07162211 -0.0958258
0.12446011 -0.04042393 0.1453212 0.23492794 0.021802688 -0.07409319 -0.09021321 -0.073780164
0.04329268 0.18499413 -0.040848788 0.21155916 0.017376393 -0.040586162 -0.10232805 -0.11472297
-0.011669398 -0.020033708 0.12129285 0.12100201 -0.0016418397 -0.064791135 -0.02008377 -0.032263603
0.05012328 0.16105 -0.11099714 0.17558506 0.029592894 -0.0776065 -0.120232955 -0.07282862
-0.18865262 0.07702226 -0.046634793 -0.014630767 -0.08426761 0.06554238 0.07826095 0.1475429
0.17053415 -0.002870362 -0.12748529 -0.0861967 -0.14074378 0.06868203 0.0052468446 0.15212591
-0.0908139 0.05245557 -0.035447646 -0.06398605 -0.09393806 0.02567159 0.039793532 -0.100075305
0.18221334 -0.058134932 0.11094258 0.13327315 -0.069147006 0.19471179 -0.09195317 -0.022478577
0.04235628 0.2137963 0.21045712 -0.09961697 -0.12557325 -0.06164873 0.17765555 0.13055858
0.0054455893 -0.08453669 0.09924222 0.011008589 0.0012457834 0.026169889 0.12183425 0.04557083
-0.10643193 0.21046917 0.1245052 -0.14341368 0.063084245 -0.04301796 -0.009169978 0.17357421
0.022750296 0.08267118 0.08004083 -0.0480391 -0.08734996 0.14216155 0.07973589 0.07736054
0.09545441 -0.059550777 -0.04425741 -0.03716001 0.039819125 0.18683434 0.018642396 0.04505856
-0.072136275 0.0541842 -0.024725465 -0.058878124 -0.14322446 0.16147667 -0.11200181 0.03216074
0.06494398 0.0012712978 -0.02766865 0.019423239 0.11269121 -0.07135454 -0.018017052 0.06361746
-0.16599736 -0.009306249 0.17164673 0.23592813 -0.11401768 0.21357293 0.0074406997 0.11979159
-0.047806427 0.13934493 0.06527392 0.08340279 -0.05811741 -0.0028445912 -0.03749671 0.024675349
-0.013535568 0.01783348 0.09476522 -0.10477079 -0.017387126 0.13237423 0.16845018 -0.13779874
0.011676002 -0.048120514 0.14668564 0.086589724 -0.010292756 0.13757125 -0.13127662 -0.10374452
-0.036081962 0.106873736 -0.1487235 -0.011948997 0.005446037 0.15555991 0.0048428443 0.07535422
0.17186317 0.120582566 -0.099690296 0.16598569 0.075707816 0.10032454 0.13036615 -0.15496808
-0.108409114 -0.17210793 -0.039789766 0.030617215 0.18333742 -0.0033253285 0.17784151 0.113442004
-0.0071734744 -0.0009881117 0.095836334 0.02306896 -8.690652e-06 -0.08254651 0.011025452 -0.0634413
-0.03220043 0.124449424 -0.14957032 -0.07004075 0.08403222 -0.048353232 0.20782568 0.20219474
-0.016434224 -0.04674975 -0.031762928 -0.112840615 0.16062109 -0.06346562 0.014818573 0.0188448
0.008602335 -0.06901385 -0.0425804 -0.04511935 -0.06791878 -0.0846875 0.12175525 0.06287807
0.24371333 -0.16355982 -0.023017056 -0.15831597 0.15380578 0.07974207 0.16227184 0.0558912
-0.12783293 -0.09377315 0.14668554 0.14050382 0.005661995 0.18844526 0.20599183 0.06135591
0.009437366 0.0150511535 -0.01963712 0.19367489 -0.19130099 -0.088032104 0.08870902 0.17181417
00000000: 6a2b 60bd ccc2 53bd 44ab 003e 8dee b0bd
00000010: a05c 653d 18d8 c8bd 906a 21bd 4f7d cbbd
00000020: a465 23be 7458 c0bd e265 7e3d 2137 0d3e
00000030: 783f 7e3d aa4a b03b eec6 1ebe 12f3 133e
00000040: 33ab 2d3e 23ab d8bd 7c57 ddbc 4b75 a53d
00000050: 50bc 8abd 2466 a63d 9dae 923d 5140 c4bd
00000060: f1e4 fe3d 9093 25bd 15cf 143e f390 703e
00000070: 8d9b b23c 2cbe 97bd b4c1 b8bd 0e1a 97bd
00000080: aa53 313d 1a6f 3d3e 0f51 27bd f7a2 583e
00000090: f058 8e3c ad3d 26bd 5e91 d1bd e0f3 eabd
000000a0: 0131 3fbc bb1d a4bc 6368 f83d e7cf f73d
000000b0: 0033 d7ba 37b1 84bd b886 a4bc d726 04bd
000000c0: 124e 4d3d 4bea 243e 7852 e3bd 92cc 333e
000000d0: cc6c f23c 28f0 9ebd b23c f6bd 2c27 95bd
000000e0: 272e 41be d9bd 9d3d 2004 3fbd e2b5 6fbc
000000f0: 7f94 acbd 153b 863d 4747 a03d 7c15 173e
00000100: 81a0 2e3e af1c 3cbb 818b 02be e587 b0bd
00000110: 231f 10be 2aa9 8c3d b9ed ab3b e5c6 1b3e
00000120: a3fc b9bd a7db 563d 8d31 11bd 1e0b 83bd
00000130: 9962 c0bd 3a4d d23c 8bfe 223d 48f4 ccbd
00000140: 2296 3a3e e51e 6ebd dd35 e33d c278 083e
00000150: f29c 8dbd 8762 473e f251 bcbd fe24 b8bc
00000160: c77d 2d3d 6bed 5a3e 1282 573e fb03 ccbd
00000170: 4696 00be 6183 7cbd 56eb 353e 26b1 053e
00000180: ea70 b23b 9221 adbd 813f cb3d 5e5d 343c
00000190: 8e49 a33a 3c62 d63c 3c84 f93d 7ba8 3a3d
000001a0: fcf8 d9bd 3b85 573e 95fc fe3d 09db 12be
000001b0: 5032 813d 9a33 30bd ad3d 16bc 70bd 313e
000001c0: d45e ba3c 824f a93d 72ec a33d a6c4 44bd
000001d0: 89e4 b2bd cc92 113e 924c a33d 346f 9e3d
000001e0: 9a7d c33d 84eb 73bd 4247 35bd 1835 18bd
000001f0: 6119 233d 8051 3f3e f0b7 983c 538f 383d
00000200: 2fbc 93bd 40f0 5d3d 0f8d cabc 302a 71bd
00000210: 6fa9 12be 245a 253e 3461 e5bd fbba 033d
00000220: 5901 853d ada1 a63a 5da9 e2bc 7c1d 9f3c
00000230: a6ca e63d 5422 92bd 7f98 93bc df49 823d
00000240: 36fb 29be 3d79 18bc 29c4 2f3e 2597 713e
00000250: 1a82 e9bd ddb2 5a3e 1dd1 f33b 4b55 f53d
00000260: acd0 43bd 70b0 0e3e 55ae 853d 15cf aa3d
00000270: 850c 6ebd 526c 3abb 2696 19bd f523 ca3c
00000280: 49c4 5dbc 8517 923c 4514 c23d 1192 d6bd
00000290: 726f 8ebc 1c8d 073e 347e 2c3e 1d1b 0dbe
000002a0: b44c 3f3c 041a 45bd c334 163e f455 b13d
000002b0: f3a2 28bc 7adf 0c3e 616d 06be 0278 d4bd
000002c0: aeca 13bd 9ee0 da3d f94a 18be bac5 43bc
000002d0: ab74 b23b 194b 1f3e b9b0 9e3b 5053 9a3d
000002e0: e6fc 2f3e fef3 f63d 6d2a ccbd 27f8 293e
000002f0: b30c 9b3d f476 cd3d b47e 053e f4af 1ebe
00000300: 9905 debd 103d 30be 98fa 22bd f4d0 fa3c
00000310: cebc 3b3e c1ed 59bb 161c 363e 4854 e83d
00000320: 770f ebbb 8783 81ba d745 c43d 1efb bc3c
00000330: 11ce 11b7 250e a9bd 19a4 343c 83ed 81bd
00000340: 99e4 03bd 57df fe3d f628 19be 8671 8fbd
00000350: 1619 ac3d 0a0e 46bd 41d0 543e 230c 4f3e
00000360: 11a1 86bc aa7c 3fbd d819 02bd fb18 e7bd
00000370: db79 243e 43fa 81bd 9ac9 723c 6960 9a3c
00000380: cff0 0c3c 2257 8dbd c968 2ebd 11cf 38bd
00000390: 0019 8bbd a470 adbd d15a f93d 38c6 803d
000003a0: fd8f 793e 3a7c 27be 448e bcbc 951d 22be
000003b0: 437f 1d3e cf4f a33d 972a 263e 2cee 643d
000003c0: a3e6 02be 230c c0bd bc34 163e 3ce0 0f3e
000003d0: 4288 b93b cbf7 403e 86ef 523e 5650 7b3d
000003e0: 2f9f 1a3c 1d99 763c 07de a0bc b652 463e
000003f0: 68e4 43be 2d4a b4bd 13ad b53d 0ef0 2f3e

decoder.3.weight f4 [16, 6, 5, 5]
0.035747595 -0.03965888 0.048614677 -0.016181126 -0.018112646 0.011223275 -0.022683423 0.040882736
-0.06734209 -0.088037945 0.06640915 0.020021478 -0.00571465 -0.0036378808 -0.066173896 -0.061643496
-0.051549897 -0.065698825 -0.11257549 -0.10366228 -0.09145509 -0.08203648 0.03332772 -0.06410371
-0.10004771 0.09968594 0.030825477 -0.02669912 0.055631474 0.021163229 -0.016161496 -0.009071685
-0.015651077 -0.07428217 -0.0161256 -0.06726442 -0.060101893 -0.0076693706 0.017080426 -0.026517209
0.015030184 -0.058097344 0.041347276 -0.025084127 -0.057927206 -0.05415018 0.025224421 -0.062139045
-0.030639293 0.036195777 -0.077379175 -0.044362582 1.2879071e-05 -0.004768717 -0.022790246 -0.044270553
0.0002750185 -0.070997424 -0.019853719 -0.04189144 -0.068848684 -0.05908046 0.028599225 -0.046709638
-0.070301056 -0.02087881 -0.020614658 0.071632415 -0.053931333 -0.037440106 0.006998592 0.058672234
0.037725646 0.039897207 -0.051216114 -0.037389174 -0.0037904428 0.05743848 0.0048708115 0.03435607
0.04140647 0.046131864 0.05155548 0.0713002 0.05992913 0.030629886 -0.0019344747 0.029919606
0.056266695 -0.014277607 0.051480424 -0.030056542 0.031864144 -0.021288812 0.012002589 0.029387346
0.00262126 0.038851727 0.007883829 0.03360672 -0.021017827 0.015901715 -0.029562484 0.034365065
-0.06001124 -0.023079518 -0.03352491 0.06451599 0.013837636 -0.041439828 0.057248097 -0.01966524
-0.0033233676 0.07908456 0.098318 0.04183342 0.053301226 0.06886915 0.028746447 0.1019556
0.06813743 0.019328244 0.091674246 0.018373094 0.06650742 -0.090418175 -0.022036575 -0.036123544
-0.048198685 -0.040241666 -0.038350873 -0.00692816 0.005337372 0.0045331703 -0.053194266 -0.023604454
-0.041426938 -0.06227369 -0.09385563 -0.036596507 -0.009871608 -0.06470625 0.04100069 -0.04139771
0.01918659 -0.055412874 -0.00019539337 0.058422633 -0.032446172 0.044060085 0.04511285 0.07680731
-0.016018951 0.055333745 0.041568905 -0.015473577 -0.03336742 0.0075493725 0.04221207 -0.018859338
0.05984726 0.037541475 0.101531796 0.041285697 0.01751939 0.027815187 -0.0105313305 0.0138034895
0.021580463 -0.018887388 -0.049367424 -0.006594149 0.035747197 0.06896347 -0.00034338463 0.050633624
0.008765032 -0.034040727 -0.0112656895 -0.0479007 -0.008557904 0.020756517 -0.08447568 -0.029986648
0.04759887 -0.03496157 0.029300347 0.042925563 -0.06972466 -0.02996753 -0.048955582 0.0059965937
0.0007793629 -0.07634385 -0.0560338 -0.009380031 -0.005867001 -0.09598099 -0.014784752 -0.051350884
0.032551046 -0.05504678 0.026794162 -0.05946475 -0.03441273 -0.015788194 -0.026594546 0.044667806
0.0150586935 -0.07245259 0.04156179 0.08834192 0.009980289 0.048261058 0.06152543 0.073424436
0.018048575 -0.040144857 -0.05765952 0.020206455 -0.047793683 0.072390914 0.08515245 -0.0017257386
-0.047223974 0.0063684145 0.054313775 0.03273597 0.035421837 0.10267391 0.0017754977 -0.032680664
0.07690775 0.023558807 0.026601825 -0.047061384 0.002240366 0.082016766 0.023624389 0.048048183
0.055506077 0.08236181 0.06360403 -0.0028549216 0.049745005 0.06619052 0.047408327 0.047541596
0.009717857 0.05355123 -0.024225777 -0.08923917 0.015739774 -0.018210864 -0.009892678 -0.031626847
00000000: 126c 123d 5a71 22bd 2f20 473d 488e 84bc
00000010: f960 94bc d4e1 373c 96d2 b9bc a874 273d
00000020: a6ea 89bd 3d4d b4bd 8501 883d 1504 a43c
00000030: f541 bbbb 8369 6ebb 2e86 87bd e47d 7cbd
00000040: fc25 53bd 1b8d 86bd fa8d e6bd e44c d4bd
00000050: ce4c bbbd be02 a8bd a682 083d ce48 83bd
00000060: d0e5 ccbd 2428 cc3d b685 fc3c 1db8 dabc
00000070: d4dd 633d 825e ad3c 1d65 84bc 68a1 14bc
00000080: b036 80bc 4021 98bd d619 84bc eec1 89bd
00000090: 672d 76bd 584f fbbb 40ec 8b3c 9e3a d9bc
000000a0: 2941 763c 7bf7 6dbd c35b 293d 3a7d cdbc
000000b0: 1445 6dbd 94cc 5dbd 72a3 ce3c 8385 7ebd
000000c0: 41ff fabc 0642 143d f978 9ebd 8ab5 35bd
000000d0: 3013 5837 e642 9cbb 9cb2 babc 0a55 35bd
000000e0: 5c30 9039 1967 91bd 44a4 a2bc 5c96 2bbd
000000f0: 8a00 8dbd 5afe 71bd ec48 ea3c 9b52 3fbd
00000100: 00fa 8fbd 0a0a abbc 12e0 a8bc 04b4 923d
00000110: 1ae7 5cbd cc5a 19bd 7254 e53b 4c52 703d
00000120: 3586 1a3d 416b 233d fdc7 51bd 6425 19bd
00000130: 1469 78bb 9d44 6b3d 549b 9f3b f3b8 0c3d
00000140: d599 293d c4f4 3c3d d72b 533d d705 923d
00000150: 3f78 753d 87eb fa3c 338e fdba f619 f53c
00000160: e877 663d a0ec 69bc 23dd 523d 2339 f6bc
00000170: fa83 023d e065 aebc 82a6 443c bbbd f03c
00000180: 72c9 2b3b fd22 1f3d 2d2b 013c 33a7 093d
00000190: 942d acbc 5044 823c 062d f2bc 62c2 0c3d
000001a0: 59ce 75bd 4211 bdbc 6b51 09bd f620 843d
000001b0: 41b7 623c cfbc 29bd fb7c 6a3d ff18 a1bc
000001c0: dbcc 59bb 16f7 a13d f35a c93d 8559 2b3d
000001d0: 6352 5a3d 450b 8d3d ab7d eb3c 19ce d03d
000001e0: a38b 8b3d 4456 9e3c b5bf bb3d 2c83 963c
000001f0: 0b35 883d 2a2d b9bd 0c86 b4bc 48f6 13bd
00000200: fc6b 45bd 72d4 24bd ce15 1dbd 9e05 e3bb
00000210: 1fe5 ae3b fd8a 943b 3be2 59bd 215e c1bc
00000220: 4baf 29bd b212 7fbd 6137 c0bd 38e6 15bd
00000230: 86bc 21bc b684 84bd 57f0 273d a590 29bd
00000240: 322d 9d3c 9cf8 62bd 82e2 4cb9 924c 6f3d
00000250: 47e6 04bd 5978 343d 40c8 383d 274d 9d3d
00000260: 2d3a 83bc a3a5 623d 2844 2a3d e384 7dbc
00000270: 47ac 08bd ba60 f73b 90e6 2c3d e67e 9abc
00000280: 6722 753d 17c5 193d e7ef cf3d 311b 293d
00000290: d384 8f3c addc e33c 9a8b 2cbc 0828 623c
000002a0: 83c9 b03c b9b9 9abc 7f35 4abd bb13 d8bb
000002b0: a76b 123d b83c 8d3d 4e08 b4b9 3465 4f3d
000002c0: 359b 0f3c 4a6e 0bbd ba93 38bc 8633 44bd
000002d0: 7336 0cbc 9209 aa3c 9601 adbd 8fa6 f5bc
000002e0: 08f7 423d dd33 0fbd 4807 f03c b7d2 2f3d
000002f0: cdcb 8ebd 777e f5bc a685 48bd 137f c43b
00000300: 294e 4c3a 2a5a 9cbd b383 65bd b4ae 19bc
00000310: f93f c0bb ae91 c4bd bf3b 72bc 4e55 52bd
00000320: 3f54 053d bb78 61bd 6e7f db3c 4f91 73bd
00000330: 5df4 0cbd 3e56 81bc cedc d9bc 97f5 363d
00000340: bdb8 763c 0662 94bd b23c 2a3d 9cec b43d
00000350: 5e84 233c 63ad 453d 1702 7c3d 8d5f 963d
00000360: 9bda 933c ef6e 24bd 642c 6cbd 0288 a53c
00000370: 4fc3 43bd b041 943d 6864 ae3d 2e32 e2ba
00000380: ed6d 41bd 22ae d03b 1f78 5e3d 2716 063d
00000390: 7d16 113d b346 d23d d1b7 e83a 29dc 05bd
000003a0: cf81 9d3d 66fe c03c 12ec d93c 70c3 40bd
000003b0: 1bd3 123b 68f8 a73d ef87 c13c 2cce 443d
000003c0: 575a 633d 4fad a83d d442 823d a319 3bbb
000003d0: 6bc1 4b3d e58e 873d 3c2f 423d faba 423d
000003e0: a637 1f3c 8958 5b3d 2375 c6bc 07c3 b6bd
000003f0: b3f0 803c f32e 95bc e614 22bc 278b 01bd

decoder.3.bias f4 [6]
-0.06776473 0.0572743 -0.080489404 0.0257078 0.043111734 0.06657124
00000000: 3cc8 8abd 7598 6a3d a1d7 a4bd 2a99 d23c
00000010: ee95 303d 8156 883d

decoder.5.weight f4 [6, 1, 5, 5]
-0.16878065 -0.036249872 -0.038372543 -0.11236429 -0.13217616 -0.04667383 -0.16161636 -0.112155095
0.08486647 0.097664155 -0.0010535662 0.14844774 -0.0034640678 -0.027015729 0.22422679 0.054896735
0.10959054 0.21252958 0.24448147 0.20404954 0.086181715 0.19591193 0.15484327 0.19340432
0.12296141 -0.22302648 -0.26491866 -0.0713333 -0.04085252 0.050856095 -0.1679235 -0.13458686
-0.21108855 -0.17046307 0.05150892 -0.06462259 0.018176487 -0.05707056 -0.12172069 0.032580774
-0.13011079 -0.07124509 0.010267338 -0.07728448 0.026666878 -0.08859859 -0.11317391 -0.007620968
-0.037135288 0.098282866 0.09035192 0.17268187 0.22492887 0.12348095 -0.0052607823 0.1843147
0.083084896 0.12586218 0.10258955 0.12843016 0.08486529 -0.0622681 -0.008739929 0.04107692
0.034342237 0.023186592 0.14752351 0.20538111 0.09604979 0.09959036 0.06933059 -0.093673535
0.16349709 0.10834393 0.1433243 0.095671244 0.0147199435 -0.08449918 -0.02272628 -0.15892492
0.21360245 0.12403844 -0.02961102 -0.025164725 0.114499465 0.22775595 0.030799903 0.18974923
0.08232379 -0.010053691 0.06443406 0.14088446 -0.1128908 -0.08040575 -0.10104821 -0.1501276
-0.05054946 0.10335621 -0.17729452 -0.25579956 0.0129079735 -0.17136492 -0.044656675 -0.035456236
-0.013531487 -0.20589739 -0.06149927 -0.18993844 -0.16630074 0.042822372 -0.22983183 -0.1427074
0.0029370189 0.022194045 -0.20826489 -0.011476118 -0.12241423 -0.11419101 -0.025834236 -0.024819188
-0.21239233 -0.16536678 -0.087206006 -0.20431417 -0.14617904 0.04163787 0.055885106 -0.21886645
0.06384485 -0.122052014 0.11502571 -0.2050044 -0.17835693 -0.08954123 0.14286092 0.09760907
-0.23644656 0.04316456 -0.14651059 0.18023358 -0.09112022 -0.059517164 -0.005184762 0.12138554
0.062519714 0.034462467 0.021042762 -0.07604417 -0.025208417 -0.1543468
00000000: d6d4 2cbe bf7a 14bd 872c 1dbd 401f e6bd
00000010: 3059 07be 0f2d 3fbd c27e 25be 92b1 e5bd
00000020: 79ce ad3d 2504 c83d d117 8aba af02 183e
00000030: 6a05 63bb 1750 ddbc b59b 653e 66db 603d
00000040: 0171 e03d 5ba1 593e 5a59 7a3e 5df2 503e
00000050: 0a80 b03d 239d 483e 3c8f 1e3e c80b 463e
00000060: 31d3 fb3d 0e61 64be 6ba3 87be 3117 92bd
00000070: f954 27bd 7b4e 503d 23f4 2bbe 23d1 09be
00000080: 9927 58be df8d 2ebe 04fb 523d d958 84bd
00000090: dbe6 943c d2c2 69bd b248 f9bd 6b73 053d
000000a0: c33b 05be f2e8 91bd 5638 283c 5347 9ebd
000000b0: 7f74 da3c 2d73 b5bd b9c7 e7bd 50b9 f9bb
000000c0: 2c1b 18bd 8748 c93d 6d0a b93d 84d3 303e
000000d0: c153 663e 95e3 fc3d a462 acbb febc 3c3e
000000e0: 6a28 aa3d 04e2 003e 781a d23d 3283 033e
000000f0: dacd ad3d d60c 7fbd eb31 0fbc 4640 283d
00000100: 72aa 0c3d cff1 bd3c 6710 173e 6d4f 523e
00000110: c1b5 c43d 08f6 cb3d 32fd 8d3d e9d7 bfbd
00000120: c86b 273e 6ce3 dd3d 9bc3 123e 49ef c33d
00000130: eb2b 713c e80d adbd 772c babc 37bd 22be
00000140: 9aba 5a3e de07 fe3d cf92 f2bc 4126 cebc
00000150: b27e ea3d db38 693e 1450 fc3c 9f4d 423e
00000160: 6099 a83d 3db8 24bc 01f6 833d 0444 103e
00000170: 4b33 e7bd c5ab a4bd 5df2 cebd 0dbb 19be
00000180: f30c 4fbd 6cac d33d b28c 35be 29f8 82be
00000190: f77b 533c 497a 2fbe ebe9 36bd 8f3a 11bd
000001a0: 2cb3 5dbc c4d6 52be a9e6 7bbd 397f 42be
000001b0: be4a 2abe 8366 2f3d 0959 6bbe e321 12be
000001c0: 007b 403b 49d0 b53c 6443 55be 5406 3cbc
000001d0: 50b4 fabd fadc e9bd 52a2 d3bc 9c51 cbbc
000001e0: 607d 59be e955 29be 1099 b2bd bc37 51be
000001f0: f5af 15be 798c 2a3d c8e7 643d 871e 60be
00000200: 17c1 823d 68f6 f9bd 9992 eb3d acec 51be
00000210: 33a3 36be 6461 b7bd 224a 123e 44e7 c73d
00000220: 0c1f 72be 52cd 303d df06 16be 278f 383e
00000230: 3d9d babd 45c8 73bd f0e4 a9bb fb98 f83d
00000240: 560a 803d 8428 0d3d df61 ac3c 0cbd 9bbd
00000250: e281 cebc 160d 1ebe
