Autoencoder-on-MNIST-in-Pytorch/Models/model_e4.pt (torch, 561729 bytes, 11 tensors)

encoder.0.weight f4 [6, 1, 5, 5]
000000 7c 28 22 be 7f d5 00 be f7 cd 4c bd c6 22 23 be
       -0.15835756 -0.12581442 -0.05000111 -0.15931234
000010 9c 19 82 be a4 90 38 be 7f fc 8d be 06 7a eb 3c
       -0.25410163 -0.18023926 -0.27731702 0.028744709
000020 79 9a c8 bd 41 c9 0c be a0 34 cc 3d e9 e0 2e be
       -0.09795088 -0.13748647 0.09970975 -0.17077984
000030 9c 8f 5c 3d a5 8a 65 be 92 84 0d be 2d f3 ce 3d
       0.053847894 -0.2241617 -0.13820103 0.10104976
000040 b2 5a 66 bb ca 1d 41 be 94 70 f9 bd cc e8 c7 bc
       -0.0035149273 -0.1885902 -0.12179676 -0.024402998
000050 1c 40 55 bc a2 71 c0 bd 6b b3 8b 3c a2 02 7f be
       -0.013015773 -0.09396674 0.017053327 -0.24903348
000060 83 f8 94 be e0 b3 2c be ee b9 85 be 8b 21 56 be
       -0.2909585 -0.16865492 -0.26118416 -0.20911233
000070 79 0c 87 be d7 ee 6c be 78 73 b4 3d e1 73 e9 3c
       -0.26376703 -0.23137985 0.088110864 0.028497638
000080 2f d4 8c 3d d7 7c d3 3c d8 16 2e 3e 42 a8 22 be
       0.06876408 0.025816364 0.17000902 -0.15884498
000090 2c a2 fe bb af 32 0a 3e 30 54 35 bd 3c 6d ac bd
       -0.0077707972 0.13495897 -0.04426974 -0.08419272
0000a0 9b 16 3b 3e 64 76 10 3e 36 85 e5 3d a1 3b 09 3e
       0.18270342 0.14107662 0.112070486 0.13401653
0000b0 f7 90 62 3e be e9 d4 bd 2f c7 19 be 7c 63 00 be
       0.22125612 -0.10396145 -0.15017389 -0.1253795
0000c0 52 c0 83 3e 80 ac 5e 3e 1c d2 11 3e 5f 8c 02 3e
       0.25732666 0.21745491 0.14240307 0.1274886
0000d0 2a ab f9 3d d1 c7 ad bd 76 ef 9b bd 71 68 47 3e
       0.1219085 -0.084853776 -0.07614033 0.19473435
0000e0 6e 2b b2 3d ae 76 7c be 96 f3 81 be 2a 91 89 be
       0.0869969 -0.24654648 -0.25381154 -0.26868564
0000f0 0c 66 3e be b8 4e a6 bd e3 7b ab be dc f7 2e be
       -0.18593615 -0.08120483 -0.33492956 -0.17086738
000100 9d 6a 3f bd 1d e0 5f 3c 3f 63 ef 3c 73 61 9a be
       -0.046732534 0.013664273 0.029222129 -0.30152473
000110 ab 3b 45 3d fb 43 ec bd a6 5d 0a be dd 6b 37 3d
       0.048152607 -0.11536404 -0.13512287 0.0447806
000120 14 16 32 be b8 61 39 be 35 0b a0 be e3 ca 36 be
       -0.17391235 -0.18103683 -0.3125855 -0.17850833
000130 a4 04 00 be 54 9d 3b be bc 0b 4e 3e 1c f6 2b bd
       -0.1250177 -0.18321735 0.20121664 -0.041982755
000140 eb 83 08 bd 4e e5 86 3d f6 4c c0 bd 75 01 28 3e
       -0.03332893 0.06586705 -0.09389679 0.16406806
000150 64 7a 56 3e 18 17 34 3e c8 dc 40 3e c9 03 3f be
       0.20945126 0.17586935 0.18834221 -0.18653788
000160 43 96 50 3e ef 07 64 3e 8f 74 ec bd ab 4c 09 3e
       0.2036982 0.22268651 -0.11545669 0.13408153
000170 50 30 46 3d 31 fe 5d bd 49 4f 10 3e f1 e0 52 3e
       0.04838592 -0.054197494 0.14092745 0.20593621
000180 ef 5f 8b bc fe 5b ef 3d bf fa 57 3e da 5d 87 3d
       -0.017013518 0.11687468 0.21091746 0.06609698
000190 dc 2c 9e bc 53 30 3e 3e 0a 46 a2 bb 42 39 96 bd
       -0.0193085 0.18573122 -0.004952197 -0.0733514
0001a0 ab cf 12 3e 82 4a 18 3d 74 ec c7 bd d8 20 a5 bd
       0.14337032 0.03718043 -0.09761897 -0.08062905
0001b0 e7 07 72 3e 2f 98 5c 3e 7f d5 df bd 3e 10 1b be
       0.23635827 0.21542428 -0.10929393 -0.15142915
0001c0 c2 c9 fd 3d 3d 9b ba bc 54 2c 43 3e c5 d1 9b 3d
       0.12391998 -0.022779102 0.19059879 0.0760837
0001d0 ee 10 d5 3b f6 71 ff bc 42 f1 41 3e 93 85 4f 3e
       0.0065022623 -0.03118227 0.18939689 0.20265798
0001e0 7b 08 60 bd 6f 37 7c be 9d 26 14 be c7 d2 5b 3e
       -0.054695588 -0.24630521 -0.14467855 0.21467124
0001f0 85 b8 85 3d 7d 78 77 bd 27 9e 1e 3e 8a 67 e9 3d
       0.06529335 -0.06041764 0.15490018 0.11396702
000200 d7 ae 13 be c7 70 ab 3c 2a 37 93 bd eb a3 4f 3e
       -0.14422165 0.0209278 -0.07188256 0.20277373
000210 3d cd b0 bd 4a 03 7b be 8f 7b 21 be 8b 9c 67 3d
       -0.08632896 -0.24512973 -0.1576979 0.056545775
000220 44 ff 10 3e 8c 82 bc bc 7e 93 47 be ed df 8c be
       0.14159876 -0.023011468 -0.19489858 -0.27514592
000230 2d d8 6d 3e e7 5d 6c 3e da fd 4b 3e 0c b5 f4 bd
       0.23226996 0.23082696 0.19921055 -0.119485945
000240 18 b8 1c be 3c 1b 9b 3d 1e 08 6e bd 9f 1c 7d 3d
       -0.15304601 0.07573554 -0.05811321 0.061794873
000250 b5 61 21 be e9 66 2b be
       -0.15759929 -0.16738476

encoder.0.bias f4 [6]
000000 1d 2d 02 3e 7f 7e 22 3e 1a 43 66 bd e3 bb 1a 3e
       0.12712522 0.15868567 -0.056216337 0.15110736
000010 a2 b7 71 bd 16 e8 3c 3e
       -0.059013017 0.18447909

encoder.2.weight f4 [16, 6, 5, 5]
000000 bb 80 59 3d 28 00 20 3d 36 ee 5c bd 1d c6 d2 3d
       0.053101283 0.03906265 -0.053938113 0.10291693
000010 a6 fa 84 3b fc 26 aa 3b 6d 0e 42 bd 19 0c 80 bd
       0.0040582 0.0051926356 -0.04737704 -0.062523074
000020 cb de 55 ba 54 92 44 3d 35 f1 cc bd c5 49 e4 bd
       -0.0008158504 0.047991112 -0.10006944 -0.11146883
000030 1b cb 71 3b 3b 4c cb bb 9d 39 fc bc 60 6e b2 bd
       0.0036894742 -0.0062041557 -0.03078919 -0.087124586
000040 03 10 99 bb ba a3 e9 bd 19 5a 84 bc b6 b8 8f 3c
       -0.004671098 -0.114081815 -0.016156243 0.017544132
000050 9e 19 90 bd 55 68 72 bc 12 e6 73 bd 05 ff 6e 3c
       -0.07036136 -0.0147953825 -0.059545584 0.014587169
000060 72 06 5d bd 9d cc 9f 3c 16 b2 ba bc 7e 11 07 bd
       -0.053961225 0.019506747 -0.022789996 -0.032975666
000070 9f f8 31 3c 12 a1 ba 3c 67 2b 42 3b 4d d7 bc 3d
       0.010862499 0.022781882 0.002962792 0.09220753
000080 52 fc 4e 3c bb ae 19 bb f9 11 f5 bc 02 e4 56 3d
       0.0126334 -0.0023450095 -0.029915797 0.05246354
000090 94 69 b3 3d 99 c1 9f 3d f4 a1 43 bd 34 af 1e bd
       0.08760372 0.07800598 -0.047761872 -0.038741305
0000a0 52 da 80 3d f6 4a bb bc e6 db d5 bc d2 9a 8a 3d
       0.06291641 -0.022862893 -0.026105832 0.06767811
0000b0 7c 00 e7 3d 6e eb 93 bd 4d f0 7b 3d a2 46 b9 bd
       0.11279389 -0.07222639 0.061508466 -0.09046675
0000c0 e9 55 6b bd 65 43 c8 3c 93 69 98 3d 93 0e 5e 3d
       -0.057454977 0.024446199 0.07442012 0.054213118
0000d0 52 00 0f 3c 5d 09 d4 3d 6a fc bc bc 21 37 06 bc
       0.008728104 0.103533484 -0.02306958 -0.008191855
0000e0 4e eb 4f 3d b0 8d 7f bc 28 2f 1a bd ba a7 99 3d
       0.050761513 -0.015597746 -0.037642628 0.075026944
0000f0 20 bd 99 bd 05 ff e9 bc 94 25 42 bd 9a 92 92 3d
       -0.07506776 -0.028563986 -0.04739912 0.07156868
000100 ea c4 1a 3d 3c 4c e7 bd 88 ce a9 bd 67 3a fb 3c
       0.037785448 -0.112938374 -0.08291346 0.030667497
000110 02 79 57 bb 17 7a 50 3d 12 2d ba bd fd 91 77 bd
       -0.0032878523 0.050897684 -0.09090628 -0.06044196
000120 95 ae 3c bc 71 85 2b bc f2 ab 28 ba c7 7b fd 3b
       -0.011516233 -0.010468827 -0.0006434313 0.0077357027
000130 d0 fd aa 3d 25 af 55 bd e8 2c 1d bd 5b 2f b3 bc
       0.08349192 -0.052168984 -0.038372904 -0.021873167
000140 9b a4 04 3d 4d 3c c4 3d 1d 91 12 3d a7 c5 b2 3d
       0.032383543 0.09581814 0.035782922 0.087291054
000150 73 ce c4 3d 7b 19 86 3d fd 84 42 3d d5 8f 9a bc
       0.096096896 0.06547829 0.04749011 -0.018867413
000160 53 02 79 bd ce 27 9d bc fe 05 d4 3d bd 9a cb 3d
       -0.060793232 -0.01918402 0.103527054 0.09941623
000170 b8 fa 90 3c c2 ec cc bc 1d fb a2 3d 2b c7 c1 3d
       0.017697677 -0.025015239 0.07958052 0.094618164
000180 2f 3d e3 bc 90 83 02 3d e4 04 18 bd e2 d4 7a bc
       -0.027739136 0.03186375 -0.03711404 -0.015309544
000190 bd 6d 65 3d 26 79 d4 3d 09 81 ce 3d 8b ff 83 bc
       0.056012858 0.1037467 0.10083205 -0.016113063
0001a0 f2 fd 38 bd c7 e9 22 3d 2a 5d dc 3d c7 1f bd bb
       -0.045164056 0.03977373 0.10759957 -0.0057716104
0001b0 68 f6 18 bd cd b3 97 3d d2 90 dc 3d a1 88 3a 3d
       -0.037344366 0.07407341 0.1076981 0.045540456
0001c0 bf 55 17 bd a3 d4 e8 3b 93 79 03 bd 9a 4d 44 3c
       -0.03694701 0.0071054264 -0.032098364 0.011981392
0001d0 ad 43 53 3d 05 01 30 bd 02 e2 76 bd fc 49 7b 3a
       0.051578213 -0.042969722 -0.06027413 0.00095859147
0001e0 2c e6 28 3d 98 b0 86 bc 32 dd 06 bd 2d ab 2a 3d
       0.041235134 -0.016441628 -0.032925792 0.041667152
0001f0 c2 1a 02 bd 53 98 75 3d 8c fe 36 bd 05 a0 b3 3b
       -0.0317638 0.05995972 -0.04467635 0.0054817223
000200 73 17 fc 3b 7e b7 88 bc 50 d6 0a 3d 12 4d 45 bd
       0.007693225 -0.016689058 0.03389579 -0.048169203
000210 45 48 d2 3d 98 82 e0 3d d2 b4 74 3d 16 3e 65 3d
       0.102676906 0.10962409 0.059742756 0.055967413
000220 8e 91 45 3d 78 3f 21 3d 25 7e 01 3b 07 73 49 3c
       0.048234515 0.03936717 0.0019759026 0.012295491
000230 72 ff 8f 3d 87 d8 8b 3d b9 cb 59 3c 8c 1e 85 3d
       0.07031144 0.06828409 0.0132932 0.06499967
000240 51 9e 32 bd 7c f1 9e 3c f0 cf 1b 3d 36 a0 36 3d
       -0.043608014 0.019402258 0.0380401 0.044586383
000250 d0 2e f9 bb 4d 44 e2 3c c5 fb 60 bd db ba 38 3c
       -0.0076044574 0.027620459 -0.054927606 0.011275019
000260 33 a9 7b bd 65 ee 47 3d 73 42 c9 bc 12 6a 9a 3d
       -0.061440658 0.048811335 -0.024567818 0.075397626
000270 1b eb 19 3c b4 53 9d bd fd a3 62 3d dd 43 b3 3c
       0.009394432 -0.07681981 0.055332173 0.021882946
000280 b6 7e 3d bd 90 a4 53 bd a6 fa cf bc a3 61 37 3d
       -0.04626342 -0.05167061 -0.025388073 0.044770848
000290 4f eb 2c 3c 16 f4 a6 3c 1d 75 e4 bb d1 28 8e bd
       0.010554149 0.020380061 -0.006971969 -0.06941379
0002a0 a5 68 80 bc c6 ef 64 bb 05 1a f1 bc f5 8d 76 bd
       -0.015674898 -0.0034932955 -0.029431352 -0.060193975
0002b0 27 b3 ae bd a1 eb c2 bd 37 9e c7 bc 8d c6 b4 3b
       -0.08530264 -0.09517599 -0.024367435 0.005516833
0002c0 4c 9c 49 3d dc b8 8b bd 31 ae e7 bc c1 23 68 3c
       0.049221322 -0.068223685 -0.028281303 0.014168681
0002d0 7f 92 f5 bc 29 a3 bd 3c 8c 5d 3d 3c 86 68 29 bd
       -0.029977081 0.02314909 0.011557948 -0.041359447
0002e0 ea bd 3b bd 3b 09 36 bc 1b fa 27 3d 05 f3 31 bd
       -0.045835413 -0.011110599 0.041010004 -0.043444652
0002f0 9e 33 5f 3b 7c ee 19 bd ac 40 73 3d 51 45 45 3d
       0.0034057866 -0.037580952 0.059387848 0.04816181
000300 6a 54 99 bc 24 16 27 3d 37 91 8e 3d de b5 9b bc
       -0.01871701 0.0407926 0.06961291 -0.01900762
000310 95 e4 11 3d 7e 0d 50 bd 4c 88 83 3d 8e 1f af 3c
       0.035618383 -0.050794117 0.06422481 0.021377351
000320 f0 a4 48 3d c5 a4 39 bd 63 45 1c bd 49 3b 8a 3d
       0.04898542 -0.045323152 -0.03815211 0.06749589
000330 c9 92 88 3d 3f 94 3c 3d 8d 90 38 bd 68 bd 8e 3c
       0.06668622 0.046039816 -0.04505973 0.0174243
000340 54 36 4a 3d a6 25 5d bc 5e 98 90 3d cb 45 84 bd
       0.049368218 -0.013497746 0.07060312 -0.064586245
000350 a6 01 6b bd 42 f2 1d bd fd c7 1d bd 3a e3 53 bd
       -0.05737462 -0.038561113 -0.0385208 -0.051730372
000360 bc eb 1b bc 8a 1b da bd d5 cf fb bc 4a 3a 30 3d
       -0.009516653 -0.10649784 -0.03073875 0.04302434
000370 32 ff cf 3b 35 9f 8c bd 78 3d ae bd 86 22 b4 bc
       0.0063475603 -0.06866304 -0.08507818 -0.021989118
000380 90 a8 94 3d a6 e9 47 3d 62 b3 91 3d ae f0 eb bc
       0.07258713 0.04880681 0.07114293 -0.028801288
000390 39 14 8c 3d 9e 1e 9f 3c 50 3b 85 3c 04 bc 70 3d
       0.06839795 0.01942378 0.016263634 0.058773056
0003a0 73 e0 a8 3d 3c e7 5c 3c 32 c8 80 bd 50 b1 99 bc
       0.08245935 0.013482865 -0.06288184 -0.018761307
0003b0 82 bd 16 3d 4a da 3b bd d0 9f cb 3d b6 a8 96 3c
       0.036801822 -0.045862474 0.09942591 0.018390995
0003c0 42 a3 03 3d 2e 82 db 3d 67 60 af 3c 87 a8 a3 3d
       0.032138117 0.10718189 0.021408273 0.079911284
0003d0 09 ba 43 3d 3d 07 33 3d f0 0b 61 3d 13 0c 6a bd
       0.04778484 0.043708075 0.054943025 -0.05714042
0003e0 d5 43 8f 3d 33 c1 9d 3d 58 30 fa ba 43 48 d7 bc
       0.0699536 0.077028655 -0.0019087894 -0.026279574
0003f0 51 ea 88 3d 72 70 5b bd 0b d2 43 3d 99 67 51 bc
       0.06685317 -0.053574033 0.047807734 -0.012781047

encoder.2.bias f4 [16]
000000 cf 1d d3 3a 7f 3d 21 3d 73 17 e6 3c 32 bc 19 3d
       0.0016106906 0.039365288 0.028087353 0.037532993
000010 6f 32 d3 3d cd 0a 91 3c 9e 48 24 3d 9d 4f d9 bb
       0.10312354 0.017705346 0.040108316 -0.006631805
000020 1f 7e f5 b7 96 c1 ff 3d d5 a0 ff 3c 8a 9f 1d 3d
       -2.9265006e-05 0.124880955 0.03120462 0.038482226
000030 c5 6e c9 3d a9 c1 bd 3c ff 92 01 3d 46 de da bc
       0.09835581 0.023163633 0.031634327 -0.026717316

encoder.5.weight f4 [10, 6400]
000000 97 a4 4f bb 9c bf 2f bb b0 4f ca 3a 5a 1d cc bc
       -0.0031683797 -0.002681709 0.0015435126 -0.02491634
000010 df cf d2 bc 13 99 8f bc dc 0e 03 bd f8 f0 0b bd
       -0.025733886 -0.017529046 -0.031996593 -0.034165353
000020 cd 08 9d bc cf 22 80 bc c9 73 b5 bc 02 ab 60 bc
       -0.019169236 -0.015641598 -0.022149937 -0.013712646
000030 96 71 2f 3b 30 1a a4 3b 50 e2 5c bb ae 0b 15 3b
       0.0026770583 0.0050080046 -0.0033704229 0.0022742557
000040 8d 7a 29 3c 48 66 0c 3c 79 ce 8f 3b 93 cc 29 3b
       0.01034416 0.008569308 0.004388627 0.002590929
000050 f5 5f 99 3c fd 4c 45 3b cd eb a8 3b 73 fc 28 bc
       0.018722514 0.0030105703 0.005155063 -0.010314095
000060 74 ca f1 bc ec c1 e5 bc d2 8a 8c bc d1 0a ce bc
       -0.029515482 -0.02804657 -0.017156038 -0.025151642
000070 3f 57 82 3b ca 58 1e bc 24 66 37 3a 3b ab 0a bb
       0.0039776857 -0.009664724 0.0006996116 -0.002115919
000080 d0 e4 88 3a a4 d4 9f 3c 73 88 13 3c c0 22 cd 3c
       0.0010444168 0.019510575 0.0090047 0.025040984
000090 e0 09 ce 3b e7 c8 a0 3b 88 4f 33 3c 64 cf e0 bb
       0.0062877983 0.004906762 0.010944255 -0.0068606604
0000a0 da a7 1a 3d d7 c0 05 3d 78 f8 0f bb 44 04 31 bc
       0.037757732 0.03265461 -0.0021968167 -0.01080424
0000b0 b8 1a 88 bc 58 3d ad bc a4 71 c6 bc de d0 6c bc
       -0.016614303 -0.021147415 -0.02422411 -0.014454095
0000c0 8a 13 31 bc 0c e1 2e 3c 34 91 69 3c c8 12 6a 3c
       -0.010807881 0.010673773 0.0142558105 0.014286704
0000d0 ee 4d b9 3c 50 cc 0d 3c 16 48 a0 3c 33 7c 80 3c
       0.022620168 0.008654669 0.019565623 0.015684223
0000e0 eb 0a 85 3c d9 10 61 3b 3a 14 0f 3b 7d e8 e1 3b
       0.016240558 0.0034342317 0.0021832124 0.00689417
0000f0 38 b4 3f 3d e5 e0 ad 3c 07 87 3a ba 73 17 19 bc
       0.04680273 0.021225402 -0.00071154576 -0.00934397
000100 1f 71 91 bc 18 0e b3 bc 3c 38 2c 39 72 05 5c bc
       -0.017754136 -0.021857306 0.00016424147 -0.013429033
000110 ac ae af 3a 81 e8 72 3b b5 0b 82 3c a9 06 b2 3c
       0.0013403497 0.0037064853 0.015874723 0.021731691
000120 f7 34 0d 3c 11 57 a7 3c 86 53 b1 3c 7f bc b2 3c
       0.008618585 0.020427259 0.021646272 0.021818398
000130 ab 6b 85 3c a1 39 6b 3c 79 29 40 3c 90 9c a1 3b
       0.016286692 0.0143570015 0.011728638 0.004931994
000140 2d ec 09 3d 20 c6 a7 3c 1b 14 e9 38 02 7b 79 bc
       0.0336725 0.020480216 0.00011114051 -0.015227081
000150 9e 7b 0c bc f3 6c 9f 3b 95 24 f3 3a 0e 02 64 3c
       -0.0085743945 0.0048652827 0.0018550331 0.0139165055
000160 61 b8 00 3c 3b 71 0f 3c 53 c6 d6 3c ec 74 e6 3c
       0.007856459 0.008755024 0.026217615 0.028131925
000170 57 0b a7 3c 76 69 db 3b 72 14 ea 3a 9a 79 15 bb
       0.02039115 0.0066959215 0.0017858876 -0.0022808076
000180 2e 0d 6a 3c 99 9a 5c 3c e2 4f 80 3c 03 5b ce 3a
       0.014285369 0.013464593 0.015663091 0.0015743676
000190 80 c5 49 3c 7d 68 0a 3b d9 42 3a bb 98 39 48 bc
       0.012315154 0.0021119409 -0.0028421192 -0.012220763
0001a0 32 44 13 ba 0f 1e 3a bc c3 af d8 3a cd 6b 1c 3c
       -0.0005617767 -0.011359706 0.0016531873 0.009547186
0001b0 8b 98 7d 3c 41 db b7 3c 54 71 6b 3c 8b 84 0f 3d
       0.015478264 0.022443416 0.014370281 0.035038512
0001c0 fa 1e d6 3c 7d 24 8d 3c d7 a7 0f bb b6 06 0e 3c
       0.026137818 0.017229313 -0.0021920109 0.008668592
0001d0 82 6a ac ba 31 66 55 3b f7 43 f1 3b a2 6b 0d bb
       -0.00131543 0.0032562132 0.0073628384 -0.0021579047
0001e0 10 b4 3b 3c 0d 6f dc bb ba 02 8d bc ec d4 01 bd
       0.011456504 -0.0067271055 -0.017213214 -0.0316972
0001f0 6c 35 9d bc 41 16 40 bc 31 45 d4 ba 1b 3a 2e 3c
       -0.019190513 -0.011724056 -0.0016194937 0.010633971
000200 6f 58 be 3c f4 7c b0 3c 4b cf be 3c bd 2f 84 3c
       0.023235528 0.021543957 0.023292204 0.016136045
000210 5a 9a 6c 3b e4 26 99 3c 47 90 74 b9 bc a9 a3 bb
       0.0036102743 0.018695302 -0.00023323401 -0.004994599
000220 7c 16 97 bb c6 8e ef bb ba 84 fe 38 d2 ed 3f bc
       -0.0046108346 -0.007310721 0.00012136386 -0.011714416
000230 f5 c9 71 bc d4 8c c1 bc bc 5f 93 bc 38 8d 42 bc
       -0.014757623 -0.023626722 -0.017989986 -0.0118744895
000240 fb 23 1d bc a9 a6 d7 3b 4d 3b e3 3b bf 7d 28 3c
       -0.009591098 0.0065811467 0.0069345594 0.010283886
000250 03 b5 f7 3b 3a a3 90 3c a9 26 0d 3c 01 bd e9 ba
       0.00755942 0.017655957 0.008615174 -0.0017832817
000260 f9 ef 56 3b 8c 62 d9 ba 37 33 f8 bb 3c 1b ba 3b
       0.0032796843 -0.0016585155 -0.0075744647 0.005679516
000270 6e b4 8c 3b 22 b0 05 3c 73 07 af 3a 6c ef fd bb
       0.00429397 0.008159669 0.001335366 -0.0077494886
000280 8e 40 19 bc 81 bb 8e bc c7 55 78 bc 17 fa 16 bc
       -0.00935377 -0.017423393 -0.01515717 -0.0092148995
000290 2d 4b 84 39 26 2b 2c bc 89 b8 78 3a c6 ce 4e 3c
       0.00025233012 -0.010508334 0.0009487947 0.012622541
0002a0 f9 48 cf 3b 8c 95 bb 3c c4 e3 54 3c 6c 26 32 3c
       0.0063258377 0.022898458 0.012993757 0.010873418
0002b0 ae a7 8a bb d5 88 52 3a c9 cb d0 3b 4f 03 c0 39
       -0.0042314148 0.0008031254 0.0063719493 0.0003662356
0002c0 89 f5 6a bb 82 ad 41 3c a6 09 71 bc 85 03 2c bc
       -0.0035851917 0.011821153 -0.014711773 -0.010498886
0002d0 d9 6e 9c bc 0e 2d 10 bd 82 78 f6 bc b9 9e 4d bc
       -0.019095825 -0.035199217 -0.03008676 -0.012550049
0002e0 5d 50 89 bb bb a9 18 bc 9f d1 e8 bb b9 33 e4 3b
       -0.0041904883 -0.009317811 -0.007105067 0.0069641736
0002f0 81 b9 00 3c 45 9a 4f 3c 8d 1f 35 bc 6c 5f 2a 3c
       0.007856728 0.012671058 -0.011054886 0.010398727
000300 73 c5 56 3b 9a 94 e4 3b e5 57 8b 3c 40 cc 5a 3c
       0.0032771497 0.0069757225 0.017009685 0.013354361
000310 b9 51 03 3c ac 4f 8b 3b 31 02 30 3b 28 34 31 bc
       0.00801509 0.004251441 0.0026856775 -0.010815658
000320 9d a2 15 bc ce e7 d0 bc 85 99 3c bb a1 78 44 3b
       -0.009133008 -0.025501158 -0.0028778028 0.0029979127
000330 ab 7b 1f 3c 92 8d 39 3c b0 04 b3 3b 54 99 99 3c
       0.009734075 0.011325257 0.0054632053 0.01874987
000340 8b 36 0f 3c 3c e9 31 bb 76 2d ac 3b 41 32 7a 3c
       0.008741031 -0.0027147075 0.005254443 0.0152707705
000350 1c 17 ba 3c ef 4e 8c 3b 66 e1 bd 3b d9 9f 12 bc
       0.022716098 0.0042818706 0.005794692 -0.008949243
000360 58 09 ff ba 13 bc d8 bb 84 6f a7 3a 2a ee cf bc
       -0.0019457741 -0.006614217 0.0012774323 -0.02538212
000370 51 af b7 bc b9 16 95 bc cf 39 d7 bb 42 52 d3 3a
       -0.022422465 -0.018199312 -0.0065681706 0.0016122537
000380 1d 56 25 3c 8f f5 b0 39 94 c7 a6 3c 14 be 11 3c
       0.010091332 0.0003375229 0.020358838 0.008895416
000390 65 2e 13 3c 43 97 a1 3a b8 3a 3b 3c 12 95 84 3b
       0.008983229 0.0012328405 0.011427574 0.004046091
0003a0 aa fe b9 3c f4 9e 4d ba 3b ad 99 bb ca 39 bb 3b
       0.022704441 -0.0007843815 -0.00468984 0.005713676
0003b0 e0 4e 68 bb ae 66 2f bc 86 e0 5b bc 7d 09 bb bc
       -0.0035447404 -0.010705633 -0.01342023 -0.022831673
0003c0 fe 42 23 bc 76 d1 a3 3a 69 ce a6 3b dd 08 a4 3c
       -0.009964703 0.0012498337 0.005090524 0.020023758
0003d0 ec 22 85 3c b2 80 5a 3c fd b1 3d 3c fd 43 b6 3c
       0.016252004 0.013336347 0.01157808 0.022249216
0003e0 2c 22 7e 3c 7d fa f6 bb 81 7e 59 3c 21 01 c0 3c
       0.015511077 -0.0075371847 0.01327479 0.023438038
0003f0 2a 47 66 3c 8c 8e 2e 3a 40 ad a4 3b 14 ce e8 ba
       0.014055053 0.00066588144 0.005025536 -0.0017761611

encoder.5.bias f4 [10]
000000 53 6a df 3b c2 ae e8 bb f0 5c d0 3a c1 49 26 3b
       0.0068180948 -0.007100911 0.0015896838 0.002537355
000010 30 20 b0 ba c0 42 4f 3c 91 2c 05 3c 83 ba 5e ba
       -0.0013437327 0.012650192 0.008128301 -0.00084964203
000020 90 e3 71 bb e1 96 cd bb
       -0.003690932 -0.0062740897

decoder.0.weight f4 [6400, 10]
000000 2e 5c c3 3d 27 4e 60 3d e7 02 af 3d 65 15 e4 bd
       0.09539066 0.054762032 0.085454755 -0.11136893
000010 65 5f 85 3e d2 fe b0 3d 0d b3 8f be 98 20 11 3e
       0.26049343 0.08642353 -0.28066292 0.1417259
000020 bd b0 fe 3c c1 da 36 3e c9 a1 54 3d 5b 0a fb bc
       0.031090135 0.17856885 0.051912103 -0.030644586
000030 fd f4 dd bc 29 4e 80 3c ff a9 96 bd 79 31 35 be
       -0.027094359 0.01566227 -0.07356643 -0.17694654
000040 f0 46 89 be c4 8c 25 3e 66 67 76 3e 5f 08 2a 3d
       -0.26811934 0.16166979 0.24062881 0.04151189
000050 71 57 af bd 01 b5 19 3d b8 a5 97 3d ab 24 61 3e
       -0.085616 0.037526134 0.07404655 0.21986644
000060 0f 09 f7 bd 98 16 5f 3d d1 aa 7e 3e c5 ef 32 bd
       -0.12062275 0.054464906 0.24869849 -0.043685693
000070 55 58 92 3e 9a fb 67 be df 30 17 3d e3 17 2e bd
       0.28583017 -0.22654572 0.03691184 -0.04250325
000080 78 ba 7e 3e 41 0e 0e be 05 dc aa 3d b1 00 02 3d
       0.2487582 -0.13872625 0.08342747 0.03173894
000090 c3 c0 78 bd 14 99 eb 3d 42 71 29 3b fe 3f 78 3e
       -0.060730707 0.11503807 0.002585486 0.24243161
0000a0 ce 33 27 be 5c 1f 37 be 61 fa bc 3d 0f b4 32 3e
       -0.16328356 -0.17883056 0.092274435 0.174515
0000b0 e1 c9 0e be 16 b8 a8 bd c2 5a 92 3c 62 ab 4a 3e
       -0.13944198 -0.082382366 0.017865542 0.1979194
0000c0 a7 33 1b be 4d 28 1d 3e 30 a8 09 be d4 fd 84 3e
       -0.15156423 0.15347405 -0.13443065 0.25974905
0000d0 69 16 89 be ab 91 92 3d 99 8e 96 bd c1 b4 f2 bd
       -0.2677491 0.0715669 -0.07351417 -0.11850882
0000e0 b2 ac e7 3d a4 53 61 3e 09 a7 bf 3c a7 f3 35 be
       0.11312236 0.22004563 0.023395078 -0.17768727
0000f0 fe 4e 19 be 7f 23 72 3c 44 47 e1 bd 53 08 8e be
       -0.1497154 0.014778971 -0.10999921 -0.27740726
000100 f9 2a 02 be f0 dd 7c 3d 54 f7 23 be 7d 2a a3 3e
       -0.12711705 0.061735094 -0.16012317 0.31868353
000110 ff fb 26 3e 43 6d 15 3d f1 4d 8a 3d 0d 39 ce 3c
       0.16307066 0.036481153 0.067531474 0.025173688
000120 00 16 f5 bd 65 ea a6 3e 26 23 2e be f6 85 17 b9
       -0.11967087 0.32600704 -0.17005596 -0.00014450387
000130 ef 2e 92 3e a5 e4 7b 3e d7 3a 2b 3e ac fd 72 3e
       0.28551432 0.2459894 0.16721664 0.2372958
000140 32 8b 32 bd 84 69 db 3c 2b ef 85 be bf 41 2d 3d
       -0.04358978 0.026783712 -0.26159033 0.04229903
000150 93 45 68 3e 86 ef 8a be 94 27 b3 bd 8b 7b 19 3e
       0.2268279 -0.27135867 -0.08747783 0.14988534
000160 3d 02 55 bd 4c 79 7f 3d 14 ca 1c be 22 af 87 3e
       -0.052004088 0.062371537 -0.15311462 0.26500803
000170 4f 5d a5 be db 17 47 3d 24 e3 38 3e be c1 64 bd
       -0.3229775 0.048606735 0.18055397 -0.05584883
000180 ca 98 de 3b fe 6c 79 be 68 f6 ad 3e be 39 36 be
       0.006793116 -0.24357983 0.33977056 -0.17795464
000190 b6 e9 2d 3c e4 5d 20 3e 60 c5 e7 3c e1 90 19 be
       0.010614803 0.15660816 0.028292358 -0.14996673
0001a0 22 89 f8 bd 95 4e 1c be f1 02 66 3e b5 50 8b 3e
       -0.12135531 -0.15264352 0.2246206 0.27210012
0001b0 13 92 5b be 8d 2a 39 3c 44 2e 4c be 8c 99 2f 3d
       -0.21442442 0.011301649 -0.19939524 0.042871043
0001c0 9e ba 35 bc 5e f7 46 3e d8 b8 85 bd 9f 55 82 3e
       -0.011091856 0.194303 -0.06529397 0.2545595
0001d0 25 1b 08 be 03 7c c4 3d 00 b0 5f 3e 17 56 23 be
       -0.13291605 0.09593966 0.21844482 -0.1595081
0001e0 09 e4 01 be f6 c7 7f 3e 28 00 57 3d 2f b6 20 3e
       -0.12684645 0.24978623 0.052490383 0.15694498
0001f0 cc e6 6d bd c4 98 57 3d 1b 0b 41 be 5e 7f 2c bd
       -0.058081433 0.052635923 -0.18851893 -0.042113654
000200 7e 13 3a be 51 ea 65 3e 57 27 0f 3e 18 34 0e be
       -0.18171498 0.22452666 0.1397985 -0.1388706
000210 6a 58 0e 3e 6a 08 6f bd 1e f4 dd bd c8 04 28 be
       0.13900915 -0.058357634 -0.10837577 -0.16408074
000220 40 04 77 bb 0d 1f 2b 3e 0d 60 b7 bd 3f 22 25 3d
       -0.0037691742 0.16711064 -0.08953867 0.040315863
000230 cd 6f 9a 3e c4 de 15 3e d0 08 51 3e c0 17 da 3d
       0.30163422 0.1463576 0.20413518 0.10649061
000240 2b bd 27 3e df ed 85 be ca db 47 be 35 af 46 3e
       0.16380756 -0.26158044 -0.19517437 0.19402774
000250 79 68 40 be cf 48 1e be ed 53 69 3e f9 b9 30 3e
       -0.18789853 -0.15457462 0.22785921 0.17258443
000260 3c de 79 3d 34 59 4a be 4e 51 87 3e 29 65 25 be
       0.061002955 -0.19760591 0.26429218 -0.16151871
000270 e9 b9 b6 3d dd a0 b5 be 72 c9 c7 bd 30 12 00 bb
       0.08922178 -0.3547429 -0.097552195 -0.001954209
000280 83 93 29 3e 9e c7 04 3e ea 40 c0 bd f3 92 b7 bd
       0.16560178 0.12966773 -0.093873814 -0.08963575
000290 ec ff 8d be dd 5c 58 3e d8 c5 71 3a 73 10 05 be
       -0.27734315 0.21129175 0.00092229014 -0.12994556
0002a0 b1 af 26 3e c5 d0 0e 3e de d1 22 be fa 65 3b 3e
       0.16277958 0.13946827 -0.1590037 0.1830062
0002b0 88 e9 11 be f0 03 fc 3d 16 db 65 be cd cf 1b 3d
       -0.14249241 0.123054385 -0.22446856 0.03803997
0002c0 7b 45 7e 3e 82 6d 1b be 37 48 2d 3b 95 ff 1f 3e
       0.24831192 -0.15178493 0.0026440748 0.1562484
0002d0 59 38 bd bd 78 55 99 3c 8c 54 7e 3e bb 0c c2 bd
       -0.09239263 0.018717512 0.2483694 -0.094750844
0002e0 82 7c e3 bd aa 3a 01 be a8 69 2e be 56 2d db bc
       -0.11107732 -0.12620035 -0.17032492 -0.026755016
0002f0 82 57 70 be 97 f3 29 3e 26 2e 29 3e 2b aa a1 bc
       -0.23470882 0.16596828 0.1652151 -0.019734463
000300 ab 9f 54 bc 36 e4 84 3e 25 d8 89 3e 88 e9 25 3e
       -0.012977521 0.2595536 0.26922718 0.16202366
000310 bc e1 05 be a3 29 6c be bc f6 17 be aa 96 e1 bd
       -0.13074392 -0.23062758 -0.14840215 -0.11015065
000320 54 e9 42 bd 14 04 0f 3e 4a 54 21 3d 5d 73 e3 ba
       -0.0475858 0.139664 0.039387025 -0.0017353107
000330 a1 d4 82 be 3f ab 93 bd 23 8a 78 bd 01 b1 47 ba
       -0.25552848 -0.07210397 -0.060678612 -0.0007617623
000340 62 55 05 3e 12 b7 32 3b 46 3e bf 3d d2 04 3a 3e
       0.13020852 0.0027269763 0.093380496 0.18165901
000350 6f 9c e5 3d 26 56 14 3d 08 7d 40 3e 01 d7 fd bc
       0.11211478 0.03621497 0.18797696 -0.03098631
000360 c6 30 be 3d 84 3e 40 3e 87 23 63 be b9 46 21 3d
       0.092866465 0.18773848 -0.22181521 0.039374087
000370 e0 65 07 be dc 3d 5f 3d 77 52 98 3c 69 48 09 be
       -0.13222456 0.054502353 0.01859401 -0.13406529
000380 0e 9a 68 bd 7b 66 9b 3d 07 79 85 3d c6 92 d2 bd
       -0.056787543 0.07587906 0.06517225 -0.10281901
000390 cc 4d b9 bd 64 cb 0b 3e d6 bc 18 bd bf 9a 2c 3d
       -0.09048042 0.13651806 -0.037289463 0.042139765
0003a0 07 01 74 bd 80 63 37 bd eb ed 9f bb 12 b1 93 bd
       -0.059571292 -0.044772625 -0.004880657 -0.07211508
0003b0 f4 8e e7 3d 51 6f 15 be 8f dc 77 3e 40 6b ff bd
       0.11306563 -0.14593245 0.2420523 -0.12471628
0003c0 b7 6b a8 be 5f 0e 7b 3e 23 ea 06 3d 21 cf fb bd
       -0.3289468 0.24517201 0.032938134 -0.12295366
0003d0 76 0b 90 be 00 92 ef bd d1 98 e6 bd 9b b9 8f bd
       -0.28133744 -0.11697769 -0.11259616 -0.07017823
0003e0 ee 31 29 be 10 26 03 bd dd ce 9d 3d f2 3f 44 3e
       -0.16522953 -0.03201872 0.07705472 0.19165018
0003f0 23 d2 4b be cf 70 6c 3e 77 1d 4d be 5e fb 8d bd
       -0.1990438 0.23089908 -0.20030771 -0.0693271

decoder.0.bias f4 [6400]
000000 b1 2f 34 bc 72 19 45 bc b7 6e 1e 3d 0c 8b f1 bc
       -0.010997699 -0.012029992 0.038679805 -0.029485248
000010 fa 7a 87 3c 3c 67 47 bd 0d 1b a1 bc c4 9c 8f bd
       0.016538132 -0.048682436 -0.01966622 -0.070123225
000020 81 c8 db bd ff 91 90 bd 20 ab 8e 3c d2 27 b9 3d
       -0.107316025 -0.070590965 0.017415583 0.09040798
000030 c0 ac f3 3c 1a d7 2b 3c 1f f1 c8 bd e1 8c f9 3d
       0.02974546 0.010488296 -0.09811615 0.12185074
000040 71 9a e4 3d e4 a4 81 bd 62 df bf bb 08 f8 77 3d
       0.1116227 -0.063302785 -0.0058554867 0.060539275
000050 1f 84 b6 bc 13 a9 36 3d d6 2a 68 3d ed d1 40 bd
       -0.022279797 0.044594835 0.056681477 -0.0470752
000060 ca 32 99 3d de 5c 1f bd 22 d9 c9 3d 0a 92 35 3e
       0.0748039 -0.038906924 0.09855868 0.1773149
000070 b5 af ae 3c 1a 1c 5d bd 41 c3 65 bd 6a 93 0a bd
       0.021324018 -0.053981878 -0.05609441 -0.03383199
000080 c4 3e f7 ba 5d 7f 01 3e 7f 04 a2 bb 28 c0 16 3e
       -0.001886331 0.12646241 -0.0049443836 0.1472174
000090 d3 11 06 3c 4a 69 c8 bc 20 08 85 bd 2b de 3a bd
       0.008182961 -0.024464268 -0.0649569 -0.045622032
0000a0 30 77 7d bb 29 10 66 ba 38 2b 61 3d 4b 41 55 3d
       -0.0038675778 -0.0008776212 0.054972857 0.05206422
0000b0 5b 91 ef 3b 30 e1 31 bd 53 b1 18 bc 88 19 ac bc
       0.007311029 -0.043427646 -0.009319621 -0.021008268
0000c0 a8 44 2f 3d 44 33 f8 3d 0e d2 8f bd e2 33 03 3e
       0.042790085 0.12119153 -0.070224866 0.1281276
0000d0 eb c8 d3 3b e3 3e 80 bd 10 0c ac bd e0 01 93 bd
       0.0064631603 -0.06261995 -0.08400738 -0.07178092
0000e0 3e b7 00 be de 68 b2 3c 8e 5f 47 bc d3 e7 15 bc
       -0.12569901 0.02177852 -0.012168778 -0.0091495095
0000f0 eb 28 28 bd d4 23 42 3d c4 13 25 3d 72 74 93 3d
       -0.041054647 0.04739745 0.040302053 0.071999446
000100 09 b7 c6 3d 9f f9 e2 bb 65 3c 7a bd 66 6c 3e bd
       0.0970288 -0.00692673 -0.061092753 -0.046490096
000110 0c 57 b7 bd c7 ad 6d 3d af d6 5f 3c 13 ab ec 3d
       -0.0895215 0.058027055 0.013662024 0.11556067
000120 ec 17 30 bd fa 03 a6 3c 68 cb e8 bc b7 ab f3 bc
       -0.042991564 0.020265568 -0.028417304 -0.029744966
000130 d7 e6 6a bd e7 a7 90 3c 7d c1 e8 3c d5 51 40 bd
       -0.057349052 0.017658187 0.028412575 -0.04695304
000140 0b 18 f2 3d 44 de c0 bc 6f 4e 68 3d a1 5b a5 3d
       0.11820992 -0.023543485 0.056715425 0.080741175
000150 39 3e 3d bd 69 18 fd 3d 0b f1 dd bc f9 4d 84 bb
       -0.04620192 0.123581715 -0.027092477 -0.0040376154
000160 ec ca 0d 3d bb 0d 3e 3e a6 f9 1f 3e 23 20 a1 bd
       0.03461735 0.18559925 0.15622577 -0.07867458
000170 00 9a 9e bd e0 16 16 bd 52 d8 f3 3d d0 26 6b 3d
       -0.07744217 -0.03664291 0.11906494 0.05741006
000180 cf f3 39 3c e0 94 5e bd d3 cc 8d 3d af b8 dd 3b
       0.011349632 -0.054341197 0.06923833 0.0067664008
000190 3e 40 43 3c 33 aa 07 3c 0b d2 97 3d a6 b7 9d 3c
       0.011917172 0.008280325 0.074131094 0.01925261
0001a0 c4 19 7f bd b6 4f 0d 3e 77 9d dd 3d fc e9 c5 bd
       -0.06228043 0.13799939 0.1082105 -0.096637696
0001b0 d4 97 93 3d 76 21 07 bd 07 3b 93 bb 3e 60 f2 3d
       0.07206693 -0.032990895 -0.0044931206 0.11834763
0001c0 7f 94 91 3c 96 3d 85 3d 87 19 7a 3d 26 fb 9e bc
       0.017771004 0.06505887 0.0610595 -0.019406866
0001d0 eb a8 f2 bc ab 68 cb 3d b6 b2 33 3d 93 14 5f 3d
       -0.029621562 0.09932073 0.043871604 0.05446298
0001e0 31 85 7e 3d 50 ad 27 bd 59 e7 c1 bc b4 c9 6a bc
       0.06213874 -0.040936768 -0.023669885 -0.014330316
0001f0 b5 37 ce 3c 87 bd 1d 3e 93 d8 1e 3d a7 8a cf 3c
       0.025173048 0.1540433 0.03878076 0.02533467
000200 6c 04 e8 bc f5 94 1d 3d 49 1f a2 bc 24 fd 33 bd
       -0.028322421 0.038472135 -0.019790309 -0.043942586
000210 86 65 d2 bd 6a 35 df 3d 90 82 9f bd d0 20 9d 3c
       -0.1027327 0.1089886 -0.07788575 0.019180685
000220 3c 44 11 3d ce df 54 3c 12 fb 53 3a b3 72 8e 3b
       0.035465464 0.012992812 0.00080864236 0.0043471693
000230 ad a2 55 3d a0 a2 31 bd 97 dc 2b bc 12 e6 7d 3d
       0.052157093 -0.043367982 -0.010489604 0.06198699
000240 17 42 cd bd f4 75 90 bb 9a cf 0d 3e 6e f1 39 3e
       -0.10022371 -0.0044085924 0.13848725 0.18158504
000250 59 e0 bd bd b0 fa 19 3e 39 b6 a7 bb af 4e 39 3d
       -0.092713065 0.15037036 -0.005118158 0.045241054
000260 9f 7e f3 bc 39 70 bc 3d 77 01 71 3c eb 6b a6 3d
       -0.029723464 0.09201092 0.014709822 0.081260525
000270 c7 28 e0 bc 29 3f 8a 3b d2 de 1c 3b 97 0b a2 3c
       -0.027363194 0.004218955 0.0023936522 0.019780917
000280 fc b2 c0 bb 92 7e 26 3c 83 b7 36 3d 1a ae 82 bd
       -0.0058807116 0.010162013 0.044608604 -0.063808635
000290 2d fd c3 bb 95 c1 d4 3d 42 11 cd 3d a6 1b c4 bd
       -0.0059811086 0.10388485 0.10013057 -0.09575586
0002a0 cd 7a d3 3b 7a 63 26 bd dc 25 c4 3d 0e 8b 80 3d
       0.006453848 -0.040622212 0.095775336 0.062765226
0002b0 6b 47 48 bc 37 15 b2 3d 36 36 9a bd ce f4 7d bd
       -0.012224059 0.08695453 -0.07529871 -0.062001042
0002c0 15 1e d4 bb 56 29 66 3d c8 47 a0 bd f7 ae 24 bc
       -0.0064733126 0.056191765 -0.07826191 -0.0100514805
0002d0 2e 03 86 3b d3 7a d7 3d 3f e3 04 3c af e9 cc 3c
       0.0040897345 0.10521474 0.00811082 0.025013773
0002e0 ef 95 06 3e 49 84 b3 3d ae e8 5f bd 5f d4 bc 3d
       0.13143133 0.08765466 -0.05466526 0.09220194
0002f0 39 30 62 3d bb 33 84 3d 47 83 a6 3d 72 da d5 bd
       0.05522177 0.06455179 0.08130508 -0.10442056
000300 37 0b 97 bd 11 b9 f2 bd 8e e9 04 bd 48 8b 02 3d
       -0.07375186 -0.11851705 -0.032449298 0.03187111
000310 d4 26 f7 3d 69 81 60 bb 64 4a cc 3d a7 97 0b 3d
       0.12067953 -0.0034256822 0.099751264 0.034080174
000320 2d 6e 8a 3b 0b af 46 3c c6 8a a4 3d fb 42 fb 3c
       0.0042245598 0.012126694 0.080342814 0.030671587
000330 18 e1 27 bb a9 d8 60 bd fd b6 5f bb 0e e3 33 bd
       -0.0025616344 -0.054894123 -0.003413617 -0.043917708
000340 34 86 c5 bc 24 93 9f 3d 23 0b ac bd 31 bd e1 bc
       -0.024111845 0.07791737 -0.08400562 -0.027556034
000350 b0 aa a9 3d a4 2e d6 bc 0f 0f 26 3e 33 1d fd 3d
       0.08284509 -0.026145287 0.16216682 0.12359085
000360 46 7b b5 ba e9 9c a1 bc c4 41 b8 bc 96 12 2c bd
       -0.0013845942 -0.01972814 -0.022492297 -0.042009912
000370 44 94 ac 3d 36 76 b2 bc b4 e1 8f 3c 3d 22 81 3c
       0.08426717 -0.021784883 0.017563678 0.015763396
000380 62 67 bc 3b f9 38 25 bd be 62 07 bd ca e3 8f bc
       0.005749629 -0.040337536 -0.033053152 -0.017564673
000390 f8 1b 7d bd a8 6c 0b bd 02 1d e1 3d f2 02 61 3d
       -0.06179425 -0.03403917 0.10991861 0.05493445
0003a0 22 3b 3f 3e 53 df cd bd bf bc 92 bb 34 09 db bd
       0.18674901 -0.10052361 -0.0044780667 -0.10695115
0003b0 ae 54 84 3d 84 fd bd 3c a7 a2 a5 3d d6 79 1a 3b
       0.06461464 0.023192175 0.08087664 0.0023571155
0003c0 2f 56 86 bd 39 23 29 bd 91 ee a0 3d a5 98 93 3d
       -0.06559407 -0.041293357 0.07858003 0.07206849
0003d0 7f e0 01 3c 4b 85 fd 3d 94 e4 1f 3e 87 a1 14 3d
       0.007927059 0.12378939 0.1561454 0.036286857
0003e0 9f ff 62 3c 95 8b e8 3c 79 1d 5e bc 8a 07 20 3e
       0.01385489 0.02838687 -0.0135568315 0.15627876
0003f0 f5 f9 00 be b6 a9 22 bd c5 e7 4a 3d 6f 4c a3 3d
       -0.12595351 -0.03971263 0.04953744 0.07973563

decoder.3.weight f4 [16, 6, 5, 5]
000000 1d 5f fb 3c 89 67 18 bd 25 ae 27 3d a3 7c 46 bc
       0.030685002 -0.037208114 0.04093756 -0.012114677
000010 b8 0b 6c bc 1c c2 31 3c 2e 11 b5 bc 0b d2 1c 3d
       -0.014407091 0.010849502 -0.022102918 0.03828625
000020 07 75 91 bd e3 6d b8 bd 66 fe 6c 3d d3 88 22 3c
       -0.07102399 -0.09005334 0.0578598 0.009920317
000030 d7 7c 9e bb 41 8f d4 bb 89 a8 90 bd 2a 3a 74 bd
       -0.0048366594 -0.0064868038 -0.070633955 -0.059625782
000040 1f eb 4b bd d4 b4 99 bd 72 4d e6 bd 37 c4 e9 bd
       -0.049784776 -0.07505193 -0.1124524 -0.11414378
000050 dc c9 b0 bd b4 65 b4 bd a4 29 96 3c 26 af 8f bd
       -0.086322516 -0.08808461 0.018330403 -0.07015829
000060 01 fb dd bd da 91 cd 3d e5 3c 18 3d 26 14 d8 bc
       -0.10838891 0.100375846 0.03716745 -0.026376795
000070 6a 71 5e 3d e8 28 9c 3c 45 94 1d bc 82 9b 9f bb
       0.05430738 0.019062474 -0.00961787 -0.004870833
000080 e7 0f 2a bc 02 d9 a1 bd a5 4d bd bc b0 a2 8d bd
       -0.010379768 -0.07902719 -0.023108313 -0.06915796
000090 87 5c 62 bd f8 5c 1f bc 55 2b ad 3c 6f 12 fc bc
       -0.055264022 -0.009726755 0.021138826 -0.030770509
0000a0 df a6 92 3c 2e 5c 7c bd 89 95 43 3d ee 9f b3 bc
       0.017901836 -0.061611347 0.04775003 -0.021926846
0000b0 c8 6f 5c bd b0 7c 56 bd 0e 6c a0 3c 96 21 76 bd
       -0.05381754 -0.052365005 0.019582774 -0.060090624
0000c0 94 f3 c8 bc 40 51 23 3d c9 5f 9e bd d9 38 38 bd
       -0.02453021 0.039872408 -0.07733113 -0.04497609
0000d0 e3 64 bb bb 4e 5f 23 bc 85 0b b1 bc aa 4d 42 bd
       -0.0057188137 -0.009971453 -0.021611938 -0.047437347
0000e0 9e 76 06 3a bb e2 89 bd f2 88 a6 bc a4 07 28 bd
       0.00051293697 -0.067326985 -0.020328972 -0.04102291
0000f0 83 97 8c bd 68 a8 70 bd fb 49 f6 3c c2 9c 2c bd
       -0.06864836 -0.058754355 0.030064574 -0.042141683
000100 04 14 84 bd 44 ae 96 bc a5 60 a8 bc c4 72 93 3d
       -0.0644913 -0.018393643 -0.020553896 0.07199624
000110 53 4c 6c bd b3 56 12 bd 67 89 07 3c 56 f4 57 3d
       -0.057689976 -0.035727214 0.008272505 0.05272325
000120 49 31 0e 3d e3 f8 07 3d 08 c1 4b bd c8 d0 16 bd
       0.03471497 0.03319634 -0.049744636 -0.036820203
000130 00 93 90 3b 82 b3 8a 3d eb e8 59 3c b8 b4 2b 3d
       0.004412055 0.0677252 0.013300161 0.041920394
000140 be c2 5e 3d cb ee 70 3d d9 59 85 3d 40 b8 ad 3d
       0.05438494 0.05882148 0.06511278 0.084824085
000150 8c 5a 68 3d 8c a5 47 3d 30 70 9b 3c 2c bf 2e 3d
       0.056726977 0.048741862 0.018974394 0.042662784
000160 10 16 83 3d 65 04 46 bc 0e e7 6f 3d 01 2b 4b bc
       0.064006925 -0.012086009 0.05856996 -0.01240039
000170 a4 12 df 3c fa d2 d5 bc 61 4d 47 3c 07 81 a9 3c
       0.027230568 -0.026101578 0.012164445 0.020691408
000180 dd b4 0a 3c ab 8a 20 3d 36 b2 be ba 3d 07 93 3c
       0.008465973 0.039194744 -0.0014548961 0.017947787
000190 54 49 a3 bc a4 5e 8c 3c 09 80 d5 bc 35 53 f2 3c
       -0.019932427 0.017134972 -0.026062028 0.029580692
0001a0 24 4e 83 bd 96 51 b7 bc 9d 41 1a bd 61 2b 82 3d
       -0.064113885 -0.02237777 -0.03766023 0.0635593
0001b0 af 73 71 3c f7 f3 30 bd 93 40 6d 3d 35 5d 84 bc
       0.014737054 -0.043201413 0.05792291 -0.016157726
0001c0 1e ea 0d ba 4f 2a a0 3d 72 9b ca 3d fc f7 29 3d
       -0.00054136093 0.0782057 0.0989293 0.041496262
0001d0 f7 f9 67 3d bf c6 92 3d df 53 04 3d 7a 62 dc 3d
       0.05663487 0.07166814 0.03230655 0.107609704
0001e0 3c 2c 8c 3d 13 a4 c3 3c 0c 70 c2 3d df 0b d2 3c
       0.068443745 0.023881948 0.094940275 0.025640426
0001f0 84 b9 96 3d 8d 64 b2 bd 30 33 ef 3b bf 2f 2e bd
       0.07359603 -0.08710585 0.007299803 -0.042526003
000200 e5 87 2d bd b6 d6 7a bd f0 29 0f bd b5 5c 66 bb
       -0.042365927 -0.06123992 -0.034952104 -0.0035150473
000210 2c 30 22 3c 1e 93 10 ba d6 2d 86 bd df 0a 09 bd
       0.00989918 -0.0005515086 -0.06551711 -0.033457633
000220 57 86 44 bd 5a 74 95 bd ab d1 f3 bd 67 6d ed bc
       -0.04797968 -0.07297583 -0.11905225 -0.028982831
000230 28 25 e7 ba 5f d7 6e bd 17 8c 24 3d 97 d0 11 bd
       -0.0017634975 -0.058310863 0.040172663 -0.035599317
000240 0d 46 fd 3a 1a 44 39 bd ef fd 99 bb 1e 15 6d 3d
       0.0019323245 -0.045230962 -0.0046994607 0.057881467
000250 d2 11 da bc 5f d4 3d 3d 36 54 22 3d 58 b7 93 3d
       -0.026619826 0.04634511 0.03963109 0.072127044
000260 02 2d 82 bc 1b bf 7b 3d 51 61 2a 3d 57 68 71 bc
       -0.015890602 0.06146155 0.041596714 -0.014734349
000270 bb bd 0a bd 00 76 dd 3b a6 31 4a 3d 5e cc 98 bc
       -0.033872347 0.0067584515 0.049363755 -0.018652137
000280 03 a2 65 3d d3 e8 28 3d 4c 47 ce 3d 23 d9 1f 3d
       0.05606271 0.041237663 0.100721925 0.039025437
000290 12 29 94 3c 49 a6 08 3d 59 19 b2 bb f9 af 8f 3c
       0.01808599 0.033361707 -0.0054351506 0.017539965
0002a0 22 cb c0 3c 03 08 16 bc c5 0d 24 bd b8 15 c3 36
       0.023534361 -0.009157184 -0.040052194 5.8139813e-06
0002b0 df 04 0d 3d 43 ca 80 3d 89 24 09 bb 91 6b 40 3d
       0.034428474 0.06288578 -0.0020926318 0.046977583
0002c0 f5 79 02 3c 7c aa 1d bd b8 9e a3 bc 83 99 4f bd
       0.007963647 -0.038492665 -0.019973144 -0.05068351
0002d0 7a a0 f6 bb 62 55 8c 3c 99 16 a8 bd 2e 92 0a bd
       -0.0075264545 0.017130557 -0.08207435 -0.033830814
0002e0 30 2b 3b 3d 2e 6a 00 bd 90 dd d5 3c 05 cf 1d 3d
       0.045695484 -0.03135126 0.026106626 0.038527507
0002f0 6a ec 9b bd e8 83 f9 bc ba b2 41 bd d8 2c 56 3a
       -0.07613452 -0.030458406 -0.047289588 0.00081701344
000300 4e e1 15 bb 75 29 9c bd fc 9b 73 bd 7a f6 68 bc
       -0.0022869888 -0.07625095 -0.05947493 -0.014218921
000310 ff 9a 76 bc de b3 d3 bd 24 a5 a2 bc 32 2b 63 bd
       -0.015051602 -0.10337041 -0.019854136 -0.055461116
000320 64 bb e9 3c 65 85 61 bd 11 77 e8 3c 7a 2e 66 bd
       0.028531738 -0.055058856 0.028377088 -0.056196667
000330 90 04 f4 bc a1 56 a3 bc 4c 04 e4 bc 25 89 21 3d
       -0.029787332 -0.019938769 -0.02783408 0.03943743
000340 ba f8 7c 3c 0e 51 87 bd ec d0 20 3d 61 e8 af 3d
       0.01544016 -0.06607257 0.039261743 0.08589245
000350 e6 03 dc 3b 74 81 40 3d 6f 0e 75 3d b3 2e 96 3d
       0.006714332 0.046998456 0.059828218 0.07333126
000360 04 40 a7 3c 62 80 2a bd 16 ab 71 bd 19 e0 98 3c
       0.020416267 -0.04162634 -0.05900105 0.018661546
000370 44 6b 3d bd ef 80 94 3d fc d6 aa 3d a6 83 0f bb
       -0.046244875 0.07251155 0.08341786 -0.0021898537
000380 77 1b 45 bd 9e ef 8e 3b 92 b6 4f 3d 00 5c e3 3c
       -0.048121896 0.0043620607 0.050711222 0.02775383
000390 0f be d8 3c 3a 04 b4 3d 44 d7 0d 3c 03 21 b9 bc
       0.026457814 0.08789869 0.00865728 -0.022598749
0003a0 12 69 98 3d 71 41 b2 3c 73 49 ac 3c f2 fe fd bc
       0.074419156 0.02175972 0.021031117 -0.031005356
0003b0 30 99 1b 3c 02 c1 b9 3d 1e 62 0b 3d 92 25 46 3d
       0.009496972 0.090700164 0.03402912 0.048375674
0003c0 f7 fa 60 3d 67 91 b2 3d 51 20 7f 3d db f1 22 3c
       0.05492684 0.087191395 0.06228668 0.009945358
0003d0 90 6f 68 3d 2e 39 89 3d 5d c8 56 3d d5 1c 64 3d
       0.05674702 0.06700359 0.052437175 0.05569156
0003e0 6f 97 84 3c 1b 58 37 3d d7 22 02 bd a9 6d b3 bd
       0.01618549 0.04476176 -0.031771507 -0.087611504
0003f0 ec 7b 2a 3c 5e 21 a8 bc 86 d3 74 bc 5f e5 16 bd
       0.010405522 -0.020523723 -0.014943009 -0.03683984

decoder.3.bias f4 [6]
000000 66 0e ca bd b7 40 b3 3d 76 4a dc bd de 49 e7 ba
       -0.098660275 0.08752578 -0.1075639 -0.0017645916
000010 9b 2b 97 3d 31 43 9c 3d
       0.07381364 0.07630003

decoder.5.weight f4 [6, 1, 5, 5]
000000 88 a5 2c be 59 75 85 bd ff 15 69 bd 54 a7 e4 bd
       -0.1686002 -0.06516523 -0.056905743 -0.11164728
000010 16 76 e9 bd b5 21 8a bd 51 6b 23 be 31 5a ea bd
       -0.11399476 -0.0674471 -0.15958907 -0.11442984
000020 0b 53 85 3d 34 29 b5 3d 85 9c 8f bc 0d 14 f0 3d
       0.0650998 0.088457495 -0.017530689 0.117225744
000030 fc 6e fd 3b 7f 64 1e bb 15 8e 5c 3e 57 97 58 3d
       0.0077341776 -0.0024168787 0.21538575 0.052878704
000040 62 14 e6 3d db 40 5b 3e 9b 0e 80 3e 70 59 4e 3e
       0.112343565 0.21411459 0.25011143 0.20151305
000050 2d d2 a9 3d 2c c6 41 3e 47 9b 27 3e 81 13 4a 3e
       0.08292041 0.18923253 0.16367827 0.19734003
000060 2c e6 03 3e 3a 72 64 be c0 f6 8a be ae 24 da bd
       0.12880772 -0.22309199 -0.2714138 -0.10651527
000070 23 42 91 bd 63 1d 05 3d 9d 6d 34 be d8 e6 2b be
       -0.07092693 0.03249873 -0.17619939 -0.16787279
000080 ab f8 71 be 67 ff 42 be 6f d4 f0 3c c9 df 90 bd
       -0.23630016 -0.19042741 0.029398171 -0.07073934
000090 d7 5c 6f bc ee 93 a1 bd 11 37 06 be 61 62 bb 3c
       -0.014609537 -0.078895435 -0.13106944 0.02287406
0000a0 0d 55 10 be 9b 5d b1 bd c4 cb 93 bc 68 cf b0 bd
       -0.14094944 -0.08660432 -0.018041499 -0.086333096
0000b0 3b b3 f9 3c b9 a1 b5 bd ec 27 f2 bd 16 41 d9 bc
       0.030480972 -0.08868737 -0.11824021 -0.026520293
0000c0 9c ed 21 bd d8 47 bd 3d be af aa 3d ad 18 2a 3e
       -0.039533243 0.09242219 0.083343014 0.16610976
0000d0 2f b2 5d 3e 5f ac f3 3d dd 34 09 3c d3 e7 28 3e
       0.21650003 0.118981116 0.00837442 0.16494684
0000e0 97 04 a9 3d f7 34 01 3e 4a 6e cf 3d 11 30 f7 3d
       0.082528286 0.1261786 0.10128458 0.12069715
0000f0 27 05 a1 3d 8c 58 1b bd d5 53 b6 3b 51 d6 3d 3d
       0.07862311 -0.03792624 0.005564193 0.046346966
000100 3e b9 1f 3d 1d fd e9 3c b5 0e 0f 3e 8b 8c 4c 3e
       0.03899502 0.028563077 0.13970454 0.19975488
000110 fe f3 d4 3d f1 27 c4 3d a5 59 6e 3d 68 ae 8b bd
       0.103981 0.09577931 0.05819096 -0.06820375
000120 87 ac 1d 3e 9c 37 ee 3d f9 fe 04 3e bf 9c c9 3d
       0.15397845 0.116317004 0.1298789 0.0984435
000130 f2 a6 b2 3c 62 a7 9a bd c7 fe 9e bc e5 a7 22 be
       0.021808121 -0.07551457 -0.019408597 -0.15884359
000140 91 72 62 3e 36 51 0e 3e 18 de a2 bc 81 58 b6 bc
       0.22114016 0.13898167 -0.019881293 -0.022258999
000150 a1 45 db 3d 3c 4c 6e 3e da 76 34 3d 5c 60 44 3e
       0.1070664 0.23271269 0.04405866 0.19177383
000160 77 22 a0 3d 5e f3 c8 bc 7d e6 98 3d 34 cc 11 3e
       0.07819074 -0.024530109 0.07465837 0.14238054
000170 0a 04 da bd f1 45 c6 bd ea 69 f6 bd 83 f3 18 be
       -0.10645302 -0.09681309 -0.1203192 -0.14936642
000180 22 64 76 bd fb 8c ab 3d 9f a5 47 be c4 01 89 be
       -0.060154088 0.08376499 -0.19496773 -0.2675916
000190 cb e5 fa bb 30 08 2d be 2c a0 72 bd 67 f7 3c bd
       -0.007656788 -0.16897655 -0.059234783 -0.04613438
0001a0 5a 95 a0 bc a2 ed 50 be f4 a8 c1 bd bd d2 51 be
       -0.019602466 -0.2040315 -0.094560534 -0.20490547
0001b0 3f e2 30 be a7 d5 8b 3c c8 14 79 be 26 1b 29 be
       -0.17273806 0.01706965 -0.24324334 -0.16514263
0001c0 76 1b a3 bc ba 6d ea bb ff 8d 4b be a6 5e 34 bd
       -0.019910555 -0.0071541937 -0.19878386 -0.044035576
0001d0 d7 bf 16 be 3e 62 0f be 2b 03 5c bd f1 84 46 bd
       -0.14721619 -0.1400232 -0.05371396 -0.048466627
0001e0 93 fe 53 be 3e 01 34 be bf bb df bd ca aa 5e be
       -0.20702581 -0.17578599 -0.109244816 -0.21744838
0001f0 a7 56 21 be 46 3e 73 3d 66 f2 35 3d 3f 5a 72 be
       -0.15755711 0.05938556 0.044420622 -0.23667239
000200 85 03 ac 3c 10 ac f3 bd c1 4d cf 3d 81 db 65 be
       0.020997772 -0.11898053 0.10122252 -0.22447015
000210 6a ed 69 be af 79 f6 bd a2 57 f5 3d fb 50 93 3d
       -0.22844473 -0.12034928 0.11979605 0.0719318
000220 97 bf 7d be c3 c7 26 bc 55 13 02 be 59 b3 28 3e
       -0.24780117 -0.010179463 -0.12702687 0.16474666
000230 7c 4c d2 bd 6f e4 70 bd 57 96 49 bc 9f 00 dd 3d
       -0.102684945 -0.0588116 -0.01230391 0.10791134
000240 71 15 92 3d 81 10 85 3c 39 fb 6c 3c 30 a6 96 bd
       0.07132996 0.016243221 0.014464193 -0.073559165
000250 f2 42 c0 bc 6c a4 02 be
       -0.023469422 -0.12758034
