Autoencoder-on-MNIST-in-Pytorch/Models/model_e5.pt (torch, 561729 bytes, 11 tensors)

encoder.0.weight f4 [6, 1, 5, 5]
0	0xbe320640	-0.17385197
1	0xbe0a284e	-0.13491938
2	0xbd720369	-0.059085283
3	0xbe2e3fbf	-0.17016505
4	0xbe8a27b9	-0.2698343
5	0xbe4423af	-0.19154237
6	0xbe90f8ca	-0.2831481
7	0x3cadc606	0.021212589
8	0xbdd38636	-0.10328333
9	0xbe1651df	-0.14679669
10	0x3dcd64ca	0.100289896
11	0xbe314b72	-0.17313936
12	0x3d48dc9b	0.04903851
13	0xbe6ac3b5	-0.22926219
14	0xbe192398	-0.14954984
15	0x3dd2635a	0.10272856
16	0xbb778fa3	-0.0037774823
17	0xbe43e76d	-0.1913125
18	0xbe033ba3	-0.12815718
19	0xbd259373	-0.04042382
20	0xbc45714d	-0.012050939
21	0xbdc5acd7	-0.09652107
22	0x3c0c1cb0	0.0085517615
23	0xbe8630ae	-0.26209015
24	0xbe9f59c0	-0.3112316
25	0xbe33794b	-0.17526738
26	0xbe881cab	-0.26584372
27	0xbe5d1dad	-0.21593352
28	0xbe8b1b72	-0.27169377
29	0xbe6fc7ad	-0.23416014
30	0x3db36005	0.08758549
31	0x3cee7f75	0.02911351
32	0x3d8a2f86	0.067473456
33	0x3ccc78cc	0.024959944
34	0x3e3143b3	0.17310981
35	0xbe1e9346	-0.15485868
36	0xbbbcf9d5	-0.005767087
37	0x3e0b5744	0.13607508
38	0xbd2c4c4f	-0.04206496
39	0xbda550d3	-0.080720566
40	0x3e3ce9ad	0.18448515
41	0x3e0f8219	0.14014472
42	0x3de337c2	0.11094619
43	0x3e0a48a5	0.13504274
44	0x3e645020	0.2229619
45	0xbdd39f9a	-0.10333176
46	0xbe1a25ce	-0.15053484
47	0xbdfebae4	-0.1243799
48	0x3e862c2d	0.26205578
49	0x3e652610	0.22377801
50	0x3e147b01	0.14500047
51	0x3e073438	0.13203514
52	0x3dfbbaf1	0.122915156
53	0xbdb55059	-0.08853216
54	0xbdabb04c	-0.08383235
55	0x3e46c79b	0.19412081
56	0x3db1559a	0.08658905
57	0xbe809a33	-0.25117645
58	0xbe8381d5	-0.2568499
59	0xbe8f3447	-0.27969572
60	0xbe420fd5	-0.18951352
61	0xbdb31dd9	-0.08745927
62	0xbeae962d	-0.3409895
63	0xbe324760	-0.1741004
64	0xbd55a362	-0.052157767
65	0x3bdc05ca	0.0067145573
66	0x3c935483	0.017984634
67	0xbe9ce35c	-0.3064221
68	0x3d3710d0	0.044693768
69	0xbdf18d07	-0.11794477
70	0xbe1272ae	-0.1430156
71	0x3d03bb02	0.032160766
72	0xbe372554	-0.17885333
73	0xbe39ed65	-0.18156965
74	0xbea080f7	-0.31348392
75	0xbe3aaa9e	-0.18229148
76	0xbe037341	-0.12836935
77	0xbe3cb0da	-0.18426839
78	0x3e50dabb	0.20395939
79	0xbd1bf6c8	-0.038077146
80	0xbd0dfc1a	-0.03466425
81	0x3d84e13e	0.06488274
82	0xbdbe72a2	-0.09299208
83	0x3e2c1956	0.1680654
84	0x3e5a0b26	0.21293315
85	0x3e34a639	0.17641534
86	0x3e41d1da	0.18927708
87	0xbe3d5361	-0.18488838
88	0x3e5327f6	0.20620713
89	0x3e66b31e	0.22529265
90	0xbde250ac	-0.11050543
91	0x3e0d4e7b	0.13799469
92	0x3d502418	0.05081567
93	0xbd5698c0	-0.052391768
94	0x3e12723f	0.14301394
95	0x3e5719ed	0.21005984
96	0xbc55133c	-0.013005074
97	0x3df4c751	0.11952079
98	0x3e59e462	0.21278527
99	0x3d8be7bc	0.06831309
100	0xbcbdcac4	-0.023167975
101	0x3e3eb36c	0.18623132
102	0xba645c06	-0.00087112223
103	0xbd9032b0	-0.07040918
104	0x3e13ea15	0.14444764
105	0x3d098644	0.03357531
106	0xbdc5113f	-0.0962243
107	0xbd9cedbc	-0.07662532
108	0x3e759822	0.23983815
109	0x3e617bcc	0.22019881
110	0xbdea4373	-0.11438646
111	0xbe19adf0	-0.15007758
112	0x3e01e90c	0.12686557
113	0xbc944ac9	-0.018102067
114	0x3e4932eb	0.1964833
115	0x3d877beb	0.06615432
116	0x3b106f6b	0.0022039067
117	0xbd082094	-0.033234194
118	0x3e43c127	0.1911665
119	0x3e53f697	0.20699535
120	0xbd8b810c	-0.06811723
121	0xbe818746	-0.25298518
122	0xbe17bd10	-0.14818215
123	0x3e5dd37a	0.21662703
124	0x3d901852	0.07035889
125	0xbd7cb4b6	-0.061695777
126	0x3e1e394f	0.15451549
127	0x3dece546	0.11567168
128	0xbe12af51	-0.1432469
129	0x3c9e9a78	0.019360766
130	0xbd9358a0	-0.07194638
131	0x3e51f7e3	0.20504718
132	0xbdaa3905	-0.08311657
133	0xbe7b39b1	-0.24533726
134	0xbe21390a	-0.15744415
135	0x3d6fd7d3	0.058555435
136	0x3e1575c9	0.14595713
137	0xbcad7dd6	-0.021178167
138	0xbe500271	-0.20313431
139	0xbe8db9bf	-0.27680776
140	0x3e711461	0.2354293
141	0x3e703311	0.2345698
142	0x3e4a9027	0.19781552
143	0xbe0404a1	-0.12892391
144	0xbe1b7162	-0.15179971
145	0x3da42294	0.08014408
146	0xbd5fde04	-0.05465509
147	0x3d7d4316	0.061831556
148	0xbe1fe192	-0.15613392
149	0xbe22405e	-0.15844867

encoder.0.bias f4 [6]
0	0x3e0a6487	0.1351491
1	0x3e2657f8	0.16244495
2	0xbd4c6ea2	-0.049910195
3	0x3e1d4a25	0.15360315
4	0xbd5f2c23	-0.05448545
5	0x3e3c60c7	0.18396293

encoder.2.weight f4 [16, 6, 5, 5]
0	0x3d5d82ad	0.0540797
1	0x3d3010a8	0.042984635
2	0xbd493d20	-0.04913056
3	0x3ddb481b	0.107071124
4	0x3c15db95	0.009146591
5	0x3bb7790d	0.005599147
6	0xbd351938	-0.044213504
7	0xbd75b4ee	-0.059987
8	0x3aba43cd	0.001421088
9	0x3d4f54d5	0.05061801
10	0xbdd38a0d	-0.103290655
11	0xbde50341	-0.11182261
12	0x3b12e7b7	0.0022415945
13	0xbbbd39ef	-0.0057747285
14	0xbcedd186	-0.029030573
15	0xbdc43c1e	-0.09581779
16	0xbc2e1ded	-0.010627252
17	0xbdeeecd4	-0.11666265
18	0xbc8629d1	-0.016377361
19	0x3c9ab9ac	0.018887363
20	0xbd9f0a8a	-0.07765682
21	0xbca28418	-0.019838378
22	0xbd7b81db	-0.061403137
23	0x3c77bbea	0.015120486
24	0xbd53ffd4	-0.05175765
25	0x3cbc2c52	0.022970352
26	0xbcae2afb	-0.021260729
27	0xbd0b1c7d	-0.033962715
28	0x3bf90994	0.0076000188
29	0x3c9c9d5d	0.019118005
30	0x3bb13797	0.005408238
31	0x3dbd7069	0.09249956
32	0x3c35665d	0.011071769
33	0xbbbd9001	-0.005784989
34	0xbd0a1fea	-0.033721842
35	0x3d5a200d	0.053253222
36	0x3db1ae51	0.08675826
37	0x3d9a6f2d	0.07540736
38	0xbd514cb2	-0.051098533
39	0xbd29a15b	-0.041413646
40	0x3d7fb835	0.062431533
41	0xbcc9e256	-0.024644058
42	0xbceff0e6	-0.029289674
43	0x3d8446d0	0.06458819
44	0x3de371dc	0.11105701
45	0xbd945fc1	-0.07244826
46	0x3d72a841	0.05924249
47	0xbdbf730d	-0.09348116
48	0xbd771c83	-0.060329925
49	0x3cb7cd7b	0.022436848
50	0x3d97c1eb	0.07410034
51	0x3d62e27f	0.055391785
52	0x3c1fa6f2	0.009744393
53	0x3dd64c9f	0.10463833
54	0xbca6e1eb	-0.020371398
55	0xbc298e26	-0.010348832
56	0x3d511c97	0.051052656
57	0xbc636fbc	-0.01388162
58	0xbd129d67	-0.03579464
59	0x3d9d078e	0.076674566
60	0xbda58c58	-0.08083409
61	0xbce9fcde	-0.02856296
62	0xbd3ac1d5	-0.04559501
63	0x3d94054f	0.07227575
64	0x3d1dd7ca	0.03853587
65	0xbdf1b79e	-0.118026
66	0xbda903b3	-0.08252659
67	0x3d02edcc	0.031965062
68	0xbb524beb	-0.0032088708
69	0x3d4c7a6c	0.049921438
70	0xbdbcd5c3	-0.09220459
71	0xbd71559f	-0.058919545
72	0xbc293046	-0.010326451
73	0xbc34e4d3	-0.011040884
74	0xbb111299	-0.002213633
75	0x3bef01d0	0.0072939172
76	0x3daacc29	0.08339722
77	0xbd551f72	-0.05203194
78	0xbd185f50	-0.037200272
79	0xbca58f91	-0.02021006
80	0x3d0864d9	0.0332993
81	0x3dc61642	0.09672214
82	0x3d12a1ca	0.035798825
83	0x3db37f98	0.08764571
84	0x3dc617f3	0.09672537
85	0x3d897867	0.06712418
86	0x3d479b73	0.048732232
87	0xbca25c5a	-0.019819427
88	0xbd7d966f	-0.061911043
89	0xbca33ce6	-0.0199265
90	0x3dd683f0	0.10474384
91	0x3dcc532e	0.09976803
92	0x3c82b9be	0.01595771
93	0xbce100e0	-0.027466238
94	0x3d9daacf	0.07698595
95	0x3dc46fa2	0.09591605
96	0xbce030dd	-0.02736705
97	0x3cf45a54	0.029828228
98	0xbd249b37	-0.040187087
99	0xbc9bf9db	-0.019040039
100	0x3d63edc4	0.055646673
101	0x3dd20c59	0.102562614
102	0x3dc8182d	0.09770236
103	0xbc994fe0	-0.018714845
104	0xbd34d9fd	-0.044153202
105	0x3d283db6	0.041074477
106	0x3ddb42a2	0.107060686
107	0xbc1b2142	-0.0094683785
108	0xbd2e14c0	-0.042500257
109	0x3d91e40f	0.07123577
110	0x3de1db4c	0.11028156
111	0x3d3be2d3	0.045870613
112	0xbd25d5f9	-0.040487263
113	0x3a3b4e50	0.00071451534
114	0xbd15d444	-0.036579385
115	0x3c7aa0aa	0.015297094
116	0x3d55ea37	0.052225318
117	0xbd3d62be	-0.046236746
118	0xbd86ccf7	-0.06582063
119	0xbb54ba87	-0.0032459812
120	0x3d332f7b	0.043746453
121	0xbc82e159	-0.015976595
122	0xbd136e31	-0.03599376
123	0x3d16dc0b	0.036830943
124	0xbd1104c4	-0.035404935
125	0x3d74fbd8	0.05981049
126	0xbd39a858	-0.04532656
127	0x3b43b532	0.002986264
128	0x3b9ce3b8	0.0047878884
129	0xbca5e169	-0.020249086
130	0x3d029299	0.031878088
131	0xbd4bc33a	-0.04974673
132	0x3dcb964c	0.09940776
133	0x3dd94e45	0.10610632
134	0x3d683a2d	0.056696106
135	0x3d586bdf	0.05283725
136	0x3d3c2e43	0.045942556
137	0x3d135a68	0.03597489
138	0xba81fa7c	-0.0009916569
139	0x3c1fe4f4	0.0097591765
140	0x3d8b5030	0.06802404
141	0x3d887128	0.06662208
142	0x3c309544	0.010777775
143	0x3d80c31b	0.062872134
144	0xbd38e27b	-0.045137864
145	0x3c973d85	0.018461952
146	0x3d19817b	0.037476998
147	0x3d31fb63	0.04345263
148	0xbc0449e7	-0.00807426
149	0x3cdd94e9	0.027048545
150	0xbd60ac34	-0.054851726
151	0x3c462aff	0.012095212
152	0xbd729574	-0.05922456
153	0x3d54df89	0.051970992
154	0xbcb3a708	-0.021930233
155	0x3d991242	0.074741855
156	0x3c2e043e	0.010621129
157	0xbd974302	-0.073858276
158	0x3d6fd68e	0.058554225
159	0x3cb8cd7c	0.02255892
160	0xbd41eac2	-0.047343023
161	0xbd4fe2f8	-0.050753564
162	0xbcbbd408	-0.022928253
163	0x3d3e1f9c	0.046416864
164	0x3bfdb4d5	0.007742504
165	0x3c95059c	0.018191151
166	0xbc06b04f	-0.008220746
167	0xbd91a529	-0.0711158
168	0xbcbcd045	-0.02304853
169	0xbc44990d	-0.011999381
170	0xbd02bf1c	-0.031920537
171	0xbd7fa072	-0.062408872
172	0xbdb77d71	-0.08959473
173	0xbdcf4eb3	-0.101224326
174	0xbd04e6dc	-0.032446727
175	0x3bde84c3	0.006790729
176	0x3d4b0f05	0.04957487
177	0xbd8c9bd9	-0.06865663
178	0xbcf4597b	-0.029827824
179	0x3c440a15	0.011965294
180	0xbcf191a2	-0.029488388
181	0x3cb9511a	0.02262168
182	0x3c29315f	0.010326712
183	0xbd307a8d	-0.043085624
184	0xbd42893c	-0.04749416
185	0xbc283df5	-0.010268678
186	0x3d274632	0.040838428
187	0xbd34cf6b	-0.04414312
188	0x3b13bdb3	0.002254349
189	0xbd1cfe11	-0.038328234
190	0x3d7744e3	0.06036843
191	0x3d456b83	0.048198234
192	0xbc9c32d9	-0.019067215
193	0x3d24a49a	0.04019604
194	0x3d8e40f9	0.06945986
195	0xbc8f6f4a	-0.017509121
196	0x3d136389	0.035983596
197	0xbd50d2ae	-0.05098217
198	0x3d828d00	0.0637455
199	0x3cb0bcee	0.021574464
200	0x3d436787	0.047706153
201	0xbd3ba4c9	-0.04581145
202	0xbd1e1996	-0.03859862
203	0x3d8948db	0.06703349
204	0x3d882362	0.06647374
205	0x3d382ac4	0.04496266
206	0xbd376759	-0.044776294
207	0x3c882636	0.016619783
208	0x3d46238c	0.048373744
209	0xbc5e8bf3	-0.013583171
210	0x3d8e3870	0.06944358
211	0xbd8467f6	-0.064651415
212	0xbd71ec4b	-0.059063237
213	0xbd299dff	-0.041410442
214	0xbd21f613	-0.039541315
215	0xbd5c639a	-0.053805925
216	0xbc5fc6ec	-0.0136582665
217	0xbdeb101a	-0.114776805
218	0xbd1ae2cf	-0.037813958
219	0x3d249380	0.04017973
220	0x3b264ae0	0.0025374219
221	0xbd95e8cb	-0.07319792
222	0xbdb7f056	-0.08981387
223	0xbcd305c8	-0.025759593
224	0x3d9134cd	0.07090149
225	0x3d4c7529	0.04991642
226	0x3d93bd3c	0.07213828
227	0xbce502f3	-0.027955508
228	0x3d8d600f	0.06903087
229	0x3ca3c6f2	0.019992325
230	0x3c929066	0.01789112
231	0x3d76c5e0	0.060247302
232	0x3daafc00	0.083488464
233	0x3c689da0	0.014197737
234	0xbd7ecaa6	-0.06220498
235	0xbc8a14c7	-0.01685561
236	0x3d1e9ca6	0.03872361
237	0xbd360b34	-0.044444278
238	0x3dcd5c16	0.100273296
239	0x3c9d8918	0.01923041
240	0x3d0b869b	0.034063917
241	0x3ddfbd4e	0.10924779
242	0x3cbc11b0	0.022957653
243	0x3da5ca69	0.08095247
244	0x3d47e38f	0.048801
245	0x3d39c18d	0.0453506
246	0x3d68d90a	0.05684761
247	0xbd644625	-0.055730958
248	0x3d911dfe	0.07085799
249	0x3d9f88b2	0.077897444
250	0xba81b9e0	-0.0009897314
251	0xbcd11cf4	-0.025526501
252	0x3d88b903	0.06675913
253	0xbd5dceac	-0.054152176
254	0x3d40e0dc	0.047089443
255	0xbc46d832	-0.012136506

encoder.2.bias f4 [16]
0	0x3b04dd94	0.0020273672
1	0x3d202b87	0.03910401
2	0x3ce926ff	0.028460978
3	0x3d2214d7	0.039570656
4	0x3dd3bf90	0.10339272
5	0x3c7acb4b	0.015307258
6	0x3d38b56c	0.045094892
7	0xbbf6f1a3	-0.0075361296
8	0xb2fc0ae5	-2.9341615e-08
9	0x3e034709	0.12820067
10	0x3d03ee15	0.032209475
11	0x3d19eced	0.037579466
12	0x3dcbf60c	0.09959039
13	0x3cbbeb5a	0.022939373
14	0x3cf88dc1	0.030341031
15	0xbcea999c	-0.0286377

encoder.5.weight f4 [10, 6400]
0	0xbb737303	-0.003714741
1	0xbbcc2e45	-0.0062311017
2	0xbb0173c1	-0.0019752833
3	0xbcee42c0	-0.029084563
4	0xbce262b3	-0.027634954
5	0xbc963d04	-0.018339641
6	0xbd0946b1	-0.033514682
7	0xbd10fabf	-0.03539538
8	0xbc952c63	-0.018209642
9	0xbc5a903b	-0.013340051
10	0xbcabdc74	-0.020979144
11	0xbc57a4a9	-0.013161817
12	0x3b48f652	0.0030664396
13	0x3ba7d7de	0.005122169
14	0xbb2d2f11	-0.002642576
15	0x3b55cd96	0.003262376
16	0x3c361d87	0.011115438
17	0x3c1934e1	0.009350986
18	0x3b8600d0	0.0040894523
19	0x3a46a78a	0.0007578066
20	0x3c9c3b5f	0.01907128
21	0x3ad4a18d	0.0016222462
22	0x3b485067	0.0030565502
23	0xbc5c2d62	-0.0134385545
24	0xbd02bad9	-0.031916473
25	0xbceff61d	-0.02929216
26	0xbca08132	-0.019592855
27	0xbcd8091d	-0.026371533
28	0x3b8ea346	0.00435296
29	0xbc167a75	-0.0091844695
30	0x3a3f6155	0.00073005754
31	0xbac76e97	-0.0015215453
32	0x3af5f6e7	0.0018765599
33	0x3ca7a820	0.02046591
34	0x3c2390cd	0.009983254
35	0x3cce9448	0.02521719
36	0x3bd08d51	0.0063645025
37	0x3b94f387	0.0045456323
38	0x3c240c30	0.010012671
39	0xbbf229be	-0.00739023
40	0x3d29224c	0.041292474
41	0x3d0cfbbb	0.034419756
42	0xbb197b44	-0.002341942
43	0xbc5593e0	-0.013035744
44	0xbc97dd18	-0.018538043
45	0xbcb12604	-0.021624573
46	0xbccde8d0	-0.025135428
47	0xbc76a99c	-0.015055086
48	0xbc2ea2df	-0.010658949
49	0x3c2e2a94	0.010630269
50	0x3c67aee0	0.014140815
51	0x3c6fd744	0.014638726
52	0x3cbb30a4	0.022850342
53	0x3c14da80	0.009085298
54	0x3ca1a6c1	0.019732835
55	0x3c786ab6	0.015162161
56	0x3c8155cb	0.01578798
57	0x3b33fe90	0.0027464963
58	0x3aad827c	0.001323774
59	0x3bd8d447	0.0066171023
60	0x3d5a6f4f	0.05332881
61	0x3ccee034	0.025253393
62	0xbab38aae	-0.0013697946
63	0xbc394e22	-0.011310132
64	0xbc99b8ee	-0.01876494
65	0xbcb6f17f	-0.022331951
66	0xbaaf958b	-0.0013396008
67	0xbc6f92fd	-0.014622447
68	0x39f60aad	0.0004692873
69	0x3b6afb48	0.0035855342
70	0x3c822fe8	0.015891984
71	0x3cb2855b	0.021792104
72	0x3c0b1d25	0.008490835
73	0x3ca5b896	0.020229619
74	0x3cad70b1	0.0211719
75	0x3ca79212	0.020455394
76	0x3c802b49	0.01564564
77	0x3c6aab9e	0.014323143
78	0x3c3a161d	0.011357811
79	0x3bc69fca	0.006061529
80	0x3d213658	0.039358467
81	0x3cbd2f15	0.02309374
82	0xbb055ff4	-0.0020351382
83	0xbc8c26d2	-0.017108355
84	0xbc1e3fe9	-0.009658792
85	0x3b845158	0.0040380172
86	0x3a82aa52	0.0009968972
87	0x3c539f5c	0.012916412
88	0x3be9d524	0.007136004
89	0x3c1f71bf	0.009731709
90	0x3ce87ea9	0.028380709
91	0x3cf5a65b	0.029986551
92	0x3ca86cb6	0.02055965
93	0x3bd6748c	0.006544655
94	0x3a747791	0.0009325678
95	0xbb75cf75	-0.0037507687
96	0x3c6468f1	0.013941036
97	0x3c6c9483	0.014439705
98	0x3c83f603	0.016108518
99	0x3b511c9d	0.0031907924
100	0x3c87df75	0.016586045
101	0x3b13ce20	0.002255328
102	0xbbdbd8e1	-0.0067092036
103	0xbc712ba1	-0.014719875
104	0xbaad859d	-0.0013238672
105	0xbc41db94	-0.011832137
106	0x3ab9c8a0	0.0014174171
107	0x3c10b081	0.008831144
108	0x3c74f956	0.014952024
109	0x3cc48032	0.02398691
110	0x3c92c945	0.017918238
111	0x3d1b6f6e	0.037948065
112	0x3cdb5d20	0.026777804
113	0x3c8c6065	0.017135808
114	0xbb0f72d3	-0.002188851
115	0x3c009e04	0.007850174
116	0xba9fd83b	-0.0012195179
117	0x3b980cfa	0.004640219
118	0x3c0539cd	0.008131457
119	0xbaa77f18	-0.0012778966
120	0x3c4fd977	0.012686125
121	0xbc0bd72a	-0.008535186
122	0xbcae392e	-0.0212675
123	0xbd0aab21	-0.033854607
124	0xbca57616	-0.02019791
125	0xbc42f209	-0.011898526
126	0xbad6878a	-0.0016367298
127	0x3c23fda8	0.010009207
128	0x3cb82d7f	0.022482632
129	0x3cbbcb43	0.022924071
130	0x3cdae100	0.026718616
131	0x3c9ed40e	0.019388225
132	0x3b9371b2	0.0044996375
133	0x3c9b519a	0.01895981
134	0x3a12a109	0.0005593454
135	0xbba6d939	-0.005091813
136	0xbb78345a	-0.0037873
137	0xbbab3a8f	-0.0052254866
138	0x3aad056e	0.0013200471
139	0xbc50087e	-0.012697337
140	0xbc81d598	-0.01584892
141	0xbcd7d5c4	-0.026347049
142	0xbcb1e173	-0.021713948
143	0xbc6459be	-0.013937412
144	0xbc25f9b5	-0.010130336
145	0x3bd20567	0.0064093354
146	0x3bd3f459	0.0064683375
147	0x3c1eac1c	0.009684589
148	0x3bde9244	0.0067923386
149	0x3c9c9f68	0.01911898
150	0x3c47e386	0.012200242
151	0x3a43296e	0.0007444833
152	0x3b67a03b	0.0035343308
153	0xbac73574	-0.0015198425
154	0xbbe5b476	-0.007010038
155	0x3bbcf227	0.0057661715
156	0x3ba4cb7b	0.0050291396
157	0x3c206c3d	0.009791431
158	0x3b0fd797	0.002194857
159	0xbc1c596b	-0.009542803
160	0xbc384548	-0.011246987
161	0xbc9c05db	-0.01904576
162	0xbc8ef8cd	-0.017452622
163	0xbc253e19	-0.010085606
164	0x39a31c75	0.00031110985
165	0xbc358a08	-0.0110802725
166	0xb98eb6eb	-0.00027220635
167	0x3c3f52df	0.011677473
168	0x3bdde111	0.006771215
169	0x3ccede78	0.025252566
170	0x3c800ee7	0.015632106
171	0x3c51e082	0.0128098745
172	0xbb770983	-0.0037694878
173	0x39d90d3c	0.00041399326
174	0x3bcfcc37	0.006341483
175	0x3a80cc89	0.0009826581
176	0xbb4e1d52	-0.0031450582
177	0x3c4b2a3d	0.012400207
178	0xbc65f038	-0.014034323
179	0xbc40b9be	-0.011763034
180	0xbc918427	-0.01776321
181	0xbd0e2e19	-0.03471193
182	0xbcf79b29	-0.030225353
183	0xbc4543e7	-0.012040115
184	0xbb73982f	-0.0037169566
185	0xbc282139	-0.010261827
186	0xbc145888	-0.009054311
187	0x3bd51e77	0.006503876
188	0x3c1e7360	0.009671062
189	0x3c6ebac9	0.0145709
190	0xbc2da51d	-0.010598448
191	0x3c3aa658	0.0113921985
192	0x3b8beaed	0.0042699487
193	0x3bdc6715	0.0067261555
194	0x3c8beaad	0.017079676
195	0x3c65913e	0.014011679
196	0x3c064db5	0.008197238
197	0x3b9ae855	0.004727403
198	0x3b62a304	0.0034582028
199	0xbc3d121f	-0.011539965
200	0xbb52c7bc	-0.0032162508
201	0xbcbe56e3	-0.02323479
202	0xbb10483c	-0.0022015711
203	0x3b906253	0.0044062524
204	0x3c264832	0.010149049
205	0x3c1cc3f1	0.0095682
206	0x3b6c5263	0.0036059848
207	0x3c9e9ad9	0.019360946
208	0x3c32e9b6	0.010919979
209	0xbae6c297	-0.00176056
210	0x3b9b2e69	0.004735757
211	0x3c839d5a	0.016066242
212	0x3cc5cef4	0.024146535
213	0x3b8e12ff	0.0043357606
214	0x3bbef2cc	0.0058272835
215	0xbc06d919	-0.008230471
216	0xbaf50fa3	-0.0018696677
217	0xbbc31f5d	-0.0059546665
218	0x3b1aae07	0.0023602264
219	0xbccee0f9	-0.02525376
220	0xbc546802	-0.0129642505
221	0xbc7026d5	-0.014657696
222	0xbbb3aa8e	-0.005482978
223	0x3b400211	0.0029298107
224	0x3c26f0da	0.010189259
225	0xbaba49ed	-0.0014212705
226	0x3c9e1a52	0.01929966
227	0x3c230ae9	0.009951332
228	0x3c2e498d	0.010637653
229	0x3a8a5c98	0.001055616
230	0x3c2bced7	0.010486326
231	0x3b9cba6d	0.004782966
232	0x3cc1cb22	0.023656432
233	0xba838e7c	-0.001003697
234	0xbb99bc50	-0.004691638
235	0x3bceb625	0.0063083344
236	0xbb538267	-0.003227377
237	0xbc2de46b	-0.010613541
238	0xbc4515cc	-0.012029123
239	0xbcb5c176	-0.022186976
240	0xba5e06b5	-0.00084696274
241	0x3ba18b3c	0.004929928
242	0x3bc6ce1d	0.006067051
243	0x3ca520be	0.020157214
244	0x3c74ff74	0.014953483
245	0x3c367a9d	0.011137632
246	0x3c2cbafb	0.0105426265
247	0x3cbb619c	0.022873692
248	0x3c822ca3	0.015890425
249	0xbc0968e1	-0.0083868215
250	0x3c4cd943	0.012502971
251	0x3cc38fd6	0.023872297
252	0x3c6a2fea	0.01429365
253	0x3973001d	0.00023174328
254	0x3bab4b32	0.00522747
255	0xbab392ac	-0.0013700328

encoder.5.bias f4 [10]
0	0x3be3fa4f	0.0069573293
1	0xbbdf455b	-0.0068136877
2	0x3b091762	0.0020918478
3	0x3b5e77b8	0.003394587
4	0xbafbc410	-0.0019208211
5	0x3c501d71	0.012702332
6	0x3bfa2a71	0.007634454
7	0xbaa6a87c	-0.0012715007
8	0xbb4a56f1	-0.0030874575
9	0xbbb7424d	-0.0055926205

decoder.0.weight f4 [6400, 10]
0	0x3db8b423	0.09018733
1	0x3d4f29e1	0.05057705
2	0x3dae2e4b	0.085049234
3	0xbdd2a7d6	-0.102859184
4	0x3e7efc81	0.2490101
5	0x3da6a7a6	0.08137445
6	0xbe8c1158	-0.27356982
7	0x3e0c2540	0.13686085
8	0x3ccaf5e6	0.024775457
9	0x3e354df9	0.17705525
10	0x3d5d35a0	0.05400622
11	0xbcfb34b5	-0.030664781
12	0xbcb73cd9	-0.022367882
13	0x3c605fa2	0.013694676
14	0xbd9e1729	-0.07719261
15	0xbe2b4ce9	-0.16728558
16	0xbe88a853	-0.2669092
17	0x3e2581c7	0.16162787
18	0x3e71be54	0.2360776
19	0x3d288ee7	0.041151907
20	0xbd994145	-0.07483152
21	0x3d023cc9	0.03179625
22	0x3d820bd6	0.06349914
23	0x3e5878a2	0.21139768
24	0xbdf31697	-0.11869543
25	0x3d789752	0.060691185
26	0x3e7bbd69	0.24583973
27	0xbd2bced9	-0.041945312
28	0x3e8d57c9	0.27606037
29	0xbe6301be	-0.22168633
30	0x3d091691	0.033468787
31	0xbd198581	-0.037480835
32	0x3e77ca9b	0.24198382
33	0xbe0829ab	-0.13297145
34	0x3d9b9d25	0.07598332
35	0x3d07eeb7	0.03318664
36	0xbd6dd7ff	-0.058067318
37	0x3de9957b	0.11405464
38	0x3a0b66cb	0.00053177465
39	0x3e7d84e7	0.2475773
40	0xbe246b35	-0.16056521
41	0xbe27662d	-0.1634757
42	0x3dccd0f4	0.10000792
43	0x3e25e83d	0.16201873
44	0xbe036495	-0.12831338
45	0xbd9c9f08	-0.0764752
46	0x3c21211b	0.009834553
47	0x3e4d2f22	0.20037511
48	0xbe1161eb	-0.14197509
49	0x3e222190	0.15833116
50	0xbe0c4cca	-0.13701168
51	0x3e8223e0	0.25417995
52	0xbe84b5a7	-0.2591984
53	0x3d81a8b6	0.06331007
54	0xbd8ae8d8	-0.06782693
55	0xbdd74277	-0.10510724
56	0x3dd9ef72	0.10641374
57	0x3e5ab31e	0.2135739
58	0x3cbbf20b	0.022942564
59	0xbe348dfd	-0.17632289
60	0xbe11295a	-0.1417593
61	0x3c55e10c	0.013054144
62	0xbdecc7cc	-0.11561546
63	0xbe884546	-0.2661535
64	0xbe04d9c2	-0.12973693
65	0x3d83ddb5	0.06438772
66	0xbe201655	-0.15633519
67	0x3e9e6de3	0.30943212
68	0x3e2137b1	0.15743901
69	0x3d00ad69	0.031415377
70	0x3d8a9500	0.06766701
71	0x3c9158d3	0.01774255
72	0xbde61cce	-0.11235963
73	0x3ea6b9b6	0.3256356
74	0xbe24dfe8	-0.16101038
75	0x3b9a1a42	0.004702837
76	0x3e8e6c68	0.27817082
77	0x3e7ba53b	0.24574749
78	0x3e243a6e	0.16037914
79	0x3e7377a6	0.23776111
80	0xbd181637	-0.03713056
81	0x3ccf6246	0.025315415
82	0xbe854fdb	-0.26037487
83	0x3d2e47fb	0.042549115
84	0x3e62fbad	0.22166319
85	0xbe86de90	-0.26341677
86	0xbdb6801a	-0.08911152
87	0x3e14a8ea	0.1451756
88	0xbd459a73	-0.048242997
89	0x3d82f9bc	0.06395289
90	0xbe1c8e2c	-0.1528861
91	0x3e830272	0.25587803
92	0xbea1c343	-0.31594285
93	0x3d4046a3	0.046942364
94	0x3e371058	0.17877328
95	0xbd51b5d6	-0.051198803
96	0x3bf3c5c1	0.0074393456
97	0xbe796609	-0.2435533
98	0x3eacec1c	0.33773887
99	0xbe364224	-0.17798668
100	0x3c209246	0.009800499
101	0x3e109818	0.14120519
102	0x3cde611a	0.027145911
103	0xbe22f0ad	-0.15912123
104	0xbdd6806f	-0.104737155
105	0xbe19f6c5	-0.15035541
106	0x3e49802d	0.19677801
107	0x3e8e6627	0.2781231
108	0xbe47604f	-0.19470333
109	0x3c9e84e1	0.019350471
110	0xbe459b4f	-0.19297527
111	0x3d36a5a2	0.044591554
112	0xbc48965b	-0.012242879
113	0x3e484060	0.19555807
114	0xbd9a835d	-0.07544587
115	0x3e7dccd9	0.24785174
116	0xbe036fe5	-0.12835653
117	0x3da9fa63	0.082997106
118	0x3e61a613	0.22036009
119	0xbe1d0221	-0.15332843
120	0xbe036095	-0.12829812
121	0x3e7e26e7	0.24819528
122	0x3d658036	0.056030475
123	0x3e1f6d50	0.15569043
124	0xbd722c9c	-0.059124574
125	0x3d5dc297	0.054140653
126	0xbe3bf531	-0.18355252
127	0xbd44000a	-0.0478516
128	0xbe348ef5	-0.17632659
129	0x3e5ca875	0.21548636
130	0x3e11ddd3	0.14244775
131	0xbe03cf2c	-0.12871999
132	0x3e037efe	0.12841412
133	0xbd8ee26e	-0.06976782
134	0xbdd84a66	-0.105610654
135	0xbe2157c2	-0.15756133
136	0x3c889cb4	0.016676284
137	0x3e376141	0.17908193
138	0xbdad8fb4	-0.08474675
139	0x3ce36671	0.027758809
140	0x3e980e60	0.29698467
141	0x3e19764f	0.14986537
142	0x3e4eb95d	0.20187898
143	0x3dda6f7d	0.10665796
144	0x3e2ab1fb	0.16669457
145	0xbe820982	-0.2539788
146	0xbe48d34a	-0.1961185
147	0x3e37b54b	0.17940252
148	0xbe3b0499	-0.18263473
149	0xbe18102f	-0.14849924
150	0x3e6ba8de	0.23013636
151	0x3e312f8e	0.17303297
152	0x3d791e1d	0.060819734
153	0xbe4ad868	-0.19809115
154	0x3e85942f	0.26089618
155	0xbe1f8c08	-0.15580761
156	0x3da57322	0.080786005
157	0xbeb2fd93	-0.34959087
158	0xbdb88955	-0.09010569
159	0xbb80b9b9	-0.00392839
160	0x3e28c981	0.16483118
161	0x3dffbb2a	0.124868706
162	0xbdb7d203	-0.089756034
163	0xbdb5f7b4	-0.08885136
164	0xbe8d8937	-0.2764375
165	0x3e5cd24d	0.21564598
166	0xbb43a4ee	-0.0029852944
167	0xbdfef906	-0.12449841
168	0x3e22a1bc	0.1588201
169	0x3e0e402f	0.13891672
170	0xbe28bf01	-0.16479112
171	0x3e349115	0.1763347
172	0xbe085c8e	-0.13316557
173	0x3df2b4be	0.1185088
174	0xbe671769	-0.22567524
175	0x3d2225ce	0.039586835
176	0x3e795995	0.24350579
177	0xbe18bb4c	-0.14915198
178	0x3bf15a0d	0.007365471
179	0x3e1e1546	0.15437803
180	0xbdb9b050	-0.09066832
181	0x3caca88c	0.021076463
182	0x3e716357	0.23573051
183	0xbdc26edb	-0.094938
184	0xbddecc96	-0.108788654
185	0xbdf4b8eb	-0.11949333
186	0xbe2738a9	-0.16330208
187	0xbd10eaa9	-0.03538004
188	0xbe6d9121	-0.23199894
189	0x3e26cd54	0.16289264
190	0x3e266a7b	0.16251557
191	0xbc9efcec	-0.019407712
192	0xbba51870	-0.0050383136
193	0x3e8242ad	0.25441495
194	0x3e869db1	0.26292184
195	0x3e28d59f	0.1648774
196	0xbe0791bc	-0.13239187
197	0xbe64d6d2	-0.22347572
198	0xbe0fac66	-0.14030609
199	0xbde3a45f	-0.11115336
200	0xbd3ab881	-0.045586113
201	0x3e0a2d40	0.13493824
202	0x3d16b2a0	0.036791444
203	0xbb32e6c8	-0.00272982
204	0xbe80bb6c	-0.25142992
205	0xbd89f7ee	-0.06736742
206	0xbd6934fc	-0.056935295
207	0xbb872726	-0.00412454
208	0x3e003e2b	0.12523715
209	0x3bb0ae54	0.0053918753
210	0x3dbb8832	0.091568366
211	0x3e37ecdd	0.1796145
212	0x3de92cea	0.1138552
213	0x3d32105f	0.043472644
214	0x3e3e7b87	0.1860181
215	0xbd12c0d3	-0.035828423
216	0x3dbf47ff	0.09339904
217	0x3e3abeb1	0.18236805
218	0xbe620d0c	-0.2207529
219	0x3d4cf1ba	0.050035216
220	0xbe04e989	-0.12979712
221	0x3d771781	0.06032515
222	0x3c963644	0.018336423
223	0xbe02abe6	-0.12760887
224	0xbd847f4e	-0.06469594
225	0x3da87871	0.082260974
226	0x3d79e462	0.06100882
227	0xbdd9de20	-0.1063807
228	0xbdadf32b	-0.08493646
229	0x3e1726cf	0.14760898
230	0xbd22ebe6	-0.03977575
231	0x3d303dba	0.043027617
232	0xbd6aa1e9	-0.057283316
233	0xbd1d54d6	-0.038410984
234	0xbb376879	-0.0027985855
235	0xbd8fee48	-0.070278704
236	0x3ddd335a	0.1080081
237	0xbe187e82	-0.14892009
238	0x3e79f146	0.24408445
239	0xbdefb99d	-0.11705325
240	0xbeab5203	-0.33461007
241	0x3e78af45	0.2428561
242	0x3cf92253	0.030411875
243	0xbe0254c5	-0.1272765
244	0xbe8bb852	-0.27289063
245	0xbdd9be5a	-0.1063201
246	0xbdedc403	-0.11609652
247	0xbd8cbad5	-0.06871573
248	0xbe217365	-0.15766676
249	0xbc61fa03	-0.013792518
250	0x3d97a3a1	0.074042566
251	0x3e328e37	0.17437063
252	0xbe44de3e	-0.19225404
253	0x3e6354e0	0.22200346
254	0xbe35448e	-0.17701933
255	0xbd820939	-0.06349415

decoder.0.bias f4 [6400]
0	0xbb05ea87	-0.0020433979
1	0xbb143b66	-0.0022618412
2	0x3cabd274	0.020974375
3	0xbc4936cb	-0.01228113
4	0x3c58f227	0.013241327
5	0xbd0e50c0	-0.034744978
6	0xbc789fd4	-0.015174825
7	0xbd78e8f2	-0.06076903
8	0xbdb7af9c	-0.08969042
9	0xbd8679ca	-0.06566198
10	0x3bd957e5	0.0066327923
11	0x3d99349c	0.074807376
12	0x3caa2cb1	0.020773264
13	0x3bf369d0	0.0074283853
14	0xbda16f15	-0.07882515
15	0x3ddec160	0.10876727
16	0x3db6a57c	0.089182824
17	0xbd5a88be	-0.053353064
18	0xba9f3a6f	-0.0012148152
19	0x3d521f81	0.051299576
20	0xbc37d71f	-0.011220722
21	0x3d0d5c0f	0.034511622
22	0x3d4ffe7f	0.050779816
23	0xbcfe52a7	-0.031045271
24	0x3d7986cf	0.06091958
25	0xbd1c2a62	-0.038126357
26	0x3da1f8cc	0.07908782
27	0x3e1c45c7	0.15260993
28	0x3c868d45	0.016424784
29	0xbd3c9683	-0.046041977
30	0xbd39279d	-0.045203794
31	0xbcc8962c	-0.02448567
32	0xbbba991c	-0.0056945216
33	0x3dd33a68	0.103138745
34	0xbb23888f	-0.0024953221
35	0x3df8244e	0.121162996
36	0x3bfad6d2	0.007655003
37	0xbca08367	-0.019593908
38	0xbd5334c8	-0.051564008
39	0xbcf3f01f	-0.029777585
40	0x3b44811e	0.0029984186
41	0x3bdadf41	0.006679446
42	0x3d2dde74	0.042448476
43	0x3d08589f	0.03328764
44	0x3c137db7	0.009002141
45	0xbcf5dbb4	-0.03001199
46	0xbbc3968d	-0.005968875
47	0xbc9af178	-0.01891397
48	0x3d22b9e3	0.039728057
49	0x3dcfdf6e	0.10150038
50	0xbd5b9cf3	-0.053616475
51	0x3ddf1d47	0.10894256
52	0xbb2d9acd	-0.0026489974
53	0xbd654943	-0.05597807
54	0xbd9019ce	-0.07036172
55	0xbd89cb3b	-0.06728216
56	0xbdd53c1f	-0.10411858
57	0x3c0ad505	0.008473639
58	0xbb882754	-0.004155079
59	0xbbc98d71	-0.0061508943
60	0xbcf79acd	-0.030225182
61	0x3d239eac	0.039946243
62	0x3cf72716	0.030170005
63	0x3d44eba4	0.048076287
64	0x3d913261	0.07089687
65	0xbb98a324	-0.0046581198
66	0xbd2f9859	-0.0428699
67	0xbd017095	-0.031601507
68	0xbd8a7d26	-0.067621514
69	0x3d5d43d6	0.05401977
70	0x3c9389e3	0.018010085
71	0x3dcebd75	0.1009473
72	0xbcec4f30	-0.028846353
73	0x3c3cf768	0.011533596
74	0xbc9e233d	-0.019303912
75	0xbcb93220	-0.02260691
76	0xbd308916	-0.043099485
77	0x3c991d7a	0.018690813
78	0x3cd8866c	0.026431285
79	0xbcffbb6b	-0.031217298
80	0x3dbb6afc	0.09151265
81	0xbc8bf222	-0.017083231
82	0x3d2168e7	0.039406683
83	0x3d7215f1	0.059102956
84	0xbd20c6ef	-0.039252218
85	0x3dc7a206	0.097477004
86	0xbc34f5f7	-0.011044971
87	0x3b5929c7	0.0033136474
88	0x3d00a372	0.031405874
89	0x3e328138	0.17432106
90	0x3e0c2cfa	0.13689032
91	0xbd8c38e7	-0.06846791
92	0xbd5fdbe6	-0.05465307
93	0xbcf6a0d4	-0.030105986
94	0x3dcbaac9	0.09944684
95	0x3d1620bd	0.036652315
96	0x3c130f16	0.008975765
97	0xbd31bfe3	-0.043395888
98	0x3d67e27a	0.05661247
99	0x3c0ab3ae	0.008465691
100	0x3c2fd0bc	0.0107309185
101	0x3b2ab887	0.0026049928
102	0x3d70cda4	0.058789864
103	0x3c50bdab	0.012740533
104	0xbd50883f	-0.050911184
105	0x3de4f6a4	0.111798555
106	0x3dd086f0	0.10181987
107	0xbda030e2	-0.07821824
108	0x3d9a6e53	0.07540574
109	0xbcd94815	-0.02652363
110	0xbb436609	-0.0029815456
111	0x3dc5e13d	0.096621014
112	0x3c77be72	0.015121089
113	0x3d7174e5	0.05894937
114	0x3d5aff3c	0.053466067
115	0xbc3a2c57	-0.0113631105
116	0xbc706dbf	-0.014674603
117	0x3dadd476	0.08487789
118	0x3d00047e	0.031254284
119	0x3d3a1424	0.045429364
120	0x3d5471fc	0.051866516
121	0xbd0e043c	-0.034672007
122	0xbc89f7b8	-0.016841754
123	0xbc37e79f	-0.011224656
124	0x3cac4e49	0.021033423
125	0x3e129173	0.14313297
126	0x3d33b372	0.043872304
127	0x3ca7491b	0.020420602
128	0xbca54bec	-0.020177804
129	0x3d0de397	0.034640875
130	0xbc9e090b	-0.019291421
131	0xbd25a507	-0.040440585
132	0xbdbd37cd	-0.09239159
133	0x3db4e773	0.08833208
134	0xbd8917b1	-0.06693972
135	0x3c3d1e60	0.0115428865
136	0x3d03844d	0.032108594
137	0x3c5228e4	0.012827132
138	0x3b51ebb2	0.0032031354
139	0x39ab7219	0.0003270067
140	0x3d0d2fd8	0.034469455
141	0xbcf73805	-0.03017808
142	0xbc0f9ea0	-0.0087658465
143	0x3d7193f8	0.058979005
144	0xbd9b9803	-0.07597353
145	0xbb191d11	-0.0023363272
146	0x3e01f972	0.12692812
147	0x3e23bf7c	0.15991014
148	0xbdadf6c1	-0.0849433
149	0x3dfdd07e	0.12393282
150	0xbbfed768	-0.0077771433
151	0x3cc9ae10	0.024619132
152	0xbccb16b3	-0.024791097
153	0x3d93d5c0	0.07218504
154	0x3c08a79c	0.008340742
155	0x3da33186	0.0796843
156	0xbc78fad3	-0.01519652
157	0x3c0da027	0.00864414
158	0x3c52d836	0.0128689315
159	0x3ca189a5	0.019718954
160	0xbbcc9512	-0.0062433565
161	0x3bbddb29	0.005793948
162	0x3cd015e4	0.025401063
163	0xbd48d166	-0.049027823
164	0xbb88c097	-0.004173349
165	0x3db719c2	0.0894046
166	0x3d9f8bde	0.077903494
167	0xbda6efe1	-0.08151222
168	0x3b7771c7	0.0037757026
169	0xbd346263	-0.04403914
170	0x3d99ee56	0.07516162
171	0x3d5102b3	0.051027965
172	0xbc2e4917	-0.010637543
173	0x3d94dbca	0.07268484
174	0xbd611e55	-0.054960568
175	0xbd4cdaa8	-0.050013214
176	0xba3a6d23	-0.00071115996
177	0x3d3ac92b	0.045602005
178	0xbd67ffb8	-0.056640357
179	0xbbe34158	-0.00693528
180	0x3b8a02c3	0.004211755
181	0x3dae7517	0.08518427
182	0x3c11cfe7	0.008899665
183	0x3c8962f2	0.016770814
184	0x3deb500a	0.114898756
185	0x3d996403	0.07489779
186	0xbd2b8fc7	-0.041885164
187	0x3d892b67	0.066977315
188	0x3d336eef	0.043806966
189	0x3d4e242f	0.050327476
190	0x3d7be11e	0.061493985
191	0xbdac0494	-0.08399311
192	0xbd763dea	-0.06011764
193	0xbdccd618	-0.10001773
194	0xbcf06899	-0.029346751
195	0x3cfe73eb	0.031061133
196	0x3dc755af	0.0973314
197	0xbb87788c	-0.0041342434
198	0x3d98f730	0.07469022
199	0x3c8dae04	0.017294891
200	0x3b94c39b	0.0045399196
201	0x3c636dd2	0.013881164
202	0x3d8e04c4	0.06934503
203	0x3ce8ca77	0.028416855
204	0xbb6ba670	-0.0035957359
205	0xbd3838e6	-0.044976138
206	0xbbc32b6a	-0.005956103
207	0xbd177f35	-0.03698655
208	0xbcb1b7b6	-0.021694046
209	0x3d7aa2e5	0.061190505
210	0xbd832724	-0.0640395
211	0xbc8d7292	-0.017266545
212	0x3db30d14	0.08742729
213	0xbc9c4aad	-0.019078577
214	0x3e16cd19	0.14726676
215	0x3dc5fa11	0.09666837
216	0xb9868efd	-0.00025665006
217	0xbc1df888	-0.009641774
218	0xbc6b98c8	-0.014379688
219	0xbcd12520	-0.025530398
220	0x3d7bc8d8	0.061470836
221	0xbc2ab488	-0.010419019
222	0x3c77c4b1	0.0151225785
223	0x3c8425d7	0.016131325
224	0x3ba7ba53	0.005118647
225	0xbce86ffd	-0.028373713
226	0xbcdd9923	-0.02705056
227	0xbc191f95	-0.009345909
228	0xbd6f3533	-0.058400344
229	0xbc9f6572	-0.019457553
230	0x3dd6eb7d	0.104941346
231	0x3d6ed2d9	0.05830655
232	0x3e2ae904	0.16690451
233	0xbd9b4461	-0.075814016
234	0x3b459f08	0.0030154604
235	0xbdaf7595	-0.08567349
236	0x3d34c53f	0.04413342
237	0x3c6f776c	0.014615875
238	0x3d6c50fa	0.057694413
239	0xba29070a	-0.0006447887
240	0xbd34d09f	-0.04414427
241	0xbcca15df	-0.024668632
242	0x3d6010c7	0.0547035
243	0x3d542294	0.05179079
244	0x3c1cd95e	0.009573309
245	0x3dcd1a14	0.1001474
246	0x3e0c9847	0.13729964
247	0x3d004848	0.031318933
248	0x3c817b49	0.015805857
249	0x3ce55a81	0.027997257
250	0xbc1c6be9	-0.009547212
251	0x3e137db2	0.14403418
252	0xbdcebf80	-0.100951195
253	0xbce32e59	-0.027732061
254	0x3cfbc949	0.030735629
255	0x3d5be222	0.053682454

decoder.3.weight f4 [16, 6, 5, 5]
0	0x3ce1f420	0.027582228
1	0xbd12598f	-0.03572994
2	0x3d14dfb0	0.036346138
3	0xbc5a7b18	-0.013335012
4	0xbc606bea	-0.013697604
5	0x3c32592f	0.010885521
6	0xbccc4703	-0.024936205
7	0x3d1a30b9	0.03764412
8	0xbd950229	-0.07275803
9	0xbdb65b7c	-0.08904168
10	0x3d674e68	0.05647126
11	0x3bc98666	0.0061500547
12	0xbb85fcd8	-0.004088979
13	0xbc2e0a43	-0.010622564
14	0xbd947938	-0.07249683
15	0xbd6ef181	-0.058335785
16	0xbd4b757b	-0.049672585
17	0xbd9cb5c0	-0.076518536
18	0xbde6a780	-0.11262417
19	0xbdf42894	-0.11921802
20	0xbdae30b0	-0.0850538
21	0xbdb7c29f	-0.08972668
22	0x3c5491de	0.012974231
23	0xbd93313d	-0.07187126
24	0xbde4b6b2	-0.11167659
25	0x3dccc365	0.09998206
26	0x3d20e7a0	0.039283395
27	0xbcda45dc	-0.02664464
28	0x3d5c7c7b	0.05382965
29	0x3c93c83b	0.018039813
30	0xbbe3681d	-0.0069399015
31	0xbb55906b	-0.00325873
32	0xbc10462b	-0.008805792
33	0xbda340de	-0.07971357
34	0xbcbfc7c2	-0.023410682
35	0xbd8ce615	-0.06879822
36	0xbd5d5f45	-0.054045934
37	0xbc35213b	-0.011055286
38	0x3cc35d3c	0.023848169
39	0xbcf94612	-0.03042892
40	0x3ca4433a	0.020051587
41	0xbd810d6c	-0.06301388
42	0x3d48b3f1	0.04899973
43	0xbcac5fca	-0.02104177
44	0xbd50957e	-0.050923817
45	0xbd501fca	-0.050811566
46	0x3c944313	0.01809839
47	0xbd72df71	-0.05929512
48	0xbcc11551	-0.023569735
49	0x3d2391fa	0.039934136
50	0xbd9d6433	-0.07685127
51	0xbd361f6e	-0.044463567
52	0xbbe9279b	-0.007115317
53	0xbc396c2a	-0.011317292
54	0xbcb0ea6c	-0.021596156
55	0xbd470d0d	-0.04859643
56	0x393f8e65	0.00018268226
57	0xbd87e8c6	-0.06636195
58	0xbca7d742	-0.020488385
59	0xbd24554a	-0.0401204
60	0xbd8cde2a	-0.06878312
61	0xbd6fa91a	-0.058510877
62	0x3cf51837	0.029918773
63	0xbd29c616	-0.041448675
64	0xbd7ef26c	-0.06224291
65	0xbc91cdec	-0.017798387
66	0xbca6092f	-0.020268051
67	0x3d93eb37	0.07222598
68	0xbd72366a	-0.059133925
69	0xbd139ada	-0.03603635
70	0x3c198465	0.009369944
71	0x3d51368b	0.051077407
72	0x3d0ba47b	0.034092408
73	0x3d00c806	0.031440757
74	0xbd4987ba	-0.049201705
75	0xbd0a01dc	-0.03369318
76	0x3beff07b	0.0073223687
77	0x3d8c9b2c	0.06865534
78	0x3c97dbd8	0.018537447
79	0x3d341c9d	0.0439726
80	0x3d6b6b2c	0.057475254
81	0x3d85b6ce	0.06529008
82	0x3d96e939	0.073687024
83	0x3daee51d	0.08539794
84	0x3d5c2055	0.05374177
85	0x3d5c2d0e	0.053753905
86	0x3cdf7da0	0.027281582
87	0x3d41541b	0.04719935
88	0x3d838016	0.06420915
89	0xbc3469ee	-0.011011584
90	0x3d76218d	0.06009059
91	0xbbc31a0c	-0.0059540328
92	0x3ce3fdcf	0.027830986
93	0xbccbd583	-0.024882084
94	0x3c019b30	0.007910535
95	0x3c913484	0.017725237
96	0x3c382d87	0.011241323
97	0x3d26b147	0.04069641
98	0xbb3ee8d8	-0.0029130485
99	0x3c499941	0.012304605
100	0xbc9bf7ce	-0.01903906
101	0x3c92714a	0.017876286
102	0xbcc8b53b	-0.02450048
103	0x3cdceeee	0.0269694
104	0xbd85c731	-0.06532133
105	0xbcb407d2	-0.021976385
106	0xbd1da585	-0.03848793
107	0x3d825b4e	0.06365071
108	0x3c792c44	0.015208308
109	0xbd33e4b2	-0.043919273
110	0x3d6fb362	0.058520682
111	0xbc753016	-0.014965078
112	0xba018c51	-0.0004941868
113	0x3d9fccab	0.07802709
114	0x3dcb329a	0.09921761
115	0x3d2a5c37	0.04159185
116	0x3d6c5724	0.05770029
117	0x3d923611	0.071392186
118	0x3d05fa84	0.032709613
119	0x3de048fc	0.10951421
120	0x3d8c7187	0.06857591
121	0x3cd83ff4	0.026397683
122	0x3dc45152	0.09585823
123	0x3ce411d6	0.027840536
124	0x3d9c3434	0.076271445
125	0xbdac6569	-0.0841778
126	0x3c6f278c	0.014596831
127	0xbd36a424	-0.04459013
128	0xbd12ae10	-0.03581053
129	0xbd7dcd45	-0.06196334
130	0xbd07c9bb	-0.03315137
131	0xbbaed0c6	-0.0053349463
132	0x3c3d5207	0.011555201
133	0xbbae138d	-0.005312389
134	0xbd92796b	-0.07152065
135	0xbd1d6e4d	-0.03843527
136	0xbd5122c1	-0.051058535
137	0xbd959319	-0.07303447
138	0xbe015ef0	-0.12633872
139	0xbce6c1c0	-0.02816856
140	0x3ada6a8b	0.0016663832
141	0xbd6dbab1	-0.05803937
142	0x3d1af7ba	0.037833907
143	0xbd182e44	-0.037153497
144	0xbb474616	-0.0030406765
145	0xbd2615fd	-0.040548313
146	0xbb813d31	-0.003944062
147	0x3d711704	0.05885984
148	0xbca33416	-0.019922297
149	0x3d4d5bca	0.050136365
150	0x3d1b5054	0.037918404
151	0x3d8f90f4	0.070100695
152	0xbc7a668e	-0.01528324
153	0x3d7fe0cf	0.062470254
154	0x3d2a2996	0.041543566
155	0xbc60472f	-0.0136888465
156	0xbd0a530c	-0.033770606
157	0x3bc75936	0.006083633
158	0x3d519c2b	0.051174324
159	0xbc8bcba1	-0.017064871
160	0x3d5ab80a	0.05339817
161	0x3d28903d	0.04115318
162	0x3dcb049d	0.09912989
163	0x3d1b7222	0.037950642
164	0x3c9e57dc	0.019329004
165	0x3d0dce0c	0.03462033
166	0xbb56f0c8	-0.0032797325
167	0x3c9a37fc	0.018825524
168	0x3ccadcc2	0.024763469
169	0xbba59d3d	-0.0050541447
170	0xbd187891	-0.037224356
171	0x3b05984f	0.0020384972
172	0x3d07d777	0.033164468
173	0x3d78bb25	0.06072535
174	0xbb8299f9	-0.00398564
175	0x3d391d35	0.04519387
176	0x3bdf7e43	0.0068204715
177	0xbd285978	-0.04110095
178	0xbcbd8c5f	-0.023138223
179	0xbd577987	-0.052606132
180	0xbc03b1df	-0.008038013
181	0x3c879a27	0.016552998
182	0xbda97fc5	-0.08276323
183	0xbd140249	-0.03613499
184	0x3d35ba54	0.04436715
185	0xbcf6e071	-0.030136319
186	0x3cc766a5	0.024340937
187	0x3d16492d	0.03669088
188	0xbda04d4e	-0.07827245
189	0xbcfc62e6	-0.030808877
190	0xbd4298bc	-0.04750894
191	0xba90e06d	-0.0011053212
192	0xbb8b0dc5	-0.004243585
193	0xbd9c0c82	-0.07619573
194	0xbd7495d7	-0.05971321
195	0xbc82317a	-0.015892733
196	0xbc95ab94	-0.018270291
197	0xbdd9552d	-0.10611949
198	0xbcbae0c2	-0.022812251
199	0xbd67e878	-0.056618184
200	0x3cde91d8	0.027169153
201	0xbd625974	-0.05526109
202	0x3ced2423	0.028947895
203	0xbd618e8d	-0.055067588
204	0xbce77187	-0.028252376
205	0xbcb64738	-0.022250757
206	0xbce8ba88	-0.028409258
207	0x3d1de360	0.03854692
208	0x3c8969eb	0.016774138
209	0xbd804090	-0.06262314
210	0x3d1fdbb0	0.03902787
211	0x3dae1a2a	0.08501084
212	0x3ba83952	0.0051337862
213	0x3d416329	0.047213707
214	0x3d7881c5	0.060670633
215	0x3d953c21	0.07286859
216	0x3cad1525	0.021128247
217	0xbd2c9155	-0.042130787
218	0xbd76368d	-0.060110617
219	0x3c929241	0.017892005
220	0xbd3c047e	-0.04590272
221	0x3d93e9f8	0.072223604
222	0x3da916a9	0.08256275
223	0xbaf5a1b6	-0.001874021
224	0xbd45c9ec	-0.04828827
225	0x3bca3898	0.0061712973
226	0x3d4a3ab3	0.049372386
227	0x3ce24714	0.027621783
228	0x3ccaf686	0.024775755
229	0x3daac54a	0.08338411
230	0x3c68ad4b	0.0142014725
231	0xbc920434	-0.01782427
232	0x3d991dc1	0.07476378
233	0x3c9ff97c	0.019528143
234	0x3c96d002	0.018409733
235	0xbcce4fd5	-0.025184551
236	0x3c641625	0.013921295
237	0x3dc22f67	0.094816975
238	0x3d041ef6	0.03225609
239	0x3d398435	0.045292098
240	0x3d610893	0.054939818
241	0x3db52fd7	0.08847015
242	0x3d811d7e	0.06304453
243	0x3c826089	0.015915172
244	0x3d715273	0.05891652
245	0x3d8fb9cc	0.0701786
246	0x3d65f3bf	0.056140658
247	0x3d6f42a5	0.058413167
248	0x3c9bd503	0.01902247
249	0x3d292934	0.04129906
250	0xbd0d46ce	-0.034491353
251	0xbdb267c1	-0.08711196
252	0x3c20a549	0.009805032
253	0xbca73ab4	-0.020413734
254	0xbc8a994b	-0.016918799
255	0xbd1cf561	-0.03831995

decoder.3.bias f4 [6]
0	0xbde78480	-0.11304569
1	0x3dce2c13	0.10067
2	0xbdf6b98d	-0.1204711
3	0xbc6bca42	-0.014391484
4	0x3db33190	0.08749688
5	0x3dab4a8a	0.083638266

decoder.5.weight f4 [6, 1, 5, 5]
0	0xbe2b891f	-0.16751526
1	0xbd997d74	-0.074946314
2	0xbd80d965	-0.06291465
3	0xbde21224	-0.11038616
4	0xbddcf9e4	-0.1078985
5	0xbd9d86c6	-0.076917216
6	0xbe24c769	-0.16091694
7	0xbded6b92	-0.11592783
8	0x3d7141f1	0.058900777
9	0x3daf5a2b	0.0856212
10	0xbcb9d2c9	-0.022683518
11	0x3dd6f10c	0.10495195
12	0x3c17984b	0.009252618
13	0x3bc6b286	0.006063762
14	0x3e57c14a	0.21069828
15	0x3d4adfc3	0.049529802
16	0x3de8aa65	0.11360625
17	0x3e5cac2e	0.21550056
18	0x3e80fb56	0.25191754
19	0x3e4b198c	0.19833964
20	0x3da38960	0.079851866
21	0x3e3f62ed	0.18690081
22	0x3e2b563f	0.16732119
23	0x3e4bc023	0.19897513
24	0x3e05ad98	0.13054502
25	0xbe61356a	-0.21993032
26	0xbe8ba944	-0.27277577
27	0xbdfb17ff	-0.12260436
28	0xbdaa9208	-0.083286345
29	0x3cd3ee3b	0.025870433
30	0xbe3490cb	-0.17633359
31	0xbe390728	-0.18069136
32	0xbe7a9dd0	-0.24474263
33	0xbe4bdba7	-0.1990801
34	0x3cb2bdfa	0.021819104
35	0xbd996be8	-0.074912846
36	0xbcd09fc6	-0.02546681
37	0xbdb43ddb	-0.088008605
38	0xbe0837e0	-0.13302565
39	0x3cb870a1	0.022514643
40	0xbe11a7d0	-0.14224172
41	0xbdc03c41	-0.093864925
42	0xbcfec7ba	-0.031101096
43	0xbdb889fc	-0.090106934
44	0x3cf5dd00	0.030012608
45	0xbdb6e1d0	-0.08929789
46	0xbdf56416	-0.119819805
47	0xbd05287c	-0.032509312
48	0xbd1fc381	-0.039004806
49	0x3db680bb	0.08911272
50	0x3da5eadf	0.08101439
51	0x3e251895	0.16122659
52	0x3e57ecbe	0.21086404
53	0x3df45bfd	0.11931608
54	0x3c71f69b	0.014768268
55	0x3e221399	0.15827788
56	0x3da6c51c	0.081430644
57	0x3e0124a5	0.12611635
58	0x3dceaa9a	0.100911334
59	0x3ded630d	0.11591158
60	0x3d9bdc42	0.0761037
61	0xbcf50f15	-0.029914418
62	0x3c35484c	0.0110646
63	0x3d4515f0	0.048116624
64	0x3d1fe78c	0.03903918
65	0x3d01e946	0.031716608
66	0x3e0dfa24	0.13864952
67	0x3e49ac60	0.19694662
68	0x3ddd7fd4	0.10815397
69	0x3dc13303	0.09433558
70	0x3d6211df	0.055192824
71	0xbd6d2262	-0.057894118
72	0x3e196584	0.14980131
73	0x3df2a351	0.118475564
74	0x3e02101d	0.12701459
75	0x3dcad2e4	0.099035054
76	0x3ccbcfd8	0.024879381
77	0xbd952965	-0.07283286
78	0xbca32de1	-0.019919338
79	0xbe215313	-0.15754347
80	0x3e64b4c8	0.22334588
81	0x3e14802b	0.14502017
82	0xbc863abe	-0.016385432
83	0xbcbf7017	-0.023368878
84	0x3dd3da5d	0.10344384
85	0x3e7101fd	0.23535915
86	0x3d4d52f9	0.050127957
87	0x3e45eb4c	0.1932804
88	0x3d9a967d	0.075482346
89	0xbd003df1	-0.031309072
90	0x3da0dc52	0.07854523
91	0x3e110d91	0.14165331
92	0xbdd859fc	-0.10564038
93	0xbdd73156	-0.10507457
94	0xbe045003	-0.12921147
95	0xbe193324	-0.14960915
96	0xbd85a775	-0.065260805
97	0x3d986043	0.074402355
98	0xbe4ed955	-0.20200093
99	0xbe8ac30c	-0.27101934
100	0xbc78221d	-0.015144852
101	0xbe2c1d42	-0.16808036
102	0xbd861cad	-0.06548438
103	0xbd5081ef	-0.050905164
104	0xbcad3f77	-0.021148426
105	0xbe4f077d	-0.202177
106	0xbde032e5	-0.10947207
107	0xbe562ef7	-0.20916353
108	0xbe34abde	-0.17643687
109	0x3bd9e2f0	0.0066493675
110	0xbe7e0126	-0.24805126
111	0xbe32e870	-0.1747148
112	0xbcef0e44	-0.029181607
113	0xbca81f6c	-0.020522796
114	0xbe472be9	-0.19450344
115	0xbd739427	-0.05946746
116	0xbe207849	-0.15670885
117	0xbe1a62ba	-0.15076724
118	0xbd862e88	-0.06551844
119	0xbd73460f	-0.059392985
120	0xbe533e15	-0.20629151
121	0xbe392ff8	-0.18084705
122	0xbdf4d664	-0.11954954
123	0xbe625051	-0.22100951
124	0xbe24d189	-0.16095556
125	0x3d84f1d8	0.064914405
126	0x3d1fa66a	0.038977064
127	0xbe7e76f2	-0.24850062
128	0xb98d0c3c	-0.0002690273
129	0xbde29e2f	-0.110653274
130	0x3dc8aadb	0.09798213
131	0xbe6f5b89	-0.23374762
132	0xbe833564	-0.2562667
133	0xbe0dff26	-0.13866863
134	0x3dd6964e	0.10477887
135	0x3d605973	0.054772805
136	0xbe81b07e	-0.25329965
137	0xbd088e57	-0.03333887
138	0xbdfc2750	-0.12312186
139	0x3e1ec19d	0.15503545
140	0xbdd2be38	-0.102901876
141	0xbd79d43e	-0.060993426
142	0xbc8b9114	-0.017036952
143	0x3de15739	0.110029645
144	0x3da25659	0.07926626
145	0x3c0777b5	0.0082682865
146	0x3c6e156e	0.014531476
147	0xbd8c9f12	-0.06866278
148	0xbcaff543	-0.021479255
149	0xbdebfdf2	-0.115230456
