Autoencoder-on-MNIST-in-Pytorch/Models/model_e14.pt (torch, 561729 bytes, 11 tensors)

encoder.0.weight f4 [6, 1, 5, 5]
00000000: 547e 81be 8ee4 4bbe 903e f5bd f8df 63be
00000010: 6b46 adbe d9cb 69be 4da5 a8be a1bf 24bd
00000020: 6bd6 02be 1db7 43be 6404 0c3e aaa1 40be
00000030: 5abf 763c 7989 7dbe 64af 55be 18af 0d3e
00000040: dcff 963c decf 3dbe b117 1fbe 5751 edbd
00000050: 7f88 9e3b 3ec2 c2bd ffa7 dbbc 36a3 a7be
00000060: c984 cabe beca 63be d8dc a1be 2bd5 87be
00000070: 3fca 9abe 255a 6cbe 15a3 993d 8d00 843c
00000080: ae40 653d 2c47 db3c ce19 503e d690 0bbe
00000090: 8c4b 273c 74bb 183e 855d ccbc 5829 54bd
000000a0: 9d8c 473e acbd 123e 63a2 e13d c159 113e
000000b0: bf59 743e 18a9 dfbd a681 1abe bb68 ebbd
000000c0: 0bc4 933e 0e31 833e 603c 263e 7436 2c3e
000000d0: b5a5 153e 0b9a bfbd 5117 01be 152d 3a3e
000000e0: 0d57 a33d 48d8 85be 1035 93be 11ed c5be
000000f0: 5688 60be 7de8 ffbd d9be babe 9974 50be
00000100: 176c eabd a089 40bd be71 6abd 0f93 acbe
00000110: b155 093c 7538 24be 4fdc 55be 546f 4dbd
00000120: 5546 54be ce24 3bbe 5f63 a1be eedf 4abe
00000130: a75d 18be 60dc 42be d771 5e3e 38c9 74bc
00000140: 81ab 37bd 3edd 713d c31e b0bd 0ed2 3c3e
00000150: af6d 6a3e 4255 3a3e 2709 4d3e 97dd 2fbe
00000160: 4416 5b3e b774 713e c64d 92bd d594 293e
00000170: 6a6c 8a3d c5d2 36bd 9902 1d3e 90ad 743e
00000180: f6ae 353c 6501 0b3e 0dfc 633e 6498 a83d
00000190: 0310 99bc 37e3 503e 7844 d23c 49d3 70bd
000001a0: 72dd 1f3e f2c1 2e3d b7bd a0bd 4283 62bd
000001b0: 6f0c 803e c8dd 803e ae56 00be 95f0 11be
000001c0: 63bb 0c3e 967e 0138 97f5 6f3e daec 073c
000001d0: 0f8e ddbc eb79 49bd c01f 4b3e 9757 723e
000001e0: c1a6 26be 243f 98be 04a6 2ebe b77c 603e
000001f0: a33d ba3d 1888 85bd 7e53 213e 6219 073e
00000200: 2630 0bbe b601 0fba 682d 88bd b0d3 633e
00000210: 98b7 6cbd efb8 7abe f997 24be 306a 993d
00000220: 51fa 2f3e d232 4abc cc32 86be 1bfb 97be
00000230: 3483 833e f671 823e 69a8 3e3e 5967 46be
00000240: 4989 27be 8e6d e33d 1b69 f6bc b532 823d
00000250: 3450 23be 2a7a 07be
-0.25291693 -0.19911405 -0.119748235 -0.22253406 -0.33842787 -0.22831668 -0.32938614 -0.040221814
-0.12777106 -0.19112821 0.1367355 -0.1881167 0.01506027 -0.24759473 -0.20867687 0.13836324
0.01843255 -0.18536326 -0.15536381 -0.1158778 0.004838049 -0.09509705 -0.026813505 -0.32741708
-0.39554432 -0.22245309 -0.31613803 -0.26529822 -0.30232427 -0.23081262 0.075018086 0.016113544
0.055969886 0.026767336 0.20322344 -0.1362947 0.010210883 0.14915258 -0.024946937 -0.05179724
0.19487233 0.14330167 0.11017301 0.14194395 0.2386236 -0.10920924 -0.1508852 -0.11494585
0.28860506 0.25623363 0.16233969 0.16817647 0.14613993 -0.09355553 -0.12606551 0.1818126
0.07975588 -0.26141572 -0.2875142 -0.3865743 -0.21927008 -0.124955155 -0.3647373 -0.20356978
-0.11446398 -0.04700625 -0.05723738 -0.33705947 0.008382247 -0.16037162 -0.20884822 -0.050155
-0.20729955 -0.18275759 -0.31521127 -0.19811985 -0.14879476 -0.19029379 0.21723114 -0.014940552
-0.044841293 0.059048884 -0.08599617 0.18439505 0.22893403 0.18196586 0.20023023 -0.17174374
0.21395212 0.2357968 -0.0714374 0.16560681 0.067589596 -0.0446346 0.15333022 0.23894334
0.011089077 0.1357475 0.22264118 0.08232191 -0.018684393 0.20399176 0.025667414 -0.058795247
0.15611818 0.04266543 -0.07848685 -0.05530096 0.25009486 0.25169206 -0.12533066 -0.14251931
0.13743357 3.087389e-05 0.23433529 0.008296216 -0.027045278 -0.049188536 0.1983633 0.23666225
-0.16274549 -0.29735672 -0.17055517 0.21922575 0.090937875 -0.065200984 0.15754506 0.13193277
-0.13592586 -0.0005455272 -0.066492856 0.22248721 -0.057792276 -0.24484609 -0.16073598 0.07490957
0.17185332 -0.012341218 -0.2621063 -0.29683766 0.25686038 0.2547757 0.18618931 -0.19375362
-0.16360964 0.1110488 -0.030079415 0.06357328 -0.15948564 -0.13230196

encoder.0.bias f4 [6]
00000000: c715 373e 4f85 383e 22ca 583c e66c 2f3e
00000010: 42df e9bc 311a 3b3e
0.17879401 0.18019603 0.013231786 0.17131385 -0.02854884 0.1827171

encoder.2.weight f4 [16, 6, 5, 5]
00000000: 8543 3c3d 5c43 0e3d 0f71 30bd 8eb9 ea3d
00000010: 42fd e83c 824c f6ba bd1d 79bd ab84 8abd
00000020: dd24 91bb 8840 5c3d 1982 03be 992a 20be
00000030: d532 12bd 28a8 c0bc 8473 e4bc d3be 04be
00000040: ebe3 b1bd b70c 18be 90c4 cdbc 172d d53c
00000050: a9a9 dfbd 1d56 cabd 2ab7 c6bd b985 fe3b
00000060: d6d7 3ebd cf42 b43c 969d 8abc 8c36 06bd
00000070: 1a46 b33b 8522 bf3c 9133 353b 96fd c73d
00000080: ab7f a03c db16 1d3b 74a4 a9bc 0127 603d
00000090: 93cd b33d 19d5 983d 6d35 33bd b30c eabc
000000a0: f00a 653d 5582 00bd 3e72 0dbd 7235 8c3d
000000b0: eb45 f53d 6e53 a4bd 9393 453d 617b c4bd
000000c0: 97ea 74bd f440 b33c b714 523d f967 263d
000000d0: 84bf ea3b 5be0 e23d 69a7 dc3b 71a5 1cbd
000000e0: 442d 323d ac88 13bc de21 ccbc cb5b c03d
000000f0: 2746 08be 2a9b c1bc b16e 19bd beac 933d
00000100: ed67 293d 36f9 21be b85e b6bd b2d0 7e3c
00000110: e538 e1bc ef21 a83c fb2a fabd 8a10 a5bd
00000120: e5b9 1ebd 9ff2 4fbd 6abd 25bd 7f44 14bb
00000130: 7d4e 9d3d 7ac6 5dbd 065d 20bd f06d 9cbc
00000140: 884b e33c 5644 be3d dca8 033d 3793 ae3d
00000150: ee81 cd3d 896c 823d 285b 443d 52a5 c6bc
00000160: 2eba 84bd ae51 4bbc 3542 c93d 59ed c23d
00000170: e8bb ea3b 9487 1dbd 24c7 953d 661b b53d
00000180: ac5a febc 0da2 c13c cca7 5bbd e287 00bd
00000190: ef82 3c3d 0642 b93d 1eff 9e3d e94c 13bd
000001a0: 0eff 50bd 6cd2 013d e876 c73d 7302 e6bc
000001b0: 8c4f 89bd 3a59 613d afa5 d93d cd55 2f3d
000001c0: adce 66bd 2fc1 cabc ea23 5ebd fbaa 833c
000001d0: 2172 5e3d f95e 5cbd 28cd 9bbd 9dc3 4ebc
000001e0: 69e2 343d 2506 30bc 32b3 17bd fb3f fe3c
000001f0: 9ac9 29bd 27b5 6d3d 9657 51bd 9006 42bc
00000200: b045 59bc 4987 3dbd 56b2 d13c a4bc 66bd
00000210: 5079 a53d eacd ad3d 1c06 fe3c a032 3c3d
00000220: 9d53 233d 3242 8d3c 1fb0 a6bc ff0d 2bbc
00000230: 0526 8d3d fdd8 863d 643c f1bb 14b0 2b3d
00000240: 9cfe 7fbd 8954 943c c6c7 013d 440b b03c
00000250: f219 bebc 9c83 503c 7f05 5fbd 1c0a 873c
00000260: c554 45bd a9be 853d 0814 9abb 6645 963d
00000270: da6e a53c cf9e 60bd 8611 973d 4459 013d
00000280: 51d8 4dbd 8132 2fbd 874d 5dbc e408 473d
00000290: 5fc8 e739 d9c4 da3b 5739 68bc 0690 94bd
000002a0: 6ceb dabc 6f0c 1fbd 679c 40bd 4e91 a1bd
000002b0: 9c32 05be 340a 15be 11c9 a6bd 8f01 973c
000002c0: 2f4a 5a3d 57be 90bd 4ce8 15bd 474d 783b
000002d0: 17d7 c3bc 9191 9c3c 2896 7a3a 3ec7 5bbd
000002e0: 1990 63bd 6291 a0bb f4e6 173d 5ae7 4ebd
000002f0: 8fb8 87bb 08d5 1fbd 7bdb 883d 00e2 463d
00000300: ab47 a1bc 2854 253d 7ebd 9b3d a7c4 48bc
00000310: aa33 143d 95ab 4dbd bb9a 853d 9fb6 023d
00000320: 3272 283d f4e2 4bbd b132 40bd 0ab8 6d3d
00000330: fae0 893d 5445 1b3d 5abd 41bd 726f 1c3b
00000340: f8b8 0f3d 4a22 23bc cbd2 6b3d bd4a 93bd
00000350: 4d1c b5bd 025b 8fbd df73 3fbd 8f42 8dbd
00000360: 897e 1dbd 8785 27be 31d6 b0bd e33f 913c
00000370: 3ed7 8abc 6c3f c2bd 7358 f4bd 1957 4abd
00000380: 1751 783d 749c 7f3d cdeb a33d a67d b3bc
00000390: 6ff2 943d 854b a73c 8d83 053d b1fb 8c3d
000003a0: b880 b23d 1d67 803c ebc1 7ebd 78c6 80bb
000003b0: 939f 3f3d 18a1 2bbd c9d9 cd3d 3273 a53c
000003c0: 6b38 303d a757 ec3d 1e12 cf3c dac6 a73d
000003d0: 122a 513d b63d 503d cb61 7c3d 1ec7 5dbd
000003e0: c158 933d 5c01 a63d c608 853b 6bb8 bebc
000003f0: 60c9 833d 91c2 70bd c418 2a3d ddb5 0ebc
0.04596283 0.034732208 -0.04307657 0.11461173 0.028441075 -0.0018791112 -0.060819376 -0.06763586
-0.0044294433 0.05377248 -0.12842597 -0.1564125 -0.03569301 -0.023517683 -0.027887113 -0.12963419
-0.0868605 -0.148486 -0.025118142 0.026022477 -0.10921032 -0.09879706 -0.097029045 0.007767406
-0.046592556 0.022004513 -0.016920846 -0.032766864 0.0054710032 0.02333189 0.0027649144 0.097651646
0.019592127 0.0023969922 -0.0207083 0.054724697 0.087794445 0.0746252 -0.043752123 -0.028570509
0.055918634 -0.031374294 -0.034532778 0.068461314 0.119762264 -0.080237255 0.04823644 -0.09593845
-0.059794035 0.021881558 0.051289286 0.0406265 0.0071639437 0.11077949 0.006733824 -0.038243715
0.0435002 -0.009004753 -0.024918493 0.09392508 -0.13308011 -0.023633558 -0.03745908 0.07210682
0.041358877 -0.15817723 -0.08904785 0.0155526865 -0.02749295 0.020523993 -0.12215229 -0.08059795
-0.0387515 -0.05076849 -0.040463842 -0.0022623835 0.07680986 -0.05414436 -0.039151214 -0.019095391
0.027745977 0.09290378 0.03214346 0.08524173 0.10034548 0.06368358 0.047938496 -0.024248753
-0.064808235 -0.012409611 0.09827081 0.09517927 0.0071635135 -0.038459376 0.07313374 0.088431165
-0.031049095 0.023636842 -0.05362682 -0.031379588 0.046023306 0.09045796 0.077635035 -0.03596202
-0.05102449 0.031694815 0.097394764 -0.02807734 -0.067046255 0.055016734 0.10627305 0.042806435
-0.056349445 -0.02475032 -0.05423347 0.01607274 0.05430806 -0.05380151 -0.0760749 -0.01261988
0.044161234 -0.0107436525 -0.03703613 0.031036368 -0.041452028 0.05803409 -0.05110892 -0.011842385
-0.013261244 -0.046271596 0.025597733 -0.056332245 0.08079779 0.084865406 0.031008773 0.045946717
0.03987466 0.017243478 -0.020347653 -0.010440349 0.06892017 0.06584356 -0.0073619355 0.041915968
-0.062498674 0.018106716 0.03168466 0.021489747 -0.023205731 0.012726691 -0.0544486 0.016484313
-0.048176546 0.06530506 -0.004702095 0.073374555 0.02019446 -0.05483895 0.07376389 0.03157927
-0.050255124 -0.042772774 -0.0135072535 0.048592463 0.00044209042 0.006676298 -0.014173827 -0.07254033
-0.026723586 -0.038830217 -0.047024157 -0.07889043 -0.13007587 -0.14554673 -0.08143819 0.01843336
0.053293403 -0.070675544 -0.03659849 0.0037887858 -0.023906274 0.01911238 0.0009559118 -0.05365681
-0.055557344 -0.0049001435 0.03708549 -0.050513603 -0.004141874 -0.03902152 0.066824876 0.048555374
-0.019687494 0.04036346 0.07604502 -0.012253917 0.036182083 -0.05021246 0.06523653 0.031912442
0.04112453 -0.049776986 -0.046923343 0.05803684 0.06732364 0.037907913 -0.04729972 0.0023870138
0.03508851 -0.009956906 0.057574075 -0.071919896 -0.088432886 -0.0699978 -0.046741363 -0.06897461
-0.03845075 -0.1635953 -0.08634604 0.017730659 -0.016948339 -0.09484753 -0.11930933 -0.04939947
0.06062421 0.062405065 0.0800396 -0.0219105 0.07272803 0.020421753 0.03259616 0.06883944
0.087159574 0.015674168 -0.062196653 -0.0039299093 0.04678304 -0.041901678 0.10051305 0.020196531
0.043022554 0.11540156 0.025277194 0.08192225 0.051065512 0.050840102 0.0616167 -0.05414497
0.07194663 0.08105728 0.0040598838 -0.023281297 0.064348936 -0.058779303 0.041527525 -0.008710352

encoder.2.bias f4 [16]
00000000: 8bf9 643b b47b 253d cd0a f23c 2ca1 5e3d
00000010: 4a4f e03d c6cd 813a a76b 783d c91b 22bc
00000020: 903a bf82 1fad 0c3e 7bed 2b3d 4aa6 543d
00000030: a4e1 df3d 5038 b43c 7155 d03c 50bb 1cbd
0.0034938778 0.040401176 0.029546166 0.054352924 0.10952623 0.0009903244 0.06064954 -0.00989432
-2.809854e-37 0.13737915 0.041974526 0.051916398 0.109317094 0.021999508 0.025431367 -0.038264573

encoder.5.weight f4 [10, 6400]
00000000: a1eb b2ba d699 03bd 764a e5bc 72b4 51bd
00000010: c240 30bd 8adb b4bc 5eef 0fbd b09f 0bbd
00000020: 1960 37bc 05f6 a0bb 92de 87bc 10ea 6cbc
00000030: 5bf7 6f3a b8f7 f03b e9cb e6b9 a79a d33a
00000040: d6fc 2c3c 26f0 093c 9d5f b2bb 0d48 6abc
00000050: 32a9 1e3b 217b 01bd 0d65 d1bc d8b8 06bd
00000060: d199 1fbd 152a f8bc e400 92bc 5050 9abc
00000070: 1d1c 403c 26e9 cbbb e06c e93a 9333 d239
00000080: 4b46 e33b 03bc ec3c c700 763c fca2 bb3c
00000090: 335d c53b 79a5 9e3b a661 4d3b b7f9 88bc
000000a0: 449b ef3c 6f0e 383c 1101 92bc 51b0 c1bc
000000b0: 83b7 93bc 62c4 85bc 4767 b3bc 4acc d0bb
000000c0: 24b0 37bb 6870 653c bef6 783c a1bf 693c
000000d0: 46b3 af3c 10f0 4f3c bb42 7e3c af64 fa3b
000000e0: 2c83 6a3c 60eb d13a fb81 66bb f885 1a3b
000000f0: 2d2c 743d 0e84 fe3c 88c8 f4bb 8f50 f0bb
00000100: 76f5 5abc 5594 96bc 6f05 8e3b 8cb8 d7bb
00000110: 4d53 613b 9376 d33b 13f9 903c e7df 8d3c
00000120: bfed be3b 159a 5c3c e655 343c 946a f03b
00000130: 36bf 163c c6ed 473c 871f 123c 93cf 843b
00000140: 3779 653d aaac f03c 0c38 27bc c82e 81bc
00000150: 4737 1fbc 9713 b83a c817 923b 0fc8 933c
00000160: 9b3e d43b d2b4 973c 1f41 2d3d d01f 1a3d
00000170: 568d 923c 6309 4cba 8cae 44bc 202d 97bc
00000180: 8271 3d3b e068 463c 6110 773c d40b e43a
00000190: 5f4b e43c 004c f73a 84b7 a6bc 60b4 99bc
000001a0: b4ad 87bb 62aa 7cbc 4b2a dd39 2ddd 023c
000001b0: 26c4 4a3c e63f 173d 17e3 253d ffdf 3d3d
000001c0: e79f c83c 0ecf 4e3c d455 23bc 7ad8 87bb
000001d0: cfbe 49bc c62a e7ba 1dbb fe3b 4173 923a
000001e0: c8dd 3f3c 0741 c0bc ae27 18bd 7aab 28bd
000001f0: 9333 dfbc 79f8 68bc 7807 aabb 5abd 043b
00000200: daf2 6c3c a824 023d 8563 423d 9bc6 f23c
00000210: 562f 663b efcf 483c 1024 c7ba 537f efbb
00000220: 7ae1 15bc d2ba 13bc 00cf c33b bf8c 6dbc
00000230: b4c1 afbc d082 19bd 066b 1bbd 7392 cfbc
00000240: 590e 90bc e75c 0b3b ee6d ddba 0247 463b
00000250: d5a8 fc3a 9131 e73c d48d 043d 9639 963c
00000260: acf5 ec3a ea6c 05bc 7928 1cbc 3dde fa3b
00000270: 0368 b33b f3b3 103c 74c7 0d3c dc0a 75bc
00000280: c26a a2bc 3cb9 93bc 4cf3 f4bc 76ad a9bc
00000290: 2c0b a3bb bbf9 4ebc a7eb 12bc 0de7 ad3b
000002a0: 9f96 b23b a4d3 053d 5f61 083d 2bf0 d53c
000002b0: 9392 0dbb df27 04bb 6afb 9e3b 8351 573b
000002c0: bc8a 71ba 27d4 473c 885f 09bc 10e6 85bc
000002d0: f5df 323a 90bd 98bc 5f99 0cbd bb21 73bc
000002e0: 58a9 b2bb 4041 5bbc 5ab7 8dbc 786e b7ba
000002f0: db3e df3b 02ea c33c 8b0e 40bb a9de 4c3c
00000300: 9b0c 2d3b f31b 103c bd3f a73c 4876 9b3c
00000310: 1f29 273c 3318 193b 72f7 df3b c217 22bc
00000320: f575 333d 42c2 44bb bd16 9abb c61c d73b
00000330: 8848 e63b 9761 2bbb dbdd dbbb 0fdc 883c
00000340: a248 f43b 2c27 04bb 6201 bc3a 277a 4c3c
00000350: ea00 c53c fc1f 163c cbd7 3f3c 6f10 92bb
00000360: 15fa 1abb 439d febb bbf9 e03b 6a61 92bc
00000370: eae2 563d ee5c 103c 11da b5bb 4bd8 913b
00000380: 67b1 a73b 17a0 67bc e937 433c 1277 223c
00000390: ba21 ac3a 7398 e9bb 6ed1 473b b85f a33b
000003a0: 46f0 e83c 14ab fd3b fc2d 883a a064 e13b
000003b0: 14e7 23ba e68f 6ebc f9e6 b9bb 2f79 7abc
000003c0: f81d 623d b675 c53c 0e05 ac3b ea09 903c
000003d0: 8512 ba3b 1b54 b3bb 6b50 f53a f1b7 9e3c
000003e0: 24e7 a93b e20b 8bbc ae89 033c 98e9 d03c
000003f0: 37f1 8e3c f644 0c3c 4eac 1b3c 0945 983a
-0.0013650545 -0.03212913 -0.027989607 -0.051197477 -0.043030508 -0.02207734 -0.035140388 -0.034087837
-0.011192345 -0.0049121403 -0.016585622 -0.014460102 0.00091539853 0.007353749 -0.00044020943 0.0016144112
0.010558328 0.008419072 -0.005443527 -0.014299405 0.0024209735 -0.031611566 -0.02556088 -0.032891124
-0.03896505 -0.030293504 -0.01782269 -0.018837124 0.011725453 -0.006222862 0.0017808937 0.00040092747
0.00693587 0.028898245 0.015014834 0.022904865 0.006023073 0.004841503 0.003133872 -0.016720636
0.029248841 0.01123391 -0.017822774 -0.023643645 -0.018031841 -0.016328994 -0.021899832 -0.0063720094
-0.0028028572 0.0140038505 0.015195547 0.014266879 0.021447789 0.012691513 0.0155188395 0.007641397
0.0143135 0.0016015582 -0.003517269 0.0023578387 0.05961244 0.031068828 -0.0074701943 -0.007333822
-0.0133641865 -0.018381277 0.004334144 -0.006583279 0.0034381927 0.006453344 0.017696893 0.017318679
0.0058266814 0.01346447 0.011006808 0.007336924 0.009200862 0.012202686 0.0089186495 0.004053065
0.056023803 0.029379208 -0.010206234 -0.015769377 -0.009717769 0.0014043924 0.0044584014 0.018039731
0.0064771897 0.018518839 0.042298432 0.037627995 0.01788966 -0.0007783381 -0.012004506 -0.018454134
0.0028906767 0.012109965 0.015079589 0.0017398545 0.027867971 0.0018867254 -0.020351179 -0.018762767
-0.00414058 -0.015421482 0.00042183916 0.007987303 0.012375867 0.036926173 0.040499773 0.046356197
0.02449031 0.012622608 -0.0099691935 -0.004145679 -0.012313559 -0.0017636649 0.0077737705 0.0011173264
0.011710592 -0.023468507 -0.037147216 -0.041179158 -0.027246272 -0.014219397 -0.0051888786 0.0020254464
0.014462197 0.03177324 0.04745819 0.029635718 0.003512343 0.0122566065 -0.0015193243 -0.0073088794
-0.009147996 -0.009016709 0.005975604 -0.0144988885 -0.02145467 -0.03747827 -0.037943862 -0.025338387
-0.017584966 0.002126509 -0.0016893724 0.0030254726 0.001927639 0.028221877 0.03236182 0.018338006
0.0018078587 -0.008143643 -0.009531134 0.0076558874 0.0054750456 0.008831966 0.00865351 -0.014956202
-0.019826297 -0.018032663 -0.02990117 -0.020712595 -0.004975697 -0.012632783 -0.008967317 0.0053070844
0.0054500843 0.03267254 0.033295985 0.026115498 -0.0021602258 -0.0020165367 0.0048517482 0.0032854981
-0.00092140934 0.012196577 -0.008384593 -0.016345054 0.00068235333 -0.018645078 -0.034325954 -0.014839585
-0.0054523163 -0.013382256 -0.017299343 -0.0013994714 0.006812913 0.023915295 -0.0029305543 0.012504258
0.0026405219 0.008795726 0.020416135 0.0189773 0.010202675 0.002336037 0.0068349177 -0.00989336
0.043813664 -0.0030023013 -0.0047024176 0.0065647094 0.0070276894 -0.0026150697 -0.006709797 0.016706495
0.0074549476 -0.002016495 0.0014343674 0.012480295 0.024048287 0.009162899 0.011709164 -0.0044575254
-0.0023647596 -0.007770212 0.0068657077 -0.017868716 0.052462496 0.008811219 -0.005549677 0.004450833
0.0051175836 -0.0141372895 0.0119151855 0.009916084 0.001313261 -0.007128769 0.003048982 0.004985776
0.028434884 0.0077413414 0.0010389681 0.0068784505 -0.000625239 -0.014560675 -0.005673286 -0.0152876815
0.05520436 0.02410398 0.005249626 0.017582852 0.005678477 -0.0054726726 0.0018715983 0.01937482
0.005185025 -0.01697344 0.008028431 0.025502011 0.017449005 0.008561363 0.00950153 0.0011617254

encoder.5.bias f4 [10]
00000000: ba24 fc3b a61b c2bb 439a ef3b 968d 183c
00000010: d953 75bb 5fe9 2d3c 1577 9f3b ce3b cbba
00000020: e14b dd3a 3591 10bb
0.007694808 -0.005923706 0.0073120906 0.0093111005 -0.003743401 0.010614722 0.0048664906 -0.0015505494
0.0016883576 -0.0022059206

decoder.0.weight f4 [6400, 10]
00000000: 5119 643d 8382 673d 6cde a23d 06aa 49bd
00000010: 84d4 2c3e 1058 393d ff51 64be f0de b43d
00000020: 6bbf a2bb 0ec7 1b3e 545a 2d3d 05b4 f5bc
00000030: 3849 b8bb 6a20 e43c 89eb d2bd c490 13be
00000040: 8123 6abe 6283 1c3e 59a9 343e ea7b e03c
00000050: 15b4 b7bc 33a9 783c b5aa a63c a68e 123e
00000060: d38b 92bd b77d 893d 3899 503e 60eb d0bc
00000070: 0dd9 633e e09a 2fbe 322f 373c a79f 73bc
00000080: a900 243e 28fc d0bd 563a 093d dcaa 433d
00000090: a627 2cbd cec6 da3d abd8 0b3b 531b 823e
000000a0: 2b3c 01be a68d fabd 65bd 9b3d e0af ba3d
000000b0: 0fd6 b1bd d5e2 56bd ecfa d9ba c23a 3b3e
000000c0: 7008 adbd ecb2 353e 93d4 04be 4247 7d3e
000000d0: f4b7 87be 43b1 233d 8fc0 1bbd e60d febc
000000e0: 72ec 083d 1ccb 163e dd11 de3c 6d32 aabd
000000f0: b255 05be 7388 bbbc 75c0 e1bd 6284 4abe
00000100: b53b f8bd 5aa4 2a3d 65ab adbd 4794 7f3e
00000110: 8468 e63d ef67 82bc 9e30 4d3d 01ea 16bd
00000120: 4316 87bd 4054 933e 574c 0ebe 17ee ef3c
00000130: 9f7a 763e 20db 7a3e d0f7 193e 34dd 6e3e
00000140: c792 0e3b f787 533a 5ae4 85be 3906 293c
00000150: 1428 513e 3260 57be c2be cebd 5a3a 0f3e
00000160: 873a f3bc 69c9 243d c69a 19be a609 573e
00000170: 1814 8fbe b5b0 ee3c eaf4 2f3e 1e47 dbbc
00000180: 938a d33b 9658 78be 673e a13e 5aed 2cbe
00000190: 439b 083d c24a 943d 4c88 053d 1ad5 03be
000001a0: 0907 2fbd 0328 02be 0973 c33d 48c6 743e
000001b0: b969 18be 939c 113d 7ff6 23be e115 013d
000001c0: 23d8 eb3a 75d1 403e 64e5 debd db53 663e
000001d0: fc1d bdbd 05bf 8e3d b3ec 643e 69c3 ecbd
000001e0: a6db 07be f9d3 7b3e 32e1 133d 9247 1e3e
000001f0: d35d 44bd c655 7a3d 10cf 2fbe c54c a6bd
00000200: 48ed 0fbe 1430 2f3e 4418 1a3e 9649 66bd
00000210: 26ef dc3d b75f 06be 7f45 92bd 5909 04be
00000220: 71e7 8d3d 7944 4a3e d58f 85bd 2423 96bc
00000230: 16c0 773e e55c 223e f901 473e f206 e43d
00000240: 82ea 0c3e b7be 56be 6ef2 46be 906d c93d
00000250: 6a21 34be 9716 f4bd f908 5d3e 0e9e 1f3e
00000260: f31e 903d 0fb1 56be 7a6a 683e 018b f1bd
00000270: 71bf ae3d af80 a2be dcf2 b0bd ab19 20bd
00000280: 169c 373e 1f0c e03d c792 8fbd 4813 90bd
00000290: 3ed8 91be 498a 5b3e 76e6 b7bc 776b cbbd
000002a0: bd2c 0e3e d68f 0c3e af95 2abe d467 103e
000002b0: d1c7 cbbd 3f9d e73d 9607 64be 7262 863d
000002c0: 4d4d 4e3e 4ded ffbd d782 473d 13c2 293e
000002d0: 96eb 74bd f8ab 1b3d 4735 153e ae16 bbbd
000002e0: c4f4 b9bd 98d1 bfbd 0043 0ebe 7119 78bd
000002f0: 75fa 56be 1445 143e 5592 033e dbe5 4cbd
00000300: 30f6 3b3d bc64 563e 0f7b 733e 0009 2f3e
00000310: 6a9c febd 6575 22be d59f ddbd fc12 e9bd
00000320: 118b 44bd d055 f43d 99f2 273d b7ba 8d3c
00000330: 3d54 43be 5796 a4bd 89c1 2abd e5be a0bc
00000340: a9c1 cc3d 747b d23b 3d05 7c3d 34c6 223e
00000350: 5af2 eb3d 2c71 563d a658 193e 75a6 49bd
00000360: 1b9b cc3d 18c2 293e ec5d 4abe 469d 943d
00000370: 1ca7 ffbd 803b 503d dd2c 313c 8f19 f1bd
00000380: 13f1 bbbd fafe f53d bc56 733d 2c86 e4bd
00000390: b93d cbbd 8023 273e 228f 40bd 43bb 143d
000003a0: bcd1 0abd ca27 a5bc f5cd 383b f355 93bd
000003b0: 168a b53d 985c 1abe df71 6f3e 6e1d a2bd
000003c0: a058 9abe 48d6 713e 006c 5ebb 299c dbbd
000003d0: 198c 6fbe 8402 a9bd b23b 10be 0bc8 94bd
000003e0: f609 0ebe 994f 753d 95d2 893c 814f 803d
000003f0: af42 f1bd 8ddf 173e 0872 47bd 9431 3bbd
0.055688206 0.05652095 0.0795258 -0.049234413 0.16877943 0.04525 -0.22296904 0.088315845
-0.0049666665 0.15212652 0.04232247 -0.029993067 -0.0056239627 0.027847487 -0.10298831 -0.14410692
-0.22865106 0.15284494 0.17642726 0.027402837 -0.022424737 0.015177059 0.020345071 0.14312229
-0.071555756 0.06713431 0.20370948 -0.02550286 0.22250767 -0.17148924 0.011180686 -0.014869607
0.16015877 -0.10204345 0.0335029 0.047770366 -0.04203 0.1068245 0.002133886 0.25411472
-0.12620609 -0.122340485 0.076044835 0.09115577 -0.086834066 -0.052462418 -0.0016630567 0.18284133
-0.08448875 0.17744035 -0.12971716 0.24734214 -0.26507533 0.03996397 -0.038025435 -0.031012487
0.033428617 0.14725918 0.027108127 -0.08310399 -0.13020971 -0.022892212 -0.110230364 -0.19777063
-0.12120763 0.041660644 -0.084799565 0.24958907 0.112504035 -0.0159187 0.050095193 -0.036844257
-0.06596043 0.28775215 -0.13896309 0.029288335 0.24070214 0.24497652 0.15035939 0.2332657
0.0021754967 0.00080692716 -0.2615078 0.010316425 0.20425445 -0.2103279 -0.10094978 0.13987103
-0.029690994 0.040231142 -0.15000448 0.20999774 -0.27945018 0.029136995 0.17183271 -0.02676731
0.0064557283 -0.24252543 0.31492922 -0.16887417 0.033351194 0.072408214 0.032600686 -0.1287426
-0.04273132 -0.12710576 0.095434256 0.23903763 -0.1488408 0.03554971 -0.16012 0.031515006
0.0017993491 0.18829902 -0.108835965 0.22492926 -0.09234235 0.06970028 0.22355919 -0.11560709
-0.13267383 0.2459258 0.036103435 0.1545699 -0.04794104 0.061116956 -0.17168832 -0.081201114
-0.1405536 0.17108184 0.15048319 -0.05622252 0.107878014 -0.1312245 -0.071421616 -0.12894191
0.069289096 0.19752683 -0.065215744 -0.018327303 0.24194369 0.15855749 0.19434346 0.11134137
0.13761333 -0.2097119 -0.19428417 0.098353505 -0.17590871 -0.11918371 0.21585454 0.15587637
0.07037153 -0.2096598 0.22696868 -0.11794091 0.08532608 -0.31738803 -0.08640072 -0.03908698
0.17930636 0.10939812 -0.070104174 -0.070349276 -0.28485292 0.2143947 -0.02244876 -0.09932607
0.13884254 0.13726744 -0.16658662 0.14102107 -0.09950221 0.11309289 -0.22268519 0.06561746
0.20146675 -0.124964334 0.048708763 0.1657794 -0.059794985 0.0380058 0.14571105 -0.09135185
-0.090798885 -0.09366149 -0.13892746 -0.060571138 -0.2099398 0.14479476 0.1284879 -0.050023895
0.04588908 0.20936865 0.23777412 0.17093277 -0.12432177 -0.15865095 -0.10821501 -0.11380574
-0.047984187 0.1193043 0.041002844 0.017300947 -0.19075103 -0.080364875 -0.041688476 -0.019622276
0.09997875 0.006423408 0.061528433 0.15895921 0.11520834 0.052354023 0.14975223 -0.04923101
0.099905215 0.16577947 -0.19762391 0.0725656 -0.124830455 0.050837994 0.010813919 -0.11772453
-0.09176841 0.120115235 0.05940889 -0.11158404 -0.09923882 0.16322136 -0.047011502 0.0363114
-0.033891425 -0.020160574 0.0028198932 -0.07194128 0.088642284 -0.15074384 0.23383282 -0.079157695
-0.3014574 0.23616898 -0.0033938885 -0.107231446 -0.23393287 -0.08252433 -0.14085272 -0.07264718
-0.13870987 0.059890363 0.016824046 0.06265164 -0.11780297 0.14831372 -0.048692733 -0.04570158

decoder.0.bias f4 [6400]
00000000: 4909 803c bd2b 3d3c 2f03 8dba df65 c73c
00000010: c89f e43b 33b2 133c 2965 91bc eb77 ccbc
00000020: 8c6e 13bd 6b8a 4bbd c588 28bb b34f e33b
00000030: dcd8 9bbb 73e0 8b3b 819a 83bc 6882 143d
00000040: 50fa be3c 2b52 50bb 9476 f73b 92e8 383c
00000050: 04e0 253c 08b2 233c 83a6 873c 1f26 853b
00000060: 6bf3 a03c 7545 4fbc 3eec db38 29df be3c
00000070: c410 09bc bd1f c9bc 9db6 78bc 75de 22bc
00000080: a7b1 11bb 01a1 833c 52af 56bc 5f6f 613c
00000090: c522 4e3a 22e1 033a fc9b 48bc a3e8 19bc
000000a0: 286e 51ba f812 753c f2dc e43b 00e5 0dba
000000b0: 25fa 19bc b7b7 3e3b 9878 9cbc 6a55 b3bc
000000c0: 9911 623c 2f1d 9b3c ef0b b9bb 0c3a a53c
000000d0: 761d 43bb 136a 71bc fde0 acbc 40ba 27bd
000000e0: 23e2 9cbc 689e f7ba 01de 743b 8216 8d3a
000000f0: 5a41 363b c3a9 a93b a8e9 f63b ed69 53bc
00000100: ba9e 08bc a711 1cbc ca12 7fbb 8142 9d3c
00000110: b899 c33c 445f df3c b1c1 783b 620e 1d3d
00000120: 7501 af3a 58cc 7cbb 85bd 413c be28 2ebc
00000130: 919d 32bc 1c20 f83c a9c9 c93c 853e e33b
00000140: 1d6f 053c b113 f9bb 278c 323b 888c 1e3b
00000150: ff74 12bc 1b8b e03c 8b1b 963c 033a 2f3d
00000160: 57e0 8a3c 5f37 fd3d 28fe 423d bb56 51ba
00000170: 1b63 023c 4b8a f5bb 856b e43c f6b0 1d3b
00000180: c26b 4d3c bccb 98bb d2ab 6d3c 6969 c33b
00000190: 44c8 9fbb 3854 cbbb 1970 143c 2a3a 82bb
000001a0: c7d5 2d3c 5aa6 d93c 8d3b 913d a4ba 9f3c
000001b0: 5b61 b03d 9f9b 103d fc9a ad3c 5350 933c
000001c0: be1e c83b 493b 193d b1c1 9a3c 4198 1fbb
000001d0: 319d 5c3b bd75 123d 12e2 3e3c 48f7 153c
000001e0: 5e32 503c 5d5e 92bc c5f4 b13a 4ce6 a13b
000001f0: 8fe5 803b 05c2 b73d 269f 933d 7892 713c
00000200: a3b7 30bb b6e5 d23c e125 b6bb ef9a eabb
00000210: 273d 06bd 72d1 9a3b 29df a2bc 9108 423b
00000220: 6bd0 013d f8ff 5a3c 8b9e 69b8 72d2 adbb
00000230: 017c 313b 67cd 303c 32d4 8a38 b83a 153d
00000240: 3d66 fd3b df27 773b ffc2 943d 0d6a 9a3d
00000250: ea89 0fbd 0757 c73c 6185 d6bb c7e6 a93a
00000260: 9368 d93a cbfd d9bb 771f 2f3b 8a31 5a3d
00000270: 51df d83c 0cce b23c 6e8a d13c becc 843b
00000280: 44a2 f9bb fd96 903c a4ef 1d3b ee29 473c
00000290: 6f0e 193c 4d0d c33c b372 cc3b 7642 2abd
000002a0: ec50 a0bc d657 69bd d004 50bc fbe3 8bbc
000002b0: 0b2d 4dbc 7e91 b03c fa1b e33c 144d 513c
000002c0: 3e41 043c 34c0 943c 4456 213c f52a 853c
000002d0: 8b74 503c 86bb e83c de47 a33c ec17 fe3b
000002e0: 7c29 183d 3703 bb3c fd36 a8bc 1c56 11bc
000002f0: 418d 5bbc 1097 debc 1f3c 5fbc bdf9 84bc
00000300: 2fb4 4dbc 342e 86bc 8833 a63b cc70 ab3c
00000310: d887 e53c 78c7 343b 0ee0 3e3c 5d62 72ba
00000320: 943f 9a3b 8f5e 343c 4de1 be3c 6a66 463c
00000330: a732 aebb 0158 cebb e468 c8bb 2a44 b2bc
00000340: cb6c dcbb a2c0 683b cec2 85bb 6ee7 67ba
00000350: 5896 8e3d 7514 89bb 1805 843d 6af0 943c
00000360: 2b88 35bc 94ce 093c ae9f 083a 3663 ae3b
00000370: 44c3 123c 623b 3a3c 5109 ff3b 8755 bd3b
00000380: 2a54 b43b 8d9a fb3b 4da7 1cbc 2eb9 3fbb
00000390: ad8e babc 76ff a63a e97e 9b3d 7641 883d
000003a0: d786 8a3d 8400 513c c20a 883c 1b68 57bc
000003b0: 4918 b1bb 0357 9eba cc5d e0ba 14ff 753c
000003c0: 0389 173c c489 1f3c bb67 123b d7b2 cc3b
000003d0: d0d6 4c3c f345 903b f569 4b3d 25ac a53c
000003e0: bf31 d73c 3296 f73c b8e3 153c f669 af3d
000003f0: 3649 47bc 14b8 9a38 b5ce 083b a055 a4bc
0.015629428 0.011546073 -0.0010758395 0.024340568 0.006977055 0.009014654 -0.017748432 -0.024959525
-0.035994098 -0.049692553 -0.0025716287 0.006936991 -0.0047560763 0.0042687 -0.016064884 0.036257178
0.023312718 -0.0031787257 0.0075519774 0.011285918 0.01012421 0.009991176 0.016558891 0.0040633823
0.01964732 -0.012650837 0.00010486737 0.02329977 -0.008365814 -0.024551267 -0.015180257 -0.009940733
-0.0022231133 0.016067984 -0.013103323 0.013759463 0.00078634574 0.0005030801 -0.012244221 -0.009393844
-0.0007989132 0.014958136 0.0069843465 -0.0005412847 -0.009398018 0.0029101202 -0.019100472 -0.021891315
0.013798141 0.018934814 -0.0056471745 0.02016928 -0.0029772199 -0.014734763 -0.021103377 -0.040949106
-0.0191508 -0.0018891813 0.003736377 0.0010764154 0.0027809949 0.005177708 0.007535178 -0.012903673
-0.008338625 -0.009525693 -0.0038921111 0.01919675 0.02387701 0.027267106 0.0037957246 0.038343795
0.0013351875 -0.0038573947 0.01182497 -0.010629831 -0.010901825 0.030288748 0.024632292 0.006934943
0.008144167 -0.0076012244 0.0027244182 0.002419265 -0.008939027 0.02741008 0.01832368 0.042779934
0.016952677 0.12364077 0.047605664 -0.0007985641 0.007958199 -0.0074932924 0.0278833 0.0024061776
0.0125378985 -0.004662959 0.014506297 0.0059634936 -0.0048761684 -0.006205108 0.009059929 -0.003974219
0.0106100505 0.02656858 0.070914365 0.019498177 0.08612319 0.03530466 0.021192066 0.017982638
0.0061071804 0.037410054 0.018891187 -0.0024352225 0.003366303 0.035756815 0.011650579 0.009153195
0.012707321 -0.017867262 0.0013576975 0.0049407836 0.0039336155 0.08972553 0.072080895 0.0147443935
-0.0026964925 0.0257443 -0.0055587147 -0.007159583 -0.032773163 0.004724675 -0.019881802 0.0029607157
0.031692903 0.013366692 -5.5699184e-05 -0.005304628 0.0027081969 0.010791159 6.619877e-05 0.03643295
0.007733135 0.0037712974 0.07263755 0.07539759 -0.035043634 0.02433349 -0.0065466617 0.0012962454
0.0016586952 -0.006652569 0.0026721635 0.0532699 0.026473673 0.021826766 0.025578704 0.0040527275
-0.0076182205 0.017650122 0.0024099136 0.012155993 0.00934182 0.023810053 0.006239259 -0.04156729
-0.019569837 -0.056968533 -0.01269646 -0.017076483 -0.012522946 0.021553751 0.027723301 0.0127747245
0.008072196 0.018158056 0.0098472275 0.016255835 0.0127230985 0.02840973 0.01993173 0.0077543166
0.037148938 0.022828681 -0.020534033 -0.008870628 -0.013400377 -0.027171642 -0.013625174 -0.016232366
-0.012555166 -0.016379453 0.005072061 0.02092781 0.028018877 0.0027584713 0.0116500985 -0.00092462247
0.004707286 0.011008873 0.023300791 0.012109378 -0.005316097 -0.006297112 -0.0061160196 -0.021761019
-0.0067268363 0.0035515209 -0.0040820604 -0.00088464364 0.069622695 -0.004183347 0.06446284 0.018181045
-0.011079828 0.0084110685 0.00052117824 0.0053218855 0.008957688 0.011366697 0.007783093 0.005778018
0.005503197 0.007678336 -0.009561372 -0.0029254663 -0.022773111 0.0012740928 0.075925656 0.06653111
0.06764 0.012756471 0.016606692 -0.013147379 -0.0054045063 -0.0012080375 -0.0017117797 0.015014429
0.009248975 0.009737436 0.002233966 0.0062469053 0.012502387 0.00440287 0.049661595 0.020223686
0.026268838 0.030222986 0.009148531 0.08565132 -0.012163451 7.3775795e-05 0.002087516 -0.02006036

decoder.3.weight f4 [16, 6, 5, 5]
00000000: c34e 1c3d 6cfe acbc b238 8e3c f57f ecbc
00000010: 8147 34bc 92b0 8a3c 2ff7 d5bc 5395 c53c
00000020: eab0 b6bd aabc a1bd d495 5c3d 8bb3 e8bb
00000030: 2815 6bbc f436 2fbd 6f75 9bbd 6d35 56bd
00000040: cb0a 6cbd ab04 b8bd d370 f3bd ad2b 19be
00000050: 1326 9fbd 8bb0 d9bd 8b9b 88bc f936 a7bd
00000060: 5b10 07be 57b2 d83d 993e 2d3d 3779 22bd
00000070: 79f6 2a3d e1cb 673c 5a97 863b 2a5c 05bb
00000080: ba18 a6bc 4707 bebd 02e9 9dbc 1d57 8abd
00000090: 2dfb 48bd 4f54 bcbc b8de e73c 0040 06bd
000000a0: 382d 613b 47a1 85bd 984b 503d 8922 71bc
000000b0: 7ae7 fcbc 7277 23bd 3628 c73b 0698 64bd
000000c0: 3c4b 44bc 260c 263d d7c2 83bd 72d1 11bd
000000d0: 6d07 9fbc 1393 91bc a5ee 5bbc fbc0 62bd
000000e0: 3b83 d8ba 52ba 80bd 80b1 abbc 1316 21bd
000000f0: 7e71 94bd 6943 5cbd 7336 0c3d 245c 1cbd
00000100: 65e2 70bd 2848 a7bc 1724 cabc 6fc8 983d
00000110: 9f4c 84bd ebdc 11bd 200e 013c fc7e 1f3d
00000120: 4f5a f83c 51cb cb3c 70b3 2abd 1ce4 fbbb
00000130: 4ee6 c73c 7b35 943d c48d 4a3d 87a4 353d
00000140: 7ddc 853d 505e 973d 63e0 ec3d 8dd7 ce3d
00000150: d94a d63c 7004 843d 1430 7c3d eedc ab3d
00000160: 27b2 a33d 296b c8bb f0bc 6d3d de1d dc3c
00000170: 52af 4b3d ce81 aabb 7a89 94bc 8c42 c33c
00000180: e246 0f3d 7955 423d e6b4 d2bb ce3b 87bc
00000190: e5cf 00bc 6e2a c63c d45a 67bc 50db ad3c
000001a0: 6b46 98bd add5 6ebc 1505 18bd 5a1f 613d
000001b0: b325 213c 8a25 33bd 2f5d 613d 2c9e 8abc
000001c0: 4f5b 463b 12be 963d 3620 d83d c4d8 143d
000001d0: 902e 8c3d 0fa4 ab3d 79e3 0d3d fc51 fa3d
000001e0: 4b01 783d 858f 203d 22d5 df3d d19c 383d
000001f0: bbf9 cc3d a4ce b9bd 7eec bc3c 678f 47bd
00000200: 74ba 46bd ef3d 58bd 65ae 58bd ae60 42bb
00000210: c4c7 083b 1c6b c4bc bab6 8dbd c10a dcbc
00000220: 8f92 2cbd 93bd 89bd 218c e3bd ecce 68bc
00000230: 497b 2cbc 1b8c 31bd 4efb e83c 4184 21bd
00000240: 1101 8fbc dd41 a4bc e4ac 77bc 8a62 a13d
00000250: 4c5f 3e3b e98b 683d a145 ff3c 8d12 7c3d
00000260: 7c34 76bb f9b4 8c3d 6ac2 1b3d 14d9 73bb
00000270: 8c25 c7bc a491 263c 2612 603d 3a17 78bc
00000280: a3c0 103d 37c1 3f3d c741 c73d 172a d63c
00000290: fe00 cb3c 8fea 2f3d 4113 c83b 6398 f63c
000002a0: 943d 013d 5b3d 173c 9fde dbbc 7331 553c
000002b0: 1251 c83c 507c 3c3d cd27 37bc c71d 313d
000002c0: cf93 823a bdd6 72bd 44da d5bc 4502 75bd
000002d0: 8754 98bc 46fe 0f3c f1c4 9bbd f16c 26bd
000002e0: d957 083d 3eff ebbc e33c 453c 0aa3 b33c
000002f0: c6d2 c0bd 3480 0ebd ac54 40bd d5fb 29bc
00000300: 22e6 83bc 829a aabd 82b0 6fbd 7308 bbbc
00000310: 8a87 b6bc 6ede fdbd 0fda 3bbd d804 86bd
00000320: e627 b93c 0dcd 7cbd af73 063d 3cd1 50bd
00000330: c0d0 dbbc c855 08bd 7c66 dfbc 2baf fa3c
00000340: 7716 933c 2b14 51bd 6354 1e3d dd98 ab3d
00000350: 8793 d039 20ef 4b3d 8fa3 833d 6108 863d
00000360: a506 9c3c a71f 39bd 2b5a 88bd c071 2d3c
00000370: 6e56 1fbd f407 893d 42a4 953d 47c1 b4b9
00000380: 9d98 51bd b3da 173c 3d49 f53c 4a36 8c3c
00000390: 1443 8a3c 8f25 623d 5dca f43c 8ad7 333c
000003a0: 0ac8 963d af1b c53c 63e9 e03c 26ee 01bc
000003b0: 5b04 f13c 6af7 ce3d c8b1 243d c9a6 553d
000003c0: 14c0 893d 494b b43d 558a 903d eeca fd3c
000003d0: b86b 6e3d 4cf8 963d 4efd 853d 7bd8 923d
000003e0: 7b50 e43c 8ed6 113d b084 29bd 9f7c a0bd
000003f0: 841b 843c a975 90bc 692d 52bc bc16 49bd
0.03816105 -0.021117412 0.017361019 -0.028869608 -0.011003376 0.016929898 -0.026118843 0.024119055
-0.089204624 -0.07897313 0.053853825 -0.0071014813 -0.014348306 -0.042777017 -0.07590758 -0.052297045
-0.05762748 -0.08985265 -0.11886754 -0.14958067 -0.07770934 -0.10629376 -0.016675731 -0.08164782
-0.13189833 0.105808906 0.042296026 -0.03966638 0.04173896 0.01414773 0.004107398 -0.0020349124
-0.020275462 -0.09278732 -0.019276146 -0.06754897 -0.049067665 -0.02298942 0.028304443 -0.03277588
0.0034359228 -0.06524902 0.05085334 -0.0147177065 -0.030872095 -0.039908834 0.0060777916 -0.055809043
-0.011980828 0.04053893 -0.06433647 -0.035600133 -0.01941272 -0.017770326 -0.0134235965 -0.05535982
-0.0016518602 -0.06285538 -0.020958662 -0.039327692 -0.072482094 -0.053775225 0.034231614 -0.03817381
-0.058809657 -0.020420149 -0.024675412 0.07460105 -0.06459927 -0.035611074 0.007876903 0.03893946
0.0303165 0.024877222 -0.04167503 -0.007687105 0.02440181 0.07236763 0.049451604 0.04434636
0.065361954 0.073910356 0.11566236 0.10099707 0.026158737 0.06446159 0.06156929 0.08391748
0.07992964 -0.00611629 0.058041513 0.02686971 0.049727745 -0.005203462 -0.01813196 0.023835443
0.03497971 0.047444794 -0.006430256 -0.01650801 -0.007862066 0.024190154 -0.014120776 0.02122274
-0.07435306 -0.014577311 -0.03711422 0.05496154 0.009835648 -0.043736972 0.055020507 -0.016921125
0.0030266827 0.07360472 0.10553019 0.036339536 0.068448186 0.08380901 0.034640763 0.122226685
0.060548108 0.03919937 0.10929324 0.045071427 0.1000857 -0.09072617 0.023061987 -0.048720744
-0.04851766 -0.05279344 -0.05290069 -0.0029659676 0.0020871023 -0.023976855 -0.06919618 -0.026860597
-0.042131957 -0.067256115 -0.11110712 -0.01420949 -0.01052744 -0.043346506 0.028440144 -0.039432768
-0.017456563 -0.020050937 -0.015116904 0.07880123 0.00290485 0.056774054 0.031161131 0.06154113
-0.0037567904 0.06870455 0.038027205 -0.0037208246 -0.024309896 0.010166559 0.054704808 -0.015142256
0.035339963 0.046815123 0.09729343 0.026143117 0.024780747 0.042948302 0.006105811 0.03010196
0.031552866 0.009230937 -0.026839552 0.013012278 0.02445272 0.04601699 -0.011178923 0.04324129
0.0009962263 -0.05928682 -0.026105054 -0.059816618 -0.018594993 0.008788651 -0.07605923 -0.04063124
0.033286903 -0.028808232 0.012038442 0.021928329 -0.09415202 -0.034790233 -0.04695575 -0.010374983
-0.016100947 -0.08330251 -0.05851794 -0.022831177 -0.022281427 -0.12395941 -0.045862254 -0.065438926
0.022602033 -0.06171899 0.03282517 -0.05098079 -0.026832938 -0.033284932 -0.027270548 0.030601105
0.017955048 -0.051044624 0.038654696 0.08378766 0.00039782768 0.049788594 0.06427681 0.06544567
0.019046137 -0.0451962 -0.06657823 0.010586202 -0.038900785 0.0669097 0.0730672 -0.00034476278
-0.051170934 0.009268451 0.02994215 0.01711573 0.016877688 0.0552116 0.02988165 0.0109766815
0.07362373 0.024061052 0.027455037 -0.007930314 0.029421022 0.10105784 0.040208608 0.05216101
0.06726089 0.08803422 0.07057635 0.030980553 0.058208197 0.073715776 0.06542455 0.071701966
0.027870407 0.035605006 -0.041386306 -0.078362696 0.016126402 -0.01763423 -0.012828209 -0.049093947

decoder.3.bias f4 [6]
00000000: 9d9b 74be 72d8 643e c0f2 79be ab4e c7bd
00000010: d930 563e b9d0 133e
-0.23887487 0.22348192 -0.24409008 -0.097318016 0.20917071 0.1443509

decoder.5.weight f4 [6, 1, 5, 5]
00000000: 7cc1 1fbe 5dde 04be 17bd d6bd c4d6 dbbd
00000010: 5f8e 95bd 419e 0cbe daac 30be 55ae 00be
00000020: 47be 933c 6e20 873d 553f 4dbd 1b57 2e3d
00000030: 2c42 b33c a5c0 4b3d cc83 343e db50 f23c
00000040: 67ee ec3d 7a6f 673e a788 833e 656e 453e
00000050: 5e8a 8d3d 1c80 353e 7b35 3f3e 772a 583e
00000060: 5c6f 0a3e 3f1e 3ebe d7e7 8cbe 1693 5dbe
00000070: 7da8 15be aaf0 8bbc deb9 30be 20e7 80be
00000080: 887b 9ebe 9a45 79be e921 89bc bc1e a6bd
00000090: 4e6d babd d52f 1cbe 496d 20be 7f23 7c3b
000000a0: 0110 10be 260c fabd 3e6d e0bd eba7 d6bd
000000b0: df73 9d3c 500d a7bd 5f63 dfbd c7a7 69bd
000000c0: 9d04 1bbd 545d 693d 11dd 983d e787 0c3e
000000d0: 4bd1 363e d5a3 053e 296b 233d 279f ec3d
000000e0: 4fa5 ad3d 7493 053e 1e45 cb3d 245d bd3d
000000f0: e91a 6d3d 0a55 4f3c 8986 423d 3803 973d
00000100: 097c 373d 37fb 1d3d 0307 fa3d 4523 443e
00000110: a7ff 093e b1be b93d 23fe 163d a90e 953a
00000120: 7373 073e 18d0 053e 8e63 cb3d 3b96 d63d
00000130: 815b 3f3d bbbc 72bd 5dc4 f1bc df3a 21be
00000140: 6244 713e 0120 343e 7786 bd3a 86e3 09bd
00000150: 5777 703d 8f4c 7f3e 6fc4 b93d b4a6 443e
00000160: dd16 453d 0106 a1bd 03ae b73d c56b 053e
00000170: 3979 e2bd 3f5b 1ebe 7e8f 33be fef7 1abe
00000180: 6df5 b8bd 70da ac3c f098 79be ca6e 90be
00000190: 2ced 87bd 9a23 1ebe b2d3 debd b1a1 c5bd
000001a0: df6e 0ebd 9640 58be 57d6 42be 135f 63be
000001b0: cfd8 4bbe 2837 82bd 2c29 86be b0cc 71be
000001c0: 11e4 e0bd e6c7 d9bd ed72 30be fe91 2bbe
000001d0: ae6f 6ebe 398b 5bbe dc6b 1fbe 74c1 07be
000001e0: ea4e 5abe 17b8 67be c7df 3dbe a288 76be
000001f0: 9ff4 36be 7113 813d 2ab8 fcbc 72dd 93be
00000200: d2dd 23be 5f4c e3bd 10cf d03c c050 84be
00000210: 3171 c2be a5d9 68be 79a0 a63c 6cbc 41bd
00000220: 3a3a 89be cc98 24be bb9c e3bd 3c78 e03d
00000230: 344b bbbd 49fc 85bd 70c1 fbbc c7cb ad3d
00000240: 6ca9 e73d 0c30 ab3c ff6c 1a3c b11b 54bc
00000250: 5a9c 573c adfb 16bd
-0.15601152 -0.1297545 -0.10485285 -0.10734323 -0.07302546 -0.13732244 -0.17253438 -0.12566502
0.018035067 0.06597982 -0.050109226 0.04256354 0.02188214 0.049744267 0.17628402 0.02957957
0.11568909 0.22601119 0.25690195 0.19280393 0.06911157 0.17724651 0.18672745 0.21109949
0.13519043 -0.18566225 -0.2752063 -0.2163814 -0.14615054 -0.017082531 -0.17258403 -0.25176334
-0.30953622 -0.24342957 -0.016739802 -0.08111331 -0.091028795 -0.15252621 -0.15666689 0.0038473306
-0.14068605 -0.122093484 -0.10958336 -0.104812466 0.01922029 -0.08156836 -0.109076254 -0.05704477
-0.037846196 0.05697377 0.0746404 0.13723718 0.17853276 0.13050778 0.039897118 0.115537934
0.08478796 0.1304453 0.099252924 0.09246281 0.05788699 0.012654552 0.047491584 0.07373661
0.044796024 0.038569655 0.12208369 0.1915408 0.1347643 0.090695746 0.036863457 0.0011372167
0.13227634 0.13067663 0.09931098 0.10477873 0.046718124 -0.05926202 -0.029512579 -0.15745114
0.23561242 0.17590334 0.0014459629 -0.03366425 0.05870756 0.24931549 0.0907067 0.19204217
0.048117507 -0.07862473 0.08968737 0.13029392 -0.11058278 -0.15464495 -0.17535207 -0.15133664
-0.09031186 0.021100253 -0.24374747 -0.28209525 -0.06637034 -0.15443268 -0.108802214 -0.09649981
-0.034773704 -0.21118388 -0.19027077 -0.22204237 -0.19906925 -0.063581765 -0.26203287 -0.23613238
-0.10981 -0.10633831 -0.1723134 -0.1675491 -0.2328479 -0.21439828 -0.15568489 -0.1325739
-0.21319166 -0.22628818 -0.18542396 -0.24075559 -0.17866753 0.06302536 -0.030849535 -0.28879887
-0.16002586 -0.11098551 0.02548936 -0.25842857 -0.37976983 -0.22739275 0.020340191 -0.047298834
-0.26802236 -0.16073912 -0.11113878 0.10960433 -0.09145203 -0.0654226 -0.030731887 0.08486133
0.113116115 0.020896934 0.009425401 -0.012946055 0.013159836 -0.03686111
