Autoencoder-on-MNIST-in-Pytorch/Models/model_e14.pt (torch, 561729 bytes, 11 tensors)

encoder.0.weight f4 [6, 1, 5, 5]
00000000: 7434 7e3e 44f5 643e 6d0d 953e 1bd3 303e
00000010: a9cb 723d 6741 b93d 4c31 963e 5a1e 973d
00000020: 9f87 6e3c 7beb afbb 1c9a 2c3e 84e0 a63d
00000030: a951 473e a902 5c3d 30a1 89bd 11a2 33bc
00000040: a6f0 a0bd dcb3 e23c eead 9e3c ba1a bf3d
00000050: c7c3 bb3c db28 6abc cc60 0dbd 14dd 023e
00000060: 9cab 4a3c 7eb5 e3bc fe66 fc3c f2f0 18bd
00000070: ab20 3a3e 2f1b 1dbe cf73 813b 6d7b 2d3e
00000080: a66a 9c3e 6df9 da3e 2d37 693e ad86 7d3d
00000090: 28ec c7bd 8348 863e ea7e c83e 368b 8e3c
000000a0: 641b e53c 8a18 74be 5dac f6bb b284 a7bd
000000b0: 2b92 71be da42 b83d 84ee 1fbc 76d6 4bbe
000000c0: e28d df3c 751c 49be 88c3 933d ff81 2f3e
000000d0: f1ed 0e3c baf1 8cbd ea8f 553d 603d 9e3c
000000e0: dc15 1bbe 7d76 eebd 0b00 563e 0537 fb3d
000000f0: dcd4 1abe d87c 08be 6df9 213e f672 813e
00000100: bffa 4b3e 5623 f2bc 6fa3 ac3c f5a1 523e
00000110: 4c73 e03d 81e5 45be 477c e83d d64f ee3d
00000120: 7e09 123e 8508 da3b 4659 a0bd 10cf 38be
00000130: e48f 02be c465 edbc 3c60 c1bd 86e5 34be
00000140: dcda 023d 271e 67be 5225 243e 4c24 8b3e
00000150: 002b 423d 89a2 80bd 0284 2fbe 1856 883e
00000160: 9109 de3e 8794 a93e 489a 1abe 0ee8 3cbe
00000170: f0cb f03d e298 383e c14a 763e 5ad3 37bc
00000180: 9e97 47be 2305 903d ff1b 93bd b7d4 f63d
00000190: 4b48 363e dbe4 5dbc af51 c03d fb6d 8cbd
000001a0: b1cd 233e bd43 393e 22ce 683e ffd5 aa3d
000001b0: 3378 bb3d d3eb 9f3e 6138 4b3e e126 8e3c
000001c0: bfde c13c eeac 4d3e a853 823e 0d09 7a3d
000001d0: d217 a33d 481e e23c d1f9 563e fed7 883e
000001e0: c595 163e 20ec 953d f4c5 813d c137 203d
000001f0: 31f8 903d e44c c2be 4a4a 79be 0e82 433e
00000200: f087 623e 802c 483e 4ab5 9ebe 2b98 76be
00000210: f640 2c3e 7ded f83d 6a16 af3b 5aaa 21be
00000220: 1d2f 42bd 899a 9e3e c97f 71bb 289c a6bb
00000230: 3a08 57be 6577 613e 99fc 543e 057e a6bd
00000240: a7df bc3d 93fa 293d 12a2 80bc 73bf 0d3e
00000250: cf7e 71bd fccb 89bd
0.24824697 0.22359186 0.29111806 0.1726803 0.059276257 0.09045678 0.29334486 0.07378836
0.014558702 -0.0053686476 0.16855663 0.08148292 0.19464745 0.053713474 -0.06720197 -0.010963933
-0.078584 0.027673654 0.019370046 0.093312696 0.022920502 -0.014291967 -0.03451614 0.12779647
0.012370016 -0.027796503 0.03081083 -0.03733916 0.18176524 -0.15342401 0.003950573 0.16941614
0.30550116 0.42768422 0.22774954 0.061896015 -0.0976184 0.26227197 0.39159328 0.017400365
0.027967162 -0.23837486 -0.0075278715 -0.081796065 -0.23590915 0.08997126 -0.009761456 -0.19906029
0.027289335 -0.19639762 0.07215029 0.17139433 0.008723722 -0.06882043 0.0521392 0.019316375
-0.15145057 -0.116436936 0.20898454 0.122663535 -0.15120262 -0.13328874 0.15817805 0.2528302
0.19919871 -0.029557865 0.021074025 0.20569594 0.10959491 -0.1932583 0.11351829 0.11636321
0.14261433 0.0066538476 -0.078295276 -0.18047738 -0.12750202 -0.02897919 -0.094421834 -0.17665681
0.031947 -0.22570096 0.16029862 0.2717613 0.04740429 -0.06281001 -0.171402 0.26628184
0.43366674 0.3312113 -0.15097916 -0.18447897 0.11757648 0.1802707 0.24051954 -0.011219824
-0.19491431 0.0703223 -0.07183074 0.12052291 0.17801015 -0.013543333 0.0939058 -0.068569146
0.15996434 0.18092246 0.22734883 0.08341598 0.091537856 0.31234607 0.19845726 0.017352523
0.023665784 0.20085499 0.2545445 0.061043788 0.07963528 0.02760233 0.20993735 0.2672729
0.1470557 0.07320428 0.06336585 0.03911567 0.07078589 -0.37949288 -0.24344745 0.1909258
0.22122169 0.19548225 -0.30997688 -0.24081485 0.16821656 0.12154672 0.005343248 -0.1578764
-0.047408212 0.30977276 -0.0036849848 -0.0050845332 -0.20999232 0.22018202 0.20799483 -0.08129505
0.09222346 0.04149873 -0.015702281 0.13842563 -0.058958825 -0.0672836

encoder.0.bias f4 [6]
00000000: 33d5 883e 119f c93e b0e2 e13e 0636 783e
00000010: bc6e b8bc 2055 cc3c
0.26725158 0.3937917 0.4411826 0.24239358 -0.02251374 0.024942935

encoder.2.weight f4 [16, 6, 5, 5]
00000000: dc5c b33b e341 8c3c bf98 1e3c 9d9b 143c
00000010: 022d 133a e314 a3bc 4115 9bbc 6926 6cbc
00000020: d2ba adbc fd2b c0bc 31e5 433d ad3a 963d
00000030: db60 a63d 0c87 3e3d 7926 fbba 24e4 65bc
00000040: e855 313d 8918 853d 0687 7d3d 93f1 ae3d
00000050: be40 8c3d 9629 673d 87dc 053e 6d74 053e
00000060: 97b2 ae3d 659b 0fbc 2beb 3d3c a690 1f3b
00000070: 4e1e 693c 55f0 1c3c 3226 afba 19e6 f63a
00000080: 73f3 103c dfe9 423d 4426 8d3d 303e c13d
00000090: cf6f 933d 34a6 f33d 9882 033e c11b e73d
000000a0: 6f35 233e 38db 383e 3bb3 fc3d b02b 2a3e
000000b0: 8dc6 e63d 37af bd3d 98a5 ce3d 8f9a 903d
000000c0: 0472 c13d 99c4 823d 510a 1b3d 23d2 bf3c
000000d0: fab9 1e3a 6e9f 073c afa5 ed3c b0c7 5b3c
000000e0: 9851 353d 61b1 8f3d 4d08 d03d c1a4 873d
000000f0: 9df3 1d3c 1e1e 363d 8d79 8d3d 8267 ca3d
00000100: 2487 dc3c 0450 363d e346 5f3d 7cd7 d63d
00000110: cef7 823d bb25 99bc 6aa4 b93d cdea 133d
00000120: 8cca 643c 00bc d93c 9b30 003d 8d99 5abd
00000130: 0727 8cbd f6b3 c0bd d27f c3bd bbd9 c0bd
00000140: db88 7ebd f22b 70bd be39 85bd 9170 73bc
00000150: a5e5 26bd 6fdc 213d 7570 1f3c c849 57bb
00000160: 7083 323d 347d 473d d7bc 6e3d 3f4f e53c
00000170: c746 acbb 623d 823d 997c 903d f891 09bd
00000180: cb2f ca39 345e 8fbc 26bc 283d f3d6 983d
00000190: 6046 893d 42df b83c 77cd 403c d2ef 773d
000001a0: f2d7 4e3c 7c8d 7a3d 698f 823d 96be 8f3d
000001b0: de93 b43d 06fd 52bb 3334 ab3c 418a ca3d
000001c0: c13c cf3d 87ec 5f3d d756 f4bc c548 b63d
000001d0: ad45 d63d 2c92 a73d a2d6 713d 60ec b23c
000001e0: be03 093d 1267 4b3c 32e4 e0bb 217c 0e3d
000001f0: 268c aebc 9ad2 b5bd 9c76 a6bd 068e 80bd
00000200: fb5c 6bbd 3a6b a7bc ce31 a5bd 9ece 6ebd
00000210: ad83 2fbd b784 45bd 41ec b5bc 0238 87bd
00000220: b8a1 34bd 87aa 00bd be62 4dbd 1825 0fbd
00000230: 9403 91bd c582 37bd 95b3 c0bc 2c76 57bd
00000240: 1bc5 14bd b1ec 22bd 59c7 04bd 92f4 a5bc
00000250: 9c62 82bd d4a5 82bd 4ef3 8cbb 33f9 68bc
00000260: 5ee1 aabc 4faa eabc 01a4 12bd 9dfd b1bc
00000270: cb3f 20bb 5d75 473c c9a4 1a3c 25c6 3abd
00000280: 779d 14bb 6b85 393d 31ec da3c 02aa 9a3c
00000290: b18f 05bc 7297 173d 2e10 393c 227d d83c
000002a0: 4548 ea3c 0993 96bc c1f3 be3c 74c7 1c3c
000002b0: 7e4e 693d 04dd 543d c930 913c 934f 3a3d
000002c0: 54af 393d 6e33 c83c 04aa da3b 02e6 133d
000002d0: 89c2 8a3d 9e89 843d 277b ed3c 3d65 313d
000002e0: 7f58 863d 737f 303d 5d98 e93c 238b e03c
000002f0: 5ba7 f93c 3c9e 433d 887c 293d a41d 583d
00000300: 7a3a a23d 6ded 6c3d 1572 b83c a301 853d
00000310: 070c 7e3d 103e 653d cdb4 043d 5fd2 2cbd
00000320: 7c5c 623d 11ee 653d 70d9 013d 423e 3d3c
00000330: 500a 0c3d 75f0 bb3d b13f b73d 87f2 ce3d
00000340: 367f b03d e691 733d 35fa 873d 1c35 173e
00000350: 0ace 0c3e 74f9 993d aa38 003d 52bc a63d
00000360: 5f3f c73d 59d0 e23d b017 5f3d 660c 8bbd
00000370: 641e 873d 95d2 983d d0d4 473d c435 8abc
00000380: 146e c7bd 7242 3abd 7946 07bb 44c8 063c
00000390: d35c efbb f191 773c 12c8 01bd 0e36 103d
000003a0: ce83 2a3d 1266 d43c b163 aa3c 0a15 0f3d
000003b0: 8361 ed3d 00d8 533d de36 94bb 6ee9 d3bb
000003c0: f11b 6d3d 7513 d53d c4dc 233d 28e6 82bc
000003d0: 219a a4bc 9632 443d d1e9 da3d 1763 a93c
000003e0: 364a 1dbd a6d3 bcbc 4365 b73c d708 12bd
000003f0: 3ead 63bd 5e28 99bd 2fcd 8fbd 349c 143b
0.005473716 0.017121261 0.009679972 0.009070304 0.00056143117 -0.01990742 -0.018931033 -0.014413455
-0.021207247 -0.023458475 0.047825996 0.0733541 0.081239425 0.04651551 -0.0019161246 -0.014031444
0.043294817 0.0649882 0.061896347 0.085421704 0.06848286 0.056436144 0.13072406 0.13032694
0.08530157 -0.008765076 0.011591713 0.0024347692 0.014228417 0.009578784 -0.0013362824 0.0018836885
0.008847105 0.047586318 0.06892064 0.094356894 0.0719906 0.11896935 0.12842786 0.112845905
0.15938352 0.18052375 0.12338873 0.16618228 0.11268339 0.09261935 0.10090178 0.0706073
0.09445575 0.06385154 0.037851635 0.02341563 0.00060549343 0.008277757 0.029009668 0.013414308
0.044267267 0.07016254 0.10157833 0.06623221 0.009640601 0.044462316 0.069079496 0.09883024
0.026919909 0.044509903 0.054510962 0.10490319 0.06394921 -0.01869475 0.090645626 0.036112595
0.013964307 0.026578903 0.031296354 -0.053369094 -0.068433814 -0.09409325 -0.09545864 -0.09416529
-0.062142234 -0.05863566 -0.06505154 -0.014858381 -0.04074635 0.039516862 0.009731402 -0.0032850374
0.04358238 0.048703387 0.05828556 0.027991889 -0.0052574608 0.06359364 0.07055015 -0.033586472
0.0003856405 -0.017500974 0.041195057 0.07462873 0.06702876 0.022567395 0.011767737 0.060531445
0.012624728 0.061170086 0.063750096 0.07018773 0.08817266 -0.003219427 0.020898914 0.09889651
0.1011901 0.05466893 -0.029826565 0.089005984 0.10462508 0.08182177 0.05904258 0.021841228
0.033450834 0.012414711 -0.0068631405 0.034786347 -0.021307062 -0.0887806 -0.08128092 -0.06277089
-0.05746172 -0.020436872 -0.0806614 -0.058302514 -0.042850185 -0.04822227 -0.022207381 -0.066024795
-0.04409954 -0.031412628 -0.050142996 -0.034947485 -0.070807606 -0.044802446 -0.023523131 -0.05260293
-0.036320787 -0.039776508 -0.032416675 -0.020258222 -0.063664645 -0.063792855 -0.004301465 -0.01421957
-0.020859417 -0.028645663 -0.035800938 -0.021727378 -0.0024452086 0.012173978 0.009438702 -0.04559912
-0.0022676864 0.045293253 0.026723953 0.018879894 -0.0081519345 0.037009664 0.011295361 0.026426855
0.028598914 -0.018380659 0.02330959 0.009569038 0.05695962 0.05196859 0.017723458 0.045486044
0.04533322 0.024438586 0.0066730995 0.036108024 0.06775386 0.06471561 0.028989388 0.04330944
0.06559848 0.043090295 0.028515035 0.027410096 0.03047531 0.047758326 0.041378528 0.052762643
0.0792131 0.057843614 0.022515336 0.06494453 0.06202319 0.05596739 0.032398988 -0.042192813
0.05526398 0.05613524 0.031701505 0.011550488 0.034189522 0.09176723 0.08947695 0.10104852
0.086180136 0.05946531 0.0663952 0.14766353 0.13750473 0.075182825 0.03130404 0.08141388
0.09728884 0.110748954 0.05446595 -0.06789474 0.065975934 0.0746204 0.04878694 -0.01687134
-0.097377926 -0.045473523 -0.002064137 0.008226458 -0.0073047667 0.015110479 -0.031684943 0.0352078
0.041629605 0.025927577 0.02079949 0.034932174 0.115908645 0.051719666 -0.0045231422 -0.006467036
0.057887975 0.10404102 0.04000546 -0.015978888 -0.020093026 0.047899805 0.10689128 0.020677133
-0.03840085 -0.02305014 0.022387153 -0.03565296 -0.05558514 -0.074784026 -0.070215575 0.0022676112

encoder.2.bias f4 [16]
00000000: da36 8dbc 0c57 3cbb 1104 953d 3189 4db9
00000010: 1c85 c4bd 77bf b5bb 4d36 be3d cc91 b2bc
00000020: 214a 6fb9 9b3d 0dba acdc 7bba f2fd 333e
00000030: bc1f d7bd 2362 02ba e1c5 3a3e e557 e7bd
-0.01723807 -0.0028738407 0.07276166 -0.00019601431 -0.09595701 -0.005546506 0.09287701 -0.021798037
-0.00022820431 -0.0005387903 -0.0009607773 0.17577341 -0.105041 -0.000497373 0.18239547 -0.112960614

encoder.5.weight f4 [10, 6400]
00000000: d553 0b3c 224e 8a3c 172f b53c 1ce3 c63c
00000010: 0f3a ba3c 87cd 893c ff25 7f3b 3ca1 d9bb
00000020: 24af 99bb 43fe bebb c132 b2bc b951 10bd
00000030: 282d 18bd cabd 26bd 196f 3fbd 89e5 3bbd
00000040: 61eb 43bd 39e7 48bd da4a 40bd a82d 32bd
00000050: b324 863c 4a58 a73c bc87 a63c 9a75 6b3c
00000060: 8d1d fc3b 7d7a b63b 0bb3 c43b 8616 04bb
00000070: f5ac 123c 540a 863c d9bd e8ba 44b3 66bc
00000080: aca1 83bb ea5b 0fbc bdab 72bc e3e5 6abc
00000090: ab11 81bc ea3d 80bc bd62 9cbc 93ef bdbc
000000a0: c66c 283d 54e5 0d3d cb50 c93c 561b 483c
000000b0: d873 9b3b 917f f93b a0e4 4d3c 294a ab3b
000000c0: e4f8 3d3c 6a53 9a3c c5f3 603c c906 03bc
000000d0: 57f0 82bc db60 debb 4cfd 5cba 8b5d 1d3b
000000e0: daca 823a e2d2 94bb 7c85 37bc 821b a6bc
000000f0: 9d09 893d c2ac 453d fcbf 033d e275 9d3c
00000100: 5b00 123c 656e b23b 186e c33b 2415 5239
00000110: 0a0a 5f3c a7f2 233d 1040 123d 48c5 283c
00000120: f300 463b 9bed 463b 7ef0 7c3b 78d3 a63b
00000130: c9d1 efb9 4ab3 80bb 5342 5bbc ff8e dfbc
00000140: bdca 9c3d a6bc 583d 81aa 203d 8146 d13c
00000150: 70e5 ca3b d3f2 4dbb dbff 883b 29c8 273c
00000160: 925b c33c 3785 f23c b02a 9a3c a5b0 953b
00000170: f8f9 033c 6e56 953b b86f 063b afef 853b
00000180: 8983 9b3a f5ca 66ba e820 32bc f8e2 d6bc
00000190: fe3b 873d 76f8 403d 761d 163d 9439 9e3c
000001a0: ed61 f9ba 1815 cdbb c3a6 8b39 1e21 343c
000001b0: 85d3 b03c ba9f 813c f417 503c bfce b23c
000001c0: 6a2f a03c 13e0 663c 1a84 5a3c ef8b 5b3c
000001d0: d2e4 333c b680 063c d290 8eba ed3f 61bc
000001e0: 8433 4b3d 3d53 153d 7916 ba3c cfce 2e3b
000001f0: 739f 2abc 5ed5 87bc 1be2 65bc e128 19bb
00000200: fe96 3b3b 1409 c43b 5249 883c cb76 af3c
00000210: 54c3 103c 8810 163c f031 6a3c 2d9c 693c
00000220: 59f3 473c cafc 133c 0dec 0d3b 86b6 31bc
00000230: f001 053d b48f 9c3c 8997 7f3b 09f8 1abc
00000240: 6d90 8dbc b97f b3bc ad51 bcbc c5cd 42bc
00000250: 455b 4db9 6faf b73a ff3e 083b 9b7d 9bbb
00000260: 7df9 21bc 1f8f adbb 2c66 efba 2b6f 49b9
00000270: 69a0 30ba 6e3a 9039 d033 a5bb 12c7 82bc
00000280: 3aca 873c 9504 9c3b 8370 c9bb cb53 5bbc
00000290: 2d5a 88bc 8e11 abbc 4a35 a7bc 61de 01bc
000002a0: 13a7 7eba 2d59 a5b9 0f46 9abb a706 69bc
000002b0: 6e19 c0bc 8a95 9dbc dbe3 66bc 64d1 6ebc
000002c0: 508c 0ebc 1bb6 93bb f100 cdbb 09aa 3bbc
000002d0: 1c8c 9a3b 04af 08bb 27db 05bc 28ae 44bc
000002e0: 01d1 4bbc d1b4 57bc 91e5 64bc a265 cd3a
000002f0: 9b9a a63a b32f 14b8 1a90 0b3b 73fd 02bc
00000300: 6e98 70bc ecad 63bc efdf 1dbc caf4 79bc
00000310: 909f 3cbc 2b62 ecbb fabe e1ba d0b8 153b
00000320: 0e73 c3bb da13 eabb 9713 42bc 9fc9 63bc
00000330: b785 16bc d6a0 02bc 5de5 bfbb 0fd5 813b
00000340: 5f74 dc3b 0760 c63b 1c6e db3a 186c 9bba
00000350: 5e32 fcbb 62cb 03bc b49b a9bb 4fab 5dbc
00000360: baab 2dbc be3b f8bb 6e07 f33a 83c8 5c3c
00000370: 8b76 4abc e734 41bc 89e0 5fbc e187 1dbc
00000380: 3ce0 35bb 383e 4f3a 204c 0a3b 66dc 123c
00000390: e663 3f3c ea8f 063c a89b ee3b 4ccc 213c
000003a0: b0fa 29bb c9fc adbb f820 48bb a753 15bc
000003b0: 3225 f9bb 37ad c5bb 62c9 8c3b f067 b73c
000003c0: 36c8 12bc ea89 e9bb 873b b5bb 052e 043b
000003d0: 839d 483c 14a3 8a3c 19a3 973c 0f80 aa3c
000003e0: 4050 963c 8308 893c 8086 913c 1de6 d63b
000003f0: 3dcd 37bb 4b92 feba 6adc dfbb 45d5 adbb
0.008503874 0.01688296 0.02211718 0.024278216 0.022732763 0.016821636 0.003893256 -0.006641535
-0.004690068 -0.00582865 -0.021752717 -0.035234187 -0.03715244 -0.04070834 -0.04673681 -0.0458732
-0.047831897 -0.049048636 -0.046946384 -0.043500572 0.016374921 0.020427842 0.020328395 0.0143713
0.0076939524 0.005568801 0.006002789 -0.0020155027 0.008952369 0.016362347 -0.0017756774 -0.014080826
-0.0040170755 -0.008749941 -0.014811453 -0.014337036 -0.015755495 -0.015654523 -0.01909005 -0.023185527
0.04111936 0.034642532 0.024574658 0.012213549 0.0047440343 0.007614084 0.0125667155 0.0052273464
0.011594985 0.018838603 0.013729994 -0.007997223 -0.015983744 -0.0067864484 -0.0008430078 0.0024012055
0.0009978667 -0.0045417408 -0.011201259 -0.020276789 0.06691287 0.048260458 0.032165512 0.01922125
0.008911218 0.005445289 0.005964052 0.00020035036 0.013613233 0.040026333 0.035705626 0.010300942
0.0030212968 0.0030354026 0.0038595493 0.005091127 -0.00045741934 -0.003927623 -0.013382512 -0.027289866
0.07655857 0.052914284 0.039225105 0.025546314 0.006191902 -0.0031425252 0.004180891 0.010240593
0.023847375 0.029604537 0.018819183 0.004568177 0.008055203 0.0045574224 0.0020513367 0.0040874104
0.0011864762 -0.00088040467 -0.010872103 -0.026231274 0.066032395 0.04711195 0.03664919 0.019314565
-0.0019026377 -0.006258618 0.00026636393 0.010994224 0.021585235 0.015823234 0.012701023 0.0218271
0.019553859 0.014091509 0.0133371595 0.013400062 0.010979848 0.008209398 -0.00108769 -0.013748151
0.049609676 0.036456335 0.022715794 0.002667356 -0.010413992 -0.016581234 -0.0140309585 -0.0023370313
0.0028623934 0.0059825275 0.016636524 0.02141895 0.008835632 0.009159215 0.014294133 0.014258427
0.012204015 0.009032438 0.002165559 -0.01084674 0.03247255 0.019111492 0.0039000234 -0.00945855
-0.017280782 -0.021911489 -0.022988165 -0.01188988 -0.00019584324 0.0014014075 0.0020789502 -0.004745198
-0.009886143 -0.0052966024 -0.0018264703 -0.00019210267 -0.000673777 0.00027509354 -0.005041577 -0.015964065
0.016575921 0.0047612884 -0.0061474456 -0.013386677 -0.016644562 -0.020882394 -0.020411152 -0.007926554
-0.0009714227 -0.00031537694 -0.0047080587 -0.014222777 -0.023449626 -0.019236345 -0.014092411 -0.01457629
-0.008700445 -0.0045077926 -0.0062562157 -0.011454114 0.0047164094 -0.002085627 -0.008169926 -0.012004413
-0.012439967 -0.013165669 -0.0139707485 0.0015670548 0.0012710871 -3.5330373e-05 0.0021295608 -0.007994997
-0.01468478 -0.013896447 -0.009635909 -0.015256116 -0.011512652 -0.007213851 -0.0017223053 0.0022845753
-0.0059646433 -0.00714348 -0.011845491 -0.013903051 -0.009187154 -0.007972917 -0.0058561997 0.003962166
0.0067277397 0.006053928 0.0016741189 -0.0011857776 -0.007696434 -0.008044096 -0.005176032 -0.013529613
-0.010600025 -0.007575481 0.0018541643 0.01347554 -0.012357364 -0.011792398 -0.013664373 -0.009614916
-0.0027752062 0.00079056947 0.0021102503 0.00896368 0.0116815325 0.008213023 0.0072817393 0.009875368
-0.0025936775 -0.0053096754 -0.003053723 -0.009114183 -0.007603311 -0.0060326117 0.0042964676 0.022388428
-0.008958867 -0.0071270363 -0.005530778 0.0020169031 0.012244585 0.016923465 0.018510388 0.020813016
0.018348813 0.016727692 0.01776433 0.0065581934 -0.0028045916 -0.0019422261 -0.0068316953 -0.0053049647

encoder.5.bias f4 [10]
00000000: 3f19 3e3d 71ca 88bb 98bf 7bbc af56 e6bb
00000010: eede d33c 4c25 133d 1087 18bb a0ad 0b3e
00000020: ed99 573c 768a 343d
0.046410795 -0.0041745235 -0.015365504 -0.0070293765 0.025863137 0.03592424 -0.0023273863 0.13640451
0.013159257 0.04407736

decoder.0.weight f4 [6400, 10]
00000000: c80b 93bc 9141 efbc aefc 9abc b463 5bbc
00000010: 7400 5ebd 8521 8d3c 0d96 6e3d 8106 f2bc
00000020: 440e 673d aafa 853c 760c eabc c2da dbb9
00000030: abad 41bd d689 b0bb b40d 8dbc 94e3 3aba
00000040: 6f3c 853d 802f ffbc 0432 3c3d dff9 8a3d
00000050: 0cca b4bc b84d f53b 6bbb 0e3d bf7c 40bc
00000060: 51fb 0bbd 23df 9bbc 4fe5 253d edf4 64bc
00000070: 3463 533d b274 443b 2c62 76bc 562e 883b
00000080: ff7b 413c 117d edbc 2b44 10bd e8e9 4cbd
00000090: 7c3f 023d e3c3 c6bc 426f af3b b5fa 66bc
000000a0: ab44 d03b 74b3 643c 8343 8f3c bbca ccba
000000b0: 45db 2cbd 8e33 f3bc 48e3 373c 4b96 9abc
000000c0: 1272 433c 2522 af3c 4da5 3fbb 591e 083d
000000d0: fdf6 b43c 5bcf ed3c f1fe 99bc 2b6b c63b
000000e0: cbd5 d4bb 3e37 7f3c beec e53c 037c 5dbc
000000f0: 76e2 2abd aaab 03bc a3ff 583d 65c8 efbc
00000100: 498e 5dbd 239a 2dbc 5ce9 ad3c 2310 97bc
00000110: d4fd 47bc d860 c83c 0804 febd 395e 9e3d
00000120: a04b 03bc 6151 9a3c aed9 c7bd e0da 4a3c
00000130: 788b 0e3d a5ec e23c e42c f63d 91f7 523d
00000140: 59ae 52bd 0a9a 9d3c 8207 b83c e19a 9f3b
00000150: 4885 90bd 4775 163c bbbf 0f3d dd9b cd3b
00000160: ed3f fa3c 0105 2c3c c2d8 b1b9 71cf 71bc
00000170: a14b 683d a5d3 e93b f030 00bd 9e10 03bc
00000180: 4aa2 4b3d e74b a0bb 6b67 cabc 92b1 e23b
00000190: f712 fbbd 38af 68bc fa6e 39b8 62df 553d
000001a0: e3c9 99bd 223d 9a3c f335 87bd 4950 cd3d
000001b0: a63f 873c 68a5 fabc 40d9 52bc bdc6 9fbd
000001c0: f8cd 5a3b b2d2 ce3b 1c0a af3d bd54 53bc
000001d0: 5533 d13c 5841 183d cc35 493c 4839 c43c
000001e0: 4838 f53d 602a 26be 9f46 163c 0ecb 823d
000001f0: 6b15 d83d a262 373d f3c5 113e 4b64 f5bd
00000200: 01b7 893d baca d9bd 8416 94bb d538 c5bd
00000210: 15c4 4c3d 0861 bc3b 864b 4d3d 99ab 89bc
00000220: 037c a23d df72 8ebb 8627 d13b 3b25 fa3c
00000230: 797d de3c 212e 6cbc a309 01bd d510 87bb
00000240: ef58 343d 1d90 e43b 5a1c efbc a0b4 80bc
00000250: d741 c13a c0dd 9f3c e85c 363d f7bc 6ebc
00000260: 05bc bd3c e3a0 8cbc f74c bd3b c2fb 8f3a
00000270: f8d6 08bd d1a0 c93b 9c24 0e3d b990 8cba
00000280: 3bb8 3c3c 04c3 acbb b405 22bd 672c e8bc
00000290: 3b9b a73c 1c91 3c3c dab9 15bd 7e14 46bb
000002a0: b875 cd3a f79b 173d 17ec ea3c bd91 6abd
000002b0: 5e20 f1bb effc 123d 7581 f1bc 78e5 24bc
000002c0: 48f1 383c e045 293c 8246 d8bc 396a 983d
000002d0: 2cad 843c f21c b139 eed6 5ebd 97e5 e6bc
000002e0: cb8c 1b3c 50da b63a 06c1 8fbc d769 96bc
000002f0: b853 1e3b 9c17 d03a 2124 93bc 3b14 813b
00000300: 7e1e c8bc 9a1d b1bb 2a0d 3d3c d0d5 943b
00000310: 29c3 8bbb fea3 90bc f364 653c 8962 4f3d
00000320: 1664 0cbc 6099 283c 0d49 8d3b 9cd2 ca3c
00000330: 82d9 1bbd 33af 77bb 0271 c5bb 7a62 03bb
00000340: b430 af3c f4ab edbb b564 05bd eb60 afbc
00000350: 57e9 1f3b 8d95 5c3c dade 51bd 6b03 74bc
00000360: 938b 8a3c 905e 92bc d038 423d 3b6e 6fbb
00000370: bcfa 26bb 86b3 3abb a57f daba 2867 01bb
00000380: 9c08 2a3c 4e9a 163c 4085 8cbc 53d6 ba3a
00000390: 0c1e 9f3d 02ce 16bd 046b 843c 8c7a 783d
000003a0: 970d 093c 4c9d 593d 5a53 a33b 0b01 acbb
000003b0: cbea 1ebc ecbf bd3c 3534 fc3c 62a9 243c
000003c0: 36e1 98bb a9b5 2b3d 7501 53bc 9d62 823c
000003d0: 1f28 48bb 6f3c fbba b943 40bd 4931 863c
000003e0: 86c8 193d 87e2 0dbc f3ed 683c 5db8 d23c
000003f0: e721 3d3d 0199 943c 4184 90bc 7e99 353d
-0.017949954 -0.02920607 -0.018919315 -0.01339047 -0.05419965 0.017227897 0.05824857 -0.029544117
0.05641009 0.016354878 -0.028570395 -0.00041933922 -0.047284763 -0.005387525 -0.017218448 -0.00071292487
0.065056674 -0.03115058 0.045946136 0.067859404 -0.022069 0.0074860714 0.034846704 -0.011748492
-0.03417522 -0.019027298 0.04050189 -0.0139744105 0.05160828 0.0029976782 -0.015038054 0.0041559143
0.011809348 -0.0289903 -0.03522126 -0.050027758 0.031798825 -0.024263328 0.005353839 -0.014097859
0.006355842 0.013958801 0.017488247 -0.0015624383 -0.0422013 -0.02968767 0.011223622 -0.018870493
0.011929052 0.021378586 -0.0029242814 0.033232067 0.02209043 0.029029539 -0.018798323 0.006055256
-0.0064952127 0.015577136 0.028066989 -0.013518336 -0.041719876 -0.008036533 0.05297817 -0.02927036
-0.05409077 -0.010595831 0.021229438 -0.018440312 -0.012206513 0.024460241 -0.12403113 0.07732815
-0.008013636 0.018837633 -0.09758316 0.012381285 0.034800977 0.027700732 0.12020281 0.05150563
-0.051435802 0.01923849 0.022464518 0.004870758 -0.070566714 0.009183235 0.035094958 0.006274684
0.03054806 0.01049924 -0.00033921568 -0.014758931 0.05671275 0.0071358257 -0.03129667 -0.007999567
0.049715318 -0.0048918608 -0.024707517 0.0069181407 -0.12259477 -0.014201932 -4.4210792e-05 0.052214988
-0.0750921 0.018827979 -0.06602087 0.10025079 0.016509842 -0.03059645 -0.012869179 -0.07801578
0.0033386927 0.006311738 0.0854685 -0.012898621 0.025537172 0.03717169 0.012280893 0.023953095
0.119736254 -0.16227102 0.009172111 0.06386386 0.1055096 0.044771798 0.14235668 -0.1198202
0.06724358 -0.1063437 -0.0045192856 -0.096299805 0.049991686 0.0057488717 0.050120853 -0.016805457
0.079338096 -0.00434719 0.0063828854 0.030535331 0.02715944 -0.014415295 -0.03150333 -0.0041218796
0.044030126 0.0069751875 -0.029188324 -0.015711129 0.0014744353 0.019514918 0.044522196 -0.01457142
0.023160944 -0.01716656 0.005776997 0.0010985064 -0.033408135 0.006153204 0.034702882 -0.0010724283
0.011518533 -0.005272271 -0.03955622 -0.028341485 0.020459762 0.011509206 -0.036554195 -0.0030224617
0.0015675342 0.037013974 0.02867703 -0.057267893 -0.007358595 0.035885748 -0.029480675 -0.010064475
0.011287995 0.010331601 -0.026400808 0.07442135 0.016195856 0.00033781637 -0.05440419 -0.028185649
0.009494017 0.001395056 -0.017548095 -0.018361015 0.0024158787 0.0015876177 -0.017961564 0.0039391792
-0.024428602 -0.00540514 0.011538783 0.00454209 -0.0042652083 -0.017656323 0.014001119 0.05063108
-0.008568784 0.010290474 0.004311687 0.02475863 -0.03804923 -0.0037793636 -0.0060254345 -0.002004771
0.021385528 -0.0072531644 -0.032566745 -0.021408519 0.0024400556 0.01346339 -0.05123792 -0.014893393
0.016912257 -0.017867357 0.047417462 -0.0036534208 -0.002547904 -0.0028488352 -0.0016670121 -0.0019745324
0.010378029 0.009192063 -0.017153382 0.0014254547 0.07769403 -0.036817558 0.01616431 0.060663745
0.0083650565 0.053128526 0.0049843015 -0.005249148 -0.009699534 0.023162805 0.030786613 0.01005015
-0.004665519 0.04192129 -0.012878765 0.015916163 -0.0030541492 -0.0019167791 -0.046939585 0.016380923
0.03754475 -0.008659965 0.014216888 0.025722677 0.04617491 0.018139364 -0.017641189 0.044335835

decoder.0.bias f4 [6400]
00000000: df5d 673b 0450 2b3c 9859 253c 7f10 253d
00000010: e317 703d 07df 2e3c 3893 6a3d 3588 623c
00000020: f869 823c c5a7 403d 37e8 efbb 685e b339
00000030: c1b1 9c3d 4c42 d73c ddc7 5e3d 2ee0 b03c
00000040: e5dc 173d da54 3a3d 8c91 943d 75f6 813d
00000050: e45d 5b3a c6ae a03b 33fe 363c 96cd 063c
00000060: 59fe 933c ec22 8f3c ebdc 5a3d 9b23 3b3c
00000070: c4bf d43c 6ed6 ce3b 9954 283b 4331 783c
00000080: bac7 8cbb 666e e1ba c84a 2b3c 277a 9b3c
00000090: 2bd1 bc3d 3d30 5c3d 510a 963d f6ab 8f3d
000000a0: 7019 f93b ea3e 6b3c 4590 3e3c b4ef e53c
000000b0: b247 113c 65ee 013d 13f3 993b 5e01 66bb
000000c0: 60fa 753c e188 87bb a9c8 3d3d d248 51bc
000000d0: e404 013d 57fa 76bc b9c4 4d3c e258 d9bb
000000e0: 071a 763d 0eda 0e3c 79fc b13d 1bd5 e63c
000000f0: 1e6b 6b3c 43d7 503c c53c fc3c e3ab 9e3b
00000100: 029a be3b fc3b 2d3c 0e3f c0bb eb2d f63a
00000110: fc80 003d 3a28 023d 807c 603c 6ff6 d03b
00000120: c562 423b 5608 ad82 9faa 87bc 2c2a 9cbc
00000130: 7f62 223d d239 bb3c 5e26 d73b d2cf 0d3d
00000140: d09d fc36 e888 063c 5cf3 cd3b e604 243b
00000150: 87a4 b63b fa0d 863b f5a5 abbb e24b 573c
00000160: 1900 69bc 92a3 dbba b683 253c 172f 60bc
00000170: 2006 23bc b66b 44bc c215 bcbc 469c 4ebc
00000180: e883 beb9 7ee5 833a efaf 133c 15b3 953c
00000190: 19b9 b43a ecd8 873b 6c59 373c d333 91ba
000001a0: 3cb8 f33b db4e 773c 3dad 0abc 5234 c93c
000001b0: bf00 383b 1147 013c ae9f f939 5521 fabb
000001c0: aba2 4bbc b7d0 89bc cefc 863b 6cd4 acbb
000001d0: 6ee7 d5bc 1d49 8fbb 1572 1d3c 4b24 ae02
000001e0: 4f67 10bb 22b0 6e3a 2125 e23b ea5f 823b
000001f0: 2742 ec39 67bc 11bc beba 0c3c d4b2 5e3b
00000200: 0615 db3c 076e 973c 0631 463d 8da4 283d
00000210: 0c8d 4abc ae61 cf3c e8eb cf3c 3c6b f3bc
00000220: 5623 a3bc 1d06 65b9 0497 1d3d 21af 0e3d
00000230: 1688 c73b af70 083d 0785 a13b 0274 383c
00000240: 1c40 163b 7011 c53a 73ac a2bb ff80 e43b
00000250: f890 213c 50aa 5b3d 49fc 773d e07a 993c
00000260: 5453 c93c 6089 ce3c 863f dbbc 2ddb e33a
00000270: c40c 51bb 920a 6d3b e9eb 633d 080e 263d
00000280: bec6 043c 7134 e43c 0abe a73c 1ca1 9e3c
00000290: 3d7b 45bc 4298 333d 8020 713c 1371 b43c
000002a0: b9f8 f73c 63a9 6c3b f82a 0e3c b1cf 9b3c
000002b0: fca7 87bc 0217 11bb 5f1c 8e3c 0ed0 363c
000002c0: 470a 393b 2b9f 923c 0d63 2b3d b1e2 9c3d
000002d0: 832c a83c 3896 e33c 7eff b5ba bd08 37b9
000002e0: 6281 91ba 498f 0f3d 4bbd e13c d0f3 923c
000002f0: 37aa 693c b17f 963c a0f7 27bb 4228 633b
00000300: ec53 caba 980c 21bc ce5e d73c 503f 82bb
00000310: 5551 313c bc3f b23c 56f9 193d c89a a03c
00000320: a3e2 d53b 9b4a 713c 5232 d73c 3302 4b3b
00000330: 7a3f 063d 7231 b13b faee 633c 75bd 053d
00000340: 506f c13c ea1d ef3a ea44 7fbc 1c3e d4bc
00000350: 87fa eabb 626c c7bb 9bd1 3cbc 4dce d63c
00000360: 5116 4538 d53e fd3c 1dfb 083d 7bc5 6e3d
00000370: 48b2 733c 770b e43c 1ef6 d93c a5e0 81bb
00000380: c6a2 69bb 0729 893c 379c a93c 3f39 683c
00000390: 4fad bb3c 2c87 78ba ee5d 3ebc d272 cdbb
000003a0: 95d0 14bc f2e1 6cbb 2ee1 a83c d0fd 403c
000003b0: f37e 0e3c 0449 963c e87a 8c3c c65b 033d
000003c0: 3151 113d 53be a43c 8a8c 1c3d f1ce 333c
000003d0: 5a54 013d d1de 503c f38a 433c c532 6f3c
000003e0: bc3c 8739 f073 a63b 22c4 af3c f101 40bc
000003f0: c0b0 8f3b 5fa8 993a 2e35 453c 55c4 1e3d
0.0035303754 0.010456089 0.010092162 0.040298935 0.05861653 0.010673291 0.057269305 0.01382642
0.01591967 0.047034997 -0.0073213833 0.0003421188 0.07651091 0.02627673 0.054389823 0.021591272
0.037075896 0.045491077 0.07254323 0.06345836 0.0008368178 0.004903647 0.011169004 0.008227726
0.018065618 0.017472707 0.05343334 0.011422063 0.025970347 0.006312183 0.002568519 0.015148464
-0.00429627 -0.0017199039 0.010454841 0.018979145 0.09219583 0.05375694 0.073261864 0.07015221
0.0076019093 0.014358262 0.011631076 0.0280684 0.008867191 0.03172149 0.004698166 -0.003509603
0.015013307 -0.0041361903 0.046333943 -0.012773709 0.031498805 -0.015074334 0.012559109 -0.00663291
0.060083415 0.0087189805 0.086907335 0.028177788 0.0143688 0.012746635 0.030790696 0.004842268
0.005816699 0.010573383 -0.0058668917 0.0018781995 0.03137301 0.031776644 0.013701558 0.0063770334
0.0029660922 -2.542485e-37 -0.01656085 -0.019063078 0.039644714 0.02285472 0.006565853 0.03462202
7.528557e-06 0.008211352 0.006285114 0.0025027334 0.0055738124 0.0040910216 -0.0052382895 0.0131406505
-0.014221215 -0.0016757122 0.010102203 -0.013683102 -0.009950191 -0.011988571 -0.022959594 -0.012610501
-0.00036337902 0.0010062901 0.009014114 0.01827387 0.0013788074 0.004145732 0.011190753 -0.0011078067
0.007437734 0.015094484 -0.008464155 0.024561081 0.0028076617 0.007890479 0.00047611952 -0.007633368
-0.01242892 -0.016823156 0.004119492 -0.005274346 -0.02611133 -0.0043727295 0.009609719 2.5587833e-37
-0.0022034233 0.00091052253 0.0069013988 0.003978719 0.00045062715 -0.008895016 0.008589445 0.0033981102
0.026743423 0.018485082 0.048386596 0.041172553 -0.01236273 0.025315132 0.025381044 -0.02971422
-0.01991431 -0.00021841419 0.038474098 0.034834985 0.0060892208 0.03331059 0.004929188 0.011258127
0.0022926396 0.0015035104 -0.004964405 0.0069733853 0.009861223 0.05362922 0.060543332 0.01873535
0.024575867 0.02521199 -0.026763689 0.0017384045 -0.0031898478 0.003616963 0.055644903 0.040540725
0.008104024 0.027857037 0.02047636 0.019363932 -0.012053308 0.043846376 0.014717221 0.022026574
0.030269967 0.0036111705 0.008677237 0.019019933 -0.016559593 -0.0022138958 0.017347513 0.011158003
0.0028234886 0.017898163 0.04184251 0.076604255 0.020529037 0.02778159 -0.0013885347 -0.00017455495
-0.0011101181 0.035048757 0.027556082 0.017938524 0.014261774 0.018371435 -0.0025629774 0.0034661447
-0.0015436388 -0.009829663 0.026290324 -0.0039748326 0.010822614 0.021758907 0.0375913 0.019605055
0.0065272613 0.01472726 0.026269112 0.0030976653 0.03277538 0.0054075057 0.013911957 0.032651383
0.023612648 0.0018243168 -0.015580395 -0.025908522 -0.0071709785 -0.0060859183 -0.011524583 0.026221419
4.6989244e-05 0.03091375 0.033442605 0.0582938 0.0148740485 0.027837498 0.026606616 -0.0039635473
-0.003565 0.016743196 0.020704372 0.014173805 0.022909788 -0.00094805914 -0.011619074 -0.006269791
-0.009082933 -0.0036145416 0.020615187 0.011779264 0.008697259 0.018345363 0.01714845 0.032069944
0.03547782 0.020110285 0.038219966 0.010974632 0.031574585 0.012748436 0.011934984 0.014599507
0.00025794457 0.005079739 0.021455828 -0.011719213 0.004385084 0.0011723152 0.012036605 0.038761456

decoder.3.weight f4 [16, 6, 5, 5]
00000000: 7eea a0bd 2e23 0dbe 7053 03be 6f8a e0bd
00000010: 998b ffbc 1a08 b4bd 81ea c6bd b0bf 12be
00000020: 6126 d4bd 8dfd 9fbd 25e6 bbbd e6cb f6bd
00000030: 788f b8bd 7f81 41bd 3160 7abd 4fd9 c9bd
00000040: af3f 85bd bda7 6dbd 1229 86bc bb03 c4bc
00000050: 0a57 a9bc b9aa cfbd 0090 74bd 6e40 603a
00000060: b431 e6bb e999 e43d 4c40 de3d 39f5 b33d
00000070: f63c 5b3d bef8 0c3e 4820 ad3d f5f3 fc3d
00000080: a468 d33d e289 6f3c ec0d 8c3d f52b b83d
00000090: 778c 243c 0e75 a73c 9cd6 babc 4f77 a7bc
000000a0: b081 593c 3997 50bd 6a97 3cbd f811 b4bc
000000b0: 92a9 b4bd 2627 edbd fd07 21bd 5bb7 13be
000000c0: 8a92 c7bd b309 8fbd adae 7ebd e127 79bd
000000d0: 88f9 94bd 0fbc 34bd e7b2 2ebd c0ec b0bd
000000e0: 77be aabd 3c46 d8bd ae69 a9bd f2e3 68bd
000000f0: 9496 1dbc 2459 34bd 1d4a 1ebd 71b7 a9bc
00000100: 99ac 28bd a6e7 753b 6ff2 873c 8938 c3bc
00000110: 6250 463d 9b1c 24ba 73a0 ce3b 962c 6fbd
00000120: baa6 c3bc 39fe f23c ad18 023d cd79 7cbc
00000130: d9ef 93bc 9a09 cdbc 6a38 9dbd 04b8 bebd
00000140: ba4a acbc 57bb 9bbd a17a 93bd 8b0c b6bd
00000150: d98e 5cbd 74a1 79bc 4ba7 0abd 10c9 efbc
00000160: 311b 99bd 6de2 b4bc ac26 e0bd f282 36bd
00000170: 0acd bebb 7aaa 9abc 959a adba e4be fcbc
00000180: d65f 0abd 57b7 193d 8deb 823c 9da2 6c3d
00000190: 9bee 033e d5af 133e 3dfa b73d 79cc 833d
000001a0: 0d2e 863d 7bd9 d93d 0917 cc3d 9721 e23c
000001b0: 41a3 9e3d 7474 883c b4dc e73d 203c 103e
000001c0: 543d d63d a804 5b3c 31fb 813c 755e 103e
000001d0: 414c da3d 43ee 073d d879 e03d 40d3 b53d
000001e0: 4acb c53d 513d cc3d 0726 a73d 0cd1 053a
000001f0: d063 413c ec5e 093d 87c8 0b3c 8d16 7cbd
00000200: e52d 66bd 3e19 d3bc ef54 45bd e358 a6bd
00000210: b5bb 57bd 3b4f 46bd bac0 5bbd 655b 1b3c
00000220: 9bc3 8ebd b33c 19bc 5277 f7bc b2d7 04bc
00000230: ece3 4b3c 0db5 673c bd8e 7bbd 3eca c3bb
00000240: 45df abbc 4dc1 cb3c c4b7 21bd 2da9 27bc
00000250: eaf8 b6bc 8ac2 aebb 6794 8c3d cf55 a23d
00000260: ab1e 48bc 3ad6 d2bd ff97 0dbe 857e 8d3d
00000270: 83b8 5f3d d2d7 43bc cda9 61bd e29d 65bd
00000280: f00d 273d bfb6 733d 2b22 663c 690b 25ba
00000290: 0349 b7bd 71d0 8a3d 1356 9f3c 9a0d f53c
000002a0: b5bf 4fbd 7129 60bd 627a a33c bbfa 943c
000002b0: a760 4e3a 75a8 7ebc 0bf9 e2bc ce4a 6fbd
000002c0: ece3 00bd cb4a 6d3b 7fdd 053d 423e 9a3d
000002d0: fbdd 90bd ab1a c0bd 825a b23a 600f afb9
000002e0: 3907 03bd 1825 563d cb13 06bd 245e 32bd
000002f0: c554 f6bc 16ff 3bbd 7d33 c8bb 0234 5fbd
00000300: 37fb f7bd 4119 a0bd 4d94 f43c 9de4 7b3d
00000310: 0b37 2fbd 3815 4dbc f2cd 6ebd d8f8 6f3d
00000320: 56f6 203d c123 623c a0c4 633b 73c0 70bd
00000330: a462 80bd ac96 a93c c32d d43c a463 fc3c
00000340: 6844 df3c 1312 92bc ba6b df3c 80a2 f33c
00000350: 445e b63c c9b5 b4bc bbef adbc cecc fa3c
00000360: b5a5 333c 3070 1a3d 44c1 a03c dc28 fbbb
00000370: 0ebe c93b 340a 383d e82c 343d e90e d93c
00000380: 231b 193d 9d78 003d 1a30 a23d 0140 cbbc
00000390: 282d 5abd ddac d2bd 117b ac3c b0db 60bd
000003a0: e8fb f7bc e3e9 e2bc 9a42 8ebd fcbc 723a
000003b0: 1e3d 0dbd a173 3bbc 47b9 5dbd 66fe adbc
000003c0: 096d a6bc 468c abbd b2bd 99bc 8ebe 1cbd
000003d0: eb21 3bba 6c37 11bd 7a98 babc 19d8 bcbc
000003e0: 056d d7bc 1f5a 91bc 4446 48bc dbbe 253d
000003f0: 4399 983d 1e67 873d 24b2 0e3e 9e61 90bd
-0.07857226 -0.13782951 -0.12824798 -0.10963904 -0.031194495 -0.08790608 -0.09712697 -0.14330935
-0.10358883 -0.07812033 -0.09174756 -0.12050609 -0.090117395 -0.047242638 -0.06112689 -0.098559014
-0.06506287 -0.058021296 -0.016377006 -0.02392756 -0.020671386 -0.10139985 -0.05970764 0.00085545226
-0.007024968 0.111621685 0.108521074 0.08787007 0.053524934 0.13766763 0.08453423 0.123512186
0.10322693 0.014620276 0.06838593 0.08992759 0.010043255 0.020441558 -0.022807412 -0.020442633
0.013275549 -0.050925467 -0.046042837 -0.021981224 -0.088214055 -0.115797326 -0.03931426 -0.14425413
-0.09744747 -0.06984272 -0.062178303 -0.060829047 -0.07274157 -0.04412466 -0.042651083 -0.086389065
-0.083371095 -0.10560271 -0.0827211 -0.05685801 -0.00961842 -0.044030324 -0.0386449 -0.020717354
-0.041180227 0.0037522106 0.016595094 -0.023830669 0.048416503 -0.0006260366 0.006305748 -0.05839213
-0.023883212 0.029662238 0.031761814 -0.015409899 -0.018058704 -0.025028992 -0.07676776 -0.09312442
-0.021031726 -0.076040916 -0.07201124 -0.08889111 -0.053847168 -0.015236247 -0.03385095 -0.029270679
-0.074758895 -0.022080624 -0.10944876 -0.044558473 -0.0058227824 -0.018880118 -0.0013244922 -0.030852742
-0.033782803 0.037528362 0.01598146 0.057772268 0.1288399 0.14422543 0.08983276 0.064354844
0.06551752 0.10637184 0.09965331 0.027603908 0.07745982 0.016657092 0.11321393 0.14085436
0.10460916 0.013367809 0.015866848 0.14098532 0.106590755 0.03318621 0.1096074 0.08878183
0.09657915 0.09972633 0.0816155 0.0005104698 0.011803582 0.03353779 0.008531696 -0.061544944
-0.056196112 -0.025768872 -0.048176702 -0.081224225 -0.052669246 -0.048415404 -0.053650595 0.009482239
-0.069709025 -0.009352851 -0.030208264 -0.008108066 0.0124444775 0.014142287 -0.061415423 -0.005975037
-0.020980487 0.024872446 -0.039481893 -0.010233206 -0.022335488 -0.0053332495 0.06864243 0.07926523
-0.012214343 -0.10294767 -0.13827513 0.06908897 0.054619323 -0.011953311 -0.055093575 -0.056058772
0.040784776 0.059500452 0.014046232 -0.0006295951 -0.08949473 0.06778038 0.019450223 0.029913712
-0.050719935 -0.05472702 0.019955818 0.018185964 0.00078726787 -0.015543093 -0.027706644 -0.05842095
-0.031467363 0.003620791 0.03268194 0.07531406 -0.070735894 -0.093800865 0.0013607296 -0.00033390056
-0.03198931 0.05228147 -0.03273372 -0.04354681 -0.030069718 -0.045897566 -0.0061096535 -0.054492958
-0.12108462 -0.07817317 0.029855872 0.06149732 -0.042777102 -0.012517266 -0.058301874 0.058586925
0.039297424 0.01380247 0.0034754649 -0.058777284 -0.06268814 0.020701729 0.025900727 0.030809231
0.027254298 -0.017830884 0.027273048 0.029740572 0.022261746 -0.022059338 -0.021232476 0.030615237
0.010964801 0.037704647 0.019623406 -0.007664783 0.0061566895 0.044931605 0.04398814 0.026496368
0.037379395 0.031365026 0.07919331 -0.024810793 -0.05326572 -0.10286877 0.021054776 -0.05489701
-0.030271485 -0.027699417 -0.06946297 0.0009259728 -0.034482114 -0.011441142 -0.054131772 -0.02123947
-0.020315664 -0.083763644 -0.018767212 -0.038267665 -0.0007138538 -0.035453245 -0.022777785 -0.023052262
-0.026297102 -0.017743168 -0.012223784 0.040465217 0.07451107 0.06611465 0.13935143 -0.07049869

decoder.3.bias f4 [6]
00000000: 4a3b 1dbe 9e6e c13e fd55 9abe d5d1 38bd
00000010: e9ac ce3e 6f09 c2be
-0.15354648 0.37779707 -0.3014373 -0.045121986 0.40366295 -0.37897822

decoder.5.weight f4 [6, 1, 5, 5]
00000000: 33c4 79bd cb83 b5bd f75c d33d 6b9b 46bc
00000010: 1bcb 4cbe 04c0 12be 25cf b53d 18ae 143e
00000020: f59c 09bc a98b eabd d50f e6bd 1b37 c03d
00000030: d71b 213e c1e5 b93d 2ae7 e9bc 9b52 56bd
00000040: a300 173e 6f55 a53c c8a9 3c3e 0c3d 1cbe
00000050: fdc7 c4bd b567 043d 68fa 403d 1caf ec3d
00000060: 4e0f 953c dbef c5bc 08fd e03d 51f1 ca3d
00000070: dda9 c13d e8f8 a33c d07a f53d 4ed1 283e
00000080: 7d5a ee3d d834 cb3d 7edc 6e3a 97c6 963d
00000090: 772d c0bd 9615 a7bb df33 2dbe 2645 1cbe
000000a0: 7ffb 63be 9caf 8cbe c0e1 92be 9f90 97be
000000b0: 4370 5dbe 574f 85be 461b 92be c0d5 5cbe
000000c0: 345c 61bd 9637 d03b 50f2 bbbd 29fa 0ab9
000000d0: 7218 eabd 0749 80bd 2507 08be d2ab cebc
000000e0: 6f08 eb3b f31f 03bb f711 1a3d 7f99 9e3c
000000f0: fa2b a43d d276 573d 150c b83d b24f 8a3c
00000100: f1e4 b43d a4a1 dc3d 7e8d ec3d a0e4 a83d
00000110: e4bf c33d efb1 683d ae56 1d3d 6aaa b73c
00000120: 45ff 0f3e 9f75 fabb de6b 1a3d 38f5 87bd
00000130: 4fde d93b 12bf da3d be22 ad3d 0ea3 ef3c
00000140: c9d3 4ebe 3bf0 14bd c9d9 4d3e 0be4 f7bc
00000150: 012b 76bc 29a8 063e 9c53 413e 1644 373e
00000160: 2599 75bd 2b90 9dbd 3f21 87bd e985 243e
00000170: ce19 e5bc 1d7e bebd 4f76 5bbe 2eaa 833d
00000180: 89b8 433c 0aca 03be 0d30 60be 426b 52be
00000190: 6e89 75be 8a0e 6dbe 7f42 00be 0d46 35be
000001a0: 4560 d6bd 16b7 48be a77b 83be 5e86 7dbe
000001b0: a6e3 b1be 3c51 28be bbb8 58be 5c0e a5be
000001c0: 57dd 8dbe 19f7 c5be 66a7 17be 73c3 9fbd
000001d0: 59d9 0ebe 85cd 49be a358 afbe c16f 44be
000001e0: d508 80be 0795 28be 2899 8ebe 6881 69be
000001f0: 17e9 37be d192 adbd fe6a cdbd 321d 6e3b
00000200: c4d8 013e 97e8 893d 2f4c e93d 9293 fa3d
00000210: e9e0 603d cfea 1f3d f007 22be a6dc 213e
00000220: 0e32 3f3e 68b5 f93d 4a79 553d 9ca5 4c3d
00000230: e6c7 6f3e 7d43 053e 4f18 153e 399a dcbc
00000240: 99bb febc 5c6e 7abc 81b6 4e3e 39d6 b13d
00000250: 7933 0c3d 0dc4 2bbe
-0.060978126 -0.08863028 0.10320466 -0.0121220155 -0.19999354 -0.1433106 0.088774 0.14519536
-0.008399238 -0.11452419 -0.112334885 0.093855105 0.15733276 0.09077025 -0.02855261 -0.052324872
0.14746337 0.02018234 0.18424141 -0.15257663 -0.09608457 0.032325465 0.047113806 0.11556837
0.018195774 -0.024162224 0.10985762 0.09909309 0.09456227 0.020016149 0.11986315 0.16486093
0.11638353 0.099221885 0.00091118354 0.07362097 -0.09383672 -0.005099009 -0.16914319 -0.15260753
-0.22263907 -0.2747773 -0.2868786 -0.29602525 -0.21624856 -0.26037094 -0.28536433 -0.21565914
-0.055019572 0.0063542826 -0.09177077 -0.00013253897 -0.11430444 -0.06263929 -0.13283975 -0.025228415
0.007172636 -0.0020008057 0.03761479 0.019360302 0.080162 0.05260355 0.089866795 0.016883705
0.088327296 0.10773018 0.11550425 0.08246732 0.095580846 0.056810316 0.038412742 0.022420127
0.14062221 -0.007643416 0.037700526 -0.06638569 0.0066488157 0.10680975 0.08453892 0.029252555
-0.20197977 -0.036361914 0.2010261 -0.030260107 -0.015024901 0.13150086 0.1887955 0.17897066
-0.059960503 -0.076935135 -0.06598138 0.16066708 -0.027966406 -0.09301398 -0.2143185 0.064289436
0.011945852 -0.1287004 -0.2189333 -0.20548728 -0.23978207 -0.23150077 -0.12525366 -0.17702504
-0.10467581 -0.19601092 -0.25680277 -0.24758288 -0.34743994 -0.16437238 -0.21164219 -0.32237518
-0.2770793 -0.38665083 -0.14809951 -0.07800951 -0.13950099 -0.19707306 -0.34247312 -0.19183256
-0.25006738 -0.164631 -0.27851224 -0.22803271 -0.1796001 -0.08475269 -0.10030173 0.003633332
0.12680346 0.06733816 0.11391484 0.12235178 0.05490199 0.03904229 -0.1582334 0.15806827
0.18671438 0.121928036 0.052117623 0.049962625 0.23416099 0.13014026 0.14560054 -0.026929008
-0.031095313 -0.015285101 0.20186807 0.08683438 0.034228776 -0.16774006
