Autoencoder-on-MNIST-in-Pytorch/Models/model_e0.pt (torch, 561729 bytes, 11 tensors)

encoder.0.weight f4 [6, 1, 5, 5]
00000000: a76e d9bd fe6c a0bd aafc 8c3c 4664 c0bd
00000010: 693d 10be 807d dfbd 7aae 68be 374f b93d
00000020: 025a 5fbd cf51 56bd 6d77 1d3e e698 fabd
00000030: 1486 d53d e6f1 3dbe f391 3bbd b469 fe3d
00000040: 1a66 c13c 9547 20be de09 a8bd 7e34 ac3d
00000050: e3c5 f1bc 2a7b babd b797 4e3d 4c86 4abe
00000060: d7d1 33be 07ea e9bd 1352 56be df5c 1abe
00000070: 660e 51be d0c9 4dbe d05e 003e 695e 623d
00000080: 46a0 b43d 67c6 0e3d f2c5 243e 8add 1ebe
00000090: b582 a8bb e436 053e 9c27 7fbd eb90 debd
000000a0: 0e5d 343e 9cba 173e 7df0 e73d 5258 e83d
000000b0: 3476 463e 136a 01be beba 17be 3b40 09be
000000c0: 9fe5 623e ac6e 313e 722a 013e cf96 d63d
000000d0: cdd4 e33d 4068 b0bd df57 7dbd 4193 4a3e
000000e0: 9d50 d83d 0f43 3dbe 038a 6abe daf9 65be
000000f0: 2b0b 2dbe 573a 50bc 62dc 89be 7557 10be
00000100: 6ff1 4cbb 19a4 0a3d e5b4 f03d 6e4f 7cbe
00000110: 0484 a23d 57b6 a3bd 59d8 03be 9c1b f23d
00000120: 26a9 fdbd 8b20 20be 32f6 8bbe 307e 17be
00000130: 1675 babd b197 24be b27d 423e 48ca 76bd
00000140: 7d1b 9339 0483 c53d e1e9 99bd 049a 173e
00000150: 5952 433e 6fb0 4f3e e74d 563e 593a 30be
00000160: 5329 473e b80b 543e 49ed debd b29c 0f3e
00000170: 9d73 6d3d 0824 6dbd 412e 073e 7921 583e
00000180: cfe3 32bc b1c0 033e f144 5e3e 6a69 8d3d
00000190: 1388 ef3b 8fa3 4c3e 62a5 1abc c1b2 a9bd
000001a0: e1e1 0c3e 0a33 8e3d aa49 a4bd 69cd a0bd
000001b0: ec27 643e 6a88 443e 9386 a2bd f675 0cbe
000001c0: e123 033e 3045 35bd 5511 253e c9a7 de3d
000001d0: 342d 283d f063 a0bb 50a2 3c3e 8a78 3e3e
000001e0: 0f36 84bc f7a2 4abe 2672 d7bd ec8d 5f3e
000001f0: 879c 5b3d 8633 7abd 1564 1a3e c5a2 da3d
00000200: 1148 09be 6e69 6f3d 948a 9cbd f760 3c3e
00000210: 2e7d d0bd cda5 60be 0f19 e4bd 005a 233d
00000220: 5faa d93d 6662 15bd 7202 fbbd e222 74be
00000230: 74bd 513e 0dcd 453e f0ee 4b3e 9466 44bd
00000240: f711 19be 609f 283d b7a7 b8bd 0e4d 7f3d
00000250: 17c8 17be c4a8 54be
-0.106168084 -0.078332886 0.017210323 -0.09394126 -0.14085926 -0.10912609 -0.22722808 0.09048312
-0.054529198 -0.052324113 0.15377589 -0.12236194 0.10425964 -0.18549308 -0.045793485 0.12422505
0.023608256 -0.15652306 -0.08205007 0.084084496 -0.029513305 -0.09105523 0.050437655 -0.19777793
-0.17560516 -0.1142159 -0.20929746 -0.1507449 -0.20415649 -0.20096517 0.12536168 0.055265818
0.08819632 0.03485718 0.16091135 -0.15514198 -0.0051425346 0.1300922 -0.062293634 -0.10867485
0.17613623 0.1481728 0.113251664 0.11344971 0.19381028 -0.1263812 -0.1481733 -0.13403408
0.22157906 0.17327374 0.12613848 0.10477983 0.11124573 -0.08613634 -0.06185138 0.19782735
0.10562251 -0.18482612 -0.2290421 -0.22458592 -0.16898791 -0.012709222 -0.2692595 -0.14095862
-0.0031271835 0.033847902 0.11753253 -0.24639675 0.07935336 -0.07993763 -0.12875499 0.11821672
-0.12385778 -0.15637414 -0.2733627 -0.1479423 -0.091043636 -0.1607349 0.18993261 -0.060251504
0.00028058505 0.0964413 -0.07515312 0.14804846 0.19074382 0.20282148 0.20928155 -0.17209758
0.19449358 0.20707595 -0.10885102 0.14024618 0.057971586 -0.05789569 0.13201238 0.21106519
-0.010918572 0.12866475 0.21705987 0.06904872 0.0073099225 0.19984268 -0.009438844 -0.08286048
0.13758041 0.06943329 -0.08021863 -0.07851679 0.22280854 0.19192663 -0.07935824 -0.13716874
0.12806655 -0.044255435 0.16119893 0.10871846 0.041058734 -0.004894726 0.18421292 0.1860067
-0.016139058 -0.19788729 -0.10519819 0.21831483 0.053616073 -0.061084293 0.15077241 0.10675577
-0.13406397 0.058450155 -0.07643619 0.18396364 -0.10180126 -0.21938248 -0.11137592 0.039880753
0.10628199 -0.036470793 -0.12256326 -0.23841432 0.20482427 0.19316502 0.19915366 -0.04794939
-0.1494826 0.041167617 -0.09016364 0.062329344 -0.14822422 -0.20767504

encoder.0.bias f4 [6]
00000000: 7955 b63d 08e0 fa3d 572e bdbd e1e8 f03d
00000010: 698f d0bd cfa3 363e
0.08903021 0.12249762 -0.09237354 0.11763168 -0.10183603 0.17835926

encoder.2.weight f4 [16, 6, 5, 5]
00000000: 7162 203d 7aae cb3c d657 94bd 7a62 ac3d
00000010: 0d36 abbc ac4b 9fbb 5b40 59bd 3ed2 89bd
00000020: f7cc 08bc b1de 163d 1574 c0bd 0f6c c3bd
00000030: 8169 c13c e1fc fc3a db12 06bd 0964 6fbd
00000040: 1a0b 263d dbbf a7bd 5d0d b939 02fe a33c
00000050: 10ab 26bd 8358 e33c 882b edbc 8765 d53c
00000060: e28e 71bd 649d 203c 48a9 f3bc 9b6e e9bc
00000070: c602 ea3c eb61 223d d517 f0bb 405d ad3d
00000080: e099 5b3c 17f6 e73b e140 e1bc 5375 593d
00000090: 2b24 b43d c633 ab3d 787d 3bbd f647 5abd
000000a0: e06c 8f3d c2a8 55bc 82e4 5dbc 2574 8c3d
000000b0: 7232 bd3d 823a 82bd eea8 9e3d 99ea 9ebd
000000c0: 603c 7abd 91fa 733b 3b72 763d a26c 3f3d
000000d0: 0786 abba d2a2 bf3d a79c 29bd 0cd0 7dbc
000000e0: ccef 423d 97f7 ddbc de34 49bd 3fa1 753d
000000f0: d9c6 8ebd 8e86 d4bc dcd5 62bd 227f 843d
00000100: df38 c13c 6dfc d6bd 80cd acbd 6174 af3c
00000110: d3aa 61bc 3b51 103d 8a0c c3bd ecac 98bd
00000120: 9504 f7bc ae56 f3bc e7e9 c8bc ab3c a43c
00000130: c6df c13d 036c 2abd a7ce febc 500d bcbc
00000140: 1db8 1b3d b828 ca3d 01c6 263d 4fee bf3d
00000150: dee6 c03d 3828 893d 191e 423d 0620 43bc
00000160: c86d 50bd f0a6 a2bc bf77 db3d 84ad d43d
00000170: 54e5 f33c de17 2bbc b880 a83d 8179 d53d
00000180: bc9f 89bc d5f7 4b3d 25bc aabc 2a1f 38bc
00000190: d9d7 673d 5d05 d33d 0bb2 dc3d 0d96 95bb
000001a0: 1605 44bd 9c5b 0e3d 46af ce3d 1854 4f3a
000001b0: bca4 81bc 7916 ad3d 82d5 cc3d d3cd 093d
000001c0: 7c68 fcbc 3160 f83c 3513 ccbc 44e5 ec3b
000001d0: 546f 3b3d 01d9 06bd 59d5 29bd 025d 58ba
000001e0: 7804 3a3d 9ca1 6bbc e954 a9bc 5770 523d
000001f0: 137c 43bd 0023 2b3d 3eac 85bd 15d3 25bc
00000200: 369f d7bb 6f76 dabc 8139 b13c f1b4 82bd
00000210: 31cd bd3d e62e cd3d 6522 543d cf04 573d
00000220: 2b9c 273d 9344 153d 098f bdba 98f1 173c
00000230: 8d14 8d3d 5a55 843d 45b1 633c 960f 8b3d
00000240: f8a3 2dbd 1e12 663c e70c 053d e5af 323d
00000250: 1789 04bc a42d f23c a61e 83bd 376b 3f3b
00000260: 3cf3 94bd 3fd6 213d 2a1a 14bd 6e30 8e3d
00000270: 66d7 7c3a eab8 b3bd bc27 593d f533 bd3c
00000280: 70c5 54bd 2b60 6fbd 6a8d efbc f73b 6b3d
00000290: 4e24 e53c 3506 a93c 6f4b 58bb 8a48 63bd
000002a0: b615 263d 0a8d 153d 763a d2bc 28cf 52bd
000002b0: 84f3 80bd a81c 32bd 34d3 933c 97c6 b03b
000002c0: 026b 4c3d 5a28 84bd a8d7 9abc a9a6 e53c
000002d0: 1ca6 f4bc 8664 cb3c 8b10 853c 03c4 09bd
000002e0: 767b 13bd c49e 27bc 9056 2e3d b94b 26bd
000002f0: 8333 143c 85f1 03bd 7bb1 7b3d 9b7b 513d
00000300: 4f3c 84bc 15ee 383d 8e54 943d 5092 95bc
00000310: 39c3 203d a998 40bd d38b 8e3d bdcf ac3c
00000320: 3987 253d 6bfe 62bd c95f 3bbd 4c65 7f3d
00000330: 6914 773d 490a 0e3d 0d58 68bd fdd5 383c
00000340: bdd9 283d fbed afbc d10c 7b3d fd01 8fbd
00000350: 27fd 51bd 054b 00bd 0409 23bd f735 4dbd
00000360: 7276 433c 6206 90bd 6ca0 2fbc 1c41 3a3d
00000370: 4277 8e3c 5ad4 50bd 976a 97bd 1678 acbc
00000380: 2948 843d 85be 303d 43fe 863d eac5 00bd
00000390: 21c8 8d3d 60f0 af3c 5b11 063c d904 503d
000003a0: 651d a13d b931 553c 52dc 7ebd 1881 edbc
000003b0: 6084 e03c 589a 52bd b8bc c83d 0677 9b3c
000003c0: bc8f a83c d0cb c83d 76c5 873c cf3e a13d
000003d0: d5af 463d 2a68 113d 7302 4b3d 449f 6ebd
000003e0: 6d59 953d f3db a53d 11f3 82bb 560a ebbc
000003f0: d016 8e3d fc37 41bd 8a4e 633d 81f2 5bbc
0.03915638 0.02486347 -0.07243316 0.084172204 -0.020899797 -0.0048613157 -0.05303989 -0.06729554
-0.008349649 0.03683347 -0.09397141 -0.09542095 0.023609878 0.0019301438 -0.032732826 -0.05844501
0.04053793 -0.081908904 0.00035295906 0.020018581 -0.04069048 0.027752167 -0.028951421 0.026049389
-0.058974154 0.00980315 -0.029743806 -0.028495124 0.028565776 0.039644163 -0.0073270597 0.08465052
0.013403386 0.0070788967 -0.027496757 0.053090405 0.08795961 0.083594844 -0.045773953 -0.053291284
0.07003188 -0.013040723 -0.01354325 0.0685809 0.09238137 -0.06358816 0.077470645 -0.0775959
-0.061092734 0.0037228207 0.060167532 0.04673446 -0.0013086208 0.093572274 -0.04140916 -0.015491497
0.04759197 -0.0270956 -0.049122684 0.05996823 -0.06971521 -0.025943067 -0.055379733 0.06469561
0.023586689 -0.10497365 -0.084376335 0.021417798 -0.013773638 0.035233717 -0.09523876 -0.07454857
-0.030153552 -0.029704418 -0.024525596 0.02004846 0.094665095 -0.041606914 -0.031104399 -0.022955567
0.03801738 0.09871048 0.040716175 0.09371626 0.094190344 0.06697124 0.047391985 -0.01190949
-0.050885946 -0.019854993 0.10716199 0.10384658 0.029772438 -0.010442702 0.08227676 0.10423566
-0.0167998 0.049796898 -0.020841667 -0.011237899 0.056602333 0.10303757 0.107761465 -0.0045650066
-0.047856413 0.034755334 0.100920245 0.0007908954 -0.015825622 0.08451552 0.10001661 0.033643555
-0.03081154 0.030319305 -0.024911502 0.007229479 0.045760468 -0.032921795 -0.04146323 -0.00082536053
0.045414418 -0.014381792 -0.020670371 0.051376667 -0.04772575 0.041781425 -0.06526993 -0.010121127
-0.0065802587 -0.026667802 0.021633865 -0.06382168 0.09267653 0.10018711 0.051790614 0.05249482
0.040920418 0.03644235 -0.0014462183 0.009273909 0.068886854 0.06461592 0.013897245 0.06790082
-0.0423927 0.014042405 0.032483008 0.043624777 -0.008089325 0.029562779 -0.0640233 0.0029208192
-0.07272956 0.03951096 -0.036157764 0.06942831 0.0009645134 -0.08775504 0.05301641 0.023096064
-0.051946104 -0.058441322 -0.029242236 0.057430234 0.027971413 0.020632843 -0.0033003946 -0.0554891
0.04054805 0.03651146 -0.025662642 -0.05146709 -0.06296447 -0.04348436 0.018045045 0.0053947675
0.049906738 -0.06453009 -0.018901661 0.028033571 -0.029864363 0.024828207 0.01624324 -0.033634197
-0.036006413 -0.010230724 0.04256302 -0.04059956 0.0090454845 -0.032212753 0.061448555 0.05114327
-0.016142039 0.045148928 0.0724269 -0.018258244 0.03924868 -0.047020588 0.06960263 0.021095151
0.04041216 -0.055418413 -0.045745645 0.062352464 0.0603222 0.034677777 -0.056724597 0.0112814875
0.041223276 -0.021475783 0.06129152 -0.06982801 -0.051266816 -0.031321544 -0.03980352 -0.050100293
0.011930095 -0.070324674 -0.0107194 0.04547225 0.017390851 -0.050983764 -0.07393377 -0.021053355
0.06459076 0.043150444 0.06591465 -0.031438746 0.06922937 0.021476924 0.008182849 0.050785873
0.07866935 0.013012343 -0.062221833 -0.02899222 0.027406871 -0.051416725 0.0980162 0.018977653
0.02057635 0.09804499 0.016573649 0.07873308 0.04850753 0.03549973 0.049562883 -0.058257356
0.07292447 0.080985926 -0.003996261 -0.028691452 0.06937945 -0.04717253 0.055494823 -0.013424517

encoder.2.bias f4 [16]
00000000: 3b13 89bc 9b27 073d e22a 953c 837e ea3c
00000010: ae21 b83d d3cf 153c 553d 803c 29a3 fabb
00000020: 92a1 11bb 891f b53d dd59 8f3c 18c2 fd3c
00000030: c84e b13d 63c4 3a3c 8b93 243d c18b 74bc
-0.016732803 0.032996755 0.018208925 0.028624779 0.08990799 0.009143787 0.015654245 -0.0076488447
-0.0022221548 0.088439055 0.017498905 0.03097634 0.086576045 0.011399361 0.04017977 -0.014925898

encoder.5.weight f4 [10, 6400]
00000000: bc4f c33a bb4c 98b9 8278 da3b 73aa 22bc
00000010: 8e57 15bc e239 0cbc 0e18 e0bc 0b0c f2bc
00000020: ed15 91bc 1943 95bc 4edf bbbc 5925 6fbc
00000030: 96cb 213a 404d 903b 2bd1 cfbb d6df 3ebb
00000040: b710 fa3b 800f 1a3c 2dbd 093c 1c2c 053c
00000050: 37fd 493c 4e9a 8fbb 723f bb3b 05ba 983b
00000060: 2b1a 8ebc f178 c0bc 65ef 58bc 8fea c0bc
00000070: 1929 b73b 7e62 23bc 662e ef39 1f9e 6dbb
00000080: a856 05bb 9555 933c d526 c53b c753 b03c
00000090: 1800 dd3b 8d75 253c 7a22 8d3c e6c1 50bb
000000a0: 9f50 7d3c 067f 753c d199 97bb b38b af3a
000000b0: 539d d7bb b499 a1bc ef14 bbbc fbbd 04bc
000000c0: 84e7 22bb 010d 823c deb0 873c e0ed 673c
000000d0: 2cf1 ab3c ba21 e43b b474 983c 7e42 813c
000000e0: e68a a73c 6c20 263c 29ff 193c 9278 573c
000000f0: 9684 6e3c 77a1 01bb fd0e 88bb 1951 b9ba
00000100: be3d 70bc 7f1f c9bc fd60 2d3b 5798 c0bb
00000110: 8836 263c f675 103c 03f4 9c3c 766f c63c
00000120: b323 143c cd06 a83c 9e1d b93c bacc d23c
00000130: 7db7 c33c e483 be3c bd2c 9e3c 066b 123c
00000140: 4084 fb3b 31f7 823b d52b 8dba c89c 5bbc
00000150: 1a93 0cbc 3f77 493b 9d86 843b 8910 9e3c
00000160: 4277 493c ea81 203c 48dd da3c 1b65 f33c
00000170: b050 cf3c 55a9 163c 4807 333b 59b5 f93a
00000180: 8e52 ab3c 9d48 a53c 0139 bf3c 1515 333b
00000190: 73da 2dbb 6dae 2ebb 1e25 98ba 98da 35bc
000001a0: f418 a2ba 1f4b 44bc 8cc8 1f3b 7934 2d3c
000001b0: 4097 663c 837c 973c 5374 113c b7aa f93c
000001c0: 0e39 e73c fda7 a33c 2da7 00bb 3841 5a3c
000001d0: 78ef 8d3b ec82 fc3b 9ecf 6f3c 6cf8 efb9
000001e0: 1683 603c ab31 33bb 5b7b 57bc 7544 f2bc
000001f0: b196 91bc 10c5 2cbc 771b 98ba 4a1d 3f3c
00000200: 1cb1 bc3c 501b 9a3c bb37 ad3c 077a 6b3c
00000210: 32f2 e93b b0ba b53c f575 533a 6046 8939
00000220: 1c83 513a 8a5f dabb 665d 873b ce4a bbbb
00000230: 1b77 aebb 51e9 83bc 4287 6ebc 1a5b 37bc
00000240: 67dd 03bc 3919 283c 662c 283c d5eb 453c
00000250: c02b ed3b 4ddf 743c 5529 053c a683 833a
00000260: 808d 0a3c eeb0 233b cce9 bebb fe3b 293c
00000270: cf7f 033c 3191 c93b 6c2e 273b 2733 ddba
00000280: 5366 b13b 8ce8 4fbc dbd2 90bc af72 50bc
00000290: 7254 0a3b f030 45bb 8f60 ed3b 3e71 6e3c
000002a0: ec1c 663b 5b35 933c f47f 633c c3d8 723c
000002b0: 2efe beba a67f 5c3b 8c35 e23b ae6a f73a
000002c0: 1fa4 d2ba ff07 063c 221f 95bc e196 cebb
000002d0: 35ed 20bc 6079 1fbd 4a72 20bd 8845 92bc
000002e0: d8ba b73a 62c2 313a 3c59 3cbb a32e b73b
000002f0: 7cf4 a43b bf1b 493c 7751 fabb 1a77 4c3c
00000300: f233 ba3a 207f a83b 2bd3 623c dad3 623c
00000310: c99a 223c 6da5 c939 8f66 0ebb a6e4 a5bb
00000320: dc00 43bc 9d09 12bd 6f18 75bc 322b 18bb
00000330: fb18 963c b80a b13c 5fd8 ae3b bccf 593c
00000340: f0c9 ed3b 8a17 833a 8efc 043c 039c 453c
00000350: c495 773c 4035 6eb9 e3c5 913b 1d1f f2bb
00000360: 1a07 eab9 3e77 08bc d65a 24b9 0927 82bc
00000370: 542d 16bd 1712 0abd 7d30 a3bc bfd7 84bb
00000380: d536 903c ce62 f63b 5bef 963c 9646 b33b
00000390: 39f3 213c bd95 9e3b 56a2 243c eb39 8ebb
000003a0: 262b 6d3c 0d65 19bb 2146 f1ba bd05 243c
000003b0: 7814 29bb ea91 42bc fde6 3abc 4206 26bc
000003c0: 2110 ddbc cd0d 77bc 1d59 d4bb ecbe 973c
000003d0: 8330 c83c e3e6 a53c eed7 2a3c 5eb5 b43c
000003e0: e3d1 963c a38b d2bb 8b98 063c fbd5 643c
000003f0: e48e 003c d2ed 003b 3b28 1e3c 9ca2 413b
0.0014901082 -0.00029048868 0.0066671977 -0.009928334 -0.009115113 -0.008558722 -0.02735522 -0.029546758
-0.01771065 -0.018220471 -0.022933628 -0.014596307 0.0006171999 0.00440374 -0.0063420734 -0.0029125116
0.007631387 0.00940311 0.008406919 0.008128192 0.0123284375 -0.004382408 0.0057143504 0.004660847
-0.017346462 -0.02349517 -0.01324067 -0.023549346 0.005589616 -0.009972213 0.00045620202 -0.0036257578
-0.002034584 0.017985145 0.006016592 0.021524323 0.006744396 0.010098827 0.017228354 -0.0031853854
0.015461116 0.014983898 -0.0046264906 0.0013393074 -0.006580034 -0.019726612 -0.02283713 -0.0081019355
-0.0024857232 0.015875341 0.016563829 0.014155835 0.020989023 0.0069620283 0.018610336 0.015778776
0.020451974 0.010139566 0.009399214 0.013151305 0.014557978 -0.0019780078 -0.0041521774 -0.0014138549
-0.014663158 -0.024551151 0.0026455515 -0.0058775353 0.010144837 0.008817187 0.019159323 0.02422307
0.0090417145 0.020511055 0.02259713 0.025732387 0.023891205 0.02325625 0.019308442 0.008936649
0.0076756775 0.0039967527 -0.0010770509 -0.013404079 -0.008579994 0.0030741242 0.0040443675 0.019294994
0.0122965 0.009796599 0.026716843 0.029711297 0.02530703 0.009195645 0.0027317572 0.0019051238
0.020913389 0.020176226 0.023342611 0.0027325798 -0.002652791 -0.002665426 -0.0011607741 -0.01109948
-0.0012367056 -0.011980801 0.002438101 0.0105715925 0.014074147 0.018491989 0.0088778315 0.030476911
0.028225448 0.019977564 -0.0019630895 0.013321213 0.0043315254 0.007706037 0.014636902 -0.0004577072
0.013703128 -0.0027342837 -0.013151969 -0.029573658 -0.01777205 -0.01054503 -0.0011604865 0.011664698
0.023033671 0.018811852 0.021144738 0.014372355 0.0071394676 0.022183746 0.0008066588 0.0002618311
0.0007992254 -0.006664221 0.004131007 -0.0057157045 -0.005324257 -0.016102465 -0.014558615 -0.011191154
-0.008048392 0.01025992 0.010264492 0.0120801525 0.0072378814 0.014945817 0.00812753 0.0010033741
0.008456588 0.0024977284 -0.0058262106 0.010329245 0.008026077 0.0061513414 0.0025509847 -0.0016876207
0.0054138093 -0.012689721 -0.017678669 -0.012722655 0.0021107462 -0.0030088983 0.0072441767 0.014553366
0.0035112454 0.017969778 0.013885487 0.014822188 -0.0014571601 0.003364542 0.006903356 0.0018876398
-0.001607064 0.008180617 -0.018203322 -0.0063046073 -0.00982218 -0.03893411 -0.039171495 -0.01785542
0.0014017476 0.00067809795 -0.0028739711 0.0055902763 0.0050340276 0.012274682 -0.007639106 0.012479568
0.0014206155 0.0051421076 0.013844292 0.013844455 0.009924599 0.0003846096 -0.002172861 -0.0050626574
-0.01190206 -0.0356537 -0.014959439 -0.0023219106 0.018322458 0.021611556 0.005335852 0.013294157
0.007256739 0.0010001522 0.008116854 0.012061122 0.0151113905 -0.00022717286 0.0044486388 -0.007388963
-0.0004463725 -0.008329211 -0.00015674098 -0.015887754 -0.036664322 -0.033708658 -0.019920582 -0.0040540393
0.017604271 0.0075191027 0.01842468 0.005471061 0.009884649 0.0048396275 0.0100484695 -0.0043404005
0.014475619 -0.0023406178 -0.0018407741 0.010011134 -0.0025799554 -0.011875609 -0.011407611 -0.010133328
-0.02698523 -0.015078974 -0.0064803497 0.018523656 0.024437195 0.020251697 0.010427458 0.022059139
0.018410629 -0.0064253374 0.00821508 0.013967033 0.007846568 0.0019673002 0.009653146 0.0029546386

encoder.5.bias f4 [10]
00000000: 1eec d13b 3d45 19bc 1a47 15ba f54b 5b3b
00000010: 461f e739 d5de 6c3c 9d28 453c 9ac4 813b
00000020: 5189 a5bb 775c 31bc
0.006406321 -0.009354887 -0.0005694494 0.0033462022 0.00044083054 0.014457424 0.012033609 0.0039602043
-0.00505177 -0.010825268

decoder.0.weight f4 [6400, 10]
00000000: ab6e 0a3e 131f d03d 8e0b c93d 2bd8 17be
00000010: ca34 903e 6590 0a3e b916 96be b10f 0b3e
00000020: 8d7a 533d 75b7 453e e68c 893d 66d9 45bc
00000030: d259 4abd 704e 2c3c 1a01 eabd 9fe0 39be
00000040: 5070 82be 92ee 303e e21e 763e f1ba 013d
00000050: 860e debd d772 a03d 84c6 f43d 6345 5f3e
00000060: 3021 1fbe 3db0 7d3d 8a02 7e3e 3cf0 f8bc
00000070: 5197 a43e 465a 88be 1e03 733d 5fb2 45bd
00000080: 512c 843e 505c 25be 1f0b 013e 83eb 5f3c
00000090: 4caa 8fbd d745 d83d 6483 94bb 7317 623e
000000a0: 898f 53be 7030 6bbe 5645 953d 411c 803e
000000b0: 6bcd 05be 63a9 13be 1336 1e3d e18d 333e
000000c0: 2a60 5fbe e555 263e 6faf 05be 84e3 913e
000000d0: 2b66 a4be 6823 9d3d e1a0 05be 95e4 00be
000000e0: 5387 153e 1905 7f3e 49b5 fb3c 54a4 3fbe
000000f0: da96 4abe 9090 9a3d 9d89 edbd 5031 82be
00000100: fd35 20be 9609 8f3d ff07 4cbe e44a b23e
00000110: 001d 6f3e 527d 133c 94b1 463d fb47 d73c
00000120: 1e42 29be 99c1 9d3e ef7b 66be 181a c0bc
00000130: 3cbb ad3e b18f 813e d3c9 6c3e cb9a 7f3e
00000140: cb68 70bd 6241 2a3d 6713 8bbe dde1 733d
00000150: 8005 6a3e 3699 94be 965c cdbd b397 1d3e
00000160: ae41 21bd a933 873d 3f29 2ebe b53d 993e
00000170: a091 a8be 48c3 323d e5ce 173e 286a c6bd
00000180: 0c85 843c a03f 7fbe f6e1 b63e 26a8 3ebe
00000190: 1643 123d 5d36 743e ab5b a73c 44ab c3bd
000001a0: 9937 61be f5dd 35be 0bca 883e 2575 473e
000001b0: 8dcd 87be 141c 7fbc 0605 59be 59df 443d
000001c0: 605e c1ba 9f72 483e f6c1 afbb 6ac2 943e
000001d0: 2612 3fbe 26e9 3c3e 12e5 6b3e bc6d 28be
000001e0: 0e11 02be b1d4 833e f2ad 923c a870 3a3e
000001f0: c149 3abd 10ee e03c 805b 7ebe f185 e6bc
00000200: c621 6bbe c787 963e 8f2d c43d c199 35be
00000210: ef4b 3f3e 7606 13bd b80b cabd ac19 2dbe
00000220: 6b17 c1bd c6a7 043e 5b9b fbbd ae39 c53d
00000230: 2c50 943e fb06 023e 4f38 813e 2cf0 f13d
00000240: 49c4 f53d 54c7 8ebe 5273 63be 7268 7b3e
00000250: 2377 5cbe 0b76 2bbe 8d4d 233e 4b45 fb3d
00000260: 5e96 f63d 446d 69be 686d 7f3e 754e 15be
00000270: b6e7 083e 229b adbe d7ab 3fbe 3d92 fabc
00000280: 1b4e 123e 4d2c e23d 60cc c5bd d82e fabd
00000290: d8a8 94be 12bd 6e3e 3099 f33c 1d5c c4bd
000002a0: b19c 223e f7aa 1e3e 776b 31be 8193 383e
000002b0: 7c63 31be 0910 083e 1e91 65be 4939 5f3d
000002c0: 577a 8b3e 44ff 1bbe ecea efbc 9fae 443e
000002d0: 4830 debd 2f50 853d 2e81 843e 939e 96bd
000002e0: 8318 13be d131 2abe 55af 56be 0b4f 6e3b
000002f0: d547 67be 4518 3e3e b18b 1b3e ac56 15bd
00000300: 2dec eebc 4264 8b3e ec42 963e 8d72 2c3e
00000310: cf37 0abe 370e 48be ce06 46be 13ca 12be
00000320: 00ab 4bbc 7062 443e afe7 2c3d 16db acbc
00000330: 5afb 8fbe 3eb0 f7bd 8812 a8bd b843 53bc
00000340: c526 233e a6a3 943c 1da5 9b3d bb62 4c3e
00000350: a19f 1e3e 84c9 de3a 5ec2 463e 83d3 53bd
00000360: aa80 fc3d f44d 4e3e f6fb 5bbe 533f 10bb
00000370: 6563 49be 4aa6 dabc 4bab 333d 6ac8 62be
00000380: 5e44 8dbd 38df 8a3d a76c 133e 7eef 60bd
00000390: 178a c8bd e257 9f3d 91ee 07bd 9e0d cf3c
000003a0: 71c7 8ebd 549d fbbd 9476 d8bc 0f98 94bd
000003b0: e329 153e 6d1f d4bd 1909 6e3e 3e2d 21be
000003c0: c91f 80be 6cd5 8d3e 6adb cf3c f9f9 d9bd
000003d0: 0a6c 9fbe 245f 1dbe b000 0bbe ae03 99bd
000003e0: 8548 6dbe ffee f8bd af15 913d c112 893e
000003f0: 19bc 77be 60cc 893e ce7f 5ebe 31e2 d2bd
0.13518779 0.10162177 0.09816657 -0.14828555 0.28165275 0.13531645 -0.2931421 0.13580205
0.051630545 0.19308265 0.06716327 -0.012075758 -0.049402066 0.010516748 -0.11425991 -0.18152092
-0.25476313 0.17278507 0.24035218 0.03167242 -0.10842614 0.07834404 0.11951926 0.21803813
-0.15540004 0.061935652 0.24805656 -0.03038799 0.32146695 -0.26631373 0.059329145 -0.04826581
0.2581506 -0.16148496 0.12601899 0.01366699 -0.070149034 0.10560196 -0.0045322645 0.22079258
-0.20660223 -0.22967696 0.072886154 0.25021556 -0.13066642 -0.14420085 0.038625788 0.17534591
-0.21814027 0.16243704 -0.13055204 0.28493893 -0.32109198 0.07672769 -0.13049652 -0.12587197
0.14602403 0.24904288 0.030726092 -0.1871503 -0.19784108 0.07547104 -0.11598513 -0.25428247
-0.15645595 0.0698425 -0.19924925 0.34822762 0.23350906 0.009002047 0.048509195 0.02627944
-0.16529128 0.30811766 -0.22508214 -0.023449942 0.3393191 0.2530494 0.23123865 0.24961393
-0.05869369 0.04156626 -0.2716324 0.059541572 0.2285366 -0.2902314 -0.10027425 0.153899
-0.039369278 0.0660165 -0.17007922 0.2992989 -0.32923603 0.043643266 0.14825018 -0.096882164
0.016176723 -0.24926615 0.3571927 -0.18618831 0.03570851 0.23848863 0.020429453 -0.09554151
-0.21993865 -0.17760451 0.26716647 0.19478281 -0.2652401 -0.015570659 -0.21193323 0.048064563
-0.0014752857 0.19574974 -0.005363698 0.29054576 -0.18659267 0.18448314 0.23036602 -0.1644811
-0.12701818 0.25748208 0.01790521 0.18207037 -0.045480493 0.027457267 -0.24839592 -0.02814004
-0.22962102 0.29400465 0.09579002 -0.17734434 0.1868131 -0.035894834 -0.098655164 -0.16904324
-0.09428295 0.12954625 -0.12285491 0.09630142 0.28967416 0.12697975 0.25238273 0.11813387
0.12000329 -0.2788645 -0.2221196 0.24551561 -0.21529822 -0.16744249 0.15947552 0.12269076
0.12040399 -0.22795588 0.24944079 -0.1458071 0.1336964 -0.3390742 -0.18717895 -0.03058731
0.14287607 0.11043606 -0.09658122 -0.12215966 -0.29035068 0.23314312 0.029736131 -0.09587882
0.15880086 0.15494905 -0.17326151 0.18025018 -0.17323107 0.13287367 -0.22418639 0.05449799
0.27241775 -0.15234095 -0.029286824 0.19207238 -0.10849053 0.065094344 0.25879806 -0.073544644
-0.14364819 -0.16620566 -0.20965321 0.0036363031 -0.22585995 0.18563946 0.15190007 -0.03645961
-0.029165352 0.27224928 0.29347932 0.16840573 -0.13497852 -0.19536673 -0.19338533 -0.14334898
-0.012430906 0.19178176 0.04221314 -0.021100562 -0.28121454 -0.120941624 -0.082066596 -0.012894563
0.15932758 0.01814444 0.07599852 0.19959538 0.15490581 0.0016997312 0.19410083 -0.051715385
0.12329228 0.20146924 -0.21482834 -0.00220104 -0.19666822 -0.02669062 0.04386453 -0.22146764
-0.06897806 0.06780857 0.14396916 -0.054915898 -0.097919635 0.07780434 -0.0331865 0.025275048
-0.06971634 -0.12285867 -0.02642373 -0.072555654 0.1456676 -0.103575565 0.23245658 -0.15739915
-0.2502425 0.2770189 0.02537318 -0.106433816 -0.31137115 -0.15368325 -0.13574481 -0.07471405
-0.23172195 -0.1215496 0.07084214 0.2677212 -0.24192847 0.26913738 -0.21728441 -0.10297049

decoder.0.bias f4 [6400]
00000000: 75e3 2abe b2ef 07be 0caa 7b3e 7402 57be
00000010: cbd6 283e 5588 31be 1b1a 8abd 331a 0bbe
00000020: 778f 65be 516a 10be 9b9e ff3d 137d 4c3e
00000030: b948 c23d b34c 8fbc e4b0 76be 35f1 093e
00000040: 119f 823e 4a9a 34be 8fd0 a7bd 7d95 b63d
00000050: c2f9 22be c5e8 363e b257 0e3e 48b9 4cbe
00000060: fae2 513e ac84 d6bc e5db 4a3e f656 973e
00000070: d424 3aba 19bf dfbd 9cf6 06be b69d 13be
00000080: 326e 053e 6418 833e e993 14be 4c16 9b3e
00000090: cfe0 363d a182 46bd 42ae 27be 9aaa 72be
000000a0: b0ed 14bd 879f 93bd ffe4 7b3e f490 783e
000000b0: cd8f 24bd 850f cbbd c327 13bd f734 3bbd
000000c0: 597d 653d e80c 663e cd31 1bbe 963a 563e
000000d0: 9339 b93d c959 ecbd 421d 37be aa28 acbd
000000e0: 87cc 8abe b3de 423e dfc4 2cbe 744b 01bc
000000f0: bbb4 11be e2fc 9a3d b2bb fa3d f22f 7d3e
00000100: 7ef3 843e a818 293c bd6a 81be 72b7 1ebe
00000110: d30a 4ebe a2bd a93d b9bd 973b 1d83 563e
00000120: e935 1fbe e571 b03d 1ed3 1cbd bfc9 13be
00000130: 518c 1bbe 545e 373d 6789 783d c41f 2dbe
00000140: 5ccc 7d3e 9092 08be 97df 4d3e 3e17 443e
00000150: cd8e c5bd 180e 8f3e 34a2 30be db98 41bd
00000160: e3b0 673d 1dac 7e3e 3bd0 8d3e 3dcc f5bd
00000170: 1f4f 2abe 28f0 f8bd dcc2 783e b3cb 863e
00000180: 3c92 b93c f9bd f2bd 935f 0c3e 980c 8e3d
00000190: fede e7bc 0653 b03c dc74 363e 62d1 9b3d
000001a0: 5133 3fbe d3ec 973e 93ba 053e 0545 45be
000001b0: 90ba 503d f856 2fbd 3528 56bc c0f4 793e
000001c0: 1e4f a53d a88f d13d f58f ac3d b352 b4bd
000001d0: 2ea0 2ebe ac96 513e d878 1c3e bbb7 e93d
000001e0: b807 093e b441 b1bd c19b 97bd 108c 94bd
000001f0: 3159 883d 78c3 683e b45b a7bc 6bac 6d3d
00000200: c8e7 20be a624 d43d 8cb0 bebc 3789 aebd
00000210: 43d2 75be 1ed5 633e 4bc8 2bbe 87b8 083d
00000220: aa4d 1b3e 12f5 97bd a262 a8bd f5be c33d
00000230: 6199 553e 83df e0bd dd6b 1cbd 3d1a 663d
00000240: 90e7 84be e811 babd b88b 513e 51d1 913e
00000250: 61bf 0cbe 1273 8c3e 8579 c03c 5984 783e
00000260: 41ed 75bd b572 3a3e a431 233e a8b0 a53d
00000270: d64d b8bd 3e80 17bd 30b0 0bbe 40f6 1e3d
00000280: f4e0 42bd 812c 103d f544 103e 5f94 29be
00000290: 748c 23bd 0a18 1d3e 930c 853e 9fd7 57be
000002a0: b6d9 98bb 6dc6 a1bd d09d 663e 9541 f13d
000002b0: 5fdf 7f3c 4b0b 6c3e 5872 45be 0d56 26be
000002c0: 148f 7bbd 488c 343e 23d5 7fbe ab0a fdbc
000002d0: 7790 06bd c763 4f3e 7921 d3bc 0483 6f3e
000002e0: 0b81 533e 067f 183e c53c 29be d81f 873e
000002f0: 9f13 b43d 2c5b 093e bda7 353e 6c6b 6cbe
00000300: fd78 1dbe dc9f 82be f3fa 99bd f6b7 553c
00000310: b916 813e 3daf a5bc 865e 8e3e d433 813e
00000320: 164f 24bd f785 18bd 93cf cc3d f44b 71bb
00000330: f8bf e13b 3736 e3bd 5aa6 00bd 96ba bfbd
00000340: cb2a 18bd 2a5c 313e d7b1 72be 2528 3bbe
00000350: 2713 df3d 8edc c8bd f8f3 823e 9d5a 973e
00000360: 548e 53bd 912a 14be f216 82bd 8b2b 7fbe
00000370: ebdc 883e 3f75 0cbe a901 ec39 ed4e 913c
00000380: e13a e63b 564d d8bd 6fd2 79bd 63b2 a9bd
00000390: e95d afbd 5215 2dbe 61b8 fd3d a06f b03d
000003a0: 7e75 9e3e 9aae 78be ca2f 6bbd 68de 6abe
000003b0: 5faf 863e 19c8 423e 112f 873e db5b 673e
000003c0: 64da 54be 0542 2dbe 04c1 693e 71e5 753e
000003d0: 56ef 6f3c 472a 8a3e 5a10 883e de5c f13d
000003e0: 6460 5b3c 0e16 1cbd cc68 b7bc d83d 893e
000003f0: 87e4 90be 3070 22be 9d1e 093e c300 943e
-0.1668833 -0.1327503 0.24576586 -0.2099703 0.16488187 -0.17337163 -0.067432605 -0.13584213
-0.22418009 -0.14103056 0.124814235 0.19969587 0.09486527 -0.017492628 -0.24090916 0.1347092
0.25511983 -0.17636982 -0.08194076 0.089152314 -0.15915588 0.17862232 0.1390064 -0.19992554
0.20496741 -0.02618631 0.19810446 0.29558533 -0.0007100825 -0.10925121 -0.13180012 -0.1441563
0.13030317 0.25604546 -0.14509548 0.3029045 0.044647988 -0.04846442 -0.16375068 -0.23697892
-0.03635949 -0.07208162 0.24599074 0.24274045 -0.0401762 -0.099150695 -0.03592659 -0.045704808
0.056027744 0.22465861 -0.15155716 0.20920786 0.090441845 -0.11540563 -0.17882255 -0.084061936
-0.27109167 0.19030266 -0.16871975 -0.007891525 -0.142291 0.07567765 0.12242831 0.24725321
0.2596702 0.01032082 -0.25276747 -0.15499666 -0.20121317 0.08288123 0.004630771 0.20948453
-0.15547909 0.08615474 -0.038287275 -0.14432429 -0.15190245 0.044767693 0.060677912 -0.16906649
0.24784988 -0.13337159 0.20104824 0.19149491 -0.09646378 0.2794044 -0.17249376 -0.047264915
0.056565177 0.24870344 0.2769793 -0.12001846 -0.16631745 -0.12155181 0.24293083 0.26327285
0.022652738 -0.11852641 0.13708334 0.06935996 -0.028304573 0.021523964 0.17818016 0.07608296
-0.1867192 0.2967287 0.13059454 -0.1926461 0.05095917 -0.04280755 -0.01307111 0.24409771
0.08071731 0.102324784 0.08425895 -0.08804836 -0.17053291 0.20467633 0.15280473 0.11411997
0.1338185 -0.0865511 -0.074027546 -0.07253277 0.06657637 0.22730815 -0.02042947 0.05802576
-0.15713418 0.10358553 -0.023277543 -0.085222654 -0.2400599 0.22249267 -0.16775624 0.033379104
0.15166345 -0.0741979 -0.08221938 0.095579065 0.2085929 -0.109801315 -0.038188804 0.056177367
-0.25957918 -0.090854466 0.20463455 0.28480008 -0.1374488 0.27431542 0.023495445 0.24269237
-0.060040716 0.1820782 0.15936905 0.08090335 -0.08999221 -0.036987536 -0.13641429 0.03880906
-0.047577813 0.035198692 0.14088805 -0.16560505 -0.03992887 0.15341201 0.25986156 -0.21078347
-0.004664625 -0.07899175 0.22521138 0.11780087 0.015617221 0.23051183 -0.192819 -0.16243763
-0.061415747 0.17631638 -0.24983649 -0.030888876 -0.032852616 0.20252906 -0.025772797 0.23389822
0.20654695 0.14892206 -0.16527088 0.26391482 0.08792805 0.13413686 0.17739768 -0.23087853
-0.15378185 -0.25512588 -0.07518568 0.013044348 0.2521265 -0.020225162 0.2780649 0.25234854
-0.040114485 -0.037237134 0.10000529 -0.0036818953 0.0068893395 -0.11094325 -0.031408645 -0.0936176
-0.037150186 0.17320314 -0.23700653 -0.18277033 0.10892325 -0.098076925 0.25576758 0.2956132
-0.051649407 -0.14469363 -0.06352033 -0.24918954 0.26731047 -0.13716601 0.00045014665 0.01773783
0.007026062 -0.10561626 -0.0609917 -0.08285978 -0.08562834 -0.16902664 0.12388683 0.08615041
0.30949014 -0.24285355 -0.057418622 -0.22936404 0.26305673 0.19021644 0.26403096 0.22593634
-0.20786434 -0.16919716 0.22827536 0.24013306 0.0146444645 0.2698538 0.26574975 0.11785291
0.013389681 -0.03810697 -0.022388838 0.26804996 -0.28299353 -0.15863109 0.13390584 0.2890683

decoder.3.weight f4 [16, 6, 5, 5]
00000000: db93 413d 9eac 2cbd d7e5 443d d8c4 bdbc
00000010: c7e9 e4bc f1bd 393c 4095 a5bc 1512 303d
00000020: ee77 85bd 38c4 acbd 203a 903d ab00 103d
00000030: 604a 01b8 7312 2cbb 7ae5 56bd 3694 92bd
00000040: cafe 46bd ccfa 3bbd 3596 d6bd a342 b0bd
00000050: 2fcc cabd 39f5 9abd 6def 413d a4f1 6dbd
00000060: 131f a9bd 5edd cd3d 060d ca3c c156 f8bc
00000070: 25e4 553d 5a92 a43c 46f5 c9bc f957 a3bc
00000080: 5555 80bc 44e1 6fbd 2c6c 47bb dd30 93bd
00000090: f729 80bd 8edf 2cbc f0c3 8d3c 6f4b a3bc
000000a0: e846 2a3c 2424 42bd edd0 043d 6e5a d3bc
000000b0: 3fbe 49bd 30a0 88bd 20a1 1c3d e896 85bd
000000c0: 8d1d 23bd 4fd6 183d b36c 97bd 56ec 25bd
000000d0: b731 363c ecb6 1b3a 57bd a0bc 8d22 12bd
000000e0: 18b8 a53b 8601 94bd aeec 84bc a828 2bbd
000000f0: 6ded 92bd 6ddf 6cbd 8156 ee3c 91c6 46bd
00000100: 0af9 93bd 1e6e abbc 03c3 82bc d514 883d
00000110: 9b4b 4dbd c67e 0fbd 2f6b cb3b 101e 823d
00000120: a1cf 3c3d 93fd 503d c5ec 4bbd 6ab9 24bd
00000130: 1a54 e8bc 7691 333d 4b4a 85bc 52a3 1f3d
00000140: 26e2 243d 3422 483d e088 103d c47c 333d
00000150: 651b 4f3d e0ef e63c b25b c7bc ba1d 823c
00000160: 6912 633d ee34 64bc 8c1d 373d ccba 27bd
00000170: 59a3 413d fe83 8ebc cb5b c63a 9e57 f63c
00000180: f77c 97bb 0352 583d 6ab2 073d 3793 333d
00000190: 0045 acbc d7d4 bc3c ed36 01bd 2c44 273d
000001a0: 7af2 78bd 365e cebc 0095 c3bc 195a 823d
000001b0: 9b0e 1d3c 16fe 44bd 8e1f 843d c820 cdbc
000001c0: 995e 34bc 0c10 983d 2ec1 c33d 3c83 383d
000001d0: 73ea 4e3d ad28 733d 83a4 863c 89d4 b93d
000001e0: ca1d 883d 5d50 843c feec a63d 6920 8f3b
000001f0: a2af 723d 553b a5bd 24ac abbc 7a52 e6bc
00000200: 9786 3dbd 9788 0fbd 5d54 3abd eee1 19bd
00000210: 9f08 d23b fdaf c73c cf78 9abd 6c1a 86bc
00000220: 5677 32bd 44e1 5fbd 48b5 a9bd 6c5e 65bd
00000230: 36a6 bd3b 1080 95bd b1e6 013d 058c 7fbd
00000240: 3a00 2a3d 8f59 24bd 418a 6bbc 8ef7 6c3d
00000250: ccd4 e5bc ee13 443d 03dd 5a3d 1259 a93d
00000260: cc44 7abc 8e7a 533d e736 323d e700 4fbc
00000270: 30db 13bd e9a5 49ba 5e29 0d3d 466e f8bc
00000280: e186 773d b370 0e3d 94ab c73d 943f 243d
00000290: de0c ab3c a260 b43c c134 8ebc 5c95 163c
000002a0: 1188 883c e2da 1dbd 56ee 80bd d5f3 4cbc
000002b0: 5af6 213d d30f 9e3d 0a08 c83a fb53 6a3d
000002c0: ad4e 893b a2d7 b8bc 2578 213b fd9b 39bd
000002d0: 6074 87bc 25ba cf3c 669f b1bd 750c abbc
000002e0: 0159 5d3d 223c 19bd bc2f 1c3d b3b0 463d
000002f0: 871b 60bd 817e efbc 0d99 4fbd 5c5f 683c
00000300: 448e b13b 39a5 92bd 3a93 5abd 69db 3f3a
00000310: efe9 1d3c ae2a b5bd 1159 3ebc 89d7 38bd
00000320: ddc6 173d fba3 65bd a800 b63c e709 91bd
00000330: acbc 2dbd 9ef8 17bc 5238 afbc 892e 573d
00000340: 56fd 4b3c 8a0e a7bd f244 343d 0438 b93d
00000350: d657 3c3c 9283 483d 7ab4 833d 275b 9e3d
00000360: b2f1 5f3c 6875 2abd d709 89bd ad99 9e3c
00000370: 4743 41bd 8df0 913d 8d53 a43d 918a 81bb
00000380: a6c9 5dbd 0b14 0c3c 4cb8 6b3d c06a 493d
00000390: 38a4 613d 4b3e db3d f888 4fbb 39ff 47bd
000003a0: 95fb a53d 109c f73c 634b dd3c 57ff 62bd
000003b0: fb5e 36bc fb6d 8f3d b586 833b fac1 413d
000003c0: b7b8 923d 5354 cc3d 4369 9b3d f142 dcbc
000003d0: 39b9 5a3d 3966 a33d f255 773d 89f1 153d
000003e0: 73e8 fabb dfd8 803d 35dc 8ebc 276d bcbd
000003f0: c776 cc3c 432f 6abc b918 0bbb 358d d0bc
0.047260147 -0.042156808 0.048070755 -0.023165151 -0.027943505 0.0113367895 -0.02021277 0.042985994
-0.065170154 -0.08435863 0.070423365 0.035156887 -3.0825264e-05 -0.0026256114 -0.05246494 -0.07157175
-0.04858283 -0.045893475 -0.104778685 -0.0860646 -0.09902226 -0.07566304 0.047347475 -0.058091775
-0.0825788 0.10051988 0.024664413 -0.030314805 0.05221953 0.020089317 -0.024653088 -0.01993941
-0.01566569 -0.05856444 -0.0030429466 -0.07187054 -0.06258004 -0.0105513465 0.017305344 -0.01993343
0.010392882 -0.047397748 0.03242581 -0.025799956 -0.0492537 -0.06671178 0.0382396 -0.06522924
-0.039823104 0.037313756 -0.073937796 -0.04050859 0.011120251 0.0005940038 -0.019621534 -0.03567748
0.005057346 -0.07226853 -0.016226139 -0.04178682 -0.071741916 -0.057830263 0.029093983 -0.04852921
-0.07225235 -0.020926531 -0.01596213 0.066445984 -0.05012093 -0.03503301 0.0062078456 0.0635339
0.046096448 0.051023077 -0.049786348 -0.040215887 -0.028360415 0.043839894 -0.016270777 0.038974114
0.040254734 0.048860744 0.035286784 0.043820158 0.050563235 0.028190553 -0.024335716 0.015883315
0.05543748 -0.013928635 0.044705912 -0.040949628 0.04727492 -0.017396923 0.0015133558 0.030071076
-0.0046230513 0.052812587 0.033129133 0.043841567 -0.021028996 0.023050709 -0.031546522 0.0408365
-0.06077812 -0.025191408 -0.02387476 0.06364841 0.009586002 -0.048093878 0.06451331 -0.025040045
-0.011008882 0.07424936 0.095583305 0.04504703 0.050516557 0.059364963 0.016435867 0.09073741
0.06646307 0.016151601 0.081506714 0.0043678773 0.059249528 -0.08067957 -0.020956106 -0.0281155
-0.046270933 -0.03504237 -0.04549061 -0.03756898 0.006409719 0.02437591 -0.07542574 -0.01637002
-0.04357084 -0.05465819 -0.0828653 -0.05599825 0.005787636 -0.072998166 0.031714145 -0.062389392
0.041504122 -0.040124472 -0.014376224 0.057853274 -0.028055571 0.04787057 0.05343343 0.08268942
-0.0152751915 0.05163055 0.04350939 -0.0126344925 -0.036097705 -0.0007692264 0.03446328 -0.03032602
0.060431365 0.034775447 0.09749523 0.040099695 0.020880159 0.022018734 -0.01735914 0.0091908835
0.016666444 -0.03853882 -0.06295459 -0.012509306 0.03954158 0.07717862 0.0015261185 0.057208996
0.004190287 -0.02256376 0.0024638262 -0.045314778 -0.016534984 0.025357315 -0.08672981 -0.020879963
0.05403996 -0.037410863 0.03813146 0.048508357 -0.054713752 -0.029235126 -0.05068307 0.014182892
0.0054185707 -0.0716042 -0.053363062 0.00073187664 0.009638294 -0.08846031 -0.011617915 -0.045127425
0.037054885 -0.056064587 0.02221711 -0.07081967 -0.04241626 -0.009275584 -0.02138916 0.052534614
0.012450537 -0.0815707 0.044011064 0.09043887 0.011495551 0.0489536 0.064309075 0.0773223
0.0136684645 -0.041615874 -0.0669133 0.019360388 -0.0471833 0.071259595 0.080237485 -0.003953286
-0.054147385 0.0085497005 0.057548806 0.04917407 0.05508825 0.10705241 -0.0031667333 -0.048827384
0.08104626 0.030225784 0.027013486 -0.055419292 -0.011131044 0.07003399 0.004013861 0.04730413
0.07164138 0.09977021 0.075884365 -0.026887389 0.0533993 0.07978482 0.0603847 0.0366073
-0.0076571046 0.06291365 -0.017438987 -0.09200507 0.024958981 -0.014293495 -0.0021224453 -0.025457958

decoder.3.bias f4 [6]
00000000: 6126 19bd 7eea 473c ca77 6fbd d484 303d
00000010: be0a 0a3b 3a07 833d
-0.037390117 0.012201903 -0.05846385 0.043095425 0.0021063532 0.06397863

decoder.5.weight f4 [6, 1, 5, 5]
00000000: 40cb 2bbe 26d2 2c3c d49a 4cbc cba1 edbd
00000010: 6012 1ebe e138 8cbb bc4f 25be a40a e6bd
00000020: 3fd3 e23d 67e7 d43d 8996 a53c 8a68 373e
00000030: 042e 01bd a46a 83bd 7ac4 643e 3a33 773d
00000040: 3300 d43d 5120 4f3e fd65 643e ec8f 503e
00000050: d994 c43d 3ea4 533e f02b 103e 8398 393e
00000060: 524f ea3d fd60 57be 62a7 80be 52c5 98bc
00000070: f291 b4bb 5f41 863d 069f 23be f7ba b3bd
00000080: ef33 38be ffaf 19be 0359 9f3d 47d3 1cbd
00000090: cde9 843d c393 febc 33fa d0bd aa09 543d
000000a0: 684a dcbd 8d3a 2cbd 66ac 3a3d 9f27 8cbd
000000b0: b35b ec3c 698e b4bd 212e d8bd 505b 423c
000000c0: c013 0abd 83c1 cf3d 35c5 c83d 42d1 2e3e
000000d0: 513c 693e f8c8 0b3e 3245 d6bc 7b6b 583e
000000e0: 4c60 9a3d f885 e33d 58f0 d63d 2b31 133e
000000f0: 8255 b63d 228c ccbd 32ac 2fbd b55d 0b3d
00000100: 2fe6 e43c 05d2 5f3c bb1d 283e cf1a 5b3e
00000110: 16d8 9c3d 1bf3 d03d fd1b bb3d d490 04be
00000120: 8823 393e b2de cf3d 0284 253e b292 b93d
00000130: d74c dd3b ea1d cabd 7004 efbc 1036 1dbe
00000140: 8d1b 543e 7bbb d93d 24ea 3ebd a389 fbbc
00000150: bc54 003e 00f7 623e 80f0 203c 757f 3f3e
00000160: f7a2 ae3d a5f2 2e3b 4f54 553d 5303 103e
00000170: 5dca fdbd db5c 80bd 101e acbd 19db 1cbe
00000180: 6b34 2abd 66cb 003e 4ad2 1fbe 2025 71be
00000190: 2bed 183d 7d41 2bbe 3acd adbc 3c6f c1bc
000001a0: 0e4b 9d3a 9ed1 54be 450a c1bc bbad 2dbe
000001b0: c21f 1cbe 9c6a aa3d 3334 57be 5b6e d4bd
000001c0: 10d2 103d ae2a 813d 8acd 5cbe dea2 c13c
000001d0: d596 bfbd 7bc1 92bd e1ca 193c 2e88 2bbb
000001e0: 7140 67be 3567 1cbe fd02 65bd 41fb 42be
000001f0: 6d8c 0bbe 7f68 9b3c 1f90 ac3d 3f0a 3abe
00000200: 23b1 f43d 7366 16be ed43 193e d899 31be
00000210: 43be f0bd db32 8cbd ae9b 183e 2308 fc3d
00000220: 2bcc 64be 13dc e43d aab7 29be 7633 2c3e
00000230: 3a3a d2bd 75a5 25bd 9716 2ebb f48e 063e
00000240: b874 603d b696 d13c 09e1 6d3d 6625 a6bd
00000250: 5d62 d9bb 734a 3dbe
-0.16776752 0.01054815 -0.012488086 -0.11603125 -0.15436697 -0.0042792414 -0.16143698 -0.11232498
0.11075448 0.10395699 0.020213382 0.17910972 -0.031538025 -0.064168245 0.22340575 0.060351588
0.103516005 0.20227171 0.2230453 0.20367402 0.09598703 0.20668122 0.14079261 0.18124585
0.114409104 -0.21033092 -0.25127703 -0.018648777 -0.005510562 0.06555437 -0.15978631 -0.08775895
-0.17988561 -0.15008543 0.077806495 -0.038287427 0.064899065 -0.031076318 -0.10203972 0.05176703
-0.10756379 -0.042048026 0.04557457 -0.068434946 0.02885232 -0.08816225 -0.105556734 0.011862591
-0.03371024 0.10144331 0.09803239 0.17072013 0.22776915 0.13650882 -0.026156042 0.2113475
0.075378984 0.11109537 0.10495061 0.14374225 0.08903028 -0.09987666 -0.042888828 0.034024913
0.027941791 0.013660912 0.16417591 0.21396945 0.076584026 0.10202619 0.09136198 -0.12945873
0.1807996 0.10149898 0.16163638 0.09061183 0.006753545 -0.09868987 -0.02917692 -0.15352654
0.20713635 0.10631462 -0.046610013 -0.030705279 0.12532324 0.22164536 0.009822965 0.18700965
0.08527177 0.002669492 0.052082356 0.14063768 -0.12392113 -0.06267711 -0.084041715 -0.15317954
-0.041553896 0.1257759 -0.15607563 -0.23549318 0.037335556 -0.167242 -0.021216024 -0.023612611
0.0012000517 -0.20783088 -0.023564467 -0.16960804 -0.1524649 0.083211154 -0.21016006 -0.10372611
0.03535658 0.06306969 -0.21562782 0.023637231 -0.09354941 -0.0716581 0.009386749 -0.0026173699
-0.22583176 -0.15273745 -0.055911053 -0.19041158 -0.13627787 0.018970726 0.084259264 -0.18167971
0.11947849 -0.14687519 0.14967318 -0.17343843 -0.117550395 -0.068456374 0.14903137 0.123062395
-0.22343509 0.11174788 -0.16573969 0.16816506 -0.10265012 -0.040440995 -0.0026563758 0.1314047
0.05479881 0.02558456 0.05807594 -0.08112602 -0.0066340403 -0.18485431
