Autoencoder-on-MNIST-in-Pytorch/test/first_run/model_e20.pt (torch, 561729 bytes, 11 tensors)

encoder.0.weight f4 [6, 1, 5, 5]
000000 f4 d2 2d 3d 62 84 c6 bd 05 9c 86 3b f0 01 25 be
       0.04243751 -0.09693219 0.0041079544 -0.1611402
000010 44 f8 a5 bd d4 9f 33 3d 1e aa 9d 3d 54 7e 34 3d
       -0.081039935 0.043853596 0.07698463 0.04406579
000020 42 7c 2d 3e 85 f4 63 3d a2 be b6 3d be bb d2 3d
       0.16941932 0.055653114 0.08923079 0.10289715
000030 6e b9 d2 bd a9 ec 38 3e b8 ed ce 3e c3 7a 52 3b
       -0.10289274 0.18059029 0.4041574 0.0032116629
000040 a0 71 02 3e da 53 19 bd be 1e 28 be fc 1a b3 3e
       0.12738657 -0.037433483 -0.16417977 0.34981525
000050 54 cb f7 bd 2b 83 94 3d 04 10 d8 3d 97 54 8b 3d
       -0.12099329 0.07251581 0.1054993 0.068032436
000060 b0 e8 c5 3d 60 01 84 be d0 2b 44 be 1d a7 8d be
       0.09663522 -0.257823 -0.19157338 -0.2766656
000070 52 0a 4d be 38 b4 f4 bd 4d a9 12 bf d4 fd 9c bd
       -0.20023468 -0.119484365 -0.5728958 -0.076656014
000080 98 3e ae bd 65 8d 98 3d 59 65 75 be a6 95 48 be
       -0.085080326 0.07448844 -0.23964442 -0.19588336
000090 f4 41 c1 bd b6 e0 e0 bd 2f ae 4f be db 17 42 be
       -0.09436408 -0.1098036 -0.2028129 -0.18954413
0000a0 50 8e d4 bd 99 f4 06 be 9d bc 49 be eb e5 61 be
       -0.103787065 -0.13179244 -0.19700857 -0.22060363
0000b0 16 94 ca be fa 39 9c bc f0 c3 a6 3c b9 7f 71 bd
       -0.39566106 -0.019070614 0.020357102 -0.058959696
0000c0 07 04 8c bd a5 e7 1a 3d 5a fc ad be a8 a1 9e bd
       -0.06836706 0.03781857 -0.3398159 -0.07745677
0000d0 2f af 15 be 62 66 2d 3e 01 40 21 3e ad 1f 89 be
       -0.14617608 0.16933587 0.15747072 -0.2678198
0000e0 4a ee 5c 3e 64 87 a0 3d 28 11 6f 3e fd a5 e9 bc
       0.21575275 0.07838324 0.23346388 -0.028521532
0000f0 65 c9 8e be b1 22 1c 3e 1f f9 19 3e 53 49 aa 3c
       -0.27888027 0.15247609 0.15036438 0.020786917
000100 97 77 ef 3c 86 93 21 3c ed 09 65 3e 9a 16 88 3c
       0.02923183 0.0098618325 0.22367068 0.01661234
000110 03 06 05 3d da 0e df ba 4f 53 2a 3e 89 0d 7f 3c
       0.032476436 -0.0017017976 0.16633342 0.015567192
000120 ae ff 80 3d e5 75 9c 3c 8c b5 e9 bd 57 05 11 be
       0.06298767 0.019099185 -0.114115804 -0.14162193
000130 cc 75 dd bc 76 f5 14 bd 59 7d 60 bd ea 04 89 be
       -0.027033709 -0.036366902 -0.05480704 -0.26761562
000140 7e 86 55 bd 1a 35 2a bd af c7 b9 bd a6 d8 52 3b
       -0.052130215 -0.041554548 -0.0907129 0.003217259
000150 1a 16 36 be d5 7b 19 bd 90 d3 c0 bc 60 32 a7 bc
       -0.17781869 -0.03747161 -0.02353838 -0.020409763
000160 57 dd 70 3d f3 2e 81 3b b4 a4 d9 3d f9 f7 97 bc
       0.058804836 0.0039423644 0.10627118 -0.01855086
000170 28 3d 36 be 2b e8 07 bc b4 4a b7 3d 53 06 96 3d
       -0.17796767 -0.008295099 0.08949795 0.07325425
000180 55 ed 83 3e 78 97 61 3e d3 99 6e 3e b6 a5 38 3e
       0.25767007 0.22030437 0.23300867 0.18031964
000190 9f c1 61 3c b7 d5 7b 3e 38 3e 10 3e 3d 54 e2 3d
       0.013779073 0.24593244 0.14086235 0.110512234
0001a0 21 6c 5d bb 50 be ad be 85 c7 62 3d c0 48 5c bd
       -0.0033786374 -0.3393426 0.055366058 -0.053780317
0001b0 87 d7 a7 3d fc 99 14 bd da 58 dc be 8c f5 4d 3e
       0.081954055 -0.036279663 -0.43036538 0.201132
0001c0 cb c2 0b 3e 56 a3 6b 3c f9 1f 7e be 14 b7 83 be
       0.13648526 0.014382204 -0.24816884 -0.25725615
0001d0 da a0 43 bc 78 73 3d 3c df 19 58 3e af 19 72 bd
       -0.0119402055 0.011563174 0.21103619 -0.059106525
0001e0 89 3a ba be b6 dd 84 bd 1b 2e 01 3e a1 d9 02 3e
       -0.36372784 -0.064876005 0.12615244 0.12778331
0001f0 c3 44 cc 3d d0 e5 5f 3d 62 22 1b 3c 2f bf b7 3d
       0.09974053 0.054662526 0.009468647 0.08972012
000200 34 74 91 bd 86 8a 5d 3e 8b 45 76 3c 6e ed 1f be
       -0.07102242 0.21634874 0.015031229 -0.15617916
000210 15 2a 31 be 56 09 2c bd 78 40 c5 3b ce 7f d2 3d
       -0.1730121 -0.04200109 0.006019648 0.10278283
000220 54 02 15 3e 61 9f 43 3e f3 c5 c0 3d 4c 48 2c 3e
       0.1455167 0.19103767 0.09412756 0.16824454
000230 6f 28 8d 3e 78 10 80 3d 17 60 52 3e 6c a4 9e bd
       0.2756991 0.06253141 0.20544468 -0.07746205
000240 ec fb 96 3d c1 32 6d 3d fa 29 82 be 46 c5 c5 be
       0.07372269 0.05790973 -0.2542265 -0.3862707
000250 f9 bb 83 be 77 95 bd be
       -0.2572935 -0.37028095

encoder.0.bias f4 [6]
000000 fd 4b a7 bb 96 65 d6 3e ec e1 bb be 95 0b 91 bc
       -0.005105494 0.4187438 -0.36695802 -0.017705718
000010 20 13 2a be c0 94 16 be
       -0.16608858 -0.14705181

encoder.2.weight f4 [16, 6, 5, 5]
000000 3e 37 83 bc ef d9 c3 3d c6 d6 23 3d 3d 26 70 bb
       -0.016017552 0.09563052 0.039999746 -0.0036643886
000010 4c 4e 0b bd 16 47 a8 3d 8e 25 87 3d 9c d8 94 3d
       -0.034010217 0.082166836 0.0659896 0.072678775
000020 24 47 67 bd 04 88 03 3e 24 10 64 3d 09 52 e2 3d
       -0.05646433 0.12844855 0.055679455 0.11050803
000030 cc b9 9d 3c 48 2f 7a 3d 1c bd 1d 3a a8 75 85 3c
       0.019253634 0.061080247 0.0006017254 0.016291454
000040 9d 72 9d 3d 24 f0 4f bd cf e8 9f bd 5f 60 bd 3d
       0.076878764 -0.050766125 -0.078080766 0.09246897
000050 da 43 8e 3d d5 65 5f 3d f4 ea 7e 3c 17 f0 cc 3c
       0.069465354 0.054540474 0.015558947 0.025016828
000060 e9 a5 9b 3d 03 c4 74 3d 82 34 9a bd b4 2b e3 bd
       0.07600004 0.059757244 -0.07529546 -0.1109232
000070 4f 7c e2 bd 21 41 d4 3c 5e 46 b9 bc 6f 6b 33 be
       -0.11058866 0.025909962 -0.022616562 -0.17521451
000080 23 9d e1 bd 07 f9 bb be dc 0f 7e be 0e 28 54 be
       -0.110162996 -0.3671343 -0.24810737 -0.20718405
000090 a1 89 2f bd df cf a9 bc fc 55 8d bd 55 ba 5e be
       -0.042855863 -0.020729003 -0.06901166 -0.21750768
0000a0 49 fe 63 be bc 09 09 be 5a 00 7a bd 8f be 0d bd
       -0.22264971 -0.1338262 -0.06103549 -0.03460556
0000b0 ea 70 7c be ab 79 e4 bd f4 56 66 be 51 6c cc bd
       -0.24652448 -0.11156019 -0.22494107 -0.09981597
0000c0 85 6f 79 bd 35 be 02 be 38 0f 99 bc 6d e2 cc 3b
       -0.06089737 -0.1276787 -0.018684015 0.006252578
0000d0 ca 14 1c bd 8b b9 77 bd 46 33 88 3d 15 c4 51 3d
       -0.038105763 -0.060479682 0.06650405 0.05121239
0000e0 f4 51 16 3d 89 e2 3c bd 67 23 34 3d 5e 97 fc 3c
       0.03669925 -0.04611448 0.043979075 0.030833896
0000f0 48 5a 26 3d c9 7d 2b 3d 66 d0 48 3d ed 4e 83 3c
       0.040613443 0.041868005 0.04902687 0.016028846
000100 0d 26 8a bc 40 9a 02 bd f8 18 9c bb 80 69 7c bd
       -0.016863847 -0.031885386 -0.0047637187 -0.06162405
000110 1e ac 95 bd 57 e9 20 be 63 8b a9 3d bf dd 86 3d
       -0.073082194 -0.15714012 0.08278539 0.065852635
000120 a2 8a 27 3d b0 12 ad bd 19 f3 3c be ec ac 30 3d
       0.040903695 -0.0845083 -0.1845211 0.04313366
000130 4e ed a7 3c 70 fc 44 3d 35 81 95 bc 8c 15 95 3d
       0.020498898 0.048092306 -0.018250087 0.072795
000140 e1 85 00 3d ee 1f d3 3b c4 15 4c 3d 36 ef ed bc
       0.031377677 0.0064430153 0.049825445 -0.029044729
000150 ff 16 ad 3d 52 7f 4e bc 5b 1e e7 bd f7 60 8c bd
       0.08451652 -0.012603598 -0.11285087 -0.06854432
000160 04 4d 91 bd 67 6c c7 bc 8d c0 9a bd da 94 19 bc
       -0.07094768 -0.024343682 -0.075562574 -0.009373868
000170 1e ea d9 3d 61 d4 ab bc 90 be c9 bc f4 0b 0d bd
       0.106403574 -0.020975294 -0.024627 -0.034435228
000180 9f 4b 6a bd 0a 2c 7d 3d 11 15 61 3c 27 9b 03 3d
       -0.057201024 0.061809577 0.013737933 0.032130387
000190 7a 57 e7 bb 3e ce 6a 3c f9 62 39 bd e7 29 45 bd
       -0.0070599886 0.0143313985 -0.045260403 -0.048135664
0001a0 4d 2e 84 3b b0 8d 06 3d 3c a0 ef 3c 4d f8 a1 3c
       0.00403384 0.032849967 0.02925121 0.01977172
0001b0 21 88 6d bd 20 0c 9d bd ac b1 0a bd c9 ed 26 3c
       -0.05799115 -0.07668328 -0.033860847 0.010188528
0001c0 bc 84 44 3d c0 30 87 3d 02 8c 37 be db 17 26 3d
       0.047978148 0.06601095 -0.17924502 0.040550094
0001d0 74 a2 e7 3b dc 70 fe 3d 22 e1 be 3b 00 38 0a 3d
       0.0070689265 0.1242387 0.0058251778 0.033744812
0001e0 a2 8f 86 bc 4b 84 88 bd 7f 19 23 3d 78 8d 0e bd
       -0.016425911 -0.06665858 0.039819237 -0.034802884
0001f0 bb d1 45 3d 2c a7 aa 3c b3 c8 fa bd 84 5f 4f bd
       0.048295718 0.020831667 -0.122453116 -0.0506282
000200 db 9e 20 bc 8b bb 8e 3c 4d ff fc bd 35 77 d8 bd
       -0.009803499 0.017423412 -0.12353382 -0.10569612
000210 99 ab 0f bc c6 bc 37 3d 9d 60 dd bb 33 a6 47 3c
       -0.008768939 0.044857763 -0.006755902 0.012185621
000220 83 fb 25 3d 08 43 14 bd c2 c4 28 3d 43 77 38 bd
       0.040523063 -0.03619674 0.041203268 -0.04503561
000230 4a 07 fe 3c 04 8b e1 3d 74 81 d7 3d f5 76 0f 3d
       0.031009335 0.11012843 0.10522738 0.035025556
000240 a2 c9 47 bc 1f a2 00 3e 2a c7 75 bb c0 d3 80 bd
       -0.012194069 0.12561844 -0.0037502744 -0.06290388
000250 6e ce cc bb a7 c0 34 bc 95 b9 9a bc 77 51 9f bc
       -0.0062501943 -0.01103226 -0.01888732 -0.019448025
000260 18 06 9f bc 0a 11 9b bc ea 56 96 bc b3 f1 9e bc
       -0.019412085 -0.018929023 -0.01835199 -0.01940236
000270 65 f0 a0 bc ce 39 9f bc 07 3a 9c bc f8 44 98 bc
       -0.019645879 -0.019436743 -0.019070638 -0.018587574
000280 ae 02 a1 bc 5e ee a1 bc fa 79 a0 bc 33 13 9e bc
       -0.019654598 -0.019766983 -0.019589413 -0.019296264
000290 29 0f 9a bc 86 06 a2 bc 33 e9 a2 bc 0c 38 a1 bc
       -0.018806057 -0.019778501 -0.019886589 -0.019680046
0002a0 8e 95 9e bc 19 48 9a bc 22 17 a1 bc 22 1c a1 bc
       -0.019358423 -0.018833207 -0.01966435 -0.019666735
0002b0 df c1 9e bc 58 aa 9b bc 3a 53 97 bc 72 0e af bc
       -0.019379554 -0.019002125 -0.018472303 -0.021369193
0002c0 92 10 a9 bc f0 95 a2 bc 16 55 9c bc 18 67 99 bc
       -0.020637784 -0.019846886 -0.01908354 -0.018725917
0002d0 ba f6 ab bc 5f a7 a3 bc db 3d 9c bc c5 04 96 bc
       -0.020991672 -0.01997727 -0.019072464 -0.018312821
0002e0 01 02 94 bc 9c 6c a7 bc 0b 70 9d bc ef 67 95 bc
       -0.018067362 -0.020437531 -0.019218465 -0.018238036
0002f0 12 14 90 bc ad 12 8f bc 03 3b a2 bc 1e d7 97 bc
       -0.017587695 -0.01746496 -0.01980353 -0.018535193
000300 77 6a 90 bc e3 56 8c bc f8 38 8d bc d2 fd 9d bc
       -0.017628891 -0.017131275 -0.017239079 -0.01928607
000310 19 5a 94 bc 06 47 8e bc 26 ec 8b bc ef e7 8e bc
       -0.018109368 -0.017367851 -0.017080378 -0.017444579
000320 6a 6d 46 bc bc 69 52 bc ab 5b 5c bc 63 e5 63 bc
       -0.012111047 -0.012842592 -0.01344959 -0.0139096705
000330 ba 89 5d bc 6b c6 4f bc e3 ea 5d bc 5a 2f 67 bc
       -0.013521606 -0.012681584 -0.013544771 -0.014110411
000340 b9 2b 66 bc 55 c9 5c bc a9 69 59 bc c0 b3 66 bc
       -0.01404851 -0.013475736 -0.01326982 -0.014080942
000350 f7 e8 6b bc d8 e2 66 bc 67 3e 61 bc 5f 47 5f bc
       -0.014398805 -0.01409217 -0.013747788 -0.013627856
000360 7d 4b 6b bc a8 5c 6c bc 10 ed 69 bc 1b b2 62 bc
       -0.0143612595 -0.014426388 -0.0142777115 -0.013836409
000370 d6 d3 64 bc 5d a3 6d bc ee 84 6f bc 25 6e 69 bc
       -0.013966521 -0.014504281 -0.014619095 -0.014247452
000380 aa 29 5e bc d7 4a 70 bc 6c ae 71 bc c1 df 6e bc
       -0.013559738 -0.014666281 -0.014751058 -0.014579714
000390 7f 67 6c bc 46 5c 69 bc 85 50 6f bc f6 a3 70 bc
       -0.014428972 -0.014243191 -0.0146066 -0.014687529
0003a0 c7 86 70 bc 3a 27 70 bc 6d c5 6d bc 65 26 66 bc
       -0.014680571 -0.01465779 -0.014512402 -0.01404724
0003b0 ec 3a 6a bc 71 55 6c bc ec 61 6c bc f8 57 69 bc
       -0.014296275 -0.014424668 -0.014427643 -0.014242165
0003c0 2e 74 5b bc 57 8f 5f bc 02 ad 5f bc 1a d2 5c bc
       -0.013394399 -0.013645015 -0.013652088 -0.0134778265
0003d0 84 93 56 bc 9f 49 4f bc c3 0d 4f bc b6 49 4b bc
       -0.013096694 -0.01265183 -0.012637558 -0.012407711
0003e0 0e 77 44 bc 0e 35 3c bc ae 00 3a bc 0a 9c 41 bc
       -0.0119912755 -0.011487259 -0.011352701 -0.011816988
0003f0 8c eb 43 bc cd d4 40 bc db ce 38 bc 33 15 46 bc
       -0.011958014 -0.011769486 -0.011279787 -0.012090015

encoder.2.bias f4 [16]
000000 06 c9 e1 3d f1 8b a4 bc a9 9f 40 3c 37 1a 42 3e
       0.1102467 -0.02008626 0.011756816 0.18955313
000010 dd 23 8e bd 7e a3 92 3d 13 ff 50 bd 68 04 14 bd
       -0.06940434 0.0716009 -0.051024508 -0.036137015
000020 34 94 ae 3e 6b 39 34 3d b3 83 15 ac ce 07 64 bd
       0.34097445 0.04400007 -2.1247281e-12 -0.055671506
000030 15 d8 50 bd 69 11 4e 3e 4b 9a e1 3d f9 6d 4b bc
       -0.050987322 0.20123829 0.11015757 -0.012416356

encoder.5.weight f4 [10, 6400]
000000 36 31 80 3a 34 77 a0 bb 06 6a a1 bc 37 26 53 bc
       0.0009780291 -0.0048970226 -0.019703876 -0.012887529
000010 bb 86 74 3c 50 a0 c6 3c 89 d3 4f 3d d5 d3 87 3d
       0.0149247 0.024246365 0.050738845 0.06632201
000020 4b 6f 5f 3d b0 64 48 3d 12 a9 20 3d b7 75 a5 3d
       0.054549497 0.048924148 0.039223738 0.08079093
000030 43 e2 d2 3d 4f 18 6b 3d e1 24 8e 3d a9 b7 c5 3d
       0.10297062 0.05739623 0.06940628 0.09654171
000040 69 c3 a4 3d 8d 90 d2 3c 09 c7 0c bc e9 a3 99 bb
       0.08045084 0.025703693 -0.008592376 -0.004688729
000050 da c1 fa 3b ab 84 59 bc cd 84 2b bd ec d3 a0 bc
       0.0076525034 -0.013276259 -0.041874696 -0.019632302
000060 f5 25 11 bd b1 22 14 bd 19 06 c7 bd ed 3b 84 bd
       -0.03543659 -0.036165897 -0.0971796 -0.064567424
000070 fa 3f 26 bc c4 a1 d4 bc 02 15 25 bd 61 eb 5e bc
       -0.010147089 -0.025956042 -0.040303238 -0.013605923
000080 0c f2 96 bc 06 2a e8 bb 48 a4 bb 3c 9f c0 84 3d
       -0.018425964 -0.0070850877 0.022905484 0.06482052
000090 8b 3b db 3d b2 fa 03 3e 24 ea da 3d 42 23 26 3d
       0.10704716 0.12888601 0.1068919 0.04056097
0000a0 c7 d0 8c 3c 99 4b 1f bd 18 d5 e0 bd 64 0e 11 be
       0.017189397 -0.038890455 -0.109781444 -0.14165646
0000b0 80 6d d3 bd 62 05 0a be 59 62 03 be f4 fe b4 bd
       -0.1032362 -0.13478616 -0.12830485 -0.08837691
0000c0 ed e1 4a bd a0 5f 7a bd 89 18 97 bd 72 d1 98 bd
       -0.049531866 -0.06112635 -0.073777266 -0.074618235
0000d0 5d 9c 7a bd 14 7d 76 bd c9 6e 57 bd 78 54 cc bc
       -0.061184276 -0.060177878 -0.052595887 -0.024942622
0000e0 64 08 32 3c b9 61 71 3d ea 5a 43 3d 3a 6f 79 3d
       0.010866258 0.058931086 0.047694124 0.06089709
0000f0 53 51 e7 bc 55 2b ee bd ef fb 1c be b8 3e 27 be
       -0.02823702 -0.11629359 -0.1533048 -0.16332519
000100 dd 45 c5 bd 3e 80 9f bd a2 4c 81 bd 61 15 93 bd
       -0.09632466 -0.07788132 -0.06313445 -0.07181812
000110 2d c7 1b bd 0b 2c 71 bd c6 44 83 bd 68 8f ab bd
       -0.038031746 -0.058879893 -0.06409602 -0.08376962
000120 34 fb 43 bd 90 d1 06 bd 7f fc 09 bd d4 6f 1a bd
       -0.047846988 -0.032914698 -0.033688065 -0.037704304
000130 1e c6 32 3c eb 75 75 3a d4 96 e6 3c d2 0f 9a 3c
       0.010911493 0.00093635794 0.028148092 0.018806372
000140 fb e0 9f bd 88 a1 25 be 46 8b eb bd e0 45 d8 bd
       -0.078065835 -0.161749 -0.11501174 -0.105602026
000150 46 0d a5 bd 5d d7 a3 bd fc 21 7a bd 17 6f 2a bd
       -0.08059172 -0.08000062 -0.061067566 -0.04160985
000160 4a 52 70 bd 60 bd 21 bd 03 9f 95 bd 23 74 b8 bd
       -0.058672227 -0.039487243 -0.0730572 -0.09006526
000170 d6 1b a8 bd 2f 04 3e bd b6 f4 eb bc b1 0b a2 bc
       -0.08208434 -0.04639071 -0.02880321 -0.019780966
000180 94 01 a3 bc 2a 2b a6 3b 66 2d 27 3c 0d ee fb 3b
       -0.019898213 0.0050710635 0.010203695 0.00768829
000190 a7 9e 66 bd ad 18 f6 bd c1 d9 bc bd 29 fc 8f bd
       -0.056303646 -0.12016425 -0.09221221 -0.070305176
0001a0 6d d1 52 bd 3e ee 79 bd 46 a2 fb bc d2 07 b0 bc
       -0.051469255 -0.06101822 -0.030717026 -0.021488104
0001b0 48 56 20 bd 4a ea 4a bd 4b 86 ca bd 93 6c db bd
       -0.039144784 -0.04953984 -0.098888956 -0.10714068
0001c0 5d 7e fa bd 56 8f 95 bd 88 19 5d bd a7 89 29 bc
       -0.12231133 -0.0730273 -0.053979427 -0.01034776
0001d0 b5 aa c8 bb f8 50 b9 3b eb 4d d9 bc d4 83 4a bb
       -0.0061238655 0.005655404 -0.026526412 -0.003090133
0001e0 56 94 cc bc c1 40 77 bd 5b 47 fd bd 38 da d2 bd
       -0.024973076 -0.06036449 -0.123671256 -0.10295528
0001f0 64 bb 9c bd 3f 09 6c bd bf 35 41 bd 7e 4d 57 bd
       -0.076529294 -0.057626005 -0.047170397 -0.052564137
000200 4b f5 eb bc b5 2c 66 bd 6f 0a bf bd 58 2b 0e be
       -0.028803488 -0.05619498 -0.09328162 -0.13883722
000210 5a a5 16 be 49 d8 e5 bd 9b 06 87 bd 49 af 7d bd
       -0.14711514 -0.11222894 -0.06593057 -0.061934743
000220 0d 80 52 3b 76 2f 35 bb 6c 88 67 bc 5f d4 8e bc
       0.0032119781 -0.0027646697 -0.014131647 -0.01743525
000230 83 4f 8b bd cb 01 bb bd a5 3b cf bd 36 94 83 bd
       -0.06802275 -0.09131201 -0.10118798 -0.06424753
000240 8a ee 84 bd 1a 79 8f bd 0f 3d 87 bd 98 25 8f bd
       -0.0649081 -0.0700552 -0.06603443 -0.06989592
000250 69 b5 08 bd 09 e0 6c bd 35 0d 82 bd 89 02 f9 bd
       -0.03337613 -0.057830844 -0.06350175 -0.12158687
000260 9d b3 1d be 7b 71 90 bd b6 f2 3b bd 07 30 fa bc
       -0.15400548 -0.07052895 -0.045885764 -0.03054048
000270 18 46 e7 bc 34 d8 22 bc 44 a1 69 3b ff 45 00 bd
       -0.028231665 -0.009939242 0.00356491 -0.031316753
000280 71 7b bc bd 19 61 cb bd 9b 5a c8 bd 70 50 5e bd
       -0.09203232 -0.09930629 -0.097829066 -0.05427593
000290 eb 64 e2 bd fd aa 9e bd 9a 99 c7 bd 9d e0 e8 bd
       -0.11054405 -0.07747457 -0.09746094 -0.113709666
0002a0 ec e4 b1 bd 04 af d4 bd 0a ef 83 bd 24 a6 01 be
       -0.086862415 -0.10384944 -0.064420775 -0.12661034
0002b0 63 f8 08 be a2 b6 5e bd 0f 71 cb bc ff 06 60 3c
       -0.13376002 -0.05437339 -0.024834184 0.013673543
0002c0 be 1a 37 bc 72 d3 ca bc 08 25 12 bc 91 6a 00 bd
       -0.011175809 -0.024759028 -0.008919962 -0.03135163
0002d0 7e 96 14 bd 00 c3 88 bd 1d 55 ad bd 2e 59 e3 bd
       -0.036276333 -0.06677818 -0.084635 -0.11100994
0002e0 90 74 de bd 93 7b ce bd e3 b0 06 be 00 62 23 be
       -0.10862076 -0.10082164 -0.13153414 -0.15955353
0002f0 24 f0 20 be 22 7b 10 be bb da 7f bd 5f 92 d8 bd
       -0.15716606 -0.14109471 -0.062464457 -0.10574793
000300 c4 c2 ae bd 12 48 55 bd 9e a7 f7 bc 99 59 29 bd
       -0.08533242 -0.052070685 -0.030231293 -0.041345213
000310 06 e7 19 bc 82 7c 06 3b 26 5f 98 bc 97 eb 61 bd
       -0.009393459 0.002052099 -0.018600058 -0.055156317
000320 12 5c 1c 3d c0 7f 35 bd 54 6f c1 bd 55 35 d8 bd
       0.038173743 -0.044311285 -0.09445062 -0.10557047
000330 b5 e5 f0 bd 33 45 b6 bd b5 da 1a be 05 aa 4b be
       -0.11762563 -0.088999175 -0.15122493 -0.19889076
000340 42 17 02 be 25 99 32 bd 41 a9 7b bd f3 52 53 bd
       -0.12704185 -0.04360308 -0.06144071 -0.05159278
000350 f9 95 3f bd 0a 19 8f bd a7 77 88 bc d0 a1 0c bd
       -0.046773884 -0.06987198 -0.016658617 -0.034334004
000360 99 57 27 bd 4e 51 42 bd 68 aa 95 bd 4d b9 50 bd
       -0.040855024 -0.04744082 -0.07307893 -0.050957967
000370 29 5e ed 3d dd 83 39 bc 40 ec 15 bd 7c cd 44 bd
       0.11590225 -0.011322943 -0.03660226 -0.048047528
000380 03 15 b3 bd b3 f4 b5 bd 81 fd 05 be b3 2f e7 bd
       -0.08744242 -0.08884563 -0.13084985 -0.11288395
000390 e9 07 e3 bd 68 0a b6 bc 42 ae 91 bd 31 0b 7f bd
       -0.11085493 -0.022221759 -0.07113315 -0.062266532
0003a0 2b 77 89 bd 3a f0 b7 bd 7b 4b a0 bd 22 f3 4b bd
       -0.067121826 -0.089813665 -0.07826897 -0.049792416
0003b0 aa 89 7d bd d1 dd 9e bd c1 61 d0 bd 25 1c ad bd
       -0.061898865 -0.07757152 -0.10174895 -0.08452634
0003c0 91 98 2c 3e 06 22 59 3d 7c 94 c9 3c 43 b6 e4 bc
       0.16855074 0.053010963 0.024606936 -0.02791894
0003d0 6f 83 8a bd 3a 12 91 bd 1c ee 9d bd 39 82 0e be
       -0.0676335 -0.070835546 -0.077114314 -0.13916864
0003e0 9a 2c 00 be 69 e0 ad bd 23 e5 e1 bd 26 9f 06 be
       -0.12517014 -0.084900685 -0.110300325 -0.13146648
0003f0 4a 4e 14 be eb 6c 03 be 34 01 97 bd c4 48 eb bd
       -0.1448299 -0.12834518 -0.07373276 -0.11488488

encoder.5.bias f4 [10]
000000 57 7e bc bb 62 57 43 3d c9 b5 e0 bb 94 36 68 3d
       -0.0057523656 0.047690757 -0.006857608 0.056692675
000010 22 1b 7f bd 08 98 9b 3c b1 48 43 bd 49 7f 1e bd
       -0.062281735 0.018993393 -0.047676746 -0.038695607
000020 21 b4 1c bd 47 3f ed bd
       -0.03825772 -0.11584335

decoder.0.weight f4 [6400, 10]
000000 c7 07 6b 3c f1 1f 72 bc 8a 13 f2 3c 3f dc c5 bc
       0.014345116 -0.014778123 0.029550333 -0.024152873
000010 3c 64 21 3b 80 08 f1 3c 89 2c dd 3a f1 72 f9 ba
       0.0024626395 0.029422998 0.0016874234 -0.0019031448
000020 55 59 1a 3c ce 76 ce 3c 6e fa 73 3c 57 de 57 3c
       0.0094207125 0.025203135 0.01489125 0.013175569
000030 bb 23 43 3d 0d b9 f7 3b 60 e4 8a bc 60 4d 7a 3c
       0.047641497 0.0075599016 -0.0169546 0.015277237
000040 43 be f4 bc 12 90 29 3c bb 06 c5 bb 35 90 a1 3c
       -0.02987588 0.01034929 -0.006012765 0.019722084
000050 c9 a3 7b 3d 7b 15 35 3c d3 82 ea bb cf 14 24 ba
       0.061435495 0.011052485 -0.0071567087 -0.0006259204
000060 4a 8d bd 3b df 69 0b bc da 3e c6 bc 4d ae 94 3b
       0.0057846652 -0.008509128 -0.024199892 0.00453738
000070 fe 54 2d bc b2 06 34 3d 2a 4c 90 3d e2 66 e5 b9
       -0.010579346 0.043951698 0.07045777 -0.00043754937
000080 26 1a 18 3d 53 25 67 3c ef 26 61 bc be 29 9b bc
       0.037134312 0.01410802 -0.013742193 -0.018940803
000090 b5 56 04 bd 25 9a 0c bc b9 3c 10 bb d8 0d 03 3d
       -0.032309253 -0.008581673 -0.002200885 0.031995624
0000a0 87 67 cc 3c 93 9b 83 3c c5 be 2b 3d 80 94 e9 bb
       0.02495171 0.016065395 0.04192998 -0.0071282983
0000b0 3f 34 79 3c ed 18 25 bd c0 81 0e bd c2 81 58 3d
       0.01521021 -0.040306974 -0.034791708 0.05285812
0000c0 57 ea b5 bc d0 ed de 3c cb aa 20 3c 97 45 2a bd
       -0.022206469 0.027213007 0.009806345 -0.041570272
0000d0 81 bb 19 3d 08 e4 f7 3c 8c f5 a1 bc 8e 25 9f 3c
       0.037532333 0.030260101 -0.019770406 0.019427087
0000e0 f9 35 e1 3c 2c da 47 3d 41 6e 92 3b 8e e3 2d 3d
       0.027491556 0.04879205 0.0044687097 0.04245334
0000f0 4f ac f2 bc db 28 9f 3c ee c4 61 3d 57 51 75 bd
       -0.029623179 0.019428661 0.055119447 -0.059892025
000100 0c 22 34 3c 72 2f d7 bb 85 b2 c1 3b 98 27 9a 3c
       0.0109944455 -0.006566935 0.0059111738 0.018817708
000110 38 28 5c bd c3 69 cc 3c ec 56 b8 bc e1 b4 d6 3c
       -0.053749293 0.024952775 -0.022502385 0.026209297
000120 f7 90 c8 bd eb 45 8f bb 69 d3 ac bc bb 3b 51 3d
       -0.09793275 -0.0043723485 -0.021096902 0.051082354
000130 58 55 42 3b a0 a7 b0 bd bf 8d 2c 3b 75 68 2d bd
       0.002965292 -0.08625722 0.0026329604 -0.042335946
000140 59 00 dc 3c ef e7 48 bc d4 ee 73 3d 89 5e 66 bd
       0.026855635 -0.0122623285 0.059553936 -0.0562425
000150 8e 90 41 3c c1 7d 6b bc 06 24 1b bc 15 9c b3 3c
       0.01181425 -0.014373244 -0.009469038 0.021925012
000160 c1 03 cb 3a d7 13 80 3d 65 6a 26 3d b2 17 3b bb
       0.001548879 0.06253784 0.04062881 -0.002854806
000170 ee 40 ca bc c0 d2 ae 3c 0d 1a dc 3c 32 35 65 bd
       -0.024689164 0.021340728 0.02686789 -0.055958934
000180 ff 79 91 3c d9 95 8b 3a 5c 41 ab 3d 22 10 dc 3d
       0.017758368 0.0010649516 0.08362076 0.107452646
000190 ae 04 fe 3c 52 73 62 3d f0 4d 16 3d 8f b5 cc 3c
       0.03100809 0.05528576 0.03669542 0.024988918
0001a0 cf 6e 07 3d 51 13 a2 3b 8e 63 4f 3c 90 46 31 be
       0.03306466 0.0049461504 0.012658013 -0.17312074
0001b0 f4 d8 b4 bd 54 9b 78 3d c2 0d 90 3d cf c1 9a 3d
       -0.08830443 0.060695007 0.07033874 0.07556497
0001c0 a6 45 c3 3d 4b 48 76 bd 5a 7c 86 bc 9c 30 04 3e
       0.09534769 -0.060127538 -0.016416717 0.12909168
0001d0 d2 af 90 3b 7c a1 35 bd 22 08 73 3d 48 b8 79 3c
       0.0044154907 -0.044343457 0.059333928 0.01524169
0001e0 61 aa 92 3c 2c f1 31 bc 49 37 ba 3d 7d da 3e 3d
       0.017903509 -0.0108607225 0.09092576 0.046595085
0001f0 00 fb 9a bc 67 4f 4e 3d ac ef e4 bc b1 e5 c1 3d
       -0.018918514 0.050368693 -0.027946316 0.09467638
000200 2f 74 13 3d d9 59 8d bd 95 de f6 3c 61 57 33 bd
       0.035999473 -0.06901903 0.030135432 -0.043784503
000210 31 0d da 3c 3a 33 96 bd 01 ba a9 3c 87 e1 e3 bc
       0.026617618 -0.073339894 0.020718576 -0.0278175
000220 26 bb 92 3c d9 f2 1b bc 8e 94 32 3b 60 5e 80 3d
       0.017911505 -0.009518349 0.002724919 0.062680006
000230 d6 01 12 3d 0e 84 bf bd eb 0d a1 3c eb da e8 ba
       0.035646282 -0.09351359 0.019659957 -0.0017765438
000240 4b 98 10 bd 8e bb ae 3a f6 1a 15 3d 0c 07 86 3d
       -0.035301488 0.0013331042 0.036402665 0.06544313
000250 6c 13 94 3d 95 1e a5 39 ef 1e cf 3b d4 85 77 bc
       0.07230267 0.00031494038 0.0063208262 -0.015107591
000260 a5 91 0c bd 6a b2 a0 bc d7 d4 73 bd 96 ab 9d bd
       -0.034318585 -0.019616324 -0.05952915 -0.07698743
000270 84 04 46 bc 5b ca 2e bd 50 ce 57 bc 56 8b f9 3c
       -0.012086038 -0.04267345 -0.013171747 0.030461948
000280 6d bf 30 bd 94 3a f0 3c 34 19 be 3d 13 e1 6b bd
       -0.043151308 0.029324807 0.09282151 -0.057587694
000290 08 6a 92 bd 56 9b 08 3a 6c 7e a8 ba 08 38 04 be
       -0.0714913 0.0005211135 -0.001285506 -0.12911999
0002a0 65 52 7a bd d2 9f 18 3e 0f ee 63 bd 90 b6 4f bd
       -0.061113734 0.14904717 -0.055646952 -0.050711215
0002b0 b8 24 d7 3d 9d 92 71 bc 48 df 7c bc 75 e2 2f 3c
       0.105050504 -0.014744428 -0.015434094 0.010735144
0002c0 67 b2 13 3d 47 2a 77 bd ab 4b 8f 3d 7d 05 08 3e
       0.03605881 -0.060343053 0.069968544 0.13283344
0002d0 3d a2 08 3d 9b 44 0f bd 16 bc b7 bb 66 16 70 3a
       0.033357847 -0.034977537 -0.0056071384 0.0009158611
0002e0 93 8c 88 bc 23 93 44 bb 6b c1 71 3d 9a d4 24 3c
       -0.016668594 -0.0029994927 0.05902235 0.010060454
0002f0 84 17 b5 3d e3 5b 28 bb 5f f2 4a bd 86 5f 58 3d
       0.08842376 -0.0025689534 -0.04954755 0.052825473
000300 8f fe a1 3d 19 24 17 bc 38 05 9a 3d bc a0 62 bb
       0.07909881 -0.009224915 0.07520527 -0.0034580668
000310 ad e4 35 3d 45 df e5 bc 90 d1 36 3d c5 c7 19 3c
       0.044407535 -0.028060565 0.044633448 0.009386008
000320 9b 14 f7 bc 9b 5b 13 3d 79 f1 4c 3d 5c d8 ca bb
       -0.030161193 0.035976034 0.050034974 -0.006190343
000330 58 e8 5a b9 f0 32 c1 37 84 a6 70 3c 2f ce 9e 3c
       -0.00020876655 2.3031113e-05 0.014688138 0.019385425
000340 86 51 0e 3d e3 a0 ff bc bb 05 72 3d a6 f9 9d 3c
       0.034745716 -0.031204646 0.059087496 0.01928408
000350 64 42 27 3c 6b ee c2 bc 62 9c d4 bc 00 10 b1 3c
       0.0102087 -0.023795327 -0.025953475 0.021614075
000360 02 1b ac bc b9 73 15 bc 44 f0 07 3c 2f 26 cb 3c
       -0.021008972 -0.009121829 0.00829703 0.02479848
000370 83 fd 03 3d 84 78 9e 3d b0 51 4c bd cc ed 0e bd
       0.03222419 0.0773783 -0.04988259 -0.03489475
000380 f8 56 20 bb b5 79 84 bc 26 bb fa bc 75 65 52 bd
       -0.00244659 -0.016171316 -0.030606817 -0.05136629
000390 7e a1 ec bc 93 f2 18 bd 45 d0 06 3d 55 3d a3 3c
       -0.0288856 -0.03734071 0.032913465 0.019926706
0003a0 22 29 cd 3c ca ce 67 bb 5c 8e c1 3c d7 68 c9 bc
       0.025044028 -0.0035371059 0.023627453 -0.024586124
0003b0 e7 bc f7 ba b0 7e 05 3d b2 98 d7 bc ed ca db 3c
       -0.0018900902 0.03259152 -0.026317928 0.026830161
0003c0 2c 76 48 3d b3 9f 88 bb 97 3e 3a bd 5a b3 11 3d
       0.048940822 -0.0041694283 -0.045469847 0.035571434
0003d0 5b 5a 2e 3d d8 9e a7 bd ba 06 dd 3c 27 80 4a 3c
       0.04256664 -0.08184594 0.026980747 0.012359655
0003e0 ff 7d c9 3c aa c8 67 bd 14 2c fc bb 3e a7 92 3d
       0.024596212 -0.056587853 -0.007695684 0.07160805
0003f0 c9 91 fc 3c 4c 47 3d 3c 77 22 eb bc b7 35 59 bc
       0.030831235 0.011552643 -0.028702958 -0.0132574355

decoder.0.bias f4 [6400]
000000 de f3 31 bb 49 7b 44 bb 5f 19 c1 bb 0a f8 06 bc
       -0.0027153413 -0.002998071 -0.005892917 -0.008237848
000010 b3 fa 9f bc d9 5c 69 3b e8 b5 05 3b 29 e2 3e bb
       -0.019528722 0.003560832 0.0020402614 -0.0029126501
000020 74 09 a9 bb d6 d1 81 bc 3d dc 92 3b ac 8c 10 3c
       -0.0051585976 -0.015847128 0.004481821 0.008822601
000030 49 49 b2 bb 54 60 23 bc 8f a6 32 bb 5e a6 ac bc
       -0.005440865 -0.009971697 -0.0027259921 -0.021075424
000040 5e c9 43 bb 8d 93 73 bc 1a 05 79 3b b9 d6 d2 39
       -0.0029874663 -0.014866722 0.0037997426 0.00040214302
000050 bc fc d5 3a 5c 61 2d bc 84 6d 16 3b f3 1f 60 bc
       0.0016325931 -0.010582294 0.002295346 -0.013679492
000060 45 17 1c bc 88 05 50 bc 18 5b 3d bc 41 d8 19 bc
       -0.009527032 -0.012696631 -0.011557363 -0.009389938
000070 cd c0 89 3b e0 a3 52 bb 09 51 46 bc 8e 03 f3 3b
       0.004203892 -0.0032141134 -0.012104281 0.0074161952
000080 eb 00 87 3b 03 29 7c bb 9c 8d 07 3b 5a ff 1f bc
       0.0041199825 -0.0038476593 0.002068377 -0.00976547
000090 6f 8b f6 bb 72 5f 27 3c b6 db 13 bc 3b 20 8a 3b
       -0.007523946 0.010215627 -0.009024551 0.004215268
0000a0 96 4f 51 3a ab 39 70 bc 66 d1 e5 bb 22 97 6d bc
       0.00079845765 -0.014662187 -0.0070134876 -0.014501365
0000b0 18 cf dd bb 73 1b d5 bb 8d d8 18 bc f1 4c de bb
       -0.0067690723 -0.0065035163 -0.0093289735 -0.0067840745
0000c0 72 da 02 bc 6b fb 0d ba 83 ef 81 3b 36 e1 13 3d
       -0.007986652 -0.00054161873 0.0039653196 0.03610345
0000d0 f6 e6 66 3b a6 3d 36 bc fe 7c 10 bc 82 77 bd bb
       0.0035232878 -0.011123097 -0.008818863 -0.0057820687
0000e0 47 5c 75 bc 61 fa d2 ba 38 68 89 bc 69 6e 54 bc
       -0.014975614 -0.0016096347 -0.016773328 -0.012965777
0000f0 30 ba b2 3b e9 24 06 bc e9 51 02 bb fc b2 1f b9
       0.005454324 -0.008187511 -0.0019885248 -0.00015230099
000100 09 b4 38 3c 0e 37 3f 3c 2b 9d 5a bb cd 76 86 3c
       0.0112733925 0.011670841 -0.003335784 0.01641407
000110 fb bb 86 3c 88 a0 3a 3c d5 52 72 3c 07 40 a3 3c
       0.016447058 0.011390813 0.0147902565 0.019927992
000120 d3 b9 31 bc 7b 15 51 3c ba 26 47 bb d5 5a 7e bb
       -0.010847527 0.012761469 -0.0030388073 -0.0038811464
000130 ee 9a 8c bc 58 2e ea bc c9 a8 fa ba cb 68 9a bc
       -0.01716372 -0.028586552 -0.0019123788 -0.018848797
000140 d1 ca 79 bb 04 a5 db 39 79 93 c3 bb eb 77 e0 3b
       -0.0038115273 0.0004189388 -0.005968508 0.006850233
000150 d5 2d 78 3c a1 73 b7 3c b9 c3 ba 3b 84 62 92 bb
       0.015147646 0.022394003 0.0056996015 -0.0044673104
000160 74 dd 92 3b ca 59 b5 3c 43 ee be 3c 8c fa c9 3c
       0.0044819657 0.022137541 0.023306971 0.024655603
000170 d3 f4 84 bb 27 dd 97 ba 84 f7 5f bc 5c ce d9 bb
       -0.0040575056 -0.0011586294 -0.013669852 -0.0066469144
000180 e6 4e 57 bc 7c 1f 4d bc b6 67 b0 bc 24 53 89 bc
       -0.013141369 -0.0125197135 -0.021533828 -0.016763277
000190 2e cb 7f 3b ee b1 97 ba a2 d5 2b bc cf 6b b0 3c
       0.0039031017 -0.0011573413 -0.010487946 0.021535782
0001a0 4a 46 bb ba 1c 08 01 3b 78 35 bf bb 52 56 79 bc
       -0.0014287916 0.0019688671 -0.0058352314 -0.015218334
0001b0 27 b6 6a bb d3 89 3c bc a4 83 af bb cc fa 61 3c
       -0.0035814138 -0.011507469 -0.005356269 0.013792705
0001c0 c1 04 7d bc 15 d1 03 3c 59 54 4e 3b 67 1d b3 3b
       -0.015443028 0.0080454545 0.003148338 0.0054661515
0001d0 20 eb 36 ba 39 a5 fe bc 56 87 85 bc d8 dd 38 bc
       -0.00069777854 -0.031084644 -0.016299885 -0.01128336
0001e0 18 8b 1d bc c9 1c 32 3c 99 b7 05 bc 68 31 aa 3b
       -0.009615682 0.010871121 -0.008161449 0.005193878
0001f0 08 3f 54 3b 6b 88 c1 3b 2b 29 a6 3b 7d 2f 1e bc
       0.0032386202 0.005906155 0.0050708256 -0.009654877
000200 80 a6 28 bc da a4 ac bc 83 17 54 3c d0 b2 89 bc
       -0.010293603 -0.021074701 0.012945059 -0.016808897
000210 f5 cf a7 bc 0d af 9d 3b 93 9a 19 bc 8c 05 73 bc
       -0.020484904 0.0048121274 -0.009375232 -0.014832865
000220 fa 18 12 bc 11 ac b3 bc ed 4d 9d bc 9a 59 bd bc
       -0.008917088 -0.021932634 -0.019202197 -0.023114014
000230 8d 17 ee bb a1 bc 36 3c 7b 4d 10 3b af c3 6b bc
       -0.007265991 0.011153371 0.0022018838 -0.014389916
000240 70 55 72 bc c5 53 b3 3b 46 fa be bc c4 71 ca bc
       -0.014790878 0.0054726326 -0.023312699 -0.02471245
000250 ba d5 ba bc f7 01 ff bc 57 95 d3 ba 9e 53 ca bc
       -0.02280699 -0.031128867 -0.0016142529 -0.024698075
000260 cf 3f a9 ba 71 1e 2c 3a 98 de 71 bc 1d 0f 35 bc
       -0.0012912693 0.00065658154 -0.014762543 -0.011050967
000270 84 cd 11 bc 7f fe 1c bd f5 fc 04 bc f3 77 65 bb
       -0.008899096 -0.038328644 -0.00811695 -0.0035014122
000280 99 60 30 3c 48 a3 60 3c d9 61 13 3c f4 c2 bd 3a
       0.010765218 0.013710804 0.008995497 0.0014477656
000290 ad f4 3e bb 6c 50 62 bc e8 f8 37 bc bd 02 f4 bc
       -0.0029137537 -0.013813119 -0.0112287775 -0.029786462
0002a0 37 bd 9c bc dc 21 22 bd c7 1e aa 3b f8 2a 6d 3a
       -0.019133193 -0.039583072 0.005191657 0.00090472354
0002b0 31 51 f7 39 6b aa 3a 3b a9 da e7 3b a2 b9 06 bc
       0.00047172004 0.0028482925 0.007075627 -0.008222969
0002c0 e0 25 7b bc b5 05 0f bc 79 29 40 bb 1c 39 05 bc
       -0.015328854 -0.008729388 -0.0029321595 -0.008131292
0002d0 02 0d ba bb 67 71 65 3b 4a 4a 16 bc d2 91 4c bb
       -0.00567782 0.003501022 -0.009172985 -0.0031214845
0002e0 b2 28 a0 bb 9c 81 b3 3b 2d 96 0b bb 05 4e 15 3c
       -0.0048876638 0.005478097 -0.0021299229 0.00911284
0002f0 2a ca 28 bc 36 a3 3a bc 9d df 4b bb 5f af 2a 3b
       -0.010302106 -0.011391452 -0.0031108626 0.002604447
000300 44 72 b0 bb 39 2f d6 3b 9b 1d 99 bb 54 07 1a bc
       -0.0053847153 0.006536391 -0.0046727187 -0.009401161
000310 86 87 22 bc f9 3c 87 bc 00 1b 67 bc b9 b7 85 39
       -0.009920007 -0.016508566 -0.014105558 0.0002550462
000320 60 1d 7b 39 c0 85 6f 3c 8d 86 92 bc a7 e7 08 3c
       0.00023948168 0.014619291 -0.017886424 0.0083560115
000330 a5 92 e6 bb 7b a2 a0 bc 44 dd e6 bb ed be 62 bc
       -0.0070365244 -0.019608727 -0.00704542 -0.013839466
000340 ba d8 50 bc 1c 38 ed bb 58 3b 9c 3b 70 a8 0c bb
       -0.012746984 -0.007239355 0.0047678165 -0.0021462701
000350 71 a7 94 3c 88 e7 26 3c fe 8e 0a bd c1 7b 28 bc
       0.018146249 0.010187037 -0.033827774 -0.0102834115
000360 ce 60 58 bc dd aa 0a bc 14 46 de bb da 0a 9d bc
       -0.013206674 -0.008463589 -0.0067832563 -0.019170213
000370 8b be 50 bc 34 3a 59 3c 1e 0d 86 bb fc 1f 30 bc
       -0.0127407415 0.013258506 -0.004090919 -0.010749813
000380 b5 2a b5 bb 67 ae 06 bc 6a 7e 5d ba bb c4 b1 bc
       -0.0055287727 -0.008220292 -0.0008449318 -0.021700254
000390 c9 6e 1d bc e2 c6 fd bb 7e d7 08 3c 84 1e 00 3c
       -0.009608933 -0.007744656 0.008352159 0.0078197755
0003a0 86 c5 1f bc 2f 75 33 3c 8b 58 81 bc 6d 46 30 bc
       -0.009751683 0.010953232 -0.01578929 -0.010758978
0003b0 53 91 36 3c c0 24 6a bc ce 3e aa 3b 66 09 3f 3b
       0.011143046 -0.014290988 0.005195475 0.002914989
0003c0 f3 99 14 bc cd 77 fb bc 73 e5 f0 bb 5f 7b 87 bc
       -0.0090699075 -0.030696774 -0.007351571 -0.01653832
0003d0 f8 cd 18 bc 47 28 7f 3c 41 53 7a bc c9 44 cc ba
       -0.0093264505 0.015573568 -0.015278638 -0.0015584464
0003e0 d2 56 53 bc 0d ed 6b 3b 14 e4 13 3a f5 4f fa bb
       -0.012899118 0.0035999448 0.0005641591 -0.007638926
0003f0 bb 05 59 bb e1 82 0b bd 9c 27 b9 3b e9 5e 61 bc
       -0.0033114988 -0.034060363 0.0056504738 -0.0137555385

decoder.3.weight f4 [16, 6, 5, 5]
000000 fa 07 54 3b 7c 48 05 bc d0 7f a3 3d 40 dd 89 3d
       0.0032353387 -0.008134957 0.07983363 0.06731653
000010 a9 42 83 3d 86 26 1f bd d9 d3 85 3c 70 9d 16 bd
       0.06409199 -0.0388551 0.016336368 -0.036771238
000020 99 8b eb bc 12 ce 7c bd 33 13 c3 bb 41 63 01 3e
       -0.028753089 -0.06171996 -0.0059532165 0.12635519
000030 06 8f c4 3d d2 16 30 3c e9 5e 04 3e ac 9a 6e 3c
       0.09597592 0.010747628 0.1292683 0.014563244
000040 b0 cb 4f 3d 09 75 08 3d 38 0f 47 3d 1d 30 da 3c
       0.05073136 0.03331474 0.048598498 0.02663427
000050 57 17 83 3d 14 23 f7 3d df 60 c0 3d dd 53 0f 3c
       0.06400936 0.120672375 0.09393477 0.008748022
000060 91 0f 3c bb a7 b8 05 3e 2a b5 5e 3d 58 10 0a be
       -0.0028695802 0.1305872 0.05437199 -0.13482797
000070 ae e8 da bc 1b 3b 7b bc ad 1e 82 bd e5 47 a2 3d
       -0.026722278 -0.015333916 -0.06353507 0.07923869
000080 0c ad e1 3d 8f 51 b6 bd 0c 3e aa be b4 c1 2a 3d
       0.11019334 -0.08902275 -0.33250463 0.041688636
000090 4c f0 d6 3d 83 87 c5 bd 85 df 38 be c0 b1 24 be
       0.10495052 -0.096449874 -0.18054016 -0.16083431
0000a0 c3 8b 09 3d 9b 36 33 bd 68 d4 32 be 18 5f d4 bc
       0.033580553 -0.043753248 -0.17463839 -0.02592425
0000b0 cb af a9 3d 2b d7 33 be 60 47 97 bd fb a9 0e bd
       0.08285483 -0.17562549 -0.073866606 -0.034830075
0000c0 97 41 2e bd 20 d1 bc bd 67 e7 2a 3b 4e 8b c3 bd
       -0.04254302 -0.09219575 0.0026077868 -0.09548055
0000d0 4b e0 d6 bc 9e 66 86 bd d5 73 33 3d ac de 9d bd
       -0.026229998 -0.065625414 0.043811638 -0.07708487
0000e0 35 b3 09 be 26 26 9c bd ff 55 bf bd e8 a6 75 3d
       -0.13447268 -0.07624464 -0.09342574 0.059973627
0000f0 1d 58 81 be 21 96 30 be 30 74 07 3e 75 63 de bd
       -0.25262538 -0.1724477 0.13227916 -0.10858814
000100 40 a3 94 bd 3f 39 d3 be 7b 17 30 3d 47 a9 97 bd
       -0.072577 -0.41254613 0.042991143 -0.07405334
000110 1d 94 14 3e 30 af 6b 3d a3 22 47 be 0e fb cb bd
       0.14509626 0.05754012 -0.19446807 -0.09959994
000120 5c 10 ae 3d 61 e8 17 be 6f 74 17 3d 50 fe a0 bc
       0.08499214 -0.1483474 0.036976274 -0.019652516
000130 22 b8 3f bd 63 2b 6e 3e 48 78 cb bd c2 af 38 3d
       -0.046806462 0.23258738 -0.09935051 0.04508949
000140 24 c5 7f bd 28 93 0e 3e 3f 9b 2c be cc 31 25 be
       -0.062443867 0.13923323 -0.16856097 -0.16132277
000150 4d 5d 64 3d 17 af 1d 3d 4d 67 00 bd 7a ff 04 3e
       0.05575304 0.038497057 -0.031348515 0.12988082
000160 25 02 06 3d 8f e6 42 3e a4 4d 6d bd a7 cb 82 bd
       0.03271689 0.19033264 -0.057935372 -0.063865
000170 7d ce ff 3d e6 1f 03 be 47 36 b1 3d a7 3f 0a be
       0.124905564 -0.12805137 0.08652931 -0.13500844
000180 78 0b 33 3d 99 a7 d5 3c 56 31 11 bc a6 8b 9a bd
       0.04371211 0.026080893 -0.00886186 -0.07546167
000190 a3 7e e7 3c 54 0c 25 be 4b af 14 bd 9c 7b a0 3d
       0.028258627 -0.16117984 -0.036299985 0.078360766
0001a0 e0 cd 19 3d aa fa c6 3c 24 55 71 bd b1 d9 16 bd
       0.037549853 0.024289448 -0.058919087 -0.0368287
0001b0 a4 68 48 3d f3 05 b8 3c 0c a4 aa bc 4d e4 93 bd
       0.048927918 0.022463774 -0.020830177 -0.07221279
0001c0 d2 76 4f 3c d5 1e cb 3d 98 0c 14 3e 3f 04 1e 3d
       0.012662606 0.0991799 0.14457929 0.03857827
0001d0 65 14 25 bd 5f 80 a5 3d a9 6c f4 3c af f6 b1 3d
       -0.040302653 0.080811255 0.02983697 0.08689629
0001e0 a1 bd 05 3e 95 78 f3 3d 1c 58 e5 3d db 0e 3b 3e
       0.13060619 0.118882336 0.11198446 0.18267386
0001f0 ab 4e 06 3e 14 46 64 3d f4 92 ae 3c 30 e3 1c 3c
       0.13115947 0.055730894 0.021310307 0.00957565
000200 b7 b7 02 3d 28 3f 92 3d 56 ca 90 bc 99 02 99 3c
       0.031913485 0.07140952 -0.017674606 0.018677996
000210 3d 3f c7 bc 67 0b ee 3d 86 66 0c 3e 76 59 f4 bd
       -0.024322147 0.116232686 0.13710985 -0.11931126
000220 30 f5 6f bb b1 c6 d4 3a 15 97 38 3d c7 02 c6 3d
       -0.003661465 0.0016233531 0.045065958 0.096684985
000230 62 ad c9 3c a2 a9 16 3d 74 a3 23 3d eb ac b0 3c
       0.024618808 0.03678287 0.039950803 0.021566829
000240 aa a3 41 3d 1a bb 76 3d e2 a3 db 3c bb 01 25 3d
       0.047275223 0.060237028 0.026811544 0.040284853
000250 84 81 3d bc f1 79 1f bc 15 f9 b9 bb 19 11 12 bb
       -0.011566523 -0.009733663 -0.005675445 -0.0022288023
000260 ae b5 2b 3d e8 af 4e 3d e4 1f b2 3d 77 00 b7 3d
       0.04192131 0.050460726 0.08697489 0.089356355
000270 32 cd e8 3d 7e 81 04 3e 30 cf 6e 3d 92 74 48 3d
       0.11367263 0.12940022 0.05830306 0.048939295
000280 4d 2e 64 bd c0 4b 5b 3d f2 44 5a 3d c0 06 ed 3c
       -0.05570822 0.053539038 0.053288408 0.028933883
000290 ef 69 ac bc 51 31 b1 3c 7d be 18 3d 45 b6 ae 3c
       -0.021046607 0.021629961 0.03729104 0.021327147
0002a0 da 74 91 3d 85 66 a1 bd cd 1a 36 3c 7e 74 20 3d
       0.07102366 -0.07880882 0.011114788 0.039173596
0002b0 a7 52 f2 bb ea a5 29 bd 8f 39 c9 bc 32 45 89 3d
       -0.007395107 -0.041417994 -0.024563579 0.06702651
0002c0 6e 62 4e be a0 21 24 be ea 81 48 3e 4b fb 71 be
       -0.20154735 -0.16028452 0.19580808 -0.23631017
0002d0 25 ee b9 bd 89 c9 97 bd 07 5e 83 3e dd 38 71 bd
       -0.090786256 -0.07411487 0.25657675 -0.05889212
0002e0 8a 24 e2 bd d9 65 98 3c 79 01 8d be c9 25 0e bd
       -0.110421255 0.018603252 -0.27540186 -0.034704003
0002f0 70 9f 50 be 17 02 8f bb ee c1 10 bd 6b 1b 49 bd
       -0.2037332 -0.004364263 -0.035341196 -0.049098413
000300 be 7e 3e bc 81 37 1a bc ac db b8 bc 2f 28 f3 3d
       -0.011626897 -0.009412647 -0.022565685 0.11872899
000310 ec e4 fb 3d 99 07 2f 3d 8f 37 07 be e7 87 b2 3c
       0.12299523 0.042731855 -0.13204788 0.021793319
000320 a2 2f f2 bc f2 7b 4d 3d c6 5d 85 3d 41 4b 8f bd
       -0.029563729 0.05016703 0.065120265 -0.069967754
000330 8e 01 6a 3d d9 b5 6c 3d 49 85 9c bd d4 38 8a bd
       0.05713039 0.05779061 -0.076426096 -0.0674912
000340 c0 09 57 3c 4d db e3 3c b9 8e 45 3d 96 88 bb 3c
       0.013124883 0.027814532 0.048231814 0.022892278
000350 0f 23 c7 bb e3 31 58 3e 70 9d 4a 3e 6e 26 4a be
       -0.0060771774 0.2111278 0.1978662 -0.19741222
000360 d1 c6 6c bb 62 92 1c 3e b2 11 36 bd d6 14 49 3e
       -0.0036129246 0.15290216 -0.04445047 0.19636855
000370 d2 2b de ba 8e 01 ab 3d 20 9d 49 bc 2b 89 3f 3e
       -0.0016950315 0.08349906 -0.012305528 0.18704669
000380 91 18 fe 3c 8b ec 0c bd 41 db 4c be 8e 38 66 bd
       0.031017574 -0.034405272 -0.20005514 -0.05620628
000390 6c ed 49 3d 15 f9 d7 bd 03 88 2d be 09 a0 4a be
       0.04929869 -0.105455555 -0.16946416 -0.19787611
0003a0 41 6a ab be 1c 32 d2 be b5 d2 4b 3c a2 9a 12 bf
       -0.33479503 -0.41053855 0.012440373 -0.572672
0003b0 e8 19 30 be ed 96 cd be 48 01 8b bd ea 09 69 be
       -0.17197382 -0.4015421 -0.06787354 -0.22757688
0003c0 a4 61 13 be a5 36 ce bd 07 f1 83 bd 11 86 8b 3d
       -0.14392716 -0.10069016 -0.06442457 0.068126805
0003d0 0e e0 54 bc e6 88 c3 bd 26 e0 3d 3d 44 38 56 3d
       -0.012992872 -0.09547596 0.046356343 0.052299753
0003e0 68 34 13 bd e9 8e 44 3d 0f 10 f8 3c 06 a6 e1 ba
       -0.03593865 0.047987852 0.030281095 -0.0017215617
0003f0 16 ab bc bd e8 6f 69 bc ed ba 12 3d e5 cd c2 bd
       -0.092123196 -0.014247872 0.035822798 -0.095119275

decoder.3.bias f4 [6]
000000 f9 bb 2a 3e 00 5a 8c 3f c9 df 2e 3f 2d 39 a2 3f
       0.16673268 1.0964966 0.6831022 1.2673699
000010 42 ef 53 bf dd 6a 79 bf
       -0.82786953 -0.97428685

decoder.5.weight f4 [6, 1, 5, 5]
000000 0f 26 21 3e 41 b9 4b 3a 4e 1a 8c be f7 32 3b be
       0.15737174 0.00077714404 -0.2736382 -0.1828116
000010 a7 9b ec 3d 14 f2 6a 3e df 45 2a be f3 75 d4 be
       0.11553126 0.22943908 -0.16628216 -0.41496238
000020 c7 a8 95 be 41 37 bd 3d ee ea f0 3d 56 c8 5f be
       -0.2923033 0.092390545 0.11763559 -0.21853766
000030 c5 f5 bd be 3a c4 4e be 8d d6 14 3e fa 27 84 bd
       -0.3710157 -0.20192042 0.1453497 -0.064529374
000040 e3 0e 38 be 46 8d 38 be 9f 31 5b 3c 1c 0e 43 3e
       -0.17974429 -0.18022642 0.01337853 0.19048351
000050 39 3d 9d bd 76 bb 5d bd 09 db f2 3c a9 92 c1 3d
       -0.07677693 -0.054133855 0.02964546 0.09451801
000060 9f 9f 02 3e 6c 61 db bd bc f5 40 be f5 f8 6d be
       0.12756203 -0.10711941 -0.1884374 -0.23239501
000070 07 5c 37 be 0c 83 c8 bd 29 d9 5d be f8 69 a5 be
       -0.179062 -0.0979062 -0.21664871 -0.3230741
000080 1f bb c6 be 0e ce 90 be 35 c9 14 be 4d 47 8e be
       -0.38814637 -0.28282207 -0.1452988 -0.27788773
000090 c3 b7 e0 be 1a e8 05 bf 82 83 c8 be fe 8b 3b be
       -0.438902 -0.52307284 -0.39162832 -0.18315122
0000a0 d6 c5 94 be 9b 9f fc be b9 63 07 bf d1 50 d3 be
       -0.29057187 -0.4934052 -0.5288654 -0.41272596
0000b0 37 a3 4f be ea 80 3b be 67 97 aa be 77 84 b7 be
       -0.20277105 -0.18310896 -0.33318636 -0.3584325
0000c0 44 8f 83 be 74 90 dc bd ea cb ed 3c ec c8 1a be
       -0.2569524 -0.1076974 0.029027898 -0.15115708
0000d0 18 55 5e be cd af e0 bd 49 58 6f 3d 4f 67 be bd
       -0.21712148 -0.10971031 0.058433805 -0.09297048
0000e0 d4 9a d4 be 02 5c 00 bf 85 f0 8a be c7 03 84 3a
       -0.41524374 -0.5014039 -0.27136627 0.0010071927
0000f0 f6 61 e6 bd 5f 67 c1 be 78 2d c3 be b0 9b cd bd
       -0.11249153 -0.37774178 -0.38120627 -0.10039461
000100 89 da cc 3d 63 28 29 3d 76 b7 07 bd 5b 02 cf 3c
       0.1000262 0.04129828 -0.033133946 0.025269678
000110 37 67 40 3e b2 f2 39 3e f8 47 f5 3d 6b 50 0e 3e
       0.18789373 0.18158987 0.119766176 0.13897865
000120 d6 86 3f 3e 39 de 2c 3e e8 55 ad 3d 61 61 28 be
       0.1870378 0.16881646 0.08463651 -0.16443397
000130 b2 4e 9d be a1 14 bc be f7 74 91 be 29 2d 16 be
       -0.30724102 -0.3673449 -0.2840955 -0.14665665
000140 e7 6a 5b be bd 11 d6 be d4 46 07 bf 78 81 c2 be
       -0.21427499 -0.41810408 -0.5284245 -0.37989402
000150 ab 5c 43 be d1 37 64 be b3 b2 cd be 6f c3 0e bf
       -0.19078319 -0.22286917 -0.401754 -0.5576696
000160 37 0e b9 be 61 6f 3f be 2d ab 34 be 65 a4 ba be
       -0.36143658 -0.18694831 -0.17643423 -0.36453548
000170 28 eb d0 be 0f 91 a8 be 5e bd 22 be 13 96 bb bd
       -0.4080441 -0.3292317 -0.1589255 -0.09159484
000180 0d 93 57 be d6 9f 5d be b7 55 53 be 42 fd 17 be
       -0.21052189 -0.21643004 -0.20638166 -0.14842704
000190 32 e1 b4 3c 2e 94 13 3c 9a 43 44 3d eb 0c ca 3d
       0.022080038 0.009007497 0.047916032 0.09865745
0001a0 ec 93 a8 3d 99 1a b1 3d 7c ba c0 3d 12 0e 31 3e
       0.08231339 0.08647651 0.09410569 0.17290524
0001b0 45 2e 50 3e 58 84 12 3e 4b 6b cc 3d 87 65 94 3d
       0.2033015 0.14308298 0.09981402 0.07245927
0001c0 1b 06 e9 3d 9b 83 01 3e 15 80 d6 3d ae e9 3d 3d
       0.11378118 0.1264786 0.104736485 0.046365432
0001d0 27 6d 56 bd 9d ad 69 bd 1f d3 1a bd 62 26 7b bc
       -0.05235019 -0.057050336 -0.037798997 -0.015328975
0001e0 84 ed 1c bd 1c 4d ee bd 55 97 f2 bd c9 36 e7 bd
       -0.03831245 -0.11635801 -0.118452705 -0.11289746
0001f0 65 bd 9a bd c5 82 dd 3d 56 70 3e 3e da db 38 3e
       -0.075556554 0.10815958 0.1859754 0.18052617
000200 9d b9 a4 3d 91 99 46 3d f1 1a 18 3e 34 b9 69 3e
       0.080432154 0.048486296 0.14854027 0.22824556
000210 16 94 a2 3d ff e7 83 bd 88 23 e4 bd 27 4d 1c 3e
       0.079384014 -0.06440734 -0.111395895 0.15263806
000220 77 7a 11 3e 53 11 70 3c e6 a4 11 be 4c 6f 41 be
       0.14206873 0.014652568 -0.1422306 -0.18890113
000230 75 88 04 3e 47 2a e9 3d c5 a3 02 3c bd a3 db bd
       0.12942679 0.11385017 0.007973616 -0.1072459
000240 38 e3 06 be 46 6d 9f 3d 84 6c bd 3d 5f ba 40 3d
       -0.13172615 0.07784514 0.09249213 0.047052737
000250 b2 19 6a bb 2d 1d d5 bb
       -0.0035720882 -0.006503722
