Autoencoder-on-MNIST-in-Pytorch/test/first_run/model_e0.pt (torch, 561729 bytes, 11 tensors)

encoder.0.weight f4 [6, 1, 5, 5]
0.13559857 -0.10226221 0.09896367 -0.06278333 0.010343699 0.01993075 0.09271673 0.07211723
0.20416394 -0.081674054 0.078962006 0.11441096 -0.12732379 0.20220867 0.21585888 0.002946258
0.16589628 0.038485523 -0.054460656 0.21661952 -0.07180686 0.09216486 0.15356284 0.155078
0.12514582 -0.22782882 -0.15036717 -0.10975127 -0.054383334 -0.10671178 -0.1902956 -0.196189
-0.11268413 0.05018941 -0.1269119 0.06691229 -0.113480814 0.03479366 -0.28619087 0.110498
-0.08976934 -0.005184679 -0.15787563 -0.19186713 -0.083139315 -0.108742036 0.11624442 -0.081894845
0.054380327 0.14450987 -0.22896695 -0.16082625 -0.07051661 0.2094784 0.020254081 -0.008350559
0.1811733 -0.05532955 0.1630226 -0.11835932 -0.19518389 0.09041259 0.15919402 -0.041345153
0.007443234 -0.025299536 0.22787413 0.019238798 -0.12734707 0.10197808 0.07249113 0.062191147
0.021430206 -0.20327903 -0.08319545 -0.10396233 -0.12006755 0.098907195 0.06915091 -0.13554087
0.05390142 0.033292294 0.03797265 0.026068121 -0.16683419 -0.041116115 0.045137413 0.133387
0.14664088 0.0077924607 0.16110319 0.101768285 -0.0030494572 0.15168421 0.22413304 0.1094929
0.17459792 0.20280659 0.26093036 0.20384674 -0.0042767273 0.16064273 0.13448125 0.17980993
-0.012032496 -0.07093103 -0.0061187753 -0.028945869 0.09029166 -0.05234569 -0.27957597 0.1183002
0.19248174 -0.055958398 -0.2673234 -0.14787787 -0.043869354 0.08593653 0.15938109 -0.052160025
-0.10814369 0.017995926 0.2365904 0.054769218 -0.0020940101 0.11627424 0.06375904 0.17300695
-0.026270237 0.14611931 -0.044681143 -0.14023525 -0.06264917 0.16097291 0.022025494 -0.06073159
0.13576329 0.17564754 0.0840727 0.12970786 0.20435292 0.09777438 0.12406929 -0.21082465
0.13278762 0.15440798 -0.021506954 -0.18934761 -0.2485522 -0.110622644
00000000: 5ada 0a3e d96e d1bd 77ad ca3d 8c94 80bd
00000010: 9e78 293c d045 a33c 45e2 bd3d 33b2 933d
00000020: 5a10 513e ba44 a7bd d5b6 a13d 4b50 ea3d
00000030: 2b61 02be ca0f 4f3e 1c0a 5d3e 0216 413b
00000040: b7e0 293e ffa2 1d3d 2312 5fbd 82d1 5d3e
00000050: 7a0f 93bd eec0 bc3d 943f 1d3e c4cc 1e3e
00000060: 3a26 003e f54b 69be daf9 19be 46c5 e0bd
00000070: 0fc1 5ebd b58b dabd dadc 42be c5e5 48be
00000080: f0c6 e6bd 6993 4d3d 31f5 01be 5009 893d
00000090: a168 e8bd cc83 0e3d 9c87 92be c74c e23d
000000a0: fdd8 b7bd 3de4 a9bb 26aa 21be d178 44be
000000b0: f244 aabd 25b4 debd 8e11 ee3d 7cb8 a7bd
000000c0: e8bd 5e3d 65fa 133e 5076 6abe a3af 24be
000000d0: 036b 90bd 8181 563e e3eb a53c c8d0 08bc
000000e0: 7e85 393e 3da1 62bd 65ef 263e 5f66 f2bd
000000f0: 49de 47be 3c2a b93d c203 233e 8959 29bd
00000100: 5fe6 f33b f940 cfbc d657 693e af9a 9d3c
00000110: 4567 02be e2d9 d03d 3b76 943d 25bc 7e3d
00000120: 668e af3c 6128 50be 6062 aabd 34ea d4bd
00000130: fae5 f5bd db8f ca3d fe9e 8d3d 3acb 0abe
00000140: bcc7 5c3d 805d 083d 3689 1b3d d08c d53c
00000150: 95d6 2abe 5f69 28bd 02e2 383d 9a96 083e
00000160: 0729 163e e657 ff3b 3cf8 243e e46b d03d
00000170: 67d9 47bb 1b53 1b3e 2283 653e d03d e03d
00000180: ccc9 323e 88ac 4f3e aa98 853e 33bd 503e
00000190: ca23 8cbb 877f 243e 74b5 093e 1820 383e
000001a0: f223 45bc 4a44 91bd 0280 c8bb e31f edbc
000001b0: d5ea b83d 6f68 56bd 9524 8fbe 6047 f23d
000001c0: ef19 453e a234 65bd 9dde 88be 4c6d 17be
000001d0: 5ab0 33bd 7eff af3d cc34 233e c0a5 55bd
000001e0: 707a ddbd 316c 933c c144 723e b055 603d
000001f0: a93b 09bb 3021 ee3d 1994 823d bc28 313e
00000200: ae34 d7bc 4da0 153e 9303 37bd d499 0fbe
00000210: 354e 80bd 15d6 243e cf6e b43c b0c1 78bd
00000220: 8805 0b3e f3dc 333e 4f2e ac3d 23d2 043e
00000230: e441 513e ef3d c83d 0a18 fe3d 6be2 57be
00000240: 7af9 073e 201d 1e3e 5a2f b0bc 57e4 41be
00000250: 7884 7ebe 208e e2bd

encoder.0.bias f4 [6]
0.07173333 0.20657547 -0.14461018 0.07238818 0.09544895 0.10364377
00000000: ede8 923d 8588 533e b114 14be 4140 943d
00000010: bd7a c33d 2f43 d43d

encoder.2.weight f4 [16, 6, 5, 5]
-0.034183204 0.07253594 0.05338753 0.04295085 -0.02578968 0.018995643 0.018667331 0.051809095
-0.06634628 0.05826435 0.04156222 0.07728909 0.009341038 0.080529235 -0.08055018 0.026710195
0.06373868 -0.06624233 -0.05122893 0.04527856 0.04282083 0.030032659 0.00084844074 0.06545852
-0.006995269 -0.036784142 -0.09401956 -0.061253935 -0.07925148 -0.008406424 -0.007302252 0.0012789988
-0.065242186 -0.05623411 -0.010378622 0.012302351 -0.09090635 -0.013738867 -0.07815898 0.025683915
-0.085568614 -0.0776295 -0.1645682 -0.14639263 -0.08532324 -0.10578274 -0.11365537 -0.05802873
-0.11423631 -0.03054203 -0.10528217 -0.003465182 -0.007747851 -0.06348321 0.017417777 -0.02305574
0.049886655 -0.021947399 0.061232086 0.02939892 0.005577291 0.06846023 0.05847036 0.040724866
0.03162865 -0.068939686 -0.0024991522 -0.07088541 -0.0120402565 -0.06016678 0.05880705 0.03927953
0.020399962 0.011530433 -0.111215755 0.012670677 0.0065702656 0.04331405 -0.03463985 0.0052709747
0.030741494 0.049452238 0.10485824 0.021715017 0.078961454 0.068099506 -0.029098304 -0.033539582
-0.0014226427 0.02257153 0.049313106 0.043179147 0.07035805 0.006188452 0.0355197 0.029122118
-0.08236994 0.01835296 -0.004615241 -0.01959446 -0.07954445 0.056800198 -0.039635967 0.008544749
-0.11376002 0.0433373 0.08610222 -0.03476513 -0.03544865 -0.10437604 -0.07866437 0.07023312
-0.058472946 0.06013133 -0.12139649 -0.060026336 0.0073528807 0.07267304 -0.047018293 -0.009756613
0.031282287 5.266069e-05 0.051428985 -0.053335737 0.016032333 0.026528802 0.036847904 0.008689574
0.004599911 0.070010714 -0.07057038 -0.033870183 -0.0044228337 0.059559196 0.004426778 0.03136059
0.043985486 -0.07366237 0.03240204 -0.028702728 -0.04229287 0.061672304 0.067580305 0.015811216
-0.05689218 0.064527944 -0.03286264 -0.07589338 -0.0039070146 -0.0029011597 0.03845972 0.022282088
-0.011432017 -0.04104839 0.022464404 -0.022473574 0.007895236 0.0240883 0.009975765 -0.010260704
-0.036800966 -0.0024833598 -0.011316478 0.029646328 -0.03433902 0.00244905 -0.01095787 -0.014182232
-0.027586425 -0.017621059 -0.0127881 0.0110002225 0.008936208 -0.0023691712 -0.020232027 -0.022964096
-0.07339511 -0.0313569 -0.04175585 0.03138217 -0.034910917 -0.07630598 -0.0036230609 -0.053310096
0.022393 -0.061109316 0.009246884 -0.01754235 0.007607707 0.039894395 -0.023169618 -0.008554984
-0.01871444 -0.03766237 0.003039375 -0.012772579 0.032666333 0.009522851 -0.0634907 0.016624793
0.0006977777 -0.00015306874 0.00027663136 0.00025506358 -0.00025627227 -0.0005789365 -7.4238946e-05 -7.953278e-06
-5.3571428e-05 -6.9338865e-05 -4.9115144e-05 -4.2831365e-05 4.6846594e-08 -2.410235e-05 0.0003311513 0.00026164134
-1.2214729e-05 -1.0912625e-05 -3.562623e-07 0.0038851476 1.0765289e-05 -6.7205676e-08 1.5244876e-05 0.00033207005
0.008541308 -0.032274418 -0.017434778 -0.011446233 0.022205524 -0.026603188 -0.019679924 -0.019413618
0.001059585 -0.0142705245 0.00050987524 -0.01893689 0.012269762 0.0033796825 -0.02503497 -0.0073517566
-0.003755899 -0.0012797959 -0.011184203 0.026004128 0.016773986 -0.012792402 -0.0034218505 -0.024206651
0.010555155 -0.030504039 0.03446799 -0.015745796 -0.002179633 -0.007092991 -0.0008091679 -0.026518064
00000000: b003 0cbd b98d 943d e2ac 5a3d 3bed 2f3d
00000010: e144 d3bc c09c 9b3c 3bec 983c c635 543d
00000020: 8fe0 87bd 99a6 6e3d 253d 2a3d be49 9e3d
00000030: 270b 193c 83ec a43d 7ef7 a4bd 57cf da3c
00000040: 6d89 823d 0faa 87bd 6dd5 51bd 0376 393d
00000050: e564 2f3d 0d07 f63c e569 5e3a 1e0f 863d
00000060: 9238 e5bb f8aa 16bd 548d c0bd 68e5 7abd
00000070: 9a4e a2bd 19bb 09bc bb47 efbb 14a4 a73a
00000080: b29d 85bd bd55 66bd 190b 2abc cd8f 493c
00000090: 1c2d babd fc18 61bc d111 a0bd 1367 d23c
000000a0: 993e afbd 37fc 9ebd 9184 28be f3e7 15be
000000b0: f3bd aebd 9fa4 d8bd 26c4 e8bd 89af 6dbd
000000c0: baf4 e9bd 4833 fabc 2e9e d7bd 1b18 63bb
000000d0: afe1 fdbb 7c03 82bd baaf 8e3c 64df bcbc
000000e0: f355 4c3d 08cb b3bc 7fce 7a3d 01d6 f03c
000000f0: b5c1 b63b e134 8c3d 9e7e 6f3d 1ecf 263d
00000100: 0b8d 013d 4030 8dbd d1c8 23bb 5f2c 91bd
00000110: 7f44 45bc 7171 76bd a9df 703d 93e3 203d
00000120: d21d a73c 24ea 3c3c 16c5 e3bd ac98 4f3c
00000130: 624b d73b 136a 313d 84e2 0dbd 24b8 ac3b
00000140: 96d5 fb3c 6e8e 4a3d ebbf d63d b1e3 b13c
00000150: 8bb6 a13d c177 8b3d 915f eebc cd60 09bd
00000160: f877 baba eee7 b83c 8afc 493d 9edc 303d
00000170: e217 903d 7fc8 ca3b 1b7d 113d 8291 ee3c
00000180: 92b1 a8bd f258 963c 733b 97bb 9084 a0bc
00000190: 33e8 a2bd 53a7 683d 5359 22bd 46ff 0b3c
000001a0: 03fb e8bd 7482 313d 5c56 b03d e265 0ebd
000001b0: 9b32 11bd 1bc3 d5bd c91a a1bd 62d6 8f3d
000001c0: 5481 6fbd 454c 763d b99e f8bd 2dde 75bd
000001d0: 6ff0 f03b 9ad5 943d 4196 40bd 33da 1fbc
000001e0: db21 003d fcdf 5c38 33a7 523d 9376 5abd
000001f0: 3d56 833c ee52 d93c d4ed 163d b75e 0e3c
00000200: daba 963b c761 8f3d 3487 90bd 76bb 0abd
00000210: 6bed 90bb 58f4 733d 810e 913b f673 003d
00000220: 202a 343d 4cdc 96bd 00b8 043d fc21 ebbc
00000230: 4a3b 2dbd 199c 7c3d 8b67 8a3d 8686 813c
00000240: c607 69bd 3a27 843d fa9a 06bd fd6d 9bbd
00000250: 6a06 80bb 6221 3ebb f087 1d3d ed88 b63c
00000260: 5b4d 3bbc 5b22 28bd 4507 b83c 801a b8bc
00000270: 055b 013c d454 c53c 6471 233c 831c 28bc
00000280: 9cbc 16bd ddbf 22bb c068 39bc dbdc f23c
00000290: 12a7 0cbd 3e80 203b a388 33bc 985c 68bc
000002a0: edfc e1bc 0a5a 90bc 2e85 51bc 473a 343c
000002b0: 2c69 123c 1944 1bbb a3bd a5bc 331f bcbc
000002c0: 2d50 96bd 1870 00bd 2f08 2bbd 978a 003d
000002d0: c0fe 0ebd 4f46 9cbd e070 6dbb b05b 5abd
000002e0: 8671 b73c c34d 7abd 3e80 173c f9b4 8fbc
000002f0: 124a f93b 4e68 233d 36ce bdbc 342a 0cbc
00000300: 064f 99bc db43 1abd 4030 473b 1444 51bc
00000310: 22cd 053d bb05 1c3c 6a07 82bd b830 883c
00000320: 12eb 363a 1481 20b9 d508 9139 0eba 8539
00000330: 485c 86b9 c5c3 17ba bbb0 9bb8 126f 05b7
00000340: e2b1 60b8 056a 91b8 fc00 4eb8 d4a5 33b8
00000350: 6034 4933 672f cab7 609e ad39 e82c 8939
00000360: dded 4cb7 5e15 37b7 5144 bfb4 f69d 7e3b
00000370: 909c 3437 b652 90b3 3ec4 7f37 b019 ae39
00000380: d8f0 0b3c 2e32 04bd 61d3 8ebc fb88 3bbc
00000390: 5ce8 b53c eeee d9bc cb37 a1bc 4f09 9fbc
000003a0: c6e1 8a3a ebce 69bc 26a9 053a 8921 9bbc
000003b0: 1d07 493c aa7d 5d3b 2316 cdbc 01e7 f0bb
000003c0: 8725 76bb d3be a7ba f33d 37bc 9c06 d53c
000003d0: 9969 893c 3997 51bc 2041 60bb 074d c6bc
000003e0: 87ef 2c3c 9be3 f9bc 4f2e 0d3d 54fd 80bc
000003f0: 2cd8 0ebb 526c e8bb 571e 54ba 693c d9bc

encoder.2.bias f4 [16]
-0.02053129 0.03168968 -0.031589154 -0.063755 -0.013595229 -0.0020992917 -0.047671974 0.018310567
0.03459713 0.02319261 -0.032012 -0.024714045 0.003315664 0.036568817 0.097565114 -0.017366245
00000000: 3c31 a8bc 0acd 013d a163 01bd fb91 82bd
00000010: 86be 5ebc 4594 09bb b043 43bd 0b00 963c
00000020: b8b5 0d3d 6efe bd3c 041f 03bd 1c75 cabc
00000030: 9c4b 593b 2fc9 153d 38d0 c73d a843 8ebc

encoder.5.weight f4 [10, 6400]
-0.0046848436 -0.007297668 -0.0071043274 -0.0071606543 0.00392882 -0.020348646 -0.02489326 -0.0069152787
-0.014696112 -0.0034652224 0.015734155 0.030713981 0.030427316 0.041214935 0.024173185 0.024124708
-0.0045205657 -0.01691227 -0.013359406 -0.022705037 0.012749498 0.013917046 -0.00617748 -0.015250561
-0.020783572 -0.031612076 -0.018189456 -0.031915616 -0.007841472 -0.009529927 -0.007780541 0.026073987
0.02429722 0.027650148 0.029800013 0.0066498853 -0.010841552 -0.013913219 -0.016087903 -0.010271659
0.017788969 -0.018142644 -0.027798811 -0.03019446 -0.04128539 -0.042022802 -0.04871985 -0.036847845
-0.021641476 -0.028319526 -0.0073232553 0.0037676324 0.013973155 0.009535311 -0.0021051783 -0.01386286
0.00044583838 -0.0090557225 0.003453631 0.015292143 0.0068956697 -0.027167877 -0.053464446 -0.046718005
-0.051087093 -0.045299724 -0.038131375 -0.03231296 -0.03790978 -0.014309307 -0.0027453972 0.010529477
0.0016404823 -0.006692635 -0.007366508 -0.015894666 -0.01489787 -0.012881138 0.0048097367 -0.000849975
0.007827984 -0.03551532 -0.05508001 -0.04255792 -0.05115691 -0.052496854 -0.031883042 -0.038455427
-0.03232968 -0.026981276 -0.016611064 -0.017196873 -0.016618062 -0.01079654 -0.01785949 -0.011694697
-0.016156917 -0.0034530766 0.0021901967 0.018572962 0.0059729465 -0.02777866 -0.05931243 -0.053805523
-0.03394507 -0.03064633 -0.038210943 -0.049097046 -0.015221586 -0.025816634 -0.011913917 -0.0077410005
-0.021113697 -0.036121015 -0.014065667 -0.021994362 0.0024540995 -0.0135574825 -0.002909365 0.018478906
-0.004139914 -0.03438328 -0.036026657 -0.03275704 -0.035264485 -0.022508074 -0.05327189 -0.04760018
-0.0155409705 -0.01095977 -0.032465324 -0.044981834 -0.04924699 -0.034977958 -0.019372232 -0.023753738
-0.010992116 0.0006984266 0.008046853 0.02303461 -0.0026999877 -0.0361775 -0.036472235 -0.0357729
-0.018705668 -0.046502966 -0.050271314 -0.02628576 -0.016816638 -0.03723888 -0.030671956 -0.05349852
-0.03425426 -0.039471418 -0.024537707 -0.02386248 -0.003818855 -0.0023531746 0.025780657 0.015198082
0.025777604 -0.00048708846 -0.008458483 -0.013220701 -0.015722437 -0.045667928 -0.041630745 -0.036054496
-0.02967492 -0.026715722 -0.042083453 -0.03508179 -0.04107651 -0.034588292 -0.018792532 -0.02613336
0.0008112529 0.0076332814 0.016117254 0.0076354668 0.038792193 0.017348945 0.018264124 -0.0019774747
-0.000599306 -0.041492537 -0.04482322 -0.04521707 -0.042565677 -0.0565083 -0.050720435 -0.039790783
-0.036433753 -0.035290483 -0.030805282 -0.012466985 -0.004818078 -0.006775572 0.003351155 0.01830947
0.048391975 0.02307556 0.013467877 0.012571625 -0.0077407537 -0.032220367 -0.03950552 -0.058681745
-0.04463676 -0.03964775 -0.031663172 -0.03813846 -0.037207615 -0.039957613 -0.038484417 -0.016009975
-0.0034312748 -0.0042594653 0.011965376 0.028868802 0.0538475 0.043308962 0.043776188 0.0213507
-0.0006116857 -0.025422733 -0.043497454 -0.03911653 -0.051851973 -0.049057204 -0.051729407 -0.047165442
-0.04581915 -0.033738937 -0.047484554 -0.028085388 -0.0119448 -0.007012078 0.006796797 0.034396324
0.06130138 0.0724243 0.04760721 0.035103723 -0.00036930447 -0.012945878 -0.022566406 -0.032882858
-0.05211354 -0.0599749 -0.045648746 -0.04748946 -0.04330099 -0.042367432 -0.03208579 -0.04122655
00000000: 5183 99bb 4721 efbb 6bcb e8bb eca3 eabb
00000010: 55bd 803b 34b2 a6bc f3ec cbbc 9099 e2bb
00000020: f6c7 70bc c918 63bb eae4 803c e39b fb3c
00000030: b542 f93c fed0 283d d806 c63c 2ea1 c53c
00000040: 4121 94bb 9a8b 8abc 69e1 5abc eaff b9bc
00000050: 45e3 503c 5204 643c 756c cabb 7ddd 79bc
00000060: 4f42 aabc aa7b 01bd 0e02 95bc f3b9 02bd
00000070: 8479 00bc 6923 1cbc e9f3 febb 1d99 d53c
00000080: f70a c73c 9082 e23c 281f f43c 48e7 d93b
00000090: c4a0 31bc 45f4 63bc c7ca 83bc 764a 28bc
000000a0: 2cba 913c e29f 94bc 55ba e3bc 5f5a f7bc
000000b0: de1a 29bd 1a20 2cbd 778e 47bd c4ed 16bd
000000c0: 7749 b1bc 5afe e7bc ebf7 efbb 62ea 763b
000000d0: a9ef 643c fe39 1c3c 08f7 09bb 0d21 63bc
000000e0: 6abf e939 745e 14bc 5056 623b e68b 7a3c
000000f0: 12f5 e13b 2b8f debc 89fd 5abd 615b 3fbd
00000100: b340 51bd 348c 39bd a52f 1cbd 985a 04bd
00000110: 4947 1bbd 9571 6abc 1fec 33bb d483 2c3c
00000120: 7405 d73a e44d dbbb bf62 f1bb 8835 82bc
00000130: 3216 74bc 690b 53bc ff9a 9d3b dbd0 5eba
00000140: f240 003c 8378 11bd 949b 61bd 3751 2ebd
00000150: e889 51bd f106 57bd cb97 02bd 7083 1dbd
00000160: 206c 04bd d607 ddbc ed13 88bc 75e0 8cbc
00000170: 9a22 88bc f9e3 30bc 114e 92bc 1d9b 3fbc
00000180: 835b 84bc 034d 62bb 6789 0f3b 5326 983c
00000190: b5b8 c33b 1390 e3bc 97f1 72bd 2e63 5cbd
000001a0: fc09 0bbd 030e fbbc 1483 1cbd fc19 49bd
000001b0: f663 79bc 687d d3bc 9732 43bc 38a8 fdbb
000001c0: a2f6 acbc a1f3 13bd af73 66bc 852d b4bc
000001d0: f5d4 203b 3420 5ebc 0cab 3ebb 1361 973c
000001e0: 1ea8 87bb 7bd5 0cbd b090 13bd 3f2c 06bd
000001f0: 7e71 10bd da62 b8bc a033 5abd 68f8 42bd
00000200: 8e9f 7ebc 9b90 33bc 5cfa 04bd df3e 38bd
00000210: 36b7 49bd 0c45 0fbd 84b2 9ebc 3397 c2bc
00000220: 4718 34bc 9e16 373a f3d6 033c 14b3 bc3c
00000230: 47f2 30bb dc2e 14bd e963 15bd 9b86 12bd
00000240: a13c 99bc e579 3ebd 4be9 4dbd 3c55 d7bc
00000250: 0cc3 89bc cc87 18bd c143 fbbc 4421 5bbd
00000260: 324e 0cbd c8ac 21bd 4d03 c9bc 3f7b c3bc
00000270: c145 7abb b837 1abb f531 d33c 6001 793c
00000280: 8e2b d33c e85f ffb9 7395 0abc a49b 58bc
00000290: 57cc 80bc 4b0e 3bbd 0085 2abd e1ad 13bd
000002a0: d118 f3bc eeda dabc b35f 2cbd ecb1 0fbd
000002b0: d83f 28bd 74ac 0dbd ccf2 99bc a115 d6bc
000002c0: 43aa 543a 9b20 fa3b 5508 843c f032 fa3b
000002d0: 90e4 1e3d 601f 8e3c a59e 953c 8598 01bb
000002e0: bf1a 1dba 14f4 29bd 8e98 37bd 8935 39bd
000002f0: 5959 2ebd 3f75 67bd 3bc0 4fbd a9fb 22bd
00000300: 8f3b 15bd c18c 10bd 5c5b fcbc 5342 4cbc
00000310: f8e0 9dbb 9e05 debb 0d9f 5b3b befd 953c
00000320: aa36 463d f508 bd3c 5fa8 5c3c 38f9 4d3c
00000330: 26a6 fdbb 81f9 03bd 8ad0 21bd 455c 70bd
00000340: 09d5 36bd ae65 22bd 3eb1 01bd 1337 1cbd
00000350: 0367 18bd 98aa 23bd d6a1 1dbd 5a27 83bc
00000360: 3ddf 60bb fc92 8bbb 6d0a 443c 447e ec3c
00000370: 328f 5c3d bd64 313d a94e 333d aae7 ae3c
00000380: 8859 20ba 5643 d0bc 632a 32bd a838 20bd
00000390: bc62 54bd 35f0 48bd 37e2 53bd 8d30 41bd
000003a0: dcac 3bbd d731 0abd 2a7f 42bd 5413 e6bc
000003b0: 1fb4 43bc 93c5 e5bb aab7 de3b 29e3 0c3d
000003c0: 2817 7b3d 3153 943d c7ff 423d ecc8 0f3d
000003d0: 359f c1b9 f31a 54bc 2fdd b8bc 2db0 06bd
000003e0: 0275 55bd 3ea8 75bd 2efa 3abd 4f84 42bd
000003f0: 615c 31bd 7989 2dbd 646c 03bd 2cdd 28bd

encoder.5.bias f4 [10]
0.015267479 0.017266644 -0.01208771 0.02403153 0.0041491543 0.004948594 -0.0010823047 -0.0017783316
0.013049976 -0.002251434
00000000: 7324 7a3c c772 8d3c 880b 46bc c5dd c43c
00000010: a1f5 873b d127 a23b 1fdc 8dba e816 e9ba
00000020: 91cf 553c cb8c 13bb

decoder.0.weight f4 [6400, 10]
-0.061948914 0.0701609 -0.0011157576 0.0842977 -0.03317996 0.12937087 0.057046276 -0.10985208
-0.042153593 -0.053414438 -0.061761774 -0.066908546 0.009306237 0.05384469 -0.16007036 0.15025361
-0.09726192 0.040424112 -0.11982653 0.038607497 0.014426345 -0.047430824 -0.11480307 0.0962651
0.12454014 -0.044566363 -0.07933461 -0.14847903 0.041181274 0.13608257 0.10612949 0.091899365
0.0630434 -0.032132473 0.010250247 -0.007429885 -0.073911384 0.13666035 -1.4013491e-05 -0.10339419
0.068698935 -0.039926086 -0.034528438 -0.07110784 -0.061354365 -0.15707755 -0.028285496 0.12467303
-0.052193157 -0.00916033 -0.12149035 -0.06338458 -0.17025241 -0.14527445 0.13903166 -0.17755854
0.0468466 -0.1560968 -0.11980374 -0.04121287 0.17303261 0.06646689 -0.1825166 0.07923573
0.014192169 0.0864041 0.15001741 0.17145973 0.09209119 0.063372485 0.105395354 -0.118056856
-0.04153307 0.20670736 0.15324573 0.11194889 -0.1880378 0.05286133 0.17923607 0.11539232
0.20732564 -0.12580343 -0.072568715 -0.06705085 0.09608686 0.028187292 0.07461666 0.08312497
-0.15515587 0.05971396 -0.029385934 0.012598164 -0.15132174 0.10170387 0.016226143 -0.13092516
0.15029497 0.04795075 0.08954089 0.074423954 0.036736187 0.08101826 -0.12391902 -0.20573868
-0.045123577 -0.024971941 -0.019683104 0.05960067 -0.10662086 -0.11248125 -0.1625201 0.11021489
-0.075255334 0.08091249 0.21084082 0.1488894 0.06995545 -0.22482702 0.16554266 -0.02236344
-0.12968254 -0.105914794 -0.0148393465 0.01928456 -0.07866954 -0.06676571 -0.06838482 0.0013676652
0.051930007 -0.16320628 0.22001289 -0.112635136 0.10412534 -0.15783232 0.2217684 0.0015729455
0.09238074 -0.024320524 -0.16172677 -0.023528872 -0.064393245 -0.12730256 0.10863743 0.19580957
-0.016508318 0.20568153 0.10463271 0.15465668 0.2890603 -0.021859193 0.22298402 0.15523279
-0.018178487 -0.007807338 -0.060695216 -0.00956429 0.07596011 0.034072097 0.17010745 0.14042477
-0.14343248 0.054350983 0.09997223 -0.1763907 -0.13099384 0.17166017 0.033007506 -0.09096023
-0.15313098 0.0658638 0.040733527 0.14351258 0.26305223 -0.10101808 -0.12431569 0.007866646
-0.07994289 0.0932929 -0.043104246 0.12783283 0.006797008 -0.008770818 0.08491449 -0.002734506
0.02383203 0.061705843 0.036957536 0.15954983 0.06895889 0.02864124 0.034726515 -0.010153646
0.16165403 0.031123113 -0.022319682 -0.039970476 -0.11169322 0.028386235 0.03377215 -0.040059857
0.055093657 -0.091785595 0.11473083 0.04295722 0.058582604 0.15361592 -0.044629697 0.06945906
-0.124098964 -0.120000325 -0.07451395 0.018161966 -0.05491866 -0.013822962 0.008052002 -0.18502855
0.10171111 -0.11506309 -0.19192436 0.043128323 -0.21200581 0.0058403607 0.082514904 -0.14723909
0.00015551897 0.038060263 0.13704157 -0.041636843 -0.06348189 -0.18758558 0.1853231 -0.13406412
-0.10282663 0.01906195 0.112580515 0.025938166 -0.0021246676 -0.033189494 -0.08650528 -0.022274982
0.08712531 0.022118026 -0.21598338 0.08687204 -0.10000908 0.09913926 0.02614704 -0.04629339
0.0057229414 -0.06639878 -0.16901246 0.040270407 -0.089175016 0.116996035 -0.20054564 -0.039079767
00000000: 25be 7dbd 85b0 8f3d 9d3e 92ba 46a4 ac3d
00000010: b6e7 07bd cc79 043e 5ba9 693d 21fa e0bd
00000020: 3fa9 2cbd 19c9 5abd eaf9 7cbd 5907 89bd
00000030: 3079 183c 408c 5c3d 7ce9 23be 15dc 193e
00000040: 4231 c7bd c193 253d 9d67 f5bd e522 1e3d
00000050: 7a5c 6c3c d346 42bd df1d ebbd a326 c53d
00000060: e70e ff3d 388b 36bd 2f7a a2bd e30a 18be
00000070: b2ad 283d 3b59 0b3e 6b5a d93d bc35 bc3d
00000080: e61c 813d 579d 03bd a7f0 273c 6576 f3bb
00000090: da5e 97bd b1f0 0b3e 7c1b 6bb7 55c0 d3bd
000000a0: 07b2 8c3d 8989 23bd b16d 0dbd fda0 91bd
000000b0: b74e 7bbd f0d8 20be fcb6 e7bc 9354 ff3d
000000c0: 7ec8 55bd 3515 16bc efcf f8bd c6cf 81bd
000000d0: a656 2ebe d3c2 14be 515e 0e3e e8d1 35be
000000e0: 38e2 3f3d d7d7 1fbe aa5b f5bd d4ce 28bd
000000f0: 762f 313e cb1f 883d a2e5 3abe 5846 a23d
00000100: 4586 683c a2f4 b03d 2a9e 193e 2493 2f3e
00000110: 4e9a bc3d 6fc9 813d 85d9 d73d cbc7 f1bd
00000120: 951e 2abd 18ab 533e 73ec 1c3e 7645 e53d
00000130: fb8c 40be 1f85 583d a989 373e cf52 ec3d
00000140: 2c4d 543e 9dd2 00be e89e 94bd f551 89bd
00000150: 30c9 c43d 09e9 e63c 9fd0 983d 6d3d aa3d
00000160: 2ee1 1ebe a096 743d c5ba f0bc 8868 4e3c
00000170: 16f4 1abe 1e4a d03d b0ec 843c 3f11 06be
00000180: ede6 193e 0168 443d 3761 b73d 966b 983d
00000190: af78 163d e7ec a53d 41c9 fdbd 29ad 52be
000001a0: 80d3 38bd f591 ccbc 763e a1bc d51f 743d
000001b0: 0a5c dabd 925c e6bd ab6b 26be 58b8 e13d
000001c0: 781f 9abd 73b5 a53d a8e6 573e 7676 183e
000001d0: ce44 8f3d 0e39 66be 0484 293e 8833 b7bc
000001e0: 80cb 04be dbe9 d8bd bb20 73bc a7fa 9d3c
000001f0: 7f1d a1bd 76bc 88bd 570d 8cbd 3b43 b33a
00000200: 8fb4 543d 8c1f 27be 0f4b 613e 40ad e6bd
00000210: ab3f d53d cc9e 21be 4117 633e 4b2b ce3a
00000220: 1d32 bd3d d63b c7bc b49b 25be 9fbf c0bc
00000230: 9be0 83bd 9a5b 02be 4d7d de3d 4e82 483e
00000240: 743c 87bc 2e9e 523e ad49 d63d 525e 1e3e
00000250: b6ff 933e 0d12 b3bc ec55 643e 58f5 1e3e
00000260: 0deb 94bc b3d4 ffbb 8c9b 78bd 8ab3 1cbc
00000270: f990 9b3d 2f8f 0b3d a630 2e3e 83cb 0f3e
00000280: f7df 12be 239f 5e3d 3ebe cc3d c39f 34be
00000290: 4023 06be afc7 2f3e e132 073d 5b49 babd
000002a0: 5ece 1cbe 9ae3 863d 33d8 263d f6f4 123e
000002b0: c8ae 863e 91e2 cebd 3999 febd 1be3 003c
000002c0: 19b9 a3bd 5910 bf3d 148e 30bd 9ce6 023e
000002d0: 70b9 de3b 7ab3 0fbc a6e7 ad3d 6635 33bb
000002e0: 643b c33c 44bf 7c3d c960 173d 0861 233e
000002f0: 523a 8d3d 09a1 ea3c 643d 0e3d 7a5b 26bc
00000300: a288 253e e6f5 fe3c c4d7 b6bc 15b8 23bd
00000310: 6abf e4bd 408a e83c aa54 0a3d ce15 24bd
00000320: e3a9 613d 16fa bbbd fff7 ea3d e9f3 2f3d
00000330: 50f4 6f3d 7e4d 1d3e a1cd 36bd 8d40 8e3d
00000340: 9927 febd bbc2 f5bd c59a 98bd 67c8 943c
00000350: 64f2 60bd b479 62bc 8bec 033c 2078 3dbe
00000360: ea4d d03d 33a6 ebbd d287 44be 53a7 303d
00000370: 0d18 59be 7f60 bf3b 93fd a83d d8c5 16be
00000380: ce12 2339 14e5 1b3d a054 0c3e 658b 2abd
00000390: cb02 82bd 6f16 40be 57c5 3d3e 1b48 09be
000003a0: c596 d2bd ce27 9c3c 9d90 e63d 477c d43c
000003b0: 023e 0bbb b5f1 07bd ae29 b1bd 067a b6bc
000003c0: c16e b23d dd30 b53c bf2a 5dbe f8e9 b13d
000003d0: 8fd1 ccbd 8609 cb3d 5132 d63c 239e 3dbd
000003e0: 8387 bb3b 15fc 87bd 9a11 2dbe 95f2 243d
000003f0: 64a1 b6bd 9e9b ef3d d65b 4dbe 1b12 20bd

decoder.0.bias f4 [6400]
-0.02151138 -0.008616879 -0.005825424 -0.01137898 0.0027969591 -0.021729732 -0.011330624 -0.0145265255
-0.056538112 -0.041682728 -0.0039660656 -0.04621191 0.0039926623 -0.005595454 -0.01833781 -0.009682558
-0.017790584 -0.00930288 -0.012840635 -0.0153493425 -0.016528612 -0.021785283 -0.022652125 -0.0339272
-0.013214003 -0.033925463 -0.017254027 -0.009142219 -0.0300477 -0.02408645 -0.020648137 -0.058428153
-0.0047610463 -0.029451046 -0.037439108 -0.0020199253 -0.0013413752 -0.026548943 -0.020398676 -0.017452229
-0.018743023 -0.02267266 -0.013430789 0.010632988 -0.011781752 -0.010805984 0.005211864 -0.0523474
-0.0056498754 -0.01700594 -0.0021039483 0.019396443 -0.012853864 -0.04273006 0.036786247 -0.0032785486
0.004614624 -0.011607062 -0.010094661 -0.018682728 -0.022783315 -0.013527358 -0.004252779 0.004123176
-0.017280784 0.0020021729 0.028143914 -0.00031996085 0.01863995 -0.020828515 0.03655203 -0.051623497
0.013522092 0.0020501455 -0.055248603 -0.017600978 -0.00051318074 -0.044847753 0.0057901875 -0.0070930286
-0.01899569 -0.0031319489 -0.028242344 0.0073097264 -0.015443514 0.0021088957 0.009132885 0.06921086
-0.014888554 -0.06949889 -0.023063615 0.047535546 0.03779545 0.06872449 0.04353585 0.012362369
-0.057377297 0.010681551 -0.020593787 -0.036295623 -0.020360949 0.006674303 -0.008075431 -0.0145462025
0.015545879 0.009898578 0.024520574 -0.024918202 0.012271996 0.0025113642 -8.68387e-05 0.022005973
0.052192956 0.0052087423 0.020662103 -0.010251798 0.0011526112 0.0014009422 0.017237935 -0.020819513
-0.0072351624 -0.011238257 -0.01357812 -0.003481177 -0.0004361511 0.038085967 0.071503654 -0.04873893
-0.02225055 0.025938006 -0.031798415 0.031869724 0.006117799 0.0026745968 0.03212319 0.0054100025
-0.024529062 -0.0072653345 -0.031806912 0.016243689 -0.0026090925 -0.0016987934 -0.00025693252 -0.023239445
0.029982937 0.0369539 -0.025832199 -0.038444776 -0.006256888 -0.012207894 0.016063012 0.0108429715
0.008514157 0.060482014 0.014649632 -0.0064767636 0.005189059 -0.018384496 -0.02391454 -0.03644299
0.005600423 -0.021259665 0.0014485468 0.0012159233 -0.023861038 0.0024927447 0.012894655 0.00088920037
-0.025688024 0.034088906 -0.0006739559 0.09255898 0.02935509 0.032197814 0.0072096274 -0.012493418
-0.018829325 -0.0048454762 -0.04853896 -0.03779169 -0.02879778 -0.0048298226 0.019360814 -0.010251007
-0.003885968 -0.034391135 -0.0025164047 -0.031172141 0.05721231 0.00801992 -0.03157236 0.008749619
-0.031135462 -0.0101769995 0.057005323 -0.0019285535 -0.020947509 -0.05305588 -0.02030621 -0.018599933
-0.017117478 0.013795803 0.0041640056 -0.029489744 0.018771477 -0.00089794333 0.0043223836 -0.018990055
-0.0009396984 0.007187182 0.04081818 0.0007653605 -0.01506662 -0.004337281 -0.07276123 -0.07147869
-0.026686778 -0.020514933 -0.0054407306 -0.025171267 -0.042819276 0.007087952 0.008202442 0.019777764
0.019538598 0.085214496 0.009381561 0.01095817 -0.0030155417 0.03925372 -0.013342081 -0.022990335
-0.008843802 -0.03236066 -0.025213866 0.012544456 -0.014092827 -0.03146271 -0.020887176 -0.031227263
-0.0056463457 0.013653845 0.0008485939 0.007834331 0.008201876 0.036656227 -0.031152904 -0.014271261
0.074861966 0.022472808 -0.062075906 -0.03613764 0.009128932 0.023207292 -0.012286305 -0.014502744
00000000: a238 b0bc cf2d 0dbc 33e3 bebb e76e 3abc
00000010: 304d 373b 8d02 b2bc 15a4 39bc aa00 6ebc
00000020: 8294 67bd 82bb 2abd c5f5 81bb b348 3dbd
00000030: e1d4 823b 125a b7bb 2d39 96bc 97a3 1ebc
00000040: 8fbd 91bc 1b6b 18bc 8761 52bc cf7b 7bbc
00000050: 0367 87bc 0d77 b2bc f390 b9bc 3ff7 0abd
00000060: 8c7f 58bc 6df5 0abd 5158 8dbc 3fc9 15bc
00000070: 9826 f6bc f250 c5bc 4826 a9bc 5c52 6fbd
00000080: 8d02 9cbb 5243 f1bc c059 19bd b960 04bb
00000090: 15d1 afba 2b7d d9bc 201b a7bc faf7 8ebc
000000a0: f88a 99bc 04bc b9bc d00c 5cbc fc35 2e3c
000000b0: 4008 41bc 950b 31bc 49c8 aa3b 3a6a 56bd
000000c0: 9722 b9bb 0b50 8bbc 65e2 09bb 4ae5 9e3c
000000d0: 0399 52bc b705 2fbd 2dad 163d ebdc 56bb
000000e0: 4636 973b 8c2b 3ebc 1464 25bc 850c 99bc
000000f0: 13a4 babc daa1 5dbc e55a 8bbb b51b 873b
00000100: 6e90 8dbc e336 033b 118e e63c 6bc0 a7b9
00000110: cfb2 983c 90a0 aabc 95b7 153d 2973 53bd
00000120: c48b 5d3c bc5b 063b 5c4c 62bd ed2f 90bc
00000130: fa86 06ba 47b2 37bd 9dbb bd3b a36c e8bb
00000140: d99c 9bbc 6241 4dbb 7d5c e7bc 6e86 ef3b
00000150: cb06 7dbc 6635 0a3b 19a2 153c 6cbe 8d3d
00000160: 1fef 73bc 6f55 8ebd e8ef bcbc a2b4 423d
00000170: 67cf 1a3d 6dbf 8c3d a652 323d 898b 4a3c
00000180: 7504 6bbd ac01 2f3c 4db4 a8bc b8aa 14bd
00000190: 01cc a6bc 1db4 da3b d04e 04bc 3253 6ebc
000001a0: 24b4 7e3c a52d 223c 5fdf c83c 4221 ccbc
000001b0: 7b10 493c b395 243b 2c1d b6b8 df45 b43c
000001c0: 48c8 553d 19ae aa3b 9243 a93c 28f7 27bc
000001d0: 3713 973a d29f b73a 9236 8d3c af8d aabc
000001e0: f114 edbb ab20 38bc c376 5ebc 7524 64bb
000001f0: 36ab e4b9 0800 1c3d 8270 923d 79a2 47bd
00000200: c946 b6bc f17b d43c 0e3f 02bd d489 023d
00000210: d177 c83b 4a48 2f3b 9b93 033d 6446 b13b
00000220: 2cf1 c8bc 0b12 eebb f747 02bd 7c11 853c
00000230: 4ffd 2abb 0caa deba e6b4 86b9 a660 bebc
00000240: c79e f53c f95c 173d 0c9e d3bc 4578 1dbd
00000250: 9506 cdbb 9e03 48bc 9496 833c b8a6 313c
00000260: f67e 0b3c fdbb 773d 0305 703c 083b d4bb
00000270: fb08 aa3b 159b 96bc 6de8 c3bc 3f45 15bd
00000280: c183 b73b c028 aebc 2add bd3a 9e5f 9f3a
00000290: 3978 c3bc 515d 233b 1a44 533c 3a19 693a
000002a0: b16f d2bc cfa0 0b3d 6aac 30ba 908f bd3d
000002b0: 167a f03c dbe1 033d bd3e ec3b 31b1 4cbc
000002c0: f53f 9abc cdc6 9ebb cad0 46bd 76cb 1abd
000002d0: 52e9 ebbc 7d43 9ebb 929a 9e3c d7f3 27bc
000002e0: b9ab 7ebb b8dd 0cbd 44ea 24bb b85c ffbc
000002f0: 7557 6a3d fc65 033c 0552 01bd 905a 0f3c
00000300: cc0f ffbc 6ebd 26bc 6a7e 693d 84c7 fcba
00000310: 1c9a abbc 1f51 59bd 3559 a6bc e35e 98bc
00000320: f439 8cbc cb07 623c 3672 883b 7a94 f1bc
00000330: a4c6 993c f563 6bba c8a2 8d3b 0891 9bbc
00000340: 1856 76ba 7482 eb3b f730 273d 79a2 483a
00000350: fcd9 76bc c01f 8ebb d703 95bd 6b63 92bd
00000360: 3b9e dabc ef0e a8bc 2848 b2bb f933 cebc
00000370: 4463 2fbd 0d42 e83b 8963 063c fa04 a23c
00000380: 690f a03c f084 ae3d 1eb5 193c e589 333c
00000390: 65a0 45bb 82c8 203d be98 5abc 3a56 bcbc
000003a0: 98e5 10bc 9d8c 04bd 4f8d cebc 4387 4d3c
000003b0: 9ae5 66bc 0bdf 00bd 951b abbc 51d0 ffbc
000003c0: fb04 b9bb 60b4 5f3c 2c74 5e3a 915b 003c
000003d0: 2961 063c d724 163d 6034 ffbc 02d2 69bc
000003e0: 3b51 993d e518 b83c 4e43 7ebd 1005 14bd
000003f0: 8491 153c 381d be3c 804c 49bc eb9c 6dbc

decoder.3.weight f4 [16, 6, 5, 5]
0.049526878 0.08611694 0.05059962 0.0024549083 -0.027374227 0.08429236 0.06820458 0.047231678
0.0026926815 -0.04639749 0.017429272 0.088525385 0.006538918 -0.03652253 -0.045114357 0.049987394
0.036330823 -0.014413369 -0.011877643 -0.08307653 0.042065676 0.09005396 0.0200961 -0.06358166
-0.044083234 0.03756634 0.052453857 -0.002338153 -0.021328103 -0.06909218 -0.063742176 -0.019944014
0.028037729 -0.06453688 -0.1327926 -0.010272511 -0.02076021 -0.011705911 -0.024932735 -0.09121062
-0.041195564 -0.016047241 -0.12534073 -0.06375677 0.0033198122 -0.12445611 -0.015297736 -0.110204786
-0.046989962 -0.06551648 0.049669128 0.016316824 0.01783285 -0.070233375 0.002472376 -0.018305205
-0.087445594 -0.09435406 -0.12403133 -0.04557775 -0.087938964 -0.04903758 -0.026576096 0.010591655
0.019260516 -0.15445654 0.009269016 -0.069393836 0.027608765 0.0058790967 -0.07350906 -0.054708026
-0.0026960713 -0.097662 -0.039147355 0.009450608 -0.031736583 0.032227367 -0.060339835 -0.06421212
0.038400088 0.04339288 -0.07336245 -0.07549173 -0.037231833 0.08023836 -0.025927627 -0.0050893687
0.011259487 0.0020472368 -0.011978306 -0.048794817 -0.05773529 -0.011352351 -0.029701304 -0.09518926
-0.0016626942 -0.019769596 -0.07644716 -0.0048117684 -0.089433834 -0.04136117 -0.0033063856 -0.009003843
-0.019064445 -0.055006087 -0.032454506 -0.011490703 0.03596505 -0.009182671 0.022248225 0.011073675
0.029653609 0.030005878 0.05812034 0.060937345 0.043076165 0.10210012 0.025645899 0.05563649
0.07383158 0.024945596 0.055620275 0.05954276 0.056075096 -0.02985262 -0.040757507 0.00039860056
-0.023202796 0.018902048 -0.0395442 0.013790781 -0.015627354 -0.0017402769 0.05266953 -0.09206677
0.020358743 -0.013202704 0.032926295 0.07933126 -0.009572103 0.081344396 -0.007300229 0.06805303
0.049823266 0.023827793 0.029776195 -0.0086285435 0.05729118 0.024389878 0.053412713 0.07516174
0.0023030164 0.054772105 -0.057096746 0.1386351 0.043171763 0.015869176 0.019050794 -0.045078207
0.026600553 -0.0055601913 -0.07218965 -0.054520562 -0.101421915 0.060948852 0.0861074 -0.06513957
-0.009620218 -0.13597636 0.032089 0.021754194 -0.039347593 -0.045406252 -0.06663944 -0.06743869
-0.09890255 -0.10426679 0.06984621 -0.0450187 0.020866202 -0.053942047 0.050112784 -0.04114503
-0.10255631 0.014688917 -0.12747125 -0.11137849 -0.1417995 0.010412726 0.0453179 -0.044705335
-0.026974238 -0.0050756806 -0.022972975 0.016153954 0.06563071 -0.02089904 -0.061246827 -0.016445344
-0.024845295 -0.044331633 0.07744275 -0.051793408 -0.0057970495 0.038847204 -0.029801166 -0.15488228
-0.067886226 -0.010401617 0.025052512 -0.024779385 -0.049161054 0.041396376 0.09987659 -0.08770364
-0.0997168 0.031838093 0.00016421566 0.09023636 -0.0376468 0.058155827 -0.041364066 0.057601668
0.047717087 0.0138895335 -0.024984209 -0.08466635 0.033950698 -0.078938074 -0.026156252 -0.018400058
-0.13430671 -0.13492957 -0.0084297545 -0.1449997 -0.10625397 -0.093177155 -0.06126179 -0.03807206
-0.02084699 -0.058654867 -0.029995074 0.023245076 -0.058720812 -0.03673448 0.041530658 0.04961355
-0.05373384 -0.00028239866 -0.05879682 -0.035195295 -0.04678833 0.047972307 -0.012220861 -0.07405521
00000000: b2dc 4a3d 145e b03d 8c41 4f3d 87e2 203b
00000010: ea3f e0bc 79a1 ac3d d8ae 8b3d 0176 413d
00000020: b377 303b 4b0b 3ebd d5c7 8e3c cc4c b53d
00000030: 6b44 d63b a698 15bd d5c9 38bd 95bf 4c3d
00000040: a1cf 143d 0d26 6cbc 729a 42bc 0724 aabd
00000050: 0f4d 2c3d 366e b83d 94a0 a43c 1a37 82bd
00000060: 9f90 34bd 2adf 193d dbd9 563d b33b 19bb
00000070: 46b8 aebc 3380 8dbd 428b 82bd a161 a3bc
00000080: 61af e53c e92b 84bd c9fa 07be 094e 28bc
00000090: 5111 aabc 26ca 3fbc bc3f ccbc a2cc babd
000000a0: aebc 28bd 8175 83bc 5259 00be e992 82bd
000000b0: 3591 593b d8e2 febd 5ba3 7abc 0cb3 e1bd
000000c0: 8c78 40bd 812d 86bd db71 4b3d dcaa 853c
000000d0: 3216 923c 84d6 8fbd 9607 223b ccf4 95bc
000000e0: ad16 b3bd b43c c1bd 2304 febd bcaf 3abd
000000f0: 5819 b4bd a1db 48bd 1db6 d9bc 9f88 2d3c
00000100: 3bc8 9d3c db29 1ebe 12dd 173c 5b1e 8ebd
00000110: c72b e23c 70a5 c03b eb8b 96bd 8615 60bd
00000120: 92b0 30bb 0403 c8bd fa58 20bd b9d6 1a3c
00000130: 38fe 01bd d800 043d e726 77bd a581 83bd
00000140: 6949 1d3d bcbc 313d 0d3f 96bd 689b 9abd
00000150: 6880 18bd 0254 a43d 2d66 d4bc b8c4 a6bb
00000160: b679 383c ef2a 063b a840 44bc 13dd 47bd
00000170: d77b 6cbd 36ff 39bc 2650 f3bc 96f2 c2bd
00000180: c2ee d9ba d9f3 a1bc 5490 9cbd 0aac 9dbb
00000190: 1629 b7bd 556a 29bd f2af 58bb db84 13bc
000001a0: 0a2d 9cbc 104e 61bd 04ef 04bd 8043 3cbc
000001b0: 1750 133d ea72 16bc e941 b63c 5c6e 353c
000001c0: 20ec f23c e3ce f53c 980f 6e3d 7099 793d
000001d0: a270 303d de19 d13d 5917 d23c 17e3 633d
000001e0: 0335 973d b55a cc3c 16d2 633d 1ce3 733d
000001f0: 00af 653d 7b8d f4bc 58f1 26bd 43fb d039
00000200: ca13 bebc 78d8 9a3c 19f9 21bd baf2 613c
00000210: f004 80bc 011a e4ba 01bc 573d 818d bcbd
00000220: 61c7 a63c 2750 58bc b9dd 063d 6d78 a23d
00000230: 4fd4 1cbc e497 a63d c236 efbb 635f 8b3d
00000240: 7b13 4c3d 8132 c33c 35ed f33c bc5e 0dbc
00000250: 28aa 6a3d 48cd c73c 4ac7 5a3d 66ee 993d
00000260: 34ee 163b b758 603d 47de 69bd 5cf6 0d3e
00000270: e0d4 303d 1300 823c 6910 9c3c eda3 38bd
00000280: 67e9 d93c 4432 b6bb 2bd8 93bd f450 5fbd
00000290: 4bb6 cfbd 81a5 793d 1459 b03d e567 85bd
000002a0: 1e9e 1dbc 633d 0bbe c16f 033d da35 b23c
000002b0: f12a 21bd e8fb 39bd 427a 88bd 4c1d 8abd
000002c0: 6c8d cabd d489 d5bd 880b 8f3d 8765 38bd
000002d0: 99ef aa3c 56f2 5cbd 1043 4d3d b187 28bd
000002e0: 0b09 d2bd c9a9 703c d387 02be 681a e4bd
000002f0: e333 11be 239a 2a3c 439f 393d f11c 37bd
00000300: 14f9 dcbc e551 a6bb d231 bcbc 4c55 843c
00000310: 6569 863d 7734 abbc f4dd 7abd 63b8 86bc
00000320: 5c88 cbbc 1695 35bd 4e9a 9e3d 5325 54bd
00000330: 2df5 bdbb 3f1e 1f3d 9321 f4bc 7699 1ebe
00000340: ef07 8bbd 8b6b 2abc ed3a cd3c 23fe cabc
00000350: 1a5d 49bd 3f8f 293d 198c cc3d f79d b3bd
00000360: 5238 ccbd a968 023d 4e31 2c39 d7cd b83d
00000370: 8833 1abd ce34 6e3d 5e6d 29bd baef 6b3d
00000380: fe72 433d ed90 633c afab ccbc 8d65 adbd
00000390: e30f 0b3d 49aa a1bd a345 d6bc b8bb 96bc
000003a0: b387 09be fa2a 0abe f41c 0abc cd7a 14be
000003b0: ae9b d9bd aad3 bebd a5ed 7abd 73f1 1bbd
000003c0: 4fc7 aabc 1640 70bd 3bb8 f5bc 756c be3c
000003d0: 3c85 70bd e576 16bd 0d1c 2a3d 9437 4b3d
000003e0: 0418 5cbd e80e 94b9 efd4 70bd f128 10bd
000003f0: 1fa5 3fbd 9c7e 443d 023a 48bc 42aa 97bd

decoder.3.bias f4 [6]
0.00026797206 0.19916189 0.1703503 0.1409785 -0.22941494 -0.19614096
00000000: 9a7e 8c39 18f1 4b3e 4f70 2e3e ab5c 103e
00000010: c0eb 6abe 2dd9 48be

decoder.5.weight f4 [6, 1, 5, 5]
-0.061497103 0.02160163 -0.11004795 -0.23347297 0.046856195 0.046994705 -0.162797 -0.231505
-0.20744509 -0.058311507 -0.11092624 -0.10125072 -0.25029138 -0.1778834 0.045619696 -0.10574559
-0.20017406 -0.19139706 -0.11559041 0.15849647 -0.06482667 -0.0060172714 0.02548805 0.14748679
0.20685622 -0.07133923 -0.0811316 -0.09798816 -0.10681035 -0.03767075 -0.22829297 -0.23589063
-0.14531884 -0.04776615 0.041955583 -0.25208917 -0.23760946 -0.17347962 -0.11122959 -0.05437931
-0.19787924 -0.3501387 -0.36864078 -0.25215632 -0.11337531 -0.11829304 -0.218607 -0.2225134
-0.18417236 -0.1804197 0.05682213 -0.0076431553 -0.10513479 -0.07051002 -0.06516463 0.020764856
-0.14125139 -0.1986997 -0.22877245 -0.1430743 -0.055094976 -0.12275983 -0.27022737 -0.23832408
-0.0886869 0.022667103 -0.016774852 -0.044671044 0.04403938 0.052776545 -0.01276556 0.035303153
-0.029798001 -0.025450284 0.041779697 -0.20822704 -0.14383797 -0.14253838 -0.16192432 -0.075383276
-0.31078178 -0.30225 -0.19185397 -0.11937327 -0.09721512 -0.29998988 -0.31861445 -0.16803892
-0.21949622 -0.10214675 -0.16103308 -0.1729879 -0.24900731 -0.09651064 -0.051671967 -0.09113509
-0.16068423 -0.22489376 -0.24258219 -0.17367765 0.16227916 -0.038695887 0.0664398 0.16804491
0.12464094 0.091917746 -0.028917694 0.09839018 0.08792605 -0.049353957 0.12075362 0.11456056
0.09454342 0.009973668 0.06743015 0.09902865 -0.033535413 -0.0021132412 -0.05967291 0.011991686
-0.051159695 -0.07640997 0.018479712 -0.12261316 -0.1781393 0.1651259 0.23030001 0.21459198
0.090926975 0.047495335 0.045790136 0.24569772 0.10340293 -0.10773113 -0.0054522217 0.0026295318
-0.039237514 0.18071502 -0.05949009 -0.058861434 0.049565904 0.1309169 -0.08022087 -0.13027139
-0.10233037 0.017994441 -0.055743214 0.07538732 -0.057686217 0.04658733
00000000: 63e4 7bbd e7f5 b03c d260 e1bd 8a13 6fbe
00000010: 48ec 3f3d 857d 403d 42b4 26be a60f 6dbe
00000020: 7c6c 54be 0cd8 6ebd 4c2d e3bd 8a5c cfbd
00000030: 3126 80be 1127 36be b8db 3a3d 2591 d8bd
00000040: 6efa 4cbe 97fd 43be aaba ecbd e64c 223e
00000050: d8c3 84bd 882c c5bb 51cc d03c c706 173e
00000060: 1ed2 533e 4d1a 92bd 5328 a6bd 04ae c8bd
00000070: 63bf dabd a54c 1abd a2c5 69be 508d 71be
00000080: 76ce 14be 70a6 43bd 9ed9 2b3d d511 81be
00000090: e54f 73be a4a4 31be 57cc e3bd d7bc 5ebd
000000a0: dba0 4abe 6145 b3be 7cbe bcbe a21a 81be
000000b0: 5131 e8bd 9f43 f2bd 83da 5fbe 8dda 63be
000000c0: ae97 3cbe f1bf 38be 52be 683d 6f73 fabb
000000d0: e950 d7bd 8f67 90bd 0975 85bd 0f1b aa3c
000000e0: 34a4 10be ef77 4bbe 5343 6abe 1282 12be
000000f0: 45ab 61bd 8169 fbbd 3e5b 8abe 3a0b 74be
00000100: 7aa1 b5bd 5cb0 b93c 6a6b 89bc fcf8 36bd
00000110: a362 343d 382c 583d a426 51bc 0a9a 103d
00000120: f01a f4bc 1d7d d0bc 3021 2b3d 7839 55be
00000130: 434a 13be 95f5 11be 7dcf 25be 8c62 9abd
00000140: ca1e 9fbe 83c0 9abe 5e75 44be f979 f4bd
00000150: b918 c7bd 4698 99be 6f21 a3be 6512 2cbe
00000160: 9ec3 60be 5132 d1bd dbe5 24be bd23 31be
00000170: c6fb 7ebe 5fa7 c5bd fca5 53bd 09a5 babd
00000180: 688a 24be 8d4a 66be 7767 78be 8ed8 31be
00000190: 822c 263e 947f 1ebd 9711 883d f713 2c3e
000001a0: c043 ff3d 5f3f bc3d cde4 ecbc ca80 c93d
000001b0: 9312 b43d 6027 4abd ad4d f73d ba9e ea3d
000001c0: fb9f c13d 9868 233c d218 8a3d 88cf ca3d
000001d0: 6e5c 09bd 4e7e 0abb 956b 74bd c778 443c
000001e0: d48c 51bd d57c 9cbd c462 973c 9c1c fbbd
000001f0: 266a 36be c416 293e c4d3 6b3e 00be 5b3e
00000200: ec37 ba3d 788a 423d 708e 3b3d 2f98 7b3e
00000210: eac4 d33d 24a2 dcbd 8da8 b2bb 3954 2c3b
00000220: 84b7 20bd 5c0d 393e e1ab 73bd b018 71bd
00000230: 9e05 4b3d 140f 063e d74a a4bd dd65 05be
00000240: 9692 d1bd 1469 933c ff52 64bd ab64 9a3d
00000250: 6248 6cbd 5bd2 3e3d
