Autoencoder-on-MNIST-in-Pytorch/test/first_run/model_e10.pt (torch, 561729 bytes, 11 tensors)

encoder.0.weight f4 [6, 1, 5, 5]
000000 ec 70 65 3d 86 06 c1 bd e8 2e a7 3c 67 60 0d be
       0.056015894 -0.09425072 0.020408109 -0.13806306
000010 fe 63 e2 bb 74 84 fc 3a af eb a3 3d a6 38 09 3d
       -0.0069088927 0.0019265548 0.080039375 0.03350129
000020 b6 28 2c 3e e6 02 42 bc 33 cb 9d 3d ca 54 f4 3d
       0.16812405 -0.011841511 0.07704773 0.11930235
000030 8b 2d f0 bd 86 41 45 3e f8 c0 ac 3e f6 0b 6b 3b
       -0.11727437 0.19263276 0.33740973 0.0035865284
000040 f4 dc 03 3e 6e c9 09 bd 3d a1 00 be 4f 2d 9f 3e
       0.12877256 -0.033639364 -0.12561508 0.31089255
000050 00 f8 a3 bd 57 f4 96 3d d6 2f b7 3d 61 c9 8f 3d
       -0.080062866 0.07370823 0.08944671 0.07020832
000060 99 b9 de 3d 08 ae 8d be 08 34 40 be 88 88 6f be
       0.10875244 -0.27671838 -0.18769848 -0.23391926
000070 cc dd 26 be dc 24 9d bc 35 ab ef be a3 10 14 be
       -0.16295546 -0.019182615 -0.46810308 -0.14459471
000080 24 e2 fd bd ea 3f 6c 3c 5e 23 12 be 63 cc 36 be
       -0.123966485 0.014419535 -0.14271304 -0.17851405
000090 01 97 89 bd 7a 53 5b bd dd 34 9c be 88 31 8d bc
       -0.06718255 -0.053546406 -0.3050908 -0.017235532
0000a0 55 d4 fd bd f3 7d 9c bd 0d 54 55 be 4f 47 a5 be
       -0.12394015 -0.076412104 -0.20832844 -0.32280967
0000b0 c4 b6 83 be 23 6b 09 bc 80 51 a3 3d 49 12 a6 bd
       -0.25725377 -0.00838736 0.07974529 -0.08108956
0000c0 48 6b 61 bd f6 9d d0 3d 13 fb a8 be 83 90 eb bd
       -0.055033952 0.10186379 -0.33004054 -0.11502173
0000d0 f9 86 c6 bd ca 56 60 3e 66 a2 10 3e c1 83 44 be
       -0.09693713 0.21908107 0.1412445 -0.19190885
0000e0 64 ad 49 3e 1b 19 13 3d 7b 05 5c 3e 57 96 93 bd
       0.1969505 0.035912614 0.21486466 -0.072064094
0000f0 1f f9 86 be e0 76 00 3e a6 78 41 3e 35 8c ce 3b
       -0.2636194 0.12545347 0.1889368 0.006303335
000100 2a 55 44 3c eb b8 6f 3c a8 9d 78 3e c5 30 4f 3d
       0.011983195 0.01463149 0.24278891 0.05058362
000110 55 ac ce bc 6f f0 48 3d 71 97 0b 3e 71 f4 47 3d
       -0.025228659 0.04905742 0.13631989 0.048817102
000120 70 3b 5d 3d 9f 9d 0c bd 4a 60 a0 bd 2d 21 f5 bd
       0.054011762 -0.034330007 -0.07830866 -0.119692184
000130 df 49 1d bd 0d a6 9d ba cb 89 08 bd 48 3a 60 be
       -0.038400527 -0.0012027636 -0.033334535 -0.21897233
000140 01 b8 90 3c 57 03 bb 3c ba cc 13 bd 07 28 0e 3d
       0.017665865 0.022828741 -0.036083914 0.03470614
000150 08 c3 f0 bd 25 91 59 bd c9 01 02 3c 2f 01 74 3c
       -0.11755949 -0.053116936 0.007934996 0.01489286
000160 bd ae 8b 3d f7 bd 35 bd 7d 06 a7 3d 02 c7 a1 3c
       0.06820438 -0.044370618 0.081555344 0.019748215
000170 ea 65 0d be bf c9 37 3d 69 65 d6 3d 0a 4d 69 3d
       -0.13808408 0.044870134 0.10468561 0.056958236
000180 5f 30 58 3e 59 5f 36 3e 6a ae 7c 3e b5 12 16 3e
       0.21112202 0.1780981 0.24675909 0.14655574
000190 ac 12 37 3c 1d 3e 6d 3e 76 c0 05 3e 50 15 18 3e
       0.011173885 0.23168226 0.130617 0.1485188
0001a0 92 f8 fb 3c ab f2 85 be df 6c 19 3d 3e d4 8d bd
       0.030758176 -0.26161703 0.037457343 -0.069252476
0001b0 11 6b a8 3d 93 b2 37 bd b6 0e c9 be d8 c5 27 3e
       0.08223546 -0.044848036 -0.39269036 0.16384065
0001c0 ce 2b 25 3e 9e cd 4d bb f4 3a 9d be 3e b2 76 be
       0.16129991 -0.0031403075 -0.3070904 -0.24091431
0001d0 64 14 a6 bc 98 fd b4 3d 74 21 6a 3e f7 a3 f8 bd
       -0.020273395 0.08837432 0.22864324 -0.12140649
0001e0 00 c7 91 be a0 4d 2f bd 89 f2 39 3e 13 8e eb 3d
       -0.28472137 -0.04279864 0.18158926 0.11501708
0001f0 a3 cf 98 3c b8 4f 97 3d 07 30 da 3c bd 93 f5 3d
       0.018653696 0.07388252 0.02663423 0.119910695
000200 ad 7e 82 bd 20 af 3a 3e 69 51 42 bc d4 1c 1c be
       -0.06371818 0.18230867 -0.01186023 -0.15245372
000210 e7 fc 15 be ca 25 bb 3c a9 62 02 3c f4 99 6f 3d
       -0.14647256 0.022845168 0.007958093 0.05849643
000220 73 84 11 3e e9 d2 2c 3e 76 25 b2 3d a7 28 47 3e
       0.14210682 0.16877331 0.08698551 0.19449101
000230 b3 f1 85 3e 54 50 95 3d 86 ea 33 3e ef 3c 16 be
       0.26160964 0.07290712 0.17569932 -0.14671682
000240 95 bb 02 3e e3 07 85 3d 82 b0 56 be cd 21 a9 be
       0.1276687 0.06495645 -0.2096577 -0.330336
000250 67 1a 8c be d4 15 8e be
       -0.27363893 -0.2775103

encoder.0.bias f4 [6]
000000 b7 63 d9 3c bf 0a bb 3e 70 e9 a7 be 65 cb 23 3e
       0.026536806 0.36531636 -0.32795286 0.15995558
000010 9b 99 dd bd 51 47 7f bd
       -0.108203135 -0.062323872

encoder.2.weight f4 [16, 6, 5, 5]
000000 cb 80 e0 bb 3e 65 cb 3d ac 99 6e 3d 73 c3 86 3c
       -0.006851291 0.0993142 0.05825202 0.01645062
000010 fd f6 3b bd 57 e7 8b 3d b9 b3 59 3d 69 ff 87 3d
       -0.045889843 0.06831234 0.053149913 0.066405125
000020 e3 ec 7f bd 1e 93 bd 3d c5 54 8c 3d 63 35 dd 3d
       -0.062481772 0.09256576 0.06852106 0.10801198
000030 89 86 94 3c 42 54 9d 3d d5 22 dd bc 93 d6 09 3d
       0.018130558 0.076820865 -0.026994148 0.0336519
000040 a0 98 9d 3d cb 8c 68 bd 95 b5 76 bd 67 53 ab 3d
       0.076951265 -0.056774896 -0.060231764 0.08365517
000050 9f b1 83 3d e4 1e 49 3d fd 9a 55 3c af a5 52 3d
       0.06430363 0.049101725 0.01303744 0.05142754
000060 94 c6 42 3d 4b 5b 08 ba c3 fa db bd 76 83 0a be
       0.04755266 -0.0005201592 -0.107411884 -0.13526711
000070 1c 0e f5 bd f3 cb 8f bc 9c dd 82 b9 08 5d 12 be
       -0.11965582 -0.017553305 -0.00024960644 -0.14293301
000080 f6 03 22 be 5a 49 9c be e2 86 5c be 4a 2a 89 bd
       -0.15821823 -0.30524713 -0.21535829 -0.06697519
000090 ab 91 ce bd 2f f7 90 bc fa 8a 1e be 48 0b 82 be
       -0.10086378 -0.017695991 -0.15482703 -0.25399232
0000a0 28 81 11 be 4e e0 14 be a7 9f bc 3b 1d e5 b3 bd
       -0.14209425 -0.1453869 0.0057563367 -0.08783934
0000b0 cd 04 aa be 13 17 e4 bd 3d a5 86 be 4f a7 3a be
       -0.33206788 -0.111372136 -0.26297942 -0.18227886
0000c0 84 25 25 be f9 bd 16 be a2 fc 59 3b 62 62 8c bc
       -0.16127592 -0.14720906 0.0033262153 -0.017136756
0000d0 da 34 13 bd 75 13 29 bd c3 0f 5a 3d 9d a6 77 3d
       -0.035939075 -0.04127832 0.053237688 0.06046163
0000e0 39 9c 81 3c fd b5 20 bd a6 f3 73 3d 33 3f c6 3c
       0.015821563 -0.039236058 0.059558533 0.024200058
0000f0 e6 42 42 3d 2f f8 1b 3d 25 09 55 3d ff b9 9b 3c
       0.04742708 0.038078483 0.052010674 0.019009588
000100 f8 70 85 bc e4 0b 0e bd 53 ab 1f bc 46 f1 94 bd
       -0.01628922 -0.03467931 -0.009745437 -0.07272582
000110 c4 89 8a bd 0a 2f 1b be f0 bb 87 3d 6b a7 2a 3d
       -0.06764558 -0.15154663 0.06627643 0.04166357
000120 0b f8 61 3c 31 ef 8f bd 38 6d 4c be d1 8f 5e 3d
       0.013792048 -0.07028044 -0.19963539 0.054336373
000130 0c 30 30 3d 9b 2e 8c 3d e9 3c b1 bb 7a 04 6f 3d
       0.04301457 0.06844827 -0.0054088724 0.05835388
000140 00 31 66 3d e7 33 3e 3d 56 db b3 3d c7 65 55 3c
       0.056199074 0.046436217 0.087820694 0.013024754
000150 f0 48 d1 3d 50 af 4e 3d cd 10 80 bd 14 02 51 bd
       0.1021899 0.05046016 -0.062532045 -0.051027372
000160 6f 48 e6 bc ed b3 07 3b 38 26 27 bc b7 51 02 bc
       -0.02811071 0.002070661 -0.010201983 -0.007954053
000170 90 43 37 3d 14 85 1e bd 12 33 9e bc 11 8a a8 bc
       0.044742167 -0.038701132 -0.019311462 -0.020573648
000180 e0 62 b0 bd f5 c2 1e 3d e2 e2 4a 3c 20 ce 14 3c
       -0.08612609 0.038760144 0.012383195 0.009082347
000190 72 54 ce bc 7e e1 02 3d e0 22 09 bd 25 fa 27 bb
       -0.025186751 0.031953327 -0.033480525 -0.0025631275
0001a0 8f ad e6 3b 08 ed 01 3d a5 53 6f 3d d4 fd 70 3c
       0.0070397328 0.03172019 0.05842938 0.014708955
0001b0 bf 47 d2 bc 90 92 b3 bd 0f c7 4c bd 4c 8a 65 3d
       -0.025668977 -0.08768189 -0.049994525 0.056040093
0001c0 bc b9 0e 3d e7 95 da 3d b3 db 16 be d0 a7 21 bc
       0.0348451 0.10673123 -0.14732246 -0.00986667
0001d0 94 7a a0 3c 4d ce 07 3e 57 0a 00 3d c8 82 86 3c
       0.0195897 0.13262291 0.03125986 0.016419783
0001e0 f3 20 a7 bc b3 7a 5d bd 06 2a 4b 3d 31 6a 8f bc
       -0.020401454 -0.054072093 0.049600624 -0.01750669
0001f0 79 92 02 3d 9c a5 a1 bb 25 35 55 bd bd 67 2d bd
       0.03187797 -0.0049330723 -0.052052636 -0.04233526
000200 97 ce af bc 31 b8 2e 3d 30 30 f0 bd 38 a0 b2 bd
       -0.021460814 0.042656127 -0.11727941 -0.087219656
000210 7f b4 b5 bc 83 48 38 3d 5e c2 f5 3b d7 f5 1e bc
       -0.022180794 0.044991028 0.007499977 -0.0097021675
000220 5e 61 a5 3c 2f ce a2 bd 23 97 e5 3c ed 8e f9 bc
       0.02018803 -0.07949483 0.02802617 -0.03046366
000230 26 eb 8c bb b7 29 c1 3d a8 f6 b7 3d 24 3b d6 3c
       -0.004300493 0.094317846 0.08982593 0.026151247
000240 47 7a af bc 7d 64 c0 3d a8 c5 8f bc b1 d7 90 bd
       -0.021420611 0.093941666 -0.017550305 -0.0707239
000250 82 d9 67 bb e8 e3 29 3c ea dc 2d b2 b0 e3 1f b2
       -0.0035377447 0.0103692785 -1.0120155e-08 -9.306788e-09
000260 4b 91 fd b1 69 d6 e6 b1 af f9 ce b1 c7 56 53 b2
       -7.379787e-09 -6.7182566e-09 -6.023775e-09 -1.2301547e-08
000270 c1 62 32 b2 43 30 01 b2 c7 12 d4 b1 c5 da ab b1
       -1.0383418e-08 -7.519762e-09 -6.172147e-09 -5.0016262e-09
000280 c3 23 34 b2 7e b7 0d b2 68 80 bd b1 55 e2 8c b1
       -1.048551e-08 -8.2490015e-09 -5.515222e-09 -4.1002672e-09
000290 19 10 50 b1 6b f7 f5 b1 25 bd bc b1 70 2c 72 b1
       -3.0277134e-09 -7.1585666e-09 -5.4930234e-09 -3.5240895e-09
0002a0 d9 35 29 b1 10 bb e6 b0 b0 69 a7 b1 5b b9 81 b1
       -2.4623346e-09 -1.6787869e-09 -4.872355e-09 -3.7754666e-09
0002b0 71 74 27 b1 a0 6b df b0 d3 8a 96 b0 96 31 5b b2
       -2.4367888e-09 -1.6255974e-09 -1.0953393e-09 -1.2758752e-08
0002c0 62 f1 1d b2 eb 13 12 b2 61 81 13 b2 54 e9 19 b2
       -9.193487e-09 -8.502847e-09 -8.5859435e-09 -8.958825e-09
0002d0 15 51 ed b1 05 87 ad b1 4c 3d a1 b1 8c 6e a1 b1
       -6.906826e-09 -5.0503126e-09 -4.6926854e-09 -4.6982844e-09
0002e0 24 aa b1 b1 e8 8d a5 b1 a4 09 74 b1 e5 64 63 b1
       -5.1707207e-09 -4.818265e-09 -3.5512153e-09 -3.30902e-09
0002f0 0d 8c 69 b1 e3 b2 8a b1 93 ac b0 b1 61 e2 86 b1
       -3.3985572e-09 -4.0366657e-09 -5.1418936e-09 -3.9256496e-09
000300 be 3a 78 b1 a5 93 83 b1 77 1c a5 b1 1f 18 0a b2
       -3.612214e-09 -3.829387e-09 -4.805368e-09 -8.038142e-09
000310 c7 6a d2 b1 dd a8 ba b1 70 ea c4 b1 6a cf f2 b1
       -6.1239436e-09 -5.43251e-09 -5.7310032e-09 -7.066707e-09
000320 a6 b2 e1 a7 32 b6 25 a8 06 9b 36 a8 03 cf 09 a8
       -6.2643736e-15 -9.198847e-15 -1.0136645e-14 -7.649916e-15
000330 a2 dc 8c a7 b3 df 7e a8 f7 79 93 a8 e7 31 68 a8
       -3.9097016e-15 -1.41483394e-14 -1.6373172e-14 -1.2889408e-14
000340 de 0d 0d a8 fb 69 a0 a7 a6 e3 74 a8 66 34 53 a8
       -7.830079e-15 -4.4523825e-15 -1.3594084e-14 -1.1724215e-14
000350 23 54 04 a8 42 17 98 a7 61 c1 3e a7 8e a1 de a7
       -7.345716e-15 -4.221369e-15 -2.6472628e-15 -6.1792536e-15
000360 16 48 a0 a7 0b 7d 3e a7 0c 1f d8 a6 7f ad 9b a6
       -4.4487077e-15 -2.6435583e-15 -1.4996426e-15 -1.0802312e-15
000370 9f c4 07 a7 12 7f d8 a6 74 dc 8f a6 3e fe 3b a6
       -1.8841602e-15 -1.5022453e-15 -9.982372e-16 -6.522322e-16
000380 3d 8a 1c a6 fb 3a a2 b0 36 e6 92 b0 2d f7 51 b0
       -5.431072e-16 -1.1803815e-09 -1.0688328e-09 -7.6385015e-10
000390 a1 39 16 b0 06 66 d4 af 99 6c 35 b0 b2 9a 1c b0
       -5.465158e-10 -3.8635067e-10 -6.6001743e-10 -5.6972305e-10
0003a0 73 d7 d3 af 6c 76 83 af 51 ab 17 af 67 b6 96 af
       -3.8533762e-10 -2.3912905e-10 -1.3794234e-10 -2.7414446e-10
0003b0 0e 51 84 af c4 f9 31 af c7 2a d1 ae c2 06 64 ae
       -2.4068253e-10 -1.6186791e-10 -9.5118184e-11 -5.18472e-11
0003c0 34 58 f4 ae 88 ce ea ae 73 f7 a7 ae e6 57 4d ae
       -1.11115034e-10 -1.0677775e-10 -7.6382366e-11 -4.6689673e-11
0003d0 09 6d eb ad 44 7c 5c ae 03 93 68 ae 71 25 2a ae
       -2.6764828e-11 -5.013258e-11 -5.2881265e-11 -3.868678e-11
0003e0 1d b6 d2 ad 40 9d 81 ad 67 ed 47 9e d0 75 5b 9d
       -2.395511e-11 -1.4735435e-11 -1.0584066e-20 -2.9045316e-21
0003f0 23 4f b0 9c 95 9a 82 9b 3d fe 24 9a 5c 30 54 9f
       -1.1667159e-21 -2.1606592e-22 -3.4119777e-23 -4.4932748e-20

encoder.2.bias f4 [16]
000000 ac b4 06 3d 6c 52 3e b5 2f 12 cd 3b e7 1c c2 3d
       0.032887146 -7.0900455e-07 0.006258271 0.09478169
000010 f4 ca 91 bd c9 fd db 3d b5 68 29 bd bd 8f a9 bb
       -0.07118788 0.10741765 -0.041359622 -0.0051746056
000020 45 46 64 3e 7c b0 80 3c e2 e5 1f bc f3 f4 d5 bc
       0.2229243 0.015709154 -0.009759398 -0.026117777
000030 eb 32 8c bc d8 b3 1f 3e be 3b 08 3e f3 3d 1d bc
       -0.017114123 0.15595949 0.1330404 -0.009597289

encoder.5.weight f4 [10, 6400]
000000 2d 4f 3b 3a 0b 9f 26 bc 41 c5 f9 bc 40 7c 1a bd
       0.0007145282 -0.010169755 -0.030489566 -0.03771615
000010 b2 0f 78 39 76 75 ff 3c fc 27 7a 3d db 73 52 3d
       0.0002365697 0.03118394 0.06107329 0.05138002
000020 7f 9a 05 3d e3 ab c6 3c d6 9e 00 3c 3b 47 8d 3c
       0.032618042 0.024251884 0.007850369 0.01724588
000030 27 6c 39 3d 00 07 a6 3d bf 10 14 3e 03 15 3f 3e
       0.045269158 0.08106804 0.14459513 0.18660359
000040 43 f2 c1 3d db 89 ef 3c 5c 94 06 3d 93 10 15 3d
       0.09470036 0.02924054 0.03285633 0.03639276
000050 af cb ba bc 9a 05 ba bc 24 55 e6 bc d8 de 0b bd
       -0.022802202 -0.02270775 -0.02811677 -0.034148067
000060 17 29 20 bd 37 c7 72 bd b8 27 9a bd 3b c7 90 bd
       -0.039101686 -0.059272017 -0.07527107 -0.0706925
000070 b0 5e ca bc 06 d9 09 bd c0 de 5e bd 00 0f 91 bc
       -0.024703354 -0.033654235 -0.05441165 -0.017707348
000080 ed eb 42 bc 3b 36 9a 3c 0e c7 75 3d 04 7a c0 3d
       -0.011897069 0.018824687 0.060004286 0.09398273
000090 a6 5c e2 3d 7d 52 c9 3d 0b a3 9b 3d 18 bf 6e 3d
       0.110528275 0.098301865 0.07599457 0.05828771
0000a0 55 41 77 bd 8d 15 3c bd c3 0b c9 bd f2 70 12 be
       -0.06036504 -0.04591899 -0.098166965 -0.14300898
0000b0 d4 ad eb bd 41 4c d1 bd ba 66 fc bd d1 f1 bb bd
       -0.115077645 -0.102196224 -0.12324281 -0.09176982
0000c0 8c bb 37 bd 3f e6 62 bd 84 9d 58 bd 7c 2a 57 bd
       -0.044856593 -0.05539536 -0.052884594 -0.05253075
0000d0 81 7b 34 bd 53 c8 14 bd cd ae f6 bc 1a 28 20 3a
       -0.044063095 -0.036323857 -0.030112648 0.0006109491
0000e0 f6 90 a1 3c 35 80 cc 3c 24 ed 31 3d 5e 81 c2 3b
       0.019722443 0.024963478 0.043439046 0.005935832
0000f0 f2 92 9e bd 95 2d e3 bd 50 96 2c be 51 f1 22 be
       -0.07742871 -0.110926785 -0.16854215 -0.15912367
000100 de b8 cb bd 2d 84 c8 bd e8 67 ab bd cd 6c 95 bd
       -0.0994737 -0.097908355 -0.08369428 -0.07296143
000110 63 ee bf bc 76 d0 b5 bc 69 53 0d bd 04 0d 4c bd
       -0.023429101 -0.022194128 -0.034503374 -0.0498171
000120 38 f4 6e bd 8a f3 3c bd 22 0f 58 bc 71 d6 91 bc
       -0.058338374 -0.046130694 -0.013187202 -0.017802449
000130 a4 bc c1 3c 0f f4 57 bb b8 f7 29 3c 3a 48 c2 bc
       0.023649521 -0.0032951867 0.010374002 -0.023716081
000140 9a 4e c1 bd d4 cb 09 be 09 6c 0d be bd b2 0a be
       -0.0943882 -0.1345666 -0.13810743 -0.13544746
000150 4e 53 9d bd bf df 95 bd fb 18 5d bd 04 70 d8 bc
       -0.07681905 -0.07318067 -0.0539789 -0.0264206
000160 c3 ef 09 bd 22 a2 0a bd 23 83 8e bd e4 ed ab bd
       -0.03367592 -0.03384603 -0.06958606 -0.083949834
000170 27 6b c7 bd e8 fa 8a bd 45 3e 47 bd 38 58 97 ba
       -0.097372346 -0.06786138 -0.04864337 -0.0011546677
000180 52 da db 39 b2 8a 56 3b a1 7b ef 3c 44 34 09 3d
       0.00041933596 0.0032736477 0.029233756 0.03349711
000190 51 d2 83 bd 8b a4 f1 bd 2b 17 07 be e1 b2 da bd
       -0.06436599 -0.11798962 -0.13192432 -0.1067865
0001a0 02 0c 7f bd 41 ea 7c bd df 9e 02 bd 08 39 16 bd
       -0.06226731 -0.06174684 -0.031889793 -0.036675483
0001b0 7c 45 31 bd a2 54 58 bd 0f 0f 9f bd 10 ad d2 bd
       -0.043279156 -0.052815087 -0.07766544 -0.10286915
0001c0 9c bd de bd 58 fc c2 bd f8 3a 6d bd 3c c5 81 bc
       -0.10876009 -0.09520787 -0.057917565 -0.015841119
0001d0 66 2f 86 bc d1 01 49 3c c5 fc 4a bb b7 e6 f3 3c
       -0.016380023 0.0122684995 -0.0030973416 0.0297731
0001e0 8e 67 07 bd e4 60 d8 bd bb dc 04 be 04 9a cf bd
       -0.03305774 -0.105653554 -0.12974827 -0.10136798
0001f0 cd 08 8e bd f5 7e 4e bd 2b 52 60 bd 0b 05 3f bd
       -0.06935272 -0.050414044 -0.05476586 -0.04663567
000200 d8 09 bc bc 24 db 14 bd 00 ce 9c bd a4 f4 10 be
       -0.022953913 -0.0363418 -0.07656479 -0.14155823
000210 34 05 1d be 86 a2 d2 bd e2 86 2a bd 87 88 11 bd
       -0.15334016 -0.10284905 -0.04163254 -0.035530593
000220 3e 59 2f bb cf 7a a8 3c e3 11 82 3b 80 2f fd bc
       -0.0026756073 0.020566372 0.0039694174 -0.030906439
000230 aa 44 05 bd a9 4b b8 bd 37 66 ec bd 62 e8 b0 bd
       -0.032536186 -0.08998806 -0.115429334 -0.086380735
000240 e0 0b 47 bd 26 0c 94 bd 45 b2 9a bd 48 69 81 bd
       -0.04859531 -0.0722888 -0.075535335 -0.06318909
000250 2f a8 b0 bc 37 ad 6b bd 0f da a6 bd 09 d3 ff bd
       -0.021564571 -0.057538237 -0.0814706 -0.12491424
000260 92 44 f7 bd 98 d0 67 bd 1a a7 f1 bc d6 f0 8d bc
       -0.120736256 -0.056595415 -0.029498626 -0.017326754
000270 65 4a ed 3a e5 e0 2b bc 7b 0d 3b bc b9 91 72 bd
       0.0018103836 -0.010490631 -0.011416788 -0.059221003
000280 98 c6 0e bd ea 74 64 bd d7 76 cb bd 2d c7 85 bd
       -0.034857363 -0.05577556 -0.09934776 -0.065321304
000290 56 b4 a9 bd 4e cf 74 bd ab 8f d9 bd da 34 d9 bd
       -0.082863495 -0.059768014 -0.106231056 -0.10605784
0002a0 63 39 8f bd da f1 d7 bd 49 d3 b7 bd a9 1e fa bd
       -0.069933675 -0.105441764 -0.08975846 -0.12212879
0002b0 98 b4 b3 bd de 1d 27 bc 76 73 b7 bc 85 59 4c bc
       -0.0877468 -0.010199992 -0.022393923 -0.012472515
0002c0 e6 14 77 3c d9 89 42 bc ca cc fa bc 4a 34 94 bd
       0.015080666 -0.011873686 -0.03061523 -0.07236536
0002d0 e3 b5 c6 bb 3f 72 01 bd 99 1d 9e bd 14 b1 c7 bd
       -0.006064163 -0.031603094 -0.07720489 -0.09750572
0002e0 a7 46 99 bd e9 3d 71 bd f1 17 ef bd ca 15 1c be
       -0.07484179 -0.058896933 -0.11674488 -0.15242687
0002f0 28 46 08 be 60 b2 04 be 73 02 91 bd d7 a0 ce bd
       -0.13308012 -0.1295867 -0.07080545 -0.100892715
000300 c1 41 8f bd 34 48 1a bd 3d 75 1e bd 56 7d 02 bd
       -0.069949634 -0.037666515 -0.038686026 -0.03185781
000310 4a 41 75 bb a8 7c 0d bd 8c a5 63 bd 3f 58 9b bd
       -0.0037422949 -0.03454271 -0.0555778 -0.07585191
000320 80 ab 44 3d e1 75 1c bd 2a 1d 6a bd a9 3b 8d bd
       0.048015118 -0.038198356 -0.05715672 -0.06896145
000330 d3 47 7d bd 0f 19 84 bd a6 b3 13 be 7d 7a 41 be
       -0.061836075 -0.06450092 -0.14423999 -0.18894382
000340 bc 91 e8 bd bb 3b 1e bd 13 ab 46 bd 59 1c 9d bd
       -0.113559216 -0.038631182 -0.048502993 -0.076714225
000350 c2 b6 74 bd c8 22 75 bd 9f 3d 3d bd 80 20 15 bd
       -0.059744604 -0.059847623 -0.046201345 -0.036407948
000360 9e 2f 40 bc 9a 8f 53 bd f2 59 cd bd 0d b2 8e bd
       -0.011730103 -0.05165062 -0.10026921 -0.06967554
000370 79 b7 e9 3d ee af 38 3d f4 58 00 3c b8 3d d2 bc
       0.11411948 0.045089655 0.007833708 -0.025664195
000380 19 4a 24 bd 7a 0b 48 bd cc b0 e8 bd e1 89 02 be
       -0.040109728 -0.04883907 -0.11361846 -0.12747909
000390 b2 00 c4 bd 5a ed 22 bc 6d e9 84 bd e0 e7 9d bd
       -0.09570445 -0.009944284 -0.06489835 -0.07710242
0003a0 5b dd b7 bd 1a 00 95 bd 55 77 c4 bd 07 5e 83 bd
       -0.08977767 -0.0727541 -0.09593073 -0.06414419
0003b0 7d c6 56 bd ae 91 6d bd 68 6f c4 bd c4 ef 97 bd
       -0.052435387 -0.05800026 -0.095915616 -0.074187785
0003c0 38 db 36 3e 33 67 f1 3d 79 87 69 3d dd 96 3a 3c
       0.17857063 0.11787262 0.057013962 0.011388508
0003d0 09 10 8f bc 1d 42 e8 bc 3c db 8d bd 8a 91 18 be
       -0.0174637 -0.028351838 -0.06926581 -0.14899269
0003e0 24 69 f2 bd 03 a7 94 bd cd 6f c7 bd 2c d6 da bd
       -0.1183646 -0.072584175 -0.09738121 -0.10685381
0003f0 12 11 f3 bd 63 21 c6 bd 95 35 e6 bd e4 cc 02 be
       -0.1186849 -0.09674337 -0.11240689 -0.12773472

encoder.5.bias f4 [10]
000000 9a d8 22 3c 15 36 06 3d ed c7 c8 bb 1a 8a 38 3d
       0.009939337 0.03276642 -0.0061273486 0.04505358
000010 7a c4 27 bd 3b c8 a6 3c 20 35 11 bd 05 6e e1 bc
       -0.04095886 0.02035915 -0.035451055 -0.027518282
000020 61 e9 7d bc cb 7a 9e bd
       -0.015497536 -0.07738265

decoder.0.weight f4 [6400, 10]
000000 08 9f 42 3c 47 bb 87 bb 6b e0 53 3c 36 07 dc ba
       0.011878736 -0.0041421982 0.012931923 -0.0016786817
000010 26 e3 35 3c ab e3 ab bb f5 fa 6a bc d3 e5 9f 3a
       0.01110152 -0.005245646 -0.014342059 0.001219923
000020 44 93 48 bb d6 56 54 3c 5e 13 29 3c a3 c8 8a 3c
       -0.0030605355 0.012960156 0.010319559 0.016941374
000030 22 d8 07 3d c8 68 54 3c 67 bd af 3c 97 99 35 bc
       0.033165105 0.012964435 0.021452619 -0.011083982
000040 23 43 03 bc 6c 7c d7 ba 74 d6 a6 39 f3 39 1c 3c
       -0.008011612 -0.0016440279 0.00031821767 0.009535301
000050 63 18 08 3d cb af 52 bc 24 b5 04 3d b4 be 7a bc
       0.033226382 -0.012859295 0.03239931 -0.015304256
000060 79 7f 4f 3c 6d ae 86 3c 57 ea a8 bc bf 1c fa 3b
       0.012664669 0.016440595 -0.020619554 0.0076328213
000070 c3 fd c7 bb d8 79 ca 3a f6 d3 fd ba a1 0e 11 3a
       -0.006103249 0.0015447689 -0.0019365537 0.0005533491
000080 bd a8 5d 3c 1b a0 96 3c 67 f6 84 3d fb 1a a1 ba
       0.013529 0.018386891 0.0649231 -0.0012291366
000090 a5 82 67 bc 79 e4 c4 3c 2c d0 0d 3d 35 39 46 3d
       -0.014130269 0.024034726 0.034622356 0.0483944
0000a0 1b 4c 41 3d d5 c2 ae bb 7a 8f 71 3d 21 21 19 3c
       0.04719172 -0.0053332844 0.05897472 0.009346277
0000b0 27 72 a6 bc 84 ed b7 3c 8e f3 3f bd d9 44 d4 bc
       -0.020318104 0.022452123 -0.04686313 -0.025911735
0000c0 e1 1e 83 3c 70 b2 da 3c b3 96 28 3d b7 c9 d0 bb
       0.016005935 0.026696414 0.041159343 -0.0063717025
0000d0 01 cc dc 3c 3c eb 56 bc e1 56 50 3c 39 d6 af bb
       0.026952745 -0.013117608 0.012716026 -0.0053661135
0000e0 ed 4e 01 bd 00 13 2b 3d 28 34 13 bc b6 c8 bd 3c
       -0.03156941 0.041766167 -0.008984603 0.023166995
0000f0 8d c6 ec 3c 11 d8 8b 3c bd 0e 8c 3c b8 95 f5 3c
       0.02890327 0.017070802 0.017096872 0.029978618
000100 5d 9b 0c bc 8b 81 54 3d 41 5a cb 3d 6d 80 24 3c
       -0.008581963 0.051881354 0.09929324 0.010040385
000110 0c f5 95 3d 98 61 89 3d 8a 04 7c 3d ed 38 29 ba
       0.073221296 0.06708068 0.061527766 -0.0006455321
000120 d1 6f 65 3b c1 3c 36 bd 68 40 4c 3d 2a 37 2d 3d
       0.0035009275 -0.044491533 0.04986611 0.042288937
000130 08 fc 28 bd f3 8a cd bc 99 1d 35 3d ce 98 9b 3c
       -0.04125598 -0.02509067 0.04421768 0.018993761
000140 a5 f7 93 3d 22 05 c2 3c 41 44 a3 3d 25 fb b5 bd
       0.07224969 0.023684088 0.07972003 -0.08885793
000150 31 2a 9b 3d c5 65 d7 bd 65 8d 18 3d 22 f6 c3 bc
       0.07576407 -0.10517458 0.03724422 -0.023921076
000160 24 e4 ae bd 2f c3 3e 3d 39 c2 1c 3d 5e 1f 3b bd
       -0.08539608 0.04657286 0.038271163 -0.04568421
000170 df bf 8c 3d f4 fe 0a bc e5 e9 38 bc 0f 31 51 bd
       0.06872534 -0.008483637 -0.011286234 -0.051072177
000180 31 bf ba bc 55 ed 85 3c 37 5a 78 3d 01 b3 17 3b
       -0.022796245 0.01634852 0.06063291 0.0023147466
000190 3c ee fb bc e6 0d d0 3d 77 b9 41 3d 0a 7e 2c bd
       -0.030753247 0.10158901 0.047296014 -0.042112388
0001a0 84 3e dc bc 86 31 bc bb 57 44 9a bc 6a 36 00 be
       -0.026885279 -0.0057432083 -0.018831415 -0.12520757
0001b0 32 a0 c3 bd 47 ae a4 3d a9 a1 a5 3d 7e b9 1c 3d
       -0.09552039 0.08041053 0.08087475 0.038262837
0001c0 1d 11 b2 3d 3e 4c 7d 3c 43 8c a1 3b 61 23 a2 3d
       0.0869467 0.015460072 0.0049300506 0.07916904
0001d0 f9 ba 08 3c 7a f4 a7 bd df 68 14 3e d8 6b 37 3d
       0.008345359 -0.08200927 0.1449313 0.044780582
0001e0 79 74 17 bd bf 63 91 bd 17 d6 90 3c 75 e1 c8 3c
       -0.03697631 -0.07099103 0.017680211 0.024521569
0001f0 72 48 43 bd 68 83 aa bc ca 1e 80 bd 93 c1 96 3d
       -0.04767651 -0.020814613 -0.062558725 0.0736114
000200 68 a8 28 3d 8d 51 6d bd 93 cd 20 3d 46 d8 e5 bd
       0.04117623 -0.0579391 0.03925855 -0.112228915
000210 40 82 3a 3d 16 bc 88 bc 9d 1a e2 3d d6 d8 2c bc
       0.045534372 -0.016691249 0.11040232 -0.010549745
000220 fa f1 9a 3c 21 68 8d bd b7 22 07 bd 9a 51 21 3e
       0.018914212 -0.06904627 -0.03299209 0.15753785
000230 0f 27 2a 3d 5b c6 af bd bc bc a5 3d 46 d3 34 3d
       0.041541155 -0.08582755 0.08092639 0.0441468
000240 c6 4a 4b bc 96 c4 c3 bb a9 6d e0 3c e2 28 06 3d
       -0.012407964 -0.0059743626 0.02739604 0.032753833
000250 9e 18 55 3d e4 5a 4a bd 7c 6e 7d 3b 2e 56 a2 3b
       0.05202543 -0.049403086 0.003867059 0.004954121
000260 af 2a 87 3d a1 4c 1b 3c 95 10 e1 bd 0a 0a 27 bd
       0.06599938 0.009478719 -0.10989491 -0.04078106
000270 7a c5 1a bd e5 66 8b bc 25 fa cb bc ed 99 33 3d
       -0.037785985 -0.017016837 -0.024899552 0.043847967
000280 13 62 92 bd 86 f5 37 3c 02 63 a9 3c c1 69 9e bd
       -0.071476124 0.011227971 0.020677093 -0.07735015
000290 25 80 9b bd 3c 06 85 3c 5e b4 a8 bc 44 a2 1a be
       -0.07592801 0.016238324 -0.020593818 -0.15100962
0002a0 39 d2 b2 bd 32 42 14 3e c3 f8 34 bd 74 84 c8 bc
       -0.08731503 0.14478377 -0.04418255 -0.024477221
0002b0 f1 6b a1 3d bd 11 9a bd 72 69 5e bd ad 1e 0b 3c
       0.07881916 -0.075229146 -0.05429978 0.0084912
0002c0 14 87 7a 3c f8 d5 e2 bd 41 d9 a5 3d 80 4e 35 3e
       0.015290994 -0.110759676 0.080980785 0.17705727
0002d0 09 a5 0b 3d 5b f0 be bd 18 da 2e 3c 77 d1 fd 3c
       0.034092937 -0.09323188 0.010672115 0.03098367
0002e0 f4 0b 1c 3d 59 81 21 3c a6 f9 18 3d 38 d3 1b 3d
       0.038097337 0.009857499 0.03734746 0.03804323
0002f0 9e 15 cf 3c ef 47 a2 3d 5f 53 9f bc 1d 69 40 bd
       0.025278863 0.079238765 -0.019448934 -0.046975244
000300 27 42 99 bb 35 c4 fd bc 8e 34 1d bd 72 19 ce bc
       -0.0046770754 -0.030977348 -0.0383802 -0.025158618
000310 0c 13 20 3d b1 ee e6 bb 3d ae 3e 3d 7c 35 5f 3c
       0.039080665 -0.007047497 0.046552885 0.0136235915
000320 05 85 9e 3c 76 80 81 3c 0b 22 f8 3c 3f 67 d5 bc
       0.019350538 0.015808325 0.03028967 -0.026050208
000330 bb 79 97 3c 14 62 89 bc 16 66 3e bc ad 2e 29 3c
       0.018490663 -0.0167704 -0.011621019 0.01032607
000340 a5 9a 9d 3c c7 33 64 bc 86 8d 70 3d 1d 6a ef bc
       0.01923878 -0.01392836 0.058728717 -0.029225403
000350 6b 84 1d ba e3 ad a1 3b 9c 18 48 3c 96 00 39 3c
       -0.00060088065 0.004934059 0.012212899 0.011291644
000360 6d f9 d1 3c a5 6a 25 3d 0e 41 1c 3c 7e 03 cd 3c
       0.02563163 0.040384907 0.009536995 0.02502608
000370 10 f2 eb 3c 10 29 e1 3c ba f6 6f 3c 21 c2 e5 3b
       0.028801948 0.0274854 0.014646227 0.0070116674
000380 50 d4 95 3c ec 31 13 bd 43 3c a2 bc 8b be 3c 3d
       0.018289715 -0.03593628 -0.019804126 0.046080153
000390 b2 09 9f bc a0 d6 16 3d aa 62 07 3d 50 ec 91 bd
       -0.019413803 0.036825776 0.033053078 -0.07125151
0003a0 91 c1 c2 bb 34 d3 47 3d c6 9f 37 bd 84 cc c6 3d
       -0.005943485 0.048785403 -0.044830106 0.09706977
0003b0 7f b3 d2 3a 6d 1c 5b bd dd 58 02 3d d8 f2 1d 3c
       0.0016075223 -0.053493906 0.031823028 0.009640418
0003c0 db 97 86 3d 1e d8 6f bb 98 36 04 bd e6 c6 07 3d
       0.06571933 -0.0036597322 -0.032278627 0.03314867
0003d0 ad 11 8f 3a fb 38 a5 3d 27 ad 8f 3c 58 ac 65 bc
       0.0010915302 0.08067509 0.01753862 -0.014018141
0003e0 8e 17 80 3d 0b 84 d7 3c a2 a5 55 bc 0e c5 4d 3d
       0.06254493 0.02630808 -0.013039978 0.050236754
0003f0 c2 fe d6 3c c4 dc 71 3d 37 df 78 bd 5b 67 d6 39
       0.026244525 0.05904843 -0.06075975 0.00040894267

decoder.0.bias f4 [6400]
000000 e3 26 ac ba 18 fe 29 b8 ad bf 37 3b 62 85 c8 bb
       -0.0013134148 -4.0529383e-05 0.0028037832 -0.006119416
000010 9a f9 81 bc 81 b0 8b bc 70 37 70 bb bc dc 4f bc
       -0.01586609 -0.017051937 -0.0036654137 -0.0126869045
000020 2e d1 ac bb 00 15 82 bc 15 f2 61 3b 6b f0 52 bc
       -0.0052739596 -0.015879154 0.0034476568 -0.012874703
000030 86 a4 27 bb ff 28 fc bb fc eb 1f bc e0 a1 41 bc
       -0.0025580241 -0.007695317 -0.009760853 -0.011818379
000040 af b4 1c 3b 11 8b bf bc f5 22 22 3b c8 b8 15 3b
       0.0023911407 -0.023381742 0.0024740074 0.0022845734
000050 64 2b 0e 3b ec 65 75 bb ae b9 a6 bb 0b cd 7f 3a
       0.0021693343 -0.0037444783 -0.0050880527 0.0009758032
000060 33 4a 19 bc 44 6f 70 ba a2 1c 94 bb b9 cc 4d bc
       -0.009356069 -0.00091718533 -0.004520015 -0.012561017
000070 5f 3c 52 bc 3e 2c da b9 d5 1c 97 bb f1 3c 2e bc
       -0.012831776 -0.00041613163 -0.0046115913 -0.010634647
000080 36 fe fe bb f9 ec 1d bb ed 27 06 bc b2 bc f7 bb
       -0.007781769 -0.0024097546 -0.00818823 -0.007560336
000090 7b b0 19 bc 46 4d 81 bc e5 d3 70 bc a1 68 50 bb
       -0.009380455 -0.015783917 -0.014698957 -0.0031800645
0000a0 58 d9 83 ba a8 d6 45 b8 85 69 32 bc 57 94 04 bc
       -0.001005928 -4.7168374e-05 -0.010889416 -0.008092008
0000b0 99 7d 2c bc 1e c1 1b bc 13 1b 54 bc 96 49 86 bb
       -0.010527992 -0.009506492 -0.012945908 -0.0040981276
0000c0 e3 34 08 bb 12 5c 16 bc 3b db 95 bb 05 1c 12 3c
       -0.0020783476 -0.009177225 -0.0045732534 0.008917813
0000d0 e1 54 17 ba 8b 3e b4 3c 5c f1 1b 3b 2d aa a6 bb
       -0.0005772841 0.022002479 0.0023794984 -0.0050862045
0000e0 34 cf 0d bc ee 0d f4 bb b4 48 03 ba fe a1 98 ba
       -0.008655358 -0.0074479496 -0.0005008087 -0.0011644957
0000f0 b4 02 1d 3b b9 df a8 3b 6d 20 28 3c 9f ae a1 bb
       0.002395791 0.005153623 0.010261637 -0.0049341465
000100 ef 6e 31 bc 0b 47 06 3b 29 42 a2 ba eb 6c 06 ba
       -0.010829671 0.0020489122 -0.0012379336 -0.00051279244
000110 47 78 37 3b 11 b6 50 3b 3e ec c8 3c 75 74 a1 3c
       0.0027995275 0.0031846801 0.024526712 0.019708851
000120 5f bd 2a 3c 1d 6d dd 39 a7 ba 97 bb 01 91 19 3c
       0.010421126 0.000422337 -0.004630405 0.0093729505
000130 ee a1 8c bc 61 8a aa bc 09 14 dc bb 81 f7 8e bc
       -0.017167058 -0.020817937 -0.0067162556 -0.017452003
000140 e4 e3 0d bc 94 25 b1 bb 2e 36 49 3c ba dd 1d bb
       -0.00866029 -0.005406091 0.012280984 -0.0024088458
000150 ea b3 88 3c f4 e5 d7 3b 6b 4a 86 3c 05 65 34 3c
       0.016687352 0.006588692 0.016392907 0.011010413
000160 4e ad 88 bc 3b d3 43 3c 45 46 ea ba fc d5 39 ba
       -0.0166842 0.011952217 -0.0017873725 -0.0007089076
000170 25 a3 16 3b 10 93 d6 3c 82 53 a5 3c 14 e9 76 38
       0.0022985425 0.026193172 0.020181421 5.886804e-05
000180 61 a0 50 bb 28 11 be 39 5a 05 dd bb 2f a3 39 bc
       -0.0031833875 0.00036252406 -0.0067450227 -0.01133041
000190 4e 85 b1 3b 7f 19 14 3b c8 6f 38 3c e3 1b 8b bc
       0.0054175025 0.0022598205 0.0112571195 -0.01698107
0001a0 78 f7 40 3c 12 f6 51 3b 10 88 b2 bb f7 58 39 bc
       0.011777751 0.0032037538 -0.005448349 -0.011312715
0001b0 f9 d5 fd bc da f3 6d bc 7b 83 33 bc a8 5f e9 bb
       -0.03098582 -0.014523471 -0.01095664 -0.007121999
0001c0 3e 95 1c ba 62 80 b0 3b 5b 2a 57 3c 11 99 a0 3c
       -0.00059731666 0.005386398 0.013132657 0.019604238
0001d0 4c 89 a1 bb 51 3b 14 bc bd 06 fd bb 0e c6 70 bc
       -0.004929697 -0.009047345 -0.0077217505 -0.014695657
0001e0 d1 6e 5f ba 52 fa 82 3a d4 8f 24 3b fa 49 6a 3c
       -0.0008523288 0.0009992814 0.0025110142 0.014299864
0001f0 fe 4e 2b 3c 16 c1 32 3c fa bf 24 3c 0d 5b 82 bb
       0.010455845 0.010910293 0.010055536 -0.0039781393
000200 32 e7 a7 bb 53 55 70 3a 5f 6d 38 bc 9f eb 04 bc
       -0.005123996 0.0009167988 -0.011256545 -0.008112817
000210 ae dc 55 bc fe 50 09 3c 46 ab 9a 3c 8e 3f 17 39
       -0.013053102 0.008381126 0.018880498 0.00014424158
000220 51 60 40 bc a7 eb 3b 3b 19 15 91 bb 45 0b 50 bc
       -0.011741714 0.0028674395 -0.004427564 -0.012697999
000230 90 74 2e bb 60 06 8a 3c 85 21 90 3b c7 31 41 3c
       -0.002661977 0.016848743 0.004398527 0.011791653
000240 28 5f bc 3b 1c 3c 88 ba ce 32 ae bc e7 6a 2d bd
       0.005748648 -0.001039389 -0.02126446 -0.04233828
000250 c7 0b 1c bd 49 f9 1a bd ac cc 98 bc 69 78 41 3b
       -0.03809717 -0.037835393 -0.018652283 0.0029521233
000260 1a 75 0c 3b 11 e1 a4 3c 77 29 03 3c f4 b9 37 ba
       0.0021432103 0.020126851 0.008005491 -0.0007008605
000270 ab d8 17 b9 77 cb e7 39 70 c1 b7 bb d0 ca 28 3a
       -0.00014481197 0.00044211347 -0.0056077763 0.0006438913
000280 67 fe ad bb 1a 97 c8 3b 7a 50 9c 3c 06 7c c1 bb
       -0.005309868 0.0061215283 0.019081343 -0.0059046773
000290 84 5a e1 bb 84 26 21 bc 34 8b bb ba 16 a1 86 bc
       -0.0068772454 -0.009835843 -0.0014308454 -0.016434234
0002a0 8e b2 89 bc b1 b7 cb bc 40 fa 91 bc 25 33 81 bc
       -0.016808774 -0.024867864 -0.017819524 -0.015771458
0002b0 6b 81 9d 3a 63 9a 8b bb c5 d0 b3 3b 59 23 38 bc
       0.0012016719 -0.0042603477 0.0054875338 -0.011238896
0002c0 65 e3 02 bd 6f 51 a6 bc be 3a 37 bb f3 a5 b0 ba
       -0.03195514 -0.020302502 -0.0027958597 -0.0013477191
0002d0 23 43 c2 bb 09 29 e0 bb 0a e0 2e ba 38 1c 13 bb
       -0.0059284135 -0.0068408293 -0.00066709577 -0.002244724
0002e0 2a 09 8d bc d6 20 09 bc 1d db a4 bc b5 2d b8 bb
       -0.017216284 -0.008369645 -0.020124013 -0.005620683
0002f0 e6 2a 27 bc a2 d9 18 bb 4f 19 c9 3b 5e b9 68 ba
       -0.010203099 -0.0023323079 0.00613705 -0.00088777195
000300 e0 83 12 3b 8d b0 13 bc 27 98 3b bc c7 67 5b bc
       0.0022356436 -0.009014261 -0.01144985 -0.013391442
000310 b0 3a b6 bc 64 c8 8d bc 59 c0 87 bc 67 11 40 bc
       -0.022244781 -0.017307468 -0.01657121 -0.011722899
000320 a4 c8 51 3b e1 4e e6 3b 9a 13 21 3c 45 ff 84 bc
       0.003201046 0.007028446 0.0098313335 -0.016235003
000330 1a 19 41 bc 6a bc fc bc 8c 48 75 bb 05 5c 15 bd
       -0.01178577 -0.030851562 -0.0037427275 -0.03646471
000340 7a bb 8a bb be 1a 6d bc 6c 8a e5 bb 26 2c c5 bb
       -0.0042337747 -0.014471708 -0.0070050266 -0.006017226
000350 e8 a3 90 bb e5 82 6d 3b b8 58 92 bb 10 31 c3 bc
       -0.0044140704 0.003624135 -0.0044661425 -0.023827106
000360 e1 54 b6 bc 34 93 fc bb 90 89 f4 ba 15 b3 20 bc
       -0.02225727 -0.0077079777 -0.001865672 -0.0098083215
000370 5f 44 c6 bb 48 6a f1 b8 7c 2a d6 bc 06 93 9b bc
       -0.006050631 -0.00011511572 -0.026143305 -0.018991005
000380 f1 49 65 bc b3 46 b1 bc 1c 7a 4d bc 29 63 06 bd
       -0.01399468 -0.021640157 -0.01254132 -0.03280941
000390 cf 40 ab bc 1b ae 50 bc 02 00 56 bc b3 c4 a1 bb
       -0.020904927 -0.0127368225 -0.013061525 -0.0049367785
0003a0 68 ab c4 3b 53 d5 4c bc 3b 08 e8 bb a5 93 31 bc
       0.0060018785 -0.012502032 -0.0070810593 -0.010838424
0003b0 e1 a8 a8 bc 95 06 88 3b 47 0b 9d bc f9 41 95 bb
       -0.02058834 0.0041511753 -0.019170417 -0.0045549837
0003c0 38 90 a7 ba 23 50 b2 bc d6 49 a1 bc 02 a4 64 bc
       -0.0012784069 -0.021766728 -0.019688528 -0.013955118
0003d0 af e5 cf 3b ff 6c a1 bb 7f a3 a2 bc 94 f1 e0 ba
       0.006344519 -0.0049263234 -0.019853352 -0.001716184
0003e0 a5 ae 52 bb 76 78 4e 3b 3b b6 ca bc b4 5e be 3b
       -0.0032147553 0.0031504906 -0.024745097 0.0058096293
0003f0 ee e8 00 3c 2b f9 26 bc 37 46 83 3b c1 2c 9a 3b
       0.007868035 -0.010191242 0.004006173 0.004705042

decoder.3.weight f4 [16, 6, 5, 5]
000000 7d b1 ec 3c 2c e7 4c 3d 4b 49 ab 3d 89 5d 89 3d
       0.028893227 0.05002515 0.08363589 0.067072935
000010 53 b9 3a 3d 44 6e 93 3b eb b6 19 3d af 5b 13 3d
       0.045586895 0.0044992287 0.03752796 0.03597611
000020 fa 71 74 3b 1a 00 9e bc a6 25 89 bc 7e 09 ee 3d
       0.003729938 -0.019287158 -0.016741585 0.11622904
000030 16 91 bb 3d c1 09 ef 3b a3 3e 83 3d 7d 5d 26 3d
       0.09158532 0.007294864 0.064084314 0.0406165
000040 cc 18 c8 3d 04 44 db 3c 32 1b 87 3d 0f ae ea 3c
       0.09770355 0.02676583 0.06596984 0.02864745
000050 6c 26 a9 3d b5 6b ec 3d 68 4e a0 3d d8 12 16 3c
       0.082592815 0.11543981 0.07827455 0.009159766
000060 d3 5e 09 bc 77 73 ae 3d 88 5c 67 3d 47 73 8a bd
       -0.008384424 0.08518117 0.05648473 -0.06760269
000070 4b aa a1 bd df 20 fc bc f3 1a 0d be cd 8a ea 3c
       -0.07893809 -0.030777393 -0.13779812 0.028630638
000080 75 11 12 bb 2a 91 c4 bd 33 51 91 be fe 03 ce 3c
       -0.0022288237 -0.09598 -0.28382263 0.025148388
000090 09 97 fd bc 9d c0 9e bd d6 db 13 be df 72 31 be
       -0.030955808 -0.07751582 -0.1443933 -0.17328976
0000a0 19 67 56 ba 88 7f ca bd 7c dc 76 be 22 c1 4b bd
       -0.0008178815 -0.09887606 -0.24107546 -0.049744733
0000b0 dd fa 2f 3d 0a a6 6e be 3b aa 3c bd 26 9b 45 bd
       0.04296385 -0.23305526 -0.046060782 -0.048243664
0000c0 8a a5 70 bd 58 bc 97 bd cf 27 d3 3d 4a be cd bd
       -0.05875162 -0.074089706 0.10310327 -0.100460604
0000d0 04 60 25 bd 44 0f af bd 65 d5 e3 3c 5f 4e 73 bd
       -0.04037477 -0.085478336 0.027811715 -0.059400912
0000e0 43 d2 40 be 0c 4c 23 be 37 6f e3 bd 79 d7 81 3c
       -0.18830208 -0.15946978 -0.11105197 0.015849816
0000f0 e3 c2 63 be 82 12 07 be a7 83 1f 3d 90 18 9f bd
       -0.22242312 -0.13190654 0.038943913 -0.07768357
000100 b7 ac b6 bd 74 5d c4 be 8c f3 c0 bc 1c 82 60 bd
       -0.089196615 -0.3835255 -0.023553632 -0.054811582
000110 ce 3e 90 3d fd 65 18 3d 70 ef 6d be 30 40 18 be
       0.07043229 0.03720664 -0.2323587 -0.14868236
000120 34 b9 33 3d 0d 44 24 be 6a af b8 3c 51 0e 3e bb
       0.043877795 -0.16041584 0.022544581 -0.0029000232
000130 6f 8a 53 bd 7e 00 2f 3e 0e 91 90 bd a9 18 5a 3a
       -0.051645692 0.17090032 -0.07058917 0.00083197147
000140 d7 1f 41 bd a7 10 ec 3d 60 a9 ff bd 77 39 05 be
       -0.047149505 0.11526614 -0.124834776 -0.13010202
000150 55 69 9e 3c e6 08 4d 3d ee 49 0a bd f2 cf f3 3d
       0.019337336 0.050057314 -0.03376191 0.11904897
000160 1f c4 0a 3d 4b 4d 10 3e 0f 51 83 bd d2 39 6a bd
       0.033878442 0.14091985 -0.06411945 -0.057184048
000170 a9 6c 66 3d 93 da 85 bd d6 86 e2 3b 52 62 13 be
       0.05625597 -0.0653583 0.0069130464 -0.14392975
000180 6d 8c 09 3d 39 13 e4 ba 1c bf a8 3c 40 e7 03 bd
       0.033581186 -0.0017400748 0.02059894 -0.03220296
000190 04 17 05 bd 26 cd c8 bd 1f 8f 94 bc 93 5f 50 3d
       -0.032492653 -0.09804754 -0.018134652 0.050872397
0001a0 ee ed 59 3c b4 c6 16 bd 39 6c 9f bd 8d 54 b1 bc
       0.013301356 -0.03681059 -0.07784314 -0.021646762
0001b0 08 8d 1d 3d 5e d4 3e 3a 85 96 80 bc 33 56 23 bd
       0.038464576 0.000727957 -0.015696773 -0.039877128
0001c0 fc 22 02 3d dd da ee 3d 09 89 d5 3d 13 60 2c 3d
       0.031771645 0.116628386 0.10426528 0.04208381
0001d0 2c 3c 6a 3c 80 3d ae 3d 56 62 88 3d 18 63 b3 3d
       0.014296573 0.08507824 0.06659381 0.08759135
0001e0 1d 28 18 3e ee 0a db 3d 96 c4 e3 3d dc 0f 01 3e
       0.14859052 0.10695444 0.1112148 0.12603706
0001f0 d4 3a d6 3d b7 0f 17 3c 30 a8 14 bd fa 1f 8b bb
       0.10460439 0.009220055 -0.03629321 -0.0042457553
000200 65 42 33 bb 85 33 48 3d 9e 3c a0 bc 85 43 6b bb
       -0.0027352807 0.048877258 -0.019560155 -0.00358984
000210 7a 70 8a bb 97 f1 9e 3d 6a 2b e1 3d 25 bb bc bd
       -0.004224834 0.07760923 0.10994609 -0.092153825
000220 2d 4c 8f 3c 2f 84 27 bd 2a 10 92 3d 8c 99 b8 3d
       0.017492378 -0.040897544 0.07131989 0.09013662
000230 52 a5 01 bd c8 c2 68 3d af 71 3e bc 47 08 43 3d
       -0.031651802 0.056826383 -0.011623784 0.047615316
000240 83 17 39 3d f7 b8 86 3d 9e 7a 27 3d 24 38 47 3c
       0.04518844 0.06578248 0.04088842 0.012159381
000250 42 61 e4 3b 02 9d bf 3c 8e 38 20 3a 61 f7 62 3c
       0.006969602 0.023390297 0.0006111943 0.013852925
000260 50 b5 8f b9 e4 38 13 3d cd b3 54 3c d6 02 f8 3d
       -0.00027410174 0.035942927 0.012982321 0.12109916
000270 0e a1 d1 3d a6 4f 46 3d 72 f0 dc 3c 23 c8 9e 3b
       0.10235797 0.048415802 0.026970122 0.0048456355
000280 3a bb 05 bd 22 ac 11 3d 2c a9 28 3d 2f e7 a0 3c
       -0.032649256 0.03556455 0.04117696 0.019641487
000290 3e ae 1c bd 80 fb 00 3d 61 0d 5e 3d ed b1 57 3c
       -0.038252108 0.03148985 0.054211978 0.013164979
0002a0 64 90 f6 3c 69 85 9e bd 97 65 66 3d af 9c ef 3c
       0.030098148 -0.0774029 0.056249227 0.029249517
0002b0 3b d9 4c bd 43 25 92 bd 20 de c0 bd 5f d0 13 3d
       -0.050011855 -0.07136013 -0.09417367 0.03608739
0002c0 b4 f7 0e be 1c 8d a2 bd 4b 6b 37 3e a8 50 2a be
       -0.13961679 -0.07937071 0.17912023 -0.1663233
0002d0 c2 84 1f bd 19 0c ff bd 8e 2a 35 3e b2 e5 1b bd
       -0.038944967 -0.12453479 0.17692015 -0.03806085
0002e0 28 1c 21 be a6 66 2c bd fa c0 79 be 81 48 07 be
       -0.15733397 -0.04209008 -0.24390021 -0.13211252
0002f0 f7 40 83 be 23 c5 0c bd 5b d0 0b 3c e9 ba 23 bd
       -0.25635502 -0.03436769 0.0085335625 -0.039973173
000300 65 72 11 bd d2 5e ca bc ca b7 90 bd 80 37 d2 3d
       -0.035509486 -0.024703417 -0.07066305 0.10264492
000310 b3 38 be 3d 0f 59 d4 3c 9d 1e 0f be 65 73 b0 3c
       0.09288158 0.025921373 -0.13976522 0.0215394
000320 a5 01 a7 3a e0 c7 de 3c df 7e ca 3d a9 af c9 bd
       0.0012741579 0.027194917 0.0988748 -0.09847958
000330 8e f4 1d bc 5a ad 50 3d 57 f2 ba bd ba 0c 2e be
       -0.009640826 0.05094657 -0.09128254 -0.16997042
000340 f3 91 7a 3b d6 12 51 3c df a4 88 3d 3d 8e a4 bc
       0.0038233965 0.0127608385 0.06672072 -0.020087356
000350 71 cc 57 bd 89 9f 3b 3e bd d1 3a 3e 7d ed 80 be
       -0.052685205 0.18322577 0.18244071 -0.2518119
000360 16 1b 64 bd 54 5c ab 3d e0 71 a4 3b 03 d6 0b 3e
       -0.055689894 0.083672196 0.005018458 0.13655858
000370 fd 40 cc bc da 89 e6 3d 1f 7a fb bb 61 df 26 3e
       -0.024933333 0.11256762 -0.00767447 0.1629615
000380 47 16 21 3d c4 70 a0 bc 5c e5 23 be ef cc bc bd
       0.039327886 -0.01958502 -0.16005462 -0.092187755
000390 6a be 76 3d 58 fc de bd 20 d0 37 be 99 5a 40 be
       0.060240187 -0.108879745 -0.17950487 -0.1878456
0003a0 65 77 8f be 48 d7 9d be 65 cb 45 bd a7 15 e4 be
       -0.28020778 -0.3082831 -0.048289675 -0.4454777
0003b0 07 c1 14 be 23 35 b4 be 20 6e c0 bd a7 a1 1b be
       -0.14526759 -0.3519679 -0.09396005 -0.15198384
0003c0 f6 b7 f7 bd 23 e6 e2 bd 80 cc 65 bd 81 ac c6 3c
       -0.12095635 -0.11079051 -0.05610323 0.024252178
0003d0 79 2c 9a bd f5 1c 4f bd 1b 25 80 3d 98 06 86 3d
       -0.07528014 -0.050564725 0.06257077 0.065442264
0003e0 20 77 41 bd 5c dc 20 3d 04 a4 bb bb b7 da 45 bd
       -0.047232747 0.03927265 -0.0057263393 -0.048304286
0003f0 83 56 98 bd a6 f9 e1 3c 43 26 14 bc 5c 22 b6 bd
       -0.07438376 0.027584862 -0.009042325 -0.08893272

decoder.3.bias f4 [6]
000000 bc ac 87 3e 13 0e 4f 3f ad bf 30 3f b7 da 6b 3f
       0.26498973 0.8088085 0.69042474 0.9213061
000010 a4 de 3f bf 7e 3f 40 bf
       -0.749491 -0.7509688

decoder.5.weight f4 [6, 1, 5, 5]
000000 fc c6 0b 3e be 56 92 bc ca 7d 6a be 5b 04 4e be
       0.13650125 -0.017863628 -0.22899547 -0.20118849
000010 62 89 d0 3d 8c d1 1b 3e 72 0d 10 be 8a d4 c6 be
       0.10182454 0.15216655 -0.14067629 -0.3883403
000020 fa 41 98 be 66 d1 8f 3d cb eb 49 3d 3e 9c 40 be
       -0.29737836 0.070223615 0.049297135 -0.18809602
000030 bc f2 a5 be 52 42 50 be a2 74 f1 3d 67 53 c2 bd
       -0.32411754 -0.20337799 0.11789824 -0.09488564
000040 3d 3a 35 be 18 e3 28 be ff a5 10 bc 6c 7e 2d 3e
       -0.17697997 -0.1649288 -0.008828639 0.16942757
000050 94 7f 7f bd 99 cf 35 bd 3f 30 ed 3c f5 97 e3 3d
       -0.062377527 -0.044387434 0.02895367 0.11112968
000060 f8 50 0c 3e 61 ec f1 bd 8d 96 53 be b8 f3 59 be
       0.13702762 -0.11812664 -0.206629 -0.21284378
000070 12 f7 1a be 77 bc 50 bd c8 d5 60 be 20 3e a2 be
       -0.15133312 -0.050960984 -0.21956551 -0.31688023
000080 d3 09 ab be 88 39 41 be 04 07 b9 bd 67 f3 89 be
       -0.33405933 -0.18869603 -0.09034541 -0.26943514
000090 fe 0d e6 be 63 ad 01 bf f3 c0 93 be da 71 fd bd
       -0.4493255 -0.5065519 -0.28858146 -0.12375231
0000a0 77 36 a2 be cc 75 03 bf 3f 77 ef be f1 9a b7 be
       -0.31682178 -0.5135162 -0.46770665 -0.35860398
0000b0 c6 67 34 be 39 f8 49 be 53 e7 af be cd b3 bb be
       -0.17617711 -0.19723596 -0.34356174 -0.36660615
0000c0 7e 44 8d be 6b fe 12 be ad 18 58 3d c4 85 df bd
       -0.27591318 -0.14354865 0.052757908 -0.10914186
0000d0 d4 0a 60 be 0c 18 e3 bd b0 12 0b 3d c9 ee 6a bd
       -0.2187913 -0.11088571 0.03395337 -0.05735663
0000e0 fc 64 b2 be 83 77 dd be 83 99 96 be b5 d5 5e bd
       -0.3484267 -0.43255243 -0.29413995 -0.054403026
0000f0 1f b0 9e bd 31 46 a5 be a8 6d bd be 5e f6 22 be
       -0.07748436 -0.32280114 -0.36997724 -0.15914294
000100 b7 29 44 3d e0 bd 5f 3d f7 eb 28 bd c1 3b 0c bd
       0.047891345 0.05462444 -0.04124066 -0.034236673
000110 81 d9 f3 3d 81 fe 13 3e 3c 42 f6 3d 30 a4 00 3e
       0.1190672 0.14452554 0.12024352 0.12562633
000120 01 71 13 3e 4c bd 34 3e 51 83 d6 3d 4c 65 1b be
       0.14398576 0.17650336 0.10474265 -0.1517536
000130 ac 34 8c be 52 ca a6 be 5f 99 7c be d5 a4 f6 bd
       -0.27383935 -0.32576233 -0.24667881 -0.12043158
000140 28 f4 71 be f7 18 dd be 89 7a 04 bf b7 0b a8 be
       -0.23628294 -0.4318311 -0.51749474 -0.32821438
000150 af 83 2b be 81 26 6e be 05 7f db be b8 ba f0 be
       -0.16749452 -0.23256876 -0.42870346 -0.47017455
000160 b2 2e 95 be 1c d9 15 be 83 47 3d be 90 d1 b7 be
       -0.29137188 -0.14633602 -0.18484311 -0.3590207
000170 34 71 be be 78 73 a6 be 7c 41 28 be 0a a0 cf bd
       -0.37195742 -0.3250997 -0.1643123 -0.10137947
000180 09 bf 55 be 0c 77 88 be 1a 2c 65 be c0 31 1d be
       -0.20873655 -0.26653326 -0.22380105 -0.1535101
000190 89 91 6d 3d 66 84 9b bb 59 c8 1e 3d 3b 56 e5 3d
       0.05800012 -0.0047460077 0.038765285 0.11198088
0001a0 61 15 b4 3d 23 14 b0 3d f6 d6 61 3d 96 c3 02 3e
       0.0879314 0.08597591 0.055136643 0.12769923
0001b0 9b 45 1f 3e ce 34 e0 3d b7 53 c7 3d 21 07 a8 3d
       0.15553896 0.10947572 0.09732764 0.08204485
0001c0 6e 11 aa 3d 0b 80 d9 3d 2e 76 c2 3d 79 c2 8c 3d
       0.08304106 0.106201254 0.09495197 0.0687303
0001d0 16 b9 1f bd a4 fb 85 bc 68 8d ab bc f4 f6 df ba
       -0.03899487 -0.016355343 -0.020941451 -0.0017087148
0001e0 57 34 58 bd 5b 97 f4 bd 12 63 a6 bd 91 d1 e3 bd
       -0.05278429 -0.11942931 -0.08124365 -0.11123956
0001f0 3c f4 d6 bd e6 e4 ef 3d 6d c1 4a 3e 1f 72 22 3e
       -0.10495803 0.11713581 0.19800349 0.15863846
000200 4e 9d 80 3d d6 ba b1 3c 5d 05 dd 3d 27 0d 60 3e
       0.062800035 0.021695536 0.107920386 0.21880017
000210 d4 3f b6 3d 00 e8 89 bd 35 26 ac bd 12 48 a0 3d
       0.08898893 -0.067337036 -0.08405725 0.07826246
000220 b9 d0 9b 3d 39 13 8e 3d db 9b d3 bd 4f e4 32 be
       0.0760817 0.0693726 -0.103324614 -0.17469905
000230 e0 e0 af 3d 0d 00 e7 3d 68 63 93 bc a4 72 d7 bd
       0.085878134 0.112793066 -0.017991737 -0.10519913
000240 0c 3c 14 be 93 d3 ab 3d f2 3e 34 3d d1 e6 25 3d
       -0.14476031 0.08389964 0.04400534 0.040503327
000250 bf 28 87 bb 09 61 a5 3b
       -0.0041247304 0.005046968
