Autoencoder-on-MNIST-in-Pytorch/test/without_lin/model_e6.pt (torch, 23183 bytes, 7 tensors)

encoder.0.weight f4 [6, 1, 5, 5]
000000 0e 5d 8b bd 73 59 8e 3e 0f 4b c6 3e 53 59 9d 3d
       -0.06804858 0.2780262 0.3872914 0.07683053
000010 a5 c8 53 3d 62 a5 0b bc ca 03 be 3e 72 f8 33 be
       0.05170502 -0.008523317 0.37112266 -0.17575243
000020 01 cd 05 3d 42 6a 27 be 56 81 b8 bd 5f 69 6a 3e
       0.03266621 -0.16349128 -0.09009044 0.22891758
000030 df ee 2a be 55 20 b1 3d 04 04 d4 3e 53 05 86 3d
       -0.16692685 0.08648745 0.41409314 0.06543984
000040 1d 03 1a be d0 f5 ad 3e a9 66 95 be 60 e4 b5 3c
       -0.1504025 0.33976603 -0.29179886 0.022203624
000050 ee f9 f6 3b fe af e8 3d d7 19 90 bd 9a 18 af 3b
       0.007537118 0.11361693 -0.070361786 0.005343509
000060 e8 dc 34 3e 36 81 25 3c 2e 78 d6 bb 32 bb 02 be
       0.17662394 0.010101607 -0.0065450883 -0.12766722
000070 8f ad 24 3d 2a dc fd 3b 49 dc c1 bc 45 ae ef 3e
       0.04020458 0.007747193 -0.02366461 0.46812645
000080 d8 a5 bb 3d 95 17 25 be 3b 22 1c 3d 84 90 c6 3a
       0.091624916 -0.16122277 0.038118582 0.001514927
000090 43 f3 a6 bd e6 fc d7 bb d0 8a 54 3c 3e f1 59 3c
       -0.08151867 -0.006591427 0.012972549 0.0133021455
0000a0 86 e1 17 bc d2 b5 7c 3e 42 87 4e be fb 87 6c 3e
       -0.009270078 0.24678734 -0.20168784 0.23098747
0000b0 66 07 c8 3d 68 60 95 bc cc b9 fa 3b 05 02 82 3e
       0.09767036 -0.018234447 0.0076515432 0.25392166
0000c0 62 ec d8 3e 12 cf 79 bd cd cd bc bb a7 49 8e bc
       0.42367846 -0.060988493 -0.005761838 -0.017369105
0000d0 02 3e ff 3d b1 58 11 be 06 83 6c bd 6a 85 2e 3e
       0.12462999 -0.1419399 -0.05774214 0.17043081
0000e0 3a 4f 8f be 98 38 91 bd 56 f4 4f 3e 48 cb ab 3c
       -0.27990133 -0.070908725 0.2030805 0.020970955
0000f0 ab 87 51 3e 37 12 e8 bd 45 e8 c4 3e 77 ec b0 3d
       0.2046191 -0.11331599 0.38458458 0.08638852
000100 ce 30 2b 3e b7 34 d9 bd f7 6c 2d 3d 9d b1 99 be
       0.16717836 -0.10605758 0.042340245 -0.3001832
000110 47 1b fa bd fe b2 75 3e 9a 6c 26 3e c3 dc f4 3d
       -0.12212234 0.23994061 0.16252366 0.119561695
000120 e8 78 90 3e cd 72 34 be 74 24 b1 3b db 5c c7 3c
       0.28217244 -0.17621918 0.005405957 0.02433627
000130 ba 5c 19 3d f6 05 8e bd 08 f5 cb 3c 4a f1 ef bd
       0.037441947 -0.06934731 0.024897113 -0.11715944
000140 fe 60 98 3d 60 6e 98 3d 96 10 16 3e 22 d4 32 3e
       0.07440375 0.07442927 0.14654765 0.17463735
000150 2b 74 89 3d 8d db 19 bd 3a 36 6c 3e cf 52 3a 3e
       0.067116104 -0.037562896 0.23067561 0.18195651
000160 76 08 f4 3d 44 65 a1 3d 83 58 aa 3d 90 cd 0f 3d
       0.11915676 0.07880643 0.083176635 0.03510815
000170 56 6c 7d 3e aa de bf bd dc 10 87 bc 59 31 19 3c
       0.24748358 -0.09368642 -0.016487531 0.009350144
000180 05 a5 6d be 5f 6a 96 3e ff f5 6a ba 4b 71 f1 3c
       -0.23207481 0.2937803 -0.0008963048 0.029472968
000190 db 13 61 bd 94 d5 a2 3d 04 51 00 3d b2 c0 3c bd
       -0.054950576 0.07950893 0.031327263 -0.046082206
0001a0 6f e1 27 3d b2 5a 42 bd 19 e2 b0 bd 02 0b 36 3e
       0.040986475 -0.047449775 -0.08636875 0.17777637
0001b0 97 51 1a 3e 4f 23 7a 3c 11 0a 11 3e 1e 05 04 3e
       0.15070187 0.015267207 0.14163996 0.12892577
0001c0 5a ed 2a be cd d6 33 bb 81 ed 53 3e 6d 72 a8 bc
       -0.16692105 -0.0027441264 0.2069607 -0.020562375
0001d0 e8 e3 2f be ae 2f bb 3e b3 ff 4d 3e 0d 67 7d be
       -0.17176783 0.36559814 0.20117073 -0.24746342
0001e0 0c 24 c1 3d 2a ea 16 bd 8e 9b 37 3f 75 2f 35 3e
       0.094307035 -0.03684441 0.7172173 0.17693885
0001f0 e3 c0 a8 3d 75 b1 86 3d af 9a 31 3e 2e 56 63 3d
       0.08239915 0.06576816 0.17344163 0.05550211
000200 6e db 2a 3e c6 c3 4b 3d 6f 7b 52 3e 75 59 bf bb
       0.16685268 0.04974725 0.20554899 -0.0058395215
000210 ea cb 72 3e c9 09 f0 3d 16 79 49 3d 54 67 a2 3d
       0.237106 0.11720616 0.049187742 0.079298645
000220 c7 8c 18 be 27 e9 05 bd f6 fc d2 3b 8a 79 02 3e
       -0.14897452 -0.032693055 0.0064388467 0.12741676
000230 40 29 65 3e 3c ff 18 3e 88 6d 5a be fa c5 7f bc
       0.22379017 0.14941114 -0.21330845 -0.015611166
000240 83 8e 2d 3e 3e a4 06 3e fd 0e d5 3c f1 ef 9f 3e
       0.16948895 0.13148591 0.026008124 0.31237748
000250 61 7b ae 3e 60 5d 6c 3d
       0.34078506 0.057706237

encoder.0.bias f4 [6]
000000 3b 30 02 3f 35 13 a2 3e 39 ea 12 3f 9a 9f 12 3e
       0.50854844 0.3165528 0.57388645 0.14318696
000010 e0 91 aa 3e 67 2d 2f bc
       0.3331442 -0.010691977

encoder.2.weight f4 [16, 6, 5, 5]
000000 2e bf ba 39 83 d2 79 bc d9 3d f2 bd a4 2b e8 3c
       0.00035619125 -0.015247944 -0.11828203 0.028341122
000010 eb 0e 3b bd 23 be 77 bc 0c 4b 8a 3d cd 82 a1 3c
       -0.045668524 -0.015121016 0.06752595 0.019715691
000020 b3 23 78 3d bd e2 76 3d 46 95 73 bd 69 d6 97 3d
       0.06058092 0.06027483 -0.05946853 0.07413942
000030 70 c4 94 3d 66 c2 80 3b a7 5d 87 3c 9b 0b 9a 3c
       0.0726403 0.003929424 0.01652415 0.018804362
000040 77 3e fb 3b ab 4d 04 3d 22 66 48 3d 33 c9 af bc
       0.0076673585 0.032300632 0.048925526 -0.021458244
000050 c4 f0 eb bd b1 fe e6 3c d9 b9 c3 3d 66 17 89 bd
       -0.11520532 0.028197618 0.09556932 -0.06693916
000060 79 92 76 3d b0 01 25 3d af 44 07 bd e6 40 69 3c
       0.06019828 0.040284812 -0.033024486 0.014236664
000070 58 63 18 3c 51 ce e3 bc 78 75 05 3d 2b 68 23 bc
       0.009301029 -0.02780834 0.03258273 -0.009973566
000080 ff fa c0 bc d1 7a 77 3d 70 7d 1f bd 77 6a 2c bd
       -0.023557184 0.06041986 -0.038937986 -0.04209372
000090 b0 6f 9c bd c8 64 a7 bd 92 52 27 3d 59 f8 fc 3d
       -0.0763849 -0.081735194 0.04085023 0.12352056
0000a0 4d a9 e6 bc 86 6c 75 3c 5c 85 0d bc f7 ec b3 bc
       -0.0281569 0.014979487 -0.008637752 -0.02196358
0000b0 a6 2c 04 3d aa 11 c4 3c 93 e8 a0 3c e5 28 85 3d
       0.032269143 0.023934204 0.01964215 0.06501941
0000c0 6b 75 6f 3d 3a ba c5 bc ed 8b b3 3d 97 b1 6e 3d
       0.058461588 -0.024136651 0.08766923 0.05827483
0000d0 d5 c7 52 bd fd 11 c1 bd 7f 1f 75 3d c5 b7 8c 3d
       -0.051460106 -0.09427259 0.05984449 0.06870989
0000e0 5a 70 b4 3d ce 19 a4 3d 38 3a fd bc 65 b6 27 3b
       0.08810492 0.08012734 -0.03091155 0.0025590893
0000f0 65 5d 1a bd e7 01 aa bc a7 37 28 bb ac 17 a9 3b
       -0.037686724 -0.02075286 -0.0025667937 0.0051602926
000100 b8 ef 88 bb 4d cf 21 bc a0 ce 31 bb 04 b3 88 bd
       -0.0041789673 -0.0098760845 -0.0027131215 -0.066747695
000110 0a c3 7a 3d b0 3c 26 3d 88 8e 0f bd 3d f5 a7 3d
       0.06122116 0.04058522 -0.035048038 0.08201072
000120 e9 70 e8 3c 23 9c 9b 3d dc 87 19 bd d4 16 39 bc
       0.028374152 0.0759814 -0.03748308 -0.011296947
000130 8f 48 c0 bb cc 8b 82 3d d3 8f 8e 3d 93 a1 5f 3c
       -0.0058680247 0.063743204 0.06961026 0.013649362
000140 72 0e 04 bd cd 7a dd 3d 73 41 96 3d 75 ec b4 3d
       -0.03224034 0.10814438 0.07336702 0.08834163
000150 e3 0a 87 bc 83 f9 51 bd 4a 99 c6 3b 98 85 49 bc
       -0.016484683 -0.051263344 0.006060754 -0.012299918
000160 b1 ce bd 3c 0d e0 bf bd 03 34 0a 3c ab 46 f7 bb
       0.023169847 -0.09368906 0.008435252 -0.007546266
000170 b8 0f 8e bd f5 44 ac ba c2 dd 87 bd 24 0f 59 3b
       -0.06936592 -0.0013143109 -0.06634094 0.0033120597
000180 b2 a9 c5 bb d1 23 77 bd f2 88 15 3d a8 1e 4e 3c
       -0.006032192 -0.06033689 0.036507554 0.012580551
000190 ff ec 53 bb 30 cd a7 3c da b6 39 3d 0e 89 a9 bc
       -0.0032337306 0.020483583 0.045340396 -0.020695236
0001a0 44 33 0c 3c 82 6a 0e 3e fe 9c c9 3d 15 50 4c bc
       0.008557145 0.13907817 0.09844397 -0.012470265
0001b0 bf 39 b1 bd 8b 96 c1 bd d6 fc a6 bc 5b 61 d1 bc
       -0.08653592 -0.09452542 -0.020384233 -0.025559118
0001c0 45 3e 9d bd b3 ee dc 3c 2a 79 12 be 2f 5d 5c 3d
       -0.076778926 0.02696929 -0.14304033 0.053799804
0001d0 18 1c 3f bd 32 a1 8c bc 93 63 f5 3c 8a 46 e0 3c
       -0.04665765 -0.017166708 0.029954707 0.027377386
0001e0 f4 da 0f bd c0 aa 1d 3d 76 aa 2d 3d 20 ac 40 3d
       -0.03512092 0.038492918 0.042398892 0.04703915
0001f0 0a b8 4f 3c b4 c3 25 3c 26 b9 fd 3b 85 40 b6 bd
       0.012678156 0.01011746 0.0077430187 -0.08899025
000200 91 6f cd bd b1 ae 92 3d 39 f6 bd bc e7 e2 a9 3c
       -0.10031045 0.07162226 -0.023188697 0.020738078
000210 b7 de 6d 3c da 34 a8 bd 6d 35 e1 bc 94 16 7b bd
       0.014518431 -0.08213206 -0.027491296 -0.06130083
000220 28 43 90 bc b4 36 2b bd 33 0a f0 3c e3 e9 b9 bc
       -0.017610148 -0.041800216 0.029301738 -0.022694534
000230 2c 3f 9b bd 2b 46 3c bb b3 58 80 bc f0 bd 86 bc
       -0.075804085 -0.0028728347 -0.015667295 -0.016447991
000240 a5 a6 c4 bd 6e fe 05 3d 44 7d 46 3d 59 9e d0 bc
       -0.096020974 0.032713346 0.048459306 -0.025466131
000250 aa c6 fe bc b4 20 d2 bd 7a 2a 43 bd 66 ac 56 3d
       -0.03110059 -0.10260144 -0.04764793 0.052410506
000260 6e a4 b5 3d 28 60 0c 3a 0c de c6 3d 97 7f bb 3d
       0.08869253 0.00053549046 0.09710321 0.09155195
000270 42 82 f6 3d 4b 67 a4 3c 77 7d 39 bd d4 39 7d bd
       0.120365635 0.020068785 -0.04528567 -0.061822727
000280 18 63 6a bb 01 74 26 3d 7e 2e 96 bc 8b 2d d4 3c
       -0.003576463 0.040637974 -0.018332716 0.025900623
000290 a8 95 39 bc 67 a4 e4 bc 4e 8a cb bd e3 63 05 3e
       -0.011327185 -0.027910424 -0.09938489 0.13026385
0002a0 ef 03 db 3b 49 89 08 3e 68 7a ea bc 02 4a 3e bd
       0.0066838185 0.1333362 -0.028622821 -0.046457298
0002b0 00 2e 16 bd fb 2c 8d 3d 0b 68 a9 bd cf 98 7e 3d
       -0.036664963 0.06893345 -0.08271798 0.06215745
0002c0 0f cd 07 3d 0d 83 12 3d c2 51 2a 3c 0e e6 43 bd
       0.033154543 0.03576951 0.010395469 -0.04782682
0002d0 ed 11 04 bd c8 60 f0 3c 41 1a ed 3d 40 6b c0 bd
       -0.032243658 0.029343024 0.11577273 -0.09395456
0002e0 bc 08 bc 3d 0c 2c 8f bc ed 95 a5 bd bb 00 3b 3c
       0.091813534 -0.017477058 -0.08085237 0.011413748
0002f0 54 d7 6c 3a f4 67 1a 3e af f0 96 3c 87 a1 96 3d
       0.0009034772 0.15078717 0.018425314 0.07355028
000300 b2 97 45 bd 23 91 56 bd c7 d6 a5 bd 98 77 58 3c
       -0.04824037 -0.052384507 -0.08097606 0.013212107
000310 cb 7c e8 bc 40 36 81 3c 6c ab 0c 3d 94 b8 2b 3d
       -0.028379818 0.015772939 0.03434317 0.041924074
000320 9e c4 05 bc a6 ba 44 bc be c6 2f bd 2c 8f c6 bb
       -0.008164553 -0.012007391 -0.042914145 -0.006059548
000330 90 e0 60 bd 40 54 95 bd 59 8c ca bd 0c d8 78 3d
       -0.05490166 -0.0729146 -0.098900504 0.060752913
000340 33 be e5 3d 68 e4 46 3d dd 92 47 3d ea 39 06 3e
       0.11217918 0.04855767 0.048724044 0.1310803
000350 74 0c e6 bc 04 5b ab 3d 50 5b 4c bd 80 5a 3c bd
       -0.02808211 0.08366969 -0.04989177 -0.045984745
000360 0a 81 8f bc 80 2a 85 3c 6d e8 f1 3d 3b b4 60 bd
       -0.017517585 0.016255617 0.1181191 -0.05485938
000370 5f d7 4d 3d 30 0d 1e 3c 45 5c 2b 3d de 8a 04 3e
       0.050254222 0.009646699 0.041836042 0.12943599
000380 72 7f e4 3d 41 04 27 3d 19 5b ae 3c 66 92 b1 bd
       0.11157121 0.04077554 0.021283673 -0.086705014
000390 e2 fa b4 bc ea 01 13 3c 84 00 59 bd c6 1c 64 3d
       -0.022092286 0.008972624 -0.052979007 0.055691503
0003a0 04 87 0a 3b 5e f7 1a 3d ec 54 42 bc 0b 69 25 bd
       0.0021137604 0.037833564 -0.011861067 -0.04038338
0003b0 e0 1f f4 bb ae d2 72 3d 4f 06 69 bd 41 cf 9b 3c
       -0.007450089 0.05928295 -0.056890782 0.019019725
0003c0 fb 15 c9 bc 08 d6 01 bd ad ef 08 bd 84 79 da bd
       -0.024546614 -0.031698257 -0.033431698 -0.106677085
0003d0 ff 5b f3 bc 6a 90 2e 3d b1 30 2f 3d 9b c1 a1 3d
       -0.029706953 0.042618193 0.042771045 0.078982554
0003e0 07 3c d1 bd 06 b3 1f bd 5e c8 e7 bc ef bc 70 3d
       -0.102165274 -0.03898909 -0.028293785 0.05877393
0003f0 52 a7 c3 bd 53 5b 94 3d 08 c5 0f bd 4a 6e 2c 3b
       -0.09553398 0.07243981 -0.035100013 0.0026310855

encoder.2.bias f4 [16]
000000 94 e8 a1 3e a3 b1 13 3e 29 ce 8b 3d 91 19 67 3c
       0.31622756 0.14423232 0.06826431 0.014105217
000010 1b 35 59 3d ec d3 bf bb bb fd e6 3d 87 d7 bd bd
       0.05302916 -0.0058541205 0.11278864 -0.09269624
000020 46 cb 8b 3e bd f8 56 bb b8 84 bd be 8c 73 31 3d
       0.27303523 -0.0032802068 -0.3701532 0.043323085
000030 ae 73 a1 be 87 be 85 3d 59 b3 e7 3c 2c 6b 57 3d
       -0.3153357 0.06530481 0.028283762 0.05259244

decoder.0.weight f4 [16, 6, 5, 5]
000000 c3 4e d0 3c eb 4c 74 3d ad 4f 8d 3d f9 20 94 bd
       0.025428182 0.059643667 0.068999626 -0.072328515
000010 91 13 b2 bd dc 59 c1 ba 9d 0d 0d 3a 0c c1 17 3c
       -0.08695138 -0.0014751512 0.00053807517 0.009262335
000020 d8 58 76 bc 33 49 88 bd 2f a3 ee 3c ab 1f ab bd
       -0.01503583 -0.06654587 0.029130546 -0.083556496
000030 89 ce 07 bd 6d 6b 0d 3c 08 76 97 bc a7 d4 fc bc
       -0.03315595 0.008631569 -0.018488899 -0.03086312
000040 10 58 2f bd c3 d5 04 3d c4 85 db bc 7f bc 34 3c
       -0.042808592 0.03243042 -0.026797183 0.011031269
000050 6d e1 e9 3c 16 23 9b bc de 94 d3 3c 78 a6 c0 3d
       0.028549874 -0.018937629 0.025827821 0.094067514
000060 55 4e 11 bd eb a9 59 3c 1c 80 d2 3c 1e 1e a1 3d
       -0.035475094 0.0132851405 0.025695853 0.078670725
000070 15 ec e8 bd d3 31 4f bd b8 3f c7 3c a1 c1 90 3d
       -0.11373154 -0.050584625 0.024322376 0.07068182
000080 6e 21 88 3d 79 12 df 3c 9c e8 e6 bc de 57 47 bd
       0.06647001 0.027230488 -0.028187089 -0.04866778
000090 f0 51 39 bc ac 70 5d bd 17 87 c3 3b 6b eb d8 bd
       -0.011311039 -0.05406253 0.0059670317 -0.105917774
0000a0 6c fb 0f bc 58 6c 08 3d 2b 6b 13 3d 72 b7 bc ba
       -0.008787971 0.03330645 0.035990875 -0.0014397933
0000b0 e3 7e de bc 89 78 88 bd 59 5f b5 3c 69 4f eb bc
       -0.027160114 -0.06663615 0.022140192 -0.02872439
0000c0 be 52 35 3c 8c 50 d1 bc f4 2d 3d 3d fe d6 22 3d
       0.011067091 -0.025551103 0.046186402 0.039755814
0000d0 2c 9b 00 bd e7 5f 4f 3d 5c 7b c6 3c b0 92 f8 bb
       -0.031397983 0.05062857 0.024228744 -0.007585846
0000e0 63 62 ba 3c db 07 9c 3d e9 2d aa 3d d9 1c c0 3b
       0.022751993 0.07618686 0.08309538 0.005862814
0000f0 57 75 99 bc a4 87 fa ba f0 69 7c 3c 9d 91 f5 3c
       -0.01873271 -0.001911391 0.015406117 0.02997666
000100 d9 f9 5e 3d b4 60 4a bb bd 08 52 3b 3e f5 2e 3d
       0.054437492 -0.0030880393 0.0032048665 0.04271435
000110 b4 f6 d8 3b f3 24 38 bd 12 52 08 3d 0f b5 37 bd
       0.006621206 -0.044957113 0.033281393 -0.044850405
000120 df 78 2c 3d cb c1 48 bd 29 41 4f bd 22 01 13 bd
       0.04210746 -0.04901294 -0.05059925 -0.035889752
000130 b8 b9 97 bc 78 d3 e8 bc af 98 53 bc 6e 41 06 3d
       -0.018521175 -0.028421149 -0.012914821 0.032777242
000140 7f a5 f9 3a fa b0 d6 3d c1 1c f4 3d c9 69 93 bd
       0.0019046514 0.10482974 0.11919547 -0.07197911
000150 47 59 59 bc 08 33 d8 3c b0 08 4f 3c f1 64 25 3e
       -0.013265914 0.026391521 0.012636349 0.16151787
000160 6a 45 df 3c 99 c7 87 bd 68 7a 25 3d b2 f0 01 bd
       0.027254779 -0.06629867 0.04039994 -0.031723686
000170 af 07 b4 3d ef cf b6 3d 59 99 fb bb 82 ac fd 3c
       0.08790528 0.08926379 -0.0076781926 0.030966047
000180 77 90 ad 3c f7 a7 5d 3d 48 b1 79 bc ce 13 02 bb
       0.02118705 0.054115262 -0.015240021 -0.001984823
000190 df b4 e7 bc 04 04 90 3d 45 3f c9 3d 5e 23 05 3d
       -0.028284488 0.07032016 0.09826521 0.032504432
0001a0 0f 76 3e 3d f2 2a 05 bc 28 e0 39 bd 93 d7 c1 bc
       0.04649931 -0.008127915 -0.045379788 -0.023662364
0001b0 95 39 8e 3d 93 2b f1 3d 18 5f 04 3d 34 02 7c 3d
       0.06944577 0.11775889 0.03231725 0.06152554
0001c0 db 22 0e bd 28 b9 9d 3d 1b 7d 8b 3d 2a 75 9f 3d
       -0.03470121 0.077013314 0.06810971 0.07786019
0001d0 47 06 fa 3c 64 a5 21 3d 9a c0 04 bc 2c b3 c0 bc
       0.030520571 0.03946437 -0.00810256 -0.023522936
0001e0 9b 12 5f 3c 28 4e 4c bd 84 c7 ca 3c 10 42 ab bc
       0.013615276 -0.049879223 0.02475334 -0.020905524
0001f0 e1 1d 4d 3d b9 0e a9 bc ef af c7 3d 94 53 26 3c
       0.050077323 -0.020636903 0.097503535 0.0101517625
000200 94 ce 5f 3d ef 4c cc bc 89 85 c6 3c fb 7a 98 3d
       0.054640368 -0.024939029 0.024233596 0.07445332
000210 16 a4 af 3d 4e a2 39 3c fb eb 82 bd 6e ec aa 3d
       0.08576219 0.0113302 -0.06392666 0.08345877
000220 72 63 ee 3b 43 08 1c bd 61 70 5c bc f9 1e 68 bd
       0.0072750384 -0.038093816 -0.013454528 -0.056670163
000230 2b f9 67 3d c1 ae 0d bd 6d 68 c9 bd 85 c8 f3 bc
       0.05663411 -0.034590486 -0.09834371 -0.029758701
000240 29 10 5b 3d 7b 67 1a bd ff 45 3f bd c9 4d 33 3d
       0.05348221 -0.037696343 -0.046697613 0.043775354
000250 3b 9e 06 3c 61 be bf 3d 17 c7 5d 3d 27 4b 95 bc
       0.008216436 0.09362484 0.054144945 -0.018224312
000260 ca bf c7 bb 98 76 6e 3d d8 ab 70 bd 70 30 91 bb
       -0.006095861 0.05821857 -0.058757633 -0.004430823
000270 97 cc e3 3c 0a c5 a2 3d de 26 1b bc b8 fe d8 3c
       0.027807517 0.079477385 -0.009469716 0.026488647
000280 bc 0a 47 3d 3b 9a 5d bd 61 db 40 bc 74 4a 11 bd
       0.04859422 -0.054102164 -0.011771054 -0.035471395
000290 24 8f c3 3d 2c c4 0f 3d 0f ee f7 3d 31 00 c0 bd
       0.09548786 0.035099193 0.12105953 -0.093750365
0002a0 83 75 08 bd 57 91 58 b9 05 92 b5 3d 31 b9 be 3d
       -0.033315193 -0.00020653509 0.08865742 0.09312666
0002b0 71 d2 0e bd 2f 0d 8a bd ac 33 af 3d 7e d1 31 3c
       -0.03486866 -0.06740796 0.085547775 0.0108531695
0002c0 d8 7c 87 3d c2 5b 81 bc 43 07 08 3d b8 74 88 bd
       0.06615609 -0.015790824 0.03321005 -0.06662887
0002d0 8e 77 c0 3c d7 5a bc 3c 91 60 92 bc f7 53 94 3d
       0.023494508 0.022992535 -0.017868312 0.072425775
0002e0 4c 42 b0 3d 5c 4b 11 3d b2 68 f9 bc 43 f2 eb bc
       0.08606395 0.03547226 -0.03044543 -0.028802043
0002f0 b9 1f 11 bd 9f 96 9d bc 1f ee 16 bd eb 4f 73 3c
       -0.035430644 -0.01923686 -0.036848184 0.014850597
000300 16 2f 91 bd 1e 26 57 3d 5b 99 4f bc 7b f9 b0 3d
       -0.07089059 0.052526586 -0.01267084 0.086413346
000310 52 f0 68 bb d9 18 06 3d f1 de 1e 3d 75 2d c3 3d
       -0.0035543633 0.03273854 0.038786832 0.095301546
000320 38 64 b6 3d f0 04 af 39 9e 85 ae 3d 24 8e d3 bd
       0.08905834 0.0003338228 0.08521579 -0.103298455
000330 db 24 73 bd 54 47 7c bd a4 ed cf 3c bb f3 2e 3d
       -0.05936132 -0.06159146 0.02538187 0.04271291
000340 e6 e2 02 3c cc 83 5d 3a 63 29 03 3e 45 b2 70 3c
       0.007988667 0.000845012 0.12808757 0.01469094
000350 aa 68 11 3d 4c 0c 31 3d 25 bc dc 3b 4c d8 eb bc
       0.035500206 0.043224618 0.0067362958 -0.028789662
000360 72 2b 42 bd df 38 a1 3d 1c c2 0b 3d 75 fb 0a be
       -0.047404714 0.078721754 0.034120664 -0.13572486
000370 b3 ab 49 3c e9 29 09 3b 0a e9 14 3d ee f5 79 3d
       0.012309003 0.0020929521 0.036355056 0.061025552
000380 bb 16 06 3e 02 17 26 3a 3b 64 0e bd a1 72 ab 3d
       0.13094608 0.0006335826 -0.034763556 0.08371473
000390 e7 03 26 3c fd 12 30 3d df 08 35 3e e6 18 34 bc
       0.010132766 0.04298686 0.17679165 -0.010992264
0003a0 4d c7 6e 3c 7d 27 68 bd da ec 25 bd 51 19 83 3d
       0.014573884 -0.056678284 -0.040509082 0.06401313
0003b0 20 30 38 3b 1b af 8a 3c c3 e5 94 3c 17 fb 96 ba
       0.0028104857 0.0169292 0.018175965 -0.0011518922
0003c0 c0 ad 32 3d 7b 2a 82 3d d1 a1 27 bb a0 84 08 bc
       0.043622732 0.06355759 -0.0025578628 -0.0083324015
0003d0 ab 1b 49 3c cc 01 e9 3b 47 fb 7c 3d 98 3e 62 bd
       0.012274663 0.00711081 0.061763074 -0.055235475
0003e0 4b 0f 32 3d aa d8 04 bd e7 59 d2 bc 49 cd 04 bb
       0.043471616 -0.03243319 -0.025677634 -0.002026396
0003f0 de b5 a0 bc 67 f1 c6 3c 6d 97 49 3d 45 41 31 bd
       -0.019617971 0.024285031 0.049216677 -0.043275137

decoder.0.bias f4 [6]
000000 67 52 2f 3e 31 20 ed 3d e5 2c c7 3d 23 a3 05 3d
       0.17121278 0.11578406 0.0972536 0.032626282
000010 ef d4 e5 bc 5e 1d 88 3d
       -0.028055636 0.06646226

decoder.2.weight f4 [6, 1, 5, 5]
000000 68 70 9b 3d 90 ca 40 be fa f1 9f bc e2 8d 86 3d
       0.07589799 -0.18827271 -0.019524563 0.06570031
000010 84 33 0b be b2 ba d9 3c bb d1 e9 bc f8 5b ee 3d
       -0.1359387 0.026578281 -0.02854239 0.116386354
000020 d4 80 5e be 31 c8 e1 bd c7 6a 0c 3d 06 e3 30 be
       -0.21728832 -0.110245116 0.03428152 -0.17274103
000030 a7 b6 e5 3d 97 3d 8a 3e ac 0f 6a bb 91 9b 0a bd
       0.11216479 0.27000114 -0.0035714908 -0.033839766
000040 e0 f1 21 3e d7 f3 fd bd 3d ce c8 3e 99 3a 4b bc
       0.15814924 -0.124000244 0.39219847 -0.0124041075
000050 be ec a3 3c 07 7d 6f be 3b 8b 8f 3e a5 07 ba 3e
       0.020010348 -0.23387538 0.28035912 0.36333957
000060 a6 20 9f bc 90 1c 2d be d6 24 64 bd 28 41 07 3e
       -0.019424748 -0.16905427 -0.055699192 0.13208449
000070 9e 31 41 3e da bd 62 bd 39 00 df bc 7f 00 3c be
       0.18866584 -0.055356838 -0.027221786 -0.18359564
000080 58 2a 5f 3e eb b5 b9 bd 6f 6a 96 bd 6f a2 18 3e
       0.21793497 -0.09067901 -0.07344519 0.14905713
000090 31 a6 3a 3c a9 63 93 3e d8 56 64 3e e6 68 4f 3e
       0.011392162 0.28786972 0.22298753 0.2025486
0000a0 bb c9 25 be 0c af 0f be 48 ba 20 be ae b6 26 3e
       -0.16190235 -0.14031619 -0.1569606 0.16280624
0000b0 77 0c 49 3d 23 ea 63 3d 78 1b 89 3d 0f b2 52 3e
       0.049084153 0.055643212 0.066946924 0.20575736
0000c0 d0 b8 3c bd 7e 5a 51 3e f4 60 bd bc a2 05 04 3e
       -0.04607469 0.20444676 -0.02311752 0.12892774
0000d0 3b 7f d4 bb cd e3 19 3d de 46 15 be 06 18 39 3e
       -0.0064848936 0.037570763 -0.14577815 0.1807557
0000e0 c3 c1 93 3e 8d 57 69 bd 82 2f 0b 3e 47 dc f1 3d
       0.28858766 -0.05696826 0.13592342 0.11809593
0000f0 11 9e 05 3e 81 23 3e 3d 6f 4f 66 3d e1 e7 3c 3e
       0.13048579 0.046420578 0.056228098 0.1844783
000100 78 0e 47 be f0 9a 49 3d d9 da 77 3d 9f f0 8f be
       -0.19439113 0.049220026 0.060511444 -0.28113267
000110 0f 63 87 be 2e d6 4c 3e 95 1f 10 3e 2d 59 9f 3e
       -0.26442763 0.20003578 0.14074548 0.31122723
000120 af 84 b0 bc 2b ff 83 3d 51 8c 22 be f7 ff 75 bd
       -0.021547643 0.06445154 -0.15873839 -0.06005856
000130 e0 e0 aa bd 8f 33 df 3e 6d c9 61 3e 77 e2 c2 bd
       -0.08343673 0.43594024 0.22049494 -0.09515851
000140 c5 cb fd 3c 92 b1 16 be bc a6 5a 3e 83 8b 3d 3e
       0.030980954 -0.14716175 0.21352667 0.18510251
000150 4e 6e fc bd 3f 7c 2c 3c 4e 8b 1d be 79 c1 a2 be
       -0.123257264 0.010527669 -0.15385172 -0.31788233
000160 a2 3e c4 3d db 10 3a 3c ca 45 3b be 07 42 90 bd
       0.09582259 0.011356558 -0.18288341 -0.07043844
000170 c5 75 12 bd 5f df 61 3d 95 d3 67 be 5e 5c 26 be
       -0.035756845 0.055144664 -0.22639306 -0.16246173
000180 07 1d 82 3e 2b 23 f2 bd 49 e3 db 3d f6 14 ee bb
       0.2541277 -0.11823114 0.107367106 -0.0072656823
000190 23 31 20 3d 68 27 80 ba 52 01 7c be 00 45 9a bd
       0.03910936 -0.0009777369 -0.24609879 -0.07532692
0001a0 e4 9a b7 bd f3 6b 2a 3e f5 5c 80 be 1d dd 5e be
       -0.0896509 0.16642742 -0.2507092 -0.21764036
0001b0 f9 11 d3 bd a8 ee 05 3e 7f a7 2d 3e ec 1b 87 3d
       -0.103061624 0.13079321 0.16958426 0.065971226
0001c0 6c a6 25 3e 09 42 cc 3e cf 30 84 be b8 c7 c4 3d
       0.16176766 0.3989413 -0.25818488 0.09608406
0001d0 42 ef 72 be 4d a9 c1 bd 05 c2 85 bd 37 41 c7 bd
       -0.23724082 -0.0945612 -0.06531147 -0.097292356
0001e0 ad 75 87 be b2 02 8a be 89 a6 cc be 5a 19 91 be
       -0.26456967 -0.2695518 -0.39970806 -0.28339654
0001f0 ed 72 f1 3d 84 9d 13 be af 4e 8c 3c f8 ca 83 be
       0.117894985 -0.14415556 0.017127363 -0.2574079
000200 38 5c 23 be 54 f4 e8 3d c2 9b 29 be 15 b7 3f be
       -0.15953147 0.11374727 -0.16563323 -0.18722184
000210 b5 33 5f bd 81 e1 35 3e 51 9a af bd c7 95 ef bd
       -0.05449267 0.17761804 -0.085743554 -0.1169849
000220 e2 98 7b 3d f0 ab 46 be c0 4a 84 3e a6 d8 a7 bc
       0.061425097 -0.19401526 0.2583828 -0.020489048
000230 dc 2b ac bd d1 7e 8d 3d 76 87 ac 3e b9 f2 99 bd
       -0.08406803 0.06908954 0.33697098 -0.07516999
000240 73 83 dc bd 4d 3d 02 3e 61 35 23 3e 2b 0d 71 3e
       -0.107672594 0.12718697 0.15938331 0.2354018
000250 70 0c 86 be b2 35 97 be
       -0.26181364 -0.29533154
